Source/Trained_Policies/WeightAgent_Training/WeightAgent_Training/WeightAgent_Training-153499991.pt (torch, 926628 bytes, 33 tensors)

network_body._body_endoder.seq_layers.0.weight f4 [128, 163]
0	0x3cf53908	0.029934421
1	0xbeaf7d0a	-0.34275085
2	0xbdb0bf5d	-0.0863025
3	0x3dc67f74	0.096922785
4	0x3ed3fa90	0.41402102
5	0x3e0d92f8	0.13825595
6	0xbdb8c54c	-0.090220064
7	0xbe87ab0c	-0.26497686
8	0x3ca2cd60	0.019873321
9	0x3eb77cf4	0.3583752
10	0xbd493327	-0.04912105
11	0xbebbd3be	-0.36684984
12	0xbe637549	-0.2221271
13	0x3ec6dcbd	0.38840285
14	0x3f259630	0.6468229
15	0x3e156fda	0.14593449
16	0xbd2684be	-0.040653937
17	0xbe3207fd	-0.1738586
18	0x3e5af137	0.21381079
19	0x3ede3961	0.43403152
20	0x3d344fef	0.044021543
21	0x3dd097c7	0.10185199
22	0xbe2b5cee	-0.16734669
23	0x3e96b051	0.29431394
24	0x3f5364be	0.82575595
25	0x3c80ec73	0.015737748
26	0xbd5e2771	-0.054236833
27	0x3d5bfd77	0.05370852
28	0x3d9bdfc3	0.076110385
29	0x3e9d9749	0.30779484
30	0xbdcf38b3	-0.101182364
31	0xbd61cf2c	-0.055129215
32	0xbe23a6d3	-0.15981607
33	0x3dec407b	0.11535736
34	0x3f0bd51e	0.54622066
35	0x3e0201b4	0.12695962
36	0x3dbfe93f	0.0937066
37	0xbceca20a	-0.02888586
38	0xbcfd1a09	-0.030896204
39	0x3e7f1b3a	0.2491273
40	0x3de055f6	0.10953896
41	0xbe262243	-0.16224007
42	0xbdf3d20f	-0.119053
43	0xbcaeafb7	-0.021324022
44	0x3ed6d32b	0.41957983
45	0x3e2ac12b	0.1667525
46	0x3d90d3f8	0.0707168
47	0x3e0ea241	0.13929082
48	0x3d90f192	0.07077326
49	0x3ec49dde	0.38401693
50	0xbe19c51c	-0.15016598
51	0xbe04b436	-0.1295937
52	0xbeafcede	-0.34337515
53	0x3e41b443	0.1891642
54	0x3ee1a4f9	0.44071177
55	0x3d82620c	0.06366357
56	0xbe035518	-0.1282543
57	0xbe6e8325	-0.23292215
58	0x3e3fe26d	0.18738718
59	0x3ec1f4a8	0.3788197
60	0xbe010e32	-0.12603071
61	0xbdebad1d	-0.11507628
62	0xbedf90fd	-0.43665305
63	0x3e26cd87	0.1628934
64	0x3ea8feb4	0.33006823
65	0x3d6bb734	0.057547763
66	0xbe557d6c	-0.20848626
67	0x3d889849	0.06669671
68	0x3d4097b4	0.047019675
69	0x3e9e9cc0	0.30978966
70	0xbded0874	-0.11573878
71	0x3c03bc69	0.008040526
72	0xbd99ff9f	-0.07519459
73	0x3d94fe96	0.07275121
74	0x3e6226b5	0.22085078
75	0x3dc5d0bc	0.096589535
76	0xbd6d0e78	-0.057875127
77	0x3d961624	0.07328442
78	0x3e4c8337	0.1997193
79	0x3dd75224	0.10513714
80	0xbcb3ad0a	-0.021933097
81	0x3da0e4c1	0.07856131
82	0xbdf66503	-0.12030985
83	0xbd5404b5	-0.0517623
84	0xbd14e6f3	-0.036353063
85	0x3e705d25	0.23473032
86	0x3e517e2b	0.20458286
87	0x3a881e0e	0.0010384934
88	0x3e7b1b01	0.2452202
89	0x3e818436	0.2529618
90	0xbd5fea9d	-0.054667104
91	0x3e3399ca	0.17539135
92	0xbe62753e	-0.22115037
93	0x3e9677e1	0.29388335
94	0xbd5088df	-0.05091178
95	0x3e654d80	0.22392845
96	0x3e1470fa	0.14496222
97	0x3e907775	0.28216138
98	0x3cdb664a	0.026782174
99	0x3d2039b5	0.039117534
100	0xbe62a6b0	-0.22133899
101	0x3d19d88a	0.037560023
102	0xbdcfbdab	-0.10143598
103	0x3d1fcac5	0.039011735
104	0x3cdf6961	0.027271928
105	0x3d72a7f3	0.0592422
106	0x3d801363	0.06253698
107	0x3e4b7921	0.19870426
108	0x3d99a763	0.075026296
109	0xbd0589a8	-0.032601982
110	0xbe651036	-0.22369465
111	0x3d8062b1	0.06268824
112	0xbd378622	-0.044805653
113	0xbdf6e161	-0.12054706
114	0x3cb102ba	0.021607745
115	0xbd8a54cc	-0.06754455
116	0x3dab2cc5	0.083581485
117	0x3e85f329	0.2616208
118	0x3d849cac	0.06475195
119	0x3cf4c7f6	0.029880505
120	0xbe7237e2	-0.2365413
121	0x3c3f3104	0.011669401
122	0xbdba3e6c	-0.09093937
123	0xbd18e11e	-0.037324063
124	0xbe7b08e7	-0.24515115
125	0x3dc7cf44	0.0975633
126	0x3e1124eb	0.1417424
127	0x3e4dae45	0.2008601
128	0xbdc4e9de	-0.09614919
129	0xbe0283fa	-0.12745658
130	0xbe905454	-0.28189337
131	0x3e83dfb6	0.25756615
132	0x3cec94c4	0.02887953
133	0x3ddd438b	0.108038984
134	0x3c7cf754	0.015439827
135	0x3aedc072	0.0018139018
136	0x3dbcce80	0.09219074
137	0xbd441379	-0.047870133
138	0x3d84c03f	0.064819805
139	0xbe4b5910	-0.19858193
140	0xbe516353	-0.20448045
141	0x3cabb9c9	0.020962613
142	0x3e3844c3	0.1799498
143	0x3e90cd94	0.28281844
144	0xbcf65ee3	-0.030074542
145	0xbe878b8e	-0.2647366
146	0x3d205767	0.039145853
147	0x3e87d021	0.26525977
148	0xbd90c584	-0.07068923
149	0xbdf96a85	-0.1217852
150	0xbe73464d	-0.23757286
151	0x3e339d43	0.1754046
152	0x3e224bf6	0.1584929
153	0x3cd1c187	0.025604976
154	0xbe17d978	-0.14829051
155	0xbd86d58a	-0.06583698
156	0xbeeca65a	-0.46220666
157	0xbe872ace	-0.26399845
158	0xbea6892a	-0.32526523
159	0xbd1bfd8d	-0.0380836
160	0x3de315ce	0.11088143
161	0xbc78d4f9	-0.015187495
162	0xbdabded4	-0.083921105
163	0xbe5abd1f	-0.21361206
164	0xbf14ceca	-0.58128035
165	0xbd44f515	-0.04808529
166	0x3e304066	0.17212066
167	0x3ebef114	0.37293303
168	0xbde92a94	-0.11385074
169	0xbe8dd857	-0.27704117
170	0x3d8e8f32	0.06960906
171	0xbb22bad6	-0.0024830601
172	0x3e9c2238	0.30494857
173	0xbd2f5451	-0.04280502
174	0x3d989b17	0.07451456
175	0xbde795c9	-0.11307866
176	0xbd935390	-0.07193673
177	0x3ee6377b	0.44964203
178	0x3deab8af	0.11461007
179	0x3db054f5	0.08609954
180	0x3e43c160	0.19116735
181	0x3e95f762	0.292903
182	0x3f1a124c	0.6018417
183	0xbdb06560	-0.08613086
184	0xbed657cc	-0.4186386
185	0xbe5b3749	-0.21407808
186	0xbe88861a	-0.2666481
187	0x3f00dd6c	0.5033786
188	0x3e057647	0.130334
189	0x3edcb150	0.4310403
190	0x3b65914c	0.003502923
191	0x3e29ed18	0.1659435
192	0x3f0258a5	0.5091651
193	0xbe21660d	-0.15761586
194	0x3de258be	0.110520825
195	0xbe01b402	-0.12666324
196	0xbf1dc884	-0.6163409
197	0x3e8f61c7	0.28004286
198	0x3bb66dca	0.005567287
199	0x3d7e8760	0.062140822
200	0xbcbbac75	-0.022909382
201	0x3d59cce1	0.053173903
202	0x3ea53172	0.32264286
203	0xbeab7160	-0.33484936
204	0x3ee8dd70	0.45481443
205	0xbee67a04	-0.45014966
206	0xbe6e583a	-0.23275843
207	0x3de039bc	0.10948512
208	0x3df09350	0.11746848
209	0xbdb5d8ee	-0.08879267
210	0xbe634c2c	-0.22197026
211	0xbe282924	-0.16421944
212	0x3e9f5117	0.31116554
213	0xbe9e04d3	-0.30863056
214	0x3ea126f3	0.31475028
215	0xbeee2781	-0.46514514
216	0xbec41ef5	-0.38304868
217	0x3e394192	0.1809142
218	0x3cd4dd95	0.025984565
219	0xbdd1c126	-0.10241918
220	0xbe649d74	-0.22325689
221	0xbdf0a716	-0.11750619
222	0x3e8cdbdb	0.27511486
223	0xbe829663	-0.2550536
224	0x3da78d2b	0.081812225
225	0xbed78600	-0.4209442
226	0x3e09e446	0.13465986
227	0x3df8a6cf	0.12141191
228	0xb9860996	-0.00025565614
229	0xbdedafe3	-0.11605813
230	0xbe16afd3	-0.14715509
231	0xbefef750	-0.4979806
232	0xbd7f8e59	-0.062391613
233	0xbf0fe644	-0.5621073
234	0x3d8cb1d2	0.06869854
235	0xbe8a3777	-0.2699544
236	0x3c2ad2d6	0.010426244
237	0xbc9cb296	-0.019128125
238	0xbc910e11	-0.017706903
239	0x3e86e4bb	0.26346382
240	0xbee60aa9	-0.44930008
241	0xbf33b1f4	-0.7019341
242	0xbd800692	-0.06251253
243	0xbe0454cc	-0.12922972
244	0xbd16ed93	-0.036847662
245	0x3ddc14bf	0.107461445
246	0xbd14ce7e	-0.03632974
247	0xbdc3fc09	-0.09569556
248	0x3c5650e1	0.0130808065
249	0x3df7da29	0.121021576
250	0xbef73f71	-0.4829059
251	0xbe8af54f	-0.2714028
252	0xbd487b1a	-0.048945524
253	0x3d2bb20d	0.04191785
254	0xbe57b448	-0.21064866
255	0x3cae722e	0.02129468

network_body._body_endoder.seq_layers.0.bias f4 [128]
0	0xb9e01812	-0.00042742543
1	0x3d8b5a9a	0.0680439
2	0x3de3005d	0.11084054
3	0xbe59ad63	-0.21257548
4	0xbda76cc0	-0.08175039
5	0x3ea8bee8	0.3295815
6	0x3d0f9110	0.03505045
7	0x3cde11dd	0.027108127
8	0xbe7a72e9	-0.24457897
9	0x3d94b0ff	0.07260322
10	0xba3cb308	-0.00071983086
11	0xbde33c83	-0.11095526
12	0xbd2f45fc	-0.04279135
13	0x3e3e368e	0.18575498
14	0x3cfd8acd	0.030949974
15	0x3de42ab9	0.11140961
16	0xbdc3343a	-0.09531446
17	0xbe07011b	-0.13184015
18	0xbd10c4ee	-0.035344057
19	0x3e1f0ffd	0.15533443
20	0xbe271f63	-0.16320567
21	0x3e030600	0.12795258
22	0x3e2d7c74	0.16942006
23	0x3e447529	0.19185318
24	0x3e912c82	0.2835427
25	0x3db4dd59	0.08831281
26	0x3e882c39	0.2659624
27	0xbdc721c0	-0.09723234
28	0x3e06bbcd	0.13157578
29	0x3dc06846	0.093948886
30	0x3e1d4894	0.15359718
31	0x3d3d708f	0.046249922
32	0xbe5b54b4	-0.2141903
33	0xbcd064d6	-0.025438707
34	0x3e37a598	0.17934263
35	0x3c861a4f	0.016369967
36	0x3e00c530	0.12575221
37	0x3d697938	0.05700037
38	0xbe23678a	-0.15957466
39	0x3d633563	0.055470835
40	0xbe099f67	-0.13439713
41	0x3d68920a	0.0567799
42	0xbba36c3f	-0.004987269
43	0xbd73a7fa	-0.059486367
44	0xbd7b6bb2	-0.061382003
45	0x3dfb3b68	0.1226719
46	0xbd42734f	-0.047473248
47	0x3cb805a0	0.02246362
48	0x3ca58b5e	0.020208057
49	0x3dc033f8	0.09384912
50	0x3d6f18e2	0.05837334
51	0xbdd913fc	-0.10599515
52	0xbd95919e	-0.07303165
53	0x3e23765d	0.15963121
54	0x3dd80e04	0.10549548
55	0x3db02315	0.08600441
56	0x3e58cd22	0.21172002
57	0x3a4a2d50	0.00077124406
58	0xbc56c947	-0.013109512
59	0x3d3cd5d5	0.046102364
60	0xbde30bbe	-0.11086224
61	0xbc6d3def	-0.014480098
62	0x3d259a5f	0.040430423
63	0x3e17f694	0.14840156
64	0x3e51888e	0.20462248
65	0xbce787c6	-0.028262984
66	0xbe2e83dd	-0.1704249
67	0x3ddb849a	0.10718651
68	0xbc892be7	-0.016744567
69	0xbe006e6d	-0.12542124
70	0x3d47de3e	0.04879593
71	0x3d610a39	0.05494139
72	0x3da5db87	0.08098512
73	0x3d05fe16	0.03271302
74	0x3da6b862	0.08140637
75	0xbd6c7591	-0.057729308
76	0x3e0d6f62	0.1381202
77	0x3e40499a	0.18778077
78	0xbcf4fb35	-0.029904941
79	0x3e5ba60e	0.21450064
80	0x3d692616	0.056921087
81	0x3d947576	0.072489664
82	0x3da756f3	0.08170881
83	0xbe6ceca3	-0.23137145
84	0xbe2034a5	-0.15645082
85	0xbd4b7b14	-0.049677923
86	0xbdaa2abb	-0.083089314
87	0x3e0e5c9d	0.13902517
88	0x3e1f8636	0.15578541
89	0x3e1fcbd2	0.15605095
90	0xbdfb25db	-0.1226308
91	0xbe10e94d	-0.14151497
92	0xbd07d785	-0.03316452
93	0xbd6267f8	-0.055274934
94	0x3d83b577	0.06431096
95	0x3e87627f	0.26442334
96	0xbb323a5e	-0.0027195434
97	0xbd600707	-0.0546942
98	0x3e35c0e3	0.17749362
99	0x3e7efe45	0.24901684
100	0x3dd37b87	0.10326295
101	0x3e480d09	0.19536223
102	0xbdcd3f0a	-0.10021789
103	0xbda3f3e5	-0.080055036
104	0x3dea6463	0.114449285
105	0x3d9560d8	0.07293862
106	0xbd28b889	-0.04119161
107	0xbc8866f1	-0.016650649
108	0xbe9d46bc	-0.3071803
109	0x3dd2cfdb	0.102935515
110	0xbd41871e	-0.047248
111	0xbc5060f4	-0.012718428
112	0xbc24e7a1	-0.01006499
113	0xbd8383d9	-0.06421632
114	0x3e178f8c	0.14800853
115	0xbe3cc3f7	-0.1843413
116	0xbdc10b09	-0.09425933
117	0xbdc3237f	-0.09528255
118	0xbc8a93f5	-0.016916255
119	0xbe34601e	-0.17614791
120	0xbd9755bf	-0.07389402
121	0x3e29c2c6	0.16578206
122	0xbda5a988	-0.08088976
123	0x3cb15a5d	0.021649534
124	0xbe2a8077	-0.16650568
125	0x3d0eff31	0.03491134
126	0xbe0eb199	-0.13934936
127	0xbdd1a3a4	-0.1023629

network_body._body_endoder.seq_layers.2.weight f4 [128, 128]
0	0x3dbb9dbb	0.09160944
1	0x3e07197a	0.13193312
2	0xbeda5996	-0.42646474
3	0xbdc6f0c9	-0.09713895
4	0x3df72eb8	0.12069458
5	0xbcd56046	-0.026046883
6	0xbdb6bf48	-0.08923203
7	0xbea2b985	-0.31782165
8	0x3a900584	0.0010987972
9	0xbe32ac1f	-0.17448471
10	0x3de8fdce	0.113765344
11	0xbe11e8aa	-0.1424891
12	0x3e9fbe8d	0.31200066
13	0xbebfde47	-0.37474272
14	0x3dce67fa	0.10078426
15	0xbe1a639e	-0.15077063
16	0x3dd35409	0.10318763
17	0x3cc3f755	0.023921648
18	0xbeeff379	-0.46865442
19	0xbd97ee26	-0.0741847
20	0xbf1bfcd6	-0.6093267
21	0x3e34eda9	0.17668785
22	0xbe98eb68	-0.298671
23	0xbeaf55dd	-0.34245196
24	0x3e48f13c	0.19623274
25	0xbee39a31	-0.44453576
26	0x3e15b937	0.14621435
27	0x3cac6fe7	0.021049453
28	0xbe0572ac	-0.13032025
29	0xbbf7a1a2	-0.00755711
30	0xbe1804f2	-0.14845636
31	0xbdfecd9a	-0.12441559
32	0x3da7668a	0.08173855
33	0xbd89b2cb	-0.06723555
34	0xbf1ae851	-0.60510737
35	0xbd861b31	-0.06548155
36	0xbeb20ac1	-0.3477383
37	0x3e103120	0.1408124
38	0xbd32b2d9	-0.043627594
39	0x3990c191	0.00027610039
40	0x3e13b605	0.14424904
41	0x3d8367ec	0.06416306
42	0xbda4efcb	-0.080535494
43	0xbd8455d3	-0.06461682
44	0x3eaed17e	0.34144205
45	0xbf02a8bd	-0.51038724
46	0xbe5e8429	-0.21730103
47	0xbe7d7a49	-0.2475368
48	0x3e0a7b88	0.13523686
49	0x3df288ee	0.118425235
50	0x3f0baf1a	0.5456406
51	0xbf29e8c2	-0.66370785
52	0xbe460bdd	-0.19340463
53	0xbec2d7d8	-0.380553
54	0xbe9f21de	-0.31080526
55	0xbb51aef1	-0.0031995142
56	0xbebf7346	-0.37392634
57	0x3e20a80c	0.15689105
58	0x3d9bb2bb	0.076024495
59	0xbef07846	-0.4696676
60	0x3a5eba6f	0.00084964087
61	0x3d177f45	0.036986608
62	0xbdb13252	-0.08652176
63	0x3e2cb643	0.16866402
64	0x3cef697e	0.029225107
65	0xbd90c281	-0.07068349
66	0x3c8de0af	0.017319052
67	0xbe8f04df	-0.27933404
68	0x3e472983	0.19449429
69	0xbe438ded	-0.19097109
70	0x3f1a6c23	0.60321254
71	0xbe3cce1b	-0.18437998
72	0xbee9e458	-0.45682025
73	0x3e40ec56	0.18840155
74	0xbdc1e81f	-0.09468102
75	0x3e24ee24	0.16106468
76	0x3ed16169	0.4089463
77	0x3c8301d9	0.015992092
78	0xbcd4de4f	-0.025984911
79	0xbe32ed60	-0.17473364
80	0xbab2b010	-0.0013632793
81	0x3b455d9e	0.0030115615
82	0xbea9c080	-0.33154678
83	0xbdf47f5d	-0.11938355
84	0xbec85d8d	-0.39133874
85	0xbe1db80b	-0.15402238
86	0x3e68a5f4	0.22719556
87	0x3ea95389	0.33071545
88	0xbeac4c16	-0.336518
89	0x3c6c8a3d	0.014437255
90	0xbe1e5cb5	-0.15465052
91	0xbded0b11	-0.115743764
92	0xbd4f82f0	-0.05066198
93	0xbea37beb	-0.3193048
94	0xbe3c100d	-0.18365498
95	0xbdb5267b	-0.0884523
96	0xbe0006d2	-0.12502602
97	0xbe2c2a44	-0.16812998
98	0xbc70072b	-0.0146501465
99	0xbdd02ea8	-0.10165149
100	0x3e503b1c	0.20335048
101	0xbcb3a837	-0.021930797
102	0xbdf408b6	-0.11915724
103	0x3d6186c8	0.055060178
104	0x3e669bd7	0.22520386
105	0x3ee630b6	0.44959038
106	0xbe825886	-0.25458163
107	0x3e6b6128	0.22986281
108	0xbccd4e42	-0.02506173
109	0xbcd69f59	-0.02619903
110	0xbdb1b4fc	-0.08677098
111	0xbc98565f	-0.018595872
112	0xbc3c4388	-0.01149071
113	0x3cea9e01	0.028639795
114	0xbc6ce6d9	-0.014459335
115	0xbecf13cc	-0.4044479
116	0xbeefce57	-0.46837112
117	0x3af0c9c0	0.0018370673
118	0xbe8b6129	-0.27222565
119	0xbedb96ec	-0.42888582
120	0x3e3f64e3	0.18690829
121	0x3e7490a5	0.23883303
122	0x3d845c35	0.064628996
123	0x3e91fa67	0.28511354
124	0xbe78ef3c	-0.2431001
125	0xbd83222e	-0.06403004
126	0x3eac119f	0.33607194
127	0xbe97f0d6	-0.2967593
128	0xbee49b84	-0.446499
129	0xbe4302e5	-0.19044073
130	0xbf03e264	-0.5151732
131	0x3dd98ad2	0.10622181
132	0xbe50b3a6	-0.2038103
133	0xbf0f8a2e	-0.5607022
134	0xbe7fe35b	-0.24989073
135	0x3ec0c8c6	0.37653178
136	0xbd45304b	-0.04814176
137	0x3e2cfbc9	0.16892923
138	0xbda4e290	-0.08051026
139	0x3cade1b5	0.02122579
140	0x3e5b9fef	0.21447729
141	0xbea7bdf2	-0.32762104
142	0xbe7301ba	-0.23731127
143	0x3c91718f	0.017754344
144	0xbdafdc53	-0.085869454
145	0xbe1e972b	-0.15487354
146	0x3ea330ff	0.3187332
147	0xbf2a7b0e	-0.66594017
148	0x3e217f13	0.15771131
149	0x3e9ee627	0.31034967
150	0xbeb85c82	-0.36008078
151	0xbed31eb5	-0.41234365
152	0xbeae8c9d	-0.34091654
153	0xbec35768	-0.38152623
154	0x3eb1d049	0.3472922
155	0x3ddeb977	0.10875218
156	0xbe80928e	-0.25111812
157	0xbef2535d	-0.47329226
158	0xbdb64cc6	-0.08901362
159	0x3d2eacd0	0.042645276
160	0xbc966fcd	-0.018363858
161	0xbe93c10a	-0.28858215
162	0xbe917f5c	-0.2841748
163	0x3e921e05	0.28538528
164	0xbc5e0134	-0.013550092
165	0x3c735095	0.014850755
166	0x3e758cb4	0.23979455
167	0x3d51e1bb	0.051240664
168	0xbea5c698	-0.32378078
169	0xbeb99492	-0.36246163
170	0x3e70d6aa	0.23519388
171	0xbe588af2	-0.21146753
172	0x3e6d9235	0.23200305
173	0xbd96ba12	-0.07359709
174	0xbe3004d0	-0.17189336
175	0xbdd666ec	-0.104688495
176	0xbebf18e6	-0.37323684
177	0xbe621e4c	-0.2208187
178	0xbeaa9d07	-0.33322927
179	0xbcc99f05	-0.02461196
180	0xbccfd9b2	-0.02537236
181	0xbe84e247	-0.25953886
182	0x3e36e127	0.17859326
183	0xbe21f3e6	-0.15815696
184	0xbe6a7618	-0.22896612
185	0xbdb93a24	-0.090442926
186	0xbe938f0a	-0.28820068
187	0xbed11dd6	-0.40843076
188	0xbe8c875f	-0.2744703
189	0x3ea2c75a	0.31792718
190	0xbdcf364f	-0.101177804
191	0xbe2a078e	-0.16604444
192	0x3d70e660	0.058813453
193	0x3e1ad6a5	0.15120943
194	0x3e0e6952	0.13907364
195	0x3e1e52d9	0.15461291
196	0xbe4e75ae	-0.20162079
197	0xbef52ac4	-0.4788419
198	0xbea00b5d	-0.3125867
199	0xbe2ad985	-0.1668454
200	0xbd2b0e17	-0.041761484
201	0x3d4390ad	0.047745395
202	0xbe7ee524	-0.24892098
203	0x3c26e63e	0.01018673
204	0xbe9b0bf9	-0.30282572
205	0xbd063438	-0.032764643
206	0x3e2f3083	0.1710835
207	0xbe7b7443	-0.24556069
208	0xbed5e67f	-0.41777417
209	0x3ddf1371	0.1089238
210	0xbe88275b	-0.26592526
211	0xbe0bcb7a	-0.13651839
212	0xbea4c5fa	-0.32182294
213	0xbd8bd990	-0.06828606
214	0x3d309ee3	0.043120276
215	0xbe2ffa66	-0.17185363
216	0x3e3e4312	0.18580273
217	0xbe6a346b	-0.22871558
218	0x3e522f0b	0.20525758
219	0x3de56479	0.11200804
220	0x3d836c11	0.064170964
221	0xbe991e37	-0.29905865
222	0xbdadf868	-0.08494645
223	0xbe78728a	-0.24262443
224	0x3cc27d17	0.023741288
225	0xbf025ffe	-0.5092772
226	0xbd14ad4d	-0.036298085
227	0x3e574f27	0.21026288
228	0xbe3e3c0b	-0.18577592
229	0x3aa5e24a	0.001265594
230	0x3e3b1b1a	0.18272057
231	0x3df9d7cf	0.12199365
232	0xbe061ac5	-0.1309615
233	0xbeb5cc94	-0.35507643
234	0xbdf8df3e	-0.12151955
235	0x3e131224	0.14362389
236	0x3c7b8178	0.015350692
237	0xbd833e44	-0.064083606
238	0xbcf46a6a	-0.029835898
239	0x3d4a3759	0.04936919
240	0x3dda8b7f	0.10671138
241	0xbeee74f1	-0.46573594
242	0xbeca7ec1	-0.3954983
243	0xbe5f18ab	-0.21786754
244	0xbe7fc9c3	-0.2497931
245	0xbe1c634f	-0.15272258
246	0xbea58af1	-0.32332566
247	0xbe117f44	-0.14208704
248	0xbd1fdf5a	-0.039031364
249	0xbe938bd4	-0.28817618
250	0x3c2cf5f7	0.010556689
251	0xbe838745	-0.2568914
252	0x3de7cbef	0.11318194
253	0xbe4fb0e9	-0.2028233
254	0x3d74d56a	0.05977384
255	0xbe5ccee3	-0.21563296

network_body._body_endoder.seq_layers.2.bias f4 [128]
0	0xbe1b9346	-0.15192899
1	0x3d6e8a41	0.058237318
2	0xbdebe17c	-0.11517617
3	0xbdae7e37	-0.08520167
4	0x3d08203d	0.03323387
5	0xbd9e365f	-0.07725214
6	0xbdf89d24	-0.12139347
7	0xbd7499ca	-0.059716977
8	0x3d740825	0.05957808
9	0x3e6ba557	0.23012291
10	0x3e724772	0.23660067
11	0x3e1a5edb	0.15075247
12	0x3e08e8ff	0.13370131
13	0xbd8e25c7	-0.06940799
14	0x3daea0d6	0.08526771
15	0x3de35618	0.111004055
16	0x3d934488	0.07190806
17	0x3e1909f9	0.1494521
18	0xbc2169eb	-0.009851913
19	0x3cdfd7df	0.027324615
20	0x3e677edd	0.22606988
21	0x3cc04893	0.023472106
22	0x3df5b015	0.119964756
23	0xbd88ed2d	-0.06685863
24	0x3de6f1e3	0.11276605
25	0xbe0049dc	-0.12528175
26	0x3cc3ecac	0.023916565
27	0x3c22c18b	0.00993384
28	0xbd85aff5	-0.06527702
29	0x3d2417e5	0.04006185
30	0x3eab95ae	0.33512634
31	0xbe111b06	-0.14170465
32	0xbdaf5244	-0.08560613
33	0x3da00610	0.07813656
34	0x3de6f18c	0.1127654
35	0xbcda2c2e	-0.026632395
36	0xbd3c43be	-0.04596304
37	0xbda11b45	-0.078665294
38	0xbd6490d9	-0.0558022
39	0xbdf9661c	-0.12177679
40	0xbdc57ad0	-0.09642565
41	0x3ca2a3d0	0.019853503
42	0x3d5394d9	0.051655624
43	0x3e05d054	0.13067752
44	0x3db4294c	0.08796939
45	0x3e5018f1	0.20322014
46	0xbe0a1e82	-0.134882
47	0x3dc9c278	0.09851545
48	0x3cfbbd6e	0.030729976
49	0x3e19bb33	0.15012817
50	0x3dffd3ce	0.124915704
51	0x3cde7057	0.027153177
52	0x3d690d49	0.056897435
53	0x3d63c941	0.055611853
54	0x3cad1265	0.021126935
55	0x3d939b8d	0.07207403
56	0x3e762ce9	0.2404057
57	0x3d33a2eb	0.043856543
58	0x3dffefff	0.124969475
59	0xbe301663	-0.1719604
60	0xbd0b8372	-0.034060903
61	0x3e5bae40	0.2145319
62	0xbe419247	-0.18903457
63	0x3dd69242	0.10477115
64	0xbccaa4fe	-0.024736878
65	0xbd060404	-0.032718673
66	0xbce5e36a	-0.028062541
67	0xbce9c637	-0.028536899
68	0xbd4c4600	-0.049871445
69	0x3dcd3c85	0.10021309
70	0xbd9d0144	-0.07666257
71	0x3ec3d4e6	0.38248366
72	0xbe48e60a	-0.19619003
73	0x3e148fa9	0.14507927
74	0xbe04f6b9	-0.12984742
75	0xbd95267f	-0.07282733
76	0xbcb5fc3f	-0.022215007
77	0x3e52693f	0.2054796
78	0xbc8c3b60	-0.017118156
79	0x3e1aaaaf	0.15104173
80	0x3d845213	0.06460967
81	0x3e7786fe	0.24172589
82	0x3e77562a	0.24153963
83	0xbd445051	-0.04792816
84	0xbd858456	-0.06519382
85	0xbe647ec8	-0.22313988
86	0xbc41be53	-0.011825162
87	0xbded05ab	-0.11573347
88	0x3d5ada24	0.05343069
89	0x3e8d1420	0.27554417
90	0x3e24816a	0.16064993
91	0x3e2ea47b	0.17054932
92	0xbd5f1a1d	-0.054468263
93	0x3de0f73a	0.10984655
94	0xbc907f72	-0.017638896
95	0xbc92233b	-0.017839065
96	0x3c8d8bdc	0.017278604
97	0x3ddede59	0.10882253
98	0x39225cec	0.0001548414
99	0xbddf1cdd	-0.10894177
100	0x3e394ee0	0.18096495
101	0x3e1cbd3f	0.15306567
102	0x3ec8d66e	0.39226097
103	0x3db65065	0.08902053
104	0x3e49bca6	0.1970087
105	0x3aa9dcea	0.0012959514
106	0x3e6a3103	0.22870259
107	0x3d22031d	0.03955375
108	0xbdf6ac63	-0.12044599
109	0x3e9899b6	0.29804772
110	0xbc10eee1	-0.008846016
111	0xbd4bf04c	-0.04978971
112	0x3e3451bc	0.17609304
113	0xbd67a1f4	-0.056550935
114	0x3dc6e79f	0.09712147
115	0x3c9f73cc	0.019464396
116	0x3e3ea739	0.18618478
117	0x3e05429e	0.13013694
118	0x3dbb09cb	0.09132727
119	0x3c4f077a	0.01263606
120	0x3d35ef68	0.04441777
121	0x3c387b77	0.011259905
122	0x3e549ff9	0.2076415
123	0x3eabd252	0.335589
124	0xbe041449	-0.12898363
125	0x3d1b8397	0.03796729
126	0x3ccefb05	0.02526618
127	0xbe13798f	-0.1440184

action_model._discrete_distribution.branches.0.weight f4 [7, 128]
0	0xbe93c6ac	-0.28862512
1	0x3e8838dd	0.26605883
2	0x3e5d6ffb	0.21624748
3	0xbf101388	-0.562798
4	0x3e6a4ccb	0.22880857
5	0xbda959b6	-0.08269064
6	0xbe6e62fb	-0.23279946
7	0x3dd44ae4	0.10365847
8	0x3d2fbdcd	0.042905618
9	0x3d9eac11	0.07747663
10	0x3ec319e6	0.38105696
11	0x3e589fec	0.21154755
12	0xbd1648eb	-0.036690634
13	0x3e8e631a	0.27809983
14	0x3d01c4ac	0.0316817
15	0xbdb695ca	-0.08915289
16	0x3c98d4b9	0.018656122
17	0x3d337351	0.043811146
18	0x3d02a141	0.031892065
19	0xbd0e626d	-0.034761835
20	0x3dd74064	0.105103284
21	0x3e3ab510	0.18233132
22	0xbe16f14f	-0.1474049
23	0xbcba9bef	-0.022779433
24	0x3d30fcc5	0.04320981
25	0xbe5e013e	-0.21680161
26	0x3e57f377	0.21088968
27	0x3d609c0d	0.05483632
28	0x3d8e0898	0.06935233
29	0x3d4711ac	0.048600838
30	0xbe3df2d0	-0.18549657
31	0x3e16838c	0.14698619
32	0x3c5ef424	0.013608012
33	0xbe061271	-0.13092972
34	0xbe970bd3	-0.2950121
35	0xbdab2c21	-0.08358026
36	0x3e418e38	0.18901908
37	0xbe344fd4	-0.17608577
38	0xbec0cc85	-0.37656036
39	0x3d435b18	0.047694296
40	0x3df6b2e4	0.120458394
41	0xbd9b9cdd	-0.07598279
42	0xbdb2d953	-0.087328576
43	0xbe073b27	-0.13206159
44	0x3e10f8dd	0.14157434
45	0x3e0b4b81	0.13603021
46	0x3d6dd1ce	0.058061413
47	0x3e048e1c	0.12944835
48	0xbdcaab47	-0.0989595
49	0x3e3f9752	0.18710068
50	0x3d3c4c33	0.045971107
51	0xbe6e5d22	-0.23277715
52	0xbe46e54e	-0.1942341
53	0xbe32259a	-0.17397156
54	0x3e7ecd8d	0.24883099
55	0xbcf27c3e	-0.029600259
56	0x3da30084	0.07959083
57	0xbc0196a0	-0.007909447
58	0x3d8e6a20	0.069538355
59	0xbe619119	-0.22028007
60	0x3e000905	0.1250344
61	0x3e25ee53	0.16204195
62	0xbd8f7708	-0.07005125
63	0x3e92bfbd	0.2866191
64	0xbd56655f	-0.05234277
65	0xbdd8dad4	-0.10588613
66	0xbe9713c6	-0.29507273
67	0x3ceaa351	0.028642328
68	0xbdc64850	-0.09681761
69	0x3e07069d	0.13186117
70	0xbebb245f	-0.36551186
71	0x3dbec837	0.09315532
72	0x3e84e09c	0.25952613
73	0x3d918e30	0.07107198
74	0x3e19d660	0.15023184
75	0x3e75d9fd	0.24008937
76	0xbe1d86d2	-0.15383461
77	0xbe98e414	-0.2986151
78	0x39c5a948	0.00037700892
79	0x3e52a7d8	0.2057184
80	0xbe0bd934	-0.13657075
81	0x3e80e333	0.2517334
82	0x3cf86395	0.030320922
83	0x3e51ae94	0.20476753
84	0xbe7e6679	-0.24843778
85	0xbdad88d5	-0.08473364
86	0xbd8e465a	-0.06947012
87	0x3cb7a65e	0.022418197
88	0x3b2bb5bd	0.0026200854
89	0x3e6bd3f4	0.23030072
90	0x3e0ec6c2	0.13943008
91	0x3cc05356	0.023477238
92	0x3dc28efc	0.09499928
93	0x3e923940	0.28559303
94	0xbe8c6178	-0.27418113
95	0x3d431660	0.04762876
96	0x3c39159f	0.011296659
97	0x3e737dbf	0.23778437
98	0x3e2f59ac	0.17124051
99	0x3db6efba	0.08932443
100	0xbb4a5521	-0.0030873495
101	0x3caca04e	0.021072533
102	0x3d18beba	0.037291266
103	0x3de7b5ea	0.11313994
104	0xbdbcb64f	-0.0921446
105	0x3dd64361	0.1046207
106	0xbe8c2688	-0.27373147
107	0xbda2e9ae	-0.07954727
108	0xbe54c749	-0.20779146
109	0x3e619bab	0.22032039
110	0xbd877f28	-0.0661605
111	0xbd5f7e90	-0.05456406
112	0x3dd2862c	0.102794975
113	0x3cf96f83	0.03044868
114	0x3d8458de	0.064622626
115	0xbc35f1d3	-0.011105019
116	0x3dcf6790	0.10127175
117	0x3de9c658	0.11414784
118	0x3dda33c9	0.106544085
119	0x3d9d5a1d	0.07683203
120	0xbdb1d9ae	-0.08684097
121	0xbd10a373	-0.035312127
122	0x3d5c52bc	0.05378984
123	0xbda8d7ec	-0.08244309
124	0xbe203fb5	-0.15649302
125	0x3e994b9e	0.29940504
126	0xbe406f75	-0.18792517
127	0x3d0adfdf	0.033904906
128	0xbdc5c07f	-0.09655856
129	0x3d3f5d76	0.04671999
130	0xbb55a37c	-0.0032598665
131	0x3d231cdb	0.03982244
132	0xbd8669bd	-0.06563137
133	0x3e5abf27	0.21361981
134	0x3e9d5414	0.3072821
135	0x3e7d718b	0.24750344
136	0x3eb4f303	0.35341653
137	0xbe2c3184	-0.16815764
138	0xbda47c60	-0.08031535
139	0xbecf46fc	-0.40483844
140	0x3e6b9f49	0.23009981
141	0x3d7b71dc	0.06138788
142	0x3cdfb56b	0.027308187
143	0x3ec16c6b	0.3777803
144	0xbe8ede4e	-0.2790398
145	0x3e0e1675	0.13875754
146	0x3e54cbe3	0.20780902
147	0x3d63653d	0.05551647
148	0x3d125828	0.035728604
149	0xbeca2165	-0.39478603
150	0x3d878e57	0.06618946
151	0x3e37d3b9	0.1795186
152	0x3e1a9f85	0.15099914
153	0x3e91377d	0.28362647
154	0x3d4663a8	0.048434883
155	0x3dbb5be6	0.091483876
156	0x3e829fed	0.2551264
157	0x3e7e4e1c	0.24834484
158	0xbee67d03	-0.4501725
159	0xbbde6c6f	-0.0067878286
160	0x3e96d048	0.2945578
161	0x3d9c1540	0.076212406
162	0x3d6308c2	0.055428274
163	0x3ea53e42	0.3227406
164	0x3e61f424	0.22065789
165	0xbdb059bd	-0.08610866
166	0xbd2e7634	-0.042593196
167	0xbe0a9035	-0.13531573
168	0x3d45a254	0.04825051
169	0x3e46ea20	0.19425249
170	0x3ea84f56	0.3287303
171	0x3dd1f337	0.10251468
172	0x3d42d86d	0.04756968
173	0xbdf98487	-0.12183481
174	0x3e20db85	0.1570874
175	0x3d5abf6d	0.053405214
176	0x3e3bdceb	0.18345992
177	0x3b9ba6b2	0.0047500962
178	0xbe91466d	-0.28374043
179	0x3e7552bf	0.23957346
180	0x3e3b9ff7	0.1832274
181	0x3e415e07	0.18883525
182	0x3f0cd75c	0.5501611
183	0xbda81632	-0.082073584
184	0xbd8b24a2	-0.067940965
185	0x3e278405	0.16358955
186	0xbde60d93	-0.11233058
187	0xbdd8cdb4	-0.1058611
188	0xbdfec475	-0.12439815
189	0xbe468be5	-0.19389303
190	0xbdce1dc4	-0.10064271
191	0xbda231cc	-0.07919654
192	0x3e89c9fd	0.26911917
193	0x3e6c602a	0.23083559
194	0xbdb71d51	-0.089411385
195	0xbe597dfb	-0.21239464
196	0x3d91b6f7	0.07114976
197	0x3e03b472	0.12861803
198	0xbe948e43	-0.29014787
199	0xbf18e577	-0.59725136
200	0x3e0ace73	0.13555317
201	0x3e8d3432	0.27578884
202	0xbda35629	-0.07975418
203	0x3deeea12	0.11665739
204	0x3e8a2ff5	0.26989713
205	0xbd327909	-0.04357246
206	0xbc53c855	-0.012926181
207	0x3d9645cf	0.07337534
208	0x3e9abb1f	0.30220887
209	0x3d01bbcb	0.031673234
210	0xbe8f6137	-0.28003857
211	0x3e2e36f2	0.17013147
212	0x3da26636	0.079296514
213	0xbc5af05a	-0.013362968
214	0x3c8e06d5	0.017337242
215	0xbd8e8b27	-0.06960135
216	0xbea8934d	-0.32924882
217	0xbe337a16	-0.17527041
218	0xbeadcb88	-0.33944345
219	0x3d94e9a6	0.072711274
220	0x3e9e9fcf	0.309813
221	0x3dce10a9	0.100617714
222	0x3d9a319b	0.07528993
223	0x3de3c3d2	0.11121334
224	0xbd4e7cfd	-0.050412167
225	0x3ccc80b9	0.024963723
226	0xbe72e9be	-0.23721978
227	0x3e44e262	0.19226983
228	0x3d7355a8	0.05940786
229	0x3e6341c5	0.22193058
230	0xbf237f02	-0.63865674
231	0x3e5037f8	0.2033385
232	0xbe704a84	-0.23465925
233	0x3e3f7f0d	0.1870081
234	0xbd7aaea1	-0.061201695
235	0xbd99405f	-0.07482981
236	0x3ecf39fe	0.40473932
237	0x3eefce35	0.4683701
238	0xbe23ff74	-0.16015416
239	0x3e45c40d	0.19313069
240	0xbef86e19	-0.48521498
241	0x3e927c6d	0.28610554
242	0xbdbd50cd	-0.09243927
243	0x3e9110fe	0.28333277
244	0x3c0b584d	0.008504939
245	0xbe0ef2a4	-0.13959748
246	0x3e3eb8f3	0.1862524
247	0x3dcde317	0.100530796
248	0x3ebf9323	0.37416944
249	0xbdf03f09	-0.11730773
250	0x3ee9042e	0.45511
251	0xbed265a7	-0.4109318
252	0xbeac43ad	-0.33645383
253	0xbe97d0be	-0.29651445
254	0x3e831228	0.2559979
255	0x3e86f111	0.26355794

action_model._discrete_distribution.branches.0.bias f4 [7]
0	0x3dea0fea	0.114288166
1	0xbc206250	-0.0097890645
2	0x3e1433af	0.1447284
3	0xbf00e807	-0.50354046
4	0xbeaf0613	-0.34184322
5	0x3bd4ccc3	0.006494136
6	0x3e7c0683	0.24611859

exp_avg f4 [128, 163]
0	0xb6b5d299	-5.418737e-06
1	0xb731932c	-1.0584288e-05
2	0x389b27c2	7.3983814e-05
3	0xb70282ac	-7.779028e-06
4	0xb80604f1	-3.195269e-05
5	0xb6b5c361	-5.4169655e-06
6	0xb711638a	-8.665849e-06
7	0x384f29da	4.9391623e-05
8	0x377eba53	1.5182962e-05
9	0xb9090c4d	-0.0001306992
10	0xb6607e41	-3.345209e-06
11	0xb64a4b8b	-3.0144317e-06
12	0x35a5d7d8	1.2356277e-06
13	0xb76bf1b8	-1.4063371e-05
14	0xb85101ec	-4.9831273e-05
15	0xb6b5f751	-5.4230118e-06
16	0x38354538	4.3218228e-05
17	0xb74581d0	-1.1772339e-05
18	0xb80e8ed6	-3.3988465e-05
19	0xb9483db1	-0.00019096468
20	0xb7a25ab8	-1.935415e-05
21	0xb7acb8d9	-2.0590074e-05
22	0xb56fd6bb	-8.934691e-07
23	0xb8484ccc	-4.775524e-05
24	0xb87da9f5	-6.0478185e-05
25	0xb6a1f2c2	-4.8264346e-06
26	0xb751c156	-1.2502385e-05
27	0x36eca301	7.0523242e-06
28	0xb862ec9a	-5.410295e-05
29	0xb9334478	-0.00017096277
30	0xb6be32b5	-5.6683443e-06
31	0xb7ad77e5	-2.0679037e-05
32	0xb614e614	-2.2187642e-06
33	0x37c35c3e	2.3288765e-05
34	0xb7fc8fc8	-3.0107694e-05
35	0xb6a21177	-4.8300094e-06
36	0xb853c39a	-5.048849e-05
37	0x3854b660	5.071459e-05
38	0xb820e617	-3.836126e-05
39	0xb9810ca2	-0.0002461421
40	0xb6bd2979	-5.637467e-06
41	0x36ea1172	6.9757743e-06
42	0xb61426fa	-2.2076406e-06
43	0xb8042917	-3.150952e-05
44	0xb882ca95	-6.236617e-05
45	0xb6a111fb	-4.800267e-06
46	0xb857e8f5	-5.1476953e-05
47	0x3826722f	3.9683826e-05
48	0xb6d1d07d	-6.2529566e-06
49	0xb9431406	-0.00018604108
50	0xb6bd5fcb	-5.6437907e-06
51	0x35d6a034	1.5990868e-06
52	0x33dadd38	1.01916555e-07
53	0xb8c81a1b	-9.541606e-05
54	0xb8fc1e55	-0.00012021946
55	0x35024da7	4.8541773e-07
56	0x38123623	3.485953e-05
57	0x380a79da	3.3015247e-05
58	0xb8bb5342	-8.932363e-05
59	0xb9327fff	-0.00017023085
60	0x36253533	2.4617882e-06
61	0xb6c44c83	-5.8501623e-06
62	0x3785816e	1.5915106e-05
63	0xb7756266	-1.4626048e-05
64	0xb7b510e3	-2.1584745e-05
65	0x35024da7	4.8541773e-07
66	0xb68d5d52	-4.2129914e-06
67	0x387132e8	5.7506288e-05
68	0xb869a21b	-5.57025e-05
69	0xb912e3cb	-0.00014008505
70	0x362535b0	2.4618166e-06
71	0xb4b46095	-3.3597885e-07
72	0x38533c06	5.036222e-05
73	0xb743ef05	-1.1678557e-05
74	0xb7c19583	-2.3077015e-05
75	0x35024da8	4.854178e-07
76	0xb5a1db1c	-1.2059204e-06
77	0x3813a07a	3.5196987e-05
78	0xb8382209	-4.3900716e-05
79	0xb8f9fe7a	-0.00011920645
80	0x362535b0	2.4618166e-06
81	0xb71c2a31	-9.308148e-06
82	0x370b0bb2	8.287769e-06
83	0x37317029	1.0576136e-05
84	0xb8299413	-4.0430645e-05
85	0x35024da8	4.854178e-07
86	0xb6e5af46	-6.8451363e-06
87	0x3528a570	6.282562e-07
88	0xb7854d19	-1.5890737e-05
89	0xb9073c31	-0.00012897026
90	0xb73c5d97	-1.1227464e-05
91	0x37041044	7.8716e-06
92	0x384026a2	4.5812347e-05
93	0x3817aa91	3.6160058e-05
94	0xb7caecc3	-2.4190527e-05
95	0x35025b86	4.856196e-07
96	0xb829d245	-4.048857e-05
97	0xb76874b2	-1.3855448e-05
98	0x36f90cf0	7.4222844e-06
99	0xb8d5fb43	-0.000102034326
100	0x3707e26e	8.099347e-06
101	0x38a65f8b	7.933293e-05
102	0x3834831e	4.3037457e-05
103	0xb6b0c773	-5.2684277e-06
104	0xb8bc9ae8	-8.993392e-05
105	0xb3ebc313	-1.0978524e-07
106	0xb6df140b	-6.648251e-06
107	0x35cb9c28	1.5170126e-06
108	0x381f7000	3.8012862e-05
109	0xb83e8dd0	-4.5431603e-05
110	0x3707d8f1	8.097138e-06
111	0xb828ddac	-4.026077e-05
112	0x37ff5f19	3.0442652e-05
113	0xb7e475c0	-2.723455e-05
114	0xb8ba8607	-8.894136e-05
115	0xb2799d18	-1.45294266e-08
116	0xb7bc88c8	-2.247504e-05
117	0x3589fba0	1.0280528e-06
118	0x38882d93	6.493474e-05
119	0xb81061b6	-3.4423276e-05
120	0x302f0222	6.366766e-10
121	0xb78698a0	-1.6045116e-05
122	0xb7446d84	-1.1708009e-05
123	0x381bad76	3.7116428e-05
124	0xb882a3f0	-6.229419e-05
125	0xb28910e8	-1.5956587e-08
126	0x383b7341	4.4691613e-05
127	0x36f3a842	7.261552e-06
128	0xb62d75dd	-2.5847614e-06
129	0xb87dbfb6	-6.0498445e-05
130	0x30182c36	5.5360105e-10
131	0xb8d2a016	-0.00010043399
132	0xb4b1fc10	-3.315222e-07
133	0xb81b156a	-3.6974823e-05
134	0xb8dbc9c4	-0.000104803155
135	0x300bb13f	5.081979e-10
136	0x38440b9a	4.6740846e-05
137	0x3716cfbf	8.989066e-06
138	0xb7580174	-1.2874942e-05
139	0xb905e5c8	-0.00012769469
140	0x30182bee	5.5359706e-10
141	0xb801ba86	-3.092971e-05
142	0xb6863fce	-4.000939e-06
143	0x370fc78f	8.569928e-06
144	0xb8f2c4e2	-0.000115761315
145	0x30182908	5.5355587e-10
146	0x37877b72	1.6150738e-05
147	0xb69f88f9	-4.754515e-06
148	0xb70a75ac	-8.252839e-06
149	0xb8c3b9e2	-9.332948e-05
150	0x30182908	5.5355587e-10
151	0x37877b72	1.6150738e-05
152	0xb69f88f9	-4.754515e-06
153	0xb70a75ac	-8.252839e-06
154	0xb8c3b9e2	-9.332948e-05
155	0xb9d1680d	-0.0003994111
156	0xb83246cd	-4.2504445e-05
157	0xb9a62591	-0.00031689976
158	0xbaab40f5	-0.0013065623
159	0xb9fe408a	-0.0004849474
160	0xb9e7a2c5	-0.00044181026
161	0xb99b3502	-0.00029603398
162	0xb9f336bd	-0.00046389355
163	0x37ff6b60	3.044837e-05
164	0x36b1ded7	5.300953e-06
165	0x38b67ec4	8.702048e-05
166	0xb80f118f	-3.411021e-05
167	0xb89bbf10	-7.426564e-05
168	0x37ff8e66	3.0464678e-05
169	0xb7a2c248	-1.9402374e-05
170	0x38bb0ca2	8.919208e-05
171	0xb70c069c	-8.346189e-06
172	0xb961626a	-0.00021494334
173	0x37ee64bb	2.8418717e-05
174	0x36c104da	5.752413e-06
175	0xb5f77c79	-1.843916e-06
176	0x386af759	5.6020308e-05
177	0xb8cecafe	-9.860656e-05
178	0x37ffc4a2	3.0489933e-05
179	0x377bec5b	1.5015797e-05
180	0x38b712b1	8.7296015e-05
181	0xb7c23d3d	-2.3155118e-05
182	0xb9521939	-0.00020036557
183	0xb5032bc4	-4.886499e-07
184	0xb7fb4adf	-2.9956396e-05
185	0x348f989f	2.6746872e-07
186	0xb6fabb8a	-7.472413e-06
187	0xb8a7cc37	-8.0012185e-05
188	0x37ddb985	2.6431642e-05
189	0xb6e34ce6	-6.7740793e-06
190	0xb811434c	-3.463337e-05
191	0xb8608586	-5.3530115e-05
192	0xb9a4b6df	-0.00031416767
193	0xb4aff4ba	-3.2774352e-07
194	0xb7acbd1a	-2.0592055e-05
195	0xb5d9969d	-1.6211594e-06
196	0x3696f844	4.4992503e-06
197	0xb832a546	-4.259243e-05
198	0x37ddb9b4	2.6431728e-05
199	0xb829b3a0	-4.046003e-05
200	0x375bac74	1.309357e-05
201	0xb6ee8206	-7.1080894e-06
202	0xba12eed3	-0.00056050456
203	0xb4ecb7eb	-4.4092243e-07
204	0xb72672ed	-9.921129e-06
205	0xb5240936	-6.1108165e-07
206	0x37f5ef9b	2.9317851e-05
207	0xb80164c2	-3.0849835e-05
208	0x37dcc92f	2.6319727e-05
209	0xb7e15495	-2.6861477e-05
210	0x386984b8	5.5675133e-05
211	0x37ee1f9e	2.8386534e-05
212	0xb9fb3e2d	-0.00047920775
213	0xb4ec4930	-4.4011676e-07
214	0xb71dbe2b	-9.402206e-06
215	0xb67b1f73	-3.742022e-06
216	0xb55bc360	-8.1868166e-07
217	0xb8a5e4ca	-7.9104284e-05
218	0xb68448a9	-3.9423653e-06
219	0xb88730a6	-6.446363e-05
220	0x3851770c	4.9940354e-05
221	0xb831b62c	-4.236975e-05
222	0xb9609825	-0.00021418983
223	0x33222003	3.774768e-08
224	0xb7764335	-1.46783905e-05
225	0xb5f799fc	-1.8447749e-06
226	0xb79776a0	-1.8055842e-05
227	0xb8a94e7c	-8.073167e-05
228	0xb68448a9	-3.9423653e-06
229	0xb8360f41	-4.3406388e-05
230	0x3833d632	4.287641e-05
231	0xb6b662ba	-5.435516e-06
232	0xb913ac80	-0.00014083274
233	0x3321f8c8	3.7712e-08
234	0xb7096d81	-8.191332e-06
235	0x372fb155	1.0472101e-05
236	0xb7500ef3	-1.2401247e-05
237	0xb8cbdff6	-9.72151e-05
238	0xb68448a9	-3.9423653e-06
239	0xb8afa90c	-8.376138e-05
240	0x37dc20e1	2.6241354e-05
241	0xb6ca52bc	-6.0297007e-06
242	0xb904471c	-0.00012614991
243	0x3321f8b1	3.7711917e-08
244	0xb77caf27	-1.5061151e-05
245	0x367521f0	3.65276e-06
246	0x37d672aa	2.5564183e-05
247	0xb8bd3892	-9.022759e-05
248	0xb6844901	-3.9424053e-06
249	0xb85d859e	-5.2814947e-05
250	0x38347cc0	4.3031527e-05
251	0xb7010073	-7.689104e-06
252	0xb9151d23	-0.00014220602
253	0xb401073f	-1.2016697e-07
254	0xb5ba0449	-1.3859327e-06
255	0x3703b953	7.851358e-06

exp_avg_sq f4 [128, 163]
0	0x33279843	3.90212e-08
1	0x33db3a99	1.0208641e-07
2	0x34099a10	1.2815167e-07
3	0x351289b0	5.45896e-07
4	0x35a9f3f9	1.2662487e-06
5	0x332a4af1	3.964937e-08
6	0x34545d4c	1.977798e-07
7	0x33d773bd	1.003277e-07
8	0x3534301c	6.7125234e-07
9	0x35bd957b	1.4125102e-06
10	0x33021a82	3.0292092e-08
11	0x341454ac	1.3814378e-07
12	0x3423e6bf	1.5264503e-07
13	0x34f4d3b4	4.5602576e-07
14	0x35ad38a9	1.2905995e-06
15	0x332d5e6f	4.0365588e-08
16	0x34fed752	4.7467853e-07
17	0x3407fbef	1.2664508e-07
18	0x354de072	7.669506e-07
19	0x35b6f2f2	1.3630763e-06
20	0x32b19da3	2.0677197e-08
21	0x3438c2aa	1.7207154e-07
22	0x3413602b	1.3725428e-07
23	0x35198b75	5.719988e-07
24	0x35a2e416	1.2136322e-06
25	0x32fb8765	2.9281816e-08
26	0x355e694b	8.2854666e-07
27	0x3451adf8	1.9527931e-07
28	0x351c1336	5.8142484e-07
29	0x35afee29	1.310783e-06
30	0x32b0b056	2.0569285e-08
31	0x340df1a8	1.3219562e-07
32	0x33df6ff3	1.040461e-07
33	0x3513b23c	5.502113e-07
34	0x358cae96	1.0481624e-06
35	0x32f05507	2.7978343e-08
36	0x358cd471	1.0492641e-06
37	0x34977c84	2.821654e-07
38	0x34f4e690	4.5616298e-07
39	0x35949a4a	1.1071763e-06
40	0x32a785f5	1.9502275e-08
41	0x33dd2e1d	1.02995024e-07
42	0x34539545	1.970521e-07
43	0x34ea8bba	4.368756e-07
44	0x358748a5	1.0079426e-06
45	0x3297d33e	1.7674775e-08
46	0x3590bf9a	1.07846e-06
47	0x3498653e	2.838587e-07
48	0x34fa562f	4.6628836e-07
49	0x35904d68	1.0751364e-06
50	0x3206e201	7.851214e-09
51	0x340ede44	1.330564e-07
52	0x340e870b	1.3273909e-07
53	0x34d5cbfe	3.9822766e-07
54	0x3582780b	9.720692e-07
55	0x31af8065	5.107767e-09
56	0x3585cd0b	9.968948e-07
57	0x34d105ab	3.8933408e-07
58	0x3506d1e3	5.0224315e-07
59	0x359a87f5	1.1513463e-06
60	0x3215c2b7	8.7172145e-09
61	0x340d1cf4	1.3142181e-07
62	0x3411a74e	1.3565042e-07
63	0x34eee7ff	4.4499754e-07
64	0x35852847	9.920994e-07
65	0x3154bbe1	3.0956857e-09
66	0x358d3806	1.0521624e-06
67	0x350a85a8	5.16035e-07
68	0x34d8297e	4.0263325e-07
69	0x35a197ab	1.2039576e-06
70	0x320c829b	8.178769e-09
71	0x3457b088	2.0087657e-07
72	0x342fa1a2	1.6356947e-07
73	0x34adfa99	3.2406095e-07
74	0x358762f0	1.0087078e-06
75	0x3115d3fd	2.1802855e-09
76	0x3590cf50	1.0789172e-06
77	0x356c0f0e	8.793876e-07
78	0x34b15349	3.3029417e-07
79	0x35a413c1	1.2224701e-06
80	0x32385318	1.0729103e-08
81	0x348da497	2.6383051e-07
82	0x3419ef0c	1.43362e-07
83	0x350849b8	5.0771223e-07
84	0x35b40dd5	1.3415071e-06
85	0x30cfd078	1.5120483e-09
86	0x359b7cf0	1.1584762e-06
87	0x34cf4d30	3.8612916e-07
88	0x34be4ab2	3.5444606e-07
89	0x359ec624	1.1829584e-06
90	0x31edfedc	6.926582e-09
91	0x34b6909c	3.400536e-07
92	0x33fbec57	1.1731088e-07
93	0x35459c94	7.361607e-07
94	0x35cedca3	1.541241e-06
95	0x30adaf8b	1.2637299e-09
96	0x358d4c47	1.0527518e-06
97	0x34b528c9	3.3743552e-07
98	0x350b4d67	5.189417e-07
99	0x35ad8d29	1.2930587e-06
100	0x3202727c	7.593027e-09
101	0x349fb211	2.9745618e-07
102	0x34090002	1.2759122e-07
103	0x3552be37	7.8507895e-07
104	0x35deb71c	1.6593581e-06
105	0x30be9c21	1.3868694e-09
106	0x3599b150	1.1450993e-06
107	0x34ab1043	3.1863064e-07
108	0x3528fa41	6.2949044e-07
109	0x35c8dffb	1.4966348e-06
110	0x31fbc375	7.3272823e-09
111	0x34b88dca	3.4375836e-07
112	0x3415c2fb	1.394764e-07
113	0x352ae39c	6.366115e-07
114	0x35cf8875	1.5462416e-06
115	0x30bfe9a0	1.3963479e-09
116	0x359fee38	1.1915754e-06
117	0x34cbc61f	3.795585e-07
118	0x3542e8a7	7.2609186e-07
119	0x35d0d10b	1.5558047e-06
120	0x31e46134	6.646724e-09
121	0x350b4ae0	5.189049e-07
122	0x3438727a	1.7177982e-07
123	0x3522940f	6.0565156e-07
124	0x35d09eeb	1.5543459e-06
125	0x30e49989	1.6632821e-09
126	0x35ae1593	1.2970289e-06
127	0x34b285c9	3.3252425e-07
128	0x3525b6c8	6.173327e-07
129	0x35d8bd8c	1.614842e-06
130	0x31c8a933	5.840002e-09
131	0x353ae41d	6.962235e-07
132	0x344d0918	1.9095421e-07
133	0x35644932	8.504313e-07
134	0x3602e978	1.9507406e-06
135	0x30e7d3c8	1.6867654e-09
136	0x35ad2aa0	1.290191e-06
137	0x34ab4e58	3.1908235e-07
138	0x34fb328f	4.678918e-07
139	0x35c718e9	1.4833905e-06
140	0x3194f5c5	4.3353077e-09
141	0x35888884	1.0172521e-06
142	0x3487ec54	2.531766e-07
143	0x350e0e2c	5.2919745e-07
144	0x35df17ce	1.6621723e-06
145	0x313de814	2.763504e-09
146	0x359a6bce	1.1505269e-06
147	0x348f913c	2.6741498e-07
148	0x3510e6cf	5.398005e-07
149	0x35ca6797	1.5080321e-06
150	0x313de814	2.763504e-09
151	0x359a6bce	1.1505269e-06
152	0x348f913c	2.6741498e-07
153	0x3510e6cf	5.398005e-07
154	0x35ca6797	1.5080321e-06
155	0x359fc514	1.190378e-06
156	0x36bffc23	5.721596e-06
157	0x359c46fa	1.1643563e-06
158	0x38aa7a2c	8.128988e-05
159	0x35ef58f6	1.7832779e-06
160	0x3645f921	2.95003e-06
161	0x35828233	9.723648e-07
162	0x3662297b	3.370077e-06
163	0x327ed93c	1.4834139e-08
164	0x330c4a57	3.2663902e-08
165	0x33c8dbc9	9.3532044e-08
166	0x34f590b3	4.574009e-07
167	0x359bbce7	1.1603378e-06
168	0x328500c9	1.5483595e-08
169	0x343ff1b6	1.7876195e-07
170	0x33e7b483	1.07896106e-07
171	0x34e3b324	4.2412387e-07
172	0x358eaa05	1.0629307e-06
173	0x325892ab	1.2606203e-08
174	0x33cba975	9.483748e-08
175	0x340d1a39	1.3141188e-07
176	0x34674667	2.1539164e-07
177	0x3587485c	1.0079343e-06
178	0x329aac56	1.8006329e-08
179	0x34fa0291	4.6567996e-07
180	0x33d32c4d	9.8335114e-08
181	0x34bf2b74	3.560814e-07
182	0x3572d357	9.0459565e-07
183	0x323f58fb	1.1137895e-08
184	0x33c07917	8.962723e-08
185	0x33a9154b	7.873549e-08
186	0x340c3529	1.3057856e-07
187	0x35562d11	7.978679e-07
188	0x329ddac1	1.8376683e-08
189	0x353dfaf9	7.07732e-07
190	0x33bab7b0	8.6947125e-08
191	0x345c78df	2.0533069e-07
192	0x35557f29	7.9533726e-07
193	0x30953cc4	1.0858447e-09
194	0x339f3394	7.4133965e-08
195	0x32445f4b	1.1430369e-08
196	0x335f7ad0	5.203293e-08
197	0x351171d6	5.418236e-07
198	0x3299b200	1.789249e-08
199	0x3554d44a	7.9285076e-07
200	0x33b086bd	8.2201474e-08
201	0x34085292	1.2696026e-07
202	0x356ba797	8.77882e-07
203	0x30120d08	5.313301e-10
204	0x33b99c87	8.643206e-08
205	0x31feb9f0	7.4135116e-09
206	0x3315fb45	3.4920294e-08
207	0x34f42e63	4.5482292e-07
208	0x3203f76c	7.681461e-09
209	0x3541a35e	7.2135833e-07
210	0x33683832	5.406782e-08
211	0x33c961da	9.377591e-08
212	0x353766db	6.8322487e-07
213	0x2ffbabe8	4.577878e-10
214	0x33cc969c	9.526886e-08
215	0x318bb746	4.066268e-09
216	0x33434cf9	4.547198e-08
217	0x34ff0ca4	4.7506649e-07
218	0x31c990c2	5.866327e-09
219	0x35417585	7.2069116e-07
220	0x33510c53	4.8672813e-08
221	0x33ab0373	7.9634354e-08
222	0x3517e4e3	5.658496e-07
223	0x2ffd71a2	4.6101173e-10
224	0x33bfef71	8.937685e-08
225	0x32b8cc27	2.1513257e-08
226	0x33d4eb08	9.914771e-08
227	0x35126dfb	5.454928e-07
228	0x3250e185	1.2158471e-08
229	0x3530fc62	6.5932375e-07
230	0x3392d781	6.837855e-08
231	0x3305dffb	3.1170185e-08
232	0x3522eac9	6.069136e-07
233	0x2fb66593	3.317778e-10
234	0x340f93ab	1.3371634e-07
235	0x33d29cd2	9.8074125e-08
236	0x33ebad53	1.0974568e-07
237	0x35409e53	7.1755966e-07
238	0x323555d7	1.0555104e-08
239	0x352ec2c1	6.5103455e-07
240	0x33ab606a	7.9803456e-08
241	0x32bef225	2.2229026e-08
242	0x351a9c17	5.759661e-07
243	0x2ffb8668	4.5752135e-10
244	0x34101419	1.3418357e-07
245	0x348ede27	2.6611198e-07
246	0x342c93dc	1.6072539e-07
247	0x354cf25d	7.6348607e-07
248	0x322f6131	1.0208439e-08
249	0x354c895f	7.6195823e-07
250	0x32a087b8	1.868817e-08
251	0x337ee0cd	5.934344e-08
252	0x3520ab45	5.9853875e-07
253	0x30057092	4.854509e-10
254	0x33ff01de	1.18747025e-07
255	0x34b4c855	3.3673373e-07

exp_avg f4 [128]
0	0xba2233f5	-0.0006187552
1	0xba99c6d5	-0.001173223
2	0xb9199d6c	-0.00014649861
3	0x377f7148	1.522556e-05
4	0x3986c3ad	0.00025704261
5	0x3ab3568e	0.0013682412
6	0xb9797ad0	-0.00023792242
7	0x3a50c321	0.0007963647
8	0x38d301f6	0.00010061629
9	0xba254e71	-0.0006305939
10	0x39dead0c	0.0004247207
11	0xba8ee69f	-0.0010902471
12	0x3a07c82b	0.00051796687
13	0xb99372c9	-0.00028123547
14	0xb8b4e04f	-8.6248496e-05
15	0x3923f714	0.00015636935
16	0xb9bb1fc2	-0.0003569108
17	0x3a6ecd0c	0.0009109534
18	0xba20d6f8	-0.00061355485
19	0xb9f5fb74	-0.0004691739
20	0x3a7fa452	0.00097519637
21	0x3ad34092	0.0016117266
22	0xba0e00fe	-0.0005417018
23	0x39b1dde8	0.00033925404
24	0x3b021619	0.0019849597
25	0xb73717a3	-1.0913153e-05
26	0x3adce36a	0.0016852443
27	0x39995f0b	0.00029253247
28	0xbab35957	-0.0013683242
29	0x38190e6c	3.6491474e-05
30	0x3a00a5cd	0.0004907519
31	0x39b3fb13	0.00034328605
32	0xb8fe17e0	-0.00012116111
33	0x3a0d248c	0.0005384169
34	0xb97560a2	-0.0002340102
35	0xb8fc7a65	-0.00012039094
36	0x3938ff1f	0.00017642647
37	0x3aa8d2ca	0.0012880203
38	0x392d96c9	0.00016554738
39	0xba9bbcdc	-0.0011881846
40	0xb8a43348	-7.829681e-05
41	0x38cf37cc	9.880922e-05
42	0xbae535d1	-0.0017487352
43	0x392e4937	0.00016621208
44	0x38e184cd	0.00010753572
45	0xb7850350	-1.5856378e-05
46	0x364cc245	3.0511449e-06
47	0xb989e8a7	-0.00026304016
48	0x39f13bd5	0.0004601168
49	0xba158f52	-0.00057052553
50	0x3968c4cf	0.00022198561
51	0xb8d225b4	-0.00010020603
52	0xba98d535	-0.001166022
53	0xb890b92d	-6.900947e-05
54	0x396970ae	0.00022262588
55	0xb8a60a00	-7.9173595e-05
56	0x3b29ad65	0.0025890705
57	0xb9593c3f	-0.00020717176
58	0xb8947c35	-7.080325e-05
59	0x383a8eba	4.447878e-05
60	0xb9a75dfb	-0.00031922743
61	0x39d4bcec	0.0004057655
62	0x39955e97	0.0002848997
63	0xb98cb9d0	-0.00026841322
64	0x38b35a8e	8.552252e-05
65	0xb7ff0198	-3.0399111e-05
66	0x380cf3ff	3.360584e-05
67	0x3a4acecc	0.00077365036
68	0xba99ec2f	-0.0011743362
69	0x395f5e59	0.00021302084
70	0x38811df7	6.156781e-05
71	0x3983040e	0.00024989288
72	0xb9e6a018	-0.00043988298
73	0xb9b22321	-0.0003397698
74	0xb9630577	-0.00021650443
75	0x39d3f501	0.00040427598
76	0x3965dc34	0.00021921174
77	0xba0df40a	-0.0005415088
78	0x376a31a5	1.3959046e-05
79	0xba1422a6	-0.0005650915
80	0xb8fa8227	-0.00011945172
81	0x3a66e043	0.00088072213
82	0xb9a99ac0	-0.0003234949
83	0xb8a7b710	-7.9972786e-05
84	0x3a3443be	0.00068765495
85	0xb89737dc	-7.210646e-05
86	0xb93979e8	-0.00017688388
87	0xb88b1390	-6.63168e-05
88	0xba15ef0b	-0.0005719519
89	0xba32fefe	-0.0006828158
90	0xba364d38	-0.00069542555
91	0x38f5dd74	0.00011723759
92	0xb93625dc	-0.00017370976
93	0xb9fe2bde	-0.0004847934
94	0xb9434314	-0.00018621638
95	0xb80bc32c	-3.332195e-05
96	0xb98f01d8	-0.0002727646
97	0x3878b5f4	5.9297265e-05
98	0x38b17e26	8.463515e-05
99	0xbabb7b23	-0.0014303665
100	0xba4dc0d3	-0.00078488624
101	0xb96f562f	-0.00022824922
102	0x38ed337b	0.000113106296
103	0xba08457b	-0.00051983417
104	0xba210773	-0.00061427726
105	0xb8f649c6	-0.000117439355
106	0xb9ea51ef	-0.00044693003
107	0xb8237970	-3.8975326e-05
108	0x381a248a	3.675049e-05
109	0x3abcf2e0	0.0014415644
110	0xba4058ca	-0.00073374494
111	0xba06d638	-0.00051436154
112	0xba2a290f	-0.00064911036
113	0xb9004e1a	-0.00012236126
114	0xb9ea22ca	-0.00044657878
115	0x39b51cfc	0.00034544605
116	0x36fcf6be	7.53891e-06
117	0x37f13a98	2.8756724e-05
118	0x39b3fd1e	0.00034330128
119	0xba327ac9	-0.00068084575
120	0xba478813	-0.0007611524
121	0xb920d167	-0.00015336798
122	0xb8bf5eff	-9.125284e-05
123	0x38b8c592	8.810604e-05
124	0x38094add	3.2733067e-05
125	0x3925e984	0.00015822618
126	0xb912b7fb	-0.00013992183
127	0x385f3f88	5.322651e-05

exp_avg_sq f4 [128]
0	0x36d7fab1	6.4366836e-06
1	0x36e89cad	6.9323783e-06
2	0x3515a0ec	5.5741e-07
3	0x3403f257	1.2288488e-07
4	0x3682f372	3.9026427e-06
5	0x38445756	4.681138e-05
6	0x35a168f4	1.202598e-06
7	0x36e62b26	6.8595573e-06
8	0x33c682a6	9.243858e-08
9	0x3798e5d7	1.822684e-05
10	0x3730297b	1.0500075e-05
11	0x3823a31d	3.901414e-05
12	0x37a28eba	1.9378367e-05
13	0x378ad68c	1.6550788e-05
14	0x372443db	9.790961e-06
15	0x369033d4	4.297568e-06
16	0x370003fd	7.630323e-06
17	0x36d47f5c	6.332919e-06
18	0x3723b3b3	9.757397e-06
19	0x35cb6507	1.5154081e-06
20	0x3732cc95	1.065726e-05
21	0x37f1ffd3	2.8848566e-05
22	0x378aa370	1.6526988e-05
23	0x379caeb1	1.8677996e-05
24	0x3888adc3	6.517351e-05
25	0x35a3a86c	1.2193464e-06
26	0x3830d34b	4.2158452e-05
27	0x36653dbe	3.4159598e-06
28	0x383cbbb7	4.4997516e-05
29	0x36af100b	5.217274e-06
30	0x373a88fa	1.1118356e-05
31	0x3742be54	1.1607615e-05
32	0x34a0023d	2.980395e-07
33	0x37576d4d	1.2840447e-05
34	0x37302842	1.0499791e-05
35	0x346f437a	2.2283157e-07
36	0x37075b45	8.067877e-06
37	0x37d15422	2.4953919e-05
38	0x35addbb0	1.2953442e-06
39	0x37c64fa5	2.3640527e-05
40	0x3459336e	2.022841e-07
41	0x37326134	1.0632259e-05
42	0x38253856	3.9391532e-05
43	0x36387776	2.7487672e-06
44	0x3380522a	5.97541e-08
45	0x370a2dee	8.236135e-06
46	0x32eac279	2.7329621e-08
47	0x350e069b	5.2908734e-07
48	0x367cf50c	3.7693562e-06
49	0x35d0aaeb	1.5546951e-06
50	0x35b5ec85	1.3554387e-06
51	0x33f70f92	1.1504666e-07
52	0x36dc6e03	6.569318e-06
53	0x36b92571	5.5177884e-06
54	0x34dff164	4.1712622e-07
55	0x3702449d	7.764579e-06
56	0x38487131	4.7789134e-05
57	0x3431665f	1.6521652e-07
58	0x35014d5f	4.8168835e-07
59	0x36f4aedf	7.2921243e-06
60	0x35b9fd4a	1.3857291e-06
61	0x36e122e8	6.709586e-06
62	0x3789d65b	1.643149e-05
63	0x3546018d	7.3763005e-07
64	0x373b35eb	1.1158622e-05
65	0x344473b2	1.8296012e-07
66	0x32e58b0e	2.6722343e-08
67	0x3742f844	1.1621105e-05
68	0x3794cd13	1.773847e-05
69	0x358872b2	1.016617e-06
70	0x35aef5cc	1.3035547e-06
71	0x36961618	4.4729204e-06
72	0x37196a55	9.144268e-06
73	0x37145d9f	8.843285e-06
74	0x355def18	8.267684e-07
75	0x3614fb46	2.219998e-06
76	0x3768c199	1.3873353e-05
77	0x372a71d1	1.015929e-05
78	0x346fb7db	2.2325496e-07
79	0x36092f66	2.044218e-06
80	0x3680ab4d	3.8346393e-06
81	0x379103a4	1.7287042e-05
82	0x37798f5e	1.4874937e-05
83	0x37261cbd	9.901062e-06
84	0x3706f3de	8.043802e-06
85	0x3443a58f	1.822102e-07
86	0x370dd5be	8.454021e-06
87	0x366f4156	3.5651806e-06
88	0x35d116f5	1.5578395e-06
89	0x35f9c808	1.8610162e-06
90	0x3745ba05	1.1785426e-05
91	0x36b50131	5.394359e-06
92	0x370977f7	8.193768e-06
93	0x3706ff4f	8.046466e-06
94	0x355e6a68	8.2856286e-07
95	0x380624e2	3.198244e-05
96	0x380c4953	3.344689e-05
97	0x33afb59d	8.182108e-08
98	0x3571e538	9.0113053e-07
99	0x36efe7e8	7.1497525e-06
100	0x35920434	1.0879071e-06
101	0x36fb8f2e	7.4970512e-06
102	0x348899a7	2.544377e-07
103	0x37181e68	9.0669855e-06
104	0x35ed6ca1	1.7689491e-06
105	0x36bcfe01	5.6324066e-06
106	0x351be3b0	5.807333e-07
107	0x373d473d	1.1281864e-05
108	0x316f4cbd	3.4822698e-09
109	0x37eb53f3	2.8053275e-05
110	0x37e769dd	2.7586642e-05
111	0x36209eb2	2.393423e-06
112	0x3761e330	1.3463941e-05
113	0x36cc186a	6.082516e-06
114	0x3776ee57	1.4718235e-05
115	0x372705c1	9.955315e-06
116	0x32fd11a2	2.9461095e-08
117	0x33e59715	1.0691125e-07
118	0x3688953b	4.0704886e-06
119	0x36f3487a	7.2504017e-06
120	0x35eded0b	1.7726865e-06
121	0x35271947	6.224913e-07
122	0x34a5228b	3.0758778e-07
123	0x36a65764	4.957359e-06
124	0x32bf8983	2.229786e-08
125	0x35a3c6e8	1.2202336e-06
126	0x350bad2d	5.203354e-07
127	0x331dd0ef	3.6744435e-08
