Source/Trained_Policies/WeightAgent_Training/WeightAgent_Training/WeightAgent_Training-244999986.pt (torch, 926628 bytes, 33 tensors)

network_body._body_endoder.seq_layers.0.weight f4 [128, 163]
0.28894094 -0.4732977 0.06724327 0.18285425 0.4318962 -0.055530295 -0.44838282 -0.28438306
0.12132836 0.7256902 0.3043142 -0.20592356 0.3987832 -0.012691368 0.16598053 -0.08008272
-0.35765502 -0.90454626 0.030695312 0.52270854 0.4810667 -0.00725806 0.6723151 0.35556608
-0.52135926 -0.3419247 -0.3528912 -0.45817587 -0.25366998 0.42352277 0.20950338 0.049860224
0.56696755 0.13213147 -0.5887563 -0.2480584 -0.6759362 -0.19715247 -0.19283725 0.23697124
0.1805274 0.17126621 0.5513153 0.23747341 -0.6141376 -0.40938777 -0.49388263 0.020522835
-0.1594814 0.083203696 0.5571749 0.30901065 0.11438438 0.6362956 -0.28086695 -0.31665975
0.054895453 0.2328457 -0.18711303 0.31813115 0.42076173 0.101674244 0.26574713 0.030357547
-0.36406338 -0.25280216 -0.26478642 0.16678028 -0.12222688 0.15859257 0.5405373 -0.04073732
0.32884306 0.17814928 -0.110834025 0.16297492 0.026181528 0.24306227 -0.2355246 0.05710308
0.33781102 -0.42923242 -0.24210438 0.11539144 -0.005371781 0.16989008 -0.38729468 -0.06351712
-0.10152697 0.111184396 0.1525043 0.23123878 -0.2791053 -0.11303087 0.0011914244 -0.10803221
-0.09440168 0.197152 -0.19047159 0.044267178 0.057968594 -0.21325558 -0.20505075 0.121389516
0.007915831 0.054783158 -0.1467493 0.023337832 0.17994614 0.038052324 0.11925867 -0.3177661
-0.05466291 0.28018552 -0.08427894 -0.2295864 0.08173186 -0.15566465 -0.040916603 0.1630965
0.019998742 -0.40847486 0.091181606 0.18137386 -0.2101813 -0.3390242 0.15719408 0.0021564865
0.1753314 0.1036227 -0.13430898 -0.06307187 0.030218396 -0.13400996 -0.2643345 -0.038936757
-0.22400181 -0.244397 0.12846377 0.06851039 -0.3301181 -0.19536048 -0.35018262 0.025253162
-0.15837553 -0.16659775 -0.098186284 0.06862303 -0.057487324 0.076063566 -0.20904157 -0.25125033
-0.023409793 0.06560871 0.04211503 -0.053383194 0.2945745 -0.2834838 -0.02575432 -0.07703559
0.062440827 0.16941966 -0.62597793 0.00040645464 0.4884409 -0.109655745 -0.07521185 -0.5745043
0.058187515 0.23257375 0.04458864 0.14231753 -0.9883539 0.2175392 0.05954564 -0.7964959
0.45967168 -0.5074201 0.029755687 0.40464237 0.3006853 -0.014974208 -0.9184616 0.39980686
0.22110967 -1.3505193 0.16924377 -0.17823234 -0.15217899 0.068955585 0.19302861 0.3674051
-0.584725 -0.038981 0.27101594 -0.8017516 0.24002637 0.031916983 -0.057341497 0.015639743
0.22417223 0.17109284 -0.68154025 0.05454185 0.3421066 -0.48208907 0.09670635 0.122896574
0.01941993 0.08767966 0.30564097 0.29459736 -0.44605383 0.08731713 0.32931408 -0.19155921
-0.022087164 0.14925066 0.06029575 0.12187682 0.15859193 0.23264194 -0.059218537 0.012590268
0.20157002 0.15325952 -0.07257225 0.12952812 0.032680396 0.28590795 0.19654071 -0.041358978
0.08518127 0.12946276 0.24688457 -0.013686481 0.13466129 0.07807482 -0.27586573 0.17872986
0.07274211 -0.08849652 0.077647366 0.06867889 -0.007388522 0.16669242 -0.2768833 0.010586121
-0.04855356 0.08791274 0.09186034 0.13110909 0.23359145 0.3183633 0.05144874 -0.1765309
00000000: 11f0 933e 1354 f2be d7b6 893d 253e 3b3e
00000010: 8021 dd3e bc73 63bd 6f92 e5be a89a 91be
00000020: 017b f83d d5c6 393f 12cf 9b3e a0dd 52be
00000030: 502d cc3e 75ef 4fbc cdf6 293e 6902 a4bd
00000040: 8f1e b7be 5890 67bf bc74 fb3c 3ad0 053f
00000050: 604e f63e 05d5 edbb d81c 2c3f c20c b63e
00000060: cd77 05bf c110 afbe 28ae b4be 0796 eabe
00000070: 08e1 81be fad7 d83e 0e88 563e 3c3a 4c3d
00000080: c924 113f 794d 073e bcb8 16bf 0503 7ebe
00000090: 280a 2dbf 56e2 49be 2177 45be 97a8 723e
000000a0: 2ddc 383e 6960 2f3e 0023 0d3f 3b2c 733e
000000b0: 1f38 1dbf 469b d1be 2fde fcbe 811f a83c
000000c0: 184f 23be b366 aa3d 04a3 0e3f a536 9e3e
000000d0: 5c42 ea3d 45e4 223f cbcd 8fbe 3a21 a2be
000000e0: 0eda 603d 1a6f 6e3e 8f9a 3fbe 16e2 a23e
000000f0: 156e d73e 963a d03d 0210 883e 64b0 f83c
00000100: 8466 babe 496f 81be 1692 87be 73c8 2a3e
00000110: 1652 fabd 1766 223e a760 0a3f 2ddc 26bd
00000120: 1e5e a83e c46c 363e f3fc e2bd e6e2 263e
00000130: a57a d63c 51e5 783e 5c2d 71be ebe4 693d
00000140: 91f5 ac3e 5ac4 dbbe 36ea 77be 5952 ec3d
00000150: c405 b0bb aaf7 2d3e 7d4b c6be 4415 82bd
00000160: 5fed cfbd a5b4 e33d 162a 1c3e dcc9 6c3e
00000170: e4e6 8ebe bb7c e7bd 9229 9c3a fe3f ddbd
00000180: ab55 c1bd 37e2 493e fc0a 43be 8051 353d
00000190: 7a70 6d3d ac5f 5abe d3f8 51be 119b f83d
000001a0: 67b1 013c 4e64 603d 7345 16be fb2e bf3c
000001b0: cd43 383e c1dc 1b3d e43d f43d 3db2 a2be
000001c0: 37e6 5fbd 7a74 8f3e 709a acbd b218 6bbe
000001d0: 0963 a73d 8e66 1fbe 2b98 27bd c502 273e
000001e0: 67d4 a33c 9e23 d1be 6cbd ba3d 12ba 393e
000001f0: c439 57be 9494 adbe 7cf7 203e d753 0d3b
00000200: 138a 333e 2338 d43d 4b88 09be d32b 81bd
00000210: 928c f73c e839 09be da56 87be 267c 1fbd
00000220: bb60 65be 3543 7abe 028c 033e 2d4f 8c3d
00000230: 3d05 a9be 940c 48be 234b b3be b8df ce3c
00000240: 322d 22be 9a98 2abe e415 c9bd 3b8a 8c3d
00000250: d477 6bbd 37c7 9b3d fe0e 56be e2a3 80be
00000260: e5c5 bfbc dc5d 863d cf80 2c3d 56a8 5abd
00000270: 78d2 963e ca24 91be b9fa d2bc d6c4 9dbd
00000280: f4c1 7f3d 597c 2d3e 1740 20bf 6b19 d539
00000290: ed14 fa3e 3193 e0bd ac08 9abd b712 13bf
000002a0: 0856 6e3d d027 6e3e 94a2 363d b0bb 113e
000002b0: c304 7dbf 99c2 5e3e 21e6 733d 28e7 4bbf
000002c0: 165a eb3e 49e6 01bf 33c2 f33c 492d cf3e
000002d0: 6cf3 993e 6156 75bc 4d20 6bbf 7cb3 cc3e
000002e0: 936a 623e d1dd acbf 3d4e 2d3e 8a82 36be
000002f0: cfd4 1bbe 9638 8d3d 4ba9 453e 851c bc3e
00000300: 8ab0 15bf 8baa 1fbd 9ac2 8a3e 983f 4dbf
00000310: 79c9 753e 62bb 023d ebde 6abd eb1e 803c
00000320: 688d 653e f632 2f3e 6c79 2ebf 4667 5f3d
00000330: 9928 af3e 61d4 f6be fb0d c63d 33b1 fb3d
00000340: 8c16 9f3c 6591 b33d f97c 9c3e 77d5 963e
00000350: 2b61 e4be 53d3 b23d db9b a83e 1928 44be
00000360: 24f0 b4bc 2ad5 183e adf8 763d 8e9a f93d
00000370: ec65 223e b039 6e3e 238f 72bd 6947 4e3c
00000380: 5f68 4e3e 10f0 1c3e c3a0 94bd 05a3 043e
00000390: e1db 053d 8762 923e f841 493e 0868 29bd
000003a0: 8573 ae3d e391 043e 4fcf 7c3e 433d 60bc
000003b0: a6e4 093e b1e5 9f3d 463e 8dbe f604 373e
000003c0: d1f9 943d aa3d b5bd 9505 9f3d 85a7 8c3d
000003d0: 6a1b f2bb 6bb1 2a3e a6c3 8dbe 6971 2d3c
000003e0: 19e0 46bd 980b b43d 4621 bc3d 7641 063e
000003f0: 9932 6f3e 8400 a33e eabb 523d 84c4 34be

network_body._body_endoder.seq_layers.0.bias f4 [128]
0.018640358 0.11225842 0.051692147 -0.061164886 0.15199712 -0.03826869 0.033187114 0.35175154
-0.108934954 -0.0012798511 0.06314818 0.10777167 0.020605816 0.068391286 0.06374381 -0.10042648
-0.030812878 -0.04714282 0.066994056 -0.13698481 0.19093573 -0.12508874 0.20930538 -0.1100085
0.1290145 0.07383959 -0.055283695 0.00041270364 0.08309048 0.029511308 -0.13462725 0.087475985
-0.0050099436 0.118668064 0.06849194 0.032991245 0.1586471 0.062495753 -0.0071333 -0.098575115
0.20319192 -0.085046105 -0.036382563 0.04155318 0.09682348 -0.0054709003 -0.013167966 0.011569603
-0.05273856 0.04230239 -0.16400357 0.01415376 0.06550738 0.03741827 -0.017767224 -0.046991497
-0.08264906 0.10190368 -0.010312378 0.037141502 0.026901502 0.046261907 -0.04730281 0.024003003
0.19807483 0.03714087 0.032051697 -0.08887943 -0.18316327 -0.1914585 0.26910666 -0.08587233
-0.013644186 -0.060434423 0.09721946 -0.002231054 -0.09598671 0.004892519 0.010209024 0.13389903
-0.0023834922 -0.038519945 0.27260047 -0.1070949 -0.027237995 0.024698626 -0.14588045 -0.036598627
-0.08971395 0.015595946 0.028708298 -0.097596996 0.0060588447 -0.015618325 0.20071033 0.07196322
0.22828603 -5.2520827e-05 0.17695849 0.028971542 0.011553763 -0.1711248 0.16631077 0.10099093
-0.01996989 -0.043651916 -0.11857846 0.022108104 0.09205431 -0.17227332 -0.07415412 -0.08681761
0.15264517 -0.08987526 -0.034634914 -0.16420576 0.05253766 0.05223718 0.17746928 -0.06766179
0.060306445 0.055875946 0.036625985 -0.015412008 0.014107918 0.110630795 0.074308194 0.10087926
00000000: aab3 983c bee7 e53d 25bb 533d 0888 7abd
00000010: 22a5 1b3e a1bf 1cbd 36ef 073d c718 b43e
00000020: 4a19 dfbd adc0 a7ba d553 813d 65b7 dc3d
00000030: 87cd a83c bb10 8c3d 1d8c 823d 66ac cdbd
00000040: 4a6b fcbc d418 41bd 2e34 893d bf45 0cbe
00000050: a884 433e 4317 00be 2654 563e 234c e1bd
00000060: 611c 043e 3639 973d 2871 62bd 2560 d839
00000070: 572b aa3d b3c1 f13c badb 09be 9c26 b33d
00000080: 742a a4bb 3e08 f33d 8145 8c3d d421 073d
00000090: 6374 223e 8cfb 7f3d 75be e9bb c0e1 c9bd
000000a0: 8b11 503e a72c aebd e205 15bd ab33 2a3d
000000b0: 644b c63d 3d45 b3bb 74be 57bc 6f8e 3d3c
000000c0: 6304 58bd 4545 2d3d 8df0 27be 2ce5 673c
000000d0: bc28 863d e643 193d 928c 91bc 287a 40bd
000000e0: e943 a9bd e0b2 d03d 40f5 28bc b021 183d
000000f0: 8a60 dc3c 207d 3d3d 97c0 41bd f2a1 c43c
00000100: 21d4 4a3e 0621 183d a448 033d 6b06 b6bd
00000110: 278f 3bbe b20d 44be 59c8 893e d5dd afbd
00000120: dd8b 5fbc 168a 77bd ff1a c73d e036 12bb
00000130: ae94 c4bd 6d51 a03b c043 273c d41c 093e
00000140: 5d34 1cbb 17c7 1dbd 4a92 8b3e 9254 dbbd
00000150: 3722 dfbc c654 ca3c af61 15be 71e8 15bd
00000160: f3bb b7bd 2486 7f3c aa2d eb3c efe0 c7bd
00000170: 4689 c63b 01e4 7fbc 0287 4d3e 7461 933d
00000180: d0c3 693e cf49 5cb8 9b34 353e ba55 ed3c
00000190: ff4b 3d3c 573b 2fbe 5f4d 2a3e 55d4 ce3d
000001a0: e597 a3bc 5acc 32bd 43d9 f2bd 0e1c b53c
000001b0: f886 bc3d 6b68 30be 1ede 97bd 6ecd b1bd
000001c0: 044f 1c3e 8510 b8bd 57dd 0dbd 8e25 28be
000001d0: bb31 573d a7f6 553d 82ba 353e 4492 8abd
000001e0: e403 773d 2dde 643d 2105 163d a682 7cbc
000001f0: e624 673c 6692 e23d e52e 983d c999 ce3d

network_body._body_endoder.seq_layers.2.weight f4 [128, 128]
0.6320081 -0.66056466 -0.17281221 -0.14614591 0.063532576 -0.24893728 0.033850443 -0.65734863
0.34804344 -0.2723884 -0.009622572 -0.32635063 0.021407729 -0.68662274 0.17703559 0.09855258
-0.20238514 -0.33523998 -0.1275058 -0.33019856 -0.43183365 0.27281737 -0.42818263 -0.27392152
0.11725265 -0.27723175 0.023248972 -0.14284474 0.09724436 0.14115189 0.022485686 -0.03496965
-0.106906764 -0.029400937 -0.24218805 0.039529428 0.15956323 -0.14581412 -0.005171828 0.10323693
-0.022251021 0.21128248 0.31508428 0.071261995 -0.20286354 0.090731554 -0.3157629 -0.4260951
-0.29250953 -0.48689175 0.20486969 -0.24082859 0.14932875 0.09280755 -0.78025115 -0.13770129
-0.17773217 -0.5471011 -0.07423379 -0.021532364 0.23054639 -0.21234459 0.22015074 0.026766952
-0.229591 -0.79249156 -0.022757685 0.1353085 -0.19417788 -0.1722628 -0.108710416 0.07968851
0.015886039 0.18980828 -0.00085888576 -0.2650626 -0.10520343 -0.14143743 -0.21092723 -0.0980392
-0.023839585 -0.010162723 -0.050906174 0.20938064 -0.49406102 -0.018657174 -0.05246372 0.08792277
-0.052272987 -0.02794259 0.13600424 -0.14421147 -0.055136845 -0.0010850471 -0.3267005 -0.113605544
0.024419824 -0.36743662 0.10442198 -0.5101588 0.25447875 -0.059739847 0.105393775 0.20055643
0.02770008 -0.338487 -0.22172081 -0.35493818 0.35319832 -0.2897147 -0.31749696 -0.55361557
0.067425534 -0.25260955 -0.47608805 -0.19168933 -0.15679032 -0.0347273 0.1963879 -0.48338175
-0.20102704 -0.42567965 -0.06873137 0.17054968 0.183095 0.017472012 0.17378712 0.19738661
-0.062324006 -0.006789111 -0.127445 0.48794928 -0.43188316 -0.012224216 0.46310893 0.0047730627
0.16298904 0.4131542 0.5449529 0.5818418 -0.3030763 0.11799978 0.18151847 0.39357713
-0.16598204 -0.12326546 0.49959865 0.46646476 0.045036606 -0.3157929 0.0064373496 -0.03196497
0.38680515 0.13305506 -0.32750463 -0.41517064 0.032024473 -0.09825301 0.11224939 0.12496184
0.064983696 0.18290469 -0.20103446 0.30814454 0.15716071 0.059939925 0.2771888 0.2707344
0.37791303 0.07808707 -0.05154405 -0.1015038 0.52928185 -0.023291437 -0.1914677 0.3921044
0.18969294 0.7044806 -0.391054 0.0018289989 -0.23993714 -0.27705914 0.16516048 -0.07937299
0.26054657 0.43010345 0.17897487 -0.55348504 0.07192263 0.10884268 0.08158601 -0.20719959
-0.15757984 0.4268876 -0.3569988 0.26790637 0.09936308 0.19496126 -0.0421912 0.6157078
-0.26719484 -0.07698903 -0.046756353 0.63953644 0.30715364 0.6662937 0.1788905 -0.122802295
0.09783311 0.30223718 -0.1236427 -0.14428584 -0.062214825 -0.255063 0.17783372 0.08437649
-0.27745253 0.21719985 -0.2643723 -0.15613598 0.6973735 -0.13407469 0.14122796 -0.0062756585
-0.2406814 0.3254119 -0.17766222 -0.036004182 0.018791268 -0.03657679 -0.10235812 -0.18084852
-0.22032093 -0.040727258 -0.086594604 0.13769913 0.17958379 0.34630665 0.070274 -0.16966254
-0.014089015 -0.40094584 -0.40616482 -0.17556773 0.1474373 0.06959527 0.06694338 0.2329497
-0.2712201 -0.10433287 -0.0072536687 -0.09312049 0.19078022 -0.29516643 -0.07418822 -0.27103555
00000000: 48cb 213f c41a 29bf aff5 30be 46a7 15be
00000010: 5e1d 823d 6ae9 7ebe c3a6 0a3d 0048 28bf
00000020: c032 b23e 7e76 8bbe fea7 1dbc 6e17 a7be
00000030: 435f af3c 82c6 2fbf d148 353e efd5 c93d
00000040: 0d3e 4fbe 93a4 abbe e190 02be c90f a9be
00000050: 4d19 ddbe b8ae 8b3e c13a dbbe 713f 8cbe
00000060: 2822 f03d 52f1 8dbe a174 be3c e445 12be
00000070: 0d28 c73d 1f8a 103e e733 b83c 563c 0fbd
00000080: eff1 dabd 3cda f0bc 2500 78be 9ce9 213d
00000090: 8b64 233e 4c50 15be 7078 a9bb e26d d33d
000000a0: c647 b6bc 6f5a 583e ba52 a13e cff1 913d
000000b0: 76bb 4fbe 77d1 b93d adab a1be 2329 dabe
000000c0: cfc3 95be e049 f9be 5cc9 513e c59b 76be
000000d0: a3e9 183e e311 be3d 8abe 47bf 9101 0dbe
000000e0: 6cff 35be d10e 0cbf e307 98bd a464 b0bc
000000f0: 5a14 6c3e dc70 59be 326f 613e 5e46 db3c
00000100: e719 6bbe bae0 4abf 536e babc 508e 0a3e
00000110: 91d6 46be a965 30be 91a3 debd bb33 a33d
00000120: 7023 823c 1a5d 423e d926 61ba 49b6 87be
00000130: e574 d7bd f9d4 10be 4ffd 57be c7c8 c8bd
00000140: 3c4b c3bc 8d81 26bc fe82 50bd e167 563e
00000150: 91f5 fcbe eed6 98bc 33e4 56bd da10 b43d
00000160: 331c 56bd dce7 e4bc b244 0b3e 2cac 13be
00000170: 2cd7 61bd 2438 8eba 4a45 a7be 06aa e8bd
00000180: 150c c83c a720 bcbe 31db d53d c499 02bf
00000190: 0a4b 823e c5b1 74bd b1d8 d73d aa5e 4d3e
000001a0: 47eb e23c 2b4e adbe c80a 63be 75ba b5be
000001b0: 69d6 b43e 7c55 94be f68e a2be c0b9 0dbf
000001c0: 6616 8a3d 0a56 81be d0c1 f3be 354a 44be
000001d0: a48d 20be 373e 0ebd e919 493e d07d f7be
000001e0: 08da 4dbe aff2 d9be 08c3 8cbd 93a4 2e3e
000001f0: 417d 3b3e 7721 8f3c 40f5 313e b71f 4a3e
00000200: 7547 7fbd 3177 debb f180 02be 7dd4 f93e
00000210: ca1f ddbe 1448 48bc 9d1c ed3e 5a67 9c3b
00000220: 99e6 263e f388 d33e 0982 0b3f 96f3 143f
00000230: d12c 9bbe dea9 f13d fadf 393e f182 c93e
00000240: 32f7 29be 9a72 fcbd 65cb ff3e 78d4 ee3e
00000250: 4e78 383d 9baf a1be 67f0 d23b b3ed 02bd
00000260: 530b c63e 963f 083e b0ae a7be 3f91 d4be
00000270: 182c 033d e038 c9bd 02e3 e53d feeb ff3d
00000280: 2c16 853d 5e4b 3b3e fadb 4dbe 1fc5 9d3e
00000290: bdee 203e 9183 753d b1eb 8d3e b39d 8a3e
000002a0: d17d c13e 1dec 9f3d db1f 53bd 39e1 cfbd
000002b0: 047f 073f afcd bebc 1c10 44be e8c1 c83e
000002c0: de3e 423e d758 343f 3b38 c8be 05bb ef3a
000002d0: 15b2 75be b2da 8dbe d41f 293e 4e8e a2bd
000002e0: 5c66 853e 8536 dc3e 3045 373e 32b1 0dbf
000002f0: 2c4c 933d e9e8 de3d 9116 a73d 212c 54be
00000300: 9c5c 21be 0391 da3e 8cc8 b6be 062b 893e
00000310: df7e cb3d eda3 473e aed0 2cbd 079f 1d3f
00000320: c3cd 88be 6dac 9dbd 9783 3fbd a9b8 233f
00000330: 3e43 9d3e 3992 2a3f 122f 373e c57f fbbd
00000340: ba5c c83d d5be 9a3e 6238 fdbd abbf 13be
00000350: f9d4 7ebd 9e97 82be 0b1a 363e 95cd ac3d
00000360: 420e 8ebe a369 5e3e ce5b 87be 1ce2 1fbe
00000370: 1287 323f e04a 09be 109e 103e 0aa4 cdbb
00000380: 2f75 76be 639c a63e 16ed 35be 1f79 13bd
00000390: 25f0 993c 8bd1 15bd 22a1 d1bd 5b30 39be
000003a0: cf9b 61be a0d1 26bd 8358 b1bd 0001 0d3e
000003b0: d0e4 373e 1b4f b13e d1eb 8f3d 04bc 2dbe
000003c0: 9dd5 66bc c648 cdbe d6f4 cfbe 07c8 33be
000003d0: cef9 163e f787 8e3d 9c19 893d 5e8a 6e3e
000003e0: 5cdd 8abe 79ac d5bd 2fb0 edbb f5b5 bebd
000003f0: e45b 433e 0e20 97be feef 97bd 2cc5 8abe

network_body._body_endoder.seq_layers.2.bias f4 [128]
-0.045978572 0.034817893 0.013876862 0.10621244 0.243933 0.17817397 -0.07850393 0.044991504
-0.14245065 0.060322758 -0.030087039 -0.09144894 0.084915206 0.13980356 0.14414437 0.13066874
-0.18484639 -0.22828177 0.0075065936 0.06467928 0.23622449 0.15365496 -0.1017077 0.3355989
-0.33540848 -0.11199237 -0.09531394 0.11127135 -0.16479512 -0.22364837 -0.06636 -0.049051806
0.054274466 0.1660398 -0.033687722 -0.06341643 -0.117433235 0.1483763 0.11190209 0.20229581
0.046758607 0.08130988 -0.137556 -0.2845994 -0.16462918 0.07867934 0.22967651 0.08789975
-0.33857945 -0.1994271 -0.15502775 -0.013268608 0.1293806 -0.111874945 -0.021546919 0.18625681
-0.07322809 -0.09128995 0.10531191 0.26112294 -0.23395209 -0.20911859 -0.026793033 0.3481692
0.068174675 0.04903089 -0.34143814 -0.025456145 -0.042466804 -0.046651904 -0.30651847 0.031556237
-0.19642787 -0.1321115 0.056624457 0.22655939 0.09110638 -0.029905986 -0.10240272 0.3444075
-0.14784679 0.42683583 -0.19146769 0.19830881 0.026019193 0.13123454 0.25128564 0.31309184
0.1728162 0.074578 0.016915515 0.23723933 0.2792326 -0.19631574 -0.060663067 -0.24678004
0.16861148 0.116862155 -0.14115682 0.0836331 0.05010986 0.105060525 0.122179195 0.04242069
0.26418725 -0.00044397253 0.3870756 0.2024522 -0.027949778 0.0518075 -0.31376088 0.020082086
0.12202087 0.25271043 0.09264132 0.15134418 -0.120136485 0.06438295 0.05274451 -0.27451047
-0.19022793 -0.18894725 0.064214095 -0.02353453 0.04084117 0.08443506 -0.020551428 0.09159336
00000000: 0754 3cbd 359d 0e3d c75b 633c e885 d93d
00000010: 93c9 793e 3d73 363e abc6 a0bd 0349 383d
00000020: 95de 11be ff14 773d 1879 f6bc 9549 bbbd
00000030: 06e8 ad3d aa28 0f3e 959a 133e 07ce 053e
00000040: 5f48 3dbe b2c2 69be dff9 f53b 9276 843d
00000050: d5e4 713e ba57 1d3e 204c d0bd 9ed3 ab3e
00000060: a9ba abbe 415c e5bd f433 c3bd 3ce2 e33d
00000070: 0dc0 28be 1404 65be c0e7 87bd 8cea 48bd
00000080: e74e 5e3d 5606 2a3e 23fc 09bd 79e0 81bd
00000090: d680 f0bd f5ef 173e ec2c e53d a226 4f3e
000000a0: f485 3f3d cb85 a63d 7bdb 0cbe 03b7 91be
000000b0: 8d94 28be a222 a13d 5230 6b3e c904 b43d
000000c0: 495a adbe 9e36 4cbe 98bf 1ebe 9364 59bc
000000d0: 597c 043e b11e e5bd 2a83 b0bc 1bba 3e3e
000000e0: 9cf8 95bd 3af6 babd c5ad d73d e8b1 853e
000000f0: 2391 6fbe 2f23 56be 107d dbbc 3c43 b23e
00000100: 2a9f 8b3d 9dd4 483d fbd0 aebe 6889 d0bc
00000110: acf1 2dbd 1116 3fbd fdef 9cbe 1d41 013d
00000120: 6324 49be 3d48 07be 0cef 673d 2fff 673e
00000130: fb95 ba3d 66fd f4bc 84b8 d1bd 2e56 b03e
00000140: 2665 17be 3a8a da3e 1b10 44be 7711 4b3e
00000150: 3426 d53c 5962 063e 83a8 803e 934d a03e
00000160: bbf6 303e 5abc 983d 6892 8a3c deee 723e
00000170: 93f7 8e3e fe06 49be d679 78bd e8b3 7cbe
00000180: 7da8 2c3e 6d55 ef3d 6a8b 10be d547 ab3d
00000190: ff3f 4d3d f929 d73d 1639 fa3d 51c1 2d3d
000001a0: 8d43 873e fcc4 e8b9 c62e c63e a14f 4f3e
000001b0: eff6 e4bc 1a34 543d 44a5 a0be 3083 a43c
000001c0: 14e6 f93d 4363 813e bbba bd3d f8f9 1a3e
000001d0: 1e0a f6bd 35db 833d a10a 583d a38c 8cbe
000001e0: 1ccb 42be 637b 41be ae82 833d 7dcb c0bc
000001f0: 1249 273d 4aec ac3d 785b a8bc 4d95 bb3d

action_model._discrete_distribution.branches.0.weight f4 [7, 128]
-0.3961593 0.015721941 -0.21719825 -0.4802323 -0.21170245 0.09020524 -0.2571255 -0.071225144
0.09589247 -0.044219345 -0.110039145 -0.57422495 -1.2176844 0.012147202 0.1304365 -0.09494107
-0.050401013 -0.020970553 -0.31437552 0.31702152 -0.1491572 0.12234635 -0.02891123 -0.044297278
-0.17295434 -0.56231326 -0.0537718 0.019732786 0.053492047 0.22807671 0.25854266 0.6442595
0.10109193 -0.42620495 -0.033287637 0.22282185 0.17992844 0.013345775 0.19702286 -0.07617098
0.27002192 0.2028749 -0.09356609 0.37970194 -0.39380535 -0.018509153 0.0350718 0.22354554
0.13824444 -0.014138997 0.16307165 -0.36257648 -0.035952378 -0.25148958 -0.1419256 -0.37306613
-0.20911552 0.04739614 0.18010205 0.060655244 -0.1539186 -0.28081572 -0.06893375 -0.25101408
0.047542006 0.3414562 0.00947793 0.32276824 -0.124214895 -0.19558918 -0.4026221 0.12850691
0.0035853959 0.12191799 0.04171198 -0.07928675 0.10284842 0.07085174 -0.47582936 -0.52177423
-0.11388865 0.11026427 0.25199604 -0.44831488 -0.6841927 0.13110362 0.3429432 0.18414176
0.053193223 0.025198068 -0.1144974 0.35512033 0.16944703 -0.6864947 -0.318175 -0.020039085
0.04922034 0.16510881 -0.04923359 -0.3925402 -0.33865678 -0.361205 0.26761854 -0.31768227
0.15191661 -0.5639907 0.13775347 0.13026525 -0.47020364 0.049437907 -0.052766457 -0.108613
0.04063122 -0.061785236 -0.47650322 -0.7430363 -0.050637793 0.05341839 -0.14604867 0.07634957
-0.40962765 -0.17563272 0.078321666 0.088920645 0.19071102 0.06430935 0.43844172 0.15312663
0.108729325 -0.5782639 -0.07534674 0.09668515 -0.21869998 0.15503359 0.3386103 -0.29148546
-0.029515589 0.3665008 -0.4433508 0.40230748 0.14702559 0.14001979 0.1923962 0.101059206
-0.5004904 0.61560833 0.30968812 -0.008724048 -0.15587908 -0.2610126 0.049803346 -0.22506443
0.4426402 0.16676348 0.30083382 -0.0004346657 0.52150416 0.5057365 -0.13535823 0.17137887
-0.32416004 0.28907436 0.479509 -0.0889491 0.36821327 0.5770307 -0.38440117 0.56653136
0.40313745 -0.20859547 0.030640967 0.2777745 0.053815156 0.3641252 0.23475416 -0.54624325
0.12759392 0.48133668 0.010239463 0.1952537 0.54674345 0.11590625 -0.27732098 -0.049714677
0.4893081 -0.019154016 0.14495675 -0.3706373 0.45664483 0.6042637 0.12527797 0.15891081
-0.23386872 0.38611084 0.39146698 -0.4942146 -0.15959048 0.2704144 0.037141353 -0.024661994
0.28877535 -0.18093279 0.17142306 0.17526157 0.33800477 0.062548526 0.11385962 -0.13891219
-0.15147248 -0.0728751 -0.14509417 0.5872125 0.22869271 0.09064691 -0.19448698 -0.3617892
0.1969194 0.34488425 0.7480153 0.13681363 -0.07480043 0.15315218 -0.03881433 0.5808617
0.23627514 0.0723272 -0.23066464 0.53595144 -0.63117856 -0.2608252 -0.18398646 0.22921693
0.3600413 -0.0005876277 -0.08948575 0.258842 0.1613279 0.35866335 0.5007464 0.4038731
0.15511353 -0.6431259 0.098481186 0.34643188 0.3412141 0.4096811 0.011350329 0.23524779
0.69293725 0.116255835 0.11845386 -0.29107732 -0.0973178 0.30662894 0.027739877 0.42814
00000000: 64d5 cabe 4dcb 803c 3869 5ebe 02e1 f5be
00000010: 87c8 58be 86bd b83d f4a5 83be 7dde 91bd
00000020: 4563 c43d 581f 35bd 345c e1bd 6800 13bf
00000030: 15dd 9bbf 0f05 473c 2591 053e 7770 c2bd
00000040: 4b71 4ebd 70ca abbc d4f5 a0be a550 a23e
00000050: aabc 18be b990 fa3d 3ed7 ecbc 1071 35bd
00000060: f11a 31be c3f3 0fbf d23f 5cbd a7a6 a13c
00000070: 7a1a 5b3d f18c 693e b45f 843e 31ee 243f
00000080: 4909 cf3d 8937 dabe 9e58 08bd 692b 643e
00000090: 293f 383e 3da8 5a3c 5cc0 493e 88ff 9bbd
000000a0: 5040 8a3e 70be 4f3e 949f bfbd 4b68 c23e
000000b0: dba0 c9be 82a0 97bc 73a7 0f3d 1fe9 643e
000000c0: f38f 0d3e 40a7 67bc 41fc 263e a0a3 b9be
000000d0: cd42 13bd 3ec3 80be f254 11be 8602 bfbe
000000e0: 6122 56be 7422 423d ac6c 383e a271 783d
000000f0: d69c 1dbe 14c7 8fbe 232d 8dbd eb84 80be
00000100: 68bb 423d 59d3 ae3e 5249 1b3c e141 a53e
00000110: 6164 febd 8848 48be 7c24 cebe 5197 033e
00000120: f6f8 6a3b 24b0 f93d 2eda 2a3d 1761 a2bd
00000130: 31a2 d23d b81a 913d e89f f3be ff92 05bf
00000140: 743e e9bd 3cd2 e13d a005 813e 8789 e5be
00000150: 4127 2fbf 0740 063e 4096 af3e a88f 3c3e
00000160: 23e1 593d 2e6c ce3c 9d7d eabd 55d2 b53e
00000170: 8683 2d3e 1ebe 2fbf d5e7 a2be 0229 a4bc
00000180: 449b 493d 4912 293e 29a9 49bd 07fb c8be
00000190: 6c64 adbe ddef b8be 4c05 893e 40a7 a2be
000001a0: 0790 1b3e b261 10bf 3f0f 0d3e 4164 053e
000001b0: 88be f0be 677f 4a3d a421 58bd 7e70 debd
000001c0: ec6c 263d 8412 7dbd 3bf8 f3be a137 3ebf
000001d0: 9369 4fbd 3ecd 5a3d c88d 15be 2a5d 9c3d
000001e0: b7ba d1be 10d9 33be 1c67 a03d 071c b63d
000001f0: c049 433e 9fb4 833d 6f7b e03e 3acd 1c3e
00000200: 7bad de3d 1a09 14bf 644f 9abd dd02 c63d
00000210: e3f2 5fbe 20c1 1e3e 545e ad3e 953d 95be
00000220: adca f1bc fea5 bb3e e0fe e2be 3ffb cd3e
00000230: e08d 163e 5961 0f3e 8203 453e 21f8 ce3d
00000240: 2420 00bf 8298 1d3f 718f 9e3e 4fef 0ebc
00000250: c49e 1fbe 72a3 85be 98fe 4b3d 4a77 66be
00000260: bca1 e23e 0cc4 2a3e e406 9a3e d8e3 e3b9
00000270: 4c81 053f f277 013f 599b 0abe f17d 2f3e
00000280: 4ef8 a5be 8e01 943e 3482 f53e f22a b6bd
00000290: 7386 bc3e 49b8 133f 3bd0 c4be 3308 113f
000002a0: 0868 ce3e 0d9a 55be c402 fb3c 7638 8e3e
000002b0: 486d 5c3d 9e6e ba3e 6563 703e 99d6 0bbf
000002c0: fba7 023e c371 f63e 6cc3 273c 96f0 473e
000002d0: 61f7 0b3f 4260 ed3d 04fd 8dbe 9ea1 4bbd
000002e0: 9786 fa3e e2e8 9cbc 8b6f 143e 2cc4 bdbe
000002f0: 5acd e93e 07b1 1a3f de48 003e 84b9 223e
00000300: 487b 6fbe 52b0 c53e 5c6e c83e b209 fdbe
00000310: b06b 23be c273 8a3e 8821 183d f307 cabc
00000320: 5dda 933e 7246 39be 8789 2f3e c577 333e
00000330: f60e ad3e 7119 803d 3c2f e93d ff3e 0ebe
00000340: 9a1b 1bbe 8a3f 95bd 9193 14be 8f53 163f
00000350: 6c2e 6a3e 16a5 b93d 9827 47be 6f3c b9be
00000360: 3da5 493e ab94 b03e ee7d 3f3f df18 0c3e
00000370: f830 99bd edd3 1c3e c6fb 1ebd 5ab3 143f
00000380: 1cf2 713e 4820 943d 5a33 6cbe 1d34 093f
00000390: eb94 21bf e18a 85be f266 3cbe d8b7 6a3e
000003a0: 5557 b83e 070b 1aba 4e44 b7bd f086 843e
000003b0: 2433 253e b9a2 b73e eb30 003f 74c8 ce3e
000003c0: 15d6 1e3e e6a3 24bf 81b0 c93d 855f b13e
000003d0: 9db3 ae3e b9c1 d13e bbf6 393c cce4 703e
000003e0: 5664 313f 8a17 ee3d f097 f23d 1608 95be
000003f0: 8e4e c7bd 78fe 9c3e bd3e e33c 2b35 db3e

action_model._discrete_distribution.branches.0.bias f4 [7]
-0.05314661 -0.23169687 0.16344409 0.22063074 -0.5533631 0.20807195 0.2220211
00000000: 42b0 59bd f241 6dbe e35d 273e 06ed 613e
00000010: 34a9 0dbf d010 553e 8059 633e

exp_avg f4 [128, 163]
-1.3019677e-05 3.841777e-05 6.0008635e-05 -0.0002560048 -0.0003728231 -8.949433e-06 0.00010742978 -9.343052e-06
-8.497428e-05 -0.0001269121 -1.0647926e-05 -1.2584631e-05 2.233304e-05 -0.00019724025 -0.00040930652 8.929155e-06
6.347374e-05 1.8116305e-05 -0.0002017733 -0.00015748429 -1.2654435e-05 -3.2450513e-05 -0.00067720737 -6.891848e-05
-4.8142574e-05 5.1034567e-06 2.1120464e-05 6.5306966e-05 -0.00017550819 -4.7367015e-05 -1.7461638e-05 6.500717e-06
-0.00011916467 0.00019785401 0.00013057663 -3.0001458e-05 6.440789e-05 -6.010385e-06 -0.00012096937 -7.357907e-05
4.823403e-06 -5.864999e-05 -7.306739e-05 5.443166e-05 2.5826952e-05 -2.8917291e-05 1.33308495e-05 6.445176e-05
-2.5039066e-05 2.3027613e-05 3.3195151e-06 -6.746556e-05 -0.00020360481 -1.42415665e-05 -6.6143184e-06 -2.8730177e-05
0.00011127412 0.0003390365 -4.4567914e-06 0.0001460106 3.623135e-06 -2.9647406e-05 -5.910886e-06 -7.17746e-05
-0.00014758031 -3.5304725e-05 8.0348575e-05 4.2189702e-05 -8.36276e-05 -6.0921222e-05 7.0803744e-06 -2.6375204e-05
2.4248948e-05 -8.531442e-06 -0.00014117907 -1.9559822e-05 8.117391e-05 -6.866493e-05 -7.839689e-05 -0.00013071274
-2.2866664e-06 7.125046e-05 3.5637393e-05 -5.763778e-05 -0.00017619829 1.3159152e-05 -4.917598e-05 3.9318205e-05
-0.00015799169 -6.6560795e-05 1.7930342e-05 3.9243932e-05 -7.849645e-05 -0.00019540552 -0.0002678087 1.5007126e-05
1.4519953e-05 3.4437544e-05 -0.0002278687 -6.667954e-05 -1.0080254e-06 -6.948736e-05 -4.3863452e-05 -0.0002651048
-0.00013112926 1.5842525e-05 -2.2059685e-06 -4.7914782e-05 0.0001392201 0.00010607259 -1.0530292e-06 -1.0480388e-05
3.495762e-05 -0.00030560663 -0.00024664728 -2.2339686e-08 0.00014610188 6.6460016e-06 -7.6501194e-05 -4.4587377e-05
-4.404381e-07 -7.695544e-05 0.00021905651 -0.00041764678 -0.00025621278 4.343088e-09 -6.7407076e-05 2.9819778e-06
-2.2341046e-05 -1.2313692e-05 1.8787328e-07 -0.00014406034 0.00021324778 -0.00029131444 -0.00029095804 4.3442747e-09
3.9392853e-05 -3.0553976e-05 5.0992858e-05 -6.165757e-05 1.8736587e-07 2.8028546e-05 0.00019401504 -0.0001504807
-0.00023626102 1.8500663e-07 8.936604e-05 -2.203956e-05 -0.00034062346 -0.0002628171 1.8500663e-07 8.936604e-05
-2.203956e-05 -0.00034062346 -0.0002628171 -4.0812218e-05 -0.00030374425 -3.5025841e-06 -0.025420766 -4.8406207e-05
4.7017347e-05 -0.00017232801 -6.733196e-05 -4.139552e-05 -0.0002338647 6.401211e-05 0.00019810506 0.0001389986
-4.6918358e-05 -0.00016351035 0.00022186217 0.00023582763 0.00026799986 -3.6089168e-05 -4.148729e-06 -5.6332574e-05
0.0003619006 0.00031349726 -3.6576595e-05 -0.00011748289 0.00035608947 -0.00043466187 6.870529e-05 -2.4676145e-05
0.00026559824 -3.6500693e-05 -9.13168e-06 7.087962e-05 -2.307365e-05 -0.00020350773 0.00037414476 -0.0002818966
9.986004e-06 3.6277843e-06 0.0002681601 -7.8352256e-05 -0.00022652547 -1.1023098e-05 2.441297e-06 -0.00025760737
0.0006230627 -0.00029548828 -3.747997e-05 -1.9025449e-05 0.0002853943 -0.0002132964 2.165942e-05 -1.189296e-05
3.9651277e-06 -0.00012063929 0.00017942081 -0.00041860744 8.411138e-05 9.849874e-06 -1.6800266e-05 3.4185505e-05
0.00060324004 0.00043287963 5.7904763e-06 -2.4912493e-05 0.000100278376 -0.00045425992 0.00012237337 0.00016704314
-6.167096e-05 1.1779077e-05 0.00050221913 0.00037970877 1.8954803e-05 -8.303183e-05 0.00010539147 0.00010323561
0.00014802584 0.00020456151 8.217062e-05 6.172841e-05 0.00034651253 0.000357843 1.9144823e-05 0.0005407374
-0.00026993128 -0.00029348288 7.6797485e-05 0.0001998599 8.571102e-05 -0.00016897092 0.00014881091 0.00012493877
9.19874e-06 0.00073432166 -0.00022399044 -0.0004932377 0.00013672808 0.00019963866 -0.0001842371 0.0001206872
00000000: 166f 5ab7 c422 2138 c8b1 7b38 6238 86b9
00000010: 7877 c3b9 8625 16b7 ed4b e138 1ac0 1cb7
00000020: 3834 b2b8 b513 05b9 7ea4 32b7 9422 53b7
00000030: d757 bb37 47d2 4eb9 3198 d6b9 6ece 1537
00000040: 341d 8538 78f8 9737 1c93 53b9 5e22 25b9
00000050: 624e 54b7 791b 08b8 9e86 31ba 5488 90b8
00000060: b2ec 49b8 5c3e ab36 da2b b137 69f5 8838
00000070: 9f08 38b9 f2ab 46b8 957a 92b7 bc20 da36
00000080: 0ce8 f9b8 0877 4f39 66eb 0839 a4ab fbb7
00000090: b912 8738 d0ac c9b6 f0b0 fdb8 764e 9ab8
000000a0: b7d8 a136 f2fe 75b8 c23b 99b8 8d4d 6438
000000b0: f5a6 d837 6993 f2b7 90a7 5f37 462a 8738
000000c0: fc0a d2b7 6c2b c137 d6c4 5e36 4c7c 8db8
000000d0: c07e 55b9 10ef 6eb7 90f0 ddb6 9601 f1b7
000000e0: d75b e938 b5c0 b139 8c8b 95b6 6c1a 1939
000000f0: fc24 7336 52b3 f8b7 2056 c6b6 b285 96b8
00000100: cabf 1ab9 2914 14b8 d080 a838 d9f4 3038
00000110: 3a61 afb8 aa85 7fb8 f493 ed36 5240 ddb7
00000120: 386a cb37 4422 0fb7 7809 14b9 6614 a4b7
00000130: e93b aa38 3400 90b8 0369 a4b8 ef0f 09b9
00000140: a174 19b6 4d6c 9538 5c79 1538 18c0 71b8
00000150: dec1 38b9 21c6 5c37 4e42 4eb8 9ae9 2438
00000160: 92aa 25b9 8e96 8bb8 1e69 9637 da99 2438
00000170: 769e a4b8 c5e5 4cb9 ad68 8cb9 1ec7 7b37
00000180: b99a 7337 0871 1038 0af0 6eb9 4ed6 8bb8
00000190: 7d4b 87b5 beb9 91b8 06fa 37b8 c4fd 8ab9
000001a0: be7f 09b9 90e5 8437 400a 14b6 1bf8 48b8
000001b0: 9cfb 1139 4a73 de38 cf55 8db5 ecd4 2fb7
000001c0: 759f 1238 d439 a0b9 7050 81b9 7de5 bfb2
000001d0: ed32 1939 b800 df36 446f a0b8 5503 3bb8
000001e0: 5a75 ecb4 2363 a1b8 89b2 6539 9af7 dab9
000001f0: 4c54 86b9 353a 9531 e65c 8db8 fd1d 4836
00000200: 0869 bbb7 e896 4eb7 37ba 4934 e70e 17b9
00000210: 449b 5f39 90bb 98b9 ba8b 98b9 a544 9531
00000220: c139 2538 1527 00b8 2ae1 5538 284e 81b8
00000230: bd2e 4934 d81e eb37 8470 4b39 5bca 1db9
00000240: d6bc 77b9 3ca6 4634 076a bb38 98e1 b8b7
00000250: b595 b2b9 b7ca 89b9 3ca6 4634 076a bb38
00000260: 98e1 b8b7 b595 b2b9 b7ca 89b9 c92d 2bb8
00000270: dd3f 9fb9 f00d 6bb6 363f d0bc c507 4bb8
00000280: 7e34 4538 f3b2 34b9 9234 8db8 1aa0 2db8
00000290: 9439 75b9 3d3e 8638 6cba 4f39 27c0 1139
000002a0: 34ca 44b8 fa73 2bb9 aca3 6839 7f48 7739
000002b0: 5582 8c39 735e 17b8 5035 8bb6 a446 6cb8
000002c0: 7abd bd39 e45c a439 d269 19b8 2561 f6b8
000002d0: 85b1 ba39 54e3 e3b9 df15 9038 9eff ceb7
000002e0: fe3f 8b39 5218 19b8 4434 19b7 35a5 9438
000002f0: 498e c1b7 b164 55b9 dc28 c439 85cb 93b9
00000300: 9089 2737 dc74 7336 d797 8c39 0c51 a4b8
00000310: 7887 6db9 d8ef 38b7 2ad5 2336 7a0f 87b9
00000320: 0855 233a c4eb 9ab9 d033 1db8 d798 9fb7
00000330: f9a0 9539 51a8 5fb9 40b1 b537 e087 47b7
00000340: 300c 8536 baff fcb8 e822 3c39 8a78 dbb9
00000350: f464 b038 e340 2537 4cee 8cb7 6862 0f38
00000360: c122 1e3a 1ff4 e239 d04b c236 2cfb d0b7
00000370: 8b4c d238 bc29 eeb9 5a51 0039 4d28 2f39
00000380: 5855 81b8 c09e 4537 5ba7 033a a613 c739
00000390: 2101 9f37 6021 aeb8 9d05 dd38 3280 d838
000003a0: 6237 1b39 907f 5639 0453 ac38 3074 8138
000003b0: 20ac b539 e09c bb39 3299 a037 46c0 0d3a
000003c0: 9085 8db9 9bde 99b9 560e a138 7c91 5139
000003d0: c1bf b338 c92d 31b9 200a 1c39 ff01 0339
000003e0: 4a54 1a37 7e7f 403a fade 6ab9 9f4c 01ba
000003f0: aa5e 0f39 1856 5139 c52f 41b9 7219 fd38

exp_avg_sq f4 [128, 163]
1.006815e-08 9.54092e-08 9.593733e-07 6.237453e-07 2.2337222e-06 6.0293495e-09 5.2979004e-08 5.1805284e-07
8.6405277e-07 1.9821373e-06 2.0813046e-08 1.1389835e-07 2.3665941e-06 7.9795905e-07 4.3720315e-06 5.569763e-09
7.47e-08 2.474201e-07 9.2826804e-07 1.6946154e-06 2.2354605e-08 3.717682e-07 8.26765e-06 5.027449e-07
3.6685963e-06 3.7217924e-09 1.3378161e-07 1.699683e-07 8.008573e-07 1.6644901e-06 2.8183214e-08 4.3978997e-07
1.1509693e-05 1.5733895e-07 2.5208292e-06 2.1734778e-08 2.1243582e-07 3.3545976e-07 7.627562e-07 1.907013e-06
3.43708e-08 5.233231e-07 1.1657793e-05 1.1253037e-07 2.1588894e-06 3.943803e-08 4.240389e-07 6.4494617e-07
1.0225189e-06 2.5468814e-06 1.5255864e-07 4.8898244e-07 1.1087407e-05 1.4216721e-07 2.1447577e-06 1.9145999e-07
8.937655e-07 7.764437e-07 1.7178826e-06 3.5259939e-06 1.4370787e-07 4.4882452e-07 9.62226e-06 1.5645685e-07
2.494278e-06 1.8875772e-07 1.1805668e-06 8.7832547e-07 1.5504642e-06 3.5889166e-06 1.4518483e-07 2.8130933e-07
5.210313e-06 4.6308116e-07 3.1111451e-06 1.9061174e-07 1.320787e-06 1.0656844e-06 1.4621888e-06 3.499094e-06
1.3738178e-07 3.4992325e-07 1.1647295e-06 9.39658e-07 2.931091e-06 1.7964182e-07 1.3734635e-06 1.0163573e-06
1.7353842e-06 3.7678985e-06 5.8132887e-08 4.351001e-07 2.9226757e-07 8.2629157e-07 2.1400267e-06 1.809489e-07
1.6238561e-06 9.574751e-07 2.1522685e-06 4.1623643e-06 9.348015e-09 4.916236e-07 2.0867573e-07 8.6268307e-07
1.7957224e-06 2.9761841e-08 1.626339e-06 7.580845e-07 3.008816e-06 5.0741305e-06 4.1456043e-09 4.013365e-07
1.7329646e-07 1.0561884e-06 1.9314934e-06 2.9094137e-08 1.5379546e-06 4.5301817e-07 3.8028277e-06 5.840549e-06
2.4275586e-09 2.3294383e-07 2.4939698e-07 1.1252993e-06 2.1079072e-06 1.6647675e-08 1.1797475e-06 1.8253068e-07
4.887365e-06 6.6150847e-06 9.940697e-10 4.1425125e-07 1.9836884e-07 1.2457105e-06 2.5205761e-06 2.5467832e-09
1.0269388e-06 1.6633514e-07 4.1786393e-06 6.286192e-06 3.682141e-10 4.1184526e-07 1.8065458e-07 2.335475e-06
3.9620395e-06 3.5463912e-10 5.987552e-07 1.6068904e-07 4.583633e-06 6.6687066e-06 3.5463912e-10 5.987552e-07
1.6068904e-07 4.583633e-06 6.6687066e-06 4.5737454e-07 1.965199e-06 1.6109003e-06 0.014537845 8.568504e-06
2.7807469e-06 9.4848116e-07 5.593341e-06 6.209696e-08 7.3778307e-07 4.3342675e-07 1.7983542e-06 4.0509854e-06
4.8825058e-08 7.6940535e-07 6.605073e-07 1.650302e-06 3.8642643e-06 7.003617e-08 8.3847937e-07 3.0630972e-07
2.348203e-06 4.4831404e-06 3.2908687e-08 9.122805e-07 9.4434495e-07 1.6993631e-06 3.977555e-06 6.9705514e-08
1.4916857e-06 2.7683592e-07 2.18162e-06 4.6788714e-06 3.5716712e-09 8.743038e-07 1.23859e-06 2.6200048e-06
5.050864e-06 4.222739e-08 2.277501e-06 9.575859e-07 1.8748614e-06 4.6019295e-06 3.5731382e-09 1.5606288e-06
1.7065892e-06 2.8241502e-06 6.435231e-06 3.1507543e-08 2.6252305e-06 1.8060457e-06 1.879743e-06 4.6995865e-06
3.4085905e-09 2.9590162e-06 2.6186333e-06 3.4497164e-06 8.630343e-06 2.314207e-07 2.9548337e-06 2.708133e-06
1.6025992e-06 4.894388e-06 3.6092068e-08 4.7263957e-06 3.353501e-06 4.400759e-06 1.0765861e-05 2.3119598e-07
3.056684e-06 2.9977548e-06 1.8966948e-06 5.6233766e-06 3.5028595e-08 6.4297233e-06 3.7456352e-06 4.5183842e-06
1.2344536e-05 2.409531e-07 2.875751e-06 2.8775607e-06 2.7666663e-06 7.4567342e-06 3.663741e-08 7.610349e-06
3.6782008e-06 5.0408144e-06 1.32609175e-05 2.4032258e-07 2.9000273e-06 2.9766627e-06 3.820075e-06 9.697407e-06
3.8969567e-08 7.3160804e-06 4.0845002e-06 6.5556806e-06 1.4733439e-05 1.7876704e-07 3.5282605e-06 3.193765e-06
00000000: 31f8 2c32 c3e3 cc33 d1c3 8035 736f 2735
00000010: 0ee7 1536 b82a cf31 088b 6333 5210 0b35
00000020: 41f1 6735 dc04 0536 5fc8 b232 4898 f433
00000030: c7d1 1e36 5433 5635 77b3 9236 2760 bf31
00000040: c26a a033 29d5 8434 182e 7935 8b72 e335
00000050: 4c06 c032 6f97 c734 49b5 0a37 5ef4 0635
00000060: 0132 7636 77c2 7f31 9ca5 0f34 8880 3634
00000070: 7ffa 5635 7267 df35 8b17 f232 461c ec34
00000080: c119 4137 00f1 2834 842b 2936 48b3 ba32
00000090: ea19 6434 3d19 b434 35c0 4c35 78f4 ff35
000000a0: 189f 1333 7d7a 0c35 d795 4337 3aa8 f133
000000b0: 70e1 1036 9362 2933 76a7 e334 5d20 2d35
000000c0: 7b3d 8935 17eb 2a36 00cf 2334 9e42 0335
000000d0: 0d04 3a37 a0a6 1834 a8ee 0f36 1f94 4d34
000000e0: 19eb 6f35 ce6c 5035 ff91 e635 1da0 6c36
000000f0: 1e4e 1a34 f9f5 f034 4b6f 2137 88fe 2734
00000100: 5f63 2736 54ad 4a34 f773 9e35 11c6 6b35
00000110: 8b19 d035 1ed9 7036 1ae4 1b34 dc06 9734
00000120: 3fd4 ae36 649d f834 11c9 5036 f5aa 4c34
00000130: e545 b135 a308 8f35 6d40 c435 fad1 6a36
00000140: 3783 1334 16dd bb34 cd53 9c35 ce3c 7c35
00000150: c3b3 4436 91e3 4034 d957 b835 c569 8835
00000160: 59eb e835 01dc 7c36 c9ad 7933 b497 e934
00000170: f3e8 9c34 53ce 5d35 619d 0f36 db4a 4234
00000180: 45f3 d935 9882 8035 b16f 1036 70aa 8b36
00000190: 0199 2032 1ef8 0335 5910 6034 2193 6735
000001a0: 8d04 f135 fba6 ff32 9548 da35 2c7f 4b35
000001b0: 11eb 4936 7342 aa36 1f71 8e31 4577 d734
000001c0: 5e13 3a34 5bc2 8d35 ce9e 0136 afea f932
000001d0: b86b ce35 5836 f334 1534 7f36 eff9 c336
000001e0: 10d2 2631 1d1f 7a34 dce4 8534 fd08 9735
000001f0: 9275 0d36 a000 8f32 d157 9e35 a7fd 4334
00000200: 25fe a336 25f7 dd36 b89f 8830 4266 de34
00000210: 36ff 5434 4932 a735 2b27 2936 7c03 2f31
00000220: 59d5 8935 db99 3234 3d36 8c36 faed d236
00000230: 876d ca2f 951b dd34 f4f9 4134 28bb 1c36
00000240: a9f1 8436 05f7 c22f 25ba 2035 de89 2c34
00000250: 1ccd 9936 c1c3 df36 05f7 c22f 25ba 2035
00000260: de89 2c34 1ccd 9936 c1c3 df36 148d f534
00000270: dde1 0336 1d36 d835 2430 6e3c 72c1 0f37
00000280: de9c 3a36 219b 7e35 6fae bb36 2a5a 8533
00000290: 110c 4635 b8b1 e834 fb5e f135 b3ed 8736
000002a0: b8b3 5133 2289 4e35 b74d 3135 f27f dd35
000002b0: c7a9 8136 cb66 9633 dd13 6135 e372 a434
000002c0: d295 1d36 e26d 9636 7c57 0d33 70e3 7435
000002d0: e47e 7d35 ac15 e435 f076 8536 03b1 9533
000002e0: ee35 c835 0aa0 9434 f267 1236 33ff 9c36
000002f0: 8171 7531 b3b1 6a35 a13d a635 57d3 2f36
00000300: 977a a936 825d 3533 2bd7 1836 6786 8035
00000310: bfa3 fb35 466a 9a36 508b 7531 cc76 d135
00000320: f50d e535 8886 3d36 37ee d736 e952 0733
00000330: 1e2d 3036 4267 f235 7a4b fc35 24b1 9d36
00000340: 8f3c 6a31 8393 4636 c7bb 2f36 ad81 6736
00000350: 0acb 1037 707c 7834 a84b 4636 5fbd 3536
00000360: e418 d735 793a a436 a603 1b33 6e97 9e36
00000370: b50c 6136 3baa 9336 059f 3437 ab3e 7834
00000380: 6e21 4d36 092d 4936 f091 fe35 70b0 bc36
00000390: 5972 1633 e7be d736 865d 7b36 a09c 9736
000003a0: 611b 4f37 585c 8134 07fd 4036 1e1c 4136
000003b0: f7aa 3936 dc34 fa36 425b 1d33 665c ff36
000003c0: 02d7 7636 4424 a936 357b 5e37 af05 8134
000003d0: 179e 4236 adc2 4736 322e 8036 0cb2 2237
000003e0: 7e5f 2733 a77c f536 970d 8936 def8 db36
000003f0: a32f 7737 1cf3 3f34 0ec7 6c36 7754 5636

exp_avg f4 [128]
-1.7997576e-05 9.62022e-05 6.216984e-05 -0.000117252195 0.00059484784 -0.00082218833 -5.8074453e-05 -0.00048022257
5.5424945e-05 1.6339314e-05 -0.0002276614 0.0014498085 0.00018900551 -0.00016053232 -0.00029113554 0.000149838
-0.0012170838 0.0016451734 8.165807e-07 8.625248e-06 -0.0009685573 -0.00031972447 -0.00032255118 -0.00083589996
0.0012723387 -0.00092762185 -0.0016866431 -0.00022562352 -0.00086305244 0.000301246 0.0001607862 0.001565827
-0.0006870589 -0.00036773056 -1.2626006e-06 0.00014699466 0.0009907954 0.00036391974 -0.00066854426 1.8323713e-05
-0.0022115505 1.8571329e-05 -0.000419021 0.00040266232 -0.00028304514 -0.00046267034 -0.0003701372 -2.4613324e-05
0.00049640745 0.00019397784 -0.0007702642 -0.00050656195 0.00051229994 -0.00066009065 -9.660948e-06 -0.00022850155
-0.00018314924 -9.707024e-05 -0.0007102775 -0.0007772995 0.0003392605 -2.8764007e-05 0.000277772 -0.0005286306
8.872221e-05 -2.540919e-05 0.0005906768 -0.00026242278 0.00038585166 -0.00017802819 0.0005479861 -0.0010697596
-0.00018101413 0.00033577727 3.7565773e-05 0.0009332438 0.00030725118 0.0014630528 -0.0005996046 -0.00021817005
0.00058569637 -0.0004578858 -7.5729455e-05 0.00017272217 0.0005029552 -0.00060899963 0.0003398186 -4.268703e-05
-0.0008779755 0.00027960833 0.0006074913 0.00088479766 0.00016072523 -0.00057590776 -0.00083922595 0.0006385149
-0.00035659006 -0.00012717879 0.00022953213 -4.7301786e-05 0.000260931 -0.0006019883 0.0002991152 -0.00017341576
0.00022886094 -0.0006201281 9.5136405e-05 -0.00030762173 0.00014343181 7.741371e-05 0.00045445867 0.00074041635
-4.737962e-05 -6.01445e-05 -0.0005706678 -0.0006245863 -0.00036917848 -0.0008675235 -0.0002589281 -0.0003812678
-0.00046021998 5.940222e-05 -6.859875e-05 -0.00014412269 0.00025003793 0.00066738576 0.00020418884 -3.2312064e-06
00000000: 80f9 96b7 2ac0 c938 2e61 8238 4be5 f5b8
00000010: 90ef 1b3a 2088 57ba f894 73b8 62c6 fbb9
00000020: 1578 6838 6910 8937 64b8 6eb9 8007 be3a
00000030: c82f 4639 9154 28b9 8da3 98b9 d51d 1d39
00000040: 8e86 9fba dca2 d73a 0033 5b35 28b5 1037
00000050: c8e6 7dba b1a0 a7b9 161c a9b9 4c20 5bba
00000060: 9ac4 a63a a62b 73ba 5a12 ddba 5a95 6cb9
00000070: 783e 62ba 8ef0 9d39 b898 2839 703c cd3a
00000080: be1b 34ba f6cb c0b9 a076 a9b5 9422 1a39
00000090: 94dd 813a 7bcc be39 3f41 2fba e0b5 9937
000000a0: a9ef 10bb a0c9 9b37 0cb0 dbb9 6c1c d339
000000b0: ad65 94b9 9092 f2b9 f90e c2b9 b678 ceb7
000000c0: 5721 023a 8866 4b39 8eeb 49ba ccca 04ba
000000d0: de4b 063a ef09 2dba 7515 22b7 eb99 6fb9
000000e0: c00b 40b9 3092 cbb8 eb31 3aba b0c3 4bba
000000f0: c6de b139 3c4a f1b7 eda1 9139 cd93 0aba
00000100: 6010 ba38 d225 d5b7 a6d7 1a3a ca95 89b9
00000110: 224c ca39 14ad 3ab9 baa6 0f3a 2d37 8cba
00000120: 9cce 3db9 430b b039 f18f 1d38 eea4 743a
00000130: 8e16 a139 e8c3 bf3a c92e 1dba 94c4 64b9
00000140: 6b89 193a 6410 f0b9 f1d0 9eb8 c11c 3539
00000150: c1d8 033a 46a5 1fba ae29 b239 d90a 33b8
00000160: f027 66ba 6598 9239 0d40 1f3a c4f1 673a
00000170: 5a88 2839 84f8 16ba 80ff 5bba 0262 273a
00000180: b5f4 bab9 4c5b 05b9 90ae 7039 e865 46b8
00000190: 91cd 8839 c0ce 1dba 90d2 9c39 f0d6 35b9
000001a0: 64fa 6f39 1890 22ba f883 c738 4a48 a1b9
000001b0: 2f66 1639 2b59 a238 6944 ee39 8018 423a
000001c0: 7bb9 46b8 aa43 7cb8 de98 15ba 47bb 23ba
000001d0: 4c8e c1b9 846a 63ba bec0 87b9 e6e4 c7b9
000001e0: ae49 f1b9 a626 7938 acdc 8fb8 a41f 17b9
000001f0: 8617 8339 80f3 2e3a 861b 5639 b4d7 58b6

exp_avg_sq f4 [128]
1.4147055e-05 3.6270772e-05 1.3614474e-05 1.2402766e-07 1.0578097e-05 2.5070753e-05 2.8850064e-07 1.4249088e-05
8.361904e-06 8.289039e-08 4.1956082e-05 7.1700495e-05 6.193861e-07 1.1087451e-06 8.341272e-06 2.230362e-06
1.9333527e-05 3.8174014e-05 5.066461e-05 7.3668355e-07 1.1000374e-05 7.918747e-06 1.2273455e-05 6.0914623e-05
1.8510316e-05 2.8786879e-05 4.213189e-05 4.6037085e-06 1.4122563e-05 1.4548921e-05 2.7691955e-05 1.3446111e-05
4.6012383e-06 1.1405604e-05 3.0540516e-06 3.318504e-06 2.6864656e-05 1.0614436e-05 6.716519e-06 1.8397353e-06
6.153031e-05 4.655745e-07 2.5361633e-05 1.7169768e-05 4.793368e-06 5.285835e-06 9.830618e-07 5.659525e-06
2.6094493e-05 4.39883e-05 2.2787106e-05 7.0327e-06 8.409398e-06 1.9607905e-05 5.8474086e-07 8.359044e-06
2.0332984e-06 1.903416e-05 1.5823487e-05 4.528477e-05 7.923882e-06 3.2100678e-07 2.2621974e-05 7.92736e-06
1.7661741e-05 2.1939014e-08 2.6300093e-05 6.559387e-05 8.987856e-06 1.0604543e-06 1.679692e-05 8.169742e-06
4.0811374e-06 1.3002347e-05 2.1357507e-06 2.7642956e-05 3.0042575e-05 3.3356217e-05 1.0114137e-05 1.8029314e-05
2.1104885e-05 1.3561433e-05 9.61301e-06 4.873139e-06 1.60673e-05 3.4114964e-05 1.2513481e-05 7.917394e-07
1.7772485e-05 5.839699e-06 7.008469e-06 4.8198734e-05 2.0308005e-05 1.2045873e-05 3.091121e-05 1.0194239e-05
1.7548426e-05 3.0328863e-07 1.3430826e-05 6.2281913e-07 2.2932568e-06 1.0060731e-05 9.655189e-05 6.4396017e-06
1.419018e-06 1.9136884e-05 6.5912327e-06 3.0328854e-06 9.784418e-06 1.3911191e-06 5.1525317e-06 3.371852e-06
3.1351112e-06 4.7975645e-06 1.2913797e-05 2.2976368e-05 2.1720566e-06 2.7590353e-05 4.05636e-06 2.1480264e-05
5.3168637e-06 2.0027544e-05 6.964823e-06 4.391249e-06 1.0850457e-05 1.8426825e-05 2.0563108e-05 2.2388351e-06
00000000: 2359 6d37 7221 1838 b869 6437 772c 0534
00000010: 9578 3137 084f d237 3ae3 9a34 5e0f 6f37
00000020: 1b4a 0c37 7901 b233 00fa 2f38 e95d 9638
00000030: e443 2635 31d0 9435 7ef1 0b37 54ad 1536
00000040: 6f2e a237 091d 2038 b680 5438 82c0 4535
00000050: 3f8e 3837 c2da 0437 16ea 4d37 947e 7f38
00000060: 9a46 9b37 5a7b f137 c6b6 3038 8e79 9a36
00000070: f2ef 6c37 2417 7437 054c e837 9b96 6137
00000080: 5664 9a36 b25a 3f37 35f4 4c36 77b3 5e36
00000090: 695b e137 a814 3237 755e e136 d3ec f635
000000a0: d509 8138 12f4 f934 b1bf d437 cc07 9037
000000b0: b8d6 a036 fa5c b136 bff1 8335 f3e6 bd36
000000c0: 7fe5 da37 1480 3838 f026 bf37 6ffa eb36
000000d0: 1716 0d37 a87b a437 16f7 1c35 d23d 0c37
000000e0: cd73 0836 8cab 9f37 aebc 8437 27f0 3d38
000000f0: d0f0 0437 d656 ac34 52c4 bd37 c0ff 0437
00000100: 4d28 9437 6774 bc32 059f dc37 718f 8938
00000110: 8cca 1637 ef54 8e35 1ce7 8c37 c610 0937
00000120: b4f0 8836 a824 5a37 eb53 0f36 cce2 e737
00000130: f003 fc37 f7e7 0b38 e3af 2937 a83d 9737
00000140: 650a b137 e985 6337 9047 2137 f283 a336
00000150: 44c8 8637 aa16 0f38 fef0 5137 eb87 5435
00000160: 1f16 9537 a2f2 c336 4a2a eb36 ff28 4a38
00000170: 1c5b aa37 a118 4a37 a9a6 0138 ec07 2b37
00000180: f534 9337 acd3 a234 f554 6137 ce2f 2735
00000190: dae5 1936 83ca 2837 e77b ca38 c213 d836
000001a0: 1675 be35 2588 a037 422a dd36 9388 4b36
000001b0: c127 2437 7db6 ba35 e9e3 ac36 fa47 6236
000001c0: cd64 5236 c4fa a036 56a8 5837 60bd c037
000001d0: a6c3 1136 d571 e737 de1b 8836 8430 b437
000001e0: 8367 b236 d300 a837 60b3 e936 8b58 9336
000001f0: 5c0a 3637 4e93 9a37 f07e ac37 e53e 1636
