Source/Trained_Policies/WeightAgent_Training/WeightAgent_Training/WeightAgent_Training-136853.onnx (onnx, 155824 bytes, 6 tensors)

network_body._body_endoder.seq_layers.0.weight f4 [128, 163]
0	0x3d07255c	0.032994613
1	0xbd29418c	-0.041322276
2	0x3bb87120	0.00562872
3	0xbe372bbd	-0.17887779
4	0xbd8bbdb9	-0.06823296
5	0x3d864e31	0.065578826
6	0xbbdeefbb	-0.0068034804
7	0x3d06eaf6	0.03293892
8	0x3da92b84	0.08260253
9	0xbd84c5fb	-0.06483074
10	0x3e36a437	0.1783608
11	0xbd6c6bf1	-0.05772013
12	0xbdaefb97	-0.08544081
13	0x3e00d979	0.12582959
14	0x3c8bf0c9	0.017082589
15	0xbd86f059	-0.065888114
16	0x3d0b318d	0.033982802
17	0x3d75c81b	0.06000529
18	0x3cf38410	0.029726058
19	0xbd570243	-0.05249239
20	0x3dab4b88	0.08364016
21	0x3ccfd55e	0.025370296
22	0x3de5182a	0.111862496
23	0x3b550452	0.0032503796
24	0x3b70839e	0.0036699544
25	0x3daebcf1	0.085321315
26	0x3d8de4c3	0.069283985
27	0x3d6ac3dc	0.057315692
28	0x3c459830	0.01206021
29	0xbd1f78d1	-0.03893358
30	0x3d8288ee	0.063737735
31	0x3c670b64	0.014101837
32	0xbb828c78	-0.0039840303
33	0xbd49944b	-0.04921369
34	0x3d2df2ed	0.042468
35	0x3df49cfd	0.11944006
36	0x3d0e5a18	0.03475389
37	0xbc5ad316	-0.013355991
38	0xbd399e94	-0.045317248
39	0xbca339b3	-0.019924974
40	0x3c109ff3	0.008827197
41	0xbd682069	-0.056671534
42	0x3d041775	0.032248933
43	0xbd201cef	-0.039090093
44	0xbbccd20d	-0.006250626
45	0x3e28b1db	0.16474096
46	0xbd8c15ab	-0.0684007
47	0x3c8f7647	0.017512454
48	0xbe099b44	-0.13438135
49	0xbdabf8c7	-0.0839706
50	0xbd47c93a	-0.04877589
51	0xbd2bb3a1	-0.041919354
52	0x3da4b412	0.08042158
53	0xbe2f8100	-0.17139053
54	0x3dce6de7	0.10079556
55	0xbddbda4c	-0.10734996
56	0xbcbb9d28	-0.022902086
57	0xbd7565ec	-0.059911653
58	0xbd9840ad	-0.07434211
59	0xbdd255d6	-0.10270278
60	0xbd6345d0	-0.0554865
61	0xbd7074a8	-0.058705002
62	0x3d5366a7	0.05161157
63	0xbd820270	-0.06348121
64	0xbe1abb48	-0.15110505
65	0xbca580af	-0.020202963
66	0x3b5e377d	0.0033907585
67	0x3dd34300	0.103155136
68	0x3d6f19cc	0.05837421
69	0xbdc94c9c	-0.09829065
70	0xbd19c78b	-0.037543815
71	0xbca3e2c0	-0.020005584
72	0x3bcaa16a	0.006183793
73	0xbd3da557	-0.04630026
74	0x3d8adb19	0.06780071
75	0x3b382ab1	0.0028101618
76	0xbbd0c8fb	-0.006371615
77	0xbce97aed	-0.028500998
78	0xbd9771d2	-0.073947564
79	0xbdb1d3e1	-0.08682991
80	0xbd342378	-0.043979138
81	0x3de6ced5	0.11269919
82	0x3b0bd84d	0.0021338642
83	0xbce89ff2	-0.02839658
84	0xbe0e0c23	-0.13871817
85	0x3db153e6	0.086585805
86	0x3dade131	0.084902175
87	0x3d5b1ec9	0.053496156
88	0xbd5a7afe	-0.05333995
89	0x3a2cb1c4	0.00065877684
90	0x3d1b2acd	0.037882615
91	0xbc6c84fe	-0.014436005
92	0xbcd1a7ba	-0.025592674
93	0xbe23bfc1	-0.15991117
94	0xbcb4d261	-0.022072973
95	0x3c735396	0.014851471
96	0xbd4c11a6	-0.04982152
97	0x3dacc776	0.08436482
98	0x3d85150b	0.06498154
99	0xbc567c70	-0.013091192
100	0xbd869422	-0.06571223
101	0x3dd69490	0.10477555
102	0x3d803411	0.06259931
103	0xbdc1f9ec	-0.09471497
104	0xbdece433	-0.11566963
105	0x3da631aa	0.081149414
106	0x3d1ad3a0	0.037799478
107	0x3cd13bea	0.025541265
108	0x3dc91f02	0.098203674
109	0x3d794d35	0.060864646
110	0x3cdbc5af	0.026827661
111	0x3d946256	0.072453186
112	0x3d7a5174	0.061112836
113	0xbd6f7f5b	-0.058471065
114	0xbdbdae34	-0.09261742
115	0x3c5bacd8	0.013407908
116	0xbca7d8d6	-0.020489138
117	0xbcc1c0e1	-0.023651542
118	0xbe230519	-0.15919913
119	0x3b4252ee	0.002965148
120	0xbc818fa2	-0.01581556
121	0xbccb69ac	-0.024830662
122	0xbbdf35c6	-0.00681183
123	0x3caa5f0a	0.020797271
124	0x3ae861e0	0.0017729364
125	0x3d2af341	0.04173589
126	0xbd5625da	-0.05228219
127	0xbd95718f	-0.0729705
128	0x3bc62821	0.006047264
129	0xbd845e31	-0.06463278
130	0xbde433da	-0.111427024
131	0x3dd17080	0.10226536
132	0x3c2f3602	0.010694029
133	0x3c932288	0.017960802
134	0xbcab24b4	-0.020891525
135	0x3d5ceccf	0.053936776
136	0xbe000ffc	-0.12506098
137	0x3d6e3285	0.058153648
138	0xbc41943c	-0.011815127
139	0x3e24877c	0.16067308
140	0x3c1dc255	0.009628852
141	0xbc8b62d5	-0.0170149
142	0x3dcb7e83	0.099362396
143	0xbd6fb1ca	-0.058519162
144	0xbcd23e26	-0.0256644
145	0xbcd9361c	-0.02651506
146	0xbbc4f85d	-0.0060110525
147	0xbd8733aa	-0.06601651
148	0xbd4ede11	-0.050504748
149	0x3d157456	0.0364879
150	0xbe481c85	-0.1954213
151	0x3c2952df	0.010334699
152	0x3d453850	0.048149407
153	0xbcd0f2ff	-0.025506495
154	0xbe147e11	-0.14501216
155	0xbb3d8b56	-0.0028922162
156	0x3b6950fd	0.0035601251
157	0xbdc698ef	-0.096971385
158	0x3e38eea2	0.18059781
159	0x3dc46802	0.095901504
160	0xbd3035d3	-0.04302008
161	0x3cfde865	0.030994603
162	0xbb71df36	-0.0036906726
163	0xbc3320d0	-0.010933116
164	0x3d1d529c	0.03840886
165	0x3e080de8	0.13286555
166	0x3c88e3e0	0.016710222
167	0xbc94e7cd	-0.018176937
168	0xbdcf1d46	-0.10113005
169	0x3cfbce19	0.030737923
170	0xbcae128e	-0.021249082
171	0xbd5b6d32	-0.053570934
172	0xbc9b58a9	-0.018963175
173	0xbddcb637	-0.10776942
174	0x3e0d14cb	0.13777463
175	0x3d0a1cd3	0.033718895
176	0xbd674dca	-0.05647067
177	0xbca07a61	-0.019589605
178	0x3a69f75c	0.0008925104
179	0xbdcfecf6	-0.101526186
180	0x3e1a3d0a	0.15062347
181	0xbe5a92d1	-0.21345069
182	0x3dfe4c07	0.12416845
183	0x3da55570	0.080729365
184	0xbd7f55f5	-0.062337834
185	0xbd07a016	-0.033111654
186	0x3db8869c	0.0901005
187	0xbbcf6575	-0.0063292333
188	0xbd15f63e	-0.036611788
189	0x3d97a7be	0.07405041
190	0xbdab2684	-0.08356956
191	0xbab298d0	-0.0013625864
192	0x3c1af2fb	0.009457345
193	0xbcecd70b	-0.028911134
194	0x3e08191d	0.1329083
195	0xbc13e3fa	-0.009026522
196	0x3a620c4b	0.00086230476
197	0xbde9d45c	-0.114174575
198	0x3d893f91	0.067015775
199	0x3d48126a	0.048845686
200	0x3de043fd	0.10950468
201	0xbd601829	-0.05471054
202	0x3d0c31a9	0.034227047
203	0xbdea9df3	-0.11455908
204	0x3d3d0447	0.046146657
205	0xbd72bc9b	-0.0592619
206	0x3d5738ee	0.052544527
207	0xbda06ba2	-0.07833029
208	0xbda82e1d	-0.082119204
209	0xbc41468c	-0.011796605
210	0xbc6154f8	-0.013753168
211	0x3d457208	0.04820445
212	0x3d58df9b	0.05294762
213	0xbd5af402	-0.05345536
214	0x3de70243	0.11279728
215	0xbc8c968b	-0.017161628
216	0xbda1f754	-0.07908502
217	0xbc07e780	-0.00829494
218	0x3c7b4d14	0.015338201
219	0xbdb5a951	-0.08870185
220	0x3d3a2805	0.04544832
221	0xbc7f74a9	-0.015591779
222	0xbd97f2a8	-0.0741933
223	0x3dd7f64b	0.105450235
224	0x3cb1417e	0.021637674
225	0x3d2c4ea3	0.04206718
226	0x3da1be5a	0.07897635
227	0x3d0321e0	0.032014728
228	0x3dbd16ae	0.092328414
229	0xbd1df628	-0.03856483
230	0x3d226f23	0.03965677
231	0xbd153845	-0.036430616
232	0x3dfd5e3c	0.123714894
233	0xbc09a9f3	-0.008402335
234	0x3e227bda	0.15867558
235	0x3e1579de	0.1459727
236	0x3d85c181	0.065310486
237	0xbd42b3e1	-0.047534827
238	0x3debb0ac	0.11508307
239	0xbdf7d78d	-0.1210166
240	0xbde1b68d	-0.11021147
241	0xbe0d0310	-0.137707
242	0xbe2c94b6	-0.16853604
243	0x3d87ed23	0.06637027
244	0xbd7a0789	-0.061042342
245	0x3de107b7	0.109877996
246	0xbcb4a4b0	-0.022051185
247	0xbcd9fcb1	-0.02660975
248	0x3d57cef5	0.052687604
249	0xbe362810	-0.1778872
250	0x3b65d82e	0.003507148
251	0xbd967725	-0.07346944
252	0xbd388e8e	-0.045057826
253	0xbcb4b59a	-0.02205925
254	0xbc727b89	-0.014799961
255	0xbb9a5875	-0.004710252

network_body._body_endoder.seq_layers.0.bias f4 [128]
0	0xbaf7e261	-0.0018912071
1	0xbc14a1c1	-0.009071768
2	0xbc5b86e8	-0.013398863
3	0x3c01e264	0.007927511
4	0x3c880a7d	0.016606564
5	0xbbc7f12f	-0.0061017494
6	0x3bdab91d	0.0066748993
7	0xba53f657	-0.0008085719
8	0x3a107a2c	0.0005511369
9	0x3c99809c	0.018738084
10	0x3c59315c	0.013256397
11	0x3c2a2628	0.010385074
12	0xbc3173ea	-0.010830859
13	0xbb592aa4	-0.0033136988
14	0xbb897337	-0.004194643
15	0x3c8aaa3f	0.016926883
16	0x3aecaceb	0.0018056905
17	0x3b90c6ea	0.0044182437
18	0x3b4397b4	0.002984506
19	0x3ab0d4fb	0.0013491208
20	0xbc96d108	-0.01841022
21	0xbb6bbd31	-0.003597092
22	0x3c066bf7	0.008204452
23	0xbad910b1	-0.001656076
24	0xbacfdcde	-0.001585867
25	0x3c26fcaa	0.010192076
26	0x3c9b1c3b	0.01893436
27	0x3b777fe4	0.0037765438
28	0xbb7be265	-0.0038434502
29	0xbc2caedf	-0.010539739
30	0xbc4237e1	-0.011854143
31	0x3c5e9097	0.013584278
32	0xbad94d73	-0.0016578868
33	0xbbd61d18	-0.00653423
34	0x3b745167	0.0037279965
35	0x3b319ebf	0.0027102677
36	0x3bc66a40	0.0060551465
37	0x3c3dd864	0.011587236
38	0x3b91fa57	0.0044548917
39	0xbbe6bb58	-0.007041376
40	0x39d139ab	0.00039906552
41	0x3c14f270	0.009091005
42	0xbb6e3f39	-0.0036353602
43	0xbbbdbc35	-0.0057902583
44	0x3a9aacd0	0.001180077
45	0xbbf6c3e8	-0.007530678
46	0xbad4f82b	-0.0016248276
47	0x3991d559	0.00027815512
48	0x39a8006f	0.0003204378
49	0xbbcc004b	-0.006225621
50	0x3b3232f4	0.0027191015
51	0xbcaa7695	-0.020808497
52	0x3c46daf0	0.01213716
53	0x3b0ee7d9	0.0021805672
54	0x3b36f4f9	0.0027917011
55	0xbc0c24e1	-0.0085537145
56	0x3c658f0d	0.014011157
57	0x3c2badb5	0.010478427
58	0x3b97e693	0.004635641
59	0x3a9bd790	0.0011889804
60	0x3b054182	0.0020333235
61	0xbb7c4650	-0.0038494058
62	0xbbb142db	-0.005409581
63	0x3c030559	0.00799688
64	0x3bbf8d8b	0.0058457307
65	0xbcad9b25	-0.021192143
66	0x3c2d12a3	0.010563525
67	0x3bfa90ca	0.0076466547
68	0x3baefbf7	0.005340095
69	0x3c113895	0.008863588
70	0xbbc73921	-0.0060798083
71	0x3bef241d	0.007298006
72	0x3b6650fd	0.0035143488
73	0x3be544a3	0.0069967075
74	0x3c0b75f6	0.008512011
75	0x3a9b4026	0.0011844679
76	0xbaca321d	-0.0015426312
77	0xbb863ac6	-0.004096362
78	0x3c07046a	0.0082407985
79	0xbc78fe22	-0.015197309
80	0xb9c1e30b	-0.0003698099
81	0x3c1695f2	0.009191023
82	0xbb42a805	-0.0029702198
83	0xbbec962b	-0.00722005
84	0xbc2125e7	-0.009835697
85	0x390407e2	0.00012591438
86	0xbc3c1e6f	-0.011481865
87	0x3b49933f	0.0030757932
88	0xbc162f4b	-0.009166549
89	0x3b412047	0.0029468702
90	0x3a190b51	0.0005838173
91	0xbc806e81	-0.015677692
92	0x3c2b071c	0.010438707
93	0xbbe7606a	-0.007061054
94	0xbb2f8fdc	-0.0026788628
95	0xbb12cfd4	-0.0022401707
96	0x3c5a0534	0.013306905
97	0x3c6c0524	0.0144055225
98	0x3cbc7f7a	0.023010004
99	0x3acbd860	0.0015552156
100	0x3be743f6	0.007057662
101	0xbb255c0c	-0.0025231866
102	0x3ba65263	0.005075739
103	0xbc2e84d7	-0.010651789
104	0x3b4a5a32	0.0030876515
105	0x3c6c4912	0.014421718
106	0x3caf2b6e	0.021383014
107	0xbbd23d00	-0.006415963
108	0x3a3b9500	0.00071556866
109	0xbc6bd88c	-0.0143948905
110	0xbafb15b9	-0.0019156254
111	0x3c0ed547	0.0087178415
112	0x3b5763bf	0.003286585
113	0x3c6f0bfd	0.014590261
114	0xbc03aa97	-0.008036277
115	0x3c75a293	0.014992374
116	0xbc33a71e	-0.010965137
117	0x3bb6d3c3	0.005579443
118	0xbc0c7bc7	-0.008574433
119	0x3c4e1508	0.012578256
120	0x3bd9e812	0.0066499794
121	0x3b17ffc7	0.0023193227
122	0xbbf02ca5	-0.007329541
123	0xbaa656f2	-0.0012690707
124	0xbbfa274e	-0.00763408
125	0xbc2bbe8e	-0.0104824435
126	0xbbcb773c	-0.006209282
127	0x3c6be518	0.014397882

network_body._body_endoder.seq_layers.2.weight f4 [128, 128]
0	0x3d6e854a	0.058232583
1	0x3dccab7e	0.09993647
2	0x3d9ecd0b	0.077539526
3	0xbe0b76f5	-0.13619597
4	0xbbef1e9c	-0.00729735
5	0x3c78e9f4	0.0151924975
6	0xbd3e8722	-0.04651559
7	0x3d5a02a5	0.05322518
8	0x3e2d8126	0.16943797
9	0xbb87cd9d	-0.004144384
10	0x3c1d3e6d	0.009597403
11	0xbda27884	-0.07933143
12	0xbd92013f	-0.07129144
13	0x3c08fbe5	0.008360838
14	0xbbd7df08	-0.0065878667
15	0x3d03dc93	0.032192778
16	0xbc0b4cef	-0.008502229
17	0xbe098c0a	-0.13432327
18	0xbcabd41e	-0.020975169
19	0xbcf00701	-0.029300215
20	0x3d8cb1f0	0.068698764
21	0xbe0861c7	-0.13318549
22	0x3d055db4	0.032560065
23	0xbce6fbe5	-0.028196285
24	0xbd6012af	-0.054705318
25	0x3e029ec7	0.12755881
26	0xbdd68531	-0.10474623
27	0xbe0fe6c2	-0.14052871
28	0x3c3a5505	0.011372809
29	0xbc1f1917	-0.009710572
30	0xbd6b6c00	-0.057476044
31	0xbbc0205f	-0.005863234
32	0xbdbaf74f	-0.091292016
33	0x3b9a3ad5	0.0047067204
34	0xbd94a635	-0.07258264
35	0xbdc7ad93	-0.097499035
36	0x3d432bc9	0.04764918
37	0x3d5b1cbe	0.053494208
38	0xbcc91bd4	-0.024549402
39	0xbdb36383	-0.08759215
40	0x3d239230	0.039934337
41	0xbc99fd49	-0.018797534
42	0xbcb7d4ed	-0.022440398
43	0x3db10dab	0.08645185
44	0x3cdb7c41	0.026792647
45	0xbcf89a88	-0.030347124
46	0x3cf946f1	0.030429335
47	0xbde3df24	-0.11126545
48	0xbdcaeb08	-0.0990811
49	0xbcd4cd05	-0.025976667
50	0xbdb7a110	-0.08966267
51	0xbcb0ac23	-0.021566456
52	0xbe15602d	-0.1458747
53	0x3dd7079c	0.10499498
54	0xbdfb542e	-0.122719154
55	0x3e8308cd	0.25592652
56	0xbd5c0eda	-0.0537251
57	0xbd594a69	-0.05304948
58	0x3e2b1dd9	0.16710605
59	0x3dacdcff	0.08440589
60	0x3e8edad5	0.2790133
61	0xbd8bb27d	-0.06821153
62	0x3e12da49	0.14341082
63	0x3d83c901	0.06434823
64	0x3e1d0e28	0.15337431
65	0x3ccca959	0.024983095
66	0xbcf27405	-0.029596338
67	0xbc59a9f9	-0.013285154
68	0xbd07bfff	-0.033142086
69	0xbdc939d0	-0.0982548
70	0x3dd3c29b	0.103398524
71	0xbd867e6b	-0.06567081
72	0xbda26f65	-0.07931403
73	0xbcd0f4e9	-0.025507407
74	0xbd0e719c	-0.034776315
75	0xbcaad53c	-0.020853631
76	0x3da84a16	0.08217256
77	0x3b9ea9a8	0.004842002
78	0x3cb2b61c	0.021815352
79	0xbd790600	-0.060796738
80	0x3d4edf42	0.050505884
81	0xbde83842	-0.11338855
82	0x3ca6a48b	0.020342132
83	0xbd55b08b	-0.052170318
84	0xbdb919db	-0.09038135
85	0xbd16228d	-0.036654044
86	0xbdd370ef	-0.10324275
87	0xbe12d7ea	-0.14340177
88	0x3dd7e4e9	0.10541708
89	0x3e220548	0.15822327
90	0x3e2e5e21	0.17028095
91	0xbd2c7cca	-0.042111196
92	0x3c8df056	0.017326515
93	0xbcaabb52	-0.020841274
94	0xbd2a34e2	-0.04155434
95	0xbd9ba1f6	-0.07599251
96	0xbce8073d	-0.028323764
97	0xbe22d55f	-0.15901707
98	0xbd4ddd23	-0.05025972
99	0xbd2ff4de	-0.042958133
100	0xbcaa952c	-0.020823084
101	0x3e0d4e85	0.13799484
102	0xbd8b7fbd	-0.068114735
103	0xbdec172e	-0.11527859
104	0xbc5a9ca9	-0.013343015
105	0xbd3bf7ee	-0.04589074
106	0xbdaf1143	-0.08548214
107	0x3e415406	0.18879709
108	0x3bb291e6	0.0054495214
109	0x3e00b4f9	0.12569036
110	0xbd97099a	-0.07374878
111	0xbe39ac6b	-0.18132178
112	0xbd122ae6	-0.035685442
113	0x3c2c5ce1	0.010520191
114	0xbe219685	-0.15780075
115	0xbd2de3f0	-0.042453706
116	0x3d40d992	0.04708249
117	0x3d9486ef	0.07252299
118	0x3cb6fd7c	0.022337668
119	0xbdca40ab	-0.09875616
120	0x3d80b696	0.062848255
121	0xbdfca0ac	-0.12335333
122	0xbcff8759	-0.031192468
123	0x3d23e71e	0.040015332
124	0x3db6cd4d	0.08925877
125	0x3d871a35	0.065967955
126	0x3cd84e59	0.026404547
127	0xbd9a818f	-0.075442426
128	0x3d1f305c	0.03886448
129	0x3df2bbc3	0.11852219
130	0xbd0027fc	-0.031288132
131	0xbddae756	-0.10688655
132	0xbc3f3ba5	-0.011671935
133	0x3e076629	0.13222565
134	0x3df4aae2	0.11946656
135	0x3cd15995	0.025555411
136	0x3dce504c	0.10073909
137	0xbda8c7d8	-0.08241242
138	0xbd8ead4f	-0.0696665
139	0x3d170b22	0.03687585
140	0x3d2be0ff	0.04196262
141	0x3dc1e409	0.094673224
142	0xbde71293	-0.112828396
143	0xbd8b134c	-0.0679079
144	0xbdde3f30	-0.10851896
145	0xbdbebb71	-0.09313095
146	0x3cc345c0	0.02383697
147	0xbcabf9e1	-0.020993175
148	0x3d2a6ebc	0.04160951
149	0xbcd9c586	-0.026583444
150	0xbd586f78	-0.05284068
151	0x3bcc01f3	0.0062258183
152	0x3c10bb7f	0.008833765
153	0xbe2abf81	-0.16674615
154	0xbd3b0dbf	-0.045667406
155	0x3d901401	0.070350654
156	0xbc81800e	-0.015808132
157	0xbcd672c6	-0.026177775
158	0xbcc4e0a8	-0.024032906
159	0xbdf2b53b	-0.11850973
160	0x3ab5fef2	0.0013885184
161	0xbd6d837d	-0.057986725
162	0x3c720949	0.014772722
163	0xbd0cf0f7	-0.03440949
164	0xbdff5bc3	-0.12468674
165	0x3c81562b	0.015788158
166	0xbdbf142f	-0.093300216
167	0xbc017e82	-0.007903697
168	0xbae2e90e	-0.0017311887
169	0x3d387ad2	0.045039006
170	0xbdb65237	-0.089024
171	0xbd48d0f4	-0.0490274
172	0xbdc051cf	-0.09390604
173	0xbded66b0	-0.11591852
174	0x3ddae012	0.10687269
175	0xbdf2e269	-0.118595906
176	0xbdfc0a5d	-0.12306664
177	0xbd67ffba	-0.056640364
178	0x3e147168	0.14496386
179	0xbc853407	-0.01626016
180	0x3e188916	0.14896044
181	0xbda368a4	-0.07978943
182	0xbc0f32f9	-0.00874018
183	0xbcb2a0ae	-0.021805134
184	0x3dbf7be2	0.09349801
185	0x3cf588a2	0.029972378
186	0x3d5147b1	0.05109376
187	0xbd0bfa20	-0.034174085
188	0x3cf3ef87	0.029777301
189	0x3b490e19	0.003067857
190	0xbc68a4f6	-0.014199486
191	0x3c8d8678	0.017276034
192	0x3dde8945	0.10866026
193	0x3d9c7052	0.07638611
194	0xbd854573	-0.06507387
195	0x3e10b59a	0.14131775
196	0xbd8440d8	-0.064576805
197	0xbd374d1b	-0.044751268
198	0x3d4f9cf2	0.050686784
199	0xbcb53e4a	-0.022124428
200	0xbdfd6e6d	-0.12374578
201	0xbe54804b	-0.20752065
202	0x3d4924d9	0.049107406
203	0x3c89e997	0.016835017
204	0xbd189adb	-0.037257057
205	0xbd385b3b	-0.04500888
206	0xbd88295b	-0.06648513
207	0x3d9df847	0.07713371
208	0x3d5e5dc9	0.05428866
209	0xbd3e52fe	-0.046465866
210	0x3d3d51a2	0.04622043
211	0x3ceb1a75	0.02869914
212	0x3e03bb7f	0.12864493
213	0xbd9d164c	-0.076702684
214	0xbdeeb44f	-0.11655485
215	0xbd080071	-0.033203546
216	0x3d11bbec	0.035579607
217	0xbdce6d69	-0.10079462
218	0xbc68a897	-0.014200351
219	0xbd89f575	-0.0673627
220	0xbd7d8e2d	-0.061903168
221	0xbe14dedd	-0.1453814
222	0x3d36582e	0.04451769
223	0x3ce7e691	0.028308185
224	0xbd0508b9	-0.03247902
225	0x3d84b953	0.0648066
226	0xbcb01b0e	-0.021497276
227	0x3b336eec	0.0027379347
228	0x3e1addb7	0.1512364
229	0x3d78dcf8	0.060757607
230	0x3dbbbb71	0.09166611
231	0xbd653e4f	-0.055967625
232	0xbd852b6a	-0.06502421
233	0xbe5d6199	-0.21619262
234	0xbe4c2976	-0.19937691
235	0xbca0a1ee	-0.019608464
236	0x3daa7d6d	0.08324704
237	0xbd3f1725	-0.04665293
238	0x3c534546	0.012894934
239	0xbd185842	-0.037193544
240	0xbdbc1206	-0.09183125
241	0x3ca388b0	0.019962639
242	0xbdd7e6df	-0.10542082
243	0x3d7614d5	0.06007846
244	0xbe009ea4	-0.12560517
245	0x3e4c2161	0.19934608
246	0xbdacd0a3	-0.08438232
247	0x3e52e40f	0.2059481
248	0xbcfde130	-0.030991167
249	0x3d206137	0.03915521
250	0xbd2c5192	-0.04206998
251	0xbd855a6d	-0.06511388
252	0xbd446a5a	-0.047952987
253	0xbdb6c556	-0.089243576
254	0x3d158051	0.036499325
255	0x3d9f8995	0.077899136

network_body._body_endoder.seq_layers.2.bias f4 [128]
0	0xbc0549e3	-0.008135292
1	0xba49aaef	-0.00076930126
2	0x396f511d	0.00022823033
3	0x3c1c1bb8	0.009528093
4	0x3b15f9f4	0.002288458
5	0x3c479146	0.012180632
6	0x3b47c32d	0.0030481324
7	0xbb639ab8	-0.003472967
8	0x3b25b903	0.0025287278
9	0x3b2dc964	0.0026517743
10	0xbbbd74ba	-0.005781737
11	0x3b503244	0.0031768242
12	0xbc033a70	-0.008009538
13	0xbb512d81	-0.0031917992
14	0x3b6348d1	0.0034680853
15	0xbc66a185	-0.014076595
16	0x3c3ad8ad	0.011404199
17	0xbbf3945a	-0.0074334564
18	0xbc26a9d9	-0.010172331
19	0x3a25dfb9	0.0006327588
20	0xbc7aace5	-0.01530001
21	0xbb699b07	-0.0035645382
22	0x3c1a9ac8	0.009436317
23	0x3c827b91	0.015928062
24	0x3c0156ff	0.007894277
25	0xbc0d98a4	-0.008642349
26	0xbc081213	-0.0083050905
27	0xbb74471a	-0.0037273825
28	0x3c5f046b	0.013611893
29	0x3c0b147a	0.008488769
30	0x3be41985	0.00696105
31	0xbbcae6ca	-0.006192063
32	0x3a4f2f26	0.0007903449
33	0xbb1b9267	-0.0023738386
34	0xbc28ce94	-0.010303158
35	0x3c8f45ee	0.0174894
36	0x3cbad7d1	0.022807987
37	0x39df3f3c	0.00042580988
38	0xbaef6958	-0.0018265648
39	0x3bafda86	0.005366626
40	0x39242175	0.00015652723
41	0xbbcf238a	-0.0063213753
42	0xba4e4515	-0.00078685704
43	0xbb4458a5	-0.0029960063
44	0xbbf47e98	-0.00746138
45	0x3b477995	0.0030437459
46	0xbc6089d7	-0.013704739
47	0xbc597b21	-0.013273985
48	0xbbf0d568	-0.0073496588
49	0xbbd5b906	-0.0065223007
50	0x3c0286ee	0.00796674
51	0xbb5dec82	-0.0033862893
52	0xbb05f3c7	-0.0020439492
53	0xbbb7cd2a	-0.0056091743
54	0x3ab2dfc0	0.0013647005
55	0xbab19595	-0.0013548607
56	0x3c043144	0.008068386
57	0x3abbb1fd	0.0014320012
58	0xbbf8e23a	-0.0075953277
59	0xbb2af59a	-0.0026086331
60	0xbbc71bdc	-0.006076319
61	0xbacf3f27	-0.0015811668
62	0xbb9eddcf	-0.004848219
63	0xbb6ed47c	-0.0036442569
64	0xba973540	-0.0011536255
65	0xba12945f	-0.0005591567
66	0xbb0d2482	-0.0021536653
67	0xbbed6800	-0.007245064
68	0x3b3bfc55	0.0028684337
69	0x3ba6ce8a	0.0050905393
70	0xbc14e220	-0.0090871155
71	0x3a9ad2be	0.0011812074
72	0xbbb53586	-0.005530062
73	0xbc2dcfdc	-0.01060864
74	0x3c1fb27e	0.009747146
75	0xbbb57ab0	-0.005538307
76	0xbbbff483	-0.0058580055
77	0x3c1fed84	0.009761218
78	0x3c4bc94b	0.012438129
79	0xbc50a268	-0.012734033
80	0xbb90a133	-0.0044137477
81	0x3c094d0f	0.008380189
82	0x3a7f8d8a	0.0009748569
83	0x3ad45bf3	0.0016201719
84	0x3c01c96e	0.00792156
85	0x3bba252f	0.005680702
86	0xbac5d4b8	-0.0015093302
87	0x3b883881	0.0041571264
88	0xbbbd23fb	-0.0057721115
89	0xbc87d6dd	-0.016581947
90	0xbbc5cd09	-0.006036405
91	0xbbe1f475	-0.0068955966
92	0x3c6322a8	0.013863243
93	0x3b9e98e0	0.0048400015
94	0xbbf35b67	-0.0074266675
95	0x3aa188f2	0.0012324138
96	0xbc1d7864	-0.009611223
97	0x3b9bc75a	0.004753989
98	0x3c26fa8b	0.01019157
99	0x3b67712d	0.003531526
100	0x3bf5973e	0.007494836
101	0x3bd5dd7e	0.006526648
102	0xbb372115	-0.0027943302
103	0xbc6eafda	-0.0145682935
104	0xbc45e4a9	-0.012078443
105	0x3b472688	0.0030387957
106	0x3b6937dd	0.0035586276
107	0x3aebc6a2	0.0017988274
108	0x3bc01f0c	0.005863076
109	0xbc173519	-0.009228968
110	0x3b7e58d5	0.0038810272
111	0xbbfdaf7c	-0.0077418666
112	0xbc398a84	-0.011324529
113	0x3c644fe2	0.013935061
114	0x39c4064c	0.00037388725
115	0xbbf14280	-0.0073626637
116	0x3bfbc2f9	0.0076831547
117	0xbb85a80d	-0.004078871
118	0x3c065de3	0.008201095
119	0x3bcedf78	0.0063132606
120	0xb86e4c20	-5.681452e-05
121	0xbb8df04f	-0.0043316255
122	0xbc9a166a	-0.018809516
123	0x3cbf5b0e	0.023358848
124	0xb8c2b41a	-9.2841874e-05
125	0xba71fe54	-0.0009231318
126	0x3c7a44a6	0.015275156
127	0xbbcdebc8	-0.006284211

action_model._discrete_distribution.branches.0.weight f4 [7, 128]
0	0x3bd46772	0.006482058
1	0x3abe22fb	0.0014506275
2	0x3b94c892	0.0045405114
3	0xbc68f6aa	-0.014218966
4	0x3a6c72ed	0.0009019811
5	0x3bb5d575	0.0055491277
6	0xbc45ae1f	-0.0120654395
7	0x3a68a6d1	0.0008874955
8	0x3cc03a9b	0.023465445
9	0xbc10a3fa	-0.008828158
10	0xbbe1beff	-0.0068892236
11	0xbb6fce91	-0.003659163
12	0xbcc01aaf	-0.023450224
13	0xbba44ddc	-0.0050141644
14	0xbbf752e1	-0.0075477217
15	0x3c4e4297	0.012589118
16	0x3b0e29a9	0.0021692312
17	0xbb7fb7c9	-0.0039019457
18	0x392cef3a	0.00016492317
19	0x3a94478c	0.0011312827
20	0x3c413811	0.011793152
21	0xba5e99ff	-0.0008491575
22	0xbc59c374	-0.013291229
23	0xbc5272c1	-0.012844742
24	0xbc212eda	-0.00983783
25	0x3ba4e5f3	0.005032295
26	0x3af7fcde	0.0018919965
27	0xba11ba30	-0.0005559055
28	0xbc275614	-0.010213394
29	0xbc7c5f1d	-0.015403536
30	0xbc80a2d0	-0.015702635
31	0x3b895508	0.0041910447
32	0x3a27358e	0.00063785247
33	0x3b43da6e	0.0029884833
34	0xbb6b0678	-0.003586201
35	0xbba5a2f0	-0.005054824
36	0xbb755d51	-0.0037439654
37	0x3c4c9a90	0.012488022
38	0x3c111c6b	0.008856873
39	0xbc06f511	-0.008237139
40	0xbc24cee0	-0.0100590885
41	0xbb44a986	-0.003000827
42	0xbb4afe79	-0.0030974431
43	0x3a6428cf	0.0008703591
44	0x3ac84609	0.0015279661
45	0xbc332a4d	-0.010935378
46	0x3bc84227	0.0061114016
47	0xbbc44c97	-0.0059905755
48	0x3cb24f22	0.02176625
49	0x3c7c70a1	0.015407712
50	0x3c5bc7ee	0.013414366
51	0x3b9d59e3	0.004801975
52	0xbc5516ad	-0.013005895
53	0x3ce0d5d7	0.027445717
54	0xbbac81e5	-0.005264508
55	0x3a4e558c	0.0007871024
56	0x3c1d3833	0.0095959185
57	0x3c6dfdf2	0.014525877
58	0xbc33d9d1	-0.010977224
59	0x3c41b8bf	0.011823832
60	0x3c20a8bd	0.009805855
61	0x3b3c8258	0.0028764214
62	0x3ce637b3	0.028102731
63	0x39369f4a	0.00017416212
64	0xbab4c1cf	-0.001379067
65	0x3d0759fd	0.033044804
66	0xbb3b0efa	-0.0028542862
67	0x3bff5261	0.0077918028
68	0x3b3489ea	0.0027548023
69	0xbbf2045c	-0.0073857736
70	0xbc71665d	-0.014733878
71	0xb9c13969	-0.00036854603
72	0xbbad5a40	-0.0052902997
73	0x3c2ff287	0.010738975
74	0xbcaa7d4d	-0.020811701
75	0x3b3ebb42	0.0029103314
76	0x3a20e216	0.0006137205
77	0x3b19427d	0.0023385577
78	0xbc03802b	-0.008026163
79	0xbaefcab0	-0.0018294659
80	0x3c486153	0.012230235
81	0x3c0396a6	0.008031523
82	0x3c4b295b	0.012399997
83	0x3c0cbb38	0.008589558
84	0xbc23785c	-0.009977426
85	0xbb8e49aa	-0.0043422775
86	0xbba6185a	-0.005068821
87	0x3bb63922	0.00556101
88	0x3a69541c	0.0008900778
89	0x3c5e4d5e	0.01356825
90	0x3b8d18d0	0.0043059364
91	0xbb5b8217	-0.0033494288
92	0x3b30b1cb	0.0026961442
93	0xbaf2bb1b	-0.0018518897
94	0x3c93e289	0.018052356
95	0xba37a1fe	-0.0007005035
96	0x3be832b0	0.0070861205
97	0xbbf0d59a	-0.007349682
98	0xbc8e2bae	-0.017354812
99	0x3c5d1b48	0.013495274
100	0xbb0dc787	-0.002163382
101	0xbb28fe32	-0.0025786278
102	0x3ad51317	0.00162563
103	0x3c8cc31e	0.017182883
104	0x3bb34149	0.005470429
105	0xbc1c25e4	-0.009530518
106	0x3b8383ef	0.0040135304
107	0xbbcb1ec8	-0.006198738
108	0xbc639cf3	-0.0138924
109	0x3c58f003	0.013240817
110	0x3c9d2778	0.01918386
111	0xbc44b68b	-0.012006412
112	0xbb19f34f	-0.002349097
113	0x3bdd5dd1	0.0067555686
114	0x3c5ad34a	0.013356039
115	0x3b364426	0.0027811616
116	0x3c32c56c	0.010911327
117	0x3b6009f8	0.003418563
118	0x3c6d3fa1	0.014480502
119	0xb7deb05c	-2.6546586e-05
120	0x3c149e9f	0.009071021
121	0xbabe1491	-0.0014501979
122	0x3b193546	0.00233777
123	0xba1dba40	-0.0006016828
124	0x39470d87	0.00018983158
125	0xbc5260c8	-0.012840457
126	0xbbb35a49	-0.0054734093
127	0xb983c17b	-0.0002513042
128	0x3c0bf870	0.008543119
129	0x3bc19183	0.005907239
130	0xbc53db74	-0.01293074
131	0xbb0fd6a7	-0.002194801
132	0xbb9e96dd	-0.0048397616
133	0xbc8ef7dd	-0.017452175
134	0xbc53f681	-0.012937189
135	0x3c72094f	0.014772727
136	0xbc332a36	-0.010935357
137	0xbc689898	-0.014196537
138	0x3c94c1eb	0.018158874
139	0x3ca9dcc8	0.02073516
140	0xba25329c	-0.0006301792
141	0x3c689ad7	0.014197073
142	0xba5bb52b	-0.0008381183
143	0x3d1751ab	0.03694312
144	0x3cb40d1d	0.02197891
145	0xbbaf2249	-0.0053446633
146	0x3c88e9a4	0.016712971
147	0x3ba16149	0.0049249274
148	0x3c93a49b	0.018022826
149	0x3c70d31f	0.014698773
150	0xbc5f5917	-0.0136320805
151	0xbc8033de	-0.015649732
152	0x3bf421a3	0.007450299
153	0x3b8a3e79	0.004218873
154	0x3b84d244	0.004053386
155	0x3c497826	0.012296712
156	0xbc7e096b	-0.015505175
157	0x3c8d2f94	0.017234601
158	0x3ac1127a	0.0014730238
159	0xbc38eb07	-0.011286504
160	0x3c4c24b1	0.01245992
161	0x3ab0d1ea	0.0013490294
162	0x3c2caa15	0.010538598
163	0xbcd82c10	-0.026388198
164	0xbd3fd7e1	-0.046836738
165	0xbca5d8b4	-0.020244934
166	0xbc21e136	-0.009880355
167	0xbc3024d6	-0.01075097
168	0x3bd26c63	0.006421612
169	0xba56f997	-0.0008200644
170	0x3c695b6e	0.01424299
171	0x3bf281a7	0.0074007097
172	0xbc242f53	-0.010021049
173	0xbb83e3ac	-0.0040249433
174	0x3c25eac0	0.01012677
175	0x3b0c6d54	0.002142747
176	0x3c0aa7a9	0.008462825
177	0x3b50c699	0.0031856655
178	0xbbe9fcf1	-0.0071407487
179	0x3badd8d7	0.0053053903
180	0xbbbe2cb8	-0.0058036707
181	0xbac1209d	-0.0014734451
182	0x3b1bf867	0.0023799182
183	0x3ad4d184	0.0016236757
184	0xbc4d3921	-0.012525828
185	0x3c61d3a2	0.013783367
186	0xb99417f4	-0.00028246606
187	0x3ca671e2	0.020317975
188	0x3ba42503	0.005009295
189	0x3b83a322	0.0040172497
190	0xbc2ea81f	-0.0106602
191	0x3bc42b12	0.0059865797
192	0xbbb8c7d0	-0.005639054
193	0x3bba7a09	0.0056908173
194	0x3bdbed04	0.006711604
195	0x3cef27bc	0.029193752
196	0xbba33595	-0.0049807527
197	0xbb0d2a76	-0.0021540201
198	0x3bf952ee	0.007608763
199	0x3c339dca	0.010962913
200	0x3c58504f	0.013202741
201	0x3bb898aa	0.0056334333
202	0xbc505ea6	-0.012717878
203	0xbb22a7b4	-0.0024819197
204	0xbb66e1c4	-0.0035229782
205	0xbc2a703b	-0.010402734
206	0x3b74af57	0.0037335956
207	0x3c3ceba4	0.0115307905
208	0xbb4f9911	-0.0031676928
209	0xbc1ea62a	-0.009683171
210	0x3b656145	0.0035000604
211	0x3b8726d3	0.0041245013
212	0xbbd88e92	-0.0066087926
213	0x3c19c828	0.0093861
214	0xbbcf8d06	-0.00633395
215	0x38fa9c7d	0.00011950077
216	0xbc723e24	-0.014785323
217	0x3ca66e11	0.020316156
218	0x3c23f80c	0.010007869
219	0xbacb4176	-0.001550718
220	0xbc82ed3e	-0.015982267
221	0x3c1c0d74	0.009524692
222	0xbc1b5340	-0.009480298
223	0xbc958500	-0.018251896
224	0x3b6323b5	0.0034658734
225	0x3a62fdf2	0.00086590566
226	0xbc43ffec	-0.011962872
227	0x3bb6c511	0.0055776914
228	0x39d15230	0.0003992482
229	0x3b8b861a	0.0042579295
230	0x3baec4ae	0.0053335046
231	0xbab15acf	-0.0013531091
232	0x3cc5cb0c	0.024144672
233	0x3ba80c89	0.0051284474
234	0xbc38cc4f	-0.01127918
235	0xbac566b2	-0.0015060513
236	0xbc1e9480	-0.00967896
237	0xbbaca8a6	-0.005269128
238	0x3cd207d6	0.025638502
239	0xbb41b222	-0.0029555638
240	0xbadd4b80	-0.0016883463
241	0xbb4b2142	-0.0030995165
242	0x3c9ba08b	0.018997451
243	0x3bb9d701	0.0056713824
244	0x3caf381c	0.02138906
245	0xb989a21c	-0.00026251457
246	0x3d061849	0.032738004
247	0xbc88bf7a	-0.016692866
248	0xbc41afc5	-0.011821692
249	0x3c1893ca	0.009312579
250	0x3c140cd9	0.009036266
251	0xbc32c401	-0.010910989
252	0x3bf7d06e	0.0075626886
253	0x3c8c36eb	0.01711603
254	0xbc4d275d	-0.012521592
255	0x3b6ebb3d	0.003642752

action_model._discrete_distribution.branches.0.bias f4 [7]
0	0xbaf266be	-0.0018493754
1	0xbbb13069	-0.0054073823
2	0x3c40fb51	0.0117786685
3	0xbc1456a3	-0.009053859
4	0xbc3085eb	-0.010774116
5	0x3c08fc5a	0.008360947
6	0x3ac0347b	0.0014664078
