Source/Trained_Policies/WeightAgent_Training/WeightAgent_Training/WeightAgent_Training-7427720.pt (torch, 926564 bytes, 33 tensors)

network_body._body_endoder.seq_layers.0.weight f4 [128, 163]
-0.0056039165 -0.03575843 0.19061784 0.22668085 0.08016786 -0.0068568047 0.1278714 0.06620359
0.039652668 -0.0390209 -0.034780264 0.01178822 0.1458199 0.11532467 -0.038640585 0.0024855589
0.10608295 0.041740164 -0.00075561384 0.0052774814 -0.06896221 -0.05988091 0.36576337 -0.2760225
-0.067921504 -0.0017718474 0.09278924 0.08972956 -0.09613786 0.055994287 0.064616136 -0.0978207
0.21696661 -0.10043056 -0.24399434 -0.10013676 -0.17043051 -0.0038493718 -0.22209446 0.07574285
-0.034149684 0.12120054 0.19609287 0.016251178 -0.048650727 0.041118454 0.015602717 0.0049854736
-0.008119041 0.11111192 0.07784167 -0.082687266 0.28424445 -0.25050384 -0.17660499 -0.058215283
-0.10210705 0.011255461 0.06860932 -0.006816572 -0.03328333 -0.14559779 0.37195495 0.097389445
-0.12694219 -0.069121376 -0.16965637 0.046603918 0.034577478 0.19704948 -0.016315399 -0.019857137
0.16249408 -0.04590032 0.23038317 -0.0086023 -0.2464601 0.011649807 0.12950844 0.12502354
-0.040003024 0.1031525 0.12979972 -0.08425247 -0.00586579 0.07264445 -0.14777519 0.09206207
-0.049579915 0.14802127 -0.13516127 0.02303607 -0.049012076 0.000120784054 -0.09447275 0.094513014
-0.022150047 0.013790583 0.046474297 0.15555316 0.08322268 0.18414563 -0.0654522 -0.01294299
0.08558716 0.07075037 -0.16345716 -0.027498234 -0.092112824 -0.087620184 0.10883622 0.024758238
0.14295037 -0.16135137 -0.2164755 0.10948298 0.057349842 0.10014136 0.105519354 -0.02013446
0.037935022 0.10062209 -0.034454644 0.045383852 -0.07495207 0.24526756 -0.041005157 -0.0003510253
-0.1398684 -0.061004087 0.02405251 0.19798467 -0.14491428 0.007379171 0.021227008 -0.06889632
-0.11037077 0.067250334 -0.11048204 -0.098469585 0.039636668 0.021013124 -0.061893582 -0.009217803
0.22110376 0.1561204 -0.09362625 -0.0034767736 0.108139314 -0.04377931 0.22337334 -0.05284313
0.038364742 0.0065116487 -0.08027865 -0.035879754 0.07752015 -0.100145206 0.012756596 -0.06828934
0.008680984 -0.008710006 -0.062402535 -0.05038378 -0.045203414 0.06705662 0.026881153 -0.14017275
-0.046475623 -0.075368986 0.044960465 -0.03013611 -0.010718413 -0.06543465 -0.14736609 0.07357047
-0.10869486 -0.23069581 -0.0383288 -0.09685555 0.24681081 0.1162529 0.10854967 0.13461019
-0.21149965 0.07238734 0.0069785537 -0.08701502 -0.023214372 0.019882156 -0.04169281 -0.07188325
-0.0063288053 0.04191395 0.01602287 0.107662566 -0.100313544 -0.10975019 0.025281413 -0.18121843
0.15531579 -0.07315197 0.14941129 -0.023019772 0.011968773 -0.02306547 -0.006466776 -0.2504225
0.06757366 -0.17881843 0.04896509 0.008935519 -0.018522173 -0.08825905 0.11795542 0.11487832
-0.3008002 -0.12942989 -0.10246978 0.10726019 0.022919042 -0.021640724 0.106885485 -0.13149814
0.123728216 -0.10461498 -0.03543674 -0.2159271 -0.021885123 -0.038132943 0.04928197 0.07732286
0.023262603 -0.10567182 0.019122576 -0.07653852 -0.053440243 -0.14495806 -0.07606206 -0.1380077
0.12651846 -0.032667413 0.052959464 -0.024740024 -0.06505274 0.029001422 -0.1460076 -0.18728119
-0.0012595601 -0.07275877 -0.066574246 -0.007125563 0.06673255 -0.04333276 0.12142648 -0.13890655
00000000: 0fa1 b7bb 6e77 12bd 5331 433e 061f 683e
00000010: 0c2f a43d 0caf e0bb b8f0 023e bf95 873d
00000020: d66a 223d 61d4 1fbd c075 0ebd 6123 413c
00000030: d051 153e 572f ec3d 9745 1ebd c2e4 223b
00000040: 0542 d93d bcf7 2a3d 6314 46ba b9ee ac3b
00000050: 0f3c 8dbd af45 75bd 5645 bb3e d252 8dbe
00000060: 6e1a 8bbd 553d e8ba 4908 be3d 22c4 b73d
00000070: ede3 c4bd 445a 653d 7755 843d 3856 c8bd
00000080: 7f2c 5e3e 8aae cdbd a7d9 79be 8014 cdbd
00000090: 5685 2ebe be45 7cbb bb6c 63be 111f 9b3d
000000a0: 8ae0 0bbd fd37 f83d 92cc 483e 3121 853c
000000b0: fc45 47bd d36b 283d 8aa2 7f3c 2f5d a33b
000000c0: ba05 05bc a58e e33d 746b 9f3d f157 a9bd
000000d0: 7d88 913e 0a42 80be f0d7 34be 2673 6ebd
000000e0: 801d d1bd d368 383c 0b83 8c3d 8d5d dfbb
000000f0: 1a54 08bd 9617 15be e170 be3e 1e74 c73d
00000100: 22fd 01be 828f 8dbd 66ba 2dbe c0e3 3e3d
00000110: 1da1 0d3d 57c7 493e dfa7 85bc 6fab a2bc
00000120: d964 263e f901 3cbd 91e9 6b3e a9f0 0cbc
00000130: 0960 7cbe d5de 3e3c dc9d 043e 2c06 003e
00000140: 36da 23bd 9e41 d33d 38ea 043e 8f8c acbd
00000150: d035 c0bb 9dc6 943d 6152 17be 0a8b bc3d
00000160: 4f14 4bbd e392 173e b767 0abe 24b6 bc3c
00000170: e3c0 48bd 724d fd38 ee7a c1bd 0a90 c13d
00000180: 0474 b5bc e6f1 613c d55b 3e3d 5449 1f3e
00000190: a770 aa3d ac90 3c3e ce0b 86bd d60e 54bc
000001a0: 5248 af3d 92e5 903d 5061 27be fa43 e1bc
000001b0: a6a5 bcbd 3672 b3bd 86e5 de3d cad1 ca3c
000001c0: 9561 123e 4b39 25be c1ab 5dbe 9d38 e03d
000001d0: abe7 6a3d ea16 cd3d 881a d83d 06f1 a4bc
000001e0: c161 1b3d f412 ce3d 5020 0dbd 6be4 393d
000001f0: 7980 99bd 6b27 7b3e 06f5 27bd d109 b8b9
00000200: a939 0fbe 6cdf 79bd c509 c53c 7ebc 4a3e
00000210: 6964 14be f9cc f13b 43e4 ad3c 8419 8dbd
00000220: 120a e2bd 8bba 893d 6844 e2bd 6caa c9bd
00000230: 0f5a 223d b723 ac3c 2084 7dbd 4506 17bc
00000240: 0669 623e 07de 1f3e 1fbf bfbd 95da 63bb
00000250: 2578 dd3d ef51 33bd fbbb 643e 0a72 58bd
00000260: 5924 1d3d ab5f d53b 2269 a4bd a6f6 12bd
00000270: e2c2 9e3d ee18 cdbd 0b01 513c 48db 8bbd
00000280: b03a 0e3c 6ab4 0ebc cd99 7fbd 395f 4ebd
00000290: 3727 39bd fb54 893d dd35 dc3c 7289 0fbe
000002a0: 395d 3ebd 0e5b 9abd 7728 383d 01e0 f6bc
000002b0: 489c 2fbc 9a02 86bd 23e7 16be 1dac 963d
000002c0: 699b debd 863b 6cbe a9fe 1cbd 345c c6bd
000002d0: f9bb 7c3e 0016 ee3d 4a4f de3d 41d7 093e
000002e0: 5d93 58be d03f 943d 5aac e43b ee34 b2bd
000002f0: 112c bebc e7df a23c 14c6 2abd 8637 93bd
00000300: de61 cfbb f6ad 2b3d 6542 833c 317e dc3d
00000310: 3071 cdbd b5c4 e0bd f71a cf3c 5391 39be
00000320: 1a0b 1f3e b3d0 95bd 46ff 183e f693 bcbc
00000330: ac18 443c ccf3 bcbc 40e7 d3bb 6137 80be
00000340: 0f64 8a3d 2e1c 37be 9e8f 483d 4866 123c
00000350: d0bb 97bc 29c1 b4bd 9c92 f13d 5345 eb3d
00000360: 7c02 9abe 4589 04be addb d1bd 3bab db3d
00000370: b7c0 bb3c e347 b1bc c7e6 da3d 73a7 06be
00000380: 3865 fd3d 6140 d6bd 1d26 11bd fe1b 5dbe
00000390: 6e48 b3bc 4a31 1cbd e4db 493d 735b 9e3d
000003a0: 3791 be3c 786a d8bd f3a6 9c3c 3ac0 9cbd
000003b0: 28e4 5abd e36f 14be 6dc6 9bbd e451 0dbe
000003c0: 0e8e 013e 44ce 05bd 06ec 583d 97ab cabc
000003d0: 5f3a 85bd 6494 ed3c 0483 15be a4c6 3fbe
000003e0: d317 a5ba 8d02 95bd 1458 88bd 8e7d e9bb
000003f0: 13ab 883d b17d 31bd 72ae f83d 853d 0ebe

network_body._body_endoder.seq_layers.0.bias f4 [128]
-0.0032435418 -0.0036692736 -0.0027280485 0.0030406178 0.03236156 -0.048054267 -0.023264132 0.04870184
0.0065168524 -0.04084895 0.016052883 0.005112537 -0.010677541 0.017187975 -0.06511393 -0.0010193168
-0.076464 -0.0032880951 0.001794874 0.027389916 0.046908617 0.021994522 -0.04976333 0.023077715
0.010348782 -0.017858487 -0.025831498 0.044159543 0.0045045833 -0.009039718 0.004824446 -0.019878069
-0.061587952 0.010126987 -0.09382314 0.034604486 0.0308685 0.034767464 0.005971556 -0.037232533
0.039441243 0.008335881 -0.038465995 0.004955326 0.04795454 0.034515824 -0.053764746 -0.051268533
-0.02872017 0.04235219 -0.022045502 0.06147193 -0.027897911 0.10109019 -0.050406046 -0.026460614
-0.005061636 -0.045958452 0.022420928 -0.009033144 0.012846462 0.022938572 -0.06687142 -0.015640685
0.03781759 0.017984517 -0.008082674 0.044815704 -0.030908586 0.008131956 0.0281359 -0.029834008
-0.009603517 -0.019889122 0.09216505 0.035931777 0.059586607 -0.0555068 -0.0059879175 0.0071699866
-0.050561473 0.06511477 -0.021097563 0.014459109 -0.059389662 -0.0024072165 -0.061431527 0.02209139
0.02730749 -0.031724285 0.038755186 0.07654358 -0.016019462 0.008746508 0.03769659 0.027338857
-0.012598528 -0.06280483 0.04263689 -0.003475267 -0.03610019 0.016032489 -0.0025352554 0.0053846594
0.039340094 0.043898217 0.0037471624 -0.005131535 0.002976923 0.009334361 0.051252794 0.020616403
-0.008638511 0.03804198 0.013339379 0.0024909258 -0.0834544 0.027537452 0.044504847 0.07121955
-0.028794909 0.04673299 0.011171407 0.050220326 0.0060517937 -0.047795925 -0.056540105 -0.043636426
00000000: 9a91 54bb 3278 70bb 0fc9 32bb 1a45 473b
00000010: 8e8d 043d 8dd4 44bd 6c94 bebc 957b 473d
00000020: 528b d53b 3b51 27bd 5681 833c 1287 a73b
00000030: daf0 2ebc cccd 8c3c 745a 85bd 999a 85ba
00000040: 2899 9cbd 157d 57bb fa41 eb3a d160 e03c
00000050: 4023 403d db2d b43c a2d4 4bbd 7a0d bd3c
00000060: f08d 293c f64b 92bc 949c d3bc a3e0 343d
00000070: 2f9b 933b 531b 14bc 6316 9e3b 55d7 a2bc
00000080: a643 7cbd a9eb 253c 5926 c0bd 6fbd 0d3d
00000090: f0df fc3c 5468 0e3d 0bad c33b 2481 18bd
000000a0: 248d 213d 3893 083c 858e 1dbd 4a60 a23b
000000b0: fb6b 443d 7760 0d3d 6c38 5cbd f4fe 51bd
000000c0: 9046 ebbc 7d79 2d3d c598 b4bc fec9 7b3d
000000d0: 298a e4bc 6008 cf3d 9276 4ebd eec3 d8bc
000000e0: 15dc a5bb ee3e 3cbd 18ac b73c c1ff 13bc
000000f0: f879 523c ace9 bb3c e2f3 88bd e520 80bc
00000100: 9ee6 1a3d 4454 933c 316d 04bc ac90 373d
00000110: 0134 fdbc e53b 053c 427d e63c 7366 f4bc
00000120: 1258 1dbc 83ee a2bc 08c1 bc3d 332d 133d
00000130: 1611 743d 195b 63bd 4b36 c4bb 35f2 ea3b
00000140: 8c19 4fbd e45a 853d ccd4 acbc e6e5 6c3c
00000150: 9342 73bd 64c2 1dbb a09f 7bbd 01f9 b43c
00000160: f5b3 df3c 53f1 01bd c2bd 1e3d e1c2 9c3d
00000170: 3f3b 83bc 834d 0f3c bd67 1a3d bdf5 df3c
00000180: 0e6a 4ebc d29f 80bd 05a4 2e3d 4ec1 63bb
00000190: cbdd 13bd 9156 833c 8726 26bb cc71 b03b
000001a0: 1423 213d 9ece 333d f492 753b 7026 a8bb
000001b0: 7b18 433b 26ef 183c 73ee 513d bbe3 a83c
000001c0: 8b88 0dbc e8d1 1b3d 698d 5a3c cd3e 233b
000001d0: 24ea aabd 3996 e13c b74a 363d 8edb 913d
000001e0: 4de3 ebbc 176b 3f3d 4708 373c d4b3 4d3d
000001f0: 204e c63b a9c5 43bd 9996 67bd 1cbc 32bd

network_body._body_endoder.seq_layers.2.weight f4 [128, 128]
0.10135443 -0.015310647 -0.08041109 0.09677307 -0.012278206 -0.1208816 -0.057077784 0.15485293
-0.06753871 -0.07850685 -0.057374597 0.00667046 0.16355076 -0.04315773 -0.011663816 0.009834981
-0.17805447 0.08927602 -0.120078966 0.07230028 0.20357727 0.0110745095 0.027444813 0.023458635
0.04312233 0.047467876 0.101865046 0.008196835 0.16852705 0.029798051 0.013722998 -0.07079769
-0.0078505 0.08365817 0.037294794 -0.032793537 0.1147226 -0.029227342 0.041159783 -0.03215957
-0.0006616369 0.03956893 -0.14677563 0.08911159 0.19498186 0.119565964 -0.27387178 -0.20868951
-0.12525906 0.0061223516 0.10575553 0.1469553 -0.19017284 0.19577742 -0.19813614 -0.068453595
-0.006329756 0.009730965 -0.17662615 -0.0835834 0.03942724 0.3281535 -0.057249967 0.05157539
0.1766016 0.14199018 0.013116219 -0.13215601 0.037770495 0.069374785 0.18668678 0.10165739
-0.062052365 0.14187378 0.08041187 -0.092531286 0.12660107 -0.112851694 0.1512585 0.041186947
-0.016650049 -0.085608296 -0.0019016338 -0.24062604 -0.072120525 -0.18208475 -0.11857627 -0.07111965
-0.0053536315 -0.08277483 -0.16165335 0.15511088 -0.049238846 -0.041852124 0.025940306 -0.12065255
-0.022438768 -0.1839499 0.031516615 -0.049805585 0.03871385 -0.13888963 -0.055747427 0.010855827
0.05877818 0.018931089 -0.05986612 0.20480163 -0.06852869 -0.09570406 0.02068337 0.041605543
-0.024639603 0.015374092 -0.13714522 -0.14659151 -0.16092834 -0.33541617 0.094605386 0.13618398
-0.14636494 0.18585628 -0.070017576 -0.0077996384 0.06263612 -0.0010248341 -0.034444544 0.0044676
-0.09273497 -0.06807338 0.10407773 -0.11015879 0.10506926 0.0976859 -0.29481834 -0.032057986
0.061059207 -0.11102116 -0.09650258 -0.09702054 -0.03297862 -0.13043569 -0.15682922 -0.16012336
-0.14024955 -0.10381273 -0.12077798 0.06806159 0.12952158 0.0352187 0.03100849 -0.031982217
-0.06850065 0.01974509 -0.22264536 0.16497613 0.07044095 -0.19060616 -0.12454752 -0.26028758
-0.18160895 0.06172416 -0.10452349 0.09121109 -0.011661931 0.06891971 0.12273539 -0.19354571
-0.013301227 -0.095319904 0.12141641 -0.023473939 -0.017350312 0.16900982 -0.14879367 -0.22397836
-0.20795004 -0.13297978 -0.15581025 -0.060923897 0.05412954 0.24010812 -0.037158865 0.016166616
-0.010193261 0.044952698 -0.17001615 -0.1303407 0.13379961 -0.024918225 0.005898388 -0.05582733
-0.20601366 -0.1663582 -0.0040028463 -0.019124495 0.061047442 -0.28448018 0.009118189 -0.03816177
0.12504753 -0.16908799 0.06692413 0.19231212 -0.0012785913 -0.18116017 -0.003941971 0.1252334
-0.0902955 0.039468754 0.017714115 -0.05152351 -0.09162445 0.05035309 -0.055545773 -0.09656103
0.07826414 -0.22435136 0.08956019 0.21184908 0.020357493 -0.09426588 0.057075564 -0.16043885
-0.03624454 -0.06385842 0.15892597 0.094445355 -0.21693563 0.03775373 0.021072485 -0.033894256
0.015034759 -0.1086581 -0.03192214 0.004359065 0.13005455 0.13305514 -0.11134407 -0.004961927
-0.12753876 0.18723278 -0.18605548 -0.13729744 -0.14030522 0.18623719 0.03438957 0.12572408
-0.22578491 -0.22058782 0.001415502 0.10637388 -0.046070643 -0.08198117 0.04134906 -0.13064498
00000000: e992 cf3d 82d9 7abc 92ae a4bd f630 c63d
00000010: 872a 49bc c690 f7bd 65ca 69bd c491 1e3e
00000020: bc51 8abd 33c8 a0bd a001 6bbd e093 da3b
00000030: da79 273e 29c6 30bd 9719 3fbc e622 213c
00000040: e953 36be 59d6 b63d f6eb f5bd 2b12 943d
00000050: 8f76 503e dc71 353c f2d3 e03c 532c c03c
00000060: 0aa1 303d ad6d 423d 9f9e d03d 054c 063c
00000070: 5b92 2c3e 0b1b f43c 6dd6 603c 61fe 90bd
00000080: 629f 00bc fa54 ab3d 6dc2 183d 8452 06bd
00000090: aff3 ea3d 2e6e efbc 2997 283d c1b9 03bd
000000a0: b371 2dba 0813 223d 5a4c 16be 2380 b63d
000000b0: 53a9 473e 00df f43d ec38 8cbe b4b2 55be
000000c0: e943 00be 029e c83b 5b96 d83d 737b 163e
000000d0: abbc 42be e079 483e 33e4 4abe 6631 8cbd
000000e0: d869 cfbb a06e 1f3c 7cdd 34be c62d abbd
000000f0: 757e 213d bc03 a83e f17e 6abd b740 533d
00000100: 0dd7 343e e065 113e 69e5 563c e853 07be
00000110: 3cb5 1a3d 5e14 8e3d d22a 3f3e c031 d03d
00000120: 9f2a 7ebd 5c47 113e faae a43d 0b81 bdbd
00000130: b6a3 013e ca1e e7bd 82e3 1a3e a5b3 283d
00000140: af65 88bc 6753 afbd 3e40 f9ba ac66 76be
00000150: edb3 93bd 6d74 3abe 1ed8 f2bd 2ea7 91bd
00000160: 846d afbb da85 a9bd 7588 25be 63d5 1e3e
00000170: acae 49bd 226d 2bbd c480 d43c af18 f7bd
00000180: 82d1 b7bc 5d5d 3cbe 9117 013d f100 4cbd
00000190: 6a92 1e3d 1539 0ebe 6a57 64bd a3dc 313c
000001a0: 64c1 703d 5f15 9b3c 2d36 75bd 85b7 513e
000001b0: c558 8cbd 7d00 c4bd 2c70 a93c 936a 2a3d
000001c0: fed8 c9bc 9ee3 7b3c cc6f 0cbe 161c 16be
000001d0: 66ca 24be abbb abbe 78c0 c13d d073 0b3e
000001e0: b1e0 15be 1c51 3e3e 6065 8fbd 1c94 ffbb
000001f0: 5e47 803d ba53 86ba b915 0dbd f264 923b
00000200: d5eb bdbd 0e6a 8bbd b426 d53d ef9a e1bd
00000210: 8d2e d73d 8c0f c83d 6ef2 96be 3c4f 03bd
00000220: 3819 7a3d 105f e3bd 25a3 c5bd b4b2 c6bd
00000230: 9714 07bd ef90 05be d797 20be 61f7 23be
00000240: 949d 0fbe c59b d4bd 725a f7bd e063 8b3d
00000250: 4ea1 043e 7c41 103d 8405 fe3c c9ff 02bd
00000260: 124a 8cbd 74c0 a13c 25fd 63be 81ef 283e
00000270: 5843 903d 432e 43be c512 ffbd 6a44 85be
00000280: b2f7 39be 79d2 7c3d 6910 d6bd e1cc ba3d
00000290: af11 3fbc c725 8d3d b15c fb3d d930 46be
000002a0: 64ed 59bc 1537 c3bd 2ba9 f83d 6b4c c0bc
000002b0: 3e22 8ebc e910 2d3e 5e5d 18be 955a 65be
000002c0: dbf0 54be da2b 08be b98c 1fbe 568b 79bd
000002d0: f0b6 5d3d e7de 753e e533 18bd da6f 843c
000002e0: a301 27bc 5220 383d b718 2ebe 0878 05be
000002f0: c402 093e 4e21 ccbc 4447 c13b 33ab 64bd
00000300: 3ff5 52be ce59 2abe 4f2a 83bb f9aa 9cbc
00000310: e20c 7a3d 63a7 91be 7564 153c 844f 1cbd
00000320: 760c 003e 6725 2dbe 850f 893d 78ed 443e
00000330: 6896 a7ba 0d82 39be a62b 81bb 2f3d 003e
00000340: d9ec b8bd fda9 213d 311d 913c 510a 53bd
00000350: 9aa5 bbbd 0b3f 4e3d f783 63bd cac1 c5bd
00000360: f348 a03d 5dbc 65be 556b b73d f7ee 583e
00000370: c2c4 a63c 780e c1bd 11c8 693d 154a 24be
00000380: 2875 14bd 34c8 82bd 7dbd 223e 916c c13d
00000390: 6024 5ebe a8a3 1a3d 34a0 ac3c b4d4 0abd
000003a0: 5a54 763c 2388 debd cac0 02bd 7dd6 8e3b
000003b0: 052d 053e 9b3f 083e 5c08 e4bd a997 a2bb
000003c0: 8599 02be f3b9 3f3e 5485 3ebe b397 0cbe
000003d0: 2cac 0fbe f6b4 3e3e 14dc 0c3d d0bd 003e
000003e0: 2934 67be c6e1 61be 5e88 b93a 8cda d93d
000003f0: 92b4 3cbd bee5 a7bd a25d 293d ccc7 05be

network_body._body_endoder.seq_layers.2.bias f4 [128]
0.049251255 0.066747785 -0.057724345 -0.059352998 -0.025861172 0.0025252572 -0.0031862617 -0.012721249
-0.050150085 0.10884807 -0.023346102 -0.051004034 0.019216113 -0.011336628 -0.004259036 -0.0017118643
0.013465501 0.03518496 -0.04717432 0.027581036 -0.0048686494 0.02328804 -0.011124881 0.07244598
0.042386327 -0.0043242285 0.02166236 0.057545207 -0.010316792 -0.038932517 0.010828465 0.046994016
0.01301905 0.052597113 0.022833055 0.02907973 -0.029238269 -0.003827983 -0.007511381 0.010472006
-0.090972155 0.030217992 0.043710552 -0.026838465 -0.016781796 0.01388246 0.015655361 -0.026254596
-0.0022877608 -0.033768132 -0.008374931 -0.10416859 -0.050702963 -0.056047294 -0.034287825 0.04816651
-0.004582233 0.034318224 -0.042529825 -0.021853864 -0.0024611314 0.015346259 0.05630401 -0.05006767
-0.031136643 0.0051952964 0.016072158 -0.008361132 0.008414774 0.034035154 0.11150817 -0.009468532
-0.01711329 -0.020871745 0.021406667 0.05468742 0.057471305 -0.08046047 0.0051848995 0.022098025
-0.0106555885 0.006090671 0.034601323 0.046895336 0.065061465 0.08136269 -0.020476071 -0.028542884
0.024094308 0.041078217 0.003249678 -0.054202594 -0.060961694 0.016719129 -0.0491153 0.0181681
-0.07335044 -0.018075071 -0.05213228 0.030548401 -0.03897394 0.04301687 -0.07593427 -0.0010196079
-0.0031542897 0.03872612 0.019556541 0.013006057 0.03892855 0.060154848 0.013839817 -0.023016103
-0.053637985 -0.0011185687 -0.013666533 0.040366363 -0.012824965 0.023308787 -0.022929765 -0.04606936
0.028962547 -0.0439913 -0.037531313 -0.034049664 -0.0058399 -0.0006196958 -0.016803049 -0.043203525
00000000: afbb 493d 10b3 883d 5d70 6cbd 211c 73bd
00000010: cfda d3bc c97e 253b 9ad0 50bb c96c 50bc
00000020: 2d6a 4dbd bdeb de3d 5340 bfbc 9be9 50bd
00000030: 1c6b 9d3c 44bd 39bc 628f 8bbb a260 e0ba
00000040: 689e 5c3c 1b1e 103d dc39 41bd a0f1 e13c
00000050: 3189 9fbb 8fc6 be3c 2245 36bc 8f5e 943d
00000060: 499d 2d3d 42b2 8dbb 4375 b13c 86b4 6b3d
00000070: c307 29bc b477 1fbd e069 313c cc7c 403d
00000080: da4d 553c 1270 573d 630c bb3c 9d38 ee3c
00000090: 1885 efbc e6de 7abb 0822 f6bb c792 2b3c
000000a0: 9c4f babd b98b f73c d609 333d 57dc dbbc
000000b0: fa79 89bc 4273 633c ac3f 803c e113 d7bc
000000c0: 42ee 15bb 7450 0abd 0237 09bc 5756 d5bd
000000d0: e9ad 4fbd d991 65bd 6471 0cbd 3f4a 453d
000000e0: 8e26 96bb 4491 0c3d c133 2ebd e006 b3bc
000000f0: ef4a 21bb e06e 7b3c 099f 663d c213 4dbd
00000100: 4612 ffbc 4e3d aa3b c2a9 833c 21fd 08bc
00000110: 1fde 093c 7268 0b3d 655e e43d e721 1bbc
00000120: 2c31 8cbc 39fb aabc 095d af3c ebff 5f3d
00000130: 0867 6b3d 75c8 a4bd 17e6 a93b eb06 b53c
00000140: c794 2ebc 4094 c73b 1eba 0d3d 5315 403d
00000150: f23e 853d 7ba1 a63d 6fbd a7bc c4d2 e9bc
00000160: 6d61 c53c a241 283d 8df8 543b 8a03 5ebd
00000170: f8b2 79bd 8ef6 883c 202d 49bd 44d5 943c
00000180: c138 96bd 2c12 94bc a888 55bd a440 fa3c
00000190: 23a3 1fbd 7532 303d 6d83 9bbd 5da4 85ba
000001a0: 33b8 4ebb 489f 1e3d 0a35 a03c 5b17 553c
000001b0: 8b73 1f3d ee64 763d 66c0 623c 448c bcbc
000001c0: 81b3 5bbd f09c 92ba 98e9 5fbc 3357 253d
000001d0: cd1f 52bc 12f2 be3c 34d7 bbbc 3ab3 3cbd
000001e0: dd42 ed3c 3930 34bd 6fba 19bd a977 0bbd
000001f0: a25c bfbb 1573 22ba 8ca6 89bc 2ef6 30bd

action_model._discrete_distribution.branches.0.weight f4 [7, 128]
0.059911083 -0.04966223 0.0035128905 0.025476446 0.014305046 0.010771719 -0.021153208 -0.02151744
-0.022128055 0.018840976 -0.03048713 -0.019421814 -0.024195395 0.0633509 -0.060376957 -0.074295826
0.046688993 -0.018524086 -0.067937 0.029471684 0.032356914 0.077336274 0.01968048 -0.0036872202
0.014246571 0.003792167 0.027820097 0.0037226395 -0.11143387 0.004653375 -0.011610091 0.004426688
0.009008742 0.061009318 -0.024582174 0.031575516 0.001473322 0.054181077 -0.05413532 0.007888479
-0.021600204 0.027516348 0.016935084 0.042978562 0.028883167 -0.015622599 0.053833302 0.015085247
-0.028616687 0.04830663 0.024863208 -0.01175439 0.00392973 -0.02990652 -0.0048229517 0.032595668
-0.00036739936 0.036156688 0.01686421 0.013352662 -0.04183261 0.047427505 0.021928074 -0.03081855
-0.06581189 -0.06632563 -0.03249601 0.018372374 -0.029351637 0.032001365 0.08055258 0.020832397
0.05260356 0.03802118 -0.04389816 -0.042561363 0.059591055 0.016309986 0.07069091 0.062225047
0.008805727 -0.07752952 0.02583562 0.04798476 -0.007613225 0.052463982 0.024656298 -0.025394699
0.031230472 -0.041961297 0.061906137 -0.07418396 -0.045297857 0.06381745 -0.017612923 -0.07849026
-0.009579322 0.11184903 -0.0016795984 -0.0036056808 -0.007131055 -0.017430168 -0.026545946 0.02575247
0.0061660307 -0.00194732 -0.032446206 0.053399336 -0.020761497 -0.017133173 0.013734653 0.014809058
-0.022040684 0.02481272 0.01101991 0.05012352 0.0312063 0.07011794 0.02843029 -0.010777266
-0.014860354 -0.028823344 -0.06313592 -0.09049521 0.004680045 -0.054524116 0.03258433 -0.014141817
-0.084727585 0.020391589 0.04537742 -0.017253384 0.05603452 0.06029126 0.058024257 0.040826656
-0.006529435 -0.090169206 0.07051776 0.031599455 0.01425588 -0.011101257 0.040814802 0.02025919
0.02830045 0.041572 0.048250686 0.01168674 -0.042633053 -0.049638636 0.035649225 -0.040902983
-0.055055715 -0.037412502 0.10143044 -0.021138633 0.044572107 0.016213117 0.0067912857 0.020145804
0.035559583 -0.04174733 0.05766896 0.024189763 0.09356811 -0.033512294 0.039606605 0.009334674
0.02600214 0.006107703 0.06926398 0.007172215 0.04206739 0.063309096 0.013038887 0.045615025
-0.0071174833 0.0035764417 0.06643297 0.004153659 0.0019177774 0.02487581 -0.011811676 -0.06377079
0.025674935 0.002856932 0.021354025 0.034966875 -0.03870273 0.02583183 -0.051709544 0.049712207
0.06994522 0.03858468 0.037002552 0.031207021 0.002576814 -0.04064196 -0.08193836 0.041826747
0.01853277 0.037674043 0.057473596 -0.036873423 -0.060707867 -0.0034072795 -0.0049657207 0.08485747
0.064285636 0.061521925 0.05428958 -0.010361819 0.022673965 -0.02068523 0.054187898 0.054041836
0.09775658 -0.023762764 -0.024241433 0.0292069 0.030382851 -0.035627518 0.041516233 0.009934035
0.017961977 -0.03180658 0.023058973 0.010790148 -0.020360786 0.049425554 0.024246652 0.06527141
0.046782613 -0.080179684 -0.019141857 -0.013854716 0.06009203 0.075870864 0.06641505 0.022279982
0.02065617 0.015850063 -0.006817982 -0.1172081 0.041515253 0.008180981 0.020118425 0.017029297
0.030555869 0.09951419 0.037253693 0.06373194 0.03245448 0.059999574 0.010184744 0.0065300604
00000000: 5365 753d 9f6a 4bbd 8638 663b fbb3 d03c
00000010: b65f 6a3c dd7b 303c 7e49 adbc 5845 b0bc
00000020: e545 b5bc 6458 9a3c 25c0 f9bc 7f1a 9fbc
00000030: 6c35 c6bc 1ebe 813d d44d 77bd 6928 98bd
00000040: f53c 3f3d d3bf 97bc 8e22 8bbd 9a6e f13c
00000050: af88 043d 7b62 9e3d f538 a13c 4aa5 71bb
00000060: 736a 693c 0186 783b f9e6 e33c 87f7 733b
00000070: 7137 e4bd 577b 983b 4038 3ebc c00d 913b
00000080: 6799 133c e8e4 793d 8e60 c9bc 5455 013d
00000090: 7c1c c13a faec 5d3d ffbc 5dbd ae3e 013c
000000a0: e9f2 b0bc f769 e13c 72bb 8a3c 4a0a 303d
000000b0: 649c ec3c eef5 7fbc 4f80 5c3d 1d28 773c
000000c0: 8b6d eabc 2cdd 453d edad cb3c 7c95 40bc
000000d0: f7c4 803b 85fe f4bc da09 9ebb 0983 053d
000000e0: 829f c0b9 0919 143d d026 8a3c 20c5 5a3c
000000f0: ac58 2bbd 5843 423d 81a2 b33c 2f77 fcbc
00000100: 62c8 86bd bbd5 87bd 891a 05bd a981 963c
00000110: d872 f0bc dd13 033d c0f8 a43d b4a8 aa3c
00000120: d576 573d 19bc 1b3d 8fce 33bd d354 2ebd
00000130: c015 743d 859c 853c 65c6 903d b1df 7e3d
00000140: e545 103c ccc7 9ebd 39a5 d33c ab8b 443d
00000150: 5c78 f9bb 79e4 563d 01fc c93c 8b08 d0bc
00000160: 0cd7 ff3c 9cdf 2bbd 4a91 7d3d c3ed 97bd
00000170: 3f8a 39bd b9b2 823d fa48 90bc 80bf a0bd
00000180: 97f2 1cbc 1b11 e53d f825 dcba 494d 6cbb
00000190: a0ab e9bb b6c9 8ebc e276 d9bc d8f6 d23c
000001a0: 6a0c ca3b 373d ffba 50e6 04bd 43b9 5a3d
000001b0: 0414 aabc de5a 8cbc 4f07 613c b1a1 723c
000001c0: aa8e b4bc 0c44 cb3c da8c 343c 524e 4d3d
000001d0: 5ba4 ff3c ff99 8f3d a4e6 e83c 2193 30bc
000001e0: d878 73bc ef1e ecbc 684d 81bd 8d55 b9bd
000001f0: 105b 993b ae54 5fbd 2577 053d 14b3 67bc
00000200: a885 adbd 430c a73c acdd 393d f856 8dbc
00000210: 7484 653d f8f3 763d d8aa 6d3d da39 273d
00000220: dff4 d5bb a2aa b8bd 9e6b 903d 6e6e 013d
00000230: 7f91 693c 0ce2 35bc 6c2d 273d 9af6 a53c
00000240: 58d6 e73c 6747 2a3d 83a2 453d be79 3f3c
00000250: ff9f 2ebd e251 4bbd ec04 123d e389 27bd
00000260: 1a82 61bd da3d 19bd c3ba cf3d ed2a adbc
00000270: 3e91 363d 5fd1 843c 6f89 de3b d008 a53c
00000280: eda6 113d 40ff 2abd 4a36 6c3d 9c29 c63c
00000290: a3a0 bf3d 3044 09bd 893a 223d 76f0 183c
000002a0: 7102 d53c 2023 c83b 46da 8d3d e604 eb3b
000002b0: db4e 2c3d 33a8 813d 0ea1 553c d2d6 3a3d
000002c0: c739 e9bb bc62 6a3b 020e 883d 6b1b 883b
000002d0: ee5d fb3a 5bc8 cb3c c385 41bc 439a 82bd
000002e0: 3e54 d23c 5e3b 3b3b a3ee ae3c 6d39 0f3d
000002f0: c186 1ebd 469d d33c 63cd 53bd 079f 4b3d
00000300: 713f 8f3d f80a 1e3d fd8f 173d dea5 ff3c
00000310: c4df 283b 2f78 26bd 4dcf a7bd 8652 2b3d
00000320: 09d2 973c 1950 1a3d 6f69 6b3d 9608 17bd
00000330: d0a8 78bd aa4c 5fbb 7cb7 a2bb c1c9 ad3d
00000340: 30a8 833d 6afe 7b3d c05e 5e3d 9ec4 29bc
00000350: c0be b93c 1274 a9bc 21f4 5d3d f95a 5d3d
00000360: 9a34 c83d 21aa c2bc f895 c6bc 4f43 ef3c
00000370: 75e5 f83c 29ee 11bd ed0c 2a3d 5dc2 223c
00000380: ff24 933c 9e47 02bd 2ce6 bc3c 29c9 303c
00000390: aacb a6bc 7372 4a3d eaa0 c63c 04ad 853d
000003a0: 209f 3f3d 3f35 a4bd 62cf 9cbc e4fe 62bc
000003b0: 0f23 763d 2f62 9b3d 9d04 883d 8284 b63c
000003c0: 2137 a93c fed7 813c 6169 dfbb cd0a f0bd
000003d0: e60b 2a3d 8509 063c 65cf a43c 0681 8b3c
000003e0: 4d50 fa3c 18ce cb3d 5497 183d e485 823d
000003f0: fdee 043d 1dc2 753d eadd 263c 1efa d53b

action_model._discrete_distribution.branches.0.bias f4 [7]
0.036823556 -0.012436315 0.04101554 -0.10773931 -0.06562006 0.010406512 0.037587516
00000000: 4cd4 163d b0c1 4bbc e9ff 273d 6da6 dcbd
00000010: cf63 86bd 1380 2a3c 5ef5 193d

exp_avg f4 [128, 163]
-2.487657e-17 -3.1971706e-06 -1.3645046e-06 6.542877e-05 6.8275636e-05 -2.487657e-17 -1.167056e-07 2.0629949e-07
-3.9252768e-07 3.1630807e-05 -2.487657e-17 -1.6414717e-06 -4.034101e-10 5.5255216e-05 5.4424156e-05 -2.487657e-17
-1.2501087e-07 1.804349e-05 -1.8603391e-06 2.8629485e-05 -1.938496e-17 2.45849e-05 3.9252624e-05 4.7437115e-06
5.2164163e-05 -2.487657e-17 -3.106208e-09 1.8017168e-05 1.1719685e-06 2.9608596e-05 -1.15468756e-17 -4.8450656e-06
6.4003652e-06 6.837856e-05 6.18485e-05 -2.487657e-17 1.2096465e-06 -1.3645896e-06 4.7704445e-05 5.6651963e-05
4.641623e-24 -3.4706643e-06 5.2110365e-05 2.1959552e-06 5.6238823e-05 -2.4678975e-17 -2.180134e-09 1.1793668e-08
7.810439e-06 2.5554264e-05 -7.6479755e-36 -3.0141953e-06 5.036321e-05 -5.7412344e-06 5.2104195e-05 -2.4618877e-17
-1.2774638e-09 6.0506977e-09 3.674075e-05 4.737825e-05 3.1697122e-35 4.9368053e-05 1.0929483e-06 4.7712897e-06
4.733217e-05 -2.5172886e-17 5.700863e-09 -5.5909327e-06 5.3957607e-05 5.255814e-05 3.1244522e-35 5.5234566e-05
-1.6878466e-05 1.6879556e-05 4.694423e-05 -1.9592742e-17 -1.7976934e-08 -1.4710818e-05 7.1476956e-05 5.8621372e-05
3.0424575e-35 -1.0376886e-07 5.2393683e-05 2.7576466e-06 4.6576715e-05 -1.6192284e-17 8.890375e-09 -1.4716689e-05
5.0479728e-05 5.537703e-05 3.017582e-35 1.9402334e-05 4.5804325e-05 -1.0911501e-05 3.9479706e-05 -1.1546897e-17
8.013084e-11 -1.4717035e-05 1.1199774e-05 3.7889775e-05 1.3368652e-35 1.9402705e-05 3.9415667e-05 -9.480886e-08
4.1071115e-05 2.9374737e-36 -4.988079e-06 -9.72284e-06 -3.7829268e-06 2.5131028e-05 1.2665181e-35 1.9402887e-05
3.7282924e-05 1.077266e-06 4.37974e-05 2.1819486e-36 -1.4716629e-05 -2.9691773e-09 1.6458778e-05 3.455681e-05
1.1595036e-35 1.9402323e-05 3.726399e-05 1.0734929e-06 4.665673e-05 -3.061483e-36 -1.4720882e-05 -3.8238007e-11
1.4463795e-05 5.4286687e-05 1.1595036e-35 1.9402138e-05 0.0001017156 -6.337813e-05 5.3362506e-05 2.6025273e-35
-1.0930694e-05 -3.788689e-06 7.1879345e-05 6.360077e-05 1.7636356e-35 1.9402447e-05 -1.47165565e-05 5.3382108e-05
6.210557e-05 2.0079669e-35 1.931258e-05 -1.4716793e-05 5.1852687e-05 6.126784e-05 2.0079669e-35 1.931258e-05
-1.4716793e-05 5.1852687e-05 6.1267834e-05 3.9717843e-06 7.7399145e-06 2.5740214e-06 0.0016114697 5.3857228e-05
5.3857228e-05 4.4590622e-35 5.4605544e-36 7.997529e-18 -6.749812e-06 1.1858789e-06 6.464601e-05 6.763007e-05
7.997529e-18 -2.7366698e-07 1.2411401e-06 -3.4606448e-06 2.9754512e-05 7.997529e-18 -5.696559e-06 1.0244935e-08
6.579229e-05 6.143641e-05 7.997529e-18 -2.7232906e-07 1.5810709e-05 -4.852999e-06 2.6406677e-05 3.838525e-17
2.0640213e-05 5.0465118e-05 -7.869172e-06 5.369834e-05 7.997529e-18 4.977034e-10 1.5778704e-05 1.4448141e-06
2.8684848e-05 1.3814724e-17 -1.2459868e-05 2.4751453e-05 4.975914e-05 6.0918454e-05 7.997529e-18 1.6327504e-06
1.2040393e-06 3.316173e-05 4.8776114e-05 1.5767012e-24 -7.181441e-06 5.282022e-05 1.9890429e-06 5.4916934e-05
1.1698267e-17 1.1252681e-09 2.7795988e-08 2.1029851e-05 3.245679e-05 -6.6895415e-37 -6.926235e-06 5.1926e-05
6.278403e-06 5.5158827e-05 1.9876672e-17 7.453038e-09 2.8076776e-08 4.731614e-05 5.567829e-05 -4.153293e-36
4.2971864e-05 1.6017514e-06 1.4410077e-05 5.2323572e-05 1.1952897e-17 1.2826621e-09 -4.989124e-06 5.2598152e-05
5.6942878e-05 -2.9805321e-36 5.509705e-05 -1.0399399e-06 4.9530004e-06 4.971077e-05 3.2040788e-17 1.8275657e-09
-3.0233523e-06 6.748542e-05 6.270985e-05 -2.6962564e-36 -2.5984627e-07 6.2526124e-05 -3.8231524e-06 4.7010133e-05
2.2171317e-17 2.1526644e-10 -3.0480396e-06 4.699505e-05 5.8099056e-05 -2.969668e-36 1.45907e-05 5.497773e-05
00000000: 2472 e5a3 f98e 56b6 0524 b7b5 ce36 8938
00000010: 342f 8f38 2472 e5a3 959f fab3 2c83 5d34
00000020: 98bc d2b4 52ab 0438 2472 e5a3 8a50 dcb5
00000030: edc6 ddaf d6c1 6738 7e45 6438 2472 e5a3
00000040: ba3a 06b4 1a5c 9737 c4b0 f9b5 5a29 f037
00000050: 71cb b2a3 ac3b ce37 2fa3 2438 2c2c 9f36
00000060: d8ca 5a38 2472 e5a3 fd74 55b1 9323 9737
00000070: 884c 9d35 fa5f f837 9400 55a3 cc92 a2b6
00000080: b8c2 d636 7666 8f38 a9b4 8138 2472 e5a3
00000090: 235b a235 f126 b7b5 4216 4838 959d 6d38
000000a0: 6890 b318 8fe9 68b6 1491 5a38 395e 1336
000000b0: fae1 6b38 959f e3a3 53d1 15b1 1a9d 4a32
000000c0: 9409 0337 5d5d d637 8aa7 2285 7b47 4ab6
000000d0: 163d 5338 d4a4 c0b6 748a 5a38 ae11 e3a3
000000e0: c392 afb0 80e6 cf31 141a 1a38 02b8 4638
000000f0: e387 2806 8b10 4f38 6bb1 9235 1119 a036
00000100: 8886 4638 cc2d e8a3 52e1 c331 bf99 bbb6
00000110: 8a50 6238 e071 5c38 d71f 2606 aaab 6738
00000120: 3b96 8db7 9298 8d37 fce5 4438 0eb6 b4a3
00000130: b26b 9ab2 7bce 76b7 e6e5 9538 38e0 7538
00000140: c9c3 2106 89d7 deb3 4ac1 5b38 0210 3936
00000150: 5e5b 4338 f358 95a3 48bc 1832 b3e7 76b7
00000160: 32ba 5338 a244 6838 3371 2006 32c2 a237
00000170: 051e 4038 8a10 37b7 0397 2538 ae00 55a3
00000180: a735 b02e 2fe9 76b7 aae6 3b37 d6eb 1e38
00000190: ef28 8e05 fec2 a237 4052 2538 b999 cbb3
000001a0: c643 2c38 83e4 7904 465f a7b6 481f 23b7
000001b0: 30de 7db6 79d0 d237 e7ad 8605 62c3 a237
000001c0: 3c60 1c38 9496 9035 1ab3 3738 a29e 3904
000001d0: 71e7 76b7 520a 4cb1 f510 8a37 18f1 1038
000001e0: 6199 7605 2cc2 a237 e84b 1c38 ef14 9035
000001f0: 48b1 4338 9938 8284 b5f9 76b7 2b2c 28ae
00000200: 87a9 7237 e3b1 6338 6199 7605 c6c1 a237
00000210: 2650 d538 e0e9 84b8 8ed1 5f38 c45f 0a06
00000220: f962 37b7 2e41 7eb6 eebd 9638 6761 8538
00000230: ba8a bb05 70c2 a237 21e7 76b7 9ae6 5f38
00000240: ad3e 8238 0f86 d505 7301 a237 25e8 76b7
00000250: 667c 5938 ec7c 8038 0f86 d505 7301 a237
00000260: 25e8 76b7 667c 5938 eb7c 8038 5e45 8536
00000270: aeda 0137 5abd 2c36 f337 d33a c2e4 6138
00000280: c2e4 6138 9c15 6d06 2c44 e804 4387 1323
00000290: 727c e2b6 7d2a 9f35 9092 8738 9ed4 8d38
000002a0: 4387 1323 81ec 92b4 4095 a635 6d3d 68b6
000002b0: 5499 f937 4387 1323 1225 bfb6 b301 3032
000002c0: f7f9 8938 6cd7 8038 4387 1323 9f34 92b4
000002d0: 3da1 8437 f2d6 a2b6 e883 dd37 4e05 3124
000002e0: 8524 ad37 82aa 5338 d605 04b7 273a 6138
000002f0: 4387 1323 c3ce 0830 825c 8437 6feb c135
00000300: 3ea0 f037 31d6 7e23 ba0a 51b7 57a1 cf37
00000310: 78b4 5038 b182 7f38 4387 1323 e024 db35
00000320: 7a9a a135 2317 0b38 f494 4c38 92fb f317
00000330: 1cf8 f0b6 488b 5d38 7f7b 0536 9c56 6638
00000340: 81cb 5723 daa7 9a30 06c4 ee32 4369 b037
00000350: 3722 0838 20a2 6383 e867 e8b6 1ecb 5938
00000360: 12ab d236 575a 6738 7754 b723 cf0a 0032
00000370: 7c2d f132 5275 4638 1c88 6938 5ba9 b084
00000380: b03c 3438 c2fb d635 cfc2 7137 0276 5b38
00000390: f67d 5c23 a949 b030 4068 a7b6 d69c 5c38
000003a0: f3d5 6e38 3e8e 7d84 0218 6738 1094 8bb5
000003b0: f331 a636 8880 5038 16c3 1324 c02d fb30
000003c0: cce4 4ab6 f586 8d38 1883 8338 445f 6584
000003d0: 0081 8bb4 7520 8338 a148 80b6 bf2c 4538
000003e0: 8b7e cc23 1eb0 6c2f ec8c 4cb6 8d1c 4538
000003f0: 63af 7338 a4a1 7c84 94ca 7437 e397 6638

exp_avg_sq f4 [128, 163]
4.67381e-10 8.924391e-09 1.0416268e-08 6.557768e-07 6.7995745e-07 1.215527e-09 1.1919969e-08 1.586424e-08
6.470117e-07 6.8247743e-07 4.702797e-10 9.191293e-09 4.9548746e-08 6.437462e-07 6.653605e-07 1.190631e-09
1.00501465e-08 2.123691e-08 6.647642e-07 6.874644e-07 2.171195e-10 5.733942e-07 6.237752e-08 5.5660966e-08
5.4304655e-07 1.1886343e-09 1.929619e-08 2.4301986e-08 6.428858e-07 6.765097e-07 2.4034216e-10 1.0448315e-08
6.9061635e-08 5.8938974e-07 6.3918594e-07 1.183626e-09 3.501629e-08 2.0291512e-08 5.8968542e-08 2.473963e-07
1.0821535e-09 7.3450352e-09 7.247321e-08 3.8426382e-08 2.6584985e-07 1.1242353e-09 1.0823827e-08 2.480438e-08
6.64065e-08 2.0740137e-07 1.2550744e-09 7.880033e-09 7.546817e-08 4.1617312e-08 2.7182392e-07 1.1039619e-09
4.801377e-09 2.1655142e-08 9.5946056e-08 2.1729335e-07 1.568505e-09 1.6567888e-08 5.1322008e-08 6.400331e-07
6.7833537e-07 7.6183493e-10 4.669059e-09 1.2871252e-08 6.691061e-07 6.8166474e-07 1.6931886e-09 2.5202116e-08
6.180319e-07 7.579657e-08 2.8969245e-07 8.3962276e-10 4.9897793e-09 8.333013e-09 6.8651684e-07 6.957404e-07
1.7043491e-09 2.7589522e-08 6.216383e-07 7.1582804e-08 2.3653278e-07 5.770745e-11 8.709637e-09 9.377087e-09
1.17353004e-07 3.78465e-07 1.7257422e-09 2.9587575e-08 6.159318e-07 5.727309e-08 2.0392044e-07 6.087929e-11
1.4067583e-08 9.403531e-09 7.938759e-08 3.3485486e-07 1.5632416e-09 3.843381e-08 6.02848e-07 3.8026922e-08
1.7585072e-07 3.2538843e-11 1.3167873e-08 9.603716e-09 6.462003e-07 6.610639e-07 1.579361e-09 3.959014e-08
5.899671e-07 3.6982847e-08 1.6746331e-07 3.61231e-11 1.700552e-08 6.3709327e-09 6.5093326e-07 6.629579e-07
1.4798024e-09 3.560998e-08 3.446261e-08 5.9993465e-07 6.5139835e-07 7.100742e-11 1.3898111e-08 6.6525168e-09
6.3339805e-08 4.5144e-07 1.446779e-09 2.8941582e-08 2.3409818e-08 6.1967245e-07 6.621293e-07 8.980205e-10
1.0659222e-08 6.1714216e-09 9.4086104e-08 4.9700157e-07 1.3242444e-09 1.6354857e-08 1.8223972e-08 6.5910086e-07
6.864451e-07 1.1973884e-09 1.13330865e-08 8.604876e-09 6.6515065e-07 6.972883e-07 1.1973884e-09 1.13330865e-08
8.604876e-09 6.6515065e-07 6.9728844e-07 1.6714203e-09 3.7558838e-08 8.781682e-08 0.0008309569 6.781015e-07
7.1058395e-07 3.9195354e-09 8.177671e-10 1.0048875e-10 5.5364446e-09 9.41694e-09 4.560719e-08 6.031887e-08
1.03699105e-10 3.844935e-09 1.673961e-08 4.6704205e-08 6.346873e-08 1.16299324e-10 6.6903545e-09 8.091516e-09
4.5848896e-08 6.0251196e-08 1.08242026e-10 4.3343293e-09 1.9951788e-08 3.9681627e-08 5.798584e-08 1.08336375e-10
9.1664285e-09 8.9522265e-09 4.194413e-08 5.8334273e-08 1.03916785e-10 9.081005e-09 1.9093509e-08 3.482793e-08
5.5261417e-08 5.0864202e-11 1.3842621e-08 8.909489e-09 2.9888394e-08 5.3496066e-08 4.402409e-11 6.4771855e-09
1.5994328e-08 3.738267e-08 5.4123575e-08 2.1946844e-10 1.3349818e-08 1.1200228e-08 2.8936887e-08 5.136438e-08
5.6027905e-11 4.871048e-09 1.5113825e-08 3.82908e-08 5.6482683e-08 2.3867539e-10 1.4829006e-08 1.5078422e-08
2.702333e-08 5.0907264e-08 3.3328434e-11 5.9535e-09 1.2878288e-08 4.145883e-08 5.7991365e-08 2.5059918e-10
2.1707574e-08 1.0824806e-08 2.6399649e-08 5.188876e-08 2.4326994e-11 6.9532455e-09 8.51021e-09 4.5008836e-08
5.8839394e-08 2.5349395e-10 2.5361892e-08 1.3732391e-08 2.765147e-08 5.539092e-08 1.9603723e-11 8.527849e-09
6.889453e-09 4.7501413e-08 6.305968e-08 2.6543506e-10 1.976969e-08 2.692738e-08 2.4473485e-08 5.4424753e-08
1.7724086e-11 8.103792e-09 5.756103e-09 5.631364e-08 6.662334e-08 2.6022812e-10 1.9985944e-08 2.9031613e-08
00000000: 0479 0030 e351 1932 3bf3 3232 a308 3035
00000010: 5286 3635 8e0f a730 94c8 4c32 d545 8832
00000020: 4eae 2d35 7e33 3735 fe44 0130 bce7 1d32
00000030: 6ccf 5433 e7cd 2c35 3a9b 3235 9ba3 a330
00000040: 03a9 2c32 756c b632 3f72 3235 328a 3835
00000050: b5b9 6e2f 59eb 1935 67f4 8533 e10f 6f33
00000060: e0c5 1135 5a5d a330 c5c0 a532 a2c0 d032
00000070: c792 2c35 6599 3535 2721 842f 2d80 3332
00000080: 094f 9433 8e36 1e35 8694 2b35 23ad a230
00000090: d164 1633 824d ae32 9944 7d33 e3d1 8434
000000a0: e4ba 9430 9d5f fc31 92a2 9b33 410a 2533
000000b0: 20ba 8e34 8383 9a30 b2f3 3932 6911 d532
000000c0: 5c9b 8e33 0eb2 5e34 017f ac30 c060 0732
000000d0: 1111 a233 b8be 3233 32ef 9134 35ba 9730
000000e0: 5cf9 a431 2904 ba32 e70a ce33 2451 6934
000000f0: dd92 d730 2c51 8e32 256d 5c33 bdce 2b35
00000100: da16 3635 5e69 5130 7a6d a031 5d20 5d32
00000110: 9f9c 3335 a5fb 3635 c7b5 e830 0a7c d832
00000120: d4e6 2535 9bc5 a233 0787 9b34 33cb 6630
00000130: 9072 ab31 fb28 0f32 1449 3835 ebc2 3a35
00000140: 743e ea30 00fe ec32 a9de 2635 10b9 9933
00000150: a3f9 7d34 d0cc 7d2e 63a1 1532 dd18 2132
00000160: 7f03 fc33 d52f cb34 282f ed30 c427 fe32
00000170: 8356 2535 6efc 7533 39f5 5a34 fedf 852e
00000180: e2ad 7132 2b8d 2132 ca7b aa33 1ac6 b334
00000190: add9 d630 6c12 2533 66d3 2135 0b53 2333
000001a0: 7ad1 3c34 7b1b 0f2e eb38 6232 97fd 2432
000001b0: 8c76 2d35 f773 3135 d310 d930 d209 2a33
000001c0: 3b5e 1e35 12d7 1e33 f7cf 3334 ffde 1e2e
000001d0: 8913 9232 51e7 da31 cbbb 2e35 1ff6 3135
000001e0: eb61 cb30 96f1 1833 0a04 1433 320b 2135
000001f0: c1db 2e35 a025 9c2e 8ac4 6e32 2894 e431
00000200: 6d05 8833 715d f234 03d8 c630 369b f832
00000210: bc16 c932 9157 2635 2ebd 3135 93d8 7630
00000220: c11f 3732 660c d431 620c ca33 b069 0535
00000230: b500 b630 b67c 8c32 f08a 9c32 11ed 3035
00000240: 2644 3835 5c91 a430 71b3 4232 a5d4 1332
00000250: ce8c 3235 4a2d 3b35 5c91 a430 71b3 4232
00000260: a5d4 1332 ce8c 3235 4c2d 3b35 e0b7 e530
00000270: 6150 2133 cf95 bc33 93d4 593a c806 3635
00000280: f5be 3e35 99ac 8631 3ec9 6030 23fa dc2e
00000290: 153b be31 24c8 2132 a3e1 4333 a688 8133
000002a0: 6809 e42e 681c 8431 cbca 8f32 d197 4833
000002b0: 4e4c 8833 b3be ff2e fbe0 e531 dd02 0b32
000002c0: 65eb 4433 7263 8133 d806 ee2e 2aed 9431
000002d0: 7262 ab32 696e 2a33 1b0c 7933 f53b ee2e
000002e0: 617a 1d32 4fcc 1932 0f26 3433 368b 7a33
000002f0: f383 e42e af02 1c32 1203 a432 b795 1533
00000300: 9258 6d33 00b4 5f2e 7ed0 6d32 5910 1932
00000310: a35e 0033 8cc3 6533 b89e 412e ed8d de31
00000320: e663 8932 ae8e 2033 8075 6833 e04e 712f
00000330: 1f59 6532 206b 4032 e390 f832 bc9b 5c33
00000340: d069 762e 315e a731 a7d3 8132 2e75 2433
00000350: 5e97 7233 9336 832f a8c2 7e32 cd85 8132
00000360: ee20 e832 21a5 5a33 7b94 122e 8a8f cc31
00000370: 4f3f 5d32 7710 3233 2e12 7933 b3c4 892f
00000380: 7677 ba32 00f8 3932 71c5 e232 4cdc 5e33
00000390: 85fb d52d 65e9 ee31 4d34 1232 bd4f 4133
000003a0: 99b6 7c33 1a5c 8b2f 64db d932 b2eb 6b32
000003b0: 3a86 ed32 f6e6 6d33 a96f ac2d e081 1232
000003c0: 45b8 ec31 5b04 4c33 6d6b 8733 aaec 912f
000003d0: 02d2 a932 ef4d e732 c339 d232 a6c0 6933
000003e0: 18e7 9b2d db38 0b32 38c7 c531 81dd 7133
000003f0: 9212 8f33 da0f 8f2f 8ead ab32 3161 f932

exp_avg f4 [128]
5.385722e-05 6.017732e-05 -8.082043e-06 1.2912415e-06 9.854557e-08 -5.65152e-07 3.8859922e-05 -1.8930747e-05
-1.3754353e-05 6.44854e-07 -3.5360586e-05 -2.258482e-05 8.2985625e-06 -8.401991e-06 1.8679677e-06 5.731436e-05
-1.172507e-06 8.8234076e-05 3.6711015e-05 -3.38513e-05 -2.4124281e-05 1.0765229e-05 -5.592545e-06 -3.1299707e-05
1.9336476e-05 4.445185e-05 9.281999e-06 5.370454e-05 -8.236611e-06 9.2895534e-05 7.220391e-05 3.7502705e-06
-2.2310683e-06 -1.9105948e-05 3.1012655e-07 1.2152141e-06 -1.308902e-06 -1.385142e-05 1.2249202e-05 -4.1551974e-07
-2.1569227e-05 -4.921405e-06 3.2226435e-05 3.655159e-05 -2.1237887e-05 -4.9068352e-05 -2.7323697e-06 4.3921403e-07
9.362839e-06 9.979577e-05 2.3683771e-05 -6.396006e-05 2.9339e-05 -2.3419087e-05 7.2628995e-07 -1.9431127e-08
3.072961e-06 3.2925204e-06 5.4899676e-05 4.0747827e-06 2.191924e-05 8.2997336e-05 -5.0144195e-07 -2.5737438e-06
1.4786787e-05 3.0931995e-05 1.3555696e-05 -5.8653433e-05 3.38732e-05 4.003608e-05 7.4234447e-07 8.964375e-05
-2.6963974e-06 -1.8695017e-06 -6.6514476e-05 1.1863574e-05 -1.929198e-05 3.634122e-07 3.252174e-05 -2.1198273e-05
5.695657e-07 -4.933366e-05 9.501423e-07 -3.834228e-05 -1.6545087e-06 -6.8446116e-06 -6.6511916e-07 -5.611586e-05
-4.073299e-05 7.203071e-06 4.775515e-05 4.1028554e-05 5.490222e-06 3.505539e-05 5.5435703e-07 -2.5823527e-05
6.936719e-05 5.2650864e-07 -2.8249226e-05 4.0510042e-07 -5.697787e-07 1.957669e-05 -2.7831802e-05 -3.6076735e-06
4.003803e-05 -6.109438e-06 5.380519e-05 3.9721133e-05 -1.9818024e-05 -8.727329e-08 4.9029135e-05 -3.2558273e-05
4.341629e-05 2.7363749e-06 3.981336e-05 -3.0439787e-05 -2.323116e-06 -2.4979692e-05 -1.9350591e-05 -9.5040254e-05
1.5382555e-05 2.6961105e-05 -2.0977766e-05 -6.439692e-05 2.6434544e-05 1.6716376e-07 4.5838583e-06 -3.6396964e-06
00000000: c0e4 6138 e866 7c38 1c98 07b7 b84e ad35
00000010: 00a0 d333 f3b4 17b5 86fd 2238 78cd 9eb7
00000020: 7fc2 66b7 081a 2d35 2450 14b8 8874 bdb7
00000030: 0e3a 0b37 47f6 0cb7 e2b6 fa35 d364 7038
00000040: 095f 9db5 4f0a b938 27fa 1938 8efb 0db8
00000050: 805e cab7 4e9c 3437 99a7 bbb6 ce47 03b8
00000060: c434 a237 cf71 3a38 e2b9 1b37 d040 6138
00000070: fa2f 0ab7 e9d0 c238 2e6c 9738 28ad 7b36
00000080: 76b9 15b6 b645 a0b7 787f a634 701a a335
00000090: 88ad afb5 6563 68b7 ec81 4d37 9914 dfb4
000000a0: 90ef b4b7 8c22 a5b6 df2a 0738 f94e 1938
000000b0: 0428 b2b7 bece 4db8 c15d 37b6 1ecd eb34
000000c0: 1615 1d37 7249 d138 83ac c637 4c22 86b8
000000d0: 061d f637 1b74 c4b7 44f6 4235 80e9 a6b2
000000e0: 1139 4e36 12f5 5c36 1444 6638 1eba 8836
000000f0: 36df b737 db0e ae38 d49a 06b5 95b8 2cb6
00000100: c414 7837 fabc 0138 456d 6337 a502 76b8
00000110: 1213 0e38 6aec 2738 8645 4735 1fff bb38
00000120: c1f3 34b6 97eb fab5 b07d 8bb8 aa09 4737
00000130: 36d5 a1b7 fe1a c334 f467 0838 f2d2 b1b7
00000140: 42e4 1835 9deb 4eb8 480d 7f35 b6d1 20b8
00000150: 7c10 deb5 c4aa e5b6 a48a 32b5 f25d 6bb8
00000160: b7d8 2ab8 e9b1 f136 b44c 4838 1316 2c38
00000170: a638 b836 7008 1338 20cf 1435 9a9f d8b7
00000180: 3a79 9138 6655 0d35 c0f8 ecb7 947c d934
00000190: e5f2 18b5 9f38 a437 5778 e9b7 5c1b 72b6
000001a0: 82ee 2738 acff ccb6 e2ac 6138 3e9a 2638
000001b0: e23e a6b7 006b bbb3 a2a4 4d38 2e8f 08b8
000001c0: e319 3638 90a2 3736 45fd 2638 f258 ffb7
000001d0: d4e6 1bb6 7b8b d1b7 1453 a2b7 5950 c7b8
000001e0: c909 8137 882a e237 69f9 afb7 d50c 87b8
000001f0: c0bf dd37 a07d 3334 0bcf 9936 8241 74b6

exp_avg_sq f4 [128]
7.171268e-07 8.784231e-08 6.277829e-08 4.9790327e-08 5.336468e-07 3.9695376e-09 7.590014e-08 2.4868046e-07
1.0532913e-07 2.3496225e-09 4.2560123e-07 9.544278e-07 1.3051278e-08 4.142323e-07 1.705346e-09 2.332053e-07
1.0546057e-09 3.203523e-07 2.2077937e-07 4.0830838e-07 2.695132e-07 1.7169327e-07 6.6051203e-10 3.8067947e-07
5.672635e-08 7.224896e-08 2.2175799e-07 4.289769e-07 3.7990425e-08 1.738217e-07 1.6670151e-07 7.4629845e-08
2.604181e-09 2.4480366e-07 7.2190626e-10 2.2703198e-08 1.9335552e-07 7.0048436e-08 1.6099709e-07 4.6206567e-09
3.1975733e-07 2.1745981e-07 9.657084e-08 1.7315557e-07 7.778912e-08 9.189393e-08 6.7643184e-09 2.398268e-09
8.5343785e-09 1.1295485e-06 6.5089786e-08 1.3305063e-06 4.882701e-08 2.950739e-07 1.9611068e-09 8.579382e-08
1.8393022e-08 1.3931903e-09 1.1551914e-07 3.693744e-08 2.4631117e-07 3.989843e-07 1.8941202e-09 2.4687934e-09
3.3546252e-07 1.9105008e-07 1.2526182e-07 6.5971034e-07 9.0051714e-08 5.8756e-08 1.3059996e-07 1.8282077e-07
4.5438348e-08 1.6478741e-07 1.3010253e-06 2.926814e-07 1.1232345e-07 1.1160203e-09 3.400161e-08 8.5624244e-08
1.0903036e-09 1.4167436e-07 3.469595e-09 9.4122174e-07 3.7419055e-09 1.6526045e-08 3.0343168e-09 3.6132153e-07
2.500581e-07 1.16671565e-07 1.0004052e-06 3.407604e-07 5.5841436e-08 1.2222986e-07 2.0681472e-07 5.018765e-07
1.4423746e-07 1.1620394e-09 1.0335303e-07 6.727109e-08 5.3665135e-09 1.1789926e-06 8.76063e-08 1.00508416e-07
9.379825e-07 7.180854e-08 4.058296e-07 1.0271695e-07 1.754268e-07 5.3363595e-07 1.647013e-07 4.1578863e-07
6.012073e-08 1.6792531e-07 1.107781e-06 9.858995e-07 2.5697484e-09 1.2411001e-06 1.498523e-07 1.4611694e-06
7.921152e-07 6.246148e-07 1.1994904e-07 5.778401e-07 5.6453246e-08 2.239476e-09 1.0502348e-08 5.408592e-09
00000000: 9480 4035 d2a3 bc33 bbd0 8633 0bd9 5533
00000010: ee3f 0f35 6c64 8831 8bfe a233 6282 8534
00000020: 4d31 e233 ff76 2131 307e e434 e419 8035
00000030: 2138 6032 a763 de34 8761 ea30 fc66 7a34
00000040: a4f1 9030 e3fc ab34 5f0f 6d34 7a35 db34
00000050: 9db1 9034 b05a 3834 678f 3530 3060 cc34
00000060: 48a3 7333 4927 9b33 5f1c 6e34 234e e634
00000070: ea2a 2333 bfa3 3a34 90fe 3234 3144 a033
00000080: 3df5 3231 8f6d 8334 a36f 4630 dc04 c332
00000090: 299d 4f34 896d 9633 8bde 2c34 bac3 9e31
000000a0: 1dab ab34 e67e 6934 6162 cf33 a4ec 3934
000000b0: 050d a733 3957 c533 936b e831 c7ce 2431
000000c0: 989e 1232 fe9a 9735 7dc7 8b33 d993 b235
000000d0: deb5 5133 a66a 9e34 28c4 0631 a73d b833
000000e0: affe 9d32 877a bf30 5213 f833 25a5 1e33
000000f0: c03c 8434 fc33 d634 b729 0231 79a7 2931
00000100: 9e19 b434 7223 4d34 b57f 0634 f316 3135
00000110: 7462 c133 e85a 7c33 0b3b 0c34 644d 4434
00000120: fe27 4333 6bf0 3034 e49e ae35 d321 9d34
00000130: 7836 f133 7962 9930 2a09 1233 6de0 b733
00000140: a6d9 9530 271f 1834 c36d 6e31 44a8 7c35
00000150: 2692 8031 28f5 8d32 4484 5031 a7fb c134
00000160: b93f 8634 df8c fa33 a945 8635 c1f1 b634
00000170: 4fd6 6f33 4a3e 0334 cc10 5e34 b1b8 0635
00000180: b1df 1a34 a0b5 9f30 eef2 dd33 ac76 9033
00000190: 5a64 b831 e13d 9e35 1322 bc33 16d7 d733
000001a0: abc9 7b35 2a35 9a33 cce0 d934 3e95 dc33
000001b0: f45c 3c34 2f3f 0f35 c0d8 3034 8e39 df34
000001c0: b91b 8133 f54e 3434 11af 9435 4053 8435
000001d0: 7e97 3031 e093 a635 16e7 2034 661d c435
000001e0: bea1 5435 34ab 2735 57cb 0034 df1c 1b35
000001f0: 0077 7233 47e5 1931 d16d 3432 7ad6 b931
