Source/Trained_Policies/WeightAgent_Training/WeightAgent_Training/WeightAgent_Training-111852.pt (torch, 926564 bytes, 33 tensors)

network_body._body_endoder.seq_layers.0.weight f4 [128, 163]
00000000: b26d b43c 14ea dfbc 77e4 0fbd 8be8 0f3c
00000010: fcb5 aa3c c857 eebd edfa 1bbc 8405 f0bc
00000020: ba0a 0c3e 6a03 9e3a 07db ccbc 1d8f 923c
00000030: 2aa1 ba3d 9b9b c8bb 51e3 303d 949d e6bd
00000040: c417 213d bedb 033e 2a67 13bd e984 a0ba
00000050: a0ec c23d 4b45 603d c0f2 9d3d f06c fbbb
00000060: 1f10 15b9 d897 c53d d1db ae3d ae1d a5bd
00000070: b989 18bd 9300 d1bd 4464 ddbc a933 d3bd
00000080: 5807 063d 915d 5ebd e514 dbbb 9575 cc3c
00000090: 8825 d6bb a147 5b3d 6ed3 243b cc2d c6bd
000000a0: fcd4 683d 28d2 88bd cf41 8dbc 712b fbbd
000000b0: c2b3 8b3d 7f42 f13c 474b 7abd 57bd c63d
000000c0: 9f21 12be 13a3 573d b8b3 41be 2b93 abbd
000000d0: e7f8 3fbd 1330 b83c 6f26 9f3c 48e2 6abc
000000e0: b8bb 893d 3351 98bd b9e4 af3d acf7 933c
000000f0: d844 ec3c c144 c8bd efca 9cbd 275c 8b3d
00000100: 3936 6bbc 9ee1 b23c 4de4 68bd cf18 79bd
00000110: ecbb b4bc 1660 2a3e 4e0c 043e 3e71 8b3d
00000120: b4fc 1ebd c802 e1bc 25c1 04bd 88fe ffbc
00000130: c34d 91bd 4669 a3bd d3c8 12bc 96c6 a33d
00000140: 1475 b8bd 725c 043e e52e 723d 9057 5f3e
00000150: f1c4 073e a473 ca3c aef7 c8bd bccd 11bd
00000160: c89c b5bd f211 0ebe a6dd 11bd 3d0a 1e3d
00000170: a866 c1bd 5bc3 d73d 800d 2f3d fed1 d2bc
00000180: 153c 203b 06d7 693d 79ba b53b a81f 2cbd
00000190: feec 8bbd b978 03be cd7d 8b3c e935 343e
000001a0: 79f2 bebd bbe9 a7bd 736c 9c3b 3934 783d
000001b0: 4ed3 9dbd dbb4 4dbd 0561 e6bb 5554 8ebd
000001c0: 9745 91bc 0c26 a0bc c963 d43c 6d83 9a3d
000001d0: 1edf c6bd bf8e 1b3e ee4c 9fbc 57d2 2dbe
000001e0: 1080 7c3d 724c b4bd a2a9 5fbd 3747 e4bd
000001f0: 4622 d23d f3c4 60bd 221a 37bd f3e8 dfbc
00000200: ad2e 85bc 7eb3 a0bd fa52 ac3c 0410 b3bd
00000210: a91f ac3d c831 4abd f288 9cbc 5ce4 cb3d
00000220: 3c12 8c3d cb5e 40bd 2558 11be fe36 02be
00000230: 4f1f 163d 3b53 05be ad8f 3abc 95d5 d7bd
00000240: bc73 6b3d 8f9e 00bd 253a 383d 325a a53c
00000250: 8132 3fbd 5f84 edbb 2e15 05bd 4f85 6b3d
00000260: 31ed 08bd f0c2 1c3c c54b 113e ee6e eebc
00000270: 1df9 8bbc 6826 2d3c 49b4 91bd 36cf 4fbd
00000280: 810a d6bd 27ee 12be 618a f23a 6562 1c3c
00000290: c888 3a3e 84f4 133e 2beb ff39 6080 89bc
000002a0: 68b3 8d3c 1f42 cdbd 2bf4 093d 703e c43c
000002b0: 70f3 023c ac28 e73d 9c8d 9b3d edd4 02bd
000002c0: 9fd3 43bd 086e dfbc 261a cdbb 8a8c 0bbd
000002d0: 862f c93b 1986 8fbd 82e8 ea3c 3a5f 66bc
000002e0: 12e3 503d 2f12 d73d 0cf1 3fbd e7b7 943c
000002f0: a516 9e3b 656d 24bc e962 263e 533b f7bc
00000300: 2ba9 b93d f688 27bc cead c53d 52a0 863d
00000310: 4304 bc3d 91d2 333b 295e e4bc fc31 243d
00000320: ad1e 5fbc c72d f93c a58c 57bd 192b 09bd
00000330: 578f 8d3d b1c2 28bd 1172 163d 300b 793d
00000340: 2b61 d63d f6b1 4ebe ce67 a03d 1fce 0c3c
00000350: c2f3 623d ea02 ac3c 9958 77bc 85d4 933c
00000360: 0928 293e f9b4 2cbc fa18 233e 08fa a0bd
00000370: b69d cb3d 4c07 56bd b273 023e 1853 253e
00000380: 284a 52bd dc5d 753d 0f78 d93d a458 72ba
00000390: 9230 04bd 6bb4 97bd 8cfb 853d ea88 aabc
000003a0: 7ac1 393e 33c6 fd3c a6fe 51bd 45e5 d13d
000003b0: 381b d23d 2668 6e3d 8426 fdbb 1333 afbb
000003c0: 53cc 0cbd 0443 a2bd 5bed 173d fd17 bdbd
000003d0: f4ab 1ebe 7034 91bd 564e 21be a58d 8c3c
000003e0: c273 e33c 4fe7 d6bc 92ce 0c3d a51d 61bd
000003f0: 977b 0a3e 3a86 933d 8c1a aebd 5804 2c3e
0.022024963 -0.027333297 -0.03512999 0.00878347 0.02083873 -0.11637837 -0.009520275 -0.029299505
0.13675967 0.0012055461 -0.025006784 0.017890507 0.09112771 -0.0061220652 0.043185536 -0.112605244
0.039329305 0.12876794 -0.035987057 -0.0012246642 0.09517789 0.054753583 0.077123165 -0.0076728985
-0.00014215753 0.096481025 0.085380204 -0.080623016 -0.037240718 -0.10205188 -0.02702535 -0.10312588
0.032721847 -0.05428845 -0.0066858404 0.024958411 -0.006535236 0.053535108 0.0025150436 -0.09676704
0.056843743 -0.06680709 -0.017243294 -0.12264145 0.068213955 0.029450653 -0.061106946 0.097040825
-0.14270638 0.052645754 -0.18916214 -0.083776794 -0.04686823 0.022483861 0.019427506 -0.014336176
0.06725258 -0.074373625 0.08588547 0.018062435 0.028841421 -0.09778739 -0.07655894 0.06804686
-0.014356189 0.021836098 -0.05685835 -0.060814675 -0.022062264 0.16638216 0.12895319 0.068087086
-0.038815215 -0.027467147 -0.03241076 -0.0312493 -0.0709491 -0.07979064 -0.008959013 0.07996862
-0.09006706 0.1292589 0.059126753 0.21810746 0.13258721 0.024713345 -0.09812866 -0.035596594
-0.08867794 -0.13874033 -0.03561177 0.038583983 -0.09443408 0.10535308 0.042737484 -0.025734898
0.0024449874 0.057089828 0.005545911 -0.042022377 -0.06832312 -0.12839021 0.01702776 0.1759869
-0.09323592 -0.081988774 0.0047736703 0.06059668 -0.07706319 -0.050221305 -0.0070306086 -0.06949679
-0.017733378 -0.019549392 0.025926488 0.07544599 -0.09710525 0.15191172 -0.019445863 -0.1697477
0.061645567 -0.08803643 -0.054605134 -0.11146396 0.102604434 -0.054875325 -0.044702657 -0.027332759
-0.016257608 -0.078467354 0.02103566 -0.08743289 0.08404476 -0.04936388 -0.01910827 0.099556655
0.068394154 -0.0469654 -0.1419378 -0.1271629 0.036650952 -0.13020031 -0.011386794 -0.105387844
0.05748342 -0.031401213 0.044977326 0.02018461 -0.046679024 -0.007248446 -0.0324909 0.05750018
-0.03342933 0.009567961 0.1418906 -0.02910563 -0.01708656 0.010568239 -0.07114465 -0.05073472
-0.10451222 -0.1434866 0.0018504375 0.009544943 0.1821624 0.14448744 0.00048812604 -0.016784847
0.017297462 -0.10022377 0.033680122 0.023955554 0.00799261 0.112870544 0.07595369 -0.031941343
-0.04780924 -0.027274147 -0.0062592207 -0.034069575 0.0061396984 -0.07007999 0.028675321 -0.01406079
0.0509978 0.10501515 -0.04686074 0.018154098 0.004824477 -0.010035847 0.16248669 -0.030179655
0.09065469 -0.010225525 0.09652291 0.065735474 0.091805 0.002743874 -0.02787693 0.04008673
-0.0136181535 0.030417336 -0.052624363 -0.033488367 0.069121055 -0.041201297 0.036729876 0.060801685
0.10467752 -0.20185074 0.07832299 0.008594065 0.055408247 0.020997483 -0.015096807 0.018045673
0.16519178 -0.010541194 0.15927497 -0.0786019 0.0994219 -0.052253053 0.12739447 0.16144979
-0.051340252 0.059903964 0.106186025 -0.0009244776 -0.032272883 -0.07407459 0.065421194 -0.020817239
0.18140212 0.030978298 -0.051268242 0.10248808 0.10259098 0.058204792 -0.0077255387 -0.0053466647
-0.034374546 -0.079229385 0.037091594 -0.09233091 -0.15495282 -0.0709008 -0.15752539 0.017157385
0.027765159 -0.026233343 0.03437669 -0.05495991 0.13523708 0.07203336 -0.08501157 0.16798532

network_body._body_endoder.seq_layers.0.bias f4 [128]
00000000: a045 34bc ccae 963c 8ced 8d3b ebdd 5bbc
00000010: ba4b 783b 76a1 73bc b446 dd3c 8f97 ed3c
00000020: 7f19 2bbc 5476 bcbc 44b5 b9ba c35e 2d3d
00000030: a23f 3d3c abeb 99bc c19b 9e3c 2378 6dbc
00000040: a5c3 fd38 6a9f 443b f7a8 cfba 3030 723c
00000050: 439b 3bbc 0bad 8bbc 95ea 993c 4fa4 99bc
00000060: 36e3 63bc 52c3 87bb b278 503c ee1c a1bc
00000070: 1b1b 863c a854 d93a 23af 8ebc 7378 e1bc
00000080: 9428 713b 8d21 2f3a 4424 143d 8f59 67bc
00000090: 41c0 1a3c 8bb7 1dbb 04c5 85bc 20c6 aebc
000000a0: 1d20 51bc 7e9d c13c 7af7 d63b 1bc2 f8bc
000000b0: 3f52 a1bc 0273 d03b b143 b3bb b427 fc3b
000000c0: 21f4 5ebc 3f27 86bc 1b9a 19bb 9e50 47bc
000000d0: 4e35 1cb9 27e5 673c 8ad2 ba3c faa5 b3ba
000000e0: 8e1e 85bb d1af dcba e110 f83c 3e12 2f3b
000000f0: df8c d2bc a88e a3bc e0f8 453c c142 d73c
00000100: 4dc2 d0bb f577 053c 5f54 983b 36bb 053c
00000110: 3fbf 47bc 67cd 04bc f7d8 08bb 1339 1f3c
00000120: ea18 123b 3c04 36bc b00a 56bc 8702 313c
00000130: 561b cebb 6507 8fbc 432b 06bb c796 cb3c
00000140: 1a6b 933c 69e6 50bb e455 083d c370 c23c
00000150: 52e5 c33a 8d53 a2bc 6a6d 783c 0d9b 033c
00000160: 2e83 84bc 1039 4cbb 029d d5bb 5dca afbc
00000170: 530c b53a 33fc 2abb e7e2 5bbc f9ea 143b
00000180: a0f9 93bc 692f 4d3b a3d0 5cbc 5ee7 433b
00000190: 2c9e adbc 266d a7bc f9d0 e5bb 409d 193c
000001a0: ee52 78ba 282d ad3c debf 74bc 4c0b 8abb
000001b0: 124a 75bb bf43 44bc 54db 8fbc 6034 5d3c
000001c0: 797c 9b3a 19e4 e33c 789c c1ba a39a a23c
000001d0: 47cb 1ebc aed1 b9bc f4df 7d3d ec0c d63b
000001e0: 44cc b63c 685d b3bb e945 91bc ce89 403c
000001f0: c246 373c a0f9 f9bb 7b5f 383c 8f8b 5dbc
-0.011002928 0.018393897 0.0043312963 -0.013419609 0.0037886933 -0.014870038 0.027011253 0.029002933
-0.01044309 -0.023005642 -0.0014168401 0.0423267 0.011550816 -0.018789133 0.019361379 -0.014493975
0.00012100422 0.0030002245 -0.0015843202 0.014781997 -0.0114505915 -0.017050287 0.018788615 -0.018755106
-0.013909152 -0.004143157 0.0127240885 -0.019667115 0.016370347 0.0016581016 -0.017417496 -0.027523255
0.0036797868 0.00066807197 0.036167398 -0.0141204735 0.009445251 -0.00240657 -0.016329296 -0.021334708
-0.012764004 0.023634668 0.006560263 -0.030365994 -0.019692538 0.0063613662 -0.005470716 0.0076951627
-0.01360801 -0.016376136 -0.0023437801 -0.012165217 -0.00014897177 0.014153755 0.022805471 -0.0013706081
-0.0040624803 -0.0016837065 0.030281486 0.0026713754 -0.025701938 -0.019965485 0.012083262 0.026276948
-0.0063708187 0.008146276 0.0046487297 0.00816231 -0.012191593 -0.008105612 -0.0020881274 0.009718197
0.0022292682 -0.011109408 -0.013064072 0.010803825 -0.00628988 -0.01745958 -0.0020472563 0.02485217
0.017995406 -0.0031875616 0.033285037 0.02373541 0.0014945662 -0.01981523 0.015162805 0.008032572
-0.016175833 -0.0031161942 -0.006518961 -0.021458799 0.0013812877 -0.0026090264 -0.013420797 0.0022723062
-0.018063366 0.0031308776 -0.013477477 0.0029892544 -0.021193586 -0.020437788 -0.007013437 0.00937587
-0.00094728067 0.021139696 -0.014938323 -0.0042127725 -0.0037428183 -0.011979043 -0.017560638 0.013501257
0.0011862657 0.027818726 -0.0014771363 0.019849127 -0.00969202 -0.02268299 0.061981156 0.006532302
0.022314198 -0.0054737814 -0.017733531 0.011751605 0.011186304 -0.0076286346 0.011253233 -0.013522043

network_body._body_endoder.seq_layers.2.weight f4 [128, 128]
00000000: 6e9b 7f3e cc73 de3d 163d 223d 130b 2cbc
00000010: bbb8 6ebd d4e8 953c ffc1 5cbd a5ff dbbd
00000020: 4c2e 64be d51f 7cbd 4ab5 a7bc 5499 54be
00000030: f7aa a8bc 5f01 f6bd ca78 3b3d d2b4 8f3d
00000040: 2171 5b3d 6ed2 31bd 13fc 923c 5c38 fabb
00000050: d523 83bd 67c2 ac3d 4fa0 383c c242 213e
00000060: f8fc fc3d 33a2 89bc 895f bdbd 74a8 cabd
00000070: f08a 253b 2707 85bc 994e ddbc 9490 f03c
00000080: a02f ba3b 91b9 f63d 9926 0fbd 298b a53d
00000090: fbb4 833d 0051 2e3c 0232 1fbe a4d4 9c3c
000000a0: f76f 0ebd bab1 28bd 8872 c93d f986 1b3e
000000b0: 2cd8 24bd c4cc 8cbd 11e9 f2bd 4319 313e
000000c0: ff8d 33bd d6d5 15be a1ab d23d 3edf 57be
000000d0: c2ad 923d 09e1 02bd e529 afbd 62b9 873d
000000e0: 455e cbbd 5c4c 233e aac1 1b3d 7b60 3dbe
000000f0: 6b15 3a3e e84c e6bd ec54 a13d bc74 33be
00000100: 8a12 32bd fda3 bb3d 7574 12be 0c50 4e3c
00000110: 9bcb 9c3c 178a acbd 89c3 a1bd 89b8 9b3c
00000120: 7dae 2b3e 40bd d43d 6743 6e3d 0144 64bd
00000130: 04f0 78bd 7a63 3cbd bc00 93bd 111f fabd
00000140: debe cf3d f909 a93b 94ad a13c 89fb 80bc
00000150: f34b 4e3e 2509 f13d d65d 86bc b828 fe3c
00000160: 0118 25be bb4e a6bd 2a56 ed3d 24a5 033d
00000170: 683b 843c 7e70 eabb 4d02 c93c 575f 033d
00000180: 2c11 fabc e2e6 90bd fe33 f03c 65c5 383d
00000190: a14d 1c3d 4b03 70bd 6d69 ae3d 6805 aa3c
000001a0: 8cc4 01be 5912 983d a8bb c93c bc32 b43d
000001b0: 0901 6d3d 29fa 093e 0e64 39bd 5749 453e
000001c0: 494d 67bc 2b28 47bc 90ac 46be b80e 38bd
000001d0: cfac f23d 8ba4 1abd a86d f13d 0e20 573d
000001e0: 3aa2 163d e744 65bc c9b4 3e3d f25c 9c3d
000001f0: cc79 95bd b21d b33d 46ef fb3d 15f2 f2bc
00000200: d604 e03d 9e3c b9bb 16e8 f63d b287 3b3d
00000210: 453d 1fbd 582c 223e fbba e6bc 1806 9e3c
00000220: 1f43 c3bd 89ab 1e3b 71d2 65bd afb4 973d
00000230: ee25 26bd aa4b 2cbb 0527 afbc bb3c 9ebc
00000240: c16a 013e c1d4 84bd 2790 4cbd dfb0 c3bd
00000250: 4cfd 2a3b eb94 a43d 3254 09bd b50e 883d
00000260: bca2 443e adb0 b43d 5f3a c33d d4cc 033b
00000270: ffd8 79bd 5985 313d 6243 8ebd 28cf f53d
00000280: 3e42 773d 4af9 4d3d 5e40 c4bc 54f2 91bd
00000290: b9c0 f03d 0926 16be d890 6e3d 6ee2 c53c
000002a0: fe6b 25bc bba3 463d 86a5 95bb 9438 073e
000002b0: 4225 4ebc 92f5 2c3e 4e04 d93d 4140 e7bc
000002c0: b7d8 a3bc e49e d03d d72a 8bbd 6bd0 493d
000002d0: d4ed f43b a2b2 893d 2c71 fdbc 6b77 173e
000002e0: dfe2 843d 9c16 0fbc 5470 9bbd e770 95bd
000002f0: 0e7a 853c d953 72bd 3583 893c 0867 e13d
00000300: 96a2 073d a567 9cbd 9884 8ebd 6739 313e
00000310: fbfc 783d 0e3d 50bc db34 8bbd 2f74 af3d
00000320: 5c0a 873d c110 02bd 223d 1f3d 0e2c 2b3e
00000330: 2a20 78ba 77ce c93d 9f6c 5bbe d5be 09be
00000340: 6351 5ebe e655 343e 1fe3 fcbd 5b89 12be
00000350: b6a8 2d3d 334d 18bd a00c 87be 2739 b53d
00000360: 676b a33d 9914 d3bc 2722 2ebd f4a5 ad3c
00000370: c60f dabb 3f91 163e 58f5 ecbd 93b2 183e
00000380: b235 21bd 5718 fa3d 63b0 643d 37d0 82bd
00000390: 76f8 5bbc 0e79 ff3d efa1 d9bc ad9d f23c
000003a0: cd02 18be 336f 88bd eb37 0d3d 4216 debd
000003b0: 4606 9bbd e2c5 f7bc 54d5 9dbb 392c debc
000003c0: 35f5 123e a29e b03d d458 aa3d 2224 78bd
000003d0: 98e3 a43d bce6 983d 5bad 3a3d 4eae 1cbe
000003e0: 4dfa 0d3e 33a6 32be ea46 13be 5104 92bd
000003f0: 372c 9d3d cd0f 13be 942f 39bc 720b 63bd
0.24961635 0.1086193 0.039609037 -0.010500687 -0.05828164 0.018299498 -0.053895947 -0.1074212
-0.22283286 -0.061553795 -0.020472188 -0.20761615 -0.020589335 -0.1201198 0.04576949 0.070169106
0.053574685 -0.043413572 0.017942464 -0.007636113 -0.06403319 0.08435517 0.011268689 0.15748122
0.123529375 -0.016800975 -0.092467375 -0.09895411 0.0025259815 -0.016238762 -0.027015017 0.029365815
0.005681947 0.12047113 -0.03494892 0.08083183 0.06431004 0.010639429 -0.1554642 0.019144364
-0.034774747 -0.04118512 0.09836298 0.15188207 -0.04024522 -0.068749934 -0.1186086 0.17294793
-0.04383659 -0.14632353 0.10286642 -0.21081254 0.07162048 -0.03195289 -0.085529126 0.06627156
-0.0993009 0.15947098 0.03802649 -0.18493836 0.18172233 -0.112451375 0.07877526 -0.17525
-0.04347471 0.09162138 -0.14302237 0.012592327 0.019140055 -0.08424776 -0.078986235 0.019008892
0.16765781 0.10387659 0.05816975 -0.055728916 -0.06077577 -0.045993306 -0.071778744 -0.12212957
0.10143827 0.0051586595 0.019736089 -0.015744941 0.2014616 0.11769322 -0.016402166 0.031025276
-0.16122438 -0.081204854 0.115887 0.032139912 0.016141608 -0.0071545234 0.02453723 0.032073345
-0.030525766 -0.070752874 0.029321667 0.045110125 0.03815997 -0.05859689 0.08516202 0.020754531
-0.12672633 0.074253745 0.024625614 0.08798739 0.057862315 0.13474335 -0.045261435 0.19266258
-0.014117547 -0.012155573 -0.19401765 -0.044935912 0.11849367 -0.037754577 0.117884934 0.052520804
0.036775805 -0.013993478 0.04655913 0.076349154 -0.072986215 0.08745898 0.12301497 -0.02965645
0.109384224 -0.005652978 0.12055986 0.045783706 -0.03887679 0.15837228 -0.028165331 0.019290015
-0.09534287 0.002421113 -0.056108896 0.074075095 -0.040563516 -0.0026290216 -0.02138091 -0.019316068
0.1263838 -0.06485892 -0.049942162 -0.0955522 0.0026090918 0.08036216 -0.03352756 0.0664343
0.19202703 0.08822761 0.09532618 0.00201111 -0.06099796 0.04334006 -0.06946446 0.120024025
0.060365908 0.05028657 -0.023956474 -0.071262985 0.11755509 -0.14662947 0.058243603 0.024155822
-0.010096548 0.04849599 -0.004566851 0.13205177 -0.012582125 0.16890553 0.10596524 -0.02822888
-0.020000799 0.10186556 -0.067952804 0.04927103 0.0074746404 0.06723525 -0.030937754 0.14791648
0.06488585 -0.008733418 -0.07589784 -0.07296925 0.016293552 -0.059161995 0.016786197 0.1100598
0.03311404 -0.07636956 -0.06958884 0.17307054 0.060788136 -0.012709869 -0.06797191 0.08567082
0.06593773 -0.03175426 0.03887666 0.16716024 -0.0009465242 0.09853833 -0.21428154 -0.13451703
-0.21710734 0.17610893 -0.123480074 -0.1431021 0.042397223 -0.037182998 -0.2637682 0.088487916
0.0797947 -0.025766658 -0.04251304 0.021197297 -0.0066547124 0.14703844 -0.11570233 0.1491187
-0.03935785 0.12211674 0.055832278 -0.0638737 -0.013425937 0.12474261 -0.026566474 0.029616201
-0.14844818 -0.066618346 0.034477156 -0.10844089 -0.07569556 -0.030245725 -0.0048166905 -0.027120696
0.14351352 0.08624007 0.08317724 -0.060581334 0.080512226 0.07465884 0.04557548 -0.15300867
0.13865013 -0.17446212 -0.1438252 -0.071297295 0.07674449 -0.14361496 -0.011302847 -0.055430837

network_body._body_endoder.seq_layers.2.bias f4 [128]
00000000: 1a05 e1bc df10 46bc 5646 9c3c 36a6 d8bb
00000010: 695c 9bba e974 553b 7200 06bc 4d58 26bc
00000020: e2d9 bebc 1174 933b faf8 25bc e3ba fabb
00000030: 9f5b 763b c510 cebb 0c09 af3c 68d1 b3bc
00000040: 0af8 74bc cd4b ccbc 304e 04ba 9a80 75ba
00000050: 5a2e 213d 4063 0bbc 3ef7 1ebc 9681 aa3c
00000060: 78ff aebc 910b 14bd 547f 8dbc dca8 63bc
00000070: 54c9 91bc fdff e13a 5ded 21bc 6183 68bc
00000080: 66eb 63bc c70c c339 5313 09bc e7f6 2f3c
00000090: 83d6 f438 fff8 5cbc a655 583c 4ebb 66bc
000000a0: 911a 23bc 74d4 7abc 2923 82bc 6244 c1bb
000000b0: f028 84bc 0dad d2bc d7b1 9bbc 9179 f4bb
000000c0: a553 a2bc 4ab7 1f3d 8595 4bbc 82db 09bd
000000d0: e851 aa3c 8bf9 53bc 8d41 b6bb c578 91bb
000000e0: 754d 80bc adf7 c63b fd46 aebc c518 c6bc
000000f0: aa8d 68bb 2408 bebc 74fd 763b 4c47 3bbc
00000100: 7ea3 1fbc 2b2e 153c aead ae3b 2c5c 0d3b
00000110: af86 5e3a 137f 97bb c02c 9736 2ee8 303c
00000120: 778b 3fbc 4ffb 8bbc a299 cc3c 88c2 a1bb
00000130: d8ae 58bb f4f2 263d 1f46 12bc 3aea 813a
00000140: 5b74 9fbc 3426 b7bc f313 213c ed1d 263c
00000150: 6d76 1dbc 6bbe de3b 0808 5bbc 7655 8bbb
00000160: 99d7 46bc b307 b3bc 472f dd3c 0042 b13b
00000170: 3bf2 3fbc 4920 21bc 4094 633c e551 87bc
00000180: ea10 4f3c 4f75 b53c f0fb 41bc d968 a23c
00000190: b557 11bc 06d8 a03c d3f1 d9bb b138 d43b
000001a0: ec18 a0bc 25d7 9abc a0ae 143d c165 7cbc
000001b0: 37e8 9cbc b064 7ebc 67b6 67bc a76b 983c
000001c0: 3a87 083c 5d1a cc3b 6d34 d73a ceae a03c
000001d0: bfc3 d6bc 6604 6f3a 0dfa f6ba d545 edbc
000001e0: 14b9 883c 8398 8c3c 41ab 1dbc c322 a53b
000001f0: 1cea 08bc fdb1 39bc fe44 a8bc 89a7 56bc
-0.027468253 -0.012088983 0.019076508 -0.0066116108 -0.0011853102 0.0032570905 -0.008178817 -0.0101528885
-0.023297254 0.00449992 -0.010130161 -0.007651673 0.0037591232 -0.00628862 0.021366619 -0.021950439
-0.014951715 -0.024938488 -0.0005047051 -0.00093651714 0.039350845 -0.00850755 -0.009702502 0.020813745
-0.021362051 -0.036143843 -0.017272629 -0.01389524 -0.017796196 0.0017242428 -0.009883252 -0.014191479
-0.013911104 0.00037202818 -0.008366424 0.010740018 0.000116747826 -0.0134871 0.013204014 -0.014082743
-0.009955064 -0.015309442 -0.015885906 -0.0058980444 -0.016132802 -0.025717283 -0.0190057 -0.007460781
-0.019815275 0.038993157 -0.012425785 -0.033656605 0.020791009 -0.012937914 -0.0055620135 -0.0044394457
-0.015661934 0.0060720057 -0.021274084 -0.024181733 -0.003548483 -0.023197241 0.003768769 -0.011430573
-0.009743569 0.009105246 0.005330763 0.0021569831 0.00084886973 -0.0046233027 4.5053603e-06 0.010797543
-0.011690966 -0.017087607 0.024975602 -0.00493652 -0.00330632 0.040759042 -0.008927851 0.0009911724
-0.019464662 -0.022357084 0.009831416 0.010138971 -0.009610754 0.006797602 -0.013368614 -0.004252131
-0.012136363 -0.021854257 0.027000083 0.005409479 -0.011715467 -0.009834358 0.013890326 -0.016518543
0.01263831 0.022150664 -0.011839852 0.019825386 -0.008871009 0.019634258 -0.006651142 0.0064764847
-0.019543134 -0.018901417 0.036299348 -0.015405119 -0.019153697 -0.015526935 -0.014142609 0.01860602
0.008333022 0.0062287287 0.0016418822 0.019614603 -0.026216386 0.0009117782 -0.0018842831 -0.028963963
0.016689815 0.017162567 -0.00962335 0.0050395443 -0.008356597 -0.01133394 -0.02054071 -0.013101467

action_model._discrete_distribution.branches.0.weight f4 [7, 128]
00000000: 5dba 93bc 6336 4dbc 5e3e ef3b 507e debc
00000010: bde2 5c3c 3ae5 2dbc ff6d 683b d4d2 c73b
00000020: 0922 6dbb 0d78 673c 8581 bbbc 5132 bdbc
00000030: 5a16 6abb d9de 92bc a0ed 34bc 7cdf 39bb
00000040: ff43 bebb e5f5 e3bb 4253 75bc 5411 053a
00000050: 4a5a e23c 728f 03bc 55eb 0c3c d701 94ba
00000060: 2edd cbbb a288 1ebc d15f 233b 0f49 4f3a
00000070: bc2f 6abb 605b d6bb 39d8 ae39 34b5 7dbb
00000080: 8ba8 733a 85ea 913b fa25 9abb 0965 db3b
00000090: 5a82 c6b8 42f2 b13b 6aa4 fd3b dcf7 dabc
000000a0: fdf8 0d3c 76e9 97bc 76c8 05bd a345 4abc
000000b0: d470 babb 7ff0 90bc 85f9 89bc 2b8a 25b9
000000c0: 83ea 87bb 353c 333c 26e4 043a 29a4 51bc
000000d0: 85ed 3d3c ca49 f6bc 0642 1cbc f4a5 90bc
000000e0: 8a00 99bc 487a 453b 7608 9cbc 7eb1 1bbc
000000f0: 2976 3abc 0b41 bfbc 7b5b 1ebc 4ea6 94bb
00000100: c7b7 c7bc 2ac8 4ebc 8ec5 783b 4755 c13b
00000110: 4191 47bc 5f03 4b39 57dc c9bc 5350 eb3a
00000120: 1322 b1bb 11a6 00bc 0920 7c3c da94 a6bc
00000130: 9d97 073b e455 1a3c 349c 56bb 1058 a639
00000140: 6dc4 353b ef6b 26bb d765 c2bb e16c 063c
00000150: 870d 5c3b 9d43 d2ba 8173 cfbb b161 093c
00000160: b158 cbba 2905 0abc 1696 1d3c 42be 743c
00000170: c1b5 40bb 01b6 1cbc 7596 6a3b 0c22 aa3a
00000180: f84a 2b3a 94d7 6b3c fff6 3bbc ed5d 8c3c
00000190: 00af 09bc 4eb5 c339 3747 77bc d1ec 24bc
000001a0: da34 fbbb a0cc 023c 9a47 973c fe93 3539
000001b0: 12a5 ae3a 6ac2 aebc 2935 0a3c 1231 fa3b
000001c0: 8dfe 2a3a 8a3d a63b 15c6 543c 51e7 a53a
000001d0: b60f 65bc faee 653c 9f09 2d3c 1132 b4bc
000001e0: d5f5 423c 2558 243c 550b 8cbb 76a0 543b
000001f0: ee14 0e3b b9b0 23bc 4097 c2bb 8c30 46bb
00000200: 24cd 0e3c e247 003a c46d 68bb 87e9 82bb
00000210: 4800 a6bc e2ff 103c a874 623b 7c62 2fbc
00000220: e723 0ebc 4259 0b3b 6ca1 a63b 0c25 41bc
00000230: c7b3 11bc e582 97bb 58ca ddba 3953 73ba
00000240: ce20 57bb f570 993b 057d 363c e67d 923b
00000250: 0748 de3b 8fa7 9bbc 1590 2d3b f86f 033a
00000260: 942a 6f3c 080b 163c d35f 173c d226 df3b
00000270: d974 e03c 0de9 98ba 1cc9 1e3c 9605 af3b
00000280: 5a12 b63b 6a0b 67bc 875c 5c3b d8fc 413b
00000290: a6f7 6d3a 9b72 60bb 5f11 733c 149c 5abc
000002a0: 69d1 d4ba 932d 6abc ae7a a8bb f3c6 b3bc
000002b0: 4095 ad3b 28ac a53b 1cd9 1cbc 75b7 41b9
000002c0: d4d3 403c 55d0 e8bb 862f 583c de78 2f3c
000002d0: 203b 0fbb ebb0 4ebc 915f 86ba 945a 74ba
000002e0: fb83 243c 4f65 0ebc 0d46 8a3b c875 d83a
000002f0: e1e9 983c 1af8 623b df33 143c c203 813c
00000300: a0de d53a 8278 f13a 0e06 26bc 9a82 873c
00000310: a4fc 383c 972a af3b 571e 9abc d3a4 0f3c
00000320: 06ab c4b8 1329 79bc 7749 5abc 4956 193b
00000330: 103d acbb 7ade ba3b 1a29 d0bb bf45 bebc
00000340: ccdc 553a e8cb aebb 4983 57bb 990d b53b
00000350: 3bd6 1cbc 281a 52bc f6dc 2abc 176c 5bbc
00000360: d82a 5e3b d339 14bb b8f7 853b 92fc 67bc
00000370: cbd5 7e3c b909 26bc ed4c c5ba 6118 2dbc
00000380: fefd 81bc f775 0539 c3bb 793c 3593 3a3c
00000390: a359 dc3a 3eb9 a33b 6b24 9f3b ab1b ba3b
000003a0: 29c1 fe3b d946 51bb 7fef e5ba 6839 8e3c
000003b0: a9ee 8a3b 1c6f aa3b 916d 72bb 9c3a 19bb
000003c0: c5e1 7cbc 8e60 cd3a 96bf 9ebb 958f d7bc
000003d0: f9dc 6d39 0a0b b73c c5d6 2fbc bf29 ccbb
000003e0: 82e2 24bc 9445 153c 1be9 1f3c aa6a 20bb
000003f0: 4ce7 1139 b1ed 10bc f41b 7f3b f5d2 9b3c
-0.0180332 -0.012525174 0.007301136 -0.02715984 0.013481793 -0.010613734 0.0035465953 0.0060981307
-0.0036183617 0.014127743 -0.022888908 -0.023095282 -0.003571889 -0.017928528 -0.011042982 -0.0028361967
-0.0058064456 -0.006956803 -0.0149734635 0.00050761295 0.027630944 -0.0080298055 0.008601029 -0.0011292052
-0.006221435 -0.0096761305 0.0024928937 0.000790731 -0.0035734018 -0.0065416545 0.00033348965 -0.0038712742
0.0009294829 0.0044530057 -0.004704234 0.006695394 -9.4656556e-05 0.0054304907 0.007740547 -0.026729517
0.00866532 -0.01854394 -0.032661878 -0.012345704 -0.0056897197 -0.017692802 -0.016842613 -0.00015787098
-0.004147829 0.010939647 0.0005069397 -0.0127954865 0.011592274 -0.030064482 -0.009537226 -0.017657258
-0.018677015 0.00301327 -0.019047003 -0.009502767 -0.011380711 -0.023346445 -0.009665365 -0.0045364266
-0.024379624 -0.012620965 0.0037959549 0.0059000584 -0.012180627 0.00019360844 -0.024641199 0.0017953016
-0.0054056733 -0.007852093 0.015388497 -0.02033465 0.0020689734 0.009419892 -0.0032746913 0.000317276
0.0027735487 -0.0025393923 -0.0059325504 0.00820467 0.00335774 -0.0016041879 -0.006330908 0.008385108
-0.0015514103 -0.008424082 0.009618303 0.014937939 -0.0029405209 -0.0095648775 0.0035795246 0.0012980117
0.00065343035 0.01439466 -0.011472463 0.017134631 -0.00840354 0.0003732838 -0.015092663 -0.010066227
-0.0076662125 0.007983357 0.01846676 0.00017316637 0.0013324341 -0.021332938 0.008435526 0.007635244
0.00065229164 0.005073254 0.01298668 0.0012657439 -0.013980797 0.014034027 0.010561376 -0.02199653
0.011899431 0.010030781 -0.004273812 0.0032444275 0.0021679956 -0.009990864 -0.0059384406 -0.0030241339
0.0087159015 0.0004893524 -0.0035465816 -0.003995124 -0.020263806 0.00885007 0.0034554396 -0.010704633
-0.008675552 0.0021262919 0.005085161 -0.011788618 -0.00889296 -0.004623758 -0.0016921265 -0.00092821155
-0.003282595 0.004682655 0.011138205 0.0044705747 0.0067834887 -0.019000797 0.0026483585 0.0005013938
0.014597554 0.0091579035 0.009239155 0.0068100477 0.027399467 -0.0011666134 0.009691503 0.005341242
0.005556387 -0.014101842 0.0033624487 0.002960017 0.0009077735 -0.0034247998 0.014835685 -0.013342876
-0.0016236725 -0.014293092 -0.0051415777 -0.021945452 0.005297333 0.005055923 -0.009573247 -0.00018474257
0.011769254 -0.0071049132 0.013194924 0.010709969 -0.002185531 -0.012615423 -0.001025187 -0.00093213585
0.010041232 -0.008691146 0.0042197765 0.0016514594 0.01866621 0.0034632743 0.00904557 0.015748862
0.0016316958 0.0018422755 -0.0101332795 0.016541768 0.011290703 0.0053456533 -0.018813295 0.0087673245
-9.377864e-05 -0.015207547 -0.013323179 0.0023397377 -0.0052563027 0.005702791 -0.006352556 -0.023226617
0.00081582065 -0.005334366 -0.0032884649 0.0055253026 -0.009572561 -0.012823619 -0.010428658 -0.01339247
0.0033900049 -0.0022617474 0.0040883683 -0.014159339 0.015553902 -0.010134154 -0.0015052833 -0.010564894
-0.015868183 0.00012727814 0.01524252 0.011387636 0.0016811382 0.004996448 0.0048566363 0.005679568
0.0077744913 -0.0031933098 -0.0017542689 0.017361358 0.0042398763 0.0052012336 -0.0036991576 -0.0023380881
-0.015434687 0.0015669034 -0.004844616 -0.026313582 0.000226844 0.022344131 -0.010732357 -0.0062305625
-0.010063769 0.009110827 0.0097601665 -0.002447764 0.00013914442 -0.008845733 0.0038926573 0.01902149

action_model._discrete_distribution.branches.0.bias f4 [7]
00000000: 57e8 0a3c 29e4 28bb de69 8e3c de4c 5dbc
00000010: 9ca4 dabc 52a9 0a3c 2215 703c
0.008478246 -0.002577076 0.017384466 -0.013507096 -0.02668982 0.008463221 0.014653476

exp_avg f4 [128, 163]
00000000: 01c1 3135 58ae efb4 4cbf 87b5 0ef7 5fb7
00000010: 15b1 8cb7 3ff6 b334 5be8 b135 6064 dcb6
00000020: 6816 30b7 64bc 82b7 b66b 9635 0c33 3ab5
00000030: 176e 8034 15d3 91b6 0abb 33b7 78b5 8e35
00000040: c870 1fb5 91bf 60b6 b733 f9b6 a891 67b7
00000050: 4c52 e733 3812 08b6 1c83 3136 e56a 3eb6
00000060: 58ac 18b7 94ff 6535 8631 32b5 28a8 a4b6
00000070: 533f 1eb7 bdcc 5db7 a80a b2b4 635e 09b6
00000080: ce42 03b6 844d 44b6 8b48 46b7 19e8 5835
00000090: 3463 26b6 76e2 a9b6 504e 2db7 f912 54b7
000000a0: 98bb 12b4 6eea 2ab6 1080 48b6 7434 81b7
000000b0: 2482 96b7 bf6f 3735 7362 46b6 e1f1 b2b6
000000c0: 3403 9b35 4243 83b6 a445 0034 9e0c 49b6
000000d0: 88fb 62b6 773e 10b7 c84c 8fb7 e13d 5435
000000e0: 3dab 8db7 d871 7fb6 1537 5c37 7683 09b6
000000f0: 9eca 8335 c031 7036 f769 ae35 61cd a5b7
00000100: 319f 15b7 38d1 1eb3 53dd 9db6 43f1 00b5
00000110: 6828 20b5 c460 dcb5 1aae c535 bcd1 aeb6
00000120: b8e5 c3b6 a088 27b7 7c2c 41b7 3cbb ef34
00000130: 5dd5 21b7 294f 3736 1978 3a37 2842 f7b5
00000140: ae07 cc35 b119 8db5 9e5f 13b7 de8f ea35
00000150: fff8 05b7 2a28 e834 2752 1bb7 117f 2a36
00000160: 71e2 cd36 201b 4fb5 5e2e e635 40ef 36b5
00000170: a3e5 6236 a5a0 b836 1de6 0c36 cc9b d834
00000180: eecf f4b5 8d93 9ab5 4053 d536 4c98 c235
00000190: 4739 5236 db22 beb6 629a e8b5 a5a1 6036
000001a0: 9a30 89b6 0bfe 1f35 76e4 86b5 18a9 58b5
000001b0: a0aa 5336 427d a436 aac2 6436 0598 60b6
000001c0: d3fe 8fb6 6828 0736 0e5a 3eb6 5efa a335
000001d0: 7559 cab4 c876 42b6 271c e836 58ff 1e37
000001e0: 804e 5636 d2d8 81b6 aa40 38b6 f812 e036
000001f0: 7a1c 0036 ddf2 0b36 e953 fe36 5115 91b6
00000200: ab6e 5835 c0f4 1f37 32f5 1236 beca f536
00000210: 808b 28b6 cad4 29b6 1b19 9236 299c 1b36
00000220: 69cd 2837 a648 a3b6 0fc4 a9b5 6e6f 1e37
00000230: 6ac8 0936 4e5b 1a37 66ac 4cb6 bcd3 e4b5
00000240: b709 e136 40ea 2836 c986 5b37 97b0 afb6
00000250: c04e 2334 251f 0937 40ea 2836 c986 5b37
00000260: 97b0 afb6 c04e 2334 261f 0937 5d11 5537
00000270: e51b abb6 ab69 63b6 01a4 c7b9 2aef 7fb6
00000280: 20a9 1fb4 78fa 89b6 c3b1 ccb6 724b b836
00000290: 9a57 02b6 8db7 66b6 e1df b137 a283 b837
000002a0: 9c35 8d36 669a 9636 7627 84b6 4577 0c38
000002b0: 64c3 0438 7860 2137 a621 1036 4607 0836
000002c0: 5274 18b7 b8e3 b437 6684 bc36 5c39 7936
000002d0: f8ff 9eb6 5260 1337 befb b537 df7c c036
000002e0: c566 bab7 bd8e 66b7 b950 d236 5783 7936
000002f0: 7b1b 3237 72db 5137 c0c2 b635 9a7c 2537
00000300: 465b 9537 1680 eb36 934c bdb7 9999 3eb7
00000310: 7fc5 b0b7 4edd 6eb7 cc67 1837 c5c5 8837
00000320: 2f49 0c37 0861 d7b5 90ac 8534 7fc3 0e37
00000330: 0d91 e4b7 6652 57b7 36cc b3b7 50f2 c7b7
00000340: 28cd d136 7665 9737 905a 8937 60c1 4db5
00000350: e079 d7b5 6ea0 9736 20e9 90b7 6146 d1b7
00000360: 50d9 6bb7 3777 0eb8 361c 28b6 0c2b 7e37
00000370: 4877 bd37 1e40 0538 31fc a237 980e a236
00000380: cd38 d0b7 204e 27b7 dace e2b7 1d6e 61b8
00000390: 3302 aeb6 8ab2 d237 6be1 a137 f2c6 ec36
000003a0: e456 2b37 185a ea34 f1dc 44b8 1029 3c35
000003b0: 7ad6 86b7 984f 6eb8 739d 95b6 7bba 3737
000003c0: 0424 0f38 9a94 53b7 947e 7836 e8e5 7835
000003d0: 9769 ecb7 e97b 3737 fabe 52b8 f440 8cb8
000003e0: 4089 d4b6 9805 0937 766c f437 ae29 80b7
000003f0: 9cf7 9eb6 90b5 e4b4 c50f 57b7 10a3 1db5
6.6218496e-07 -4.464407e-07 -1.0113959e-06 -1.3349358e-05 -1.677176e-05 3.3520516e-07 1.3255152e-06 -6.568196e-06
-1.0495634e-05 -1.5584934e-05 1.1207219e-06 -6.936468e-07 2.392196e-07 -4.34591e-06 -1.071278e-05 1.0632639e-06
-5.9396234e-07 -3.3490107e-06 -7.4267987e-06 -1.3802586e-05 1.07717455e-07 -2.0276184e-06 2.645137e-06 -2.8374427e-06
-9.100033e-06 8.5681063e-07 -6.6382233e-07 -4.907157e-06 -9.432278e-06 -1.3220296e-05 -3.3162837e-07 -2.046953e-06
-1.9559407e-06 -2.9251396e-06 -1.181861e-05 8.0804017e-07 -2.4793671e-06 -5.062956e-06 -1.0329837e-05 -1.2640602e-05
-1.3665556e-07 -2.546843e-06 -2.9876865e-06 -1.5402424e-05 -1.7941995e-05 6.8335424e-07 -2.9561604e-06 -5.332972e-06
1.1549332e-06 -3.911934e-06 1.1946264e-07 -2.9958678e-06 -3.3823035e-06 -8.597613e-06 -1.7082682e-05 7.90662e-07
-1.6888249e-05 -3.8064227e-06 1.3125847e-05 -2.0491111e-06 9.81923e-07 3.5791745e-06 1.299485e-06 -1.976517e-05
-8.918157e-06 -3.6977525e-08 -4.70473e-06 -4.80348e-07 -5.9663444e-07 -1.641944e-06 1.4728314e-06 -5.2100204e-06
-5.8381956e-06 -9.985786e-06 -1.1514054e-05 4.465345e-07 -9.646025e-06 2.7315202e-06 1.1114426e-05 -1.8422188e-06
1.520142e-06 -1.0512796e-06 -8.784145e-06 1.747623e-06 -7.985392e-06 4.324259e-07 -9.2578475e-06 2.5405936e-06
6.1358373e-06 -7.715298e-07 1.714983e-06 -6.814844e-07 3.381029e-06 5.502329e-06 2.099557e-06 4.0346492e-07
-1.8239932e-06 -1.1516837e-06 6.3575862e-06 1.4498451e-06 3.1325778e-06 -5.666499e-06 -1.7330278e-06 3.347269e-06
-4.088576e-06 5.9601797e-07 -1.0050269e-06 -8.0712334e-07 3.1540767e-06 4.902163e-06 3.4087957e-06 -3.3467088e-06
-4.2913975e-06 2.0140087e-06 -2.8364625e-06 1.2217313e-06 -3.769052e-07 -2.8977393e-06 6.917416e-06 9.476986e-06
3.1934178e-06 -3.869741e-06 -2.7455776e-06 6.6779285e-06 1.9090062e-06 2.085398e-06 7.5795583e-06 -4.3238183e-06
8.0627314e-07 9.534124e-06 2.1898418e-06 7.3251713e-06 -2.511515e-06 -2.5306822e-06 4.3540617e-06 2.3187697e-06
1.0061406e-05 -4.866236e-06 -1.2648542e-06 9.443478e-06 2.0531247e-06 9.200374e-06 -3.0498718e-06 -1.7048947e-06
6.7066535e-06 2.5170302e-06 1.3084799e-05 -5.235964e-06 1.5209207e-07 8.173088e-06 2.5170302e-06 1.3084799e-05
-5.235964e-06 1.5209207e-07 8.173089e-06 1.2699832e-05 -5.0994445e-06 -3.3887143e-06 -0.0003807843 -3.8137173e-06
-1.4869556e-07 -4.1120766e-06 -6.100368e-06 5.4924103e-06 -1.94225e-06 -3.4379511e-06 2.1204296e-05 2.1995806e-05
4.2083684e-06 4.4883227e-06 -3.9385004e-06 3.348968e-05 3.1653224e-05 9.618809e-06 2.1477258e-06 2.0269813e-06
-9.086989e-06 2.1563712e-05 5.61825e-06 3.713728e-06 -4.7385656e-06 8.784309e-06 2.1694108e-05 5.736583e-06
-2.2220784e-05 -1.3742302e-05 6.267885e-06 3.7180341e-06 1.0616025e-05 1.2508464e-05 1.3616736e-06 9.863777e-06
1.7804687e-05 7.018457e-06 -2.2566213e-05 -1.1360645e-05 -2.1072801e-05 -1.4237432e-05 9.084073e-06 1.6304557e-05
8.36169e-06 -1.6046988e-06 2.4898736e-07 8.509377e-06 -2.7247263e-05 -1.28341835e-05 -2.1433556e-05 -2.3835484e-05
6.2525687e-06 1.804785e-05 1.6373844e-05 -7.664985e-07 -1.6054219e-06 4.518827e-06 -1.7274695e-05 -2.4947514e-05
-1.40576885e-05 -3.3966466e-05 -2.5050372e-06 1.5149602e-05 2.25861e-05 3.1769385e-05 1.942934e-05 4.829675e-06
-2.4821982e-05 -9.972166e-06 -2.7037622e-05 -5.374673e-05 -5.18586e-06 2.511709e-05 1.9297664e-05 7.0565084e-06
1.0212625e-05 4.3651448e-07 -4.693581e-05 7.009521e-07 -1.6073918e-05 -5.681775e-05 -4.4588755e-06 1.0951068e-05
3.41274e-05 -1.2611179e-05 3.7028558e-06 9.2721757e-07 -2.8182561e-05 1.09365e-05 -5.0245762e-05 -6.687819e-05
-6.3340703e-06 8.167139e-06 2.9137573e-05 -1.5278198e-05 -4.7375925e-06 -4.2600414e-07 -1.281867e-05 -5.8724345e-07

exp_avg_sq f4 [128, 163]
00000000: fa0a 942c 08c4 432e fcc0 972d 07d8 da2e
00000010: 5902 1a2f 9042 872c 961a 802c 01be 072d
00000020: 7011 0c2f 8c82 1e2f 2868 8a2c c075 272e
00000030: c4b7 762d cd22 572e 7001 ca2e 4e19 672c
00000040: 5d6a b12c dd1e ca2c 1a3b 0d2f 8f69 152f
00000050: 97bd 982c 0ad1 522e 4114 632d 83f0 4c2e
00000060: 122b c12e 4d6a 642c 4bd0 232d 2388 cc2c
00000070: 3c20 122f 0bc3 222f 0b14 8f2c 519e ef2c
00000080: 9c08 8c2c f7e8 b62e e1ca eb2e ebfd 6b2c
00000090: 57ed 5e2e ed0d 972d ecbd 9a2e 5f7f 012f
000000a0: ab78 7d2c fef0 0d2d 7be3 6d2c ec44 172f
000000b0: 56cb 1f2f a78d 922c 2173 642e d2d1 a42d
000000c0: 71b5 bd2e 9896 f62e 765d a52c b77a df2c
000000d0: c154 d22c c94d 062f 8dc2 202f 5fce 982c
000000e0: 9145 942e f07c 262d 5a8e be2e 01e2 162f
000000f0: b272 a72c 3210 2e2d b7cf e62c 60db 142f
00000100: 01b1 1f2f f47d 882c 342e b52d c8ab 542d
00000110: 14c8 f42e b947 0d2f d35d b12c c2b2 3e2d
00000120: 2003 8c2e d7e8 cd2e 80b2 1c2f 2e2f 9d2c
00000130: 378c 0d2e 7191 2b2d 47e9 552e 4a18 cf2e
00000140: bb88 8b2c 73ad 3d2d 9f03 972e 42ef d82e
00000150: 52e9 102f e45c 992c 3fcd 202e 9d5c 3f2d
00000160: b972 072e 4f43 a42e 1689 9a2c d44f 4e2d
00000170: f2b7 762d c23e de2e 3c15 e82e 9382 922c
00000180: c59f 2e2e 1aca 402d baa9 022e 82a6 832e
00000190: ac8e 752c 4a24 882d d150 9e2d d066 c72e
000001a0: 827f e32e eba3 8e2c da82 2d2e 061c 462d
000001b0: 3b6b f42d a49d 512e 1dd1 732c de0e 9d2d
000001c0: 0adf 9f2d b027 9c2e 40c4 bf2e 6059 742c
000001d0: b3fb 1e2e 5a5c 2a2d 6ca5 162e cc84 652e
000001e0: d21b 732c 2e89 b12d 856b ba2d 2a83 3e2e
000001f0: 7c38 832e b026 672c 9496 602e a76e 562d
00000200: bb6f bf2d 866b 552e 2ef4 612c 679a 012e
00000210: 488f ae2d ab8e ef2d 676d 612e c1d2 612c
00000220: eb66 652e e7eb 652d 9028 792d d5d6 4f2e
00000230: ab2a 612c 2048 232e 10c0 b22d 5bc0 d22d
00000240: da43 6a2e dd8f 692c 5352 5a2e 793c b12d
00000250: 9fe3 9e2d de0b 5a2e dd8f 692c 5352 5a2e
00000260: 793c b12d 9fe3 9e2d de0b 5a2e 24a8 f42d
00000270: 987c e92d 215e 4f2e 01cf 2a33 92d9 222e
00000280: 2c81 7d29 a653 3d2e ee56 d02e ccdd 542f
00000290: 5210 3630 0262 0330 b6a0 e730 86da 4631
000002a0: f8da 392f 8e5d 3430 8756 0d30 b23c f330
000002b0: b155 4931 e06a 502f ef1d 3230 d5a6 0630
000002c0: 99fc f130 ce9c 4831 526d 372f d97e 3e30
000002d0: 58fe 0030 2fef 0031 39ca 4931 e5bf 582f
000002e0: 05a2 3830 71a6 0c30 6ed5 f130 d7ab 5531
000002f0: af74 1a2f ec45 3730 efdd e82f 3a2c 0131
00000300: 46cb 5531 8c88 752f 25fc 4630 53ad 1130
00000310: e967 e630 bc2a 5e31 f9b8 182f 9d78 4330
00000320: a5c9 0c30 ac37 1531 10a6 6731 d879 5f2f
00000330: e0b3 4330 2bbf 0c30 8ec5 0831 17eb 6231
00000340: e6b9 1b2f 5d5e 5530 2315 fc2f 4248 1431
00000350: ca56 6e31 c691 7b2f 3dcc 5730 8509 1530
00000360: 0883 2031 7513 7331 dc3c 272f 3d82 8130
00000370: 92e2 e92f 00e9 fd30 ee41 6e31 ef55 972f
00000380: 838e 6c30 4b9c 0a30 249f 1a31 4e31 8031
00000390: c1cc 342f d601 5f30 e44e d52f cbf4 fa30
000003a0: 9b0c 7531 5201 862f 32ec 7130 f824 0e30
000003b0: 3b73 2031 f230 8931 8fa7 4c2f eb6d 8330
000003c0: bc05 f02f 042f f630 8d5f 7431 0f02 792f
000003d0: 52ad 6030 f3c0 2330 23a9 1f31 fa42 9031
000003e0: ca3d 3f2f f939 9c30 2fc6 c62f f2fc 0e31
000003f0: ead8 8231 8140 642f 9f0f 5630 bf39 0430
4.2076316e-12 4.4511977e-11 1.7252415e-11 9.9518664e-11 1.4007052e-10 3.8443207e-12 3.6409304e-12 7.716051e-12
1.2739121e-10 1.4416396e-10 3.9337596e-12 3.8075987e-11 1.4024285e-11 4.891625e-11 9.186152e-11 3.2841121e-12
5.0424513e-12 5.744612e-12 1.2844872e-10 1.3588973e-10 4.3411485e-12 4.7934136e-11 1.2907953e-11 4.6597847e-11
8.784275e-11 3.2459758e-12 9.311728e-12 5.813143e-12 1.3290075e-10 1.4803107e-10 4.0665297e-12 6.810365e-12
3.979995e-12 8.317785e-11 1.0722601e-10 3.3536461e-12 5.0687756e-11 1.7172897e-11 7.036846e-11 1.1777733e-10
3.6020447e-12 8.068433e-12 3.3806003e-12 1.3757856e-10 1.4533205e-10 4.165296e-12 5.1943453e-11 1.873782e-11
8.6269554e-11 1.1213536e-10 4.6999583e-12 6.3516653e-12 5.9779686e-12 1.2214864e-10 1.4621034e-10 4.3430116e-12
6.742618e-11 9.463749e-12 8.6654864e-11 1.3722713e-10 4.759159e-12 9.894351e-12 6.560054e-12 1.3538459e-10
1.452385e-10 3.879336e-12 2.0597836e-11 1.2088948e-11 1.11313764e-10 1.2849356e-10 5.041059e-12 1.0839942e-11
6.367018e-11 9.3636814e-11 1.4251533e-10 4.4674464e-12 3.2184224e-11 9.752519e-12 4.8637785e-11 9.417585e-11
3.9657977e-12 1.078192e-11 6.867328e-11 9.8650435e-11 1.3179616e-10 4.3588345e-12 3.6562083e-11 1.0877657e-11
3.079734e-11 7.469813e-11 4.392163e-12 1.172747e-11 1.4024325e-11 1.0106539e-10 1.05539105e-10 4.1640662e-12
3.9704923e-11 1.0958812e-11 2.9709325e-11 5.986768e-11 3.4895793e-12 1.5477526e-11 1.799841e-11 9.0677355e-11
1.0345415e-10 4.0540813e-12 3.9451865e-11 1.1261219e-11 2.7787208e-11 4.766111e-11 3.4648458e-12 1.7855436e-11
1.8175256e-11 7.1011086e-11 8.7205354e-11 3.4724099e-12 3.6148595e-11 9.683887e-12 3.4252975e-11 5.218652e-11
3.454782e-12 2.018349e-11 2.11935e-11 4.3317495e-11 5.967224e-11 3.284855e-12 5.1065444e-11 1.2189061e-11
2.1763804e-11 4.8526093e-11 3.210997e-12 2.946834e-11 1.984514e-11 2.7234512e-11 5.1256246e-11 3.2091415e-12
5.215998e-11 1.3069524e-11 1.4163018e-11 4.725716e-11 3.1998109e-12 3.712597e-11 2.032155e-11 2.3959659e-11
5.3265704e-11 3.3191152e-12 4.964058e-11 2.0149426e-11 1.8063604e-11 4.9578e-11 3.3191152e-12 4.964058e-11
2.0149426e-11 1.8063604e-11 4.9578e-11 2.7814258e-11 2.6544364e-11 4.7149954e-11 3.976948e-08 3.7027777e-11
5.6289324e-14 4.304792e-11 9.474187e-11 1.9360086e-10 6.6234407e-10 4.77968e-10 1.6853139e-09 2.8937008e-09
1.6903445e-10 6.561657e-10 5.1418464e-10 1.7697828e-09 2.929806e-09 1.895546e-10 6.479856e-10 4.8986e-10
1.760685e-09 2.9192964e-09 1.6682591e-10 6.930186e-10 4.6927573e-10 1.8762412e-09 2.93643e-09 1.971326e-10
6.7169054e-10 5.116823e-10 1.7595718e-09 3.109326e-09 1.4047673e-10 6.6674377e-10 4.2358247e-10 1.879711e-09
3.1111127e-09 2.2331131e-10 7.23903e-10 5.2997e-10 1.6764236e-09 3.2329543e-09 1.3890035e-10 7.111199e-10
5.121826e-10 2.1714e-09 3.370932e-09 2.032502e-10 7.1196204e-10 5.120337e-10 1.9902902e-09 3.3020962e-09
1.4163212e-10 7.7623047e-10 4.5853552e-10 2.1577908e-09 3.4682892e-09 2.2880106e-10 7.8506784e-10 5.421941e-10
2.3357547e-09 3.5372214e-09 1.5210183e-10 9.423001e-10 4.254344e-10 1.8474395e-09 3.4671035e-09 2.75278e-10
8.605882e-10 5.0426213e-10 2.250041e-09 3.7308956e-09 1.6443648e-10 8.1129536e-10 3.880053e-10 1.8259468e-09
3.5659358e-09 2.4375396e-10 8.8010943e-10 5.1711835e-10 2.3348565e-09 3.992789e-09 1.861322e-10 9.562745e-10
4.365982e-10 1.7912218e-09 3.5560987e-09 2.264715e-10 8.173703e-10 5.957325e-10 2.3233688e-09 4.198566e-09
1.73933e-10 1.1366971e-09 3.6156808e-10 2.0807502e-09 3.8081582e-09 2.0759396e-10 7.7874945e-10 4.810338e-10

exp_avg f4 [128]
00000000: 148d 11b7 2ff7 09b8 653b 9437 ca5d c337
00000010: c54c f3b7 4c44 2bb7 8e3c 23b8 5fcc 7ab7
00000020: 6491 eb37 0041 c234 9cac c9b5 6a08 fdb8
00000030: f8e2 e4b5 18c4 e6b6 7ea7 d7b8 2e61 5236
00000040: d086 e137 88db 48b8 b065 1236 d8ce 79b8
00000050: 8e57 47b6 5baa 8438 befc e4b7 eff0 f637
00000060: 1410 fbb5 480e 47b7 6d39 33b8 f45e 2038
00000070: 4f4c 8ab8 6087 8935 2e79 59b7 4e36 0539
00000080: 527b 8e37 8c08 3338 6815 e2b8 04f2 b438
00000090: 43d8 01b8 8158 a036 b0ea fbb6 3aec fd38
000000a0: 1037 f4b6 f605 30b8 48af c2b6 60b8 4438
000000b0: 57a4 85b7 f3c9 49b7 5272 8336 94f6 73b6
000000c0: 1cf9 b037 624f 4a38 d5d9 4db7 2e73 f936
000000d0: 77ce 24b8 637c 5cb8 902b 0fb8 7883 5736
000000e0: 0e72 e335 992e 8b38 9ed4 7cb8 cf11 0a38
000000f0: 6894 18b6 4bfb 2438 39b5 99b6 6a0d 3db7
00000100: 2404 6937 26ba 7db7 163a b1b7 1420 cab5
00000110: d7dc 53b6 3060 e935 9c7c b6b7 3079 57b8
00000120: 39db 8f36 28f2 20b7 eac3 17b6 a234 fcb7
00000130: 0c19 3438 0850 8237 a086 8637 b465 a8b8
00000140: ee00 09b9 0422 87b6 3063 d4b8 5c24 80b8
00000150: b867 fdb5 fd8a 0639 c90e b9b6 e023 4cb8
00000160: 3d9b 05b7 e620 3438 663f 24b6 d300 98b6
00000170: 081f 08b7 0cbf 0137 76ca 9738 7ad5 8c37
00000180: 0f17 3e36 f514 d837 2455 87b7 f045 e837
00000190: e3db 6bb6 1a0d 9838 5d6c 0b37 780a f1b7
000001a0: a853 0cb8 ea3d dcb8 9c7f 61b6 45d8 b5b6
000001b0: e350 8bb7 aa90 4c38 4a7e 6ab7 d8e7 97b8
000001c0: f479 2ab6 bf39 97b8 23f3 5e37 2e47 94b8
000001d0: 6c2d 5d37 c6cf 4eb6 e845 53b9 7112 fdb7
000001e0: 65f6 39b7 3842 8a35 8fe1 0ab7 fc55 b1b7
000001f0: 4024 fdb4 cfe9 0a37 80f9 68b8 1b15 85b7
-8.675521e-06 -3.2893553e-05 1.7670633e-05 2.3289485e-05 -2.9003606e-05 -1.0208296e-05 -3.8918624e-05 -1.4948745e-05
2.8081886e-05 3.618261e-07 -1.5025903e-06 -0.00012065547 -1.705338e-06 -6.8773625e-06 -0.00010283197 3.1349005e-06
2.6884867e-05 -4.788817e-05 2.1814885e-06 -5.9558864e-05 -2.9704274e-06 6.325982e-05 -2.729741e-05 2.9437679e-05
-1.8705637e-06 -1.1864649e-05 -4.2730408e-05 3.8235405e-05 -6.5945664e-05 1.0246695e-06 -1.2962422e-05 0.00012704098
1.6985145e-05 4.2684886e-05 -0.00010780507 8.628148e-05 -3.0957406e-05 4.778675e-06 -7.507704e-06 0.00012107981
-7.278177e-06 -4.196722e-05 -5.802056e-06 4.6901754e-05 -1.5931362e-05 -1.2027554e-05 3.917413e-06 -3.635335e-06
2.1096836e-05 4.8234484e-05 -1.226967e-05 7.434187e-06 -3.9292932e-05 -5.256793e-05 -3.4134428e-05 3.2114021e-06
1.6946012e-06 6.636716e-05 -6.0279497e-05 3.291835e-05 -2.2736149e-06 3.933468e-05 -4.5808524e-06 -1.1268401e-05
1.3888846e-05 -1.5123316e-05 -2.1127093e-05 -1.5059509e-06 -3.1569996e-06 1.7387847e-06 -2.1754116e-05 -5.137286e-05
4.287253e-06 -9.593125e-06 -2.261479e-06 -3.006525e-05 4.293867e-05 1.5534475e-05 1.6036734e-05 -8.029808e-05
-0.00013065684 -4.0272735e-06 -0.00010127423 -6.110288e-05 -1.8880155e-06 0.00012831013 -5.515151e-06 -4.86708e-05
-7.963562e-06 4.2945983e-05 -2.4474807e-06 -4.530049e-06 -8.113457e-06 7.733481e-06 7.2379524e-05 1.6788708e-05
2.8325628e-06 2.5758965e-05 -1.61329e-05 2.7689122e-05 -3.514572e-06 7.250365e-05 8.310276e-06 -2.8734314e-05
-3.3456512e-05 -0.0001050195 -3.360189e-06 -5.4193974e-06 -1.6607757e-05 4.877212e-05 -1.3976891e-05 -7.243425e-05
-2.540296e-06 -7.210997e-05 1.3288841e-05 -7.070448e-05 1.3183202e-05 -3.0817332e-06 -0.0002014857 -3.0168538e-05
-1.10842275e-05 1.0301073e-06 -8.277958e-06 -2.1140084e-05 -4.7151298e-07 8.279879e-06 -5.5545475e-05 -1.5864664e-05

exp_avg_sq f4 [128]
00000000: c3ad 522f 5697 0532 04fa 1332 3466 d432
00000010: 708b 922f 5ce1 d02f 91f3 ff31 427b 0632
00000020: 1418 0a32 5c74 332f 6925 f52f 3eef 9732
00000030: 949c b931 f730 992f b6ea 5432 394e a22f
00000040: 5da0 1433 d1f1 cb32 ae71 0232 9b06 0c32
00000050: da1c 252f c5de 9d32 ee1e af31 bfa0 6432
00000060: d350 002f 4238 452f 33dd 6832 448d a432
00000070: 589c 6832 bca7 b92d 7502 8c32 38d2 5533
00000080: 8732 9031 d508 bb30 51b4 4232 6dcf f532
00000090: 54ff 2b32 5607 1131 888c 0432 1260 4933
000000a0: 0ff7 132e 0280 0232 627d 7c31 0b69 8632
000000b0: 8db3 512f 0aff 982f 92af 742f 05a2 8f2e
000000c0: 7188 9d32 227e bb32 aad7 a731 99ea 8a31
000000d0: a117 fe31 77fc 0b32 ef62 8731 71c6 0e32
000000e0: 30c3 612e f270 ed31 26ae a031 39d8 5532
000000f0: 4761 3f2e 0ada 5532 4850 802e 4b13 f52f
00000100: 10e2 e931 4f67 122f 8860 7432 e5c7 7f32
00000110: fea0 e32e 57f4 3332 b7fb 1332 894a b432
00000120: 4dab 942f 2a25 0e2f 6920 d92e 8677 3932
00000130: b0af a531 6468 9432 4369 1b32 14be d632
00000140: 7413 df32 92a8 6332 d6ee 3c32 ccba 3732
00000150: b401 0f32 f0e9 ca32 73e7 3b30 bdc1 ed32
00000160: 5602 dd2f 4845 3433 bebf 6d2e 4d9a 122e
00000170: 0663 ba2e 90df ea2e 531f 2532 729e 1732
00000180: b990 872e 2889 0d32 0618 a12e 5e10 0631
00000190: af32 fc2e 8cb6 7a32 6c05 4132 cb39 0233
000001a0: 2427 db31 deda e031 3c3c 192f a3de f72f
000001b0: cff1 ff32 d4c2 6632 921c bf2e 77da 8c32
000001c0: 8db2 8e2e 2f3f 8f32 e085 4132 7e9d 3432
000001d0: 453b dd30 6cab 0430 1126 0033 8877 a832
000001e0: 6b8d 6b30 f2c5 bc32 bbab 652f 58a0 3632
000001f0: 9bc0 9230 5e32 f92e fbce 0a32 aa8b 532f
1.9161121e-10 7.776029e-09 8.613373e-09 2.4726525e-08 2.6656322e-10 3.7995107e-10 7.449167e-09 7.827852e-09
8.038132e-09 1.6321294e-10 4.4591822e-10 1.7687508e-08 5.4020095e-09 2.786533e-10 1.2393391e-08 2.952321e-10
3.4604785e-08 2.3742276e-08 7.592844e-09 8.150574e-09 1.5016913e-10 1.837851e-08 5.0966866e-09 1.3307896e-08
1.1670247e-10 1.7937032e-10 1.3554472e-08 1.9156353e-08 1.3539726e-08 2.1106554e-11 1.6299262e-08 4.978412e-08
4.196696e-09 1.3608551e-09 1.1333285e-08 2.861608e-08 1.0011565e-08 2.1104447e-09 7.715364e-09 4.6886335e-08
3.3643362e-11 7.5961015e-09 3.6742098e-09 1.5647421e-08 1.9072229e-10 2.7829855e-10 2.2254046e-10 6.5316676e-11
1.8339252e-08 2.1827024e-08 4.884858e-09 4.0429993e-09 7.3950592e-09 8.148269e-09 3.9402646e-09 8.310608e-09
5.133244e-11 6.910448e-09 4.6764113e-09 1.2447395e-08 4.351477e-11 1.2447808e-08 5.835027e-11 4.457895e-10
6.806893e-09 1.3315325e-10 1.4224618e-08 1.4888404e-08 1.0351363e-10 1.0474728e-08 8.6137595e-09 2.0988653e-08
2.704276e-10 1.2928028e-10 9.873775e-11 1.0795594e-08 4.8221054e-09 1.7276939e-08 9.046121e-09 2.4999316e-08
2.5969463e-08 1.32514675e-08 1.0997345e-08 1.0694475e-08 8.324083e-09 2.3622277e-08 6.8359113e-10 2.7678533e-08
4.0201326e-10 4.1972527e-08 5.4057862e-11 3.3333603e-11 8.475891e-11 1.0680801e-10 9.611386e-09 8.825383e-09
6.164797e-11 8.238466e-09 7.3257e-11 1.950887e-09 1.14686365e-10 1.4593422e-08 1.1235311e-08 3.0320546e-08
6.3781886e-09 6.5441403e-09 1.3936668e-10 4.508723e-10 2.9795869e-08 1.3432061e-08 8.6907495e-11 1.6397491e-08
6.4891294e-11 1.6676124e-08 1.1264518e-08 1.05131885e-08 1.6096712e-09 4.8264925e-10 2.9836944e-08 1.961213e-08
8.569347e-10 2.1976096e-08 2.088844e-10 1.0630252e-08 1.067764e-09 1.1332156e-10 8.079719e-09 1.9239957e-10
