Source/Trained_Policies/WeightAgent_Training/WeightAgent_Training/WeightAgent_Training-153936136.onnx (onnx, 155824 bytes, 6 tensors)

network_body._body_endoder.seq_layers.0.weight f4 [128, 163]
00000000: 44d4 c23c 6709 b0be 9a6c acbd 9f05 ce3d
00000010: 216e d93e d0f4 123e 1048 92bd ed7c 7dbe
00000020: 117a ff3b ee4a b93e 921c 6cbd df37 bfbe
00000030: 5851 67be b812 c63e 116c 283f 04bd 1a3e
00000040: de6a 14bd d612 24be e887 533e 7bf3 df3e
00000050: 1945 0e3d 1837 bd3d 846b 28be 8424 933e
00000060: ef54 543f 91d4 a33c ccce 57bd 4ab7 643d
00000070: b618 9d3d 6586 a03e 0d4f dcbd d649 98bd
00000080: 571b 22be 2f69 e73d 7df9 0c3f 6758 063e
00000090: 8b2c c03d f0b4 dbbc 787f 5bbc 1ba9 823e
000000a0: 78dd d33d 3a43 22be ebe0 f2bd 390d 16bd
000000b0: c74b d73e 46bf 2d3e 830f 8b3d 03c4 143e
000000c0: 5ac1 b03d 3a1f ca3e 3dc8 1abe 04cd 0abe
000000d0: 8109 b2be 7d33 453e 3ff2 e43e 0fe3 8a3d
000000e0: 333c f2bd ca51 6abe db45 453e d28e c33e
000000f0: da5e fbbd c9a8 fcbd a47d d9be 8c9e 2c3e
00000100: 88eb ac3e 174b 653d 9cf2 49be e15e 8b3d
00000110: f2a1 4c3d 12aa a03e eac3 01be 035c 913c
00000120: 816f 86bd e9a4 893d 2b83 673e 0df0 c73d
00000130: b487 45bd 2d03 9b3d 3ddb 423e 0c28 d13d
00000140: ea28 13bd 3a41 b63d 72eb 00be 4895 72bd
00000150: 131f 0dbd 8f5d 6b3e cd2a 5d3e 9909 5d3c
00000160: 92c0 653e a962 803e c26c 8abd d925 353e
00000170: 620a 57be 2335 913e ee6c 55bd f15c 793e
00000180: 0ef6 223e fead 943e 5a0a 6d3c a7fb 1c3d
00000190: 0353 70be b780 263d e574 c7bd 1a29 1b3d
000001a0: e183 003d f851 9f3d e9ef 9a3d d4ce 4a3e
000001b0: 5ba4 983d 62a1 fbbc ca90 72be 0637 8f3d
000001c0: 2b4a 27bd 35f3 e1bd 06ae 013d bbe7 48bd
000001d0: f921 bb3d 36cf 853e 02e6 8e3d ea2f 103d
000001e0: 8288 7fbe e013 263c 37eb adbd d46e 0dbd
000001f0: d0a8 73be f762 e93d 7ade 133e ac96 503e
00000200: 1427 bcbd a848 fbbd a7bd 95be 0147 863e
00000210: 30d6 273d d351 c93d 2776 9a3c 09c8 b63b
00000220: e113 c03d 5916 15bd fd07 843d bb4f 46be
00000230: ecfc 58be 77b0 ca3c e188 3c3e 9a77 903e
00000240: 5544 c0bc 6f1d 87be 8cc3 2d3d 1e41 863e
00000250: 083b 7cbd 94e9 e9bd 076a 72be 5ff8 363e
00000260: d92d 1f3e ce30 0e3d f818 10be 5837 95bd
00000270: 87b9 e9be e84e 83be dc75 a6be 72eb 03bd
00000280: 27b8 e53d c5cf eabb 6fd1 9cbd 014c 5abe
00000290: d5b5 14bf 65d0 81bd bdf5 2d3e a472 c03e
000002a0: da25 e8bd b47d 8cbe 3b28 823d 4237 90bc
000002b0: 1e55 9c3e ad89 28bd 6923 aa3d f1a5 f8bd
000002c0: e5e7 59bd c292 ea3e 2d31 ea3d d511 8f3d
000002d0: 6240 433e 03dd 9b3e 28e1 1c3f 624b a8bd
000002e0: c86a d9be b20c 58be f46b 83be 8377 013f
000002f0: ae8a 003e d781 d83e c986 853c 7216 233e
00000300: 068c 043f e1c5 16be bb16 fd3d abd0 02be
00000310: aa3d 22bf ec9c 8f3e dbb6 113b f215 5d3d
00000320: 2663 c8bc c16c 8c3d 1424 a93e 08c8 a2be
00000330: c6fc ec3e 9b0c e4be ad6e 71be e72c df3d
00000340: 27db e63d b8b3 c5bd fce6 5fbe cc88 26be
00000350: 7fef 9f3e 8256 93be e7e0 993e 2b35 ecbe
00000360: 7ecc bcbe 2d3b 3d3e 0acf d23c 397e dabd
00000370: 95fc 68be d802 fdbd 938b 8b3e 7a7e 6abe
00000380: 8c90 9d3d e71f d3be 9d62 043e d661 fa3d
00000390: ce77 91bb 860c 05be c82e 17be 6393 f4be
000003a0: 3cbf 63bd e33a 0fbf bb0a 9a3d 7179 85be
000003b0: 0e4e 733c 981b 99bc 750d d5bc 8197 813e
000003c0: 7f6f e6be 8849 33bf 06ea 73bd bbba 06be
000003d0: 9c94 0fbd a5a5 ee3d 0de4 95bc d1dc b5bd
000003e0: d533 b63c 900f dc3d de4c fbbe fb5d 82be
000003f0: f7b0 3dbd 5215 2b3d 9be5 5ebe b9de f73c
0.023782857 -0.34382173 -0.084191516 0.10059666 0.42466834 0.14351201 -0.07142651 -0.24754687
0.007796534 0.3618998 -0.057644434 -0.37347314 -0.22589624 0.38686156 0.65789896 0.15111166
-0.03623473 -0.1602281 0.20657313 0.43740448 0.034733865 0.09239024 -0.16447264 0.28738797
0.829421 0.01999882 -0.05268745 0.05583886 0.07670729 0.31352535 -0.10757265 -0.07435958
-0.15830742 0.11299359 0.5506819 0.1311966 0.09383496 -0.026819676 -0.01339709 0.25519642
0.10344976 -0.15845957 -0.11859306 -0.036633704 0.4205 0.16967496 0.06790068 0.14527898
0.08630629 0.3947695 -0.15115447 -0.1355477 -0.34772876 0.19257922 0.4471607 0.06781589
-0.11827888 -0.22882763 0.19264929 0.381949 -0.12273951 -0.12336881 -0.4247867 0.16857356
0.33773446 0.055979814 -0.19721454 0.06805206 0.04995913 0.31379753 -0.12672392 0.01774407
-0.065642364 0.06720907 0.2260863 0.09762583 -0.04822512 0.07568965 0.19028945 0.102127165
-0.03592769 0.0889916 -0.12589815 -0.059224397 -0.034453463 0.22984909 0.21598358 0.013491058
0.22436741 0.25075272 -0.06759025 0.17690219 -0.21000054 0.28360853 -0.052105837 0.2435186
0.15914175 0.29038996 0.0144678 0.038325932 -0.23469166 0.040650096 -0.09739093 0.037880994
0.03137577 0.07779306 0.075652905 0.19805461 0.07453223 -0.030716602 -0.23688045 0.06992917
-0.040842216 -0.11032716 0.031660102 -0.04904912 0.09137339 0.26134652 0.06977464 0.035201944
-0.24954417 0.0101365745 -0.08492129 -0.034529522 -0.23794866 0.11395829 0.14440337 0.20369977
-0.09187141 -0.122697175 -0.29246256 0.26226047 0.04097575 0.0983006 0.018855168 0.0055780453
0.093787916 -0.036398266 0.06446836 -0.19366352 -0.21190232 0.024742348 0.1841159 0.2821625
-0.023470083 -0.26389644 0.042422816 0.26221555 -0.061579734 -0.114215046 -0.23673259 0.17868184
0.15544833 0.034714513 -0.14072025 -0.072859466 -0.4564936 -0.25646138 -0.32511795 -0.03220696
0.11216765 -0.0071658813 -0.07657134 -0.21318056 -0.58089954 -0.06338576 0.16988273 0.37587464
-0.113353446 -0.27439654 0.063553296 -0.017604474 0.3053369 -0.041146923 0.08307535 -0.12141026
-0.053199667 0.45815092 0.11435161 0.06985823 0.19067529 0.30442056 0.6128106 -0.08217503
-0.4246428 -0.21098593 -0.256683 0.50572985 0.12552902 0.4228656 0.016299622 0.15926531
0.5177616 -0.14723922 0.12357851 -0.12774913 -0.6337534 0.2804941 0.0022234234 0.053976007
-0.02446134 0.06856681 0.33035338 -0.31793237 0.462866 -0.44540867 -0.23577376 0.10897236
0.11272269 -0.09653419 -0.21865457 -0.16263121 0.3123741 -0.28776938 0.300544 -0.46134314
-0.36874765 0.18479605 0.02573349 -0.10668606 -0.22752602 -0.12354058 0.27254924 -0.2289981
0.07693586 -0.41235277 0.12928243 0.12225692 -0.0044393307 -0.12993059 -0.1476394 -0.47768697
-0.055602297 -0.5594923 0.07521578 -0.26069215 0.014850153 -0.018689916 -0.026007393 0.253109
-0.4500694 -0.70034075 -0.059549354 -0.1315717 -0.035053834 0.11652688 -0.01829722 -0.08880008
0.022241512 0.10745156 -0.49082083 -0.25462326 -0.046311345 0.04176838 -0.21767275 0.03025757

network_body._body_endoder.seq_layers.0.bias f4 [128]
00000000: a56c be3b 2e0b 903d f431 d13d 29fe 51be
00000010: e5a7 b5bd abe5 a73e 9bc9 2f3d b767 813c
00000020: fb43 75be a4ff 8e3d b3b9 11bc 4641 e1bd
00000030: 4226 47bd 99af 3d3e 41ff d33c e701 d53d
00000040: 48f8 b3bd bd91 ffbd b6ce 09bd c368 223e
00000050: adad 19be 96d7 063e 5b06 303e e868 423e
00000060: 9108 903e a4c4 cd3d f4bc 883e c3e8 cabd
00000070: c935 083e 7710 c63d c836 183e 9147 213d
00000080: fa7e 57be 8097 86bc 190f 323e 1f75 a83b
00000090: 73b5 013e fa29 673d 4b01 1ebe e431 593d
000000a0: f66e 08be 98c7 733d 6b22 a1bb e5cd 56bd
000000b0: e7a1 73bd 5ab1 ff3d f43c 2cbd d401 e43c
000000c0: 0471 b13c 13b9 d83d 9b49 473d 759c fcbd
000000d0: e895 97bd d8fd 1c3e fb04 f03d 9e44 b83d
000000e0: 5418 583e 693d 0e3c 1507 90bc dcf2 4f3d
000000f0: 7a82 e5bd 7238 d3bc 3d61 433d 6265 193e
00000100: e7d1 483e 3054 edbc 41a1 25be b587 dc3d
00000110: 1d7e 75bc 37ac fabd 9232 423d 2f2d 833d
00000120: fb63 a63d afcd ef3c c718 b83d 34c4 8abd
00000130: fd0b 083e f929 473e 9f5f a8bc 0ccc 593e
00000140: 7eee 5e3d 8a59 9b3d 7418 a13d b1b8 6dbe
00000150: 532e 1cbe bcc5 6cbd 69e2 bebd 58ac 153e
00000160: c646 233e 3ed2 153e 26fb fabd 2cbd 19be
00000170: 31bb 10bd 6522 78bd 58c5 8a3d 2547 8a3e
00000180: 806f baba 8544 3fbd 8d7a 3f3e 2a36 783e
00000190: 9314 c53d 15fb 463e 1e2c ddbd 24ec 98bd
000001a0: 6040 f73d 00ff a13d b2ad 48bd 4904 8dbc
000001b0: c282 99be c2af c33d 859a 2bbd 27a8 2ebc
000001c0: c672 36bc acc8 7abd b4c0 163e 3d42 33be
000001d0: 0fea bcbd 996d a8bd 9aee 2cbc cd7a 39be
000001e0: 49f9 a6bd baca 2a3e fce7 c0bd 5f25 883c
000001f0: f52e 2bbe ddae ef3c de4f 09be 47be c6bd
0.0058112913 0.07033382 0.10214606 -0.2050711 -0.08869914 0.3279241 0.042916875 0.015796525
-0.23951714 0.06982353 -0.008894372 -0.10998778 -0.04862047 0.18524016 0.02587855 0.104007535
-0.0878759 -0.12478969 -0.0336444 0.15860276 -0.15007658 0.13168177 0.17189924 0.18985331
0.28131536 0.10047272 0.2670666 -0.09907677 0.13301767 0.09671109 0.14864647 0.03937489
-0.21044531 -0.016429663 0.17388572 0.005140915 0.12666874 0.056436516 -0.1543018 0.053026095
-0.13323578 0.05951652 -0.004917433 -0.05244245 -0.059480574 0.12484999 -0.042050317 0.027832903
0.021660335 0.10582175 0.04865418 -0.12334529 -0.07401639 0.15331209 0.117197 0.08997463
0.2110303 0.0086816335 -0.017581502 0.050768718 -0.11206527 -0.025783751 0.047700156 0.1498008
0.19611321 -0.028970808 -0.16174795 0.107680716 -0.014983681 -0.122398786 0.04741151 0.064051025
0.081245385 0.029272882 0.08989101 -0.06775704 0.13285823 0.19449605 -0.020553408 0.21269244
0.054426663 0.075854376 0.07865992 -0.23214985 -0.15252046 -0.05780576 -0.09320528 0.14616525
0.15944967 0.14630982 -0.12254934 -0.1501357 -0.03533477 -0.060579676 0.067759216 0.27007404
-0.0014223903 -0.046696205 0.18699093 0.24239412 0.09623065 0.19431718 -0.1079943 -0.07466915
0.120728254 0.079099655 -0.048993774 -0.017213957 -0.29982573 0.095550075 -0.04189541 -0.010660208
-0.011135763 -0.061226532 0.14721948 -0.17505737 -0.09224331 -0.08224029 -0.010554934 -0.18113251
-0.08153016 0.16678897 -0.094192475 0.016619382 -0.16717131 0.029258186 -0.13409373 -0.09704261

network_body._body_endoder.seq_layers.2.weight f4 [128, 128]
00000000: 5ba4 ae3d d147 033e 1941 dabe 3b8a c7bd
00000010: 83d7 f93d cc58 d3bc c91a cbbd 207f 9fbe
00000020: 03e6 8a39 9952 23be d4cd e63d be9e 17be
00000030: 0c43 a53e a8eb c8be 3ae9 c63d c3ff 24be
00000040: c767 d03d f437 c43c de1e eabe ab1c 86bd
00000050: d70b 1dbf d48f 333e ee8f 9cbe 16e6 adbe
00000060: df42 463e c6a4 debe 3541 1b3e dbd2 923c
00000070: fae5 efbd c251 98bc 8121 24be 6e68 f4bd
00000080: d0ba b03d c65b 92bd 1d28 1bbf 8b0b 64bd
00000090: 42be b4be d609 1e3e 0b20 3ebd 6c92 963b
000000a0: 9f3d 173e 0301 803d 51f8 a8bd 2733 59bd
000000b0: fc50 ae3e f937 00bf d676 5fbe d812 7dbe
000000c0: 5833 073e 5bdc f43d 4211 0d3f 892a 2abf
000000d0: b64f 3abe 53b8 c8be 2411 9dbe e865 46bb
000000e0: 6717 bcbe de61 173e 17e0 9e3d 6366 f2be
000000f0: 5dde 82bb dc46 263d 9aea b7bd 5d77 2d3e
00000100: 8391 0a3d ddf7 94bd cab1 9b3c 994f 91be
00000110: b3f5 503e 2cf4 38be 3e33 1c3f af8b 2fbe
00000120: 54c1 e3be 986a 4f3e be7f bebd d6cd 203e
00000130: 2835 d63e a1e6 5b3b 3dc7 57bc b590 32be
00000140: 0f31 523b 3509 5b3c ec8f aabe b11a 00be
00000150: 2094 cabe c7b0 19be 4382 5e3e 478e a73e
00000160: 3da0 aabe 2197 253c 79f9 31be 9d90 f5bd
00000170: fd28 5ebd c2f1 abbe ad77 37be f632 aabd
00000180: 5709 00be f7d7 28be 69f0 76bc 36bd ecbd
00000190: cee1 503e 6fb1 9ebc 1080 e7bd 60fe 6c3d
000001a0: bf69 663e 00b2 e73e 0b3b 7bbe 11a0 683e
000001b0: 73f2 dcbc 51c6 6cbc 536d b9bd d2b3 0cbd
000001c0: a587 9fbc 9662 f03c 4faa 6ebc 1e42 d3be
000001d0: c21e f1be 2e93 88ba bffa 8bbe 3cc5 d8be
000001e0: d3d0 3b3e e027 733e bc01 953d 8694 913e
000001f0: d552 79be 3294 9dbd 1d80 b23e 0d35 96be
00000200: e64f ddbe 8fae 50be 069b 03bf 09c3 de3d
00000210: be9e 4abe 8b59 11bf 41e4 79be 4f1e bd3e
00000220: 77b8 43bd a17d 2a3e e38a aabd 5d33 893c
00000230: c3b5 553e ca81 a7be eb22 72be 0caa b63c
00000240: c7bc b6bd cfea 31be e6a8 a23e b803 29bf
00000250: 9c8d 223e ae17 9e3e 3d64 bbbe af4e d5be
00000260: b572 aebe 8e78 bebe c2ff ac3e cdda fb3d
00000270: b3d1 7fbe d458 f9be fb50 b8bd 5668 1a3d
00000280: a1bf 0ebc a797 93be b5ea 8dbe 0554 933e
00000290: c7ca 4fbc af0f 1e3c 917e 7a3e 52bb 553d
000002a0: 7c1f a3be c709 babe dd72 6f3e 4db0 55be
000002b0: 32a7 693e c2a0 9bbd 8166 31be 7bd2 c5bd
000002c0: 3576 b8be 1de3 5ebe 1deb a8be 4aa4 ddbc
000002d0: 43ad 3bbc f0b2 83be 2f9a 3c3e 5b07 20be
000002e0: 6db8 7fbe 7849 abbd cca3 93be 845e debe
000002f0: 71ed 8cbe 50de 9c3e 9c92 d5bd 32bf 27be
00000300: 1aed 703d 3d15 203e 707e 0d3e df5d 1a3e
00000310: 5d52 5dbe 696f efbe cacc 99be 156a 3abe
00000320: d484 28bd e4d5 ed3c cdf1 7ebe 1e0a 3f3c
00000330: d79b 94be 7ca0 aebc b76a 363e a24e 7abe
00000340: 6238 d6be 8374 d33d c9bc 86be 2907 04be
00000350: edd4 a8be 0530 84bd 8a9d 3c3d fa39 29be
00000360: fd3b 443e 264b 65be 8b46 453e 8014 d63d
00000370: d8eb 703d 1481 a3be 0641 aabd eca6 72be
00000380: 2351 873c e505 02bf 537e 08bd 26ea 543e
00000390: e82a 3abe bcbf f03b 60bb 3f3e 8624 e23d
000003a0: 4dec 02be b083 b2be 33b6 e9bd 8f1e 143e
000003b0: 6d19 793c 45b1 8abd 6c8f 03bd 707b 523d
000003c0: 5b8d b23d ae6d ecbe e6bc d4be ff4b 6bbe
000003d0: 0058 79be 3102 1dbe 89b8 a2be 4424 14be
000003e0: cd0d d5bc 744d 92be e286 2f3a f3c9 84be
000003f0: 07d8 e73d beef 4dbe 8b0e 833d 94d0 57be
0.08527442 0.12820365 -0.4262779 -0.09743162 0.12199309 -0.025799178 -0.09917218 -0.31151676
0.00026492783 -0.15949477 0.11269727 -0.14806649 0.32277715 -0.3924229 0.09712453 -0.1611319
0.10176044 0.023952462 -0.45726675 -0.06548437 -0.6134619 0.17535335 -0.3057856 -0.33964604
0.19361447 -0.43485087 0.15161593 0.01792281 -0.117137864 -0.018593673 -0.16028406 -0.11933981
0.08629382 -0.07146411 -0.60608083 -0.05567507 -0.35301405 0.1543344 -0.046417277 0.0045950916
0.147696 0.06250193 -0.082504876 -0.0530273 0.3404616 -0.5008541 -0.21822676 -0.2471422
0.1320318 0.11956092 0.5510446 -0.66471153 -0.1819447 -0.39203128 -0.3067714 -0.0030273143
-0.36736605 0.14783427 0.077575855 -0.4734374 -0.003993793 0.04059492 -0.089802936 0.16940065
0.033830177 -0.07273839 0.019005675 -0.2838104 0.20406227 -0.18061894 0.6101569 -0.17143129
-0.44483435 0.20255506 -0.09301709 0.1570352 0.4183743 0.0033554214 -0.013170061 -0.17438014
0.0032072698 0.013368894 -0.3331293 -0.12510182 -0.39566135 -0.15008841 0.21729378 0.32725736
-0.33325377 0.010106833 -0.17380323 -0.119904734 -0.05423831 -0.33582884 -0.17916746 -0.08310501
-0.12503563 -0.16488634 -0.015071967 -0.115595266 0.20398638 -0.019371716 -0.11303723 0.05785978
0.22501276 0.4525299 -0.24534242 0.2271731 -0.026971078 -0.014451579 -0.09054055 -0.034351178
-0.01947386 0.029343884 -0.014566972 -0.4126138 -0.4709378 -0.001041984 -0.27339742 -0.42337978
0.18341379 0.2374568 0.072757214 0.28433627 -0.24348004 -0.07694282 0.34863368 -0.2933735
-0.4322502 -0.20379089 -0.5140842 0.10877044 -0.19787118 -0.56777257 -0.24403478 0.36937186
-0.04778334 0.16649486 -0.08327272 0.016748125 0.20870118 -0.3271621 -0.23646133 0.022297882
-0.08922725 -0.17374729 0.31769484 -0.660213 0.15874332 0.3087744 -0.36599913 -0.41661593
-0.3407189 -0.3720135 0.33788878 0.12297592 -0.24982338 -0.48700583 -0.08999821 0.03769716
-0.00871268 -0.2882664 -0.2771813 0.2877504 -0.012682623 0.009647294 0.24462344 0.052180596
-0.31859958 -0.36335585 0.2338366 -0.20868035 0.22817686 -0.075990215 -0.17324258 -0.096592866
-0.36027685 -0.21766324 -0.32991877 -0.027055878 -0.011454883 -0.25722456 0.18418191 -0.15627806
-0.24972697 -0.083636224 -0.28835905 -0.43431485 -0.27524903 0.3063836 -0.10428354 -0.16381529
0.058819868 0.15633102 0.13817763 0.15074871 -0.2161345 -0.46764687 -0.30039054 -0.1820453
-0.0411423 0.029032655 -0.24896927 0.011660127 -0.29025146 -0.02131676 0.17814146 -0.24444059
-0.41839892 0.10324957 -0.26315907 -0.12893356 -0.3297495 -0.064544715 0.04604868 -0.16526023
0.19163509 -0.22391948 0.19265191 0.10453129 0.058818668 -0.31934416 -0.083131835 -0.23696488
0.016518181 -0.50790244 -0.033323597 0.20792446 -0.1818043 0.0073470753 0.18723822 0.110421225
-0.12785454 -0.34866095 -0.11411705 0.14464782 0.015203816 -0.06772093 -0.0321192 0.05138725
0.08718368 -0.4617743 -0.41550368 -0.22978209 -0.24349976 -0.15332867 -0.31781414 -0.14466959
-0.026007557 -0.28574717 0.00066958193 -0.25935325 0.11320501 -0.20110986 0.06399258 -0.2107566

network_body._body_endoder.seq_layers.2.bias f4 [128]
00000000: 70ce 1cbe 5fb8 5b3d 16c6 ecbd 1e79 8ebd
00000010: 61ac 303d 4f9d afbd 1586 efbd 103f 81bd
00000020: ee8d 483d 2bf8 653e 68bb 6e3e 7b10 223e
00000030: 9d56 083e 24a3 97bd 98fc 9f3d b0f0 de3d
00000040: 7322 8b3d 344b 153e 41a8 1abc 4fa4 bc3c
00000050: 48bc 6e3e 547f a93c 3c3b f53d f921 6bbd
00000060: 0c87 e53d 607c efbd baf7 8f3c 1420 5a3c
00000070: 9073 72bd 1c56 563d 1bdc ab3e 181e 1bbe
00000080: 42a9 a6bd 997d 8e3d a90a d33d 8972 d6bc
00000090: 8b8c 29bd ca1b 9abd 89ef 82bd b6c3 f0bd
000000a0: da75 babd ffa3 b23c 4fe0 813d e850 103e
000000b0: 39d9 c73d 7533 493e 9c3e 0dbe b961 c43d
000000c0: eb59 033d 8603 163e c5b9 f63d a888 f33c
000000d0: 8dfb 4f3d 9eef 6b3d 601a 293c b01f 9f3d
000000e0: 04d1 893e bf81 293d 57b5 013e 5b25 2bbe
000000f0: 348b 31bd 6877 503e 66a7 41be 786a c63d
00000100: 3e64 d3bc fb83 0dbd 4c39 b9bc 88bd 06bd
00000110: 4016 52bd 76fc d03d 8e20 a6bd 6867 c33e
00000120: a6fd 45be 7b18 123e 44d7 06be 6d05 9ebd
00000130: 40c9 12bc 32a2 523e 74aa 8ebc cb11 183e
00000140: 202d 873d b4ec 743e 5d2a 6f3e f6ed 42bd
00000150: 22dc 81bd 29e6 64be 0791 8fbc f92c edbd
00000160: 0889 4c3d 8cb6 8c3e 37ec 2c3e cdff 2f3e
00000170: 738a 7ebd 70f2 e43d 7d47 22bc 5191 adbc
00000180: bc9b b53c 055a c63d 28be 3b3c fe26 ebbd
00000190: fbcd 3f3e 8a3d 223e 4dfd c13e c894 c63d
000001a0: 0718 413e e372 2a3a cab0 6d3e d570 bb3c
000001b0: 8db6 eebd 66dc 963e 3dec 67bc 8193 50bd
000001c0: 85ed 2b3e 9935 30bd 6726 d03d a7c0 253b
000001d0: 3d42 433e 1050 013e 991c c03d 7504 593c
000001e0: 33e3 523d 9a1d a73c c197 5b3e b9df a73e
000001f0: b190 0bbe 1323 ef3c 20c8 063d dfa4 11be
-0.15313125 0.053642627 -0.115612194 -0.06956695 0.043133143 -0.08574926 -0.11695496 -0.06310856
0.04896348 0.2245795 0.23313677 0.158266 0.1331429 -0.074041635 0.0781185 0.10885751
0.0679368 0.14579469 -0.009439529 0.023027567 0.23314011 0.020690598 0.11974189 -0.057405446
0.11207399 -0.116936445 0.01757418 0.013313312 -0.05919224 0.052328214 0.33566365 -0.15148199
-0.08137752 0.069575496 0.10304768 -0.026177661 -0.041393798 -0.075248316 -0.06393344 -0.11756079
-0.0910451 0.021806715 0.063416116 0.14093363 0.09758229 0.19648536 -0.13793415 0.095889516
0.032068174 0.14649782 0.120471515 0.029728249 0.050777007 0.057601564 0.01032123 0.07769716
0.2691728 0.0413835 0.12666832 -0.16713469 -0.043345645 0.2035805 -0.18911514 0.09688276
-0.025804635 -0.034549695 -0.02261033 -0.032895595 -0.05129075 0.10204403 -0.08111678 0.3816483
-0.1933504 0.14267151 -0.13168055 -0.07715879 -0.008959115 0.20569685 -0.017415263 0.14850537
0.06600404 0.2391842 0.23356004 -0.04759022 -0.06340815 -0.22353424 -0.01752521 -0.115808435
0.04993537 0.27483022 0.16886984 0.17187424 -0.062143754 0.11179054 -0.009904739 -0.021187456
0.022168986 0.096851386 0.011458911 -0.114820465 0.18730919 0.15843788 0.37888566 0.096963465
0.18856822 0.0006502105 0.23211971 0.022880951 -0.116559125 0.29465026 -0.014155445 -0.05092192
0.16789825 -0.043019865 0.10163575 0.0025291832 0.19068237 0.12628198 0.093804546 0.013245692
0.051486205 0.020399857 0.21444608 0.32787874 -0.13629414 0.02919153 0.032905698 -0.1422305

action_model._discrete_distribution.branches.0.weight f4 [7, 128]
00000000: 2f0d 96be 9504 843e 510b 5f3e 63cc 11bf
00000010: e356 713e 9077 a3bd 5671 6fbe 3a9b c63d
00000020: 9fe0 293d 7354 9d3d 9ed4 bd3e 0f97 5d3e
00000030: 7ca9 12bd 7d67 8a3e 637e 053d f306 abbd
00000040: 7651 593c 6b91 373d dd01 c63c c4a0 3bbd
00000050: aeed df3d 9174 373e b5ce 0ebe ec9a e9bc
00000060: a55a 553d e581 68be 9d10 593e d8e7 523d
00000070: 3931 8e3d 1e68 5c3d d424 41be 4f0f 183e
00000080: 406a ff3b e7de f8bd 454f 94be d76e b0bd
00000090: 7959 413e cde3 34be 0304 bfbe c050 543d
000000a0: 6d7c f43d 8724 9cbd f86e 99bd 4be6 04be
000000b0: a54d 163e 1bb0 063e 1be4 5b3d 7f15 143e
000000c0: 13d1 ccbd 0383 423e 431e 283d ae69 71be
000000d0: ce8f 47be 8086 33be 0cf9 783e 328f 41bd
000000e0: 3180 e13d f132 393c 28ba 933d 6f61 68be
000000f0: d116 eb3d d400 193e 7a43 89bd 17df 8d3e
00000100: 9929 49bd 5735 f4bd 951c 9bbe 2233 d33c
00000110: fb53 bfbd 97aa 083e 89c1 c0be 1f20 bd3d
00000120: 6abf 853e 57f2 9e3d b84f 153e e8f7 733e
00000130: b74b 2abe 68cd 95be 9fc1 41bb a007 5d3e
00000140: ee35 14be 8b04 753e 3844 2e3d 1226 503e
00000150: dc1b 83be 5bc4 d3bd ea44 83bd 65e8 b23c
00000160: 0380 423b 1f53 6e3e 50ed 113e 72ec a23c
00000170: c24e c03d 98cb 923e 7824 8bbe def7 573d
00000180: e56f 2abc c94d 6c3e 3c04 303e 8741 c23d
00000190: 283f 84bb 80b6 a13c 1453 f03c 460c f03d
000001a0: 6605 bfbd 7a2f d33d 61d7 8bbe 9822 acbd
000001b0: 13fb 5fbe cf3a 643e e849 8abd 3545 5bbd
000001c0: fd39 cd3d b089 0d3d 60dd 643d a73e a7bc
000001d0: 1a77 d03d c888 ee3d e9dc de3d 3b54 9a3d
000001e0: 401c b9bd bf01 51bd 127d 853d e1d7 a6bd
000001f0: 093b 21be 2a56 903e 097a 4bbe 02b3 143d
00000200: 4a80 c3bd 3246 763d 149c dfbb 9d3a 153d
00000210: b5bf 84bd b120 533e 2dbd 9f3e 9b95 753e
00000220: cfda b43e 4d43 1cbe 763f 99bd 406c d1be
00000230: 8a1d 623e 3cba 903d a6c2 643c 5c27 c13e
00000240: 0251 8dbe d11d 0c3e 79f0 5b3e c799 843d
00000250: 5b0b d23c 157a c7be f369 a03d 932c 463e
00000260: a0f5 223e 9406 983e ca6c 543d c542 ca3d
00000270: 3393 843e 1ae3 823e 76ca e3be b371 9dbb
00000280: 208c 983e 569f a33d 713f 6f3d c26f a83e
00000290: fec0 6c3e 4744 d0bd 5aae 3fbd 63dc 0cbe
000002a0: 61e2 423d dc84 403e 8d85 a63e fbb1 c73d
000002b0: b15e 533d 904a f3bd ccfd 303e 0930 263d
000002c0: 3cdb 393e a05b 60bb 2ff8 90be 9ba4 723e
000002d0: 4bb4 393e 2677 4e3e 7080 0d3f ece5 95bd
000002e0: 6f48 27bd 7d1f 133e a2ec e2bd c035 ccbd
000002f0: 5955 e7bd 20fb 39be 7a78 cbbd e9e1 8bbd
00000300: 6097 8b3e 4b9e 693e a777 c2bd c3b6 56be
00000310: 5a7f 8e3d e710 fc3d e591 91be f9d6 14bf
00000320: dde3 0a3e fbc0 8b3e 4a92 9dbd b4e9 f83d
00000330: 9791 903e 944d 37bd 9e80 98bc 1880 8f3d
00000340: a7ce 973e db66 2c3d 320b 8ebe 771a 293e
00000350: a8fa a63d cd32 e3ba bddd 8c3c d50f a1bd
00000360: d1ef a8be 344d 35be f3de a9be 3ee0 a13d
00000370: c173 983e ebf2 d43d 91e9 b33d 1bb7 fb3d
00000380: a004 31bd 2d9f a93c e783 75be 5b48 3c3e
00000390: 0456 423d 3982 7f3e bb74 21bf fe29 483e
000003a0: ce79 63be 96aa 463e 2de4 8cbd dcc5 9cbd
000003b0: c107 d03e 0481 f13e 60d9 17be 7a9d 463e
000003c0: 77c2 f8be 40b2 9b3e 12fd a2bd 1ea7 963e
000003d0: 30a7 313c d092 0abe bd97 373e b3a0 e03d
000003e0: 5fc8 bf3e b36c dbbd 6b95 eb3e 4013 cfbe
000003f0: 7e63 acbe 8220 91be a6c8 843e 89c2 853e
-0.29306933 0.25784746 0.2178166 -0.56952494 0.23568301 -0.07981789 -0.23383078 0.09697576
0.04147398 0.07682123 0.37076277 0.21639656 -0.035806164 0.2703208 0.032591235 -0.08350935
0.013264051 0.044816416 0.02417081 -0.045807615 0.10934006 0.1791556 -0.1394604 -0.028516255
0.0520884 -0.22705801 0.21197744 0.051490635 0.06942982 0.05381023 -0.18861705 0.1484959
0.0077946484 -0.1215189 -0.28966728 -0.08614891 0.18881787 -0.17665024 -0.37307748 0.05183482
0.11937795 -0.076241545 -0.07491869 -0.12978475 0.14678057 0.13153116 0.053684335 0.14461325
-0.10000815 0.1899529 0.041044485 -0.2357547 -0.19488451 -0.17531776 0.24313754 -0.047255702
0.11010779 0.011303649 0.07213241 -0.22693418 0.11478961 0.14941722 -0.06702323 0.27709267
-0.049111936 -0.11924236 -0.30295244 0.025781218 -0.0934219 0.13346325 -0.37647656 0.09234642
0.261226 0.077610664 0.14581192 0.23825037 -0.16630445 -0.29258275 -0.002956487 0.2158494
-0.14473698 0.23927514 0.042545527 0.20327023 -0.25607193 -0.10340186 -0.06409629 0.02183933
0.0029678352 0.23273896 0.14250684 0.019888137 0.09390022 0.28670955 -0.2717626 0.05272662
-0.010402654 0.23076548 0.17189115 0.094851546 -0.004035849 0.019740343 0.02933649 0.11721091
-0.093272015 0.1031179 -0.2731276 -0.08405036 -0.21873121 0.22288059 -0.06752378 -0.053532798
0.10020826 0.034555137 0.055875182 -0.020415617 0.10178967 0.11647183 0.10881979 0.07535597
-0.090385914 -0.051027056 0.06517996 -0.081466444 -0.15745176 0.28190738 -0.19870771 0.036303528
-0.095459536 0.060125537 -0.006824026 0.03643285 -0.06481878 0.2061794 0.31199017 0.23982851
0.35323188 -0.15260048 -0.07482807 -0.409029 0.22081581 0.070667714 0.013962423 0.3772534
-0.27600867 0.13683249 0.21478452 0.06474643 0.02564018 -0.3896033 0.07832708 0.19352941
0.15914011 0.2969252 0.05186156 0.098760165 0.25893554 0.2556389 -0.44490403 -0.004804814
0.29794407 0.07989375 0.05841011 0.32897764 0.23120496 -0.10169273 -0.046797134 -0.13755946
0.047579173 0.18800682 0.32523766 0.09750744 0.051603977 -0.11879456 0.17284316 0.040573154
0.18150038 -0.00342343 -0.2831435 0.23695605 0.18135183 0.20162639 0.55274105 -0.07319245
-0.040840562 0.1436748 -0.110802904 -0.099711895 -0.11295576 -0.18162203 -0.099350885 -0.06830198
0.27263927 0.2281429 -0.09495478 -0.20968156 0.06957884 0.12307911 -0.2843162 -0.5814052
0.13563485 0.2729567 -0.07693918 0.1215395 0.28236076 -0.04475172 -0.018616017 0.07006854
0.2964985 0.042090278 -0.27742916 0.16514002 0.08153278 -0.0017333865 0.017195577 -0.07864348
-0.32995465 -0.17705232 -0.3317791 0.07904099 0.29775813 0.103978954 0.08784784 0.12290784
-0.0432173 0.020705784 -0.23976098 0.18386976 0.047445312 0.2495202 -0.6306874 0.19547269
-0.22214434 0.19401011 -0.068794586 -0.07654926 0.40630916 0.47168744 -0.14829016 0.1939601
-0.48585865 0.3040943 -0.079584256 0.29424375 0.010843083 -0.13532567 0.17928977 0.10968151
0.3745756 -0.10714092 0.46012434 -0.40444374 -0.33669657 -0.28345114 0.25934333 0.2612498

action_model._discrete_distribution.branches.0.bias f4 [7]
00000000: 9f8f f23d 98d6 96bc c01c 113e 0d6c 01bf
00000010: def6 b0be b72f 5f3c 2f0f 803e
0.118438 -0.018412873 0.14171124 -0.505555 -0.34563345 0.013622216 0.25011584
