Source/Trained_Policies/WeightAgent_Training/WeightAgent_Training/WeightAgent_Training-447499984.pt (torch, 926628 bytes, 33 tensors)

network_body._body_endoder.seq_layers.0.weight f4 [128, 163]
0.47080156 -0.46655682 0.09256541 0.1701703 0.47197673 0.083566956 -0.3681527 -0.34854734
0.13344233 0.77739567 0.4764838 -0.37823036 0.6254109 0.045351516 0.2472281 0.0009974524
-0.2899285 -1.0190879 0.062813394 0.56622815 0.48229071 -0.071258426 0.9302344 0.4166198
-0.5142389 -0.22092181 -0.3721141 -0.72739553 -0.27498513 0.3646194 0.090074115 0.12211588
0.6461379 0.100107804 -0.7788507 -0.2170715 -0.57640696 -0.2833611 -0.2646636 0.13075808
0.19774133 0.28731167 0.54325867 0.31625992 -0.70519453 -0.46523803 -0.6205943 0.017492875
-0.27171618 0.0997641 0.6404422 0.3267198 0.20107836 0.7613378 -0.26367658 -0.35909998
-0.09429876 0.22716512 -0.16371915 0.3056937 0.3261469 0.17855829 0.4198757 0.11402676
-0.34034106 -0.23373562 -0.28981557 0.12158502 -0.06299042 0.12977228 0.5350271 0.08588636
0.2821029 0.22327422 -0.04839929 0.2712125 -0.0107552195 0.14463559 -0.44777912 -0.0791181
0.31119883 -0.56242603 -0.42714348 -0.060301695 -0.004077013 0.20597418 -0.6248289 -0.058505464
-0.15839805 0.10621972 0.009675585 0.0742853 -0.195642 -0.40093836 -0.049562424 -0.11595595
-0.15946399 0.03946517 -0.20822833 0.010254271 -0.068133414 -0.21140626 -0.23330732 0.028146796
-0.095015995 0.06162117 -0.18007025 -0.0039817854 0.18266618 0.032789975 0.011148391 -0.40669164
0.09102076 0.12660813 -0.18333033 -0.2169738 0.1262889 -0.14325896 -0.19008599 0.13608451
0.005936374 -0.57964224 -0.10136511 0.08582545 -0.3712217 -0.3409899 0.19751132 -0.0670141
0.041332033 0.0664785 -0.0640434 -0.04385529 -0.07666248 -0.12754989 -0.3683769 -0.06772961
-0.22854345 -0.37562525 0.14719942 0.15409243 -0.37824774 -0.07672854 -0.314827 -0.060990654
-0.29877177 -0.14146845 -0.031560767 0.08305861 0.036983423 0.16371995 -0.18391307 -0.1846296
-0.009007608 0.16022526 0.12976708 -0.28380165 0.5132219 -0.40209693 0.008549074 -0.051052947
0.10423929 0.07525888 -0.6454311 -0.018318512 0.46018326 -0.05182091 0.07480032 -0.46221834
-0.008386204 0.27087694 0.12622285 0.025932066 -1.0318255 0.20924585 0.30170095 -0.8723258
0.44843602 -0.44323513 0.0036377665 0.38188475 0.45890734 0.049157426 -0.8940006 0.33836517
0.2869369 -1.4334921 0.17521092 0.00031091194 -0.24325168 0.07283676 0.25223178 0.31274298
-0.6706594 0.059800375 0.15953384 -0.7562974 0.21296142 0.14813605 -0.26402006 0.11211199
0.116189666 0.006685975 -0.7058038 0.10369682 0.09451659 -0.44295254 0.13113663 0.2528099
-0.02219876 0.24172074 0.25843117 0.2983734 -0.42346367 0.1192758 0.20726362 -0.3331229
-0.1105615 0.17884128 0.00038154164 0.13756824 0.308855 0.054171804 -0.027369853 0.11804457
0.08962168 0.050909158 -0.17361213 0.11028318 0.09905032 0.24409808 0.16807376 -0.1594272
0.16213019 0.3129674 0.11988517 -0.025699006 -0.003212661 -0.0036111905 -0.29448485 0.12170567
0.087440155 -0.09333691 0.20801328 0.16377912 -0.034757588 0.019686857 -0.17679124 0.10404711
-0.059548117 0.012358731 0.042751893 -0.006210719 0.33551916 0.3760416 0.041231517 -0.21249294
00000000: e70c f13e 89e0 eebe ef92 bd3d 2041 2e3e
00000010: efa6 f13e 2725 ab3d 837e bcbe cc74 b2be
00000020: 1ba5 083e 6703 473f aff5 f33e 69a7 c1be
00000030: ee1a 203f 83c2 393d 5d29 7d3e f3bc 823a
00000040: 8271 94be 7971 82bf 4fa4 803d 54f4 103f
00000050: cfee f63e f0ef 91bd d723 6e3f 314f d53e
00000060: 29a5 03bf 5439 62be bd85 bebe 9836 3abf
00000070: daca 8cbe 65af ba3e c778 b83d e417 fa3d
00000080: 4b69 253f 5205 cd3d c262 47bf fe47 5ebe
00000090: 688f 13bf b514 91be fd81 87be 72e5 053e
000000a0: b47c 4a3e 841a 933e 0013 0b3f d2ec a13e
000000b0: a187 34bf ae33 eebe 45df 1ebf 384d 8f3c
000000c0: 621e 8bbe 1f51 cc3d 05f4 233f d147 a73e
000000d0: 7ce7 4d3e 09e7 423f 9e00 87be f4db b7be
000000e0: b51f c1bd f99d 683e fea5 27be e283 9c3e
000000f0: bafc a63e fcd7 363e f3f9 d63e dd86 e93d
00000100: 2f41 aebe 6458 6fbe b562 94be 9101 f93d
00000110: 1f01 81bd 06e3 043e 89f7 083f 30e5 af3d
00000120: cb6f 903e ffa1 643e 553e 46bd 5ddc 8a3e
00000130: a936 30bc 5a1b 143e 4e43 e5be ac08 a2bd
00000140: 7455 9f3e 27fb 0fbf 8db2 dabe e9fe 76bd
00000150: 7798 85bb e5ea 523e c9f4 1fbf 6da3 6fbd
00000160: 1933 22be b989 d93d 5886 1e3c e422 983d
00000170: 6056 48be cb47 cdbe f801 4bbd 507a edbd
00000180: 874a 23be 3ba6 213d cf39 55be 8801 283c
00000190: 8889 8bbd e27a 58be 1de8 6ebe 1c94 e63c
000001a0: bf97 c2bd 7b66 7c3d 5664 38be a379 82bb
000001b0: d80c 3b3e c84e 063d bea7 363c e339 d0be
000001c0: 1869 ba3d 90a5 013e f2ba 3bbe 612e 5ebe
000001d0: e151 013e 7ab2 12be e7a5 42be bd59 0b3e
000001e0: ea85 c23b 6f63 14bf 8398 cfbd 41c5 af3d
000001f0: c510 bebe 3a96 aebe 6840 4a3e b03e 89bd
00000200: c74b 293d e125 883d 3029 83bd 9ba1 33bd
00000210: 3801 9dbd 709c 02be e69b bcbe d2b5 8abd
00000220: 4b07 6abe f451 c0be 72bb 163e 68ca 1d3e
00000230: b0a9 c1be da23 9dbd 0131 a1be 56d1 79bd
00000240: 9df8 98be 1bdd 10be dd45 01bd a21a aa3d
00000250: ee7b 173d 34a6 273e b553 3cbe 8b0f 3dbe
00000260: a594 13bc 1712 243e a9e1 043e 734e 91be
00000270: 8362 033f a6df cdbe 6a11 0c3c e51c 51bd
00000280: 697b d53d 5421 9a3d f93a 25bf b410 96bc
00000290: 249d eb3e 2a42 54bd e930 993d e2a7 ecbe
000002a0: 4a66 09bc 62b0 8a3e 9040 013e 7c6f d43c
000002b0: dc12 84bf 8b44 563e 8c78 9a3e be50 5fbf
000002c0: 6899 e53e b7ef e2be 9867 6e3b 6686 c33e
000002d0: e7f5 ea3e 4c59 493d 39dd 64bf 333e ad3e
000002e0: 65e9 923e ab7c b7bf 7e6a 333e e501 a339
000002f0: f816 79be 702b 953d 8624 813e d91f a03e
00000300: 56b0 2bbf 3df1 743d d75c 233e b59c 41bf
00000310: 8f12 5a3e fab0 173e a32d 87be f99a e53d
00000320: d9f4 ed3d 0616 db3b 8faf 34bf 005f d43d
00000330: ea91 c13d adca e2be ae48 063e 4d70 813e
00000340: 2dda b5bc a485 773e 1751 843e 66c4 983e
00000350: 3bd0 d8be df46 f43d ea3c 543e 168f aabe
00000360: 116e e2bd 2b22 373e a709 c839 b0de 0c3e
00000370: 3e22 9e3e 41e3 5d3d be36 e0bc 5ac1 f13d
00000380: 928b b73d 1f86 503d 61c7 31be 26dc e13d
00000390: e5da ca3d d9f4 793e 871b 2c3e e240 23be
000003a0: 7505 263e 433d a03e 5b86 f53d b986 d2bc
000003b0: 828b 52bb b9a9 6cbb b8c6 96be d340 f93d
000003c0: d313 b33d 6c27 bfbd 6f01 553e b7b5 273e
000003d0: f95d 0ebd 5546 a13c c308 35be a716 d53d
000003e0: bae8 73bd 467c 4a3c 9c1c 2f3d 4983 cbbb
000003f0: 2bc9 ab3e 8688 c03e 61e2 283d c097 59be

network_body._body_endoder.seq_layers.0.bias f4 [128]
0.060402878 0.068764806 0.05291474 -0.069265075 0.21181902 -0.19227615 0.322591 0.41180697
-0.42353582 0.070899405 -0.062854275 0.15255798 0.023802197 -0.14338994 0.04006008 -0.049701482
-0.09951775 -0.11723626 -0.048688166 -0.090516485 0.29530644 -0.23201056 0.2576442 -0.09813896
0.18952458 -0.01901965 0.042128626 -0.06707424 0.091357045 0.13774095 -0.16903125 0.16625287
-0.047616523 -0.016091181 0.29331368 -0.04756431 0.16034794 0.014614676 -0.0021812066 -0.0142575195
0.23686443 -0.016706878 -0.13086854 -0.03289041 -0.064888775 0.08978624 -0.04297452 0.09158463
-0.19489664 -0.06541904 -0.19973338 0.0380499 0.16676576 0.20157129 -0.02854935 -0.010267247
-0.13221197 0.13788329 -0.07424465 0.0084685795 0.06909373 0.09716725 -0.20357293 -0.014238899
0.3240166 0.22127524 0.12899141 0.041939266 -0.3139339 -0.3618944 0.20303738 -0.20936558
-0.023172632 -0.088374 0.23115812 -0.099923074 -0.2740681 -0.118521616 -0.05421212 0.18990877
-0.074047476 -0.10287105 0.4011763 -0.07288486 -0.15046981 0.08111684 -0.07394732 0.03516273
0.008087879 -0.004808866 -0.0260273 -0.1650176 -0.03470554 -0.04570002 0.22360532 0.2017772
0.339036 -0.045047387 0.2752401 0.044314113 0.14418404 -0.1813468 0.2944748 0.18111591
-0.057354003 -0.0762735 -0.19311759 -0.12835573 0.150353 -0.22454832 -0.047696702 -0.16406806
0.06724646 -0.035200793 0.047010045 -0.18683758 0.081304826 -0.00522163 0.28602058 -0.19609976
0.037801675 0.06176378 0.05723783 0.038906943 0.044605073 0.032181 -0.059294093 0.096731536
00000000: 0269 773d 90d4 8c3d 20bd 583d d9da 8dbd
00000010: 16e7 583e 0ae4 44be a62a a53e 5dd8 d23e
00000020: b0d9 d8be b533 913d beb9 80bd 2938 1c3e
00000030: d3fc c23c d0d4 12be 0a16 243d c893 4bbd
00000040: f6cf cbbd 9019 f0bd 3e6d 47bd b560 b9bd
00000050: 6832 973e 2d94 6dbe f1e9 833e 14fd c8bd
00000060: bb12 423e 19cf 9bbc 118f 2c3d 385e 89bd
00000070: 6719 bb3d f70b 0d3e 8716 2dbe 313e 2a3e
00000080: 8b09 43bd a7d1 83bc 362d 963e cbd2 42bd
00000090: 4032 243e 6572 6f3c 93f2 0ebb 5f98 69bc
000000a0: 978c 723e dddc 88bc 6702 06be 18b8 06bd
000000b0: 68e4 84bd d9e1 b73d 0d06 30bd b990 bb3d
000000c0: fc92 47be 6bfa 85bd e886 4cbe 36da 1b3d
000000d0: a5c4 2a3e b468 4e3e 54e0 e9bc f537 28bc
000000e0: 9362 07be 4731 0d3e 940d 98bd ccbf 0a3c
000000f0: 0381 8d3d a0ff c63d 6c75 50be 454a 69bc
00000100: 81e5 a53e fa95 623e 5316 043e 82c8 2b3d
00000110: f2bb a0be 394a b9be 08e9 4f3e ee63 56be
00000120: 88d4 bdbc 6dfd b4bd b7b4 6c3e 78a4 ccbd
00000130: a752 8cbe 76bb f2bd 870d 5ebd 7277 423e
00000140: 34a6 97bd 0fae d2bd fb66 cd3e a844 95bd
00000150: c214 1abe 9620 a63d b171 97bd cb06 103d
00000160: 0683 043c b193 9dbb 3437 d5bc 60fa 28be
00000170: 6527 0ebd f22f 3bbd cbf8 643e af9e 4e3e
00000180: 2096 ad3e 9c83 38bd 45ec 8c3e b782 353d
00000190: fba4 133e fab2 39be 67c5 963e 7376 393e
000001a0: 08ec 6abd 4835 9cbd 9ec0 45be af6f 03be
000001b0: 23f6 193e ffef 65be 9e5d 43bd 7501 28be
000001c0: 83b8 893d b52e 10bd 9b8d 403d 5a52 3fbe
000001d0: 2583 a63d 351a abbb 4a71 923e 60ce 48be
000001e0: eed5 1a3d 04fc 7c3d 3772 6a3d e35c 1f3d
000001f0: cfb3 363d 39d0 033d 5dde 72bd 2f1b c63d

network_body._body_endoder.seq_layers.2.weight f4 [128, 128]
0.6706969 -0.3566085 -0.21998781 -0.24391814 0.07598645 -0.36620164 -0.0045614643 -0.7596291
0.1043616 -0.3642056 0.055006646 -0.17434987 -0.14376083 -0.7717997 0.21325287 0.28107712
-0.18586577 -0.31350654 0.07972126 -0.4782237 -0.4082603 0.14492413 -0.4541255 -0.06826222
-0.044850778 -0.3145454 0.06715716 -0.31716892 -0.06050366 0.22033823 -0.0030812179 -0.11584567
-0.045025956 -0.0071132863 -0.120628074 -0.10866781 0.026365174 -0.22673985 0.06036048 0.11341496
-0.083000705 0.3289152 0.23041828 0.01734633 -0.20519498 0.07178773 -0.2680951 -0.5502947
-0.2711444 -0.2728585 0.17342849 -0.16530213 0.14230312 0.18990645 -0.89804703 -0.12222721
-0.3267488 -0.442644 0.06953222 0.08861185 0.33301917 -0.20226596 0.27787435 0.26897043
-0.25323895 -0.9761487 -0.06482879 0.17022774 -0.17923246 -0.14321443 0.07646238 0.13152891
0.0045194556 0.18949887 0.008047308 -0.3239677 -0.22286038 -0.1365569 -0.2740284 -0.1831911
-0.0619479 -0.06805062 -0.019502731 0.4082486 -0.56232053 -0.036218837 0.1584512 0.14340714
-0.17458716 0.048850484 0.14456204 -0.2403595 -0.0015193361 -0.034050133 -0.10117133 -0.06247703
0.065721296 -0.5119441 0.022177873 -0.7228201 0.27982727 -0.062055692 0.06691636 0.36469838
-0.12001744 -0.39279687 -0.27087837 -0.4599222 0.4254597 -0.3822313 -0.090601854 -0.6269775
0.020076381 -0.17933744 -0.32553366 -0.25122216 -0.21036993 0.09971992 0.11890556 -0.3558708
-0.18399648 -0.2794392 -0.22954027 0.07502464 0.12925301 -0.06297588 0.017619574 0.255411
0.08764202 -0.0706029 -0.18640542 0.7476751 -0.6028918 0.10436714 0.81717956 -0.08108867
0.20090051 0.6883128 0.556404 0.3878117 -0.4200934 0.03337778 0.250617 0.5512525
-0.14542222 -0.24548818 0.38210773 0.55992633 -0.03123605 -0.31227168 -0.023532823 0.027039012
0.47574195 0.19257872 -0.36375508 -0.46252346 -0.11116902 0.059968393 0.030213349 0.08036428
-0.015258376 0.1804526 -0.24527699 0.34941182 0.12293227 0.20618914 0.25038683 0.28256777
0.3050959 0.09776289 -0.12705252 -0.026184537 0.45860115 0.11804917 -0.013201659 0.29783177
0.29181978 0.5533991 -0.38207245 0.026708322 -0.18947676 -0.24599458 0.25470844 -0.08379119
0.32258737 0.45762926 0.14095458 -0.35119644 0.05172703 0.14234686 0.069428325 -0.20722906
-0.20981579 0.6293997 -0.28729695 0.25126204 0.1531129 0.3340028 -0.19185424 0.6603932
-0.22428891 0.16581681 -0.005644814 0.9561961 0.31370077 0.64594823 0.21388341 -0.1250432
0.15350157 0.27382618 -0.102367006 -0.14266847 -0.1269227 -0.044694502 0.23511826 -0.013586239
-0.30545124 0.3685146 -0.15565208 -0.11043662 0.7667672 -0.19343056 0.25474024 -0.12950112
-0.3461446 0.6265932 0.0015861044 -0.16280876 0.03836407 -0.17205864 0.054201223 -0.08955121
-0.30689105 -0.022408115 0.07325818 0.12623674 0.13768925 0.56557727 0.16995704 0.08404895
-0.0984529 -0.42212737 -0.35814834 -0.21937957 0.19293296 0.06934048 0.02542748 0.24064305
0.048811786 -0.07176231 0.09944835 -0.0900672 0.07941208 -0.29511952 -0.20676018 -0.20519319
00000000: cbb2 2b3f 6495 b6be 7c44 61be adc5 79be
00000010: c99e 9b3d c87e bbbe 5678 95bb 0d77 42bf
00000020: 89bb d53d 2879 babe a64e 613d c688 32be
00000030: 0a36 13be aa94 45bf f65e 5a3e 57e9 8f3e
00000040: 9953 3ebe ee83 a0be e644 a33d bdd9 f4be
00000050: 7e07 d1be fe66 143e 2383 e8be 10cd 8bbd
00000060: 73b5 37bd 180c a1be b189 893d f763 a2be
00000070: b0d2 77bd 58a0 613e 42ee 49bb 7f40 edbd
00000080: 236d 38bd 9216 e9bb da0b f7bd 3b8d debd
00000090: c7fb d73c 7e2e 68be 8d3c 773d 1a46 e83d
000000a0: 46fc a9bd 9367 a83e c5f2 6b3e e419 8e3c
000000b0: a21e 52be 7205 933d c343 89be 1de0 0cbf
000000c0: 70d3 8abe 1cb4 8bbe 3d97 313e f644 29be
000000d0: e9b7 113e d676 423e 69e6 65bf 4252 fabd
000000e0: 9e4b a7be 3ca2 e2be e966 8e3d 217a b53d
000000f0: 7d81 aa3e cf1e 4fbe 8c45 8e3e 7eb6 893e
00000100: 89a8 81be e2e4 79bf f5c4 84bd 2e50 2e3e
00000110: b788 37be cea6 12be 4f98 9c3d 84af 063e
00000120: f117 943b fe0b 423e dbd8 033c 18df a5be
00000130: 8335 64be 92d5 0bbe 734d 8cbe 7396 3bbe
00000140: 15bd 7dbd 205e 8bbd 31c4 9fbc f605 d13e
00000150: 3df4 0fbf 345a 14bd 0841 223e 52d9 123e
00000160: fac6 32be 7217 483d 1208 143e cd20 76be
00000170: 7624 c7ba 2778 0bbd ea32 cfbd eae7 7fbd
00000180: e398 863d c50e 03bf 5fae b53c bd0a 39bf
00000190: 8545 8f3e 1c2e 7ebd 720b 893d bfb9 ba3e
000001a0: b4cb f5bd ac1c c9be 92b0 8abe ec7a ebbe
000001b0: dbd5 d93e d2b3 c3be 778d b9bd 9981 20bf
000001c0: 3977 a43c 3ca4 37be 59ac a6be 31a0 80be
000001d0: 376b 57be f539 cc3d c284 f33d b334 b6be
000001e0: 9369 3cbe a812 8fbe 9b0c 6bbe 85a6 993d
000001f0: e75a 043e 80f9 80bd ed56 903c 3bc5 823e
00000200: a97d b33d 4198 90bd 10e1 3ebe a367 3f3f
00000210: 1e57 1abf 70be d53d ae32 513f d111 a6bd
00000220: ddb8 4d3e 4535 303f 7e70 0e3f 418f c63e
00000230: 7b16 d7be 24b7 083d df50 803e e21e 0d3f
00000240: 90e9 14be 4161 7bbe a0a3 c33e 5557 0f3f
00000250: bfe2 ffbc 13e2 9fbe e8c7 c0bc eb80 dd3c
00000260: 7394 f33e 5b33 453e 1b3e babe e0cf ecbe
00000270: 95ac e3bd 6ba1 753d fc81 f73c 0796 a43d
00000280: 44fe 79bc 91c8 383e e429 7bbe 1be6 b23e
00000290: eac3 fb3d 3f23 533e b432 803e b9ac 903e
000002a0: 8835 9c3e e937 c83d 0e1a 02be f480 d6bc
000002b0: c5cd ea3e c3c3 f13d c54b 58bc 687d 983e
000002c0: 6769 953e 90ab 0d3f 009f c3be 69cb da3c
000002d0: 3206 42be 01e6 7bbe 2569 823e b79a abbd
000002e0: 2c2a a53e 624e ea3e 6656 103e 05d0 b3be
000002f0: b9df 533d 60c3 113e 7030 8e3d db33 54be
00000300: f3d9 56be 5720 213f 9618 93be 6ba5 803e
00000310: a1c9 1c3e 6a02 ab3e 7075 44be 870f 293f
00000320: feab 65be e2cb 293e 22f8 b8bb 45c9 743f
00000330: 639d a03e dd5c 253f 4104 5b3e 530b 00be
00000340: 842f 1d3e f232 8c3e cba5 d1bd af17 12be
00000350: 06f8 01be 9511 37bd d7c2 703e d198 5ebc
00000360: 1b64 9cbe f2ad bc3e 4263 1fbe 982c e2bd
00000370: db4a 443f a912 46be 506d 823e f19b 04be
00000380: dd39 b1be 6968 203f d5e4 cf3a 57b7 26be
00000390: a523 1d3d 2430 30be 1a02 5e3d a066 b7bd
000003a0: d320 9dbe 3991 b7bc 6208 963d 3444 013e
000003b0: 69fe 0c3e acc9 103f 3809 2e3e db21 ac3d
000003c0: ada1 c9bd 1421 d8be 385f b7be 0aa5 60be
000003d0: 3890 453e 6202 8e3d 4a4d d03c 226b 763e
000003e0: deee 473d 1ef8 92bd 94ab cb3d 2775 b8bd
000003f0: cda2 a23d e819 97be f1b8 53be 2a1e 52be

network_body._body_endoder.seq_layers.2.bias f4 [128]
-0.006336171 -0.10318613 0.091184214 0.18371215 0.30052423 0.29614213 -0.08246007 0.15850419
-0.19152807 0.114951506 -0.028777115 -0.0055969725 0.22555381 0.06311893 0.17010167 0.21005376
-0.32906273 -0.21800016 -0.020525778 0.101773605 0.3761332 0.22021376 0.0023877772 0.32255942
-0.3213503 0.024905898 -0.14594634 0.11830767 -0.2102683 -0.20849364 0.0302459 0.013986882
-0.03405928 0.18057588 -0.002391103 -0.07227565 -0.15411524 0.13887174 0.1916296 0.3674409
0.08735943 0.15129207 -0.15913434 -0.1972643 -0.033854347 0.06644236 0.32490715 0.10983584
-0.18045944 -0.116731256 -0.06713268 -0.106813245 0.19755346 -0.18020764 -0.0126431165 0.21692789
-0.012571286 -0.15318869 0.001753952 0.30562928 -0.24231152 -0.19008432 -0.23117068 0.18618755
0.00499428 0.1071765 -0.2039404 0.10647375 0.038600754 0.02762768 -0.22776026 -0.076688185
-0.2213569 -0.12119423 0.058604505 0.34564054 0.19462396 0.0060537024 0.0107364 0.43808448
-0.057743855 0.52019805 -0.11759752 0.34368864 0.18713355 0.16122532 0.38835445 0.487314
0.30212337 0.20206271 0.0795491 0.3395099 0.33713987 -0.22743043 0.0029984429 -0.30471563
0.16966006 0.055954088 -0.13946256 0.12816079 0.0039472035 0.13130935 -0.005928581 0.03861571
0.45307776 0.110024825 0.4161573 0.2565983 0.0451225 0.027015807 -0.25643426 -0.07052332
0.11742885 0.26344386 0.15101539 0.17991354 -0.022826243 0.05190856 0.09508638 -0.35898262
-0.22774893 -0.19255626 0.07200606 -0.07390636 0.06783763 0.052629195 -0.07863314 -0.026995823
00000000: a89f cfbb 4053 d3bd cabe ba3d 0a1f 3c3e
00000010: 50de 993e f19f 973e d3e0 a8bd ec4e 223e
00000020: ef1f 44be b26b eb3d fcbd ebbc cf66 b7bb
00000030: 94f7 663e 7f44 813d 222f 2e3e 5518 573e
00000040: e97a a8be 6f3b 5fbe ad25 a8bc ae6e d03d
00000050: 8894 c03e b77f 613e 417c 1c3b 8226 a53e
00000060: 0788 a4be 7407 cc3c f572 15be 4b4b f23d
00000070: 9350 57be 5b7f 55be 40c6 f73c 3c29 653c
00000080: be81 0bbd e2e8 383e 0db4 1cbb 4205 94bd
00000090: 63d0 1dbe 6534 0e3e 8d3a 443e 3721 bc3e
000000a0: 80e9 b23d 4fec 1a3e 1df4 22be a7ff 49be
000000b0: dbaa 0abd ef12 883d 3b5a a63e 9df1 e03d
000000c0: 5cca 38be cc10 efbd dc7c 89bd e7c0 dabd
000000d0: 744b 4a3e 5a88 38be 1325 4fbc 5822 5e3e
000000e0: ccf7 4dbc 7fdd 1cbe dde4 e53a 717b 9c3e
000000f0: 8320 78be 77a5 42be 02b8 6cbe f3a7 3e3e
00000100: 0fa7 a33b 5a7f db3d c1d5 50be e90e da3d
00000110: d31b 1e3d 7253 e23c fc39 69be b20e 9dbd
00000120: 62ab 62be ae34 f8bd 470b 703d ccf7 b03e
00000130: 814b 473e 235e c63b bae7 2f3c 9c4c e03e
00000140: d284 6cbd b32b 053f f8d6 f0bd f5f7 af3e
00000150: f09f 3f3e 4018 253e 65d6 c63e 3881 f93e
00000160: eaaf 9a3e 87e9 4e3e a3ea a23d 3ed4 ad3e
00000170: 999d ac3e 86e3 68be 8681 443b b003 9cbe
00000180: 5ebb 2d3e 1d30 653d 46cf 0ebe 953c 033e
00000190: 8b57 813b f575 063e 8b44 c2bb 822b 1e3d
000001a0: cff9 e73e b254 e13d 9212 d53e da60 833e
000001b0: 5fd2 383d 4150 dd3c 5a4b 83be 886e 90bd
000001c0: 897e f03d 1de2 863e c7a3 1a3e 413b 383e
000001d0: 1afe babc 129e 543d a6bc c23d 92cc b7be
000001e0: 0437 69be 782d 45be ea77 933d 385c 97bd
000001f0: 75ee 8a3d b691 573d 690a a1bd 5826 ddbc

action_model._discrete_distribution.branches.0.weight f4 [7, 128]
-0.34203947 0.14959018 -0.05669848 -0.41203803 -0.4470741 0.10282623 -0.38103288 0.39353994
0.10063937 0.10432195 -0.20536481 -0.56695104 -1.4285803 -0.03332407 0.14991786 -0.31627375
-0.13012268 0.019408321 -0.2676688 0.30291784 0.0016904839 0.20443007 -0.06945002 0.1374144
-0.24287161 -0.7065691 0.024573911 -0.012007839 0.02130391 0.2936784 0.2715416 0.44628644
0.031142483 -0.3209796 -0.3003623 0.12298291 0.2968509 -0.09069014 -0.10075306 -0.19210324
0.26826057 0.3921845 0.07781937 0.3393256 -0.74576426 0.16278169 0.10158633 0.26464114
-0.00042827145 -0.08468253 0.35023946 -0.69537383 -0.054666515 -0.26784077 -0.19531056 -0.4077243
-0.42749593 0.053947184 0.1401974 0.15662113 -0.25592867 -0.30455032 0.035182532 0.028556827
0.11365787 0.38250342 0.15775779 0.45119634 -0.12835643 -0.35470924 -0.45091468 0.07663279
0.0070710294 0.1518505 0.019357707 -0.19982609 -0.021306777 0.18659416 -0.59313345 -0.5826145
-0.11012843 0.12687767 0.16643248 -0.49695697 -0.8939663 0.05435831 0.35150146 0.288571
0.15893413 0.22716081 0.13863297 0.46855998 0.066255614 -0.9177964 -0.39439973 0.025192907
0.07912269 0.10119599 -0.053461894 -0.6322871 -0.54506344 -0.76890516 0.25486872 -0.5104688
0.15931702 -0.76802653 -0.021685744 0.08353721 -0.4031703 0.0015729913 -0.07233575 -0.27033126
0.16963173 0.09598112 -0.3714928 -0.5330808 0.16981924 -0.22739884 0.044239663 -0.33528444
-0.49268317 0.21605067 -0.016950889 0.13262865 0.4664244 0.08578344 0.47748706 0.13892266
0.23188546 -0.48664865 -0.008901429 -0.06635196 -0.047325842 0.07858507 0.20092 -0.52402854
-0.2061668 0.49013758 -0.5809269 0.18992415 0.16935642 0.28852677 0.23325165 0.115188174
-0.60615206 0.75128776 0.3724473 -0.10050151 -0.23086332 -0.07924737 -0.1458956 -0.3446651
0.48271966 0.14962928 0.024199964 -0.2287808 0.40590513 0.6732742 -0.22580075 0.1607543
-0.4387769 0.30355728 0.4654489 0.14634974 0.12096458 0.730626 -0.5824322 0.73109937
0.47245264 -0.4322175 0.2326776 0.6166887 -0.14616589 0.56676763 0.5275434 -0.6035406
-0.0983977 0.35782313 -0.05290958 0.16557519 0.77208996 0.16979377 -0.37967277 -0.15680207
0.57849383 0.18969662 0.14706369 -0.27290386 0.43408653 0.6847639 0.16691858 0.07739506
-0.43722245 0.38755023 0.28497288 -0.6129323 -0.39418018 0.31913897 0.02770619 -0.1878466
0.45636767 -0.21547522 0.20841835 0.015980497 0.3765521 -0.06224879 0.043919686 -0.38992995
-0.10744918 -0.09775395 -0.27723682 0.8702154 0.34927022 0.25534418 -0.40903893 -0.57294995
0.22387867 0.3437093 0.92715275 0.3976908 -0.13376862 0.19116424 -0.08143523 0.6726801
0.33979338 0.16788852 -0.3858099 0.48684058 -0.7341341 -0.35959092 -0.24957329 0.17488433
0.46630433 -0.2949366 -0.080159456 0.4762033 -0.027008004 0.31004706 0.32870266 0.40258065
0.25260073 -1.0236417 0.06942611 0.2064418 0.47456965 0.3769529 0.004951482 0.3628045
0.8459805 -0.09284048 0.19382478 -0.35047477 -0.21897428 0.4116278 -0.041911256 0.52298576
00000000: cc1f afbe 2b2e 193e aa3c 68bd a6f6 d2be
00000010: e5e6 e4be 8f96 d23d be16 c3be 117e c93e
00000020: 041c ce3d bfa6 d53d 274b 52be b423 11bf
00000030: b8db b6bf d27e 08bd 1184 193e a2ee a1be
00000040: e13e 05be 33fe 9e3c e30b 89be 0c18 9b3e
00000050: 3a93 dd3a 1e56 513e d03b 8ebd 5cb6 0c3e
00000060: 56b3 78be b6e1 34bf 3a4f c93c 87bc 44bc
00000070: 8a85 ae3c 045d 963e 8007 8b3e a87f e43e
00000080: 851e ff3c 7057 a4be 16c9 99be 77de fb3d
00000090: d7fc 973e c1bb b9bd 9f57 cebd b6b6 44be
000000a0: 7359 893e 68cc c83e c35f 9f3d 16bc ad3e
000000b0: 68ea 3ebf 3eb0 263e 7e0c d03d 0b7f 873e
000000c0: 9f89 e0b9 096e adbd 9652 b33e 0504 32bf
000000d0: ffe9 5fbd 6d22 89be 7eff 47be 3dc1 d0be
000000e0: bfe0 dabe b9f7 5c3d e88f 0f3e 4a61 203e
000000f0: 1509 83be 05ee 9bbe 8f1b 103d 02f0 e93c
00000100: 75c5 e83d 7dd7 c33e 428b 213e 3503 e73e
00000110: de6f 03be 739c b5be 4ade e6be a7f1 9c3d
00000120: 18b4 e73b b37e 1b3e 0e94 9e3c 369f 4cbe
00000130: 8d8b aebc 8a12 3f3e 98d7 17bf 3926 15bf
00000140: 048b e1bd 38ec 013e 476d 2a3e 2571 febe
00000150: fada 64bf d2a6 5e3d 00f8 b33e 94bf 933e
00000160: a1bf 223e d89c 683e cdf5 0d3e 18e7 ef3e
00000170: 06b1 873d b4f4 6abf c3ee c9be 5b61 ce3c
00000180: 140b a23d d83f cf3d dcfa 5abd 91dd 21bf
00000190: 4789 0bbf f8d6 44bf 277e 823e 15ae 02bf
000001a0: 0024 233e 639d 44bf 4da6 b1bc 8f15 ab3d
000001b0: 566c cebe d42c ce3a c424 94bd dc68 8abe
000001c0: f1b3 2d3e c091 c43d 4e34 bebe fc77 08bf
000001d0: 18e5 2d3e 3edb 68be a634 353d 67aa abbe
000001e0: f840 fcbe 633c 5d3e 97dc 8abc cecf 073e
000001f0: 2ecf ee3e 3aaf af3d 2f79 f43e be41 0e3e
00000200: 6273 6d3e 032a f9be 4dd7 11bc 89e3 87bd
00000210: bed8 41bd 36f1 a03d f9bd 4d3e bc26 06bf
00000220: 641d 53be 50f3 fa3e a0b7 14bf 7a7b 423e
00000230: c56b 2d3e c8b9 933e 85d9 6e3e c7e7 eb3d
00000240: c82c 1bbf 6554 403f 6ab1 be3e bcd3 cdbd
00000250: 6f67 6cbe 724c a2bd a865 15be f277 b0be
00000260: 0827 f73e 6b38 193e 013f c63c 8445 6abe
00000270: ccd2 cf3e b35b 2c3f 5038 67be c69c 243e
00000280: 5ea7 e0be dc6b 9b3e 514f ee3e b5dc 153e
00000290: 47bc f73d 4e0a 3b3f 471a 15bf 5429 3b3f
000002a0: 50e5 f13e 9d4b ddbe 0943 6e3e 50df 1d3f
000002b0: 83ac 15be af17 113f 160d 073f a381 1abf
000002c0: bc84 c9bd 9834 b73e b7b7 58bd 8b8c 293e
000002d0: b0a7 453f 6bde 2d3e 7864 c2be b990 20be
000002e0: 2c18 143f d53f 423e dd97 163e 0eba 8bbe
000002f0: 9740 de3e b04c 2f3f b4ec 2a3e 4d81 9e3d
00000300: 9fdb dfbe fc6c c63e f7e7 913e 22e9 1cbf
00000310: fcd1 c9be 2f66 a33e 17f8 e23c dc5a 40be
00000320: 06a9 e93e 89a5 5cbe 9f6b 553e 88e9 823c
00000330: 70cb c03e 96f8 7ebd 21e5 333d e6a4 c7be
00000340: 510e dcbd 3933 c8bd fcf1 8dbe 70c6 5e3f
00000350: 8cd3 b23e 79bc 823e 8d6d d1be d9ac 12bf
00000360: 7340 653e aafa af3e e259 6d3f 219e cb3e
00000370: a4fa 08be 8fc0 433e 84c7 a6bd c334 2c3f
00000380: 66f9 ad3e f8ea 2b3e e088 c5be 2b43 f93e
00000390: 36f0 3bbf 4d1c b8be 2490 7fbe e114 333e
000003a0: 71bf ee3e ee01 97be a42a a4bd ebd0 f33e
000003b0: e43f ddbc 7dbe 9e3e b74b a83e 0d1f ce3e
000003c0: e254 813e b106 83bf 472f 8e3d 7b65 533e
000003d0: cbfa f23e f8ff c03e 0b40 a23b 83c1 b93e
000003e0: 2e92 583f 2623 bebd 017a 463e 6e71 b3be
000003f0: cb3a 60be e1c0 d23e 23ab 2bbd 65e2 053f

action_model._discrete_distribution.branches.0.bias f4 [7]
-0.19081485 -0.20356213 0.2269429 0.4048995 -0.622833 0.2434323 0.23506854
00000000: f864 43be 9772 50be b863 683e fd4e cf3e
00000010: fc71 1fbf 5146 793e cfb5 703e

exp_avg f4 [128, 163]
0.00016742431 -4.360079e-05 -2.0566022e-05 -0.0004698498 -0.0004767971 0.00017046521 -0.00010502914 -1.4492054e-05
-0.0004175364 -0.0004574716 -0.00046897872 5.1328432e-05 -4.1065665e-05 9.2123846e-05 -0.0001569558 -8.241716e-05
0.00018626635 -0.00018869429 -0.000281747 -0.00054399687 5.0922725e-05 -5.611163e-06 -0.00012135633 -0.0002905473
-0.0003609801 -0.0007021759 -0.0003722734 0.00015692519 0.0005509318 -0.00020268484 -4.2677748e-05 0.00036665515
9.554057e-05 -0.0007861102 -0.00037439234 -0.0008070201 -0.00027214066 0.00012272877 0.00058983994 0.00013765693
-0.0004682041 0.00043631924 0.0001501184 -0.00048482543 -0.0002846596 4.1527972e-05 -0.00075534283 -0.0004659424
0.0008131652 0.00012283231 2.8338029e-05 0.00017149623 5.7604484e-07 -0.0005670024 -0.00048567093 -0.00034499922
-0.00033301226 -0.0005125536 0.000823973 0.00036354642 0.00035701896 0.00027863772 -5.5577962e-05 -0.0009466709
-0.00065859535 0.00042955868 -0.0005387006 -0.0006412079 0.00038375802 0.00012615952 -0.00047526992 0.00055353774
-2.359e-05 -0.0004212698 -0.00041174443 -6.174874e-05 -0.0004155701 -0.0006324496 0.00074317626 0.0001414401
-0.0006356942 0.0006026868 -4.1652675e-07 -0.00033316825 -0.00047703055 0.00037790477 -0.0003624237 -0.00047887658
9.6803735e-05 -5.631862e-05 4.4086308e-05 0.0005225129 -4.1951065e-05 -0.0008912402 -0.0005978856 -0.0005270368
-0.0007141181 -0.000109165274 0.0009837281 5.0267903e-05 -0.0010634618 0.0006118643 2.1111264e-06 8.289429e-05
-0.00015455125 0.0007650218 -0.00060400227 0.00015414233 -0.0006817538 -0.00020132112 -0.0008970848 0.00043422886
5.7182497e-05 3.9081177e-05 -5.9657643e-05 -0.00028714695 -0.00043798488 0.00028601318 7.25265e-05 -0.00014949444
-7.3568284e-05 0.00064196135 3.3594524e-06 -0.0009383445 -0.00045934122 -0.00048688584 -0.00017260626 0.00019872971
9.417039e-05 -0.00016307083 0.0003169616 0.00035762074 -4.9540125e-05 -0.0009916343 -0.00057500595 0.00031459826
2.0125124e-05 0.00032059755 -0.001021913 -0.0005362444 -0.0002112165 0.00031354534 8.6917236e-05 -0.00055583834
-0.00045458932 -0.00037372173 -7.823568e-05 2.9526935e-05 5.5838376e-05 -0.00018182394 -0.00037372173 -7.823568e-05
2.9526935e-05 5.5838376e-05 -0.00018182362 5.658032e-06 -0.0011467565 -0.00027545023 0.0043566837 -0.00012600789
-0.00036659237 -0.00012742836 -6e-45 -0.00096181716 0.00088518026 -2.7878825e-05 0.0013196608 0.0012168621
0.00022035115 0.0011630929 -0.00020699289 3.8694125e-05 0.00049239246 0.000519177 0.0002856443 3.650336e-07
0.00040995894 0.0009770059 0.0017398952 0.00017310612 0.0001672969 -0.00086515397 -4.3649605e-05 0.00058508076
0.00086208596 1.7270857e-05 -0.0002492927 0.00083637977 0.0020266986 0.0007729416 -0.00044822623 -0.0011362693
-0.00033659313 0.00090130453 0.0006731807 -0.00010528392 -0.00025405595 2.536847e-05 0.0005466192 0.0009050255
0.00019691567 -0.00043341506 0.0008157776 0.00052843895 -0.00014002898 0.00015761178 0.0006691236 0.0006384567
-0.0008636012 0.0013773049 -0.00017816779 0.0008796092 0.0010683853 0.00053107063 8.236017e-05 0.00014993102
0.00045178286 0.0008760082 -0.00024011689 0.0014301091 -0.00031646152 0.00034161427 0.0009198376 -0.00044277209
0.00082266465 0.00047904262 0.0003562094 0.001331274 -0.0002717922 0.0016127953 0.00012369544 -0.00024955327
0.00059772603 0.00042609608 0.00048868754 0.000764867 -0.00046450537 0.0009086811 -0.0007807686 0.0013233332
7.311153e-05 0.00059946906 0.0008658427 0.0021336698 1.5281024e-05 0.0004939651 -0.0014277706 0.00024415815
0.00010164021 0.0007581841 -0.00018503197 0.000540353 0.00083017227 -0.0013540996 -0.00025972148 0.00040671357
00000000: 9f8e 2f39 fedf 36b8 3285 acb7 2c56 f6b9
00000010: a0fa f9b9 e8be 3239 1743 dcb8 e622 73b7
00000020: c9e8 dab9 ccd8 efb9 42e1 f5b9 7c49 5738
00000030: ec3d 2cb8 9d32 c138 8094 24b9 60d7 acb8
00000040: 7e50 4339 3ddc 45b9 71b7 93b9 039b 0eba
00000050: dc95 5538 8647 bcb6 af80 feb8 9954 98b9
00000060: ee41 bdb9 3a12 38ba b12d c3b9 498c 2439
00000070: 686c 103a cc87 54b9 e200 33b8 9f3b c039
00000080: f45c c838 f612 4eba 174a c4b9 348e 53ba
00000090: 1aae 8eb9 c1b0 0039 7d9f 1a3a 0058 1039
000000a0: 4a79 f5b9 c7c1 e439 1a69 1d39 2b30 feb9
000000b0: 5d3e 95b9 522e 2e38 3302 46ba bb49 f4b9
000000c0: 982a 553a 8ccc 0039 74b7 ed37 abd3 3339
000000d0: 80a1 1a35 e3a2 14ba a6a1 feb9 03e1 b4b9
000000e0: 2698 aeb9 e45c 06ba e4ff 573a 609a be39
000000f0: 462e bb39 1f16 9239 621c 69b8 022a 78ba
00000100: 96a5 2cba 6436 e139 9637 0dba bc16 28ba
00000110: 2133 c939 b049 0439 a62d f9b9 4a1b 113a
00000120: 24e3 c5b7 e0dd dcb9 67df d7b9 1a7f 81b8
00000130: e0e0 d9b9 f9ca 25ba b7d1 423a 8a4f 1439
00000140: b7a4 26ba a0fd 1d3a 009f dfb4 16ad aeb9
00000150: f519 fab9 8521 c639 b003 beb9 ba11 fbb9
00000160: 1c03 cb38 a837 6cb8 50e9 3838 3ff9 083a
00000170: 9df4 2fb8 1ea2 69ba 6cbb 1cba d728 0aba
00000180: a833 3bba a9ef e4b8 70f0 803a c0d6 5238
00000190: db63 8bba 8565 203a e0ac 0d36 88d7 ad38
000001a0: 090f 22b9 be8b 483a e855 1eba 44a1 2139
000001b0: b9b7 32ba ba19 53b9 582a 6bba 36a9 e339
000001c0: 3dd7 6f38 18eb 2338 e838 7ab8 368c 96b9
000001d0: 56a1 e5b9 0af4 9539 5e19 9838 9cc1 1cb9
000001e0: ac48 9ab8 4c49 283a f472 6136 3cfb 75ba
000001f0: bcd3 f0b9 b644 ffb9 a4fd 34b9 1a62 5039
00000200: 587d c538 fefd 2ab9 de2d a639 0b7f bb39
00000210: 4ec9 4fb8 baf9 81ba ffbb 16ba aaf0 a439
00000220: 60d2 a837 e015 a839 b6f1 85ba c192 0cba
00000230: ff79 5db9 5863 a439 5647 b638 aeb5 11ba
00000240: f255 eeb9 15f0 c3b9 7612 a4b8 9cb0 f737
00000250: 0034 6a38 fea7 3eb9 15f0 c3b9 7612 a4b8
00000260: 9cb0 f737 0034 6a38 e8a7 3eb9 20da bd36
00000270: c34e 96ba 4e6a 90b9 83c2 8e3b fc20 04b9
00000280: 3233 c0b9 4a9e 05b9 0400 0080 7522 7cba
00000290: 710b 683a 52dd e9b7 78f8 ac3a 1e7f 9f3a
000002a0: 100e 6739 ec72 983a 3b0c 59b9 804b 2238
000002b0: e613 013a 6119 083a 87c2 9539 d6f9 c334
000002c0: c2ef d639 e10e 803a 320d e43a d283 3539
000002d0: 6b6c 2f39 80cb 62ba 6814 37b8 1b60 193a
000002e0: 9cfd 613a e2e0 9037 80b3 82b9 7f40 5b3a
000002f0: 5cd2 043b 3c9f 4a3a e8ff eab9 dfee 94ba
00000300: c478 b0b9 8645 6c3a 6478 303a e0cb dcb8
00000310: d032 85b9 60ce d437 fe4a 0f3a 3c3f 6d3a
00000320: 267b 4e39 fc3b e3b9 e8d9 553a f086 0a3a
00000330: bed4 12b9 9744 2539 2068 2f3a 1b5e 273a
00000340: 4c63 62ba af86 b43a 8dd2 3ab9 9395 663a
00000350: 1009 8c3a 8c37 0b3a c8b8 ac38 cd36 1d39
00000360: 45dd ec39 eaa3 653a e3c7 7bb9 8072 bb3a
00000370: bfea a5b9 b11a b339 4221 713a dd23 e8b9
00000380: 17a8 573a 0328 fb39 9ec1 ba39 257e ae3a
00000390: 557f 8eb9 6e64 d33a 3eb4 0139 79d6 82b9
000003a0: b7b0 1c3a a665 df39 441b 003a 5b81 483a
000003b0: db88 f3b9 8e34 6e3a 7eac 4cba b273 ad3a
000003c0: 7453 9938 b025 1d3a b8f9 623a 0ad5 0b3b
000003d0: c02f 8037 707d 013a 0824 bbba 5a02 8039
000003e0: ac27 d538 e0c0 463a 2405 42b9 7aa6 0d3a
000003f0: eb9f 593a 0b7c b1ba 3a2b 88b9 2c3c d539

exp_avg_sq f4 [128, 163]
1.027164e-05 6.010392e-07 2.0167069e-07 2.1342696e-05 2.754984e-05 1.1674505e-05 9.4066036e-07 2.31509e-07
2.0399526e-05 2.7479942e-05 1.101773e-05 8.9892325e-07 2.0576084e-07 2.0736183e-05 2.7162558e-05 1.1330181e-05
1.7758745e-06 2.8385034e-07 1.953169e-05 2.6093425e-05 9.504685e-06 1.3244303e-06 3.0357802e-07 2.1634101e-05
2.650555e-05 1.236462e-05 2.5577265e-06 5.771327e-07 1.7856706e-05 2.4519159e-05 1.1573674e-05 1.7738796e-06
5.229732e-07 1.972541e-05 2.449377e-05 1.0678142e-05 3.0906797e-06 1.1390293e-06 1.8285127e-05 2.4036168e-05
9.958123e-06 2.2045647e-06 7.311583e-07 1.9739908e-05 2.4667914e-05 1.0143898e-05 3.7086327e-06 1.9441047e-06
1.7594208e-05 2.359119e-05 9.709376e-06 2.4273484e-06 7.4245554e-07 2.0201664e-05 2.5078654e-05 7.822053e-06
4.6183845e-06 2.2594722e-06 1.8336912e-05 2.4287781e-05 9.336912e-06 2.8963161e-06 8.6621515e-07 2.0109703e-05
2.523713e-05 8.080568e-06 4.7691074e-06 2.1763015e-06 1.7853066e-05 2.4061328e-05 9.346809e-06 3.068564e-06
9.933638e-07 1.993131e-05 2.574504e-05 8.375102e-06 4.869984e-06 2.094524e-06 1.8312383e-05 2.474052e-05
8.233366e-06 3.0879307e-06 8.328558e-07 2.1086622e-05 2.6464337e-05 7.3504e-06 4.6903942e-06 1.8279476e-06
2.011499e-05 2.5568801e-05 9.6886515e-06 2.7922208e-06 8.595238e-07 2.0092943e-05 2.694437e-05 6.5440004e-06
4.693549e-06 1.5724581e-06 2.0582747e-05 2.636355e-05 8.105787e-06 2.7113501e-06 7.5588775e-07 2.2127e-05
2.736272e-05 6.215411e-06 4.0829646e-06 1.6179903e-06 2.1745145e-05 2.7038956e-05 7.212474e-06 2.1322232e-06
6.538623e-07 2.4011386e-05 2.8584494e-05 6.0155126e-06 3.5187527e-06 1.5794283e-06 2.2773354e-05 2.7912398e-05
7.0586857e-06 1.494959e-06 4.7426067e-07 2.4144443e-05 2.8976072e-05 4.896751e-06 2.830965e-06 1.3931694e-06
2.4385976e-05 2.9425397e-05 6.971367e-06 1.0446774e-06 2.7547205e-07 2.497005e-05 2.9863755e-05 5.331077e-06
1.670036e-06 7.285625e-07 2.6912336e-05 3.1055635e-05 7.130154e-06 7.3220974e-07 1.5534913e-07 2.6513575e-05
3.0747888e-05 4.2490506e-06 1.0586584e-06 2.8638738e-07 2.9448693e-05 3.24116e-05 4.2490506e-06 1.0586584e-06
2.8638738e-07 2.9448693e-05 3.24116e-05 1.2204977e-06 7.037025e-05 2.3424136e-06 0.0880778 4.942652e-06
3.5345653e-05 2.6705459e-06 1.5145398e-08 3.0479996e-05 6.089393e-06 5.246852e-07 8.166768e-05 0.00010448341
3.0452617e-05 7.41476e-06 1.190496e-06 7.8110665e-05 0.00010493924 3.348361e-05 7.678064e-06 2.0141054e-07
7.951885e-05 0.00010123909 3.094307e-05 9.621561e-06 1.5603905e-06 7.429957e-05 0.00010169872 3.1474592e-05
1.0479063e-05 2.5423475e-07 7.4433534e-05 9.821856e-05 2.9765932e-05 1.3107671e-05 2.0640348e-06 7.096457e-05
9.882891e-05 2.7925715e-05 1.3069538e-05 8.044439e-07 7.26568e-05 9.613172e-05 2.6987604e-05 1.5185213e-05
3.0526694e-06 7.2368355e-05 9.730899e-05 2.5899659e-05 1.6244061e-05 1.6743702e-06 6.909236e-05 9.318044e-05
2.3503353e-05 1.6426471e-05 6.470084e-06 7.050104e-05 9.55545e-05 2.6525091e-05 1.8618717e-05 2.9768803e-06
6.605563e-05 8.916849e-05 2.5868376e-05 1.798234e-05 8.810394e-06 6.234896e-05 8.916448e-05 2.4542389e-05
2.275504e-05 4.027112e-06 6.398401e-05 8.7266264e-05 2.3678283e-05 1.9520914e-05 9.104929e-06 6.324124e-05
8.774904e-05 2.467349e-05 2.4179382e-05 4.90742e-06 5.8943162e-05 8.519361e-05 2.4804604e-05 1.9655306e-05
8.384537e-06 6.017757e-05 8.765862e-05 2.5339821e-05 2.5608379e-05 5.151124e-06 5.6627377e-05 8.40091e-05
2.337492e-05 1.8982557e-05 8.323618e-06 6.3964435e-05 9.073061e-05 2.1777134e-05 2.3444312e-05 4.7526883e-06
00000000: 5c54 2c37 1957 2135 d18a 5834 1709 b337
00000010: d51a e737 9edd 4337 b081 7c35 b694 7834
00000020: a61f ab37 ba84 e637 cad8 3837 894d 7135
00000030: 1cef 5c34 9df2 ad37 26db e337 c216 3e37
00000040: 955a ee35 1864 9834 fcd7 a337 34e3 da37
00000050: 5076 1f37 14c3 b135 72fb a234 e17a b537
00000060: 3c58 de37 a371 4f37 68a5 2b36 42ec 1a35
00000070: fcca 9537 7eae cd37 8d2c 4237 0a16 ee35
00000080: 7262 0c35 ff77 a537 f877 cd37 4526 3337
00000090: 7969 4f36 c0e0 9835 0363 9937 47a1 c937
000000a0: d011 2737 22f2 1336 d144 4435 2197 a537
000000b0: f1ed ce37 b62f 2a37 d3e1 7836 7777 0236
000000c0: 4697 9337 b2e5 c537 74e5 2237 87e5 2236
000000d0: 284d 4735 be76 a937 0060 d237 763b 0337
000000e0: 9ff7 9a36 70a1 1736 38d2 9937 9dbd cb37
000000f0: bba5 1c37 555e 4236 da85 6835 42b1 a837
00000100: 53b4 d337 c691 0737 5206 a036 930c 1236
00000110: 2bc3 9537 4fd7 c937 3dd0 1c37 87ed 4d36
00000120: b853 8535 2a32 a737 0df7 d737 ca82 0c37
00000130: d868 a336 a68f 0c36 8b9d 9937 dd89 cf37
00000140: 0a22 0a37 3f3a 4f36 6a91 5f35 2de3 b037
00000150: bbff dd37 75a3 f636 2e62 9d36 cd57 f535
00000160: 9dbc a837 957c d637 718c 2237 fd61 3b36
00000170: 07ba 6635 448d a837 9806 e237 8994 db36
00000180: 477d 9d36 400d d335 1da9 ac37 4b27 dd37
00000190: 17fe 0737 a4f4 3536 36e8 4a35 5f9d b937
000001a0: fe88 e537 f98d d036 6600 8936 b929 d935
000001b0: 5869 b637 b7d1 e237 ae02 f236 5117 0f36
000001c0: 1385 2f35 0f6c c937 bcc8 ef37 dcd8 c936
000001d0: b623 6c36 befc d335 6809 bf37 6b25 ea37
000001e0: a6d9 ec36 66a6 c835 e49d fe34 cc89 ca37
000001f0: a411 f337 c54e a436 9cfb 3d36 f0fc ba35
00000200: 7c90 cc37 8fd6 f637 96eb e936 d836 8c35
00000210: 97e4 9334 c676 d137 ed83 fa37 9ae1 b236
00000220: 0026 e035 6f92 4335 cdc1 e137 bc41 0238
00000230: 8e3f ef36 128d 4435 0bce 2634 7869 de37
00000240: 4bf7 0038 1193 8e36 3a17 8e35 c8c0 9934
00000250: 9608 f737 b1f1 0738 1193 8e36 3a17 8e35
00000260: c8c0 9934 9608 f737 b1f1 0738 fbcf a335
00000270: be93 9338 5c32 1d36 2262 b43d 0fd9 a536
00000280: 1b40 1438 a137 3336 1519 8232 4baf ff37
00000290: 7d53 cc36 18d8 0c35 0045 ab38 1b1e db38
000002a0: 7f74 ff37 4ecc f836 22c9 9f35 58cf a338
000002b0: d312 dc38 c170 0c38 09d1 0037 4f43 5834
000002c0: 5cc3 a638 5350 d438 dec8 0138 4a6c 2137
000002d0: 9c6e d135 47d1 9b38 1647 d538 9603 0438
000002e0: 3ccf 2f37 c27d 8834 3319 9c38 b0fa cd38
000002f0: dab1 f937 05e9 5b37 d983 0a36 d0d2 9438
00000300: 5e42 cf38 0442 ea37 3d45 5b37 f7f0 5735
00000310: 535f 9838 539a c938 7063 e237 fec3 7e37
00000320: 76dc 4c36 77c4 9738 5e12 cc38 1843 d937
00000330: db43 8837 ecba e035 aee5 9038 de69 c338
00000340: 1129 c537 94cb 8937 9919 d936 f5d9 9338
00000350: 6e64 c838 3382 de37 642f 9c37 6ac6 4736
00000360: 5987 8a38 f8ff ba38 eaff d837 c8d8 9637
00000370: 5bd0 1337 58c1 8238 d1fd ba38 61e0 cd37
00000380: 14e2 be37 a120 8736 272f 8638 b802 b738
00000390: baa0 c637 d8c0 a337 5fc1 1837 62a0 8438
000003a0: e805 b838 ebf9 ce37 d4d4 ca37 6baa a436
000003b0: bd39 7738 f9a9 b238 7b13 d037 73e1 a437
000003c0: 50ab 0c37 2c67 7c38 5dd5 b738 da90 d437
000003d0: 93d1 d637 d1d7 ac36 2f83 6d38 0b2e b038
000003e0: 4215 c437 bb3c 9f37 aba5 0b37 a524 8638
000003f0: a046 be38 0aae b637 47aa c437 4879 9f36

exp_avg f4 [128]
-0.00036659196 0.001215145 0.00012372612 -7.734627e-06 -2.9326561e-06 0.00021188741 7.563667e-05 -0.0004877153
1.5141053e-05 -1.02521085e-07 -0.0012830826 0.0012275684 0.00015317078 -6.154054e-06 -0.0009716629 0.00019687775
8.6460626e-05 0.00024024103 -0.001310674 -0.0003770512 -0.0005417139 0.00014760728 0.00030701223 -0.00041474204
0.00013900589 -1.4262703e-05 -0.0005229031 9.990477e-05 -0.0008832062 0.00060244 -0.0004994772 -9.4714414e-05
0.0007756734 -0.0006489621 0.00014890723 -7.4499134e-05 0.00020785589 7.726119e-05 -9.7281285e-05 0.0017213426
0.0004680547 -0.000112043475 -0.00015883573 0.0003851367 -2.0066018e-06 -0.0012810859 -0.000100776626 -0.00066391856
0.00016869036 7.992865e-05 1.6143465e-05 -0.00089449633 0.00014370627 -0.00011907247 0.00028500898 0.0018251163
-0.0005497559 -0.00017899707 0.0004739911 -0.0013518741 0.000526343 0.00018494242 -0.00043202873 8.27176e-05
-0.00023375607 0.0012629434 -0.00021570215 -0.00064889784 0.00012518551 2.606554e-06 -1.5484286e-05 -6.098822e-05
-0.00013360479 -0.0003231488 0.00039881616 -0.00050457864 -0.0016816126 -0.00022776693 0.00046180224 0.0003254149
0.0009899699 -0.00068482826 0.00023982802 -0.0004410705 -0.00017186585 -0.0012361029 -0.0014333399 -0.00021752426
-0.0005469071 -0.0003810638 0.0007397529 -0.00011561875 -2.0675887e-05 -0.00026175944 -0.00063777843 0.0006038404
-0.0011804836 4.0103123e-07 -0.0001855861 -0.00028142703 -0.00024698186 -2.834243e-05 -0.001302311 0.0005544255
-0.00038203914 -0.00015615208 0.00076622225 -2.828148e-05 -0.001280873 6.6013054e-06 -0.00060820294 -2.3768775e-05
0.00031202784 0.0021705169 0.0006106356 -0.0007953313 -0.0019730092 0.000884206 -0.00040817785 -0.0001375122
-7.87211e-05 0.0007684177 0.00061206624 -0.0011351062 1.7751594e-05 -0.00014951866 -0.0005987656 0.00014826746
00000000: 2433 c0b9 8045 9f3a 7abc 0139 f8c3 01b7
00000010: a6ce 44b6 182e 5e39 219f 9e38 0ab4 ffb9
00000020: 5406 7e37 9029 dcb3 1c2d a8ba 5ce6 a03a
00000030: 789c 2039 ec7e ceb6 32b7 7eba f870 4e39
00000040: 3252 b538 36e9 7b39 ecca abba f5ae c5b9
00000050: ce01 0eba 07c7 1a39 7cf6 a039 bc71 d9b9
00000060: 1cc2 1139 d849 6fb7 6f13 09ba f783 d138
00000070: f786 67ba 10ed 1d3a 59ef 02ba 6aa1 c6b8
00000080: 9056 4b3a 1c1f 2aba fb23 1c39 6b3c 9cb8
00000090: e4f3 5939 4907 a238 7e03 ccb8 ac9e e13a
000000a0: 3d65 f539 e2f8 eab8 248d 26b9 2cec c939
000000b0: 28a9 06b6 1cea a7ba 0a58 d3b8 d20a 2eba
000000c0: 79e2 3039 5e9f a738 d46b 8737 a27c 6aba
000000d0: dcaf 1639 8cb6 f9b8 426d 9539 be38 ef3a
000000e0: 7e1d 10ba 29b1 3bb9 0282 f839 5e31 b1ba
000000f0: 48fa 093a 1aed 4139 ea81 e2b9 ac78 ad38
00000100: 6b1c 75b9 5989 a53a 1b2e 62b9 cc1a 2aba
00000110: 3b44 0339 42ec 2e36 40e4 81b7 9acd 7fb8
00000120: 4318 0cb9 4c6c a9b9 3318 d139 b345 04ba
00000130: 8e69 dcba b8d4 6eb9 0c1e f239 739c aa39
00000140: e1c1 813a 0c86 33ba 587a 7b39 7b3f e7b9
00000150: e336 34b9 bb04 a2ba e8de bbba 3917 64b9
00000160: 505e 0fba 84c9 c7b9 faeb 413a 5878 f2b8
00000170: 2171 adb7 c23c 89b9 9630 27ba 0b4b 1e3a
00000180: 75ba 9aba 504d d734 e499 42b9 7f8c 93b9
00000190: 587d 81b9 e8c0 edb7 4eb2 aaba de56 113a
000001a0: 6d4c c8b9 c1bc 23b9 4edc 483a 043e edb7
000001b0: f7e2 a7ba c880 dd36 cf6f 1fba 0e63 c7b7
000001c0: ab97 a339 3b3f 0e3b 1013 203a c87d 50ba
000001d0: 9a4d 01bb 0fca 673a b400 d6b9 2631 10b9
000001e0: 1217 a5b8 a46f 493a 1273 203a d8c7 94ba
000001f0: 42e9 9437 1cc8 1cb9 7bf6 1cba 3e78 1b39

exp_avg_sq f4 [128]
3.5362562e-05 0.00013494147 3.054118e-05 1.0381003e-07 4.104614e-10 1.3876484e-05 3.757889e-08 1.4811156e-05
1.1790807e-08 4.1399596e-07 4.6874735e-05 0.000115837574 1.0189655e-06 4.5663153e-09 9.667515e-06 5.652589e-07
2.8544873e-05 4.8378536e-07 4.2922788e-05 1.6819862e-06 1.029505e-05 9.497612e-06 1.3715695e-05 7.405966e-05
1.1933981e-05 1.5863128e-08 1.3253886e-05 2.329886e-06 6.706743e-06 2.2508237e-05 6.0643833e-06 1.8521347e-05
0.00014049587 8.36911e-06 2.9596293e-07 1.054334e-06 7.979267e-06 6.261719e-08 3.4305758e-05 6.2978885e-05
1.1243172e-05 8.521717e-07 0.0001024246 3.1436997e-05 1.777682e-07 1.6376793e-05 2.1056871e-07 4.1815052e-05
2.0296427e-05 1.1276885e-06 2.67891e-06 1.2170378e-05 6.848238e-05 2.0299425e-05 6.9225334e-06 8.97448e-05
1.8440362e-05 3.4465454e-06 1.550465e-05 0.00016645368 1.4720349e-05 4.6532463e-07 1.869777e-05 1.08873785e-07
1.2114702e-05 1.9322531e-05 1.2038009e-05 3.0179006e-05 6.0204416e-06 6.858799e-11 4.4346358e-05 2.1074882e-08
2.9457283e-06 3.2087406e-05 1.1068961e-05 8.565506e-06 2.269695e-05 2.556233e-05 1.3226406e-05 2.1309286e-05
6.213247e-05 2.688014e-05 9.505869e-06 7.654744e-05 3.7143586e-06 0.00015812571 4.0863906e-05 2.3253448e-05
1.4542718e-05 7.755005e-06 2.439737e-05 1.00205025e-05 1.4321156e-08 2.231316e-05 8.030085e-06 3.0867977e-05
3.748649e-05 2.7431016e-08 3.077564e-06 5.256484e-06 2.5342093e-05 1.5921009e-07 8.91721e-05 2.236909e-05
2.403115e-06 1.0923776e-05 2.1146188e-05 2.1795572e-07 1.854661e-05 4.086963e-08 7.456705e-06 8.990909e-09
3.0072315e-06 0.00016154141 2.490786e-05 1.6106596e-05 4.3220996e-05 1.826226e-05 1.1285768e-05 1.0828764e-05
2.7458827e-07 7.7636305e-06 3.9687393e-06 5.308006e-05 2.881022e-08 5.2022617e-05 5.212317e-06 9.761535e-08
00000000: 4352 1438 137f 0d39 5819 0038 2bee de33
00000010: 4ea7 e12f 0ccf 6837 6d66 2133 6e7d 7837
00000020: 8590 4a32 2c43 de34 5d9b 4438 d3ed f238
00000030: 63c3 8835 bce5 9c31 a931 2237 4cbc 1735
00000040: a673 ef37 7add 0135 fe07 3438 9bc0 e135
00000050: e7b8 2c37 ef57 1f37 761c 6637 7a50 9b38
00000060: 0f38 4837 6343 8832 025d 5e37 235b 1c36
00000070: 7c0a e136 12d0 bc37 a87c cb36 4a5e 9b37
00000080: 1352 1339 0e69 0c37 d6e4 9e34 a482 8d35
00000090: b1de 0537 2a78 8633 87e3 0f38 8813 8438
000000a0: 0ea1 3c37 cbc0 6435 cacc d638 38db 0338
000000b0: 8de0 3e34 e560 8937 b018 6234 9262 2f38
000000c0: 3f42 aa37 155b 9735 53c7 3336 602f 4c37
000000d0: 339e 8f38 af48 aa37 1c48 e836 5f35 bc38
000000e0: 60b0 9a37 334b 6736 fb0f 8237 128a 2e39
000000f0: 6bf7 7637 bbd1 f934 28d9 9c37 ffcd e933
00000100: 4040 4b37 d216 a237 dbf6 4937 ec28 fd37
00000110: 3303 ca36 9bd3 962e 8a00 3a38 2808 b532
00000120: 3aaf 4536 9795 0638 d3b4 3937 91b4 0f37
00000130: 5465 be37 b06e d637 fbe6 5d37 58c1 b237
00000140: 1e4d 8238 a97c e137 657b 1f37 1888 a038
00000150: 3244 7936 8cce 2539 4965 2b38 6610 c337
00000160: 80fc 7337 7e1b 0237 f4a8 cc37 bb1d 2837
00000170: 1c09 7632 252d bb37 f4b8 0637 3d78 0138
00000180: d03a 1d38 71a1 eb32 2688 4e36 db60 b036
00000190: bb95 d437 56f3 2a34 e801 bb38 41a5 bb37
000001a0: 3445 2136 4345 3737 1863 b137 3607 6a34
000001b0: 8b94 9b37 a288 2f33 9c34 fa36 7076 1a32
000001c0: d8cf 4936 7163 2939 39f1 d037 a71c 8737
000001d0: 3148 3538 e831 9937 0158 3d37 30ad 3537
000001e0: 206b 9334 8a40 0237 362b 8536 48a2 5e38
000001f0: 587a f732 dc32 5a38 76e5 ae36 9ba0 d133
