Source/Trained_Policies/WeightAgent_Training/WeightAgent_Training/WeightAgent_Training-245499938.onnx (onnx, 155824 bytes, 6 tensors)

network_body._body_endoder.seq_layers.0.weight f4 [128, 163]
000000 23 d0 93 3e 78 76 f3 be 9d 92 9c 3d fb 6e 3d 3e
       0.28869733 -0.47551322 0.07645152 0.18499367
000010 13 2d dd 3e 62 fa 27 bd fa a5 e5 be 0c 28 8a be
       0.4319845 -0.041010268 -0.44853193 -0.26983678
000020 24 2a 03 3e 0c 44 3a 3f 6e 2b a1 3e 46 40 60 be
       0.12809044 0.7276008 0.31478447 -0.21899518
000030 f8 32 d3 3e ce 82 da bc 77 78 22 3e 82 47 9f bd
       0.41249824 -0.0266737 0.15866266 -0.07777311
000040 81 dd b8 be 02 1e 66 bf 22 91 27 3d 20 aa 06 3f
       -0.36106494 -0.8988954 0.040909894 0.5260334
000050 d3 48 fb 3e 81 09 0c bc 1f f8 2b 3f 42 96 b6 3e
       0.49078998 -0.008547188 0.6717548 0.35661513
000060 9b 6b 05 bf 5c ed a9 be 26 de b0 be 1d 47 eb be
       -0.5211732 -0.33188903 -0.34544486 -0.45952693
000070 27 f8 7a be 48 a7 db 3e 45 26 5f 3e 2a 6b 57 3d
       -0.24508725 0.42901063 0.21791942 0.052592434
000080 af 01 12 3f 65 5e 02 3e 65 d1 15 bf 90 cf 7c be
       0.5703382 0.12731321 -0.58522636 -0.24688554
000090 3c 24 2e bf 21 da 45 be a0 a3 3b be fc f5 79 3e
       -0.6802404 -0.19321491 -0.18324137 0.24410242
0000a0 a0 a2 3e 3e da c8 33 3e ce 57 0d 3f 63 b0 78 3e
       0.18616724 0.17557088 0.55212104 0.24286036
0000b0 dd 30 1c bf db a6 d2 be 1c f0 00 bf 3a c3 14 3c
       -0.6101206 -0.41142926 -0.5036638 0.009079749
0000c0 e2 ae 15 be aa c7 b2 3d fc 5d 0f 3f 42 b9 9d 3e
       -0.14617494 0.08729489 0.56002784 0.30805403
0000d0 b8 16 e6 3d 88 00 25 3f 67 9a 8d be f7 50 a1 be
       0.11234802 0.64453936 -0.27656862 -0.31507084
0000e0 96 f6 79 3d 62 34 64 3e aa f0 38 be 68 42 a4 3e
       0.06102618 0.22285607 -0.18060556 0.32081914
0000f0 df 20 d6 3e 78 85 d6 3d 21 7d 87 3e 78 f0 a6 3c
       0.41821954 0.10474676 0.26462653 0.020378336
000100 71 68 bb be 2c 07 82 be d4 9b 87 be 49 9f 2b 3e
       -0.3660312 -0.25396097 -0.26486075 0.16759981
000110 98 47 e1 bd 56 ea 27 3e 4d 4f 0b 3f 37 8e 07 bd
       -0.109999835 0.16397986 0.5441788 -0.03309461
000120 d0 da ac 3e 8d cb 29 3e 62 52 e5 bd 2a 6d 24 3e
       0.3376069 0.16581555 -0.11197354 0.16057268
000130 5b ea da 3c ae 96 77 3e f7 d5 65 be 74 5e 83 3d
       0.026723078 0.24178573 -0.22444902 0.064145
000140 b1 60 ad 3e 9c 22 d9 be 08 ab 71 be dc 5b f7 3d
       0.33862832 -0.42409217 -0.236004 0.12078068
000150 a5 51 2a bb d8 ce 2b 3e f1 e3 c5 be d7 c3 84 bd
       -0.0025988605 0.16778123 -0.38650468 -0.06482666
000160 a9 a3 ca bd ac 2f e7 3d ed 11 1c 3e db 79 78 3e
       -0.09894497 0.112883896 0.15241213 0.24265234
000170 01 19 92 be 8f 31 e8 bd 9c b0 30 3b 2f 52 e3 bd
       -0.285347 -0.113375776 0.0026960736 -0.1109966
000180 a2 a0 ca bd cb 16 56 3e 6d 24 48 be 45 51 2b 3d
       -0.098939195 0.20907132 -0.19545145 0.04182555
000190 7c 70 69 3d 74 c9 55 be 07 cf 50 be 1c 8f ed 3d
       0.05699204 -0.2087763 -0.20391475 0.115995616
0001a0 f0 17 3d 3c fa d5 3c 3d f9 25 24 be 2b 7c fd 3c
       0.011541352 0.0461025 -0.1603011 0.030942997
0001b0 d4 31 3c 3e 17 68 1e 3d 54 f5 f0 3d 18 c4 a3 be
       0.18378383 0.038673487 0.117655426 -0.31985545
0001c0 52 63 78 bd 16 fb 95 3e 3a b6 98 bd f2 2e 69 be
       -0.060641594 0.29293126 -0.07456632 -0.22771814
0001d0 49 6e a5 3d f9 52 1a be 58 3b 48 bd 73 d0 24 3e
       0.08077676 -0.15070714 -0.04888472 0.16095142
0001e0 0a 9f a9 3c fd 9b d0 be 10 9c b7 3d e6 10 43 3e
       0.020705719 -0.4074401 0.089653134 0.19049415
0001f0 f5 b5 4e be 55 b7 ad be 58 ed 21 3e cd cf 21 3c
       -0.20186599 -0.33928934 0.15813196 0.009876204
000200 d1 96 2f 3e f3 d6 d3 3d 74 f6 fc bd 62 31 7d bd
       0.17147376 0.10343733 -0.12351695 -0.061814673
000210 70 db 22 3d de 4d fd bd e3 92 83 be 41 84 05 bd
       0.039760053 -0.123683676 -0.25698003 -0.03259683
000220 75 73 6a be af fc 6e be 3f c5 0a 3e 6a 37 99 3d
       -0.22895606 -0.23338579 0.13551806 0.074812725
000230 f6 24 a2 be ee 4b 56 be 46 a1 b3 be 60 8c 07 3d
       -0.31668824 -0.20927402 -0.3508398 0.033092856
000240 8b 01 1d be 3b 7b 1e be 27 b9 d0 bd e8 d9 8f 3d
       -0.1533262 -0.15476696 -0.10191565 0.07023984
000250 46 14 4c bd c9 49 a6 3d 9f f1 49 be cb 8c 82 be
       -0.04982402 0.08119542 -0.19721077 -0.25498042
000260 2b 87 b2 bc 97 0f 96 3d e8 85 41 3d 01 06 83 bd
       -0.021792969 0.07327192 0.047246844 -0.063976295
000270 51 c3 98 3e 58 b0 8e be 46 b1 bb bc 5b dd 97 bd
       0.29836515 -0.27868915 -0.022911679 -0.07415267
000280 cb e3 7f 3d af e2 2e 3e 30 23 1f bf 74 0a 3e 3c
       0.0624731 0.1707866 -0.62163067 0.011599172
000290 5e 72 f8 3e df f7 df bd 5a 74 82 bd b4 b4 12 bf
       0.48524755 -0.109359495 -0.063698485 -0.5730698
0002a0 0d 5a 90 3d b1 6a 62 3e ec d0 3b 3d 28 c6 13 3e
       0.07048426 0.22111012 0.04585354 0.1443106
0002b0 75 80 7e bf 11 5a 66 3e 6e 4d 86 3d a1 fb 49 bf
       -0.9941476 0.22495295 0.06557737 -0.7889958
0002c0 5d af ed 3e e2 bd 01 bf b8 82 33 3d a7 19 cc 3e
       0.46422854 -0.50680363 0.043825835 0.3986332
0002d0 aa e6 9e 3e b1 4a 00 bd db c9 6d bf cd dd ce 3e
       0.31035358 -0.03132123 -0.9288613 0.40403596
0002e0 af a6 65 3e c3 4a ac bf 1c 6b 37 3e f1 02 36 be
       0.22426866 -1.3460315 0.17911953 -0.1777456
0002f0 46 3c 28 be 4e e8 86 3d d5 3b 4e 3e 90 1d b9 3e
       -0.16429242 0.06587277 0.20140012 0.36155367
000300 ed be 15 bf ec 3c 2b bd 4d f2 88 3e 7e a1 4c bf
       -0.58494455 -0.041806147 0.2674736 -0.7993392
000310 d6 5e 7a 3e e9 f8 db 3c 7a 46 87 bd ac df 5b 3c
       0.2445024 0.026852088 -0.06605239 0.013420027
000320 d3 9c 63 3e 84 5b 2e 3e 5d b0 2f bf f1 42 73 3d
       0.22227792 0.17027098 -0.68628484 0.059390012
000330 e1 22 a7 3e 92 fd f2 be f2 25 a9 3d 65 a9 ee 3d
       0.32643798 -0.47459084 0.082591906 0.11653403
000340 b8 bc b8 3b 58 58 a2 3d fa a7 9d 3e b5 ea 97 3e
       0.0056377314 0.079270065 0.30792218 0.29671255
000350 90 1c e7 be db 31 c4 3d fa 08 a1 3e e0 c5 39 be
       -0.4513898 0.09579822 0.3145216 -0.1814189
000360 58 c0 be bc 74 82 17 3e b7 9f 40 3d b9 11 03 3e
       -0.023285076 0.14795858 0.047027316 0.1279973
000370 fc 2c 26 3e 81 7e 70 3e b8 4c 6d bd 58 c1 b7 3c
       0.16228098 0.23485757 -0.057934493 0.02243106
000380 ff 08 49 3e a5 a5 26 3e b3 d6 87 bd 0d 19 04 3e
       0.19632338 0.16274126 -0.066327475 0.12900181
000390 2c c7 be 3c 4f fe 97 3e 67 85 4d 3e e6 74 cb bc
       0.023288332 0.2968621 0.2007042 -0.024836015
0003a0 cc 9c be 3d a6 d6 0b 3e d2 0f 77 3e 7e 14 03 bc
       0.093072504 0.136561 0.24127129 -0.008000491
0003b0 a1 7b fd 3d bd c6 99 3d 2f 9b 8f be 77 10 3b 3e
       0.12377096 0.075086094 -0.28048083 0.18268
0003c0 87 40 8c 3d c2 9b a2 bd 79 90 a7 3d ba f3 98 3d
       0.06848245 -0.07939865 0.08181853 0.07468362
0003d0 82 ec b0 bb 64 9a 29 3e a4 6e 8a be 0a 0c 23 3c
       -0.0053992877 0.16562802 -0.27037537 0.009951601
0003e0 b4 a1 4f bd f2 52 b7 3d 2d 59 b0 3d c2 db 09 3e
       -0.05069132 0.089513674 0.08610759 0.13462737
0003f0 d8 5e 6f 3e f8 50 a5 3e 8e e7 5f 3d a3 bc 3e be
       0.23376024 0.32288337 0.054664187 -0.18626647

network_body._body_endoder.seq_layers.0.bias f4 [128]
000000 e6 53 b4 3c 87 9e df 3d 7f 42 53 3d db 35 54 bd
       0.022012662 0.109189086 0.051577087 -0.051809173
000010 79 d4 1f 3e 25 c3 26 bd 41 d9 10 3d ed 27 b4 3e
       0.15608396 -0.040713448 0.03536344 0.3518671
000020 e5 54 e3 bd 3e c0 5e bb 08 f9 82 3d d4 ca e0 3d
       -0.11100177 -0.0033989097 0.06395155 0.109761864
000030 22 77 e4 3c 77 6d 85 3d c8 b1 8b 3d 1e ab b6 bd
       0.027888838 0.065150194 0.068210185 -0.08919357
000040 61 ab f3 bc 5c 49 37 bd 6e b5 85 3d 50 43 07 be
       -0.029744806 -0.044747695 0.065287456 -0.13209271
000050 3c f4 43 3e 84 8c f2 bd ef 04 5b 3e 01 4e dc bd
       0.19136137 -0.118432075 0.21388601 -0.107570656
000060 fb 9d 01 3e e1 86 a1 3d 18 c8 5e bd 9e c8 92 3a
       0.12657921 0.07887054 -0.054390043 0.0011198705
000070 da 09 b3 3d 65 d8 bb 3c e7 18 0e be c7 51 bc 3d
       0.087421134 0.022930333 -0.13876687 0.09195285
000080 1c bb c2 bb d7 9f f6 3d 61 07 8e 3d 7b 5a 10 3d
       -0.0059427153 0.12042206 0.06935001 0.03524254
000090 c6 47 20 3e 94 e4 85 3d 5b 10 c1 bb a9 d0 cd bd
       0.1565238 0.065377384 -0.0058918423 -0.100495644
0000a0 27 d9 55 3e 41 3f b3 bd 4c 0d 1a bd 5b 47 01 3d
       0.20883618 -0.08752299 -0.037610337 0.03156219
0000b0 23 3c be 3d c4 e4 d9 39 c3 07 d1 bb 28 c8 cb 3b
       0.09288814 0.0004155991 -0.006379099 0.006218929
0000c0 9d 21 68 bd e8 8c 34 3d 96 a0 28 be 1e d1 88 3c
       -0.05667268 0.04407969 -0.16467509 0.016701277
0000d0 db 4d 96 3d bb 91 24 3d e7 52 a6 bc 16 62 2d bd
       0.073390685 0.040178042 -0.020303203 -0.04232987
0000e0 3b 27 a6 bd 7f 82 d2 3d 95 a7 ff bb fa 00 0a 3d
       -0.08112951 0.102787964 -0.0078019598 0.033692338
0000f0 5c 6b c1 3c c1 08 7f 3d 04 a0 55 bd e5 93 f9 3c
       0.023610763 0.062264208 -0.052154556 0.03046603
000100 88 48 49 3e 2f cc 28 3d 60 c7 10 3d 4c e0 b7 bd
       0.19656575 0.04121035 0.03534639 -0.08978328
000110 d1 17 35 be 24 bb 3d be 58 4c 89 3e ad 59 ae bd
       -0.17684866 -0.1852842 0.26816058 -0.08513198
000120 3d 34 5e bb cd 14 63 bd b2 9f bc 3d 56 64 c8 bb
       -0.0033905648 -0.05543976 0.09210147 -0.0061154766
000130 05 0a c0 bd 80 cc 3f 3c 94 06 07 3c e0 a5 07 3e
       -0.09376911 0.011706471 0.008241314 0.1324687
000140 36 7b 81 bb 85 4e 1e bd e5 8c 8b 3e ce 2c e0 bd
       -0.0039514555 -0.0386491 0.27255931 -0.10946046
000150 a9 8c d7 bc 3e 27 ce 3c 52 6b 10 be 0f e3 1f bd
       -0.02631219 0.025165197 -0.1410344 -0.0390349
000160 1f f6 b5 bd 45 84 ba 3c 6c 27 eb 3c 96 d2 c8 bd
       -0.088848345 0.02276815 0.028705321 -0.09805791
000170 77 73 45 3a 33 cf 96 bc 45 97 51 3e 3a 0b 99 3d
       0.0007532159 -0.018409347 0.20467861 0.074728444
000180 67 b1 68 3e 50 06 78 bc db 38 3b 3e 0a d4 d0 3c
       0.22723924 -0.015138224 0.18283407 0.025491733
000190 f2 40 96 3c 1e 85 2a be b6 cf 2c 3e 5e 23 ce 3d
       0.018341515 -0.16652343 0.1687611 0.100653395
0001a0 75 a7 b2 bc 3f 47 18 bd e2 44 fd bd c2 a6 ed 3c
       -0.021808365 -0.03717732 -0.12366654 0.02901018
0001b0 0c d4 bb 3d a3 7f 36 be da d0 9e bd e6 9b b9 bd
       0.09171304 -0.17822127 -0.07754679 -0.090629384
0001c0 91 d9 21 3e a8 0c ba bd 53 19 2a bd 26 b5 26 be
       0.15805651 -0.09084445 -0.041528057 -0.1628004
0001d0 a0 b3 4c 3d 2f 96 39 3d f4 7c 3a 3e ec bf 8f bd
       0.04997599 0.04530924 0.18211728 -0.07019028
0001e0 24 d3 48 3d ca a1 52 3d ee da 12 3d b9 89 4f bc
       0.049029484 0.051423825 0.03585332 -0.012667113
0001f0 23 7e 44 3c b3 10 e5 3d 59 b0 93 3d 2d b7 e6 3d
       0.011992964 0.11184826 0.0721137 0.11265407

network_body._body_endoder.seq_layers.2.weight f4 [128, 128]
000000 19 96 21 3f ff 80 29 bf 59 be 36 be bc 69 1d be
       0.63119656 -0.6621246 -0.1784605 -0.15372366
000010 06 6b 94 3d c9 37 79 be 05 77 07 3d e9 c2 28 bf
       0.072469756 -0.24337687 0.03307249 -0.6592241
000020 5a 84 b7 3e a3 d9 8d be 98 cf 0a bc 0e 6e a1 be
       0.35843164 -0.27705106 -0.008472346 -0.31529278
000030 1c f8 0a 3c e2 4d 2f bf 53 8a 39 3e fc 11 ca 3d
       0.008482005 -0.68478215 0.18119173 0.098667115
000040 7b 8c 46 be bd 1c aa be 86 3b 07 be 1d 1e ab be
       -0.19389527 -0.3322505 -0.132063 -0.33421412
000050 89 78 d8 be ce 54 8a 3e e4 7f d9 be 2a be 8c be
       -0.4227946 0.27017826 -0.42480385 -0.27488834
000060 3b e1 f9 3d 34 e8 8c be b8 52 ef 3c c9 1c 06 be
       0.122011624 -0.27520907 0.029214248 -0.13096918
000070 24 cf cd 3d b7 a2 0c 3e cb 3c ec 3c 6c f8 01 bd
       0.100492746 0.13733946 0.028837582 -0.031731054
000080 48 1f c8 bd ef 08 ba bc e2 57 7c be 54 82 20 3d
       -0.097715914 -0.022709338 -0.246429 0.03918679
000090 51 e8 20 3e a6 17 18 be 38 67 20 3b fd 58 cc 3d
       0.15713622 -0.14852771 0.0024475586 0.09977911
0000a0 7b 7b 9d bc 39 01 4f 3e b6 08 a8 3e e4 c5 a4 3d
       -0.01922392 0.2021531 0.32819146 0.08045557
0000b0 cd 1a 55 be 43 75 ca 3d 44 72 a2 be cf 0c de be
       -0.20811005 0.09885647 -0.31727803 -0.43369147
0000c0 07 34 93 be a2 47 f9 be 36 6b 56 3e 3b 38 6e be
       -0.2875063 -0.48687464 0.20939335 -0.23263638
0000d0 cd f2 1b 3e b7 10 c2 3d c8 fe 49 bf 96 e7 0a be
       0.1522934 0.09475844 -0.7890439 -0.13564906
0000e0 68 69 34 be e3 d5 0b bf c7 b9 96 bd d9 30 99 bc
       -0.17618334 -0.5462324 -0.07359653 -0.01870005
0000f0 61 72 7e 3e de 19 62 be 54 a2 5e 3e 99 e2 c4 3c
       0.2484832 -0.2208018 0.21741611 0.024033831
000100 7d 00 61 be 44 df 4b bf a2 10 21 bc b8 f5 0e 3e
       -0.21972843 -0.7963755 -0.009830626 0.13960922
000110 2a b5 3f be 8d 24 35 be 6f 6e eb bd 1e 1e aa 3d
       -0.18721452 -0.17689724 -0.11495673 0.08306526
000120 3a 17 82 3c 6f dc 46 3e d2 41 c5 b9 c4 f4 86 be
       0.015880216 0.19420026 -0.00037623808 -0.26358616
000130 bd 74 c5 bd 78 ba 15 be f4 f9 4c be 63 06 b7 bd
       -0.09641407 -0.14621913 -0.20017225 -0.08936765
000140 37 32 54 bc 1a 12 09 bb 35 d2 31 bd 54 14 57 3e
       -0.012951425 -0.002091533 -0.04341336 0.21003848
000150 83 61 fe be 54 23 d2 bc ef c8 55 bd 00 56 98 3d
       -0.4968377 -0.025651611 -0.05219358 0.07438278
000160 c0 2f 47 bd 8e 17 b6 bc cc d2 18 3e cc 1f 16 be
       -0.048629522 -0.022228029 0.14924163 -0.14660567
000170 11 0f 64 bd eb e9 d8 3b 46 5a a5 be a1 97 dd bd
       -0.05567843 0.006619682 -0.32295436 -0.108199365
000180 3c 91 d3 3c d1 05 bd be 78 40 ce 3d de 2f 03 bf
       0.02582609 -0.369185 0.1007089 -0.51244915
000190 17 05 81 3e 32 c5 67 bd 1a 37 cf 3d 59 8e 58 3e
       0.25199196 -0.056584544 0.10117932 0.21148051
0001a0 22 c7 fb 3c 19 1c ac be fa f1 66 be 42 13 b6 be
       0.030734602 -0.33615187 -0.22553244 -0.35561568
0001b0 fe b7 b8 3e 7f a1 97 be a5 3d a2 be 45 d3 0e bf
       0.36077875 -0.296154 -0.31687656 -0.5579112
0001c0 9a df 9b 3d be 63 80 be 09 44 f3 be aa 16 40 be
       0.07611008 -0.25076097 -0.47512844 -0.18758646
0001d0 e9 11 1e be ec df 01 bd 99 0b 43 3e f2 90 f4 be
       -0.1543652 -0.03170769 0.19047393 -0.47766834
0001e0 6e 3a 56 be ae 79 d6 be 98 1b 9f bd d7 48 32 3e
       -0.20920727 -0.4188971 -0.07768935 0.17410599
0001f0 72 65 38 3e 55 39 cd 3c 77 66 36 3e 67 0b 50 3e
       0.18007448 0.025051752 0.17812525 0.2031685
000200 94 65 79 bd 98 e5 7c ba 2c fe 09 be 48 bd fa 3e
       -0.060887888 -0.0009647249 -0.13475865 0.48972535
000210 13 09 e3 be ed 87 5a bc dd 84 ef 3e 4c 76 3f ba
       -0.4434286 -0.013338071 0.46781054 -0.00073036994
000220 14 24 28 3e f1 fd d3 3e 13 f0 09 3f b5 57 17 3f
       0.16420013 0.4140468 0.5388195 0.59118205
000230 f1 08 9a be f6 be e0 3d 6a 4b 37 3e f8 c5 c8 3e
       -0.30084947 0.10973923 0.17899862 0.39213538
000240 42 e2 2e be 79 de 0e be cf 4c fe 3e 59 c4 ef 3e
       -0.17078498 -0.13952054 0.49667975 0.4682949
000250 e8 74 35 3d 32 af a1 be 93 75 d9 3b 4a 02 0c bd
       0.044300944 -0.31578976 0.0066363304 -0.03418187
000260 44 27 c1 3e d8 7e 0c 3e fe 2f a7 be 4f 31 d2 be
       0.3772527 0.13720262 -0.32653803 -0.41053244
000270 e9 0c a5 3c 27 8e b2 bd 49 0a dd 3d bc db e9 3d
       0.020147758 -0.0871852 0.10792977 0.11418864
000280 26 2d 8c 3d 2f 38 39 3e e4 d3 57 be 93 7a a2 3e
       0.06844549 0.18087839 -0.21076924 0.31734142
000290 4f 62 18 3e 74 da 9e 3d 50 69 8c 3e 8c f6 90 3e
       0.14881252 0.077565104 0.27424097 0.283131
0002a0 46 22 c1 3e ee b0 89 3d 75 96 62 bd 6b e5 c9 bd
       0.3772146 0.067232 -0.05531927 -0.09858211
0002b0 84 fa 09 3f 10 bc 9b bc d7 91 45 be 4f 29 c6 3e
       0.5389788 -0.019010574 -0.19293915 0.3870339
0002c0 73 fd 47 3e 48 af 32 3f e4 cb c9 be 3e 1c 9f 3b
       0.19530277 0.6979871 -0.3941337 0.0048556617
0002d0 3f 31 76 be d6 e6 8f be 30 06 1d 3e b7 e0 98 bd
       -0.24042223 -0.281058 0.15334392 -0.07464736
0002e0 b4 a2 8a 3e f2 a7 dd 3e 44 f1 36 3e 9d 58 0d bf
       0.27077258 0.43292195 0.17865473 -0.5521334
0002f0 ef 65 97 3d cf ea fa 3d 8e f9 9e 3d 3f aa 60 be
       0.07392489 0.122518174 0.077624425 -0.21939944
000300 45 54 25 be e3 3d da 3e a3 0b b3 be 7c 47 8f 3e
       -0.16145428 0.4262534 -0.34969816 0.27984226
000310 89 df be 3d cd 97 43 3e 7d 85 26 bd 54 c0 20 3f
       0.0931998 0.19100876 -0.040654648 0.6279347
000320 a1 5a 86 be 08 9a 9c bd 56 e9 30 bd 05 c3 24 3f
       -0.2624102 -0.07646567 -0.043191276 0.64360076
000330 bb 77 9b 3e 4f 09 28 3f 28 9c 35 3e c3 c9 00 be
       0.30364785 0.65639204 0.1773535 -0.12576966
000340 92 1c d0 3d 04 e5 99 3e 08 df 00 be 04 a3 0c be
       0.10161699 0.30057538 -0.1258508 -0.1373406
000350 90 1c 8d bd df c6 85 be 41 da 30 3e 95 97 b4 3d
       -0.068902135 -0.2612829 0.17270757 0.088179745
000360 6b 37 91 be 58 0c 63 3e b6 35 85 be df 44 23 be
       -0.28362593 0.22172678 -0.2601754 -0.15944241
000370 56 78 31 3f 5f b4 0c be 2a 4a 14 3e 94 13 2e bc
       0.69324243 -0.13740681 0.14481416 -0.010624785
000380 39 d0 7e be 64 f4 a3 3e f4 68 2c be 4d 7a 0f bd
       -0.24884118 0.32022393 -0.16836911 -0.035028744
000390 23 b1 29 3c 3a 17 1f bd 98 9d cd bd e7 fd 2f be
       0.010357174 -0.03884051 -0.10039824 -0.171867
0003a0 c4 46 69 be 71 6c 2d bd 85 e7 b4 bd ce af 0f 3e
       -0.22780901 -0.042339746 -0.08833221 0.14031908
0003b0 a6 4c 39 3e c1 28 b4 3e 74 b1 97 3d 58 44 2e be
       0.18095645 0.35187343 0.074068934 -0.17018259
0003c0 b3 04 0b bc 13 77 c8 be 2b bd cc be 86 bf 31 be
       -0.008485007 -0.39153346 -0.39988074 -0.17358217
0003d0 f5 54 17 3e 56 c0 8d 3d 70 86 92 3d cc 05 6d 3e
       0.14778502 0.06921451 0.07154548 0.23146743
0003e0 91 51 8a be fa aa d9 bd bf 95 d6 bb dc d3 c2 bd
       -0.27015355 -0.10628314 -0.006548613 -0.09513065
0003f0 c4 6a 44 3e 46 f0 98 be 8e 99 ac bd c6 2d 8b be
       0.19181353 -0.29870814 -0.08427726 -0.2718336

network_body._body_endoder.seq_layers.2.bias f4 [128]
000000 e7 47 20 bd 6c 0e 08 3d 7e f8 ef 3c c3 35 d2 3d
       -0.03913107 0.03321688 0.029293295 0.102641605
000010 c1 04 72 3e 3c 71 2b 3e e2 f4 97 bd 0a 35 16 3d
       0.23634626 0.16742414 -0.074197546 0.036671676
000020 b1 67 12 be f9 43 7e 3d c8 bb 0e bd 60 84 c1 bd
       -0.14297368 0.062076543 -0.03484705 -0.09449077
000030 8d 77 bd 3d 70 55 12 3e 8f a7 1c 3e 2a 9b 05 3e
       0.09251318 0.14290404 0.15298294 0.13047472
000040 f0 6c 39 be df 80 72 be 43 b9 56 3c c0 83 85 3d
       -0.18107963 -0.23681973 0.013105693 0.0651927
000050 99 ca 78 3e 8f c0 19 3e f4 98 e8 bd fa 4d a9 3e
       0.24296035 0.15014862 -0.113572985 0.33067304
000060 e1 84 ab be b0 94 d5 bd 94 bc b2 bd 26 96 de 3d
       -0.33499816 -0.104287505 -0.08727375 0.10868482
000070 2a 6a 2d be 90 67 6f be 23 be 8e bd e5 9b 34 bd
       -0.1693503 -0.2337935 -0.069698595 -0.044093985
000080 61 20 67 3d e4 6a 2b 3e e5 64 1f bd ba 5c 8b bd
       0.056427363 0.16739994 -0.03891458 -0.068047956
000090 fb 00 f3 bd 01 a0 18 3e 32 1a ed 3d bd 6a 59 3e
       -0.118654214 0.14904787 0.11577262 0.21232124
0000a0 8c f3 41 3d 16 81 a1 3d 0b 81 0b be 2b 6b 93 be
       0.047351405 0.07885949 -0.13623445 -0.287927
0000b0 fa c8 29 be 4a 5e 9d 3d 43 a9 67 3e 52 4e bc 3d
       -0.16580573 0.07684 0.22623162 0.09194626
0000c0 e5 18 b6 be 4f fe 56 be 6a af 18 be 72 ca 53 bc
       -0.35565868 -0.20995449 -0.14910665 -0.012926685
0000d0 62 8d 03 3e ce 90 e6 bd da e8 c3 bc 35 53 41 3e
       0.12846902 -0.11258088 -0.023914743 0.18879397
0000e0 18 40 8b bd e7 fa c6 bd df e5 d6 3d 5a d8 85 3e
       -0.06799334 -0.097158246 0.10493063 0.26141626
0000f0 64 df 75 be a8 07 5d be ca f3 f4 bc 79 0c b1 3e
       -0.24010998 -0.21584952 -0.029901404 0.34579828
000100 2c ed 89 3d de 48 5b 3d b1 fc b1 be a4 8c c9 bc
       0.0673469 0.05353629 -0.347631 -0.024603195
000110 30 eb 2a bd 48 0e 1f bd 38 07 9d be 32 b4 e5 3c
       -0.0417282 -0.03883198 -0.3066957 0.028040025
000120 b3 b5 4a be 42 3d 07 be e4 b4 69 3d 46 b0 65 3e
       -0.19795875 -0.13206962 0.057057276 0.22430524
000130 96 bc af 3d dd 6f 99 bc 8e 03 ce bd 21 94 ae 3e
       0.08580892 -0.018730098 -0.10059272 0.34097388
000140 f6 9c 14 be c3 3c db 3e d5 2d 3e be 5c 52 55 3e
       -0.14513001 0.42819795 -0.18572171 0.20832199
000150 ac 6d f6 3c 00 19 0c 3e af 0d 83 3e 1b e8 a0 3e
       0.030081593 0.13681412 0.25596377 0.31427082
000160 90 18 31 3e 20 cf 97 3d f0 78 24 3c ac 5f 73 3e
       0.17294526 0.07412553 0.010038599 0.23766965
000170 fb b8 8f 3e 7f 95 48 be 56 5d 87 bd 6d e9 7f be
       0.28070816 -0.19588278 -0.06609599 -0.24991389
000180 c8 31 2e 3e 2f 0e fd 3d 2a d0 1b be db a5 a6 3d
       0.17011178 0.12356221 -0.15216127 0.08137103
000190 7c 77 49 3d de 25 d8 3d 96 12 fb 3d 49 91 27 3d
       0.049186215 0.105540976 0.12259404 0.04091004
0001a0 17 2f 88 3e 8b c6 57 bc a5 d9 c3 3e 48 93 50 3e
       0.26598427 -0.013169895 0.38251987 0.20368683
0001b0 0f 1c d1 bc 29 ab 43 3d 56 c2 9e be ca 60 71 3c
       -0.025526075 0.047770653 -0.31007642 0.014732549
0001c0 11 4e 01 3e ab b3 81 3e 63 1e b9 3d 4e d2 16 3e
       0.12627436 0.25332388 0.09038999 0.14728662
0001d0 35 9d f5 bd bd e2 81 3d 13 a8 73 3d 1b 65 8f be
       -0.119928755 0.06342075 0.05948646 -0.28006825
0001e0 a7 a1 3c be 06 de 3a be d4 ca 87 3d fd 4a b6 bc
       -0.1842104 -0.18248758 0.06630483 -0.022252554
0001f0 51 58 15 3d 24 20 b0 3d 8e 81 9b bc a4 06 b5 3d
       0.03646118 0.0859988 -0.018982675 0.08839157

action_model._discrete_distribution.branches.0.weight f4 [7, 128]
000000 ff f7 d1 be 9e 29 67 3c 6b 98 6b be 7f e0 f6 be
       -0.41009519 0.014109043 -0.23007362 -0.48218152
000010 0b 38 50 be c7 33 b3 3d f1 e7 83 be 6c 81 a4 bd
       -0.20333879 0.0875011 -0.25762895 -0.08032498
000020 27 42 ca 3d c5 49 34 bd e1 94 d9 bd 51 ce 15 bf
       0.09875899 -0.044015665 -0.106240995 -0.5851794
000030 2f 38 9c bf 2b 32 69 3c a6 78 f6 3d e5 4e d1 bd
       -1.2204646 0.014233152 0.120347306 -0.10220126
000040 dc 9d 2d bd 70 69 d1 bc b3 b6 a0 be 40 7f a6 3e
       -0.042386875 -0.025562972 -0.31389388 0.3251896
000050 71 2c 16 be d6 26 00 3e f3 87 02 bd 74 e0 ef bc
       -0.1466539 0.12514815 -0.031867933 -0.029281832
000060 cb c6 3f be 58 d4 13 bf 63 4f 8e bd bc c4 fb 3c
       -0.18728177 -0.57745886 -0.069487356 0.030733459
000070 67 9c 65 3d 82 e5 5c 3e ee 5b 82 3e 23 12 26 3f
       0.05605736 0.21571925 0.25460762 0.64871424
000080 d6 30 df 3d bf ee d8 be 17 38 f3 bc 3b c6 5d 3e
       0.108979866 -0.4236965 -0.029689832 0.2165765
000090 30 4f 24 3e be e7 cc 3c 7c c2 3c 3e 66 07 a7 bd
       0.16045833 0.025012847 0.18433565 -0.08155708
0000a0 75 ab 8a 3e 2b 2f 47 3e c4 43 a2 bd d3 6c c5 3e
       0.27083936 0.19451587 -0.079230815 0.3855959
0000b0 d3 ef ca be 53 e2 8e bc 8f 2a c1 3c ba b6 6c 3e
       -0.39636096 -0.017441904 0.023579864 0.2311658
0000c0 2b 5f 0b 3e 5c 86 c4 bc f7 1a 2c 3e 4b 81 bc be
       0.13610522 -0.023989849 0.16807161 -0.36817393
0000d0 98 7d 07 bd 73 fd 81 be 42 e6 22 be 8f 81 bf be
       -0.03307876 -0.2538868 -0.15908149 -0.37403533
0000e0 cd ca 55 be f5 b6 39 3d 49 34 35 3e a2 09 83 3d
       -0.20878144 0.045340497 0.17695726 0.06398322
0000f0 3f 4d 22 be 37 3e 91 be 7a c2 80 bd 3b fd 81 be
       -0.1584978 -0.2836778 -0.062870935 -0.25388512
000100 10 d4 4d 3d 0c 17 b2 3e 72 9a c8 3b 93 65 a3 3e
       0.050251067 0.34783208 0.006121927 0.31913432
000110 5f ee f8 bd 0c d9 4c be c7 49 d1 be a3 5a 01 3e
       -0.12154841 -0.20004672 -0.408766 0.12632231
000120 fe e5 0a 3b 6b 87 ff 3d cc ee 20 3d 9a 3b b1 bd
       0.0021194215 0.12477001 0.039290234 -0.08653946
000130 9f d4 c6 3d c8 7d c2 3d d0 b4 f6 be 3f e7 03 bf
       0.09708523 0.09496647 -0.48184824 -0.5152473
000140 c1 39 f9 bd a7 7f ee 3d 2e 44 7d 3e d7 93 eb be
       -0.12169219 0.116454415 0.2473304 -0.4601123
000150 1b 0e 31 bf 92 6b 07 3e 06 1d b3 3e e8 bd 4e 3e
       -0.6916215 0.13224629 0.3498308 0.20189631
000160 47 ef 59 3d bc 71 e7 3c 90 d5 e9 bd df 24 bb 3e
       0.05320671 0.028252475 -0.11417687 0.36551568
000170 b5 d8 2f 3e 36 92 32 bf 76 ab a0 be f3 9c 8b bc
       0.17172511 -0.6975435 -0.31380814 -0.017042613
000180 2e e4 38 3d e9 87 27 3e 60 37 be bc 84 0f cf be
       0.045139484 0.1636044 -0.023219764 -0.40441525
000190 c2 54 b0 be ff 74 bd be 5a 46 8f 3e d0 26 a5 be
       -0.34439665 -0.37003323 0.2798336 -0.32256174
0001a0 f3 94 23 3e 34 c5 10 bf fb 24 10 3e c2 82 03 3e
       0.15974788 -0.5655091 0.14076607 0.12842849
0001b0 33 fc f6 be 9c 77 23 3d 69 d9 84 bd b7 d8 f7 bd
       -0.48239288 0.03990899 -0.0648678 -0.12101882
0001c0 16 ca 31 3d 99 a6 5c bd b4 29 f3 be a0 34 3d bf
       0.043405615 -0.053869817 -0.47492754 -0.73908424
0001d0 9d b1 10 bd e7 3c 48 3d 26 2d 20 be ee 3e aa 3d
       -0.035325635 0.048886206 -0.15642223 0.08312784
0001e0 52 0b d5 be 26 91 28 be f9 3e aa 3d 42 b0 c6 3d
       -0.416102 -0.1646162 0.08312792 0.09701587
0001f0 db 44 5b 3e fa 8e 82 3d 0f 1a df 3e 64 b1 1b 3e
       0.21412985 0.06374927 0.4357457 0.15204388
000200 8c a8 d7 3d 03 70 13 bf 23 20 a7 bd 8b 02 c8 3d
       0.10530195 -0.5759279 -0.081604265 0.0976611
000210 64 9a 5e be 02 03 16 3e fb a9 ae 3e 4f 3c 90 be
       -0.21738583 0.14649585 0.3411406 -0.28171012
000220 d3 14 92 bc 0e 7f bb 3e e3 8e e0 be 24 c2 cc 3e
       -0.017832195 0.36620373 -0.43859014 0.39991868
000230 ae 52 13 3e 11 57 07 3e a7 e5 51 3e b0 bd be 3d
       0.14387009 0.13216807 0.20497762 0.09313524
000240 df d0 00 bf e6 06 1d 3f 6f a7 9c 3e 24 d8 c4 bc
       -0.5031871 0.6133865 0.30596492 -0.024028845
000250 7c ef 1a be 9e 7c 7c be 24 cf 2f 3d 6a dc 73 be
       -0.15130419 -0.24656913 0.042922154 -0.2381455
000260 5f fb e1 3e 1c 8f 2b 3e 11 61 9c 3e b6 68 19 bb
       0.44137093 0.1675381 0.30542806 -0.002340836
000270 fa ff 03 3f 29 d1 fe 3e d3 c7 06 be f6 d6 29 3e
       0.51562464 0.49768952 -0.13162164 0.16585907
000280 93 df aa be f6 7c 95 3e 7f 73 f4 3e 52 86 b4 bd
       -0.333737 0.291969 0.47744367 -0.08814682
000290 90 06 c2 3e 5b 7d 12 3f cf e2 c5 be 63 03 13 3f
       0.37895632 0.5722253 -0.38649604 0.5742704
0002a0 14 d7 ce 3e 9c a5 5d be 08 3b ab 3c 19 da 8a 3e
       0.40398467 -0.21645206 0.020902172 0.2711952
0002b0 9e 4b 58 3d 6b 4a b9 3e 24 20 76 3e 59 d6 09 bf
       0.05280649 0.3618959 0.24035698 -0.53842694
0002c0 c5 12 f0 3d 0c 15 f5 3e 4f 18 62 3b a5 0b 49 3e
       0.1172233 0.4786762 0.0034499352 0.19633348
0002d0 03 7c 0a 3f c6 61 ff 3d bc db 8e be 3b 6e 41 bd
       0.54095477 0.12469821 -0.2790202 -0.047224265
0002e0 f6 be fc 3e ae 32 dd bc be b2 1a 3e 59 2c bb be
       0.49364442 -0.027001705 0.15107247 -0.36557272
0002f0 e2 dd e6 3e 6f b1 19 3f e4 f8 ef 3d f9 9b 20 3e
       0.45091158 0.6003637 0.11717394 0.15684499
000300 17 fa 6e be 34 29 c7 3e f9 ee c6 3e 6d 00 fc be
       -0.23337589 0.38898623 0.38854197 -0.49219075
000310 76 0a 20 be ad 27 8b 3e c7 0f af 3c 54 bf dd bc
       -0.1562899 0.27178708 0.021369828 -0.027068771
000320 65 2a 93 3e d1 bb 40 be 3b 4c 2f 3e c4 bb 3c 3e
       0.28743282 -0.18821646 0.17118923 0.18431002
000330 2d e0 ab 3e a2 c4 8a 3d ce 1c f3 3d 64 3f 0f be
       0.3356947 0.06775786 0.118707284 -0.13989025
000340 58 75 16 be 81 ce 9c bd 3f 48 14 be 93 9d 16 3f
       -0.146932 -0.07656575 -0.14480685 0.5883419
000350 18 6d 6f 3e b8 46 be 3d e6 2d 58 be ea 50 b9 be
       0.2338146 0.09290832 -0.21111259 -0.36194545
000360 7f 12 46 3e 04 a1 b0 3e c9 b5 3f 3f ee 63 0a 3e
       0.19342993 0.34497845 0.7488676 0.13514683
000370 f7 47 a1 bd 4f 4e 16 3e d7 42 2c bd 9f 0c 14 3f
       -0.07875054 0.1467831 -0.04205593 0.5783176
000380 85 ec 76 3e 73 34 a4 3d 99 47 60 be bb cf 07 3f
       0.24113663 0.080178164 -0.21902312 0.53051347
000390 44 d4 22 bf 85 a0 86 be fd 9a 40 be 89 75 6c 3e
       -0.6360514 -0.26294342 -0.18809123 0.23091711
0003a0 68 37 b8 3e a2 22 ae bb 06 a9 b7 bd dc 8d 86 3e
       0.35979772 -0.005314187 -0.089677855 0.26280105
0003b0 d3 77 18 3e d2 02 b2 3e 27 5d 02 3f e7 1e c9 3e
       0.1488946 0.34767777 0.5092339 0.3928139
0003c0 e6 ed 14 3e fc 91 25 bf 64 2b cc 3d 34 a6 b1 3e
       0.14543876 -0.6467588 0.099692136 0.34697115
0003d0 c5 8b ac 3e 00 8b cf 3e 12 63 7c 3c 3d 40 73 3e
       0.33700386 0.40535736 0.01540448 0.23754974
0003e0 9c 4a 32 3f 6d bb da 3d 5f af f0 3d 4b c7 96 be
       0.69645095 0.1068028 0.117521994 -0.29448923
0003f0 e9 86 de bd 91 b0 9d 3e eb fe d1 3c e9 07 df 3e
       -0.10865576 0.30798772 0.02563425 0.43560722

action_model._discrete_distribution.branches.0.bias f4 [7]
000000 a9 63 50 bd a8 a7 6d be 74 83 22 3e 3e b3 67 3e
       -0.050876293 -0.23208487 0.15870458 0.22626969
000010 79 7e 0b bf ed d5 54 3e 2a f8 5e 3e
       -0.54489857 0.20784731 0.21774355
