Source/Trained_Policies/WeightAgent_Training/WeightAgent_Training/WeightAgent_Training-244499981.onnx (onnx, 155824 bytes, 6 tensors)

network_body._body_endoder.seq_layers.0.weight f4 [128, 163]
0.294931 -0.4785203 0.06479734 0.18406646 0.43556124 -0.047801647 -0.4475941 -0.28830996
0.12512806 0.7247086 0.3063983 -0.20744434 0.40852335 0.00072584563 0.17048077 -0.07958133
-0.34575662 -0.8967723 0.019993868 0.51724744 0.48759463 -0.00557033 0.6682564 0.3665738
-0.5239272 -0.34586635 -0.35678542 -0.4468687 -0.26836357 0.4187041 0.21049453 0.052221797
0.5636437 0.1393119 -0.5903974 -0.24219613 -0.6730453 -0.19454719 -0.19323432 0.23418036
0.17913932 0.17088722 0.5487143 0.24072114 -0.6144487 -0.41373953 -0.49607342 0.0188802
-0.17155698 0.07938087 0.5519442 0.310219 0.112056464 0.6331312 -0.28311867 -0.33020023
0.059995398 0.2334326 -0.17918746 0.31830472 0.42277077 0.09318995 0.26464978 0.045273244
-0.36122286 -0.26427743 -0.25303543 0.16326094 -0.113857456 0.16276284 0.5378431 -0.034615364
0.3192645 0.18937524 -0.10623419 0.14719988 0.020155415 0.24642074 -0.23164624 0.062447794
0.3372006 -0.43533733 -0.24393754 0.11767364 -0.012497164 0.156411 -0.38683042 -0.06884356
-0.112842366 0.103881784 0.15682967 0.21675828 -0.27908978 -0.116945215 -0.0071165776 -0.11736053
-0.10269864 0.20138614 -0.18258177 0.045812085 0.057681765 -0.2250622 -0.20077328 0.122663505
0.008422653 0.052250415 -0.14774428 0.02625271 0.18086061 0.0362232 0.118585356 -0.32488817
-0.057502728 0.28073463 -0.08515396 -0.23401403 0.09423355 -0.14590926 -0.05426308 0.15839908
0.018272346 -0.41234222 0.08818314 0.18752047 -0.21102227 -0.34290165 0.15705912 -0.0022542484
0.17961268 0.10549274 -0.13650745 -0.075100295 0.03464713 -0.12800045 -0.26598567 -0.037703197
-0.22645542 -0.26704872 0.13096213 0.07071113 -0.32184112 -0.20141426 -0.34825796 0.010091569
-0.17132182 -0.16289343 -0.09824802 0.07254113 -0.061554343 0.0746839 -0.20533724 -0.25131184
-0.019491516 0.061541643 0.040735204 -0.041748717 0.2943523 -0.2832279 -0.021472482 -0.08112264
0.05870195 0.16644529 -0.62984973 -0.005650926 0.4956304 -0.08461849 -0.06789899 -0.5670529
0.057308197 0.23812695 0.067951664 0.15176645 -0.9817645 0.21581168 0.06565599 -0.78338945
0.46020868 -0.50772446 0.024837995 0.39772353 0.31455907 -0.022197708 -0.917231 0.40168867
0.2339159 -1.3357191 0.1422804 -0.18934204 -0.14521669 0.09004142 0.19809265 0.36832368
-0.58321935 -0.03469095 0.27044237 -0.80590665 0.2538513 0.030467879 -0.053963386 0.03355654
0.21836136 0.16787852 -0.682849 0.060223605 0.3449064 -0.48792073 0.10577535 0.12721318
0.013844107 0.08936031 0.29129946 0.3001842 -0.45241094 0.10874829 0.32806456 -0.18611123
-0.032788422 0.14566386 0.039931335 0.110334024 0.15901864 0.23884153 -0.066524714 0.024718205
0.20459796 0.15873183 -0.062388908 0.13958168 0.033043202 0.2914262 0.19756615 -0.051157597
0.07697236 0.1416056 0.2484551 -0.015942853 0.13562728 0.08353515 -0.28367057 0.1724481
0.066094875 -0.09287872 0.07811106 0.08132137 -0.009995973 0.16138501 -0.26954275 0.01032091
-0.056182273 0.07312742 0.08318482 0.14605953 0.23807706 0.3305656 0.048636712 -0.17032379
00000000: 3201 973e 9d00 f5be 78b4 843d eb7b 3c3e
00000010: e201 df3e a9cb 43bd 0e2b e5be 5d9d 93be
00000020: 9221 003e 8186 393f 3de0 9c3e 4a6c 54be
00000030: f929 d13e ad46 3e3a 8392 2e3e 89fb a2bd
00000040: 0307 b1be df92 65bf 2eca a33c 546a 043f
00000050: 01a6 f93e 5187 b6bb da12 2b3f 90af bb3e
00000060: 1820 06bf 6515 b1be 94ac b6be f9cb e4be
00000070: f366 89be 6260 d63e e18b 573e 86e6 553d
00000080: f44a 103f c7a7 0e3e 4924 17bf 4302 78be
00000090: b24c 2cbf 6137 47be 38df 45be facc 6f3e
000000a0: 4c70 373e 0ffd 2e3e 8a78 0c3f 9a7f 763e
000000b0: 834c 1dbf abd5 d3be 56fd fdbe a6aa 9a3c
000000c0: a2ac 2fbe 7092 a23d 374c 0d3f 06d5 9e3e
000000d0: dc7d e53d e314 223f eef4 90be 0110 a9be
000000e0: bcbd 753d f508 6f3e eb7c 37be d6f8 a23e
000000f0: 6975 d83e 5fda be3d 2d80 873e 7070 393d
00000100: 34f2 b8be 5f4f 87be dc8d 81be e02d 273e
00000110: 192e e9bd 4dab 263e 16b0 093f d7c8 0dbd
00000120: a376 a33e 95eb 413e 5091 d9bd 91bb 163e
00000130: f81c a53c b855 7c3e ac34 6dbe 42c9 7f3d
00000140: 8fa5 ac3e 89e4 debe c3ca 79be e1fe f03d
00000150: e8c0 4cbc 352a 203e a30e c6be dafd 8cbd
00000160: e619 e7bd f9bf d43d f597 203e e2f5 5d3e
00000170: dbe4 8ebe f980 efbd 2e32 e9bb b85a f0bd
00000180: aa53 d2bd 2b38 4e3e b7f6 3abe 74a5 3b3d
00000190: b743 6c3d b576 66be 8397 4dbe 0137 fb3d
000001a0: 2bff 093c 8804 563d 474a 17be ec0f d73c
000001b0: 8633 393e c75e 143d e1dc f23d be57 a6be
000001c0: fb87 6bbd 73bc 8f3e 3365 aebd 60a1 6fbe
000001d0: 85fd c03d 3d69 15be f742 5ebd 5e33 223e
000001e0: e3af 953c 851e d3be 5d99 b43d 5e05 403e
000001f0: 3916 58be ce90 afbe 1bd4 203e 03bc 13bb
00000200: 63ec 373e 940c d83d 9cc8 0bbe 2fce 99bd
00000210: 26ea 0d3d 8d12 03be 462f 88be ab6e 1abd
00000220: eee3 67be 9cba 88be f01a 063e ffd0 903d
00000230: 5cc8 a4be 8a3f 4ebe de4e b2be 1c57 253c
00000240: fd6e 2fbe 89cd 26be 4236 c9bd 7290 943d
00000250: 6820 7cbd dff3 983d ed43 52be f2ab 80be
00000260: acac 9fbc 1713 7c3d f5d9 263d b400 2bbd
00000270: 58b5 963e 3f03 91be 0fe7 afbc a023 a6bd
00000280: 7571 703d a270 2a3e d53d 21bf 672b b9bb
00000290: 45c3 fd3e 754c adbd a00e 8bbd 612a 11bf
000002a0: 00bc 6a3d 8dd7 733e 3e2a 8b3d aa68 1b3e
000002b0: eb54 7bbf bdfd 5c3e a676 863d 368c 48bf
000002c0: 79a0 eb3e 3bfa 01bf 0d79 cb3c 6ba2 cb3e
000002d0: e30d a13e f8d7 b5bc a7cf 6abf 23aa cd3e
000002e0: a687 6f3e d8f8 aabf f4b1 113e e1e2 41be
000002f0: afb3 14be a367 b83d cdd8 4a3e ec94 bc3e
00000300: dd4d 15bf 1918 0ebd 6c77 8a3e e64f 4ebf
00000310: ccf8 813e c697 f93c b608 5dbd 9572 093d
00000320: 1f9a 5f3e 59e8 2b3e 31cf 2ebf 07ad 763d
00000330: 9297 b03e bfd0 f9be bfa0 d83d 2c44 023e
00000340: 65d2 623c 8a02 b73d 3425 953e beb1 993e
00000350: 68a2 e7be 6cb7 de3d 14f8 a73e f193 3ebe
00000360: 274d 06bd e828 153e 0a8f 233d cef6 e13d
00000370: c8d5 223e e092 743e 1c3e 88bd d57d ca3c
00000380: 2182 513e 998a 223e 838b 7fbd 80ee 0e3e
00000390: 4f58 073d d135 953e c84e 4a3e a18a 51bd
000003a0: afa3 9d3d 0f01 113e 046b 7e3e 969a 82bc
000003b0: e1e1 0a3e 7a14 ab3d 453d 91be 3c96 303e
000003c0: c05c 873d 3337 bebd b1f8 9f3d d28b a63d
000003d0: 26c6 23bc 1d42 253e 8201 8abe 0919 293c
000003e0: 621f 66bd d4c3 953d ce5c aa3d a190 153e
000003f0: 79ca 733e e53f a93e 4a37 473d 5c69 2ebe

network_body._body_endoder.seq_layers.0.bias f4 [128]
0.0144855585 0.11187823 0.057519495 -0.055813488 0.14968641 -0.03850733 0.037578374 0.35458153
-0.10559263 0.00091235316 0.06318997 0.109579735 0.014789779 0.0731123 0.06681088 -0.098037764
-0.038589776 -0.04646016 0.06337675 -0.12924697 0.19504663 -0.12342994 0.20919573 -0.1082635
0.12679408 0.06834234 -0.055487286 0.0057966583 0.08984361 0.03318922 -0.13812567 0.08891994
-0.009295882 0.118456595 0.071472466 0.041686974 0.15660995 0.057988986 -0.005102474 -0.100070745
0.19998845 -0.08525649 -0.035173308 0.05158087 0.08699655 -0.012203401 -0.0043088547 0.014906476
-0.048573915 0.035294905 -0.1600515 0.010746678 0.07252632 0.041881833 -0.025725333 -0.034640983
-0.07586537 0.10420817 -0.013539164 0.035624396 0.028423581 0.041606054 -0.045891892 0.026484128
0.1979882 0.029733477 0.023681933 -0.088432364 -0.18555759 -0.18168862 0.2661096 -0.079308376
-0.01865289 -0.06323335 0.09910769 0.0019192899 -0.093751036 0.0054516173 0.009192471 0.13322084
0.0012699617 -0.030662667 0.26773944 -0.10563643 -0.028792761 0.023497406 -0.14813817 -0.03366956
-0.08486373 0.01026277 0.023146903 -0.095369756 0.01082224 -0.012308554 0.20404617 0.06898343
0.22290926 -0.0014402681 0.17062294 0.03263352 0.011597901 -0.1692002 0.1616177 0.10274949
-0.011724172 -0.045379397 -0.11990128 0.025071738 0.08524991 -0.16753274 -0.07636846 -0.09332195
0.15448807 -0.0823028 -0.032601006 -0.16021655 0.047951084 0.050888065 0.16746293 -0.06380297
0.0570617 0.053224564 0.043098256 -0.022206401 0.011872212 0.111603014 0.071152754 0.09871886
00000000: d654 6d3c 6a20 e53d 9099 6b3d af9c 64bd
00000010: 6547 193e ddb9 1dbd c8eb 193d b68b b53e
00000020: f340 d8bd fc2a 6f3a be69 813d 576b e03d
00000030: d450 723c e7bb 953d 25d4 883d 06c8 c8bd
00000040: 5010 1ebd 024d 3ebd abcb 813d 5159 04be
00000050: 4eba 473e d6c8 fcbd 6837 563e 41b9 ddbd
00000060: 4fd6 013e 12f7 8b3d a346 63bd e5f1 bd3b
00000070: edff b73d 6bf1 073d d170 0dbe a81b b63d
00000080: c14d 18bc 5f99 f23d 2860 923d f6bf 2a3d
00000090: 5c5e 203e dc85 6d3d a732 a7bb e4f1 ccbd
000000a0: c6c9 4c3e f49a aebd e311 10bd 7646 533d
000000b0: 3f2b b23d c6f0 47bc 4b31 8dbb 4b3a 743c
000000c0: 71f5 46bd 6491 103d 8ae4 23be d612 303c
000000d0: ae88 943d 498c 2b3d efbd d2bc b4e3 0dbd
000000e0: 4e5f 9bbd 186b d53d 5fd3 5dbc e3ea 113d
000000f0: 92d8 e83c 1c6b 2a3d 23f9 3bbd 3ef5 d83c
00000100: 6bbd 4a3e 9f93 f33c 9d00 c23c 071c b5bd
00000110: cf02 3ebe 950c 3abe 843f 883e 6e6c a2bd
00000120: f2cd 98bc 7d80 81bd f9f8 ca3d af90 fb3a
00000130: 8b00 c0bd 7ba3 b23b 059c 163c 0b6b 083e
00000140: d874 a63a 4630 fbbc 2515 893e ea57 d8bd
00000150: ccde ebbc a27d c03c 88b1 17be 18e9 09bd
00000160: 09cd adbd 2d25 283c 939e bd3c 3851 c3bd
00000170: c44f 313c d1a9 49bc 7bf1 503e 2f47 8d3d
00000180: 5342 643e 61c7 bcba c8b7 2e3e baaa 053d
00000190: 1f05 3e3c d142 2dbe 1c7f 253e 536e d23d
000001a0: be16 40bc bfdf 39bd cd8e f5bd 3f63 cd3c
000001b0: 8197 ae3d b48d 2bbe 1167 9cbd 941f bfbd
000001c0: 1f32 1e3e 5f8e a8bd a288 05bd cf0f 24be
000001d0: 5b68 443d 0170 503d 677b 2b3e 22ab 82bd
000001e0: 87b9 693d 0002 5a3d cc87 303d 33ea b5bc
000001f0: ab83 423c 1f90 e43d 89b8 913d 1d2d ca3d

network_body._body_endoder.seq_layers.2.weight f4 [128, 128]
0.63089406 -0.66001976 -0.16654834 -0.14096196 0.07059418 -0.23124069 0.034152173 -0.6596502
0.35553205 -0.2636203 -0.0011731705 -0.32310617 0.023286266 -0.68369216 0.18963164 0.092574045
-0.21409446 -0.34155446 -0.13019109 -0.33888784 -0.4447859 0.27782342 -0.4273782 -0.29138634
0.11736558 -0.27157858 0.0231209 -0.13305064 0.111105986 0.13136217 0.023557445 -0.039659314
-0.10068063 -0.024210494 -0.2329602 0.04977754 0.16447252 -0.12567145 -0.0006864533 0.10592481
-0.027039813 0.20991743 0.32687378 0.067838274 -0.20278437 0.09321449 -0.31475002 -0.42775446
-0.31233093 -0.47291887 0.20540899 -0.24506669 0.15819389 0.08424519 -0.7781983 -0.14535144
-0.16795811 -0.5347504 -0.06483219 -0.027899716 0.24028552 -0.19844331 0.21725962 0.019594964
-0.23393843 -0.7883954 -0.010916425 0.12522733 -0.1872181 -0.16666615 -0.11162289 0.07584722
0.024813142 0.19417888 -0.0049167564 -0.26202202 -0.1032346 -0.13972305 -0.21165888 -0.09974104
-0.026548905 -0.0071171564 -0.05890564 0.19672287 -0.4976847 -0.021118872 -0.05785196 0.0801168
-0.05282687 -0.01902624 0.1431125 -0.1440418 -0.046924353 -0.00740731 -0.31781843 -0.09770646
0.022939337 -0.36277443 0.10755635 -0.49816293 0.25951195 -0.063826 0.10071617 0.1916078
0.040276963 -0.34296843 -0.21693419 -0.3623505 0.34205315 -0.27206972 -0.32114685 -0.55178624
0.0628095 -0.26458588 -0.49221477 -0.18767007 -0.15674216 -0.045969684 0.17738162 -0.4784139
-0.18630078 -0.42255843 -0.07513436 0.1722228 0.18823674 0.018589593 0.18456753 0.21642531
-0.050525654 -0.0061164116 -0.12978783 0.48739755 -0.43165973 -0.017807871 0.46286914 0.0017414911
0.15899861 0.41029465 0.543103 0.56849027 -0.3009053 0.11814641 0.18362153 0.3916524
-0.16085497 -0.12417336 0.4953377 0.4669631 0.051518966 -0.3153785 0.004593416 -0.036863755
0.3932967 0.13324784 -0.32720512 -0.42798215 0.025961926 -0.09543304 0.1122822 0.12668224
0.06776311 0.18212213 -0.20318294 0.30556977 0.15898035 0.048728965 0.2719201 0.26797983
0.38248515 0.081190504 -0.055400703 -0.10319946 0.52073073 -0.023225972 -0.1863154 0.3920318
0.18867466 0.7051179 -0.39065814 -0.001588521 -0.24461088 -0.27152562 0.16278175 -0.07345989
0.26105335 0.42951316 0.17451806 -0.5563627 0.06902476 0.10399714 0.08049464 -0.20753126
-0.15496017 0.42354003 -0.35891682 0.27352977 0.09481049 0.18813883 -0.04897716 0.61126035
-0.26688054 -0.07321979 -0.04663933 0.63839966 0.30678365 0.66400987 0.18032746 -0.12433316
0.0984754 0.30473915 -0.122906856 -0.14075127 -0.06399064 -0.26249406 0.17959574 0.06829564
-0.2817346 0.21055838 -0.26152283 -0.15462707 0.70595485 -0.13197728 0.14355686 -0.015871443
-0.23998792 0.32364565 -0.17564967 -0.04422078 0.009082382 -0.027831307 -0.10461652 -0.17956437
-0.22626953 -0.043587144 -0.08109629 0.136773 0.18224289 0.34345078 0.08260783 -0.1712574
-0.013931653 -0.40524912 -0.40718505 -0.17887996 0.14038734 0.07060157 0.05732481 0.23120956
-0.27999434 -0.10481577 -0.014390871 -0.08817709 0.1862713 -0.2970013 -0.06789722 -0.27168
00000000: 4682 213f 0ef7 28bf a68b 2abe 5558 10be
00000010: ae93 903d 5cca 6cbe 26e3 0b3d d6de 28bf
00000020: 4c08 b63e 3df9 86be 12c5 99ba 2c6e a5be
00000030: d7c2 be3c 7306 2fbf cc2e 423e 7697 bd3d
00000040: 943b 5bbe 3ae0 aebe d050 05be b582 adbe
00000050: faba e3be df3e 8e3e 51d1 dabe 9730 95be
00000060: 5d5d f03d 590c 8bbe 0b68 bd3c 6d3e 08be
00000070: 898b e33d ce83 063e 8bfb c03c ce71 22bd
00000080: a531 cebd 1655 c6bc 1e8d 6ebe 89e3 4b3d
00000090: 7c6b 283e 04b0 00be 1af3 33ba 1bef d83d
000000a0: 9982 ddbc 98f4 563e 005c a73e cbee 8a3d
000000b0: b5a6 4fbe 3de7 be3d ea26 a1be a202 dbbe
000000c0: d7e9 9fbe 6c22 f2be bc56 523e c3f2 7abe
000000d0: 94fd 213e be88 ac3d 0138 47bf 02d7 14be
000000e0: 36fd 2bbe 67e5 08bf bdc6 84bd f28d e4bc
000000f0: 680d 763e b934 4bbe 4e79 5e3e 9e85 a03c
00000100: 8e8d 6fbe 48d4 49bf ceda 32bc 983b 003e
00000110: 1ab6 3fbe 88aa 2abe 8b9a e4bd ca55 9b3d
00000120: ee44 cb3c d4d6 463e be1c a1bb c027 86be
00000130: a96c d3bd 8f13 0fbe 1bbd 58be 0845 ccbd
00000140: 177d d9bc 0937 e9bb 0a47 71bd b871 493e
00000150: 87d0 febe 7c01 adbc 2df6 6cbd 4714 a43d
00000160: fd60 58bd ebdc 9bbc 158c 123e b27f 13be
00000170: c033 40bd 05b9 f2bb 19b9 a2be 531a c8bd
00000180: 47eb bb3c 92bd b9be 8146 dc3d 360f ffbe
00000190: c0de 843e 35b7 82bd 4844 ce3d d634 443e
000001a0: 75f9 243d 8f99 afbe ff23 5ebe 0186 b9be
000001b0: 9721 af3e b94c 8bbe 5c6d a4be dd41 0dbf
000001c0: 44a2 803d cd77 87be 9303 fcbe 952c 40be
000001d0: 0481 20be b54a 3cbd 87a3 353e abf2 f4be
000001e0: a2c5 3ebe 9459 d8be 0be0 99bd 2c5b 303e
000001f0: 22c1 403e 3449 983c 45ff 3c3e 999e 5d3e
00000200: fdf3 4ebd 2e6c c8bb 1ae7 04be 2c8c f93e
00000210: 8102 ddbe d0e1 91bc 2ffd ec3e bf42 e43a
00000220: 88d0 223e 2412 d23e cc08 0b3f 9488 113f
00000230: 4210 9abe bff6 f13d 4807 3c3e aa86 c83e
00000240: 2ab7 24be 9a4e febd e79c fd3e ca15 ef3e
00000250: 8d05 533d 4a79 a1be 5e84 963b 73fe 16bd
00000260: 2f5e c93e 1f72 083e 6e87 a7be 7a20 dbbe
00000270: 1bae d43c 6672 c3bd 36f4 e53d fdb8 013e
00000280: 63c7 8a3d 397e 3a3e 300f 50be a473 9c3e
00000290: bfcb 223e 0698 473d 1d39 8b3e a734 893e
000002a0: 18d5 c33e 3547 a63d d9eb 62bd 3d5a d3bd
000002b0: 9c4e 053f 6544 bebc 77c9 3ebe 64b8 c83e
000002c0: ee33 413e 9b82 343f 5804 c8be eb35 d0ba
000002d0: 467b 7abe 6805 8bbe 42b0 263e 2472 96bd
000002e0: c9a8 853e 26e9 db3e ddb4 323e c96d 0ebf
000002f0: da5c 8d3d 74fc d43d 60da a43d 1383 54be
00000300: e1ad 1ebe 3dda d83e f2c3 b7be 180c 8c3e
00000310: 012c c23d 77a7 403e 469c 48bd 8f7b 1c3f
00000320: 91a4 88be 42f4 95bd e208 3fbd 296e 233f
00000330: bf12 9d3e 8dfc 293f c3a7 383e 62a2 febd
00000340: 78ad c93d c506 9c3e 97b6 fbbd 1a21 10be
00000350: 860d 83bd 9f65 86be f2e7 373e 96de 8b3d
00000360: 843f 90be 9e9c 573e 52e6 85be 8f56 1ebe
00000370: 75b9 343f 0d25 07be 9200 133e d404 82bc
00000380: 65bf 75be e2b4 a53e 82dd 33be d920 35bd
00000390: 45ce 143c 7bfe e3bc 3041 d6bd b9df 37be
000003a0: 33b3 67be 6f88 32bd d015 a6bd 390e 0c3e
000003b0: e19d 3a3e c8d8 af3e 4b2e a93d 1a5e 2fbe
000003c0: 9741 64bc d07c cfbe 8f7a d0be 4f2c 37be
000003d0: b3c1 0f3e 8e97 903d 6ccd 6a3d 33c2 6c3e
000003e0: 6b5b 8fbe a7a9 d6bd b0c7 6bbc 3196 b4bd
000003f0: e7bd 3e3e 8e10 98be b30d 8bbd a419 8bbe

network_body._body_endoder.seq_layers.2.bias f4 [128]
-0.050015382 0.035718843 0.007197382 0.11789134 0.24665393 0.17822531 -0.093398936 0.037532795
-0.14099541 0.0513881 -0.026466597 -0.084589936 0.09265005 0.1384716 0.13997093 0.14295828
-0.18255565 -0.23183417 0.022840671 0.07110518 0.24360183 0.15622257 -0.09733286 0.33418262
-0.32232442 -0.105968304 -0.10460491 0.124204524 -0.16937202 -0.21388306 -0.06121936 -0.05023259
0.061823744 0.16425246 -0.02941634 -0.06414358 -0.1288285 0.14409463 0.09565625 0.19976844
0.034761492 0.07473359 -0.1366996 -0.26785284 -0.16726175 0.07931003 0.22811505 0.091261536
-0.3441775 -0.18275918 -0.15975988 -0.018080013 0.1367173 -0.10699157 -0.021028347 0.18330413
-0.07722261 -0.09540907 0.10663935 0.2620616 -0.22689523 -0.20394373 -0.026160166 0.349014
0.06570497 0.04945599 -0.33019555 -0.023872823 -0.047266927 -0.05392133 -0.30689016 0.030417822
-0.18756777 -0.12542531 0.06086923 0.22694874 0.098608 -0.03778732 -0.09762332 0.32736734
-0.14723195 0.4274576 -0.18386586 0.20191424 0.0036237512 0.13239025 0.2503571 0.3240394
0.17107138 0.0895655 0.0036123104 0.23405564 0.27945185 -0.19058652 -0.060047675 -0.24907863
0.17322202 0.11499755 -0.13712843 0.083323605 0.041604612 0.11624569 0.119108215 0.04001085
0.25196317 0.02087126 0.38507834 0.2004075 -0.030465914 0.04901344 -0.30891058 0.019270701
0.12995234 0.24708746 0.0946849 0.14960675 -0.121710435 0.055567287 0.056929037 -0.2696364
-0.18265381 -0.19089282 0.06256595 -0.027663074 0.03965535 0.085065335 -0.027464785 0.084970355
00000000: eedc 4cbd ec4d 123d 04d8 eb3b 0471 f13d
00000010: d992 7c3e b280 363e f147 bfbd fdbb 193d
00000020: 1a61 10be 547c 523d 7ad0 d8bc 7d3d adbd
00000030: 4fbf bd3d 80cb 0d3e 8a54 0f3e a863 123e
00000040: deef 3abe f065 6dbe 5c1c bb3c 989f 913d
00000050: c272 793e cff8 1f3e 7356 c7bd fc19 ab3e
00000060: b507 a5be e905 d9bd 193b d6bd f15e fe3d
00000070: dc6f 2dbe 2904 5bbe 27c1 7abd b0c0 4dbd
00000080: e53a 7d3d cc31 283e 89fa f0bc b65d 83bd
00000090: 9eeb 03be 8b8d 133e 6de7 c33d 1990 4c3e
000000a0: 1162 0e3d ed0d 993d fbfa 0bbe 0224 89be
000000b0: aa46 2bbe 4c6d a23d fe96 693e 54e7 ba3d
000000c0: 0938 b0be 3925 3bbe 1898 23be 891c 94bc
000000d0: 9fff 0b3e 651e dbbd a443 acbc 14b4 3b3e
000000e0: e326 9ebd d565 c3bd bb65 da3d f02c 863e
000000f0: 3957 68be a0d6 50be d84d d6bc f7b1 b23e
00000100: 5490 863d 5d92 4a3d 640f a9be f090 c3bc
00000110: f79a 41bd 9ddc 5cbd b520 9dbe cc2e f93c
00000120: c411 40be 7e6f 00be 0452 793d 4065 683e
00000130: fef2 c93d e0c6 1abd bcee c7bd b19c a73e
00000140: f9c3 16be b9db da3e 5547 3cbe 9bc2 4e3e
00000150: 757c 6d3b 4f91 073e ce2e 803e 7ee8 a53e
00000160: 562d 2f3e 1e6e b73d 83bc 6c3b 48ac 6f3e
00000170: 5014 8f3e 1d29 43be 8df4 75bd 780e 7fbe
00000180: 1d61 313e d683 eb3d 656b 0cbe 91a5 aa3d
00000190: 9969 2a3d 3812 ee3d 02ef f33d 6be2 233d
000001a0: 5101 813e 34fa aa3c fd28 c53e a037 4d3e
000001b0: a793 f9bc 51c2 483d 8729 9ebe 97dd 9d3c
000001c0: 3a12 053e 7f04 7d3e 28ea c13d 8332 193e
000001d0: 5243 f9bd 869a 633d 6c2e 693d c80d 8abe
000001e0: 9a09 3bbe 6879 43be 9422 803d ac9d e2bc
000001f0: a66d 223d bc36 ae3d d4fd e0bc f004 ae3d

action_model._discrete_distribution.branches.0.weight f4 [7, 128]
-0.37967384 0.015703995 -0.21265294 -0.4801527 -0.21518439 0.09891734 -0.23644887 -0.06651002
0.08088506 -0.048098113 -0.08707699 -0.5767854 -1.2198559 0.004809745 0.12365317 -0.09218383
-0.053335726 -0.019376634 -0.32695717 0.3089956 -0.1401078 0.121390745 -0.015556408 -0.03565564
-0.16995567 -0.56620914 -0.047612924 0.018055648 0.060094103 0.2401718 0.2657502 0.6366315
0.10035543 -0.43714136 -0.011558195 0.2016572 0.19248728 0.01291046 0.21057138 -0.078459315
0.2674969 0.2139401 -0.09216047 0.39696413 -0.40095124 -0.018943042 0.024962628 0.2118278
0.14869657 -0.011771634 0.16393639 -0.35708505 -0.04315547 -0.24662425 -0.15716177 -0.38510433
-0.21736048 0.052337762 0.18161185 0.06097035 -0.14734541 -0.27087328 -0.05854613 -0.25135085
0.06796653 0.33829638 0.014150879 0.3184469 -0.11382677 -0.20938702 -0.3950835 0.119490236
0.019450698 0.121597044 0.0373006 -0.08871736 0.104218416 0.061446 -0.48028538 -0.5057525
-0.12062474 0.11040152 0.2638496 -0.44351125 -0.67873126 0.121921346 0.34128892 0.17750925
0.05230417 0.031630572 -0.10653752 0.34998605 0.15871628 -0.6867621 -0.31599143 -0.016476389
0.0517785 0.14926323 -0.05140652 -0.37888035 -0.33965534 -0.3439538 0.273711 -0.31601366
0.1508442 -0.5561972 0.12720802 0.12917991 -0.4802223 0.057854906 -0.049592994 -0.10745252
0.03227782 -0.056907274 -0.47475997 -0.73951936 -0.05375092 0.052166406 -0.14316292 0.07886042
-0.41203088 -0.17125905 0.07883958 0.081015445 0.18846029 0.058789317 0.42781797 0.1570192
0.12139013 -0.5827501 -0.07604355 0.09034811 -0.21778375 0.14495686 0.33396226 -0.29312065
-0.020481147 0.36864498 -0.4437834 0.40252715 0.13917609 0.14145392 0.19033201 0.09586601
-0.4948333 0.6148121 0.31733006 -0.0034447645 -0.13618979 -0.27126977 0.04762294 -0.21737349
0.44432914 0.156157 0.29255247 0.0057080123 0.5206102 0.49962485 -0.13692956 0.18390465
-0.3302241 0.30121753 0.47087246 -0.10144777 0.3612285 0.5617961 -0.39717475 0.56860477
0.3929695 -0.21499413 0.034272633 0.28390634 0.04582919 0.36682087 0.2234519 -0.5459714
0.1151225 0.48787293 0.0022605027 0.18194911 0.5549433 0.1122945 -0.26662293 -0.05546476
0.4876009 -0.02270195 0.13802 -0.3717319 0.4777378 0.6070294 0.12722763 0.15167436
-0.24986827 0.38152593 0.39847702 -0.48854506 -0.1709382 0.27226177 0.040401462 -0.034468632
0.27365416 -0.18138383 0.17636865 0.17767876 0.3482649 0.077798165 0.115999386 -0.14030921
-0.16095863 -0.06758586 -0.14689198 0.58808905 0.22021002 0.0933125 -0.20571724 -0.36240262
0.19806688 0.35069883 0.7491025 0.1274197 -0.07207159 0.14950901 -0.042338755 0.57717425
0.24061322 0.07877148 -0.2316958 0.53209186 -0.62792134 -0.264764 -0.18548276 0.2361327
0.35181418 -0.009921068 -0.08751032 0.25155583 0.16046128 0.35613796 0.49630237 0.4061662
0.15105633 -0.6501147 0.10754399 0.3492518 0.3440379 0.4106999 0.014857827 0.2342088
0.6986126 0.12675662 0.112152375 -0.2861645 -0.11706422 0.31945494 0.04129446 0.42081824
00000000: 9c64 c2be aaa5 803c b1c1 59be 93d6 f5be
00000010: 4c59 5cbe 2d95 ca3d a71f 72be 6836 88bd
00000020: 11a7 a53d 8702 45bd 6c55 b2bd 35a8 13bf
00000030: 3d24 9cbf 119b 9d3b e03d fd3d e0ca bcbd
00000040: 9076 5abd bfbb 9ebc ee66 a7be ac34 9e3e
00000050: 6b78 0fbe b69b f83d 4ee0 7ebc a60b 12bd
00000060: dc08 2ebe 15f3 10bf c505 43bd 70e9 933c
00000070: 3c25 763d 99ef 753e 6910 883e 48fa 223f
00000080: 2687 cd3d fed0 dfbe 955e 3dbc 3a7f 4e3e
00000090: 631b 453e 6586 533c 06a0 573e 47af a0bd
000000a0: 5bf5 883e 1d13 5b3e a1be bcbd e23e cb3e
000000b0: 7b49 cdbe 702e 9bbc 6d7e cc3c 63e9 583e
000000c0: ea43 183e d0dd 40bc f1de 273e dad3 b6be
000000d0: cac3 30bd 118b 7cbe 04ef 20be 652c c5be
000000e0: bf93 5ebe 1f60 563d 75f8 393e 0cbc 793d
000000f0: b7e1 16be e7af 8abe 11ce 6fbd 0fb1 80be
00000100: 0932 8b3d 2f35 ad3e 17d9 673c 790b a33e
00000110: 021e e9bd 8d69 56be 6248 cabe 4cb7 f43d
00000120: 1257 9f3c df07 f93d 84c8 183d 72b1 b5bd
00000130: 7770 d53d cdae 7b3d f7e7 f5be ff78 01bf
00000140: 1b0a f7bd 311a e23d 4b17 873e e813 e3be
00000150: 55c1 2dbf e6b1 f93d 6cbd ae3e fcc4 353e
00000160: e63c 563d 0f8f 013d 5830 dabd 5f31 b33e
00000170: 8586 223e a4cf 2fbf a1c9 a1be 7ef9 86bc
00000180: b115 543d 76d8 183e a58f 52bd 9bfc c1be
00000190: 4ee7 adbe b61a b0be d923 8c3e 8bcc a1be
000001a0: e776 1a3e f162 0ebf d242 023e bd47 043e
000001b0: b3df f5be 44f9 6c3d 0622 4bbd 1110 dcbd
000001c0: bf35 043d 9a17 69bd bd13 f3be 2451 3dbf
000001d0: ed29 5cbd 71ac 553d 4d99 12be 9281 a13d
000001e0: b6f5 d2be 885e 2fbe a576 a13d 6deb a53d
000001f0: bcfb 403e 11cd 703d f50a db3e a4c9 203e
00000200: 639b f83d 1c2f 15bf b9bc 9bbd 6e08 b93d
00000210: b402 5fbe 926f 143e 1afd aa3e e913 96be
00000220: 14c8 a7bc 09bf bc3e 9437 e3be 0a18 ce3e
00000230: 2d84 0e3e 4cd9 103e 65e6 423e 6655 c43d
00000240: ca5a fdbe 5364 1d3f 1679 a23e 8fc1 61bb
00000250: 5675 0bbe dfe3 8abe 4610 433d 2897 5ebe
00000260: 1c7f e33e 9fe7 1f3e 70c9 953e 470a bb3b
00000270: b646 053f d4ce ff3e 4337 0cbe 8051 3c3e
00000280: 2213 a9be 2f39 9a3e 3216 f13e d9c3 cfbd
00000290: f1f2 b83e dfd1 0f3f 7d5a cbbe 1590 113f
000002a0: 4c33 c93e 6c27 5cbe 7661 0c3d 2c5c 913e
000002b0: 64b7 3b3d f2cf bb3e 93d0 643e c8c4 0bbf
000002c0: 58c5 eb3d 7bca f93e f124 143b de50 3a3e
000002d0: c410 0e3f a9fa e53d cd82 88be 042f 63bd
000002e0: d3a6 f93e 71f9 b9bc 1d55 0d3e a553 bebe
000002f0: 0d9a f43e 4766 1b3f f647 023e 8650 1b3e
00000300: 78dd 7fbe 5e57 c33e 2e05 cc3e 9422 fabe
00000310: 6c0a 2fbe e565 8b3e 017c 253d fb2e 0dbd
00000320: 661c 8c3e afbc 39be fc99 343e 6cf1 353e
00000330: c74f b23e a554 9f3d 1691 ed3d 38ad 0fbe
00000340: 57d2 24be 756a 8abd da6a 16be 018d 163f
00000350: bc7e 613e a01a bf3d 8aa7 52be d68c b9be
00000360: 0bd2 4a3e cc8e b33e 2ec5 3f3f 4f7a 023e
00000370: 459a 93bd e418 193e 676b 2dbd b1c1 133f
00000380: 5063 763e f152 a13d aa41 6dbe 2c37 083f
00000390: 74bf 20bf 268f 87be 31ef 3dbe c5cc 713e
000003a0: fd20 b43e fa8b 22bc 9c38 b3bd edcb 803e
000003b0: f64f 243e b757 b63e 581b fe3e 04f5 cf3e
000003c0: 83ae 1a3e eb6d 26bf 0640 dc3d 22d1 b23e
000003d0: bc25 b03e 4247 d23e 3e6e 733c 6fd4 6f3e
000003e0: 46d8 323f 7dcc 013e 25b0 e53d 2784 92be
000003f0: 5ebf efbd 998f a33e 6124 293d 7d75 d73e

action_model._discrete_distribution.branches.0.bias f4 [7]
-0.057993732 -0.22921208 0.16556908 0.21747288 -0.55397147 0.20865348 0.22382039
00000000: d68a 6dbd 92b6 6abe f18a 293e 36b1 5e3e
00000010: 13d1 0dbf 42a9 553e 2c31 653e
