Source/Trained_Policies/WeightAgent_Training/WeightAgent_Training/WeightAgent_Training-244999986.onnx (onnx, 155824 bytes, 6 tensors)

network_body._body_endoder.seq_layers.0.weight f4 [128, 163]
00000000: 11f0 933e 1354 f2be d7b6 893d 253e 3b3e
00000010: 8021 dd3e bc73 63bd 6f92 e5be a89a 91be
00000020: 017b f83d d5c6 393f 12cf 9b3e a0dd 52be
00000030: 502d cc3e 75ef 4fbc cdf6 293e 6902 a4bd
00000040: 8f1e b7be 5890 67bf bc74 fb3c 3ad0 053f
00000050: 604e f63e 05d5 edbb d81c 2c3f c20c b63e
00000060: cd77 05bf c110 afbe 28ae b4be 0796 eabe
00000070: 08e1 81be fad7 d83e 0e88 563e 3c3a 4c3d
00000080: c924 113f 794d 073e bcb8 16bf 0503 7ebe
00000090: 280a 2dbf 56e2 49be 2177 45be 97a8 723e
000000a0: 2ddc 383e 6960 2f3e 0023 0d3f 3b2c 733e
000000b0: 1f38 1dbf 469b d1be 2fde fcbe 811f a83c
000000c0: 184f 23be b366 aa3d 04a3 0e3f a536 9e3e
000000d0: 5c42 ea3d 45e4 223f cbcd 8fbe 3a21 a2be
000000e0: 0eda 603d 1a6f 6e3e 8f9a 3fbe 16e2 a23e
000000f0: 156e d73e 963a d03d 0210 883e 64b0 f83c
00000100: 8466 babe 496f 81be 1692 87be 73c8 2a3e
00000110: 1652 fabd 1766 223e a760 0a3f 2ddc 26bd
00000120: 1e5e a83e c46c 363e f3fc e2bd e6e2 263e
00000130: a57a d63c 51e5 783e 5c2d 71be ebe4 693d
00000140: 91f5 ac3e 5ac4 dbbe 36ea 77be 5952 ec3d
00000150: c405 b0bb aaf7 2d3e 7d4b c6be 4415 82bd
00000160: 5fed cfbd a5b4 e33d 162a 1c3e dcc9 6c3e
00000170: e4e6 8ebe bb7c e7bd 9229 9c3a fe3f ddbd
00000180: ab55 c1bd 37e2 493e fc0a 43be 8051 353d
00000190: 7a70 6d3d ac5f 5abe d3f8 51be 119b f83d
000001a0: 67b1 013c 4e64 603d 7345 16be fb2e bf3c
000001b0: cd43 383e c1dc 1b3d e43d f43d 3db2 a2be
000001c0: 37e6 5fbd 7a74 8f3e 709a acbd b218 6bbe
000001d0: 0963 a73d 8e66 1fbe 2b98 27bd c502 273e
000001e0: 67d4 a33c 9e23 d1be 6cbd ba3d 12ba 393e
000001f0: c439 57be 9494 adbe 7cf7 203e d753 0d3b
00000200: 138a 333e 2338 d43d 4b88 09be d32b 81bd
00000210: 928c f73c e839 09be da56 87be 267c 1fbd
00000220: bb60 65be 3543 7abe 028c 033e 2d4f 8c3d
00000230: 3d05 a9be 940c 48be 234b b3be b8df ce3c
00000240: 322d 22be 9a98 2abe e415 c9bd 3b8a 8c3d
00000250: d477 6bbd 37c7 9b3d fe0e 56be e2a3 80be
00000260: e5c5 bfbc dc5d 863d cf80 2c3d 56a8 5abd
00000270: 78d2 963e ca24 91be b9fa d2bc d6c4 9dbd
00000280: f4c1 7f3d 597c 2d3e 1740 20bf 6b19 d539
00000290: ed14 fa3e 3193 e0bd ac08 9abd b712 13bf
000002a0: 0856 6e3d d027 6e3e 94a2 363d b0bb 113e
000002b0: c304 7dbf 99c2 5e3e 21e6 733d 28e7 4bbf
000002c0: 165a eb3e 49e6 01bf 33c2 f33c 492d cf3e
000002d0: 6cf3 993e 6156 75bc 4d20 6bbf 7cb3 cc3e
000002e0: 936a 623e d1dd acbf 3d4e 2d3e 8a82 36be
000002f0: cfd4 1bbe 9638 8d3d 4ba9 453e 851c bc3e
00000300: 8ab0 15bf 8baa 1fbd 9ac2 8a3e 983f 4dbf
00000310: 79c9 753e 62bb 023d ebde 6abd eb1e 803c
00000320: 688d 653e f632 2f3e 6c79 2ebf 4667 5f3d
00000330: 9928 af3e 61d4 f6be fb0d c63d 33b1 fb3d
00000340: 8c16 9f3c 6591 b33d f97c 9c3e 77d5 963e
00000350: 2b61 e4be 53d3 b23d db9b a83e 1928 44be
00000360: 24f0 b4bc 2ad5 183e adf8 763d 8e9a f93d
00000370: ec65 223e b039 6e3e 238f 72bd 6947 4e3c
00000380: 5f68 4e3e 10f0 1c3e c3a0 94bd 05a3 043e
00000390: e1db 053d 8762 923e f841 493e 0868 29bd
000003a0: 8573 ae3d e391 043e 4fcf 7c3e 433d 60bc
000003b0: a6e4 093e b1e5 9f3d 463e 8dbe f604 373e
000003c0: d1f9 943d aa3d b5bd 9505 9f3d 85a7 8c3d
000003d0: 6a1b f2bb 6bb1 2a3e a6c3 8dbe 6971 2d3c
000003e0: 19e0 46bd 980b b43d 4621 bc3d 7641 063e
000003f0: 9932 6f3e 8400 a33e eabb 523d 84c4 34be
0.28894094 -0.4732977 0.06724327 0.18285425 0.4318962 -0.055530295 -0.44838282 -0.28438306
0.12132836 0.7256902 0.3043142 -0.20592356 0.3987832 -0.012691368 0.16598053 -0.08008272
-0.35765502 -0.90454626 0.030695312 0.52270854 0.4810667 -0.00725806 0.6723151 0.35556608
-0.52135926 -0.3419247 -0.3528912 -0.45817587 -0.25366998 0.42352277 0.20950338 0.049860224
0.56696755 0.13213147 -0.5887563 -0.2480584 -0.6759362 -0.19715247 -0.19283725 0.23697124
0.1805274 0.17126621 0.5513153 0.23747341 -0.6141376 -0.40938777 -0.49388263 0.020522835
-0.1594814 0.083203696 0.5571749 0.30901065 0.11438438 0.6362956 -0.28086695 -0.31665975
0.054895453 0.2328457 -0.18711303 0.31813115 0.42076173 0.101674244 0.26574713 0.030357547
-0.36406338 -0.25280216 -0.26478642 0.16678028 -0.12222688 0.15859257 0.5405373 -0.04073732
0.32884306 0.17814928 -0.110834025 0.16297492 0.026181528 0.24306227 -0.2355246 0.05710308
0.33781102 -0.42923242 -0.24210438 0.11539144 -0.005371781 0.16989008 -0.38729468 -0.06351712
-0.10152697 0.111184396 0.1525043 0.23123878 -0.2791053 -0.11303087 0.0011914244 -0.10803221
-0.09440168 0.197152 -0.19047159 0.044267178 0.057968594 -0.21325558 -0.20505075 0.121389516
0.007915831 0.054783158 -0.1467493 0.023337832 0.17994614 0.038052324 0.11925867 -0.3177661
-0.05466291 0.28018552 -0.08427894 -0.2295864 0.08173186 -0.15566465 -0.040916603 0.1630965
0.019998742 -0.40847486 0.091181606 0.18137386 -0.2101813 -0.3390242 0.15719408 0.0021564865
0.1753314 0.1036227 -0.13430898 -0.06307187 0.030218396 -0.13400996 -0.2643345 -0.038936757
-0.22400181 -0.244397 0.12846377 0.06851039 -0.3301181 -0.19536048 -0.35018262 0.025253162
-0.15837553 -0.16659775 -0.098186284 0.06862303 -0.057487324 0.076063566 -0.20904157 -0.25125033
-0.023409793 0.06560871 0.04211503 -0.053383194 0.2945745 -0.2834838 -0.02575432 -0.07703559
0.062440827 0.16941966 -0.62597793 0.00040645464 0.4884409 -0.109655745 -0.07521185 -0.5745043
0.058187515 0.23257375 0.04458864 0.14231753 -0.9883539 0.2175392 0.05954564 -0.7964959
0.45967168 -0.5074201 0.029755687 0.40464237 0.3006853 -0.014974208 -0.9184616 0.39980686
0.22110967 -1.3505193 0.16924377 -0.17823234 -0.15217899 0.068955585 0.19302861 0.3674051
-0.584725 -0.038981 0.27101594 -0.8017516 0.24002637 0.031916983 -0.057341497 0.015639743
0.22417223 0.17109284 -0.68154025 0.05454185 0.3421066 -0.48208907 0.09670635 0.122896574
0.01941993 0.08767966 0.30564097 0.29459736 -0.44605383 0.08731713 0.32931408 -0.19155921
-0.022087164 0.14925066 0.06029575 0.12187682 0.15859193 0.23264194 -0.059218537 0.012590268
0.20157002 0.15325952 -0.07257225 0.12952812 0.032680396 0.28590795 0.19654071 -0.041358978
0.08518127 0.12946276 0.24688457 -0.013686481 0.13466129 0.07807482 -0.27586573 0.17872986
0.07274211 -0.08849652 0.077647366 0.06867889 -0.007388522 0.16669242 -0.2768833 0.010586121
-0.04855356 0.08791274 0.09186034 0.13110909 0.23359145 0.3183633 0.05144874 -0.1765309

network_body._body_endoder.seq_layers.0.bias f4 [128]
00000000: aab3 983c bee7 e53d 25bb 533d 0888 7abd
00000010: 22a5 1b3e a1bf 1cbd 36ef 073d c718 b43e
00000020: 4a19 dfbd adc0 a7ba d553 813d 65b7 dc3d
00000030: 87cd a83c bb10 8c3d 1d8c 823d 66ac cdbd
00000040: 4a6b fcbc d418 41bd 2e34 893d bf45 0cbe
00000050: a884 433e 4317 00be 2654 563e 234c e1bd
00000060: 611c 043e 3639 973d 2871 62bd 2560 d839
00000070: 572b aa3d b3c1 f13c badb 09be 9c26 b33d
00000080: 742a a4bb 3e08 f33d 8145 8c3d d421 073d
00000090: 6374 223e 8cfb 7f3d 75be e9bb c0e1 c9bd
000000a0: 8b11 503e a72c aebd e205 15bd ab33 2a3d
000000b0: 644b c63d 3d45 b3bb 74be 57bc 6f8e 3d3c
000000c0: 6304 58bd 4545 2d3d 8df0 27be 2ce5 673c
000000d0: bc28 863d e643 193d 928c 91bc 287a 40bd
000000e0: e943 a9bd e0b2 d03d 40f5 28bc b021 183d
000000f0: 8a60 dc3c 207d 3d3d 97c0 41bd f2a1 c43c
00000100: 21d4 4a3e 0621 183d a448 033d 6b06 b6bd
00000110: 278f 3bbe b20d 44be 59c8 893e d5dd afbd
00000120: dd8b 5fbc 168a 77bd ff1a c73d e036 12bb
00000130: ae94 c4bd 6d51 a03b c043 273c d41c 093e
00000140: 5d34 1cbb 17c7 1dbd 4a92 8b3e 9254 dbbd
00000150: 3722 dfbc c654 ca3c af61 15be 71e8 15bd
00000160: f3bb b7bd 2486 7f3c aa2d eb3c efe0 c7bd
00000170: 4689 c63b 01e4 7fbc 0287 4d3e 7461 933d
00000180: d0c3 693e cf49 5cb8 9b34 353e ba55 ed3c
00000190: ff4b 3d3c 573b 2fbe 5f4d 2a3e 55d4 ce3d
000001a0: e597 a3bc 5acc 32bd 43d9 f2bd 0e1c b53c
000001b0: f886 bc3d 6b68 30be 1ede 97bd 6ecd b1bd
000001c0: 044f 1c3e 8510 b8bd 57dd 0dbd 8e25 28be
000001d0: bb31 573d a7f6 553d 82ba 353e 4492 8abd
000001e0: e403 773d 2dde 643d 2105 163d a682 7cbc
000001f0: e624 673c 6692 e23d e52e 983d c999 ce3d
0.018640358 0.11225842 0.051692147 -0.061164886 0.15199712 -0.03826869 0.033187114 0.35175154
-0.108934954 -0.0012798511 0.06314818 0.10777167 0.020605816 0.068391286 0.06374381 -0.10042648
-0.030812878 -0.04714282 0.066994056 -0.13698481 0.19093573 -0.12508874 0.20930538 -0.1100085
0.1290145 0.07383959 -0.055283695 0.00041270364 0.08309048 0.029511308 -0.13462725 0.087475985
-0.0050099436 0.118668064 0.06849194 0.032991245 0.1586471 0.062495753 -0.0071333 -0.098575115
0.20319192 -0.085046105 -0.036382563 0.04155318 0.09682348 -0.0054709003 -0.013167966 0.011569603
-0.05273856 0.04230239 -0.16400357 0.01415376 0.06550738 0.03741827 -0.017767224 -0.046991497
-0.08264906 0.10190368 -0.010312378 0.037141502 0.026901502 0.046261907 -0.04730281 0.024003003
0.19807483 0.03714087 0.032051697 -0.08887943 -0.18316327 -0.1914585 0.26910666 -0.08587233
-0.013644186 -0.060434423 0.09721946 -0.002231054 -0.09598671 0.004892519 0.010209024 0.13389903
-0.0023834922 -0.038519945 0.27260047 -0.1070949 -0.027237995 0.024698626 -0.14588045 -0.036598627
-0.08971395 0.015595946 0.028708298 -0.097596996 0.0060588447 -0.015618325 0.20071033 0.07196322
0.22828603 -5.2520827e-05 0.17695849 0.028971542 0.011553763 -0.1711248 0.16631077 0.10099093
-0.01996989 -0.043651916 -0.11857846 0.022108104 0.09205431 -0.17227332 -0.07415412 -0.08681761
0.15264517 -0.08987526 -0.034634914 -0.16420576 0.05253766 0.05223718 0.17746928 -0.06766179
0.060306445 0.055875946 0.036625985 -0.015412008 0.014107918 0.110630795 0.074308194 0.10087926

network_body._body_endoder.seq_layers.2.weight f4 [128, 128]
00000000: 48cb 213f c41a 29bf aff5 30be 46a7 15be
00000010: 5e1d 823d 6ae9 7ebe c3a6 0a3d 0048 28bf
00000020: c032 b23e 7e76 8bbe fea7 1dbc 6e17 a7be
00000030: 435f af3c 82c6 2fbf d148 353e efd5 c93d
00000040: 0d3e 4fbe 93a4 abbe e190 02be c90f a9be
00000050: 4d19 ddbe b8ae 8b3e c13a dbbe 713f 8cbe
00000060: 2822 f03d 52f1 8dbe a174 be3c e445 12be
00000070: 0d28 c73d 1f8a 103e e733 b83c 563c 0fbd
00000080: eff1 dabd 3cda f0bc 2500 78be 9ce9 213d
00000090: 8b64 233e 4c50 15be 7078 a9bb e26d d33d
000000a0: c647 b6bc 6f5a 583e ba52 a13e cff1 913d
000000b0: 76bb 4fbe 77d1 b93d adab a1be 2329 dabe
000000c0: cfc3 95be e049 f9be 5cc9 513e c59b 76be
000000d0: a3e9 183e e311 be3d 8abe 47bf 9101 0dbe
000000e0: 6cff 35be d10e 0cbf e307 98bd a464 b0bc
000000f0: 5a14 6c3e dc70 59be 326f 613e 5e46 db3c
00000100: e719 6bbe bae0 4abf 536e babc 508e 0a3e
00000110: 91d6 46be a965 30be 91a3 debd bb33 a33d
00000120: 7023 823c 1a5d 423e d926 61ba 49b6 87be
00000130: e574 d7bd f9d4 10be 4ffd 57be c7c8 c8bd
00000140: 3c4b c3bc 8d81 26bc fe82 50bd e167 563e
00000150: 91f5 fcbe eed6 98bc 33e4 56bd da10 b43d
00000160: 331c 56bd dce7 e4bc b244 0b3e 2cac 13be
00000170: 2cd7 61bd 2438 8eba 4a45 a7be 06aa e8bd
00000180: 150c c83c a720 bcbe 31db d53d c499 02bf
00000190: 0a4b 823e c5b1 74bd b1d8 d73d aa5e 4d3e
000001a0: 47eb e23c 2b4e adbe c80a 63be 75ba b5be
000001b0: 69d6 b43e 7c55 94be f68e a2be c0b9 0dbf
000001c0: 6616 8a3d 0a56 81be d0c1 f3be 354a 44be
000001d0: a48d 20be 373e 0ebd e919 493e d07d f7be
000001e0: 08da 4dbe aff2 d9be 08c3 8cbd 93a4 2e3e
000001f0: 417d 3b3e 7721 8f3c 40f5 313e b71f 4a3e
00000200: 7547 7fbd 3177 debb f180 02be 7dd4 f93e
00000210: ca1f ddbe 1448 48bc 9d1c ed3e 5a67 9c3b
00000220: 99e6 263e f388 d33e 0982 0b3f 96f3 143f
00000230: d12c 9bbe dea9 f13d fadf 393e f182 c93e
00000240: 32f7 29be 9a72 fcbd 65cb ff3e 78d4 ee3e
00000250: 4e78 383d 9baf a1be 67f0 d23b b3ed 02bd
00000260: 530b c63e 963f 083e b0ae a7be 3f91 d4be
00000270: 182c 033d e038 c9bd 02e3 e53d feeb ff3d
00000280: 2c16 853d 5e4b 3b3e fadb 4dbe 1fc5 9d3e
00000290: bdee 203e 9183 753d b1eb 8d3e b39d 8a3e
000002a0: d17d c13e 1dec 9f3d db1f 53bd 39e1 cfbd
000002b0: 047f 073f afcd bebc 1c10 44be e8c1 c83e
000002c0: de3e 423e d758 343f 3b38 c8be 05bb ef3a
000002d0: 15b2 75be b2da 8dbe d41f 293e 4e8e a2bd
000002e0: 5c66 853e 8536 dc3e 3045 373e 32b1 0dbf
000002f0: 2c4c 933d e9e8 de3d 9116 a73d 212c 54be
00000300: 9c5c 21be 0391 da3e 8cc8 b6be 062b 893e
00000310: df7e cb3d eda3 473e aed0 2cbd 079f 1d3f
00000320: c3cd 88be 6dac 9dbd 9783 3fbd a9b8 233f
00000330: 3e43 9d3e 3992 2a3f 122f 373e c57f fbbd
00000340: ba5c c83d d5be 9a3e 6238 fdbd abbf 13be
00000350: f9d4 7ebd 9e97 82be 0b1a 363e 95cd ac3d
00000360: 420e 8ebe a369 5e3e ce5b 87be 1ce2 1fbe
00000370: 1287 323f e04a 09be 109e 103e 0aa4 cdbb
00000380: 2f75 76be 639c a63e 16ed 35be 1f79 13bd
00000390: 25f0 993c 8bd1 15bd 22a1 d1bd 5b30 39be
000003a0: cf9b 61be a0d1 26bd 8358 b1bd 0001 0d3e
000003b0: d0e4 373e 1b4f b13e d1eb 8f3d 04bc 2dbe
000003c0: 9dd5 66bc c648 cdbe d6f4 cfbe 07c8 33be
000003d0: cef9 163e f787 8e3d 9c19 893d 5e8a 6e3e
000003e0: 5cdd 8abe 79ac d5bd 2fb0 edbb f5b5 bebd
000003f0: e45b 433e 0e20 97be feef 97bd 2cc5 8abe
0.6320081 -0.66056466 -0.17281221 -0.14614591 0.063532576 -0.24893728 0.033850443 -0.65734863
0.34804344 -0.2723884 -0.009622572 -0.32635063 0.021407729 -0.68662274 0.17703559 0.09855258
-0.20238514 -0.33523998 -0.1275058 -0.33019856 -0.43183365 0.27281737 -0.42818263 -0.27392152
0.11725265 -0.27723175 0.023248972 -0.14284474 0.09724436 0.14115189 0.022485686 -0.03496965
-0.106906764 -0.029400937 -0.24218805 0.039529428 0.15956323 -0.14581412 -0.005171828 0.10323693
-0.022251021 0.21128248 0.31508428 0.071261995 -0.20286354 0.090731554 -0.3157629 -0.4260951
-0.29250953 -0.48689175 0.20486969 -0.24082859 0.14932875 0.09280755 -0.78025115 -0.13770129
-0.17773217 -0.5471011 -0.07423379 -0.021532364 0.23054639 -0.21234459 0.22015074 0.026766952
-0.229591 -0.79249156 -0.022757685 0.1353085 -0.19417788 -0.1722628 -0.108710416 0.07968851
0.015886039 0.18980828 -0.00085888576 -0.2650626 -0.10520343 -0.14143743 -0.21092723 -0.0980392
-0.023839585 -0.010162723 -0.050906174 0.20938064 -0.49406102 -0.018657174 -0.05246372 0.08792277
-0.052272987 -0.02794259 0.13600424 -0.14421147 -0.055136845 -0.0010850471 -0.3267005 -0.113605544
0.024419824 -0.36743662 0.10442198 -0.5101588 0.25447875 -0.059739847 0.105393775 0.20055643
0.02770008 -0.338487 -0.22172081 -0.35493818 0.35319832 -0.2897147 -0.31749696 -0.55361557
0.067425534 -0.25260955 -0.47608805 -0.19168933 -0.15679032 -0.0347273 0.1963879 -0.48338175
-0.20102704 -0.42567965 -0.06873137 0.17054968 0.183095 0.017472012 0.17378712 0.19738661
-0.062324006 -0.006789111 -0.127445 0.48794928 -0.43188316 -0.012224216 0.46310893 0.0047730627
0.16298904 0.4131542 0.5449529 0.5818418 -0.3030763 0.11799978 0.18151847 0.39357713
-0.16598204 -0.12326546 0.49959865 0.46646476 0.045036606 -0.3157929 0.0064373496 -0.03196497
0.38680515 0.13305506 -0.32750463 -0.41517064 0.032024473 -0.09825301 0.11224939 0.12496184
0.064983696 0.18290469 -0.20103446 0.30814454 0.15716071 0.059939925 0.2771888 0.2707344
0.37791303 0.07808707 -0.05154405 -0.1015038 0.52928185 -0.023291437 -0.1914677 0.3921044
0.18969294 0.7044806 -0.391054 0.0018289989 -0.23993714 -0.27705914 0.16516048 -0.07937299
0.26054657 0.43010345 0.17897487 -0.55348504 0.07192263 0.10884268 0.08158601 -0.20719959
-0.15757984 0.4268876 -0.3569988 0.26790637 0.09936308 0.19496126 -0.0421912 0.6157078
-0.26719484 -0.07698903 -0.046756353 0.63953644 0.30715364 0.6662937 0.1788905 -0.122802295
0.09783311 0.30223718 -0.1236427 -0.14428584 -0.062214825 -0.255063 0.17783372 0.08437649
-0.27745253 0.21719985 -0.2643723 -0.15613598 0.6973735 -0.13407469 0.14122796 -0.0062756585
-0.2406814 0.3254119 -0.17766222 -0.036004182 0.018791268 -0.03657679 -0.10235812 -0.18084852
-0.22032093 -0.040727258 -0.086594604 0.13769913 0.17958379 0.34630665 0.070274 -0.16966254
-0.014089015 -0.40094584 -0.40616482 -0.17556773 0.1474373 0.06959527 0.06694338 0.2329497
-0.2712201 -0.10433287 -0.0072536687 -0.09312049 0.19078022 -0.29516643 -0.07418822 -0.27103555

network_body._body_endoder.seq_layers.2.bias f4 [128]
00000000: 0754 3cbd 359d 0e3d c75b 633c e885 d93d
00000010: 93c9 793e 3d73 363e abc6 a0bd 0349 383d
00000020: 95de 11be ff14 773d 1879 f6bc 9549 bbbd
00000030: 06e8 ad3d aa28 0f3e 959a 133e 07ce 053e
00000040: 5f48 3dbe b2c2 69be dff9 f53b 9276 843d
00000050: d5e4 713e ba57 1d3e 204c d0bd 9ed3 ab3e
00000060: a9ba abbe 415c e5bd f433 c3bd 3ce2 e33d
00000070: 0dc0 28be 1404 65be c0e7 87bd 8cea 48bd
00000080: e74e 5e3d 5606 2a3e 23fc 09bd 79e0 81bd
00000090: d680 f0bd f5ef 173e ec2c e53d a226 4f3e
000000a0: f485 3f3d cb85 a63d 7bdb 0cbe 03b7 91be
000000b0: 8d94 28be a222 a13d 5230 6b3e c904 b43d
000000c0: 495a adbe 9e36 4cbe 98bf 1ebe 9364 59bc
000000d0: 597c 043e b11e e5bd 2a83 b0bc 1bba 3e3e
000000e0: 9cf8 95bd 3af6 babd c5ad d73d e8b1 853e
000000f0: 2391 6fbe 2f23 56be 107d dbbc 3c43 b23e
00000100: 2a9f 8b3d 9dd4 483d fbd0 aebe 6889 d0bc
00000110: acf1 2dbd 1116 3fbd fdef 9cbe 1d41 013d
00000120: 6324 49be 3d48 07be 0cef 673d 2fff 673e
00000130: fb95 ba3d 66fd f4bc 84b8 d1bd 2e56 b03e
00000140: 2665 17be 3a8a da3e 1b10 44be 7711 4b3e
00000150: 3426 d53c 5962 063e 83a8 803e 934d a03e
00000160: bbf6 303e 5abc 983d 6892 8a3c deee 723e
00000170: 93f7 8e3e fe06 49be d679 78bd e8b3 7cbe
00000180: 7da8 2c3e 6d55 ef3d 6a8b 10be d547 ab3d
00000190: ff3f 4d3d f929 d73d 1639 fa3d 51c1 2d3d
000001a0: 8d43 873e fcc4 e8b9 c62e c63e a14f 4f3e
000001b0: eff6 e4bc 1a34 543d 44a5 a0be 3083 a43c
000001c0: 14e6 f93d 4363 813e bbba bd3d f8f9 1a3e
000001d0: 1e0a f6bd 35db 833d a10a 583d a38c 8cbe
000001e0: 1ccb 42be 637b 41be ae82 833d 7dcb c0bc
000001f0: 1249 273d 4aec ac3d 785b a8bc 4d95 bb3d
-0.045978572 0.034817893 0.013876862 0.10621244 0.243933 0.17817397 -0.07850393 0.044991504
-0.14245065 0.060322758 -0.030087039 -0.09144894 0.084915206 0.13980356 0.14414437 0.13066874
-0.18484639 -0.22828177 0.0075065936 0.06467928 0.23622449 0.15365496 -0.1017077 0.3355989
-0.33540848 -0.11199237 -0.09531394 0.11127135 -0.16479512 -0.22364837 -0.06636 -0.049051806
0.054274466 0.1660398 -0.033687722 -0.06341643 -0.117433235 0.1483763 0.11190209 0.20229581
0.046758607 0.08130988 -0.137556 -0.2845994 -0.16462918 0.07867934 0.22967651 0.08789975
-0.33857945 -0.1994271 -0.15502775 -0.013268608 0.1293806 -0.111874945 -0.021546919 0.18625681
-0.07322809 -0.09128995 0.10531191 0.26112294 -0.23395209 -0.20911859 -0.026793033 0.3481692
0.068174675 0.04903089 -0.34143814 -0.025456145 -0.042466804 -0.046651904 -0.30651847 0.031556237
-0.19642787 -0.1321115 0.056624457 0.22655939 0.09110638 -0.029905986 -0.10240272 0.3444075
-0.14784679 0.42683583 -0.19146769 0.19830881 0.026019193 0.13123454 0.25128564 0.31309184
0.1728162 0.074578 0.016915515 0.23723933 0.2792326 -0.19631574 -0.060663067 -0.24678004
0.16861148 0.116862155 -0.14115682 0.0836331 0.05010986 0.105060525 0.122179195 0.04242069
0.26418725 -0.00044397253 0.3870756 0.2024522 -0.027949778 0.0518075 -0.31376088 0.020082086
0.12202087 0.25271043 0.09264132 0.15134418 -0.120136485 0.06438295 0.05274451 -0.27451047
-0.19022793 -0.18894725 0.064214095 -0.02353453 0.04084117 0.08443506 -0.020551428 0.09159336

action_model._discrete_distribution.branches.0.weight f4 [7, 128]
00000000: 64d5 cabe 4dcb 803c 3869 5ebe 02e1 f5be
00000010: 87c8 58be 86bd b83d f4a5 83be 7dde 91bd
00000020: 4563 c43d 581f 35bd 345c e1bd 6800 13bf
00000030: 15dd 9bbf 0f05 473c 2591 053e 7770 c2bd
00000040: 4b71 4ebd 70ca abbc d4f5 a0be a550 a23e
00000050: aabc 18be b990 fa3d 3ed7 ecbc 1071 35bd
00000060: f11a 31be c3f3 0fbf d23f 5cbd a7a6 a13c
00000070: 7a1a 5b3d f18c 693e b45f 843e 31ee 243f
00000080: 4909 cf3d 8937 dabe 9e58 08bd 692b 643e
00000090: 293f 383e 3da8 5a3c 5cc0 493e 88ff 9bbd
000000a0: 5040 8a3e 70be 4f3e 949f bfbd 4b68 c23e
000000b0: dba0 c9be 82a0 97bc 73a7 0f3d 1fe9 643e
000000c0: f38f 0d3e 40a7 67bc 41fc 263e a0a3 b9be
000000d0: cd42 13bd 3ec3 80be f254 11be 8602 bfbe
000000e0: 6122 56be 7422 423d ac6c 383e a271 783d
000000f0: d69c 1dbe 14c7 8fbe 232d 8dbd eb84 80be
00000100: 68bb 423d 59d3 ae3e 5249 1b3c e141 a53e
00000110: 6164 febd 8848 48be 7c24 cebe 5197 033e
00000120: f6f8 6a3b 24b0 f93d 2eda 2a3d 1761 a2bd
00000130: 31a2 d23d b81a 913d e89f f3be ff92 05bf
00000140: 743e e9bd 3cd2 e13d a005 813e 8789 e5be
00000150: 4127 2fbf 0740 063e 4096 af3e a88f 3c3e
00000160: 23e1 593d 2e6c ce3c 9d7d eabd 55d2 b53e
00000170: 8683 2d3e 1ebe 2fbf d5e7 a2be 0229 a4bc
00000180: 449b 493d 4912 293e 29a9 49bd 07fb c8be
00000190: 6c64 adbe ddef b8be 4c05 893e 40a7 a2be
000001a0: 0790 1b3e b261 10bf 3f0f 0d3e 4164 053e
000001b0: 88be f0be 677f 4a3d a421 58bd 7e70 debd
000001c0: ec6c 263d 8412 7dbd 3bf8 f3be a137 3ebf
000001d0: 9369 4fbd 3ecd 5a3d c88d 15be 2a5d 9c3d
000001e0: b7ba d1be 10d9 33be 1c67 a03d 071c b63d
000001f0: c049 433e 9fb4 833d 6f7b e03e 3acd 1c3e
00000200: 7bad de3d 1a09 14bf 644f 9abd dd02 c63d
00000210: e3f2 5fbe 20c1 1e3e 545e ad3e 953d 95be
00000220: adca f1bc fea5 bb3e e0fe e2be 3ffb cd3e
00000230: e08d 163e 5961 0f3e 8203 453e 21f8 ce3d
00000240: 2420 00bf 8298 1d3f 718f 9e3e 4fef 0ebc
00000250: c49e 1fbe 72a3 85be 98fe 4b3d 4a77 66be
00000260: bca1 e23e 0cc4 2a3e e406 9a3e d8e3 e3b9
00000270: 4c81 053f f277 013f 599b 0abe f17d 2f3e
00000280: 4ef8 a5be 8e01 943e 3482 f53e f22a b6bd
00000290: 7386 bc3e 49b8 133f 3bd0 c4be 3308 113f
000002a0: 0868 ce3e 0d9a 55be c402 fb3c 7638 8e3e
000002b0: 486d 5c3d 9e6e ba3e 6563 703e 99d6 0bbf
000002c0: fba7 023e c371 f63e 6cc3 273c 96f0 473e
000002d0: 61f7 0b3f 4260 ed3d 04fd 8dbe 9ea1 4bbd
000002e0: 9786 fa3e e2e8 9cbc 8b6f 143e 2cc4 bdbe
000002f0: 5acd e93e 07b1 1a3f de48 003e 84b9 223e
00000300: 487b 6fbe 52b0 c53e 5c6e c83e b209 fdbe
00000310: b06b 23be c273 8a3e 8821 183d f307 cabc
00000320: 5dda 933e 7246 39be 8789 2f3e c577 333e
00000330: f60e ad3e 7119 803d 3c2f e93d ff3e 0ebe
00000340: 9a1b 1bbe 8a3f 95bd 9193 14be 8f53 163f
00000350: 6c2e 6a3e 16a5 b93d 9827 47be 6f3c b9be
00000360: 3da5 493e ab94 b03e ee7d 3f3f df18 0c3e
00000370: f830 99bd edd3 1c3e c6fb 1ebd 5ab3 143f
00000380: 1cf2 713e 4820 943d 5a33 6cbe 1d34 093f
00000390: eb94 21bf e18a 85be f266 3cbe d8b7 6a3e
000003a0: 5557 b83e 070b 1aba 4e44 b7bd f086 843e
000003b0: 2433 253e b9a2 b73e eb30 003f 74c8 ce3e
000003c0: 15d6 1e3e e6a3 24bf 81b0 c93d 855f b13e
000003d0: 9db3 ae3e b9c1 d13e bbf6 393c cce4 703e
000003e0: 5664 313f 8a17 ee3d f097 f23d 1608 95be
000003f0: 8e4e c7bd 78fe 9c3e bd3e e33c 2b35 db3e
-0.3961593 0.015721941 -0.21719825 -0.4802323 -0.21170245 0.09020524 -0.2571255 -0.071225144
0.09589247 -0.044219345 -0.110039145 -0.57422495 -1.2176844 0.012147202 0.1304365 -0.09494107
-0.050401013 -0.020970553 -0.31437552 0.31702152 -0.1491572 0.12234635 -0.02891123 -0.044297278
-0.17295434 -0.56231326 -0.0537718 0.019732786 0.053492047 0.22807671 0.25854266 0.6442595
0.10109193 -0.42620495 -0.033287637 0.22282185 0.17992844 0.013345775 0.19702286 -0.07617098
0.27002192 0.2028749 -0.09356609 0.37970194 -0.39380535 -0.018509153 0.0350718 0.22354554
0.13824444 -0.014138997 0.16307165 -0.36257648 -0.035952378 -0.25148958 -0.1419256 -0.37306613
-0.20911552 0.04739614 0.18010205 0.060655244 -0.1539186 -0.28081572 -0.06893375 -0.25101408
0.047542006 0.3414562 0.00947793 0.32276824 -0.124214895 -0.19558918 -0.4026221 0.12850691
0.0035853959 0.12191799 0.04171198 -0.07928675 0.10284842 0.07085174 -0.47582936 -0.52177423
-0.11388865 0.11026427 0.25199604 -0.44831488 -0.6841927 0.13110362 0.3429432 0.18414176
0.053193223 0.025198068 -0.1144974 0.35512033 0.16944703 -0.6864947 -0.318175 -0.020039085
0.04922034 0.16510881 -0.04923359 -0.3925402 -0.33865678 -0.361205 0.26761854 -0.31768227
0.15191661 -0.5639907 0.13775347 0.13026525 -0.47020364 0.049437907 -0.052766457 -0.108613
0.04063122 -0.061785236 -0.47650322 -0.7430363 -0.050637793 0.05341839 -0.14604867 0.07634957
-0.40962765 -0.17563272 0.078321666 0.088920645 0.19071102 0.06430935 0.43844172 0.15312663
0.108729325 -0.5782639 -0.07534674 0.09668515 -0.21869998 0.15503359 0.3386103 -0.29148546
-0.029515589 0.3665008 -0.4433508 0.40230748 0.14702559 0.14001979 0.1923962 0.101059206
-0.5004904 0.61560833 0.30968812 -0.008724048 -0.15587908 -0.2610126 0.049803346 -0.22506443
0.4426402 0.16676348 0.30083382 -0.0004346657 0.52150416 0.5057365 -0.13535823 0.17137887
-0.32416004 0.28907436 0.479509 -0.0889491 0.36821327 0.5770307 -0.38440117 0.56653136
0.40313745 -0.20859547 0.030640967 0.2777745 0.053815156 0.3641252 0.23475416 -0.54624325
0.12759392 0.48133668 0.010239463 0.1952537 0.54674345 0.11590625 -0.27732098 -0.049714677
0.4893081 -0.019154016 0.14495675 -0.3706373 0.45664483 0.6042637 0.12527797 0.15891081
-0.23386872 0.38611084 0.39146698 -0.4942146 -0.15959048 0.2704144 0.037141353 -0.024661994
0.28877535 -0.18093279 0.17142306 0.17526157 0.33800477 0.062548526 0.11385962 -0.13891219
-0.15147248 -0.0728751 -0.14509417 0.5872125 0.22869271 0.09064691 -0.19448698 -0.3617892
0.1969194 0.34488425 0.7480153 0.13681363 -0.07480043 0.15315218 -0.03881433 0.5808617
0.23627514 0.0723272 -0.23066464 0.53595144 -0.63117856 -0.2608252 -0.18398646 0.22921693
0.3600413 -0.0005876277 -0.08948575 0.258842 0.1613279 0.35866335 0.5007464 0.4038731
0.15511353 -0.6431259 0.098481186 0.34643188 0.3412141 0.4096811 0.011350329 0.23524779
0.69293725 0.116255835 0.11845386 -0.29107732 -0.0973178 0.30662894 0.027739877 0.42814

action_model._discrete_distribution.branches.0.bias f4 [7]
00000000: 42b0 59bd f241 6dbe e35d 273e 06ed 613e
00000010: 34a9 0dbf d010 553e 8059 633e
-0.05314661 -0.23169687 0.16344409 0.22063074 -0.5533631 0.20807195 0.2220211
