Source/Trained_Policies/WeightAgent_Training/WeightAgent_Training/WeightAgent_Training-446499944.pt (torch, 926628 bytes, 33 tensors)

network_body._body_endoder.seq_layers.0.weight f4 [128, 163]
0	0x3ef401b2	0.47657543
1	0xbef5ba9c	-0.47993934
2	0x3dab45c0	0.08362913
3	0x3e2d7716	0.16939959
4	0x3ef12adc	0.47103012
5	0x3db530e0	0.08847213
6	0xbec11009	-0.37707546
7	0xbeb38e61	-0.35069564
8	0x3e074fae	0.13213989
9	0x3f4671bb	0.7751729
10	0x3ef1ee25	0.47252002
11	0xbec55e3f	-0.38548467
12	0x3f1e48de	0.61829937
13	0x3d4e924b	0.050432485
14	0x3e7ddabc	0.24790472
15	0x3b8ea10b	0.004352694
16	0xbe94bf31	-0.29052117
17	0xbf826027	-1.0185593
18	0x3d777800	0.060417175
19	0x3f10c16a	0.56545126
20	0x3ef2ecfa	0.47446424
21	0xbd9424b9	-0.07233567
22	0x3f6a6983	0.9156725
23	0x3ed922d7	0.42409393
24	0xbf03121d	-0.51199514
25	0xbe60efdd	-0.219665
26	0xbebbcd27	-0.36679956
27	0xbf39e07c	-0.7260816
28	0xbe8e49c0	-0.27790642
29	0x3eba2bdb	0.36361584
30	0x3db3976a	0.08769114
31	0x3df783c2	0.12085678
32	0x3f231c1b	0.6371476
33	0x3dd4f7be	0.103988156
34	0xbf4710b2	-0.7775985
35	0xbe5b0986	-0.21390352
36	0xbf1321e8	-0.5747361
37	0xbe8c9597	-0.27457878
38	0xbe8a3b4b	-0.26998362
39	0x3e04aa32	0.1295555
40	0x3e4917b8	0.19637954
41	0x3e944df5	0.28965726
42	0x3f07e328	0.5308099
43	0x3ea37ff5	0.3193356
44	0xbf341308	-0.7034154
45	0xbeebed25	-0.46079364
46	0xbf1e3510	-0.61799717
47	0x3c5f95a3	0.013646516
48	0xbe8cd527	-0.27506372
49	0x3dcde030	0.10052526
50	0x3f22e4b7	0.6363024
51	0x3eaac691	0.3335462
52	0x3e4bf4e7	0.19917642
53	0x3f4312e7	0.7620072
54	0xbe85d9ad	-0.26142636
55	0xbebc82f7	-0.36818668
56	0xbdb09692	-0.08622469
57	0x3e6d91d6	0.23200163
58	0xbe26e36f	-0.16297697
59	0x3e9dafab	0.30798087
60	0x3ea5337d	0.32265845
61	0x3e3b81cd	0.18311234
62	0x3ed47b88	0.41500497
63	0x3dee0c8d	0.116234876
64	0xbeae20cb	-0.34009394
65	0xbe742904	-0.23843771
66	0xbe90d1c0	-0.28285027
67	0x3deea418	0.11652392
68	0xbd7d0703	-0.061774265
69	0x3e089bb0	0.1334064
70	0x3f07c071	0.5302802
71	0x3db8dd95	0.090266384
72	0x3e928fc6	0.28625315
73	0x3e6538b4	0.22384912
74	0xbd492d77	-0.049115624
75	0x3e8c02a7	0.27345774
76	0xbbae56aa	-0.0053203898
77	0x3e0af134	0.13568574
78	0xbee60f4c	-0.44933546
79	0xbda2d4c0	-0.07950735
80	0x3ea0e5e4	0.31425393
81	0xbf0f1f68	-0.559073
82	0xbed86981	-0.42267993
83	0xbd8451ff	-0.06460952
84	0xbbf909a3	-0.0076000257
85	0x3e523aee	0.20530292
86	0xbf1ee086	-0.62061346
87	0xbd71faba	-0.059077002
88	0xbe239625	-0.15975244
89	0x3dd8d3ee	0.105872974
90	0x3c5b84b6	0.01339834
91	0x3d98c6a1	0.074597605
92	0xbe3feff2	-0.18743876
93	0xbecf7310	-0.40517473
94	0xbd5881c1	-0.052858118
95	0xbdead9ee	-0.11467348
96	0xbe252a8b	-0.1612951
97	0x3d2e553a	0.042561747
98	0xbe55f7b8	-0.20895278
99	0x3c1d9d99	0.009620094
100	0xbd80e617	-0.06293886
101	0xbe5867f4	-0.21133405
102	0xbe6a27bb	-0.22866718
103	0x3cc69777	0.024242146
104	0xbdc79284	-0.097447425
105	0x3d88a5b4	0.0667223
106	0xbe390628	-0.18068755
107	0xbbb3fd5d	-0.0054928497
108	0x3e38e5c1	0.18056394
109	0x3d0225ac	0.031774208
110	0x3c7dd848	0.01549346
111	0xbecfd4e8	-0.40592122
112	0x3dce39cc	0.10069618
113	0x3dfa0e43	0.122097515
114	0xbe3c2b99	-0.18376006
115	0xbe5e6075	-0.21716483
116	0x3e045d41	0.12926199
117	0xbe0f6ef9	-0.14007176
118	0xbe44a40d	-0.19203205
119	0x3e0aae8a	0.13543144
120	0x3c09fdcf	0.008422329
121	0xbf12286e	-0.5709294
122	0xbdd1151e	-0.10209106
123	0x3da8f8c0	0.0825057
124	0xbebdbe39	-0.3705919
125	0xbeadfae2	-0.3398047
126	0x3e4b7be2	0.19871476
127	0xbd892d6e	-0.06698118
128	0x3d24b97b	0.04021595
129	0x3d8a6114	0.067567974
130	0xbd7dc985	-0.061959762
131	0xbd2672df	-0.040636893
132	0xbda7cb5e	-0.08193086
133	0xbe03b9a6	-0.12863788
134	0xbebc7a55	-0.36812082
135	0xbda28be5	-0.07936839
136	0xbe639104	-0.22223288
137	0xbec37862	-0.38177782
138	0x3e1b8ded	0.15190859
139	0x3e203f1b	0.15649073
140	0xbec22702	-0.37920386
141	0xbda0fe9b	-0.07861062
142	0xbea65d55	-0.32493082
143	0xbd733597	-0.05937728
144	0xbe98da95	-0.29854265
145	0xbe11bd52	-0.14232376
146	0xbd025ee1	-0.031828765
147	0x3daae0cd	0.083436586
148	0x3d18c964	0.037301436
149	0x3e27630f	0.16346382
150	0xbe3d33ec	-0.18476838
151	0xbe3d55b3	-0.18489723
152	0xbc0d63cc	-0.00862975
153	0x3e24656a	0.16054311
154	0x3e049e85	0.12951095
155	0xbe923727	-0.28557703
156	0x3f03b4f4	0.5144799
157	0xbed101c7	-0.40821669
158	0x3c3bf61f	0.011472254
159	0xbd4ed785	-0.050498504
160	0x3dd584e0	0.104257345
161	0x3d9639b3	0.07335224
162	0xbf253af9	-0.6454311
163	0xbca5872d	-0.020206058
164	0x3eed19dc	0.46308792
165	0xbd6a9dd6	-0.05727943
166	0x3d9a8a6f	0.07545935
167	0xbeec7a46	-0.46187037
168	0xbc0d14b7	-0.008610896
169	0x3e86821f	0.2627115
170	0x3de9d7e8	0.11418134
171	0x3cf022d1	0.029313477
172	0xbf83fc01	-1.031128
173	0x3e5b0ac1	0.21390821
174	0x3e9b5ba7	0.30343363
175	0xbf6120ee	-0.8794087
176	0x3ee3c276	0.444843
177	0xbee47fc1	-0.44628718
178	0x3c256f04	0.010097269
179	0x3ec10c7a	0.3770483
180	0x3ee768ff	0.45197293
181	0x3d41aff0	0.047286928
182	0xbf651b51	-0.89494807
183	0x3eadfdc3	0.33982667
184	0x3e93f448	0.2889731
185	0xbfb6eba6	-1.4290664
186	0x3e312b40	0.17301655
187	0xb82ecbde	-4.16747e-05
188	0xbe74f42f	-0.23921274
189	0x3d8a207b	0.067444764
190	0x3e800536	0.25003976
191	0x3ea007e8	0.31256032
192	0xbf2b834c	-0.6699722
193	0x3d7474c0	0.059681654
194	0x3e255ef8	0.16149509
195	0xbf3fd1f4	-0.7492974
196	0x3e5853fd	0.21125789
197	0x3e17eb5a	0.14835873
198	0xbe862e2f	-0.2620711
199	0x3dd8ddcc	0.105891794
200	0x3dedd3f9	0.11612696
201	0x3c04cc00	0.008105278
202	0xbf3486ac	-0.7051799
203	0x3dc91191	0.09817804
204	0x3dbbfe99	0.0917942
205	0xbedecdb9	-0.4351633
206	0x3e098c76	0.13432488
207	0x3e822bdf	0.25424096
208	0xbca5552d	-0.020182217
209	0x3e7225e3	0.23647265
210	0x3e81ad67	0.25327608
211	0x3e9a0265	0.30079952
212	0xbed8d52b	-0.42350134
213	0x3def542f	0.116859786
214	0x3e521a66	0.20517883
215	0xbead5c6d	-0.33859578
216	0xbddb2f66	-0.107024
217	0x3e3815b5	0.1797703
218	0x3b887b02	0.0041650543
219	0x3e0c71a1	0.13715221
220	0x3e9a2734	0.30108035
221	0x3d5e3fd0	0.054260075
222	0xbcefb882	-0.029262785
223	0x3dfb0e44	0.1225858
224	0x3db04440	0.08606768
225	0x3d540c3b	0.051769476
226	0xbe332779	-0.17495526
227	0x3de26be2	0.11055733
228	0x3dc7c099	0.09753532
229	0x3e8119e3	0.25215062
230	0x3e2607f2	0.16213968
231	0xbe24dfdd	-0.16101022
232	0x3e24702e	0.16058418
233	0x3ea08924	0.3135463
234	0x3deb9c80	0.115044594
235	0xbcb72104	-0.02235461
236	0xbaebc97a	-0.0017989122
237	0xbb2f4304	-0.0026742825
238	0xbe98e697	-0.29863426
239	0x3e015210	0.1262896
240	0x3db12307	0.08649259
241	0xbdbecb83	-0.093161605
242	0x3e55881c	0.20852703
243	0x3e26ad84	0.16277128
244	0xbd1c1ebb	-0.038115244
245	0x3d073caa	0.033016838
246	0xbe3618b5	-0.17782862
247	0x3dd6e550	0.10492957
248	0xbd80d58e	-0.06290732
249	0x3c8e4664	0.01736755
250	0x3d327af3	0.043574285
251	0xbbf6ed52	-0.007535615
252	0x3eabbecc	0.33544004
253	0x3ebec2e8	0.37258077
254	0x3d29960a	0.041402854
255	0xbe4d64d5	-0.20057996

network_body._body_endoder.seq_layers.0.bias f4 [128]
0	0x3d777c67	0.060421374
1	0x3d8c6abd	0.06856296
2	0x3d59821d	0.0531026
3	0xbd95a54c	-0.073069185
4	0x3e4be6fc	0.19912332
5	0xbe466644	-0.19374949
6	0x3ea58a89	0.32332256
7	0x3ed1edfa	0.41001874
8	0xbedd41ec	-0.43214357
9	0x3d983181	0.07431317
10	0xbd77c3c5	-0.060489435
11	0x3e1b6ee3	0.15179019
12	0x3c5ee227	0.013603724
13	0xbe16a35d	-0.14710756
14	0x3d25d42e	0.040485553
15	0xbd5c8d11	-0.05384547
16	0xbdc7e226	-0.09759931
17	0xbddd58ba	-0.10807939
18	0xbd438812	-0.04773719
19	0xbdd8afaa	-0.1058038
20	0x3e95f6de	0.29289907
21	0xbe6f3a5f	-0.2336211
22	0x3e81ffcb	0.25390467
23	0xbdc95bae	-0.0983194
24	0x3e405e3b	0.18785946
25	0xbcabf6ca	-0.020991702
26	0x3d2ec0c1	0.042664293
27	0xbd862811	-0.06550611
28	0x3db99ca0	0.09063077
29	0x3e104f8a	0.14092842
30	0xbe3110b2	-0.17291525
31	0x3e26c3a9	0.16285576
32	0xbd3d7c5e	-0.046261184
33	0xbc8e1094	-0.01734189
34	0x3e956af3	0.29183158
35	0xbd3dc824	-0.046333447
36	0x3e2585b2	0.16164282
37	0x3c9adca2	0.018904034
38	0xb8ae9033	-8.323826e-05
39	0xbc84fee5	-0.016234824
40	0x3e722648	0.23647416
41	0xbc650354	-0.013977844
42	0xbe044b8c	-0.12919444
43	0xbcec6fe5	-0.02886195
44	0xbd7d8677	-0.061895814
45	0x3db66f14	0.08907905
46	0xbd1d214b	-0.03836183
47	0x3db8ad4d	0.090174295
48	0xbe457714	-0.19283706
49	0xbd851169	-0.06497461
50	0xbe4e584e	-0.20150873
51	0x3d2bb8bf	0.041924234
52	0x3e2cc572	0.16872194
53	0x3e4c3317	0.19941364
54	0xbcdebbd6	-0.027189177
55	0xbc5bda63	-0.013418767
56	0xbe07e615	-0.13271363
57	0x3e0ab18a	0.13544288
58	0xbd9eb4a7	-0.077493005
59	0x3bba9d4d	0.0056950212
60	0x3d887dfb	0.06664654
61	0x3dbfb0b6	0.09359877
62	0xbe5037d3	-0.20333795
63	0xbc321b9a	-0.010870839
64	0x3ea5b1d9	0.3236225
65	0x3e6185b7	0.22023664
66	0x3e04df31	0.12975766
67	0x3d31b104	0.043381706
68	0xbe9e0600	-0.30863953
69	0xbeb3f2b5	-0.35146108
70	0x3e50c5bd	0.20387931
71	0xbe4fff74	-0.20312291
72	0xbcefabf2	-0.029256795
73	0xbdb82b57	-0.089926414
74	0x3e6b0bc4	0.22953707
75	0xbdd3a954	-0.10335031
76	0xbe8bc378	-0.27297568
77	0xbdec8e08	-0.11550528
78	0xbd504474	-0.050846532
79	0x3e4314ba	0.19050875
80	0xbd968e5e	-0.07351373
81	0xbdcd471b	-0.10023328
82	0x3ecd4d7c	0.40098178
83	0xbd94d1d5	-0.07266585
84	0xbe1cfb1a	-0.15330163
85	0x3da1ffc3	0.07910111
86	0xbd9ccf15	-0.07656685
87	0x3d11ad0c	0.03556542
88	0x3c07a128	0.008278169
89	0xbc0142f4	-0.007889498
90	0xbcb606c2	-0.02222002
91	0xbe265ae5	-0.16245611
92	0xbceb4482	-0.02871919
93	0xbd43949d	-0.04774915
94	0x3e64375a	0.2228674
95	0x3e54bd9c	0.20775455
96	0x3eac5d88	0.3366511
97	0xbd2cc76a	-0.042182364
98	0x3e8ca67e	0.27470773
99	0x3d367428	0.04454437
100	0x3e13c0ac	0.14428967
101	0xbe3b8c5c	-0.18315262
102	0x3e94da55	0.29072824
103	0x3e396414	0.18104583
104	0xbd65e4ae	-0.05612629
105	0xbd9cec03	-0.07662203
106	0xbe464283	-0.1936131
107	0xbe00b64a	-0.12569538
108	0x3e15a68d	0.14614315
109	0xbe6a52cb	-0.22883146
110	0xbd2f4ea6	-0.042799614
111	0xbe2f285e	-0.17105243
112	0x3d89326b	0.066990696
113	0xbd160ab6	-0.03663131
114	0x3d3a7e82	0.045530804
115	0xbe429399	-0.19001617
116	0x3da70c9c	0.08156702
117	0xbbdbca52	-0.006707468
118	0x3e9366de	0.2878942
119	0xbe42afa2	-0.19012311
120	0x3d150537	0.036381926
121	0x3d76b39c	0.060229883
122	0x3d5d6291	0.05404908
123	0x3d1460a0	0.03622496
124	0x3d459ca6	0.048245095
125	0x3d058dde	0.032606
126	0xbd640264	-0.055666342
127	0x3dd0d73e	0.10197304

network_body._body_endoder.seq_layers.2.weight f4 [128, 128]
0	0x3f2bb000	0.6706543
1	0xbeb4379b	-0.35198674
2	0xbe61aaa5	-0.22037752
3	0xbe815c4c	-0.2526573
4	0x3d8845ef	0.06653964
5	0xbebb0c82	-0.3653298
6	0xbbc6281c	-0.006047262
7	0xbf40be88	-0.7529073
8	0x3dd6c80a	0.10487373
9	0xbeb9e570	-0.3630786
10	0x3d72028e	0.059084468
11	0xbe3002db	-0.1718859
12	0xbe0d6c85	-0.13810928
13	0xbf473252	-0.7781116
14	0x3e591186	0.21198091
15	0x3e91bae4	0.284629
16	0xbe3f9a48	-0.18711197
17	0xbea56945	-0.32306877
18	0x3da4b358	0.080420196
19	0xbef7e592	-0.48417336
20	0xbecdf921	-0.40229133
21	0x3e117ce8	0.14207804
22	0xbee9d161	-0.45667556
23	0xbd898565	-0.06714896
24	0xbd27b1fb	-0.04094122
25	0xbea2aa89	-0.31770733
26	0x3d8c3107	0.06845289
27	0xbea14a85	-0.31502166
28	0xbd8644eb	-0.06556114
29	0x3e6a89bb	0.22904103
30	0xbbfac43d	-0.007652788
31	0xbdeb0094	-0.1147472
32	0xbd2bcf5e	-0.041945808
33	0xbbb83a6a	-0.005622198
34	0xbe03e8ca	-0.1288177
35	0xbdd8ecdb	-0.105920516
36	0x3cb4613a	0.022019017
37	0xbe66216a	-0.22473684
38	0x3d6f4fde	0.058425777
39	0x3dee64f7	0.11640351
40	0xbda4bebe	-0.08044194
41	0x3ea3fa94	0.32027113
42	0x3e6e579d	0.2327561
43	0x3cd30988	0.02576138
44	0xbe5d367d	-0.21602817
45	0x3d98a084	0.07452491
46	0xbe8a720f	-0.27040145
47	0xbf0d6532	-0.55232537
48	0xbe8b0b69	-0.27157143
49	0xbe8d159f	-0.27555558
50	0x3e333b12	0.17503002
51	0xbe2b7b4d	-0.16746254
52	0x3e1122b6	0.14173397
53	0x3e3e7d0d	0.1860239
54	0xbf6638d8	-0.89930487
55	0xbdec8399	-0.11548538
56	0xbea8fecd	-0.33006898
57	0xbee21700	-0.44158173
58	0x3d9303a1	0.071784265
59	0x3dad9267	0.0847519
60	0x3eaaf7be	0.33392137
61	0xbe4c2611	-0.19936396
62	0x3e8e2760	0.27764416
63	0x3e89411e	0.26807493
64	0xbe804b7f	-0.250576
65	0xbf79f5fa	-0.97640955
66	0xbd815ee2	-0.063169256
67	0x3e2ff32e	0.1718261
68	0xbe3be01c	-0.1834721
69	0xbe1bcdf4	-0.15215284
70	0x3d9b6da2	0.0758927
71	0x3dffc768	0.124892056
72	0x3c247ba7	0.010039247
73	0x3e475c79	0.1946887
74	0x3c5e0de0	0.013553113
75	0xbea610ec	-0.32434785
76	0xbe6ffe2f	-0.23436807
77	0xbe063f10	-0.13109994
78	0xbe8ed88c	-0.27899587
79	0xbe39f711	-0.18160655
80	0xbd763558	-0.060109466
81	0xbd89d685	-0.067303695
82	0xbc98f2bc	-0.018670432
83	0x3ed3d47a	0.41373044
84	0xbf116014	-0.5678723
85	0xbcf62a2e	-0.03004941
86	0x3e27027a	0.16309538
87	0x3e129590	0.14314866
88	0xbe3784c6	-0.17921743
89	0x3d4a0538	0.049321383
90	0x3e11286e	0.14175579
91	0xbe78a1a8	-0.24280417
92	0xb98bff0f	-0.0002670218
93	0xbd0fc865	-0.03510322
94	0xbdd9267d	-0.10603044
95	0xbd6aaec7	-0.057295587
96	0x3d8e14ab	0.06937536
97	0xbf029451	-0.5100756
98	0x3cb758de	0.022381242
99	0xbf39d16a	-0.72585166
100	0x3e913d39	0.28367022
101	0xbd75ec4a	-0.060039796
102	0x3d923fea	0.07141097
103	0x3ebc3895	0.3676192
104	0xbe004049	-0.12524523
105	0xbec792f1	-0.38979295
106	0xbe86a13a	-0.2629488
107	0xbeee98b6	-0.46600884
108	0x3eda58f5	0.42645994
109	0xbec56c48	-0.38559175
110	0xbdb9f1d8	-0.09079331
111	0xbf21ce3e	-0.63205326
112	0x3c82f24e	0.01598468
113	0xbe357cf7	-0.17723452
114	0xbea51dcc	-0.32249296
115	0xbe85cbf2	-0.2613216
116	0xbe53c7b9	-0.20681657
117	0x3dd449d7	0.10365646
118	0x3df86d7a	0.12130256
119	0xbeb39f5b	-0.35082516
120	0xbe36a1b8	-0.17835128
121	0xbe8dfcf0	-0.27732038
122	0xbe6409d7	-0.22269379
123	0x3d9e2a7c	0.07722947
124	0x3df110ff	0.1177082
125	0xbd828291	-0.0637256
126	0x3cc449f7	0.02396105
127	0x3e83f5eb	0.25773558
128	0x3db6da79	0.08928389
129	0xbd8a4d8a	-0.06753071
130	0xbe395c03	-0.18101506
131	0x3f3dc635	0.74130565
132	0xbf1b1575	-0.60579616
133	0x3ddf1369	0.10892374
134	0x3f50dc46	0.8158611
135	0xbd9fe08a	-0.07806499
136	0x3e449775	0.19198401
137	0x3f2f6896	0.6851896
138	0x3f0feca6	0.5622047
139	0x3ec70963	0.3887435
140	0xbed9384f	-0.42425773
141	0x3cf63371	0.030053826
142	0x3e7aad25	0.24480112
143	0x3f0d80df	0.55274767
144	0xbe0fe114	-0.14050704
145	0xbe804707	-0.2505419
146	0x3ec4e6db	0.3845738
147	0x3f0bd663	0.54624003
148	0xbd0b4495	-0.03400095
149	0xbea10116	-0.3144614
150	0xbcc88489	-0.02447726
151	0x3ce98baa	0.02850898
152	0x3ef2ed34	0.47446597
153	0x3e4778e2	0.19479707
154	0xbeb9e9aa	-0.36311084
155	0xbef14c78	-0.47128654
156	0xbdd9ef8c	-0.10641393
157	0x3d6fdcdf	0.05856025
158	0x3d0f9da1	0.035062436
159	0x3db3b467	0.087746434
160	0xbc2cdfe7	-0.010551429
161	0x3e3c3f83	0.18383603
162	0xbe7b36bf	-0.24532603
163	0x3eb39f85	0.3508264
164	0x3df90edf	0.121610396
165	0x3e4d41a6	0.20044574
166	0x3e8074b3	0.25089034
167	0x3e8f6afe	0.28011316
168	0x3e9ba98d	0.30402794
169	0x3dc2e73e	0.09516762
170	0xbdfd3bbc	-0.12364909
171	0xbca889db	-0.020573547
172	0x3ee94be8	0.45565724
173	0x3dfe195f	0.12407183
174	0xbc859ff0	-0.016311616
175	0x3e9aa1cb	0.30201563
176	0x3e9615ec	0.293136
177	0x3f0e516d	0.55592996
178	0xbec18255	-0.37794748
179	0x3ce3b389	0.02779557
180	0xbe3e2574	-0.18568975
181	0xbe7b9885	-0.245699
182	0x3e7c10db	0.24615805
183	0xbda50b0c	-0.08058748
184	0x3ea39374	0.31948435
185	0x3eeadb40	0.458704
186	0x3e0dc280	0.13843727
187	0xbeb0d493	-0.3453718
188	0x3d656d81	0.056012634
189	0x3e0bed61	0.13664772
190	0x3d95e2ca	0.07318647
191	0xbe599e43	-0.21251778
192	0xbe4e0d5d	-0.20122285
193	0x3f216c8d	0.6305626
194	0xbe90f957	-0.2831523
195	0x3e813660	0.25236797
196	0x3e21ecb9	0.15812959
197	0x3eac1af1	0.33614305
198	0xbe4497f2	-0.19198588
199	0x3f28ecf0	0.6598654
200	0xbe5fa125	-0.21838816
201	0x3e3571cf	0.17719196
202	0xbbd5be0b	-0.006522899
203	0x3f757317	0.9587874
204	0x3ea11150	0.3145852
205	0x3f27055b	0.65242547
206	0x3e6143ea	0.21998563
207	0xbdf61cc7	-0.120172076
208	0x3e2230e7	0.15838967
209	0x3e8db901	0.2768021
210	0xbdc69b85	-0.09697632
211	0xbe0d83a2	-0.13819745
212	0xbdfa372d	-0.12217555
213	0xbd30f2c2	-0.043200262
214	0x3e731f98	0.23742521
215	0xbc89af35	-0.016807178
216	0xbe9e3793	-0.30901775
217	0x3ebbb216	0.36659306
218	0xbe1dbab0	-0.15403247
219	0xbddb7559	-0.10715742
220	0x3f44145c	0.76593566
221	0xbe3f9ba7	-0.1871172
222	0x3e7a65ad	0.24452849
223	0xbe0616e7	-0.13094674
224	0xbeae3cc4	-0.34030735
225	0x3f1fcd0b	0.62422246
226	0x3adc6825	0.0016815705
227	0xbe33c5af	-0.17555879
228	0x3d24a7c6	0.040199064
229	0xbe2bfac6	-0.16794881
230	0x3d70dff3	0.058807325
231	0xbdaf389a	-0.08555718
232	0xbe9dec66	-0.3084442
233	0xbcb919dd	-0.02259534
234	0x3d9fb148	0.077974856
235	0x3de9e246	0.11420111
236	0x3e0ef1dd	0.13959451
237	0x3f109a01	0.5648499
238	0x3e2e06a4	0.1699472
239	0x3d9a1308	0.07523161
240	0xbdd57317	-0.10422342
241	0xbed57bff	-0.41696164
242	0xbeb711b2	-0.35755688
243	0xbe61e769	-0.22060932
244	0x3e3d670a	0.18496338
245	0x3d8e186a	0.0693825
246	0x3cdd3781	0.027004005
247	0x3e795084	0.2434712
248	0x3d3b02dc	0.045657024
249	0xbd8d71ef	-0.06906497
250	0x3dc777a2	0.09739615
251	0xbdab0070	-0.08349693
252	0x3da19e18	0.07891482
253	0xbe93c1c2	-0.28858763
254	0xbe4efb3d	-0.20213027
255	0xbe5625e6	-0.20912895

network_body._body_endoder.seq_layers.2.bias f4 [128]
0	0xbb85c812	-0.004082688
1	0xbdca01f8	-0.09863657
2	0x3dad3eab	0.084592186
3	0x3e37cf1b	0.17950098
4	0x3e99a4ee	0.30008644
5	0x3e986128	0.29761624
6	0xbda49b62	-0.080374494
7	0x3e262fb6	0.16229138
8	0xbe40c74a	-0.18826023
9	0x3de65e54	0.112484604
10	0xbcec5c0b	-0.028852483
11	0xba85cd46	-0.0010208271
12	0x3e6a8da5	0.22905596
13	0x3d8122be	0.06305455
14	0x3e2d166c	0.16903085
15	0x3e55647c	0.20839113
16	0xbea9d512	-0.33170372
17	0xbe629fc9	-0.22131266
18	0xbc802ca8	-0.015646294
19	0x3dc151a4	0.094394
20	0x3ebbf4d4	0.36710227
21	0x3e604709	0.21902098
22	0x3b7eda96	0.0038887612
23	0x3ea6b3f8	0.3255918
24	0xbea34dc5	-0.3189527
25	0x3cca99aa	0.024731476
26	0xbe13815e	-0.14404818
27	0x3dee9cbc	0.116509885
28	0xbe5085f0	-0.20363593
29	0xbe55a227	-0.20862637
30	0x3d0c51aa	0.03425757
31	0x3c540904	0.012941603
32	0xbd0bd3fb	-0.034137707
33	0x3e372c1f	0.17887925
34	0xbaabba45	-0.0013101777
35	0xbd847f09	-0.064695425
36	0xbe29b003	-0.1657105
37	0x3e10be6b	0.14135139
38	0x3e40d90e	0.188328
39	0x3ebcb813	0.36859187
40	0x3db09774	0.086226374
41	0x3e1a6e34	0.15081102
42	0xbe2ba83c	-0.16763395
43	0xbe4b16d2	-0.19832924
44	0xbd161314	-0.036639288
45	0x3d8f1af2	0.06987561
46	0x3ea6ddeb	0.32591185
47	0x3de99fec	0.11407456
48	0xbe39e523	-0.18153815
49	0xbdebc44f	-0.11512052
50	0xbd9e4081	-0.07727147
51	0xbdd50f45	-0.10403303
52	0x3e4a43d0	0.19752431
53	0xbe3747e7	-0.17898522
54	0xbc189b24	-0.009314332
55	0x3e5bdd1e	0.21471068
56	0xbc35e006	-0.011100775
57	0xbe1ec601	-0.1550522
58	0x3b62f105	0.0034628522
59	0x3e9b2b32	0.30306393
60	0xbe7881cf	-0.24268268
61	0xbe3c5c02	-0.18394473
62	0xbe68e683	-0.22744183
63	0x3e468926	0.19388255
64	0x3c3878b8	0.01125925
65	0x3dcb5976	0.09929173
66	0xbe4da88d	-0.20083828
67	0x3dd67d14	0.104730755
68	0x3d232380	0.039828777
69	0x3c7c2d22	0.01539162
70	0xbe6f7465	-0.23384245
71	0xbda68a77	-0.08131879
72	0xbe6512fa	-0.2237052
73	0xbdfa3058	-0.12216252
74	0x3d6efc52	0.0583461
75	0x3eab8edc	0.3350743
76	0x3e42eba7	0.19035207
77	0x3b571293	0.0032817468
78	0x3c7fc722	0.015611442
79	0x3eddf00f	0.43347213
80	0xbd583cfd	-0.052792538
81	0x3f05e73a	0.5230595
82	0xbdf384c6	-0.11890559
83	0x3eb05182	0.34437186
84	0x3e44b652	0.19210175
85	0x3e1f1d14	0.15538436
86	0x3ec4f149	0.38465336
87	0x3ef97bd6	0.48727292
88	0x3e99456c	0.29935777
89	0x3e43f106	0.19134912
90	0x3da63f1b	0.08117505
91	0x3eaf3fb2	0.34228283
92	0x3ead2a3e	0.3382129
93	0xbe7e5f16	-0.2484096
94	0x3bbc2dac	0.005742749
95	0xbe9d7d02	-0.30759436
96	0x3e2b14e0	0.16707182
97	0x3d3f6931	0.046731178
98	0xbe103da5	-0.14086016
99	0x3e00d4c8	0.1258117
100	0xbbdcd76f	-0.006739549
101	0x3e02feed	0.12792559
102	0xba842896	-0.0010082896
103	0x3d2684c2	0.04065395
104	0x3ee7275b	0.45147213
105	0x3de3eb87	0.11128908
106	0x3ed533b0	0.41640997
107	0x3e813be7	0.25241014
108	0x3d39a3b1	0.045322124
109	0x3c7fea4d	0.0156198265
110	0xbe83219a	-0.25611573
111	0xbd8c048a	-0.06836803
112	0x3de6d365	0.11270789
113	0x3e87522e	0.26429886
114	0x3e1b7e6a	0.15184942
115	0x3e3569ca	0.17716137
116	0xbccab95b	-0.024746587
117	0x3d6bfc70	0.05761379
118	0x3dc6aea3	0.09701278
119	0xbeb7842d	-0.3584303
120	0xbe6980a5	-0.2280298
121	0xbe461df0	-0.19347358
122	0x3d9c9e32	0.07647361
123	0xbd9167d6	-0.07099883
124	0x3d81f8fd	0.06346319
125	0x3d54d2dc	0.051958904
126	0xbdb3af1f	-0.08773636
127	0xbcd6e284	-0.026231058

action_model._discrete_distribution.branches.0.weight f4 [7, 128]
0	0xbeae71cf	-0.34071204
1	0x3e1c3b20	0.1525693
2	0xbd599d88	-0.05312875
3	0xbed4fe24	-0.41600144
4	0xbeded418	-0.4352119
5	0x3de03359	0.10947294
6	0xbec047f3	-0.37554893
7	0x3ec86930	0.39142752
8	0x3dce410c	0.100710005
9	0x3dd2fb42	0.1030183
10	0xbe4fc281	-0.20289041
11	0xbf11eefb	-0.5700528
12	0xbfb6a849	-1.4270107
13	0xbd1410ea	-0.036148943
14	0x3e2052b3	0.15656547
15	0xbea1c059	-0.31592062
16	0xbe05e89e	-0.13077018
17	0x3c8fc103	0.01754809
18	0xbe86fa97	-0.2636306
19	0x3e9ac5f2	0.30229145
20	0xba6fd0d9	-0.0009148247
21	0x3e45cca9	0.19316353
22	0xbd8b6c30	-0.068077445
23	0x3e07d7e2	0.13265947
24	0xbe7a05e5	-0.24416311
25	0xbf34a9ac	-0.705714
26	0x3cd9f209	0.02660467
27	0xbc28e1e3	-0.010307762
28	0x3c7ef3ac	0.015561026
29	0x3e924c2a	0.28573734
30	0x3e87adfc	0.26499927
31	0x3ee1c9a8	0.44099164
32	0x3d077efc	0.033080086
33	0xbea162fd	-0.31520835
34	0xbe9d1450	-0.3067956
35	0x3dfb8e90	0.12283051
36	0x3e9672c0	0.29384422
37	0xbdbec583	-0.09315016
38	0xbdd90e72	-0.10598458
39	0xbe466f97	-0.19378506
40	0x3e86228a	0.26198226
41	0x3ecb24fe	0.3967666
42	0x3da622d1	0.081121095
43	0x3eadd1c0	0.3394909
44	0xbf3c8f9d	-0.73656636
45	0x3e26e0e3	0.16296725
46	0x3dcc86c2	0.099866405
47	0x3e888b06	0.26668566
48	0xbbc5e3c3	-0.006039114
49	0xbdb14baf	-0.086570136
50	0x3eb33786	0.350033
51	0xbf30ad36	-0.690143
52	0xbd8198a6	-0.063279435
53	0xbe87383c	-0.2641009
54	0xbe4c9363	-0.19978099
55	0xbed37802	-0.41302496
56	0xbed9d0e9	-0.42542198
57	0x3d599d06	0.053128265
58	0x3e14786f	0.14499067
59	0x3e198d2e	0.14995262
60	0xbe80fba8	-0.25191998
61	0xbea02329	-0.31276825
62	0x3d0ed3a1	0.034869794
63	0x3cf46588	0.02983357
64	0x3de0338e	0.10947333
65	0x3ec6ec67	0.38852236
66	0x3e2899ad	0.16464873
67	0x3ee21cfc	0.44162738
68	0xbe089c54	-0.13340884
69	0xbeb6d489	-0.35709026
70	0xbee97353	-0.45595798
71	0x3da263bf	0.07929181
72	0x3ba92e1e	0.0051629683
73	0x3e157d9b	0.14598696
74	0x3c904721	0.017612042
75	0xbe58d048	-0.21173203
76	0xbc9cdf10	-0.019149333
77	0x3e491528	0.19636977
78	0xbf17ea3d	-0.59341794
79	0xbf176fd9	-0.5915504
80	0xbde175c2	-0.11008789
81	0x3e07127d	0.13190646
82	0x3e22a80d	0.15884419
83	0xbefe2198	-0.49635005
84	0xbf664af0	-0.89958096
85	0x3d487eeb	0.048949163
86	0x3eb23149	0.34803227
87	0x3e92e8b3	0.2869316
88	0x3e213868	0.15744174
89	0x3e6af9ea	0.22946897
90	0x3e156b02	0.14591601
91	0x3eed5066	0.46350402
92	0x3d8a4400	0.06751251
93	0xbf69037b	-0.91020936
94	0xbeccf56c	-0.40030992
95	0x3cb9ecb5	0.022695879
96	0x3d999696	0.07499425
97	0x3de42a9f	0.11140942
98	0xbd538836	-0.051643573
99	0xbf1fa13a	-0.6235539
100	0xbf0b0c39	-0.54315525
101	0xbf4374f2	-0.7635032
102	0x3e859d44	0.26096547
103	0xbf03e70d	-0.5152443
104	0x3e1a6776	0.1507853
105	0xbf4391dc	-0.7639444
106	0xbcb925bf	-0.022601007
107	0x3da5d133	0.08096542
108	0xbecaf2cd	-0.39638367
109	0x3be1ea6a	0.0068943994
110	0xbd841632	-0.06449546
111	0xbe89118d	-0.26771203
112	0x3e322f15	0.17400773
113	0x3db932ed	0.090429164
114	0xbec396f5	-0.3820111
115	0xbf09ac73	-0.5377876
116	0x3e2926e5	0.16518743
117	0xbe67ba31	-0.2262962
118	0x3d3f8d23	0.046765458
119	0xbeabaeb7	-0.33531734
120	0xbef6cdb2	-0.48203808
121	0x3e5d4c54	0.21611148
122	0xbc9a9d1c	-0.018873744
123	0x3e03101c	0.12799114
124	0x3eec467b	0.46147522
125	0x3dae2243	0.08502629
126	0x3ef0f73d	0.47063628
127	0x3e0ca3d3	0.13734369
128	0x3e6ad6d7	0.22933517
129	0xbef97d41	-0.48728374
130	0xbc4d8a3c	-0.012545165
131	0xbd854cec	-0.06508812
132	0xbd55f74e	-0.0522378
133	0x3da85561	0.0821941
134	0x3e4dd06c	0.20099038
135	0xbf0892a1	-0.5334874
136	0xbe54906e	-0.2075822
137	0x3efaa171	0.48951295
138	0xbf161370	-0.5862341
139	0x3e419219	0.18903388
140	0x3e2b8105	0.16748436
141	0x3e9241b0	0.2856574
142	0x3e6f12b9	0.23346986
143	0x3dcc7f61	0.09985233
144	0xbf1a5429	-0.6028467
145	0x3f3f4b18	0.7472396
146	0x3ebdda46	0.37080592
147	0xbdcda00c	-0.10040292
148	0xbe6c422d	-0.23072119
149	0xbdacbe79	-0.08434767
150	0xbe0c0023	-0.13671927
151	0xbeb28973	-0.3487049
152	0x3efb5881	0.4909096
153	0x3e161df9	0.14659871
154	0x3c99dd2d	0.018782223
155	0xbe63d533	-0.22249298
156	0x3ed22fdf	0.41052148
157	0x3f2ab3cd	0.66680604
158	0xbe66613e	-0.22498032
159	0x3e243b28	0.16038191
160	0xbee1ea70	-0.44124174
161	0x3e9d07d1	0.30670026
162	0x3ef0299d	0.46906748
163	0x3e159163	0.14606242
164	0x3ded1c39	0.11577649
165	0x3f3b84a9	0.732493
166	0xbf1530aa	-0.5827738
167	0x3f3ca6cd	0.7369202
168	0x3eeffedd	0.46874133
169	0xbedb8b64	-0.42879784
170	0x3e642e7c	0.22283357
171	0x3f1c1eee	0.60984695
172	0xbe14edaf	-0.14543794
173	0x3f1060ed	0.56397897
174	0x3f057139	0.5212589
175	0xbf1b75eb	-0.60726804
176	0xbdcbd929	-0.099535294
177	0x3ebb3d4e	0.3657021
178	0xbd6d8b68	-0.057994276
179	0x3e2ba609	0.16762556
180	0x3f45759c	0.7713258
181	0x3e32855d	0.17433687
182	0xbec359fb	-0.38154587
183	0xbe19b066	-0.15008697
184	0x3f1407dc	0.5782449
185	0x3e3f41d2	0.18677452
186	0x3e1f7848	0.15573227
187	0xbe889513	-0.26676235
188	0x3ee05f71	0.43822816
189	0x3f2ecff4	0.6828606
190	0x3e316fdb	0.17327826
191	0x3d9acf1c	0.07559034
192	0xbee0c013	-0.4389654
193	0x3ec170e1	0.37781432
194	0x3e92c72c	0.2866758
195	0xbf1c481d	-0.61047536
196	0xbec99a4f	-0.3937554
197	0x3ea56061	0.32300094
198	0x3cc03bfc	0.023466103
199	0xbe2f88b7	-0.17141996
200	0x3ee6e7ca	0.45098716
201	0xbe5b1b1a	-0.21397057
202	0x3e552968	0.20816576
203	0x3cad1153	0.021126425
204	0x3ebf7bc8	0.37399125
205	0xbd67647a	-0.056492306
206	0x3d5cfb19	0.053950403
207	0xbec62422	-0.38699442
208	0xbddbf994	-0.107409626
209	0xbdc752a8	-0.09732562
210	0xbe8f9483	-0.28042993
211	0x3f5eba4c	0.87003016
212	0x3eb5a95f	0.35480782
213	0x3e809e00	0.25120544
214	0xbed07930	-0.4071746
215	0xbf12e336	-0.57377946
216	0x3e66920d	0.22516651
217	0x3eaa6bd5	0.33285394
218	0x3f6ecd6a	0.93282187
219	0x3ec9fccd	0.39450684
220	0xbe08e959	-0.13370265
221	0x3e47ab7c	0.1949901
222	0xbdab50c7	-0.083650164
223	0x3f2b52a2	0.6692296
224	0x3eade47b	0.3396338
225	0x3e2befb6	0.16790661
226	0xbec71450	-0.38882685
227	0x3efa49c0	0.48884392
228	0xbf3930a0	-0.7233982
229	0xbeb444b1	-0.35208657
230	0xbe82499d	-0.25446787
231	0x3e33cb0b	0.17557923
232	0x3eede57f	0.46464154
233	0xbe96162a	-0.29313785
234	0xbda5f3e6	-0.081031606
235	0x3ef2025c	0.47267425
236	0xbd01791b	-0.031609636
237	0x3e9934a1	0.29922965
238	0x3ea5a914	0.3235556
239	0x3ecff34d	0.4061531
240	0x3e8298f6	0.25507325
241	0xbf83aacb	-1.0286497
242	0x3d8909d7	0.0669133
243	0x3e5eec0b	0.21769731
244	0x3ef40d94	0.4766661
245	0x3ec770b8	0.38953185
246	0x3b94f5ab	0.0045458875
247	0x3ebb504f	0.36584708
248	0x3f58991d	0.8460863
249	0xbdcba6f4	-0.09943953
250	0x3e47eed6	0.19524702
251	0xbeb4d4e7	-0.35318682
252	0xbe5e6715	-0.2171901
253	0x3ed3f9ce	0.41401523
254	0xbcfec97d	-0.031101936
255	0x3f074584	0.5284045

action_model._discrete_distribution.branches.0.bias f4 [7]
0	0xbe435f82	-0.19079402
1	0xbe520275	-0.2050875
2	0x3e690ffd	0.22760005
3	0x3ecee718	0.40410686
4	0xbf1ffe60	-0.6249752
5	0x3e7d1255	0.24714024
6	0x3e70b191	0.23505236

exp_avg f4 [128, 163]
0	0x3af19ed6	0.0018434178
1	0x39c5d9bb	0.0003773699
2	0xb9a2aab4	-0.00031026232
3	0x38b83fbc	8.785675e-05
4	0x3aad40c8	0.0013218159
5	0x3ae5a8aa	0.0017521579
6	0xb89651df	-7.167807e-05
7	0xb87a7b65	-5.9719565e-05
8	0x39c5fb86	0.00037762168
9	0x3a885c6a	0.0010403518
10	0x396adb80	0.00022397749
11	0x3941b45e	0.00018473106
12	0xb88ab9b6	-6.614944e-05
13	0x3ad90830	0.0016558226
14	0x3b04449d	0.0020182498
15	0x39e02284	0.00042750326
16	0x39ce4925	0.0003934588
17	0xb921da7d	-0.0001543555
18	0x3aae8ef8	0.0013317754
19	0x3ab363e3	0.0013686385
20	0x389a8a00	7.368997e-05
21	0x3985f894	0.00025552942
22	0xb80997b4	-3.280463e-05
23	0x3adf148d	0.0017019674
24	0x3b0ac342	0.0021173512
25	0x3ad4f8b8	0.001624844
26	0x3a82948d	0.0009962484
27	0xb991a743	-0.00027781175
28	0xb9b4d377	-0.0003448983
29	0x3a65477e	0.000874631
30	0x3a4a9e06	0.0007729236
31	0x3a0114de	0.0004924069
32	0x3435f800	1.694716e-07
33	0x3a401ee5	0.00073288224
34	0x3abade3a	0.0014256903
35	0xb983134a	-0.0002500064
36	0x3a863b30	0.0010241028
37	0x392522ba	0.00015748563
38	0x3a8bd3df	0.0010668001
39	0x3ad37cf9	0.0016135267
40	0x39b33958	0.00034184265
41	0x3a08249d	0.0005193444
42	0xb8b31f36	-8.5411986e-05
43	0x3aa03fdf	0.0012226066
44	0x3aa0bde4	0.0012263623
45	0x3a8f137e	0.0010915843
46	0x3a81d0c7	0.000990414
47	0xb999513b	-0.00029242955
48	0x395af4e3	0.00020881328
49	0x3abef3ae	0.0014568472
50	0xb9d1d76d	-0.0004002409
51	0x39f198fe	0.0004608109
52	0xb80c4d08	-3.3450342e-05
53	0x3b01304a	0.001971262
54	0x3af1290c	0.0018399074
55	0xba0c4a96	-0.00053516903
56	0x3a6dd21d	0.0009072142
57	0x39a41202	0.00031293934
58	0x3aac264e	0.0013133974
59	0x3af24070	0.0018482339
60	0xba10d481	-0.00055248296
61	0x3a5cfeae	0.0008430284
62	0x38fdae77	0.00012096477
63	0x3acffe94	0.0015868717
64	0x3ae93499	0.0017792165
65	0x39262138	0.00015843369
66	0x3ab07165	0.0013461529
67	0xb758dd74	-1.2926164e-05
68	0x3a04d582	0.00050672155
69	0x3aa27e18	0.0012397198
70	0x3aaae078	0.0013036868
71	0x3a4f59d8	0.0007909811
72	0x37bf26b0	2.278699e-05
73	0xb8f9b6b6	-0.00011907278
74	0x3a84d996	0.0010135646
75	0x3aaaee24	0.0013040942
76	0x3aa3530d	0.0012460664
77	0xba246b8b	-0.00062721287
78	0x389e3280	7.5434335e-05
79	0x3a739216	0.0009291483
80	0xb90cb5f0	-0.00013419217
81	0x3a4b2a86	0.0007750172
82	0xb87e3cfc	-6.0615115e-05
83	0x3ab9e1f6	0.0014181721
84	0x3abcb6da	0.0014397756
85	0x3a84edf4	0.0010141716
86	0x3a11393f	0.00055398414
87	0xba4d8c12	-0.00078410015
88	0x3a9f2a07	0.0012143262
89	0x3acb878c	0.0015528067
90	0x3a86f494	0.0010296279
91	0x3a1a967a	0.00058970565
92	0x3834edb8	4.3136737e-05
93	0x39b01d58	0.000335912
94	0x3aaaf649	0.0013043369
95	0x39198533	0.00014640838
96	0x39d4d6f3	0.0004059594
97	0xba18d3fd	-0.00058299286
98	0x3b04f917	0.002029007
99	0x3ae6a7ae	0.001759758
100	0xb980dc1d	-0.0002457806
101	0x39ff06be	0.00048642413
102	0x3922edb0	0.0001553807
103	0x3ad20636	0.001602358
104	0x3ac1dfb3	0.0014791399
105	0x3a82f8b6	0.0009992335
106	0x3a0d8bc6	0.0005399551
107	0xba02f1a9	-0.00049951166
108	0x3a7b519c	0.0009587051
109	0x3ad6ccd6	0.001638795
110	0x3a54125a	0.0008089893
111	0x39e56850	0.00043756003
112	0x3968e7d2	0.00022211604
113	0x3a0adcaf	0.00052971666
114	0x3aa737e0	0.0012757741
115	0x3a2947d6	0.0006457543
116	0x3a45b62f	0.0007542101
117	0x395911f8	0.00020701427
118	0x39cd354a	0.0003914035
119	0x3a90922e	0.0011029893
120	0x3a50fcbe	0.0007972232
121	0x38936f26	7.030209e-05
122	0xb9080f8e	-0.00012975765
123	0x3aa53b34	0.0012606145
124	0x3a9f113c	0.0012135874
125	0xba1f0758	-0.0006066463
126	0x3a78db26	0.0009493105
127	0x39a43874	0.00031322578
128	0x3aaff690	0.0013424922
129	0x3af4d909	0.0018680404
130	0x3af43bde	0.0018633564
131	0xb8e10ea4	-0.00010731563
132	0xb8b74be7	-8.740258e-05
133	0x39ace174	0.00032974372
134	0x3a8aeefc	0.0010599787
135	0xba2d83cb	-0.0006619065
136	0x398eae84	0.00027214375
137	0x37be2e70	2.267139e-05
138	0x3b1b060e	0.0023654732
139	0x3b14ad0c	0.0022686152
140	0x3a9cabda	0.0011953071
141	0xb9989a3c	-0.00029106613
142	0xb919e6e7	-0.00014677235
143	0x3aa2a626	0.0012409135
144	0x3ae41c4c	0.0017403453
145	0x3a93e0d9	0.001128222
146	0x37f41406	2.909639e-05
147	0x39964fd5	0.0002866971
148	0x3a1152e5	0.0005543663
149	0x3ae0ee50	0.0017160866
150	0x3a93e0d9	0.001128222
151	0x37f41406	2.909639e-05
152	0x39964fd5	0.0002866971
153	0x3a1152e5	0.0005543663
154	0x3ae0ee50	0.0017160866
155	0x38bfdc1a	9.148587e-05
156	0x3b730bba	0.0037085847
157	0x3964c7a3	0.00021818145
158	0xbca363c8	-0.01994504
159	0x3a441c88	0.0007481058
160	0x3b02f74a	0.0019983822
161	0x3a0bce5e	0.00053331803
162	0x80000004	-6e-45
163	0x3a007312	0.00048999593
164	0xb98893ac	-0.00026049966
165	0xb971cb77	-0.00023059348
166	0xbb87addb	-0.0041405982
167	0xbb963879	-0.004584369
168	0xbaea3c4c	-0.0017870753
169	0x39b77722	0.0003499324
170	0x39c78d28	0.00038061407
171	0xbb4a3082	-0.0030851667
172	0xbb453548	-0.0030091573
173	0xb9508f98	-0.00019889919
174	0xba97aa08	-0.0011571059
175	0xb8ecd6c6	-0.000112933616
176	0xbb2f296c	-0.002672757
177	0xbb83641c	-0.0040097367
178	0xbb129710	-0.0022367872
179	0xb85b4e24	-5.2286443e-05
180	0x3759c8d6	1.2980969e-05
181	0xbaf48739	-0.0018656022
182	0xbb61dcca	-0.0034463876
183	0xb9a13903	-0.0003075079
184	0xba7cae1a	-0.000963898
185	0xb85be2f1	-5.2425024e-05
186	0xbb38abeb	-0.0028178643
187	0xbb60a102	-0.0034275656
188	0xbad433a0	-0.0016189702
189	0xba24d8d9	-0.00062884163
190	0xb9009b4c	-0.00012264884
191	0xbae828c2	-0.0017712342
192	0xbb5de335	-0.003385735
193	0xba74542e	-0.0009320405
194	0xb9a35d6f	-0.00031159396
195	0xb7df46a4	-2.6616566e-05
196	0xbb3c2ed8	-0.0028714444
197	0xbb73ce06	-0.0037201657
198	0xba1e7a5d	-0.0006045455
199	0xba704c02	-0.00091665995
200	0xba38e07f	-0.00070524955
201	0xbafb08cc	-0.0019152402
202	0xbb344377	-0.0027506032
203	0xba821682	-0.0009924921
204	0x39d93405	0.00041428223
205	0x394b4ee0	0.00019388972
206	0xbb763e4c	-0.0037573753
207	0xbb86cd15	-0.004113803
208	0xb745d6c0	-1.1792115e-05
209	0xba83c1aa	-0.0010052223
210	0xba60a5dc	-0.0008569637
211	0xbb149dfb	-0.0022677172
212	0xbb5fb921	-0.0034137445
213	0xba80101a	-0.0009770424
214	0x3a2220cd	0.0006184697
215	0xb77bb448	-1.5002741e-05
216	0xbb76f290	-0.00376812
217	0xbb8018b6	-0.003909196
218	0x3a867ff9	0.0010261527
219	0xbac7c61b	-0.0015241535
220	0xba9d0654	-0.0011980035
221	0xbb2047e3	-0.002445691
222	0xbb5e2e27	-0.003390202
223	0xbb1bd473	-0.0023777753
224	0x3aba7551	0.0014225637
225	0xb8942179	-7.063425e-05
226	0xbb4c3349	-0.0031158498
227	0xbb3ef005	-0.0029134762
228	0x390a5112	0.00013190907
229	0xbabf92ec	-0.001461593
230	0xba70b77a	-0.00091826136
231	0xbaf837b5	-0.00189375
232	0xbb226edf	-0.0024785323
233	0xbb061b27	-0.0020462961
234	0x3a8df510	0.0010830481
235	0xb8bb4ffc	-8.931753e-05
236	0xbb4a72fd	-0.0030891292
237	0xbb481499	-0.0030529855
238	0xba8cec91	-0.0010751655
239	0xbad2c9cf	-0.0016081872
240	0xba45f5f2	-0.00075516023
241	0xba3855bc	-0.00070318184
242	0xbb230d22	-0.0024879654
243	0xba872e84	-0.0010313545
244	0x39989876	0.00029105291
245	0xba50e5f1	-0.0007968834
246	0xbb2ab06c	-0.0026045097
247	0xbb541b90	-0.0032365061
248	0xba89d9be	-0.0010517163
249	0xba885b86	-0.0010403253
250	0xba4015de	-0.0007327477
251	0xbaac9c09	-0.0013169061
252	0xbb2a65b8	-0.002600057
253	0xbaf876fa	-0.0018956356
254	0x39af8cc4	0.0003348348
255	0xba72dd8e	-0.00092645816

exp_avg_sq f4 [128, 163]
0	0x374a8cac	1.2072891e-05
1	0x351c85aa	5.8309035e-07
2	0x3485deca	2.493528e-07
3	0x37cde6c7	2.4545368e-05
4	0x37ff93cb	3.046719e-05
5	0x37512a7a	1.2467261e-05
6	0x358239cf	9.702579e-07
7	0x346878ef	2.1650679e-07
8	0x37c70d34	2.3728797e-05
9	0x380097f0	3.065908e-05
10	0x374bfa14	1.2157969e-05
11	0x359825c0	1.1335869e-06
12	0x344cab27	1.9061245e-07
13	0x37c37e4a	2.330462e-05
14	0x37fcee22	3.015163e-05
15	0x37645f74	1.3612083e-05
16	0x36041c99	1.9686179e-06
17	0x346058e4	2.0893964e-07
18	0x37bcef9c	2.2522923e-05
19	0x37f88b60	2.9628805e-05
20	0x3733a230	1.0706994e-05
21	0x35d23c45	1.566376e-06
22	0x34c7a847	3.7189076e-07
23	0x37ca67ce	2.4128614e-05
24	0x37ff647f	3.0445166e-05
25	0x375d939e	1.3206996e-05
26	0x36325f08	2.6579382e-06
27	0x34dec979	4.1497313e-07
28	0x37ab6039	2.0429596e-05
29	0x37e9968a	2.7845865e-05
30	0x3757a406	1.2853188e-05
31	0x36130160	2.1905507e-06
32	0x354c4c56	7.6107005e-07
33	0x37aab208	2.0348481e-05
34	0x37e5e826	2.740703e-05
35	0x37621262	1.347493e-05
36	0x36529283	3.137772e-06
37	0x357ec931	9.4915146e-07
38	0x37a06b53	1.9123463e-05
39	0x37dd6cdc	2.6395945e-05
40	0x374a470d	1.2056681e-05
41	0x3638b989	2.7526132e-06
42	0x3580f401	9.607758e-07
43	0x37a9be94	2.0235115e-05
44	0x37e361d0	2.7106056e-05
45	0x3748f5f8	1.1978198e-05
46	0x368ee1fa	4.258237e-06
47	0x35ea429c	1.7453744e-06
48	0x379a69f2	1.8407565e-05
49	0x37e0cc83	2.6798114e-05
50	0x373d7731	1.1293029e-05
51	0x365a0d53	3.2492287e-06
52	0x3585fa6f	9.982158e-07
53	0x37ae8b19	2.0807189e-05
54	0x37e4d353	2.7278124e-05
55	0x371f2135	9.48487e-06
56	0x36b6a33d	5.443026e-06
57	0x3619d205	2.2921024e-06
58	0x379ca4e1	1.8673427e-05
59	0x37e1e1e9	2.6927288e-05
60	0x374433e5	1.1694593e-05
61	0x3672f49c	3.6203191e-06
62	0x359dec38	1.176616e-06
63	0x37a064db	1.912045e-05
64	0x37dcd543	2.6325351e-05
65	0x37166412	8.963996e-06
66	0x36c3b1f7	5.8321707e-06
67	0x361e2e40	2.3570756e-06
68	0x37a43f90	1.9579922e-05
69	0x37e4e703	2.7287291e-05
70	0x3738b049	1.1008299e-05
71	0x36772b6f	3.683115e-06
72	0x3592ad71	1.0928326e-06
73	0x37a646d3	1.9821722e-05
74	0x37e58a61	2.7363365e-05
75	0x371f833e	9.507696e-06
76	0x36bb82c0	5.5882556e-06
77	0x361a10ab	2.295749e-06
78	0x379ce2e5	1.8702305e-05
79	0x37defec4	2.6583097e-05
80	0x371fb5fe	9.519512e-06
81	0x36832a61	3.909038e-06
82	0x35931a16	1.0959945e-06
83	0x37b63066	2.1718628e-05
84	0x37f729eb	2.9464214e-05
85	0x3714e07d	8.873755e-06
86	0x36afa090	5.2340984e-06
87	0x36140b7e	2.2060408e-06
88	0x37a7228d	1.992404e-05
89	0x37e75e40	2.7581234e-05
90	0x37150f59	8.8846655e-06
91	0x36816857	3.8566463e-06
92	0x35878588	1.0097147e-06
93	0x37ba6a20	2.2222346e-05
94	0x37f92b1f	2.9703193e-05
95	0x36fd8aaf	7.5561325e-06
96	0x36afbb38	5.2372015e-06
97	0x35f3cf2d	1.8165207e-06
98	0x37beb0d2	2.2732103e-05
99	0x37f694d2	2.9394785e-05
100	0x3706e7ae	8.0409645e-06
101	0x3668d211	3.4692969e-06
102	0x35416eb7	7.2059214e-07
103	0x37d20e14	2.5040506e-05
104	0x3802a142	3.11446e-05
105	0x36e3791c	6.779226e-06
106	0x369fcca0	4.7623907e-06
107	0x35f7bf55	1.8458619e-06
108	0x37c4c231	2.3455448e-05
109	0x37fc7255	3.0093981e-05
110	0x3717b0af	9.041439e-06
111	0x362812ff	2.5045008e-06
112	0x35194955	5.7103654e-07
113	0x37d0e695	2.4902905e-05
114	0x38027bad	3.1109597e-05
115	0x36f80cfa	7.3924866e-06
116	0x36934682	4.3891496e-06
117	0x35efbec2	1.7862405e-06
118	0x37c58b24	2.3549022e-05
119	0x37fef87d	3.0394871e-05
120	0x37251e9b	9.841892e-06
121	0x35e8997b	1.7330016e-06
122	0x34eea968	4.4454214e-07
123	0x37ca6132	2.4125537e-05
124	0x3800fd1c	3.0753305e-05
125	0x36bcc98c	5.6262998e-06
126	0x367eaba5	3.794886e-06
127	0x35d1d008	1.5632259e-06
128	0x37d97007	2.5920583e-05
129	0x380aa1ee	3.3052573e-05
130	0x37145925	8.842243e-06
131	0x35bfab3d	1.4280446e-06
132	0x34b92ce7	3.4491606e-07
133	0x37e02862	2.6721686e-05
134	0x38091e9f	3.2691863e-05
135	0x36b995bf	5.5308624e-06
136	0x361c94fe	2.3332536e-06
137	0x3564fd57	8.5305277e-07
138	0x37eef616	2.8486404e-05
139	0x381093c7	3.4469904e-05
140	0x36feda16	7.5951784e-06
141	0x35a70bc5	1.2445895e-06
142	0x346f87ec	2.2308058e-07
143	0x37e9e55c	2.7882568e-05
144	0x380eafda	3.4019213e-05
145	0x36b174cb	5.2886076e-06
146	0x35cb8245	1.5162592e-06
147	0x34c877f9	3.7340195e-07
148	0x38023162	3.1040407e-05
149	0x3815a040	3.5673613e-05
150	0x36b174cb	5.2886076e-06
151	0x35cb8245	1.5162592e-06
152	0x34c877f9	3.7340195e-07
153	0x38023162	3.1040407e-05
154	0x3815a03f	3.567361e-05
155	0x35b0909a	1.3155106e-06
156	0x389e741e	7.5556556e-05
157	0x362aa03e	2.5425247e-06
158	0x3dedd40d	0.11612711
159	0x36bc9bb1	5.6209615e-06
160	0x38273326	3.986354e-05
161	0x365a29c1	3.2508835e-06
162	0x34957915	2.7841511e-07
163	0x38116067	3.4660476e-05
164	0x36bbdde8	5.5988676e-06
165	0x352b2c54	6.376697e-07
166	0x38d0624e	9.9365236e-05
167	0x390470c9	0.00012630517
168	0x381a9b8e	3.6861333e-05
169	0x36fe6717	7.581791e-06
170	0x3594374a	1.104295e-06
171	0x38c79a05	9.517748e-05
172	0x3903de6a	0.00012575989
173	0x381fef88	3.8131635e-05
174	0x372163f9	9.6196245e-06
175	0x34565f8e	1.9965066e-07
176	0x38b8dc4d	8.814838e-05
177	0x38f8d1b6	0.00011864623
178	0x3816ee94	3.598498e-05
179	0x37264242	9.909798e-06
180	0x35bf05c7	1.423229e-06
181	0x38bab0e4	8.9021196e-05
182	0x39008b16	0.00012258845
183	0x380b4e2f	3.3212997e-05
184	0x37534a61	1.2593898e-05
185	0x34968841	2.8038815e-07
186	0x38bddab9	9.0529626e-05
187	0x38f90733	0.00011874586
188	0x380bbf9d	3.3318636e-05
189	0x3755e332	1.2748687e-05
190	0x35f56667	1.8283725e-06
191	0x38b06ec3	8.412965e-05
192	0x38fc585f	0.00012032757
193	0x3809639d	3.2756117e-05
194	0x37882cc3	1.6233307e-05
195	0x3563b006	8.482024e-07
196	0x38aca614	8.2325336e-05
197	0x38ed16bc	0.00011305275
198	0x3805ce78	3.190196e-05
199	0x376a15fe	1.3952607e-05
200	0x362b3fff	2.5518236e-06
201	0x38b06950	8.41195e-05
202	0x38f5666c	0.00011701588
203	0x38048e9f	3.160408e-05
204	0x37a4a902	1.9629024e-05
205	0x35e70071	1.721097e-06
206	0x38a956b4	8.074698e-05
207	0x38e2b824	0.00010810819
208	0x37e30406	2.7062382e-05
209	0x378c2d0f	1.6710283e-05
210	0x36a65fb4	4.958327e-06
211	0x38abfa57	8.200545e-05
212	0x38f0b2b2	0.000114773764
213	0x38136590	3.514212e-05
214	0x37b9506c	2.2091168e-05
215	0x3636fa17	2.7265685e-06
216	0x38967b6a	7.175545e-05
217	0x38d5e65c	0.00010199539
218	0x3800fc83	3.0752748e-05
219	0x3796cfc4	1.7978142e-05
220	0x370ac439	8.271128e-06
221	0x3893b10b	7.042483e-05
222	0x38deea7a	0.000106294596
223	0x3809418e	3.2724398e-05
224	0x37d32cdf	2.5174055e-05
225	0x3675fc3e	3.665467e-06
226	0x38905172	6.8816254e-05
227	0x38d38b0b	0.00010087163
228	0x37dde303	2.6450964e-05
229	0x379ccb35	1.8691275e-05
230	0x371d610d	9.380526e-06
231	0x389ba7f1	7.4222575e-05
232	0x38dfdec0	0.00010674959
233	0x37e47a9c	2.7236812e-05
234	0x37e8d8f8	2.775759e-05
235	0x3682db82	3.899856e-06
236	0x38964489	7.165323e-05
237	0x38d8e122	0.00010341617
238	0x37f339f1	2.8994838e-05
239	0x3798edd1	1.8230554e-05
240	0x371ea444	9.45578e-06
241	0x38996b56	7.3156014e-05
242	0x38dec3fe	0.00010622291
243	0x37e8f791	2.7771837e-05
244	0x37f2f357	2.8961962e-05
245	0x369884b1	4.5454003e-06
246	0x388fb2ca	6.8520734e-05
247	0x38de1106	0.00010588956
248	0x37dca7ff	2.6304273e-05
249	0x3792058f	1.7407145e-05
250	0x37114b41	8.660195e-06
251	0x38a14610	7.6901284e-05
252	0x38e74b8f	0.00011029012
253	0x37dd63c7	2.6391715e-05
254	0x37f11435	2.8738848e-05
255	0x36808dcc	3.8312046e-06

exp_avg f4 [128]
0	0x3b02f749	0.001998382
1	0xbb87b70e	-0.004141695
2	0xba4d1be5	-0.0007824286
3	0x37df1d2b	2.6597254e-05
4	0xb70631fe	-7.998662e-06
5	0x3991d3f7	0.0002781448
6	0xb8819d88	-6.180542e-05
7	0x39b710a5	0.0003491688
8	0xb81067a9	-3.4428816e-05
9	0xb6ffbbc0	-7.621449e-06
10	0xb9db4fba	-0.00041830336
11	0xbb015b0c	-0.0019738106
12	0xb98938d1	-0.00026173008
13	0x377b4370	1.4976467e-05
14	0xb82889e0	-4.0182727e-05
15	0xb75f33f0	-1.3303928e-05
16	0x3acb866a	0.0015527729
17	0x3958a527	0.0002066089
18	0x39ae1e2a	0.0003321034
19	0x39d0be5b	0.00039814677
20	0xb934e36b	-0.00017250857
21	0x3a621af7	0.0008625234
22	0xba58fcb4	-0.0008277402
23	0x3b3867b2	0.002813798
24	0xb797a2a5	-1.807634e-05
25	0x36fd7898	7.5540265e-06
26	0x3a2f9820	0.00066983886
27	0x39967c7e	0.00028702983
28	0x399bda0d	0.00029726364
29	0xba0fd9d5	-0.00054874766
30	0x39aa8c45	0.00032529436
31	0x3a115238	0.00055435626
32	0x3b275b36	0.0025536544
33	0x3a09bb1a	0.00052540156
34	0x391f6678	0.00015201594
35	0xb95e3299	-0.00021190419
36	0xb996b11e	-0.00028742192
37	0xb7f8cbd1	-2.9658813e-05
38	0x3a938126	0.0011253699
39	0xb9f29c1d	-0.0004627415
40	0xb9a8794f	-0.0003213384
41	0xb9eb97b1	-0.00044935712
42	0xbaf6813e	-0.0018806828
43	0x379e9360	1.8903695e-05
44	0xb9146a6b	-0.00014154024
45	0x389c78b6	7.461144e-05
46	0xb8ea97d5	-0.000111862704
47	0x3a49599e	0.00076808955
48	0x3a05ba8a	0.0005101344
49	0xb962bc3f	-0.00021623167
50	0x39f28633	0.00046257823
51	0xb9e17f4a	-0.00043010182
52	0xbb11c660	-0.0022243485
53	0x39c373f5	0.00037279693
54	0xb856df00	-5.122926e-05
55	0x3abe13f9	0.0014501802
56	0xb7839030	-1.568356e-05
57	0xba0acbfd	-0.0005294679
58	0xb9acab5a	-0.00032934063
59	0xbb1931d6	-0.0023375652
60	0x39a91ef8	0.00032257265
61	0xb8437eef	-4.660984e-05
62	0xba6b8c3b	-0.00089854345
63	0x36b6dc98	5.449703e-06
64	0x3959b898	0.00020763499
65	0xb9b106a5	-0.0003376502
66	0x39378f28	0.0001750557
67	0xba2966ce	-0.00064621575
68	0x39e53744	0.0004371946
69	0xb67b4cb8	-3.744657e-06
70	0xbb3ba718	-0.0028633531
71	0x36eddf0c	7.0891165e-06
72	0x39a660b0	0.00031734025
73	0xba0e17d1	-0.0005420419
74	0x3a50ef56	0.0007970234
75	0x397ba6da	0.00023999382
76	0xba44e1e2	-0.0007510466
77	0x397c81b2	0.00024080908
78	0xb93bd58c	-0.00017913262
79	0x3a89b99a	0.0010507584
80	0xbb238048	-0.0024948288
81	0x3aa07c38	0.0012244051
82	0xb9d9d378	-0.00041547022
83	0x3a6ac5d1	0.00089558685
84	0xb8857f0f	-6.365601e-05
85	0x3b267a79	0.002540259
86	0x3b08d43a	0.002087845
87	0x3aa8b578	0.0012871465
88	0x3a99ff19	0.0011748999
89	0x39fc8556	0.0004816453
90	0xba4ff68a	-0.00079331605
91	0xb9a65007	-0.00031721612
92	0xb848709e	-4.77886e-05
93	0xb95562a1	-0.00020350005
94	0xb9dfd134	-0.00042689743
95	0x3887baa0	6.472063e-05
96	0x399b6ff7	0.00029647324
97	0x36ab0f7a	5.097999e-06
98	0xba0a2a68	-0.0005270601
99	0x3785256c	1.5872261e-05
100	0x38152fb0	3.556878e-05
101	0xb93f668d	-0.00018253383
102	0xb9bfc3a4	-0.00036576123
103	0xba95fa1a	-0.0011442334
104	0x3859a723	5.189249e-05
105	0x39d81e3c	0.00041221257
106	0x38d20090	0.00010013685
107	0xb8428865	-4.638023e-05
108	0x39254df2	0.00015764663
109	0xb816738a	-3.587039e-05
110	0xb92308a8	-0.00015548116
111	0xb756020d	-1.27558715e-05
112	0x39e6fb91	0.0004405645
113	0x38c5a707	9.424803e-05
114	0x3a850b48	0.0010150457
115	0xb8ece308	-0.00011295645
116	0xbaa33a53	-0.0012453295
117	0x36c67260	5.914175e-06
118	0xba3fefc3	-0.0007321799
119	0xba83c338	-0.0010052687
120	0x38d510c8	0.00010159757
121	0xb9fe2bf8	-0.00048479415
122	0x3a210412	0.0006142269
123	0x387ab9d8	5.9777725e-05
124	0x37d9b50a	2.5952719e-05
125	0xba8a3bd6	-0.0010546397
126	0xb909559c	-0.0001309723
127	0xb7c43532	-2.3389792e-05

exp_avg_sq f4 [128]
0	0x38288154	4.0174767e-05
1	0x392aed1b	0.00016300792
2	0x37fe4131	3.0309517e-05
3	0x339291f5	6.825204e-08
4	0x2fcca189	3.7222161e-10
5	0x376d5d6b	1.4148051e-05
6	0x331d5ffc	3.664171e-08
7	0x374f1b47	1.23445125e-05
8	0x31fa63fd	7.287325e-09
9	0x350cde27	5.247734e-07
10	0x3848b24e	4.7849775e-05
11	0x390ae9ca	0.00013247799
12	0x34df6a13	4.1614166e-07
13	0x3172d329	3.5335666e-09
14	0x3713fd61	8.820877e-06
15	0x34fea236	4.742921e-07
16	0x38096b86	3.2763484e-05
17	0x359b8b7f	1.1588999e-06
18	0x384545e9	4.703357e-05
19	0x355edd6f	8.3023673e-07
20	0x373ff799	1.14421355e-05
21	0x373e0998	1.1327116e-05
22	0x3778410a	1.4797095e-05
23	0x38b67df2	8.7018954e-05
24	0x372e5e59	1.0393175e-05
25	0x32520bdf	1.2226308e-08
26	0x37969898	1.795245e-05
27	0x3651a1fe	3.1237719e-06
28	0x37067075	8.013206e-06
29	0x37dbf74c	2.6221991e-05
30	0x369b1af2	4.622497e-06
31	0x37943ac1	1.7670334e-05
32	0x392977b6	0.00016161692
33	0x37121daa	8.709185e-06
34	0x34b2fe44	3.3340086e-07
35	0x35b8c1ab	1.3765433e-06
36	0x36f2d69c	7.237146e-06
37	0x33ad79ea	8.078116e-08
38	0x3845e7c0	4.7184294e-05
39	0x3879cba4	5.955588e-05
40	0x3757cc5e	1.2862582e-05
41	0x35985f93	1.1352698e-06
42	0x38d25d24	0.00010030929
43	0x381f3d7f	3.7965827e-05
44	0x343b52d0	1.7445859e-07
45	0x37aacc00	2.0360574e-05
46	0x3497bb45	2.8262198e-07
47	0x383f8bb2	4.566805e-05
48	0x37cd53c8	2.4476918e-05
49	0x3543b745	7.2909853e-07
50	0x3628f56a	2.51768e-06
51	0x372a8d56	1.0165697e-05
52	0x388c72cf	6.697105e-05
53	0x37b142f0	2.1131214e-05
54	0x3714576f	8.841845e-06
55	0x38aa92d1	8.1335784e-05
56	0x37999f75	1.8313274e-05
57	0x36780a83	3.6960998e-06
58	0x3795f357	1.7875498e-05
59	0x39309df5	0.00016843512
60	0x377c7c70	1.5049343e-05
61	0x34a00b07	2.9810346e-07
62	0x37bcc122	2.2501281e-05
63	0x33945cb8	6.9086525e-08
64	0x3768c2f4	1.3873669e-05
65	0x37608b50	1.3383877e-05
66	0x3774cd86	1.45913855e-05
67	0x3813753b	3.515671e-05
68	0x36e0ed26	6.703328e-06
69	0x2eb6ff47	8.321748e-11
70	0x3857245d	5.129386e-05
71	0x32cc421f	2.3778794e-08
72	0x3609b51e	2.0520015e-06
73	0x37d7e148	2.5734902e-05
74	0x373ba1c7	1.1183735e-05
75	0x37125326	8.721638e-06
76	0x37afd4da	2.0960742e-05
77	0x38029c56	3.1140014e-05
78	0x376187ea	1.344269e-05
79	0x37d3733e	2.5206824e-05
80	0x389a9049	7.3701674e-05
81	0x38131bb5	3.5073335e-05
82	0x373dabfa	1.1305319e-05
83	0x389dece7	7.53047e-05
84	0x363ed01d	2.8433344e-06
85	0x391aed87	0.0001477507
86	0x38364f94	4.3466294e-05
87	0x37ce2b41	2.4577255e-05
88	0x379789fe	1.806486e-05
89	0x36d5e63d	6.374698e-06
90	0x37da9813	2.605844e-05
91	0x37439091	1.1656565e-05
92	0x32c0bd9e	2.243797e-08
93	0x37eea5a8	2.844895e-05
94	0x3705a08e	7.9648e-06
95	0x380f92f9	3.4230736e-05
96	0x38288b4e	4.018406e-05
97	0x33025180	3.0342107e-08
98	0x3653cb47	3.1559773e-06
99	0x36c31f0f	5.8150686e-06
100	0x37e6cce6	2.751355e-05
101	0x348a8005	2.579765e-07
102	0x38c72b7d	9.49716e-05
103	0x37cc334b	2.434258e-05
104	0x3623f6bd	2.4432513e-06
105	0x3741ad10	1.1543991e-05
106	0x37d2639e	2.5080339e-05
107	0x343f097c	1.7791712e-07
108	0x3781f1f3	1.5490665e-05
109	0x3306726d	3.1303376e-08
110	0x3722da59	9.7067905e-06
111	0x31fbd261	7.3289788e-09
112	0x36732682	3.6232236e-06
113	0x392c5747	0.00016435712
114	0x37f59bce	2.9278828e-05
115	0x37809590	1.5328435e-05
116	0x38202cf5	3.8188842e-05
117	0x37bd0b2a	2.2535754e-05
118	0x3762f61e	1.3527953e-05
119	0x3757d584	1.2864712e-05
120	0x3490f168	2.6997736e-07
121	0x370d8de5	8.437292e-06
122	0x3613ed9c	2.2043014e-06
123	0x385854e3	5.157747e-05
124	0x32fc2c39	2.9356771e-08
125	0x3846abe2	4.7366957e-05
126	0x36be84b6	5.677891e-06
127	0x341d7b9d	1.4666735e-07
