Trained_Policies/WeightAgent_Training_onlyGoal/WeightAgent_Training_onlyGoal/WeightAgent_Training_onlyGoal-128999998.pt (torch, 914340 bytes, 33 tensors)

network_body._body_endoder.seq_layers.0.weight f4 [128, 159]
0	0x3cb4a725	0.022052357
1	0x3e684eb1	0.22686268
2	0xbce93472	-0.02846739
3	0x3d55e9e6	0.052225016
4	0x3e5b334e	0.2140629
5	0x3e022365	0.12708814
6	0x3e1b2287	0.1514989
7	0x3e95f098	0.2928512
8	0xbdce6f19	-0.10079784
9	0x3e7878bf	0.24264811
10	0x3d91107f	0.070832245
11	0x3e24d110	0.16095376
12	0xbe720cc3	-0.2363768
13	0xbd6b78f2	-0.05748839
14	0x3e1613b2	0.1465595
15	0x3e0d3369	0.13789143
16	0xbdedac08	-0.11605078
17	0xbc6efeb8	-0.014587097
18	0xbe449889	-0.19198813
19	0x3e28f3c8	0.16499245
20	0x3ce6141f	0.028085766
21	0xbd0fbbcd	-0.03509121
22	0xbe609a72	-0.21933916
23	0x3ea1f64f	0.3163323
24	0x3e284c53	0.16435365
25	0x3e79044d	0.24318047
26	0xbe251df5	-0.16124709
27	0xbde4eebb	-0.11178347
28	0x3cfa8f48	0.0305859
29	0x3e99d6fd	0.30046836
30	0xbd612e6b	-0.05497591
31	0xbe859f72	-0.2609821
32	0xbe3ee1cb	-0.1864082
33	0x3ea8416e	0.3286242
34	0xbc397183	-0.011318567
35	0x3d88f1d5	0.06686751
36	0xbe0bcdc4	-0.13652712
37	0x3e1d8b7a	0.15385237
38	0xbdb263ff	-0.08710479
39	0x3e8b75e5	0.27238384
40	0x3e79398c	0.24338359
41	0xbf0ed3bc	-0.5579183
42	0x3a3ff27a	0.00073222036
43	0x3e3cb4e2	0.18428376
44	0xbe1d7b4c	-0.15379065
45	0x3da6e759	0.08149595
46	0xbeaaf259	-0.33388022
47	0x3a97b865	0.001157534
48	0xbdc694de	-0.09696363
49	0x3e2fabe7	0.1715542
50	0x3dd8c4fc	0.10584447
51	0xbe40f97b	-0.18845169
52	0x3e44c767	0.19216691
53	0xbd1ccf2a	-0.038283505
54	0xbf3bd4a6	-0.7337135
55	0x3d8d4e4e	0.06899701
56	0xbe2a3b89	-0.16624273
57	0xbdd7db5c	-0.10539886
58	0xbdaac6c6	-0.08338694
59	0x3e56c931	0.20975186
60	0x3e81b5f6	0.25334138
61	0x3ca242f9	0.019807326
62	0xbddc877a	-0.107680276
63	0xbf03f487	-0.51544994
64	0xbf5c40b1	-0.8603621
65	0x3e0f77da	0.14010563
66	0x3dfdd728	0.123945534
67	0xbdf4e4ce	-0.119577035
68	0x3cc9b1a3	0.024620837
69	0x3e0dfb62	0.13865426
70	0x3e5c90ca	0.21539608
71	0x3db32cd0	0.08748782
72	0x3dcf52ba	0.10123201
73	0xbeec1825	-0.4611217
74	0xbf503dfb	-0.81344575
75	0xbd71b32e	-0.05900877
76	0x3d297015	0.041366655
77	0xbda97e70	-0.08276069
78	0xbbc09bc9	-0.005877946
79	0x3d87f158	0.066378295
80	0x3e40d804	0.18832403
81	0x3d095f5c	0.033538207
82	0x3d21a35a	0.039462425
83	0xbdbdc04f	-0.092651956
84	0xbefcf90f	-0.49408767
85	0xbca7bd0a	-0.020475883
86	0xbe2f4962	-0.17117837
87	0xbe6b34a4	-0.229693
88	0x3dc5bd10	0.096552014
89	0xbd3b2163	-0.045686137
90	0x3eb30c1d	0.3497018
91	0x3e608ec8	0.21929467
92	0xbd4d8eea	-0.05018512
93	0xbe799228	-0.2437216
94	0xbf02613c	-0.5092962
95	0xbdd9e12d	-0.10638652
96	0x3db10a94	0.08644596
97	0xbd8c5c33	-0.06853523
98	0xbdecd9c2	-0.115649715
99	0x3dfc56e8	0.123212636
100	0x3e00694a	0.12540165
101	0xbd6f2fd7	-0.058395233
102	0x3d821061	0.0635078
103	0x3da239e0	0.07921195
104	0xbe16a433	-0.14711075
105	0xbbe8f702	-0.0071095238
106	0x3de74f97	0.112944774
107	0x3d69243a	0.056919314
108	0x3db9fa1c	0.09080908
109	0xbdff1e43	-0.12456944
110	0x3d243458	0.04008898
111	0x3d17255f	0.036900874
112	0xbce21ab6	-0.027600627
113	0xbc557dd2	-0.013030486
114	0xbe13cd87	-0.14433871
115	0xbccebd2e	-0.025236692
116	0x3de0189d	0.109421946
117	0x3e556646	0.20839795
118	0xbd75f4f5	-0.060048062
119	0xbd8f5171	-0.069979556
120	0x3dde28ba	0.10847612
121	0x3de8d27a	0.1136827
122	0x3de3c6f0	0.11121929
123	0xbc8236c5	-0.015895257
124	0xbde1b07e	-0.11019991
125	0xbdbbead9	-0.09175653
126	0x3db79621	0.08964182
127	0x3e3c2108	0.18371975
128	0xbdd23d5c	-0.102656096
129	0xbd9ebb9e	-0.07750629
130	0xbe2181ac	-0.15772122
131	0xbc9454f6	-0.018106919
132	0x3c17f947	0.009275741
133	0xbe558169	-0.20850147
134	0x3d18198a	0.03713373
135	0xbe0a3400	-0.13496399
136	0x3d925531	0.07145155
137	0x3d157c33	0.0364954
138	0xbd58e7dc	-0.052955493
139	0x3cc3a008	0.02388002
140	0x3cc4c8c6	0.024021517
141	0xbd46931f	-0.04848015
142	0x3bd602de	0.0065311035
143	0xbd3f5fed	-0.04672234
144	0xbe30634c	-0.17225379
145	0xbcefee60	-0.02928847
146	0x3dd6e765	0.10493354
147	0xbc595efc	-0.013267275
148	0x3e25a6f5	0.1617697
149	0x3b364ac8	0.002781557
150	0x3dc13ff9	0.0943603
151	0xbd0d75d3	-0.034536194
152	0x3df41bc0	0.119193554
153	0x3d00fcde	0.031491153
154	0x3d5bcaa0	0.053660035
155	0xbf863e0c	-1.0487685
156	0xbf6be6e4	-0.92149186
157	0x3e6a4cf2	0.22880915
158	0x3cddbcaf	0.02706751
159	0xbe25dd09	-0.161976
160	0x3d5ffac6	0.054682516
161	0x3e8cb774	0.27483714
162	0xbe148f75	-0.1450785
163	0x3e85f752	0.26165253
164	0xbe859400	-0.26089478
165	0x3df50daf	0.119655006
166	0xbbf6aa1b	-0.0075276024
167	0xbd6dabc8	-0.05802515
168	0x3edb7c39	0.42868212
169	0x3da481eb	0.080325924
170	0x3da69663	0.08134153
171	0x3d6606e3	0.05615891
172	0xbd3c9150	-0.04603702
173	0x3e225136	0.15851292
174	0xbe14dd13	-0.14537458
175	0xbaaaa6a3	-0.0013019632
176	0x3e22c159	0.15894069
177	0xbe93d5a0	-0.2887392
178	0x3ec933cf	0.3929734
179	0x3d2516d2	0.040304966
180	0xbe06d2b7	-0.13166319
181	0xbd48b804	-0.049003616
182	0xbdfe41e7	-0.124149136
183	0x3ebe71a6	0.37196082
184	0x3d884158	0.06653088
185	0x3db53ef7	0.088499
186	0x3e5f2e67	0.21795045
187	0xbe4e4356	-0.20142874
188	0x3ec067be	0.3757915
189	0xbe6bc948	-0.23026001
190	0x3e64c9d4	0.22342616
191	0xbdb3d043	-0.08779957
192	0x3c4c32d0	0.0124632865
193	0x3e631df5	0.22179396
194	0x3dc3599c	0.09538576
195	0xbe0b8cf8	-0.13627994
196	0x3d6c0053	0.057617497
197	0xbe58aea1	-0.21160366
198	0x3e9c669b	0.30547032
199	0xbe49e294	-0.19715339
200	0x3ed00ee8	0.40636373
201	0x3c90b878	0.017666087
202	0xbdf179de	-0.117908224
203	0x3e86e582	0.26346976
204	0x3e1a8854	0.15091068
205	0x3c1c0b25	0.009524141
206	0xbd81171f	-0.06303238
207	0xbe133122	-0.14374211
208	0x3e75de6d	0.2401063
209	0xbe265396	-0.16242823
210	0x3e62519e	0.22101447
211	0x3e88cdb7	0.26719448
212	0xbe802724	-0.25029862
213	0xbd1a21f5	-0.03763004
214	0x3e031768	0.12801898
215	0xbb5f10bf	-0.003403708
216	0xbcd773ea	-0.02630039
217	0x3b2b3851	0.0026126096
218	0x3e00b465	0.12568815
219	0x3d6ce202	0.057832725
220	0x3e248540	0.16066456
221	0x3e3d6131	0.18494107
222	0xbec77d9c	-0.3896302
223	0xbe161569	-0.14656605
224	0x3dfa7620	0.12229562
225	0x3dd6ff87	0.10497957
226	0xbceb111e	-0.028694686
227	0xbe513ff4	-0.20434552
228	0x3d21f222	0.039537556
229	0x3ce34b8f	0.02774599
230	0x3cac8b7c	0.021062605
231	0xbd241a11	-0.04006392
232	0xbe18ca79	-0.14920987
233	0xbe350b07	-0.17679988
234	0xbdcc9b6e	-0.09990583
235	0x3d11ea1f	0.035623666
236	0xbe25b239	-0.16181268
237	0xbbea6120	-0.0071526915
238	0x3db26755	0.08711115
239	0x3dc38122	0.095461145
240	0xbd313fe1	-0.04327381
241	0xbe567fff	-0.20947264
242	0x3d047e7f	0.0323472
243	0xbe065400	-0.13117981
244	0xbb09d2f1	-0.0021030272
245	0xbcacbc2b	-0.02108582
246	0xbe04cd1c	-0.12968868
247	0xbcc07695	-0.023494044
248	0x3dedd465	0.11612777
249	0xbd50963c	-0.050924525
250	0x3d112cf8	0.035443276
251	0xbcdc1758	-0.0268666
252	0xbb36c23d	-0.002788677
253	0xbd52d5f1	-0.05147356
254	0xbdf27d84	-0.118403465
255	0x3d9941e9	0.074832745

network_body._body_endoder.seq_layers.0.bias f4 [128]
0	0x3c5f1f86	0.013618356
1	0xbd115c5e	-0.03548848
2	0x3d36d2fd	0.044634808
3	0x3d9a0064	0.07519606
4	0x3b97f572	0.0046374137
5	0x3dadfbee	0.084953174
6	0x3c1b1dee	0.009467585
7	0xbc564e87	-0.013080246
8	0x3d95e817	0.07319658
9	0x3d4b37a6	0.049613617
10	0xbdf0788b	-0.11741742
11	0xbd6aff7d	-0.05737256
12	0x3d283992	0.04107053
13	0x3c825a7c	0.015912287
14	0x3beba13f	0.007190853
15	0x3d8895b3	0.06669178
16	0xbd13bdd8	-0.03606972
17	0xbd990ee6	-0.07473545
18	0xbcc31fca	-0.02381887
19	0xbb6883da	-0.003547898
20	0xbca33ffb	-0.01992797
21	0x3d61eea9	0.055159245
22	0xbe20e302	-0.15711597
23	0x3cdce33e	0.026963826
24	0xbc529e4e	-0.012855126
25	0xbd148c5d	-0.036266673
26	0x3ce9ec39	0.028555023
27	0x3abcf8e1	0.0014417433
28	0xbe2e1aff	-0.17002486
29	0xbc7211ca	-0.014774749
30	0x3c5445fa	0.012956137
31	0xbd5d2495	-0.053989965
32	0x3c742289	0.014900812
33	0x3da30b73	0.07961168
34	0x3ca98500	0.020693302
35	0x39fe83a0	0.00048544724
36	0x3daa57ac	0.08317503
37	0xbbb3d1f6	-0.005487676
38	0xbd383e25	-0.04498114
39	0xbbb775cf	-0.0055987607
40	0x3c217c8b	0.0098563535
41	0xbb40043b	-0.0029299397
42	0x3d095355	0.033526737
43	0xbc8c7550	-0.017145783
44	0x3d1e609a	0.038666345
45	0x3db4ba96	0.08824651
46	0x3c763b04	0.015028719
47	0x3d8bbeb6	0.068234846
48	0x3db26afd	0.08711813
49	0x3cc87f5a	0.024474788
50	0x3c7142d1	0.014725403
51	0x3c621846	0.013799733
52	0xbaf04270	-0.0018330347
53	0x3d82fe4d	0.0639616
54	0xbce4ca8c	-0.027928613
55	0xbd81dba4	-0.06340721
56	0x3cb8495a	0.022495914
57	0xbda1a7da	-0.07893343
58	0x3c052933	0.008127498
59	0x3c536f9f	0.0129050305
60	0xbd8ad841	-0.067795284
61	0x3d235442	0.039875276
62	0x3d87114e	0.065950975
63	0x3d983b94	0.074332386
64	0x3cccb16a	0.024986941
65	0x3cea60bd	0.028610582
66	0x3c21ea2b	0.00988249
67	0x3d318856	0.04334291
68	0x3d568801	0.052375797
69	0xbd0db57a	-0.034596898
70	0xbd74845f	-0.05969655
71	0x3d7dd3bd	0.061969507
72	0xbd494bea	-0.049144663
73	0x3d83d97d	0.06437967
74	0xbb55104c	-0.0032510934
75	0x3d0a3c65	0.033749003
76	0xbda5c033	-0.080933
77	0x3d0980be	0.033570044
78	0xbc84d0a7	-0.016212774
79	0x3ce6c912	0.02817205
80	0x3d176639	0.03696272
81	0x3cecefaf	0.028922884
82	0xbd4fa4c4	-0.050694242
83	0xbd34fce2	-0.04418648
84	0xbc87cdea	-0.01657768
85	0xbe335154	-0.17511493
86	0x3bdc52a2	0.006723718
87	0xbc1cb42a	-0.009564439
88	0xbd5e6b78	-0.05430171
89	0x3d84b78b	0.064803205
90	0xbe34841a	-0.17628518
91	0x3c67d425	0.0141497
92	0xbc6fa191	-0.014625923
93	0x3ce62de3	0.028098052
94	0x3d8c3437	0.06845897
95	0x3d70d231	0.058794204
96	0x3d07e657	0.033178654
97	0xbcd50d33	-0.02600727
98	0xbd2b5b57	-0.041835155
99	0x3bd26f24	0.0064219404
100	0x3d1349c3	0.035959017
101	0xbdabb7c0	-0.08384657
102	0xbd35ecd4	-0.04441531
103	0x3d170367	0.03686848
104	0x3d59e0d3	0.053192925
105	0xbcf4a41f	-0.029863415
106	0xbd7aa13f	-0.061188933
107	0x3c91edf1	0.017813655
108	0x3c9b0f4b	0.01892819
109	0x3c80de52	0.01573101
110	0xbc8d0902	-0.01721621
111	0x3d44e3d6	0.048068844
112	0x3d70edac	0.05882041
113	0x3d6d38fe	0.05791568
114	0x3c59c3fe	0.013291357
115	0x3d59d123	0.053177964
116	0x3bffd065	0.007806825
117	0xbdada55d	-0.08478806
118	0x3c42dc8f	0.011893406
119	0xbd0842a8	-0.033266693
120	0x3d1c66e4	0.03818406
121	0x3a488f57	0.0007650754
122	0xbe4e3b6b	-0.20139854
123	0x3ccc8676	0.02496646
124	0x3bb2e3e1	0.005459294
125	0xbd2200db	-0.039551597
126	0xbc922966	-0.017842006
127	0x3c9f7993	0.01946715

network_body._body_endoder.seq_layers.2.weight f4 [128, 128]
0	0x3d7344dc	0.05939184
1	0x3dddcdb3	0.1083025
2	0xbea1de5c	-0.3161496
3	0xbc595996	-0.013265988
4	0xbd87bad8	-0.066274345
5	0xbdb5c09e	-0.088746294
6	0xbcb99594	-0.022654332
7	0xbd90b6b7	-0.070661
8	0x3e816a07	0.25276205
9	0xbe0a1786	-0.13485536
10	0xbec20a87	-0.37898657
11	0xbe50c5d8	-0.20387971
12	0x3e5719bd	0.21005912
13	0x3e255d92	0.16148975
14	0xbf06b325	-0.526171
15	0x3d984237	0.074345045
16	0x3e04eb63	0.12980418
17	0xbb74432d	-0.0037271485
18	0x3e9bd12e	0.3043303
19	0xbcd10f47	-0.02551998
20	0x3df51ee5	0.11968783
21	0xbdf4eca2	-0.119591966
22	0xbdfa14a9	-0.12210972
23	0xbea2b69b	-0.31779942
24	0x3e1c842d	0.15284796
25	0xbe9992ce	-0.29994816
26	0x3c900d6c	0.017584525
27	0x3e2b23c8	0.16712868
28	0x3cdf3223	0.027245587
29	0x3e5df713	0.21676283
30	0x3d96706d	0.07345662
31	0x3db40175	0.087893404
32	0xbe5a8dce	-0.21343157
33	0xbd173d9c	-0.03692399
34	0x3dea9258	0.11453694
35	0x3c2b8335	0.010468294
36	0xbe651f9f	-0.22375344
37	0xbd07cd6a	-0.033154882
38	0xbd052a13	-0.03251083
39	0xbd3d08df	-0.04615104
40	0xbe7bd9d0	-0.24594808
41	0x3e2f4111	0.17114665
42	0x3d221c75	0.03957792
43	0x3d892981	0.06697369
44	0x3d261758	0.040549606
45	0xbc67bfda	-0.014144862
46	0xbe51cefa	-0.20489112
47	0xbe6e75a8	-0.2328707
48	0x3e3e4b5f	0.1858344
49	0x3e04b874	0.12960988
50	0xbd0f432c	-0.03497617
51	0x3d63c92a	0.055611767
52	0xbd8f24ac	-0.069894165
53	0xbdb8a44f	-0.090157144
54	0xbe263e49	-0.16234697
55	0xbe1b4308	-0.15162289
56	0x3ee5f3bb	0.44912514
57	0xbd259448	-0.040424615
58	0xbe02669e	-0.12734458
59	0xbc9b86ed	-0.018985236
60	0x3bfc42c4	0.007698389
61	0x3df4a1d0	0.11944926
62	0xbe3b841f	-0.18312119
63	0x3d13979e	0.036033265
64	0xbe8320cf	-0.25610968
65	0x3d93e821	0.072220095
66	0x3e69853d	0.22804733
67	0xbd8e544a	-0.069496706
68	0xbdd9b7ad	-0.106307365
69	0xbcb11f11	-0.021621259
70	0xbe3bb94c	-0.18332404
71	0xbd7c1e08	-0.061552078
72	0xb979d44a	-0.00023825574
73	0x3e06b8f7	0.13156496
74	0xbe82f940	-0.25580788
75	0xbc015c57	-0.007895551
76	0xbd5c08ac	-0.053719208
77	0xbe0dcf03	-0.138485
78	0x3cb71fd1	0.022354038
79	0xbe920657	-0.28520462
80	0xbde2ebaa	-0.110801056
81	0xbe0a87f3	-0.13528423
82	0x3c92b97a	0.017910708
83	0x3eba20a1	0.3635302
84	0x3c1be64e	0.009515358
85	0xbe1e45ba	-0.15456286
86	0xbf2c1582	-0.6722032
87	0x3db2bd7f	0.0872755
88	0xbe56307c	-0.20916933
89	0x3e223569	0.15840687
90	0x3e4d7f09	0.20067991
91	0x3e5e363f	0.2170038
92	0xbd2d0711	-0.042243067
93	0xbea8dca3	-0.32980832
94	0x3db10e3c	0.08645293
95	0xbe28cfe8	-0.1648556
96	0xbc65df69	-0.014030316
97	0x3ea18830	0.31549215
98	0xbe55729b	-0.208445
99	0xbc9bdc69	-0.019025998
100	0xbe819a79	-0.25313166
101	0xbc6cd98b	-0.014456163
102	0x3e147140	0.14496326
103	0x3ca31f1f	0.0199123
104	0x3dd63cd2	0.10460819
105	0xbeca25cd	-0.39481965
106	0xbe10c42d	-0.14137335
107	0xbec74d02	-0.3892594
108	0xbd65553d	-0.055989493
109	0x3e57ecf3	0.21086483
110	0xbd11fbcc	-0.035640523
111	0xbad6f864	-0.001640093
112	0xbd5fa7d5	-0.054603416
113	0xbec4434d	-0.38332596
114	0xbc99e1ee	-0.01878449
115	0xbe0fe534	-0.14052278
116	0xbd95dca5	-0.07317475
117	0xbe9208f5	-0.2852246
118	0xbe98378e	-0.29729885
119	0x3cc2ccf3	0.023779368
120	0x3d008507	0.031376865
121	0x3d9c3210	0.07626736
122	0xbdae389b	-0.085068904
123	0x3d954a4e	0.07289563
124	0xbe72f179	-0.23724927
125	0xbd26b9e3	-0.04070462
126	0x3e325d13	0.17418317
127	0x3db653af	0.0890268
128	0x3e381018	0.1797489
129	0xbdc9d68e	-0.09855376
130	0xbd0dea60	-0.034647346
131	0xbefb7166	-0.49109954
132	0x3b04765b	0.0020212147
133	0xbe80bc93	-0.2514387
134	0x3cf5f17d	0.030022377
135	0xbe0a02e0	-0.13477659
136	0xbdae2671	-0.08503426
137	0xbe942e5c	-0.2894162
138	0xbe185830	-0.14877391
139	0x3e3d4154	0.18481952
140	0xbe2111ce	-0.15729448
141	0xbea75794	-0.32684004
142	0x3e01314e	0.12616464
143	0xbee132bf	-0.4398403
144	0xbd95682e	-0.07295261
145	0x3e2be3cf	0.16786121
146	0x3e3fb569	0.18721546
147	0x3bbcb4cf	0.0057588588
148	0x3daf85ec	0.085704654
149	0xbe3de15e	-0.18543002
150	0xbe2eeafa	-0.17081824
151	0x3d5d6959	0.054055545
152	0x3e24937c	0.16071886
153	0x3d614332	0.054995723
154	0xbea21ad5	-0.31661096
155	0xbe9cac52	-0.3060022
156	0xbe8d198b	-0.2755855
157	0x3e29e456	0.1659101
158	0xbe47a3fe	-0.19496152
159	0x3c511543	0.012761417
160	0xbd95b7d0	-0.0731045
161	0xbe02371a	-0.12716332
162	0xbeb4a794	-0.35284102
163	0x3c8070cd	0.015678788
164	0x3e21bc03	0.15794377
165	0x3dc19d64	0.09453848
166	0xbd5316da	-0.051535465
167	0x3e5b952f	0.21443628
168	0xbe6e2094	-0.23254615
169	0xbdab003b	-0.08349653
170	0xbe553a69	-0.20823063
171	0x3e3d53ee	0.18489048
172	0x3db88c2f	0.09011113
173	0xbe9e5255	-0.3092219
174	0x3cb56616	0.022143405
175	0xbe0ece81	-0.13945962
176	0xbde0709b	-0.10958978
177	0x3defa782	0.117018715
178	0x3de48408	0.111579955
179	0xbda00f14	-0.07815376
180	0xbda36d95	-0.079798855
181	0xbeb11d2f	-0.34592578
182	0x3e5be5cf	0.21474384
183	0x3e7edec1	0.24889661
184	0xbe74eb80	-0.23917961
185	0xbe81811e	-0.2529382
186	0xbe1543a1	-0.1457658
187	0x3b33d7f7	0.0027441957
188	0xbdfa9916	-0.1223623
189	0xbe73ce52	-0.23809174
190	0xbddcef82	-0.1078787
191	0xbe3b8a4e	-0.18314478
192	0xbe603643	-0.21895699
193	0xbc9e99a6	-0.019360375
194	0xbdc6dfec	-0.097106785
195	0xbef0fd9f	-0.47068498
196	0x3d9806d3	0.074231766
197	0x3d1e34d7	0.03862461
198	0xbd80aeb7	-0.06283324
199	0xbdf78a49	-0.12086923
200	0x3eb5970c	0.35466802
201	0x3e194451	0.14967467
202	0xbe48d5d0	-0.19612813
203	0xbe19e1cb	-0.1502754
204	0x3d9dc6dc	0.07703945
205	0xbe375808	-0.17904675
206	0xbdd9b5ce	-0.106303796
207	0xbe34c050	-0.17651486
208	0xbe80b175	-0.2513539
209	0x3e4a6124	0.19763619
210	0x3df0a910	0.11750996
211	0x3d840932	0.06447066
212	0x3c0fa85d	0.008768168
213	0x3ed1b3c5	0.40957466
214	0xbe9bf599	-0.30460814
215	0x3dcfbeed	0.10143838
216	0x3eadd228	0.339494
217	0xbe7550b5	-0.23956569
218	0xbf088c2d	-0.5333889
219	0xbe36889f	-0.17825554
220	0x3e993e55	0.29930368
221	0xbe13d46a	-0.14436498
222	0xbeafc544	-0.3433019
223	0xbe26ea2e	-0.1630027
224	0xbe062d8a	-0.1310331
225	0x3ea88774	0.32915843
226	0xbe9e2145	-0.30884758
227	0xbe8c7426	-0.27432364
228	0x3bad2c91	0.0052848537
229	0x3d594cd5	0.05305179
230	0x3db3757d	0.087626435
231	0xbd71f1c9	-0.059068475
232	0xbed5197e	-0.41621011
233	0x3d650c18	0.055919737
234	0x3d1d040b	0.038333934
235	0xbec30fde	-0.38098043
236	0xbe24eaeb	-0.16105239
237	0xbdda2835	-0.106522
238	0x3d4af0a6	0.049545906
239	0xbe9dfd74	-0.30857432
240	0xbe304c24	-0.17216545
241	0xbee9db91	-0.45675328
242	0xbd4f98ca	-0.05068282
243	0xbe179f57	-0.14806877
244	0xbe5f0cea	-0.2178227
245	0xbd9c3baa	-0.076285675
246	0x3e1509c9	0.14554514
247	0x3d424c1c	0.047435865
248	0xbeb4dadd	-0.3532323
249	0x3a1139a4	0.00055399
250	0x3d098a71	0.033579294
251	0xbdb501ad	-0.0883821
252	0xbb7e45f8	-0.003879903
253	0x3dd155c8	0.102214396
254	0xbe3cdfd0	-0.18444753
255	0xbe8f97db	-0.28045544

network_body._body_endoder.seq_layers.2.bias f4 [128]
0	0x3ca68cb5	0.020330766
1	0x3bb72c0c	0.0055899676
2	0xbca1c968	-0.019749358
3	0xbcb0b0fc	-0.021568768
4	0x3df8af44	0.12142804
5	0xbe3aaa0a	-0.18228927
6	0xbe070a57	-0.13187538
7	0xbbf86234	-0.007580066
8	0xbdc8ffa0	-0.098143816
9	0x3d83c811	0.06434644
10	0xbde4b84f	-0.111679666
11	0xbd1370db	-0.0359963
12	0x3e2c9a8a	0.16855827
13	0x3d04e552	0.03244526
14	0x3c1b7172	0.009487497
15	0xbd80c9ca	-0.06288488
16	0xbd88fd31	-0.066889174
17	0x3d4194c7	0.047261026
18	0xbd925bf0	-0.07146442
19	0x3d84f304	0.06491664
20	0xbd92103d	-0.071320035
21	0x3cb2dc70	0.021833628
22	0x3d91d169	0.0712002
23	0x3a6472c7	0.0008714613
24	0x3db64bfb	0.08901211
25	0x3e182f66	0.14861831
26	0xbca82a9a	-0.020528127
27	0xbd1982da	-0.037478305
28	0xbdbed4f5	-0.09317962
29	0xbe25d248	-0.16193497
30	0x3d8524ea	0.065011814
31	0x3ba79d74	0.0051152054
32	0xbdd9f9c7	-0.10643344
33	0xbe13b52e	-0.14424583
34	0xbd516fb8	-0.051131934
35	0xbdc9a773	-0.098463915
36	0x3c84ac99	0.016195582
37	0xbc185443	-0.009297433
38	0xbc7fc78b	-0.01561154
39	0xbd08b459	-0.033375118
40	0x3d8289eb	0.06373962
41	0xbc8057b7	-0.015666826
42	0x3db4e7ed	0.08833299
43	0xbd346f06	-0.044051193
44	0x3db24093	0.08703723
45	0x3c756e1e	0.014979867
46	0x3c3cbd44	0.011519734
47	0xbcd16950	-0.025562912
48	0xbd84ec0b	-0.06490334
49	0x3d22dca9	0.03976122
50	0xbcb26f7d	-0.021781677
51	0x3b9a85c8	0.004715655
52	0xbd200177	-0.039063897
53	0xbc35464c	-0.011064123
54	0xbd986c6a	-0.07442553
55	0xbcd15bc5	-0.025556454
56	0xbdad3d77	-0.08458989
57	0x3e19dcc4	0.15025622
58	0xbd6207fa	-0.05518339
59	0x3d376bc6	0.044780515
60	0xbd4b89e5	-0.049692053
61	0x3d00a515	0.031407434
62	0x3c23d2dd	0.009999004
63	0x3da4d153	0.08047738
64	0x3d0a4028	0.03375259
65	0x3bc9dd0d	0.0061603845
66	0x3c9f98db	0.019482067
67	0xbd38b913	-0.045098376
68	0xbcd6bb1c	-0.026212268
69	0x3d9aedfe	0.07564925
70	0x3d8d1803	0.068893455
71	0x3d2d09b5	0.042245585
72	0xbc381d5d	-0.0112374695
73	0xbd1173de	-0.03551089
74	0x3cf0d15e	0.029396709
75	0xbcd25f50	-0.025680214
76	0x3d6e8b26	0.05823817
77	0xbd9eafc8	-0.07748371
78	0xbca33cc4	-0.019926436
79	0xbe268146	-0.16260251
80	0xbcd9a889	-0.026569622
81	0x3dd4ad55	0.10384623
82	0xbe16ebea	-0.14738432
83	0x3cb5dbfd	0.022199625
84	0xbcb7b403	-0.022424703
85	0x3d861d65	0.06548575
86	0x3d8d3712	0.068952695
87	0xbd61d712	-0.055136748
88	0x3db1d6ba	0.08683534
89	0xbd6d17fc	-0.0578842
90	0xbc235741	-0.009969533
91	0xbc429fe2	-0.011878939
92	0x3d6d4d21	0.057934884
93	0xbcbc4432	-0.022981737
94	0x3e213f5a	0.15746823
95	0xbc1484e1	-0.009064884
96	0xbdd307b2	-0.10304202
97	0xbd75f0f2	-0.060044236
98	0x3bf1aad5	0.007375101
99	0xbd994341	-0.07483531
100	0x3d9652b5	0.07339994
101	0x3d9fbc81	0.07799626
102	0x3c4186e8	0.011811949
103	0xbc0c5f57	-0.008567653
104	0xbd81ee39	-0.063442655
105	0xbc3725a7	-0.011178411
106	0xbd0dd5c8	-0.034627706
107	0xbcd8a0f6	-0.02644394
108	0x3c265957	0.010153136
109	0xbd0ff2a1	-0.0351435
110	0x3e7ab777	0.24484049
111	0xbd86b0f4	-0.0657672
112	0x3d9c89d6	0.076434776
113	0x3cf013c3	0.029306298
114	0x3ce67821	0.028133454
115	0x3ddea732	0.10871734
116	0x3aed9b4b	0.0018127946
117	0x3dd41295	0.10355107
118	0xbd75900a	-0.05995182
119	0x3d08f5d7	0.033437576
120	0x3d9a3865	0.07530288
121	0xbc8f9c1b	-0.017530492
122	0xbddf6da7	-0.109095864
123	0x3cd99d0e	0.026564147
124	0x3d6c6a5c	0.05771862
125	0xbbc11466	-0.0058923243
126	0x3e222609	0.15834822
127	0xbcc24041	-0.02371228

action_model._discrete_distribution.branches.0.weight f4 [7, 128]
0	0x3e6ef74b	0.23336522
1	0xbd677c30	-0.05651492
2	0x3e15982d	0.14608832
3	0x3dd765bc	0.10517451
4	0x3d8d60bb	0.069032155
5	0x3e309e25	0.17247827
6	0x3e7a8c48	0.24467576
7	0x3dbf9b8a	0.093558386
8	0x3dc0e043	0.094177745
9	0xbe549cfe	-0.20763013
10	0xbbddb78a	-0.0067662643
11	0x3d862552	0.06550087
12	0xbd6be23c	-0.0575888
13	0x3cfe2393	0.031022822
14	0x3ce8a382	0.02839828
15	0x3da9aee3	0.0828531
16	0x3c71fb5b	0.0147694005
17	0x3dbd1796	0.09233014
18	0x3e81a790	0.25323153
19	0xbc142e93	-0.009044307
20	0x3d54aef3	0.051924657
21	0x3992da21	0.0002800981
22	0x3e521682	0.20516399
23	0x3e0f4f99	0.13995208
24	0xbb043a44	-0.002017633
25	0x3d55973a	0.052146174
26	0x3d95a958	0.073076904
27	0x3e1715b1	0.14754368
28	0x3d0d593d	0.034508932
29	0xbe14982f	-0.14511178
30	0x3e7d6df0	0.24748969
31	0x3dcf7758	0.10130185
32	0xbc1ef1db	-0.0097012175
33	0x3e8fee38	0.28111434
34	0xbd214d70	-0.03938049
35	0x3c8d543b	0.017252078
36	0x3ea26b8d	0.3172268
37	0x3db6f260	0.08932948
38	0xbce1b52b	-0.027552208
39	0xbe1255a7	-0.14290486
40	0xbd865e45	-0.06560949
41	0x3e8f3924	0.27973282
42	0xbd30a80c	-0.043129012
43	0x3eaca9f3	0.3372341
44	0x3db6861b	0.08912297
45	0x3e8c8ab9	0.27449587
46	0x3bebe8f0	0.007199399
47	0x3e9921e7	0.29908678
48	0x3da1b31c	0.078954905
49	0xbdc39e84	-0.09551719
50	0x3ea7a891	0.32745793
51	0x3d797071	0.060898248
52	0x3e8bc76c	0.27300584
53	0xbe02a8ea	-0.12759748
54	0xbdc2c748	-0.09510666
55	0x3e62c736	0.22146305
56	0xbc93a506	-0.018023025
57	0x3db89367	0.0901249
58	0x3dc39a39	0.095509
59	0xbd1f2fa3	-0.03886379
60	0xbdf27a93	-0.118397854
61	0x3db5f5d3	0.08884778
62	0x3e1a176c	0.15047997
63	0x3de8f24e	0.11374341
64	0x3d48e487	0.049046066
65	0x3d85c2e3	0.06531312
66	0x3c8d5f36	0.017257314
67	0xbdd1b53f	-0.10239648
68	0x3e1b8d24	0.1519056
69	0xbd5899f8	-0.05288121
70	0xbd4bd290	-0.049761355
71	0x3df2a567	0.11847954
72	0x3e989544	0.2980138
73	0x3e0fcef6	0.14043793
74	0x3d8429ab	0.0645326
75	0x3e29488c	0.1653158
76	0x3e511b64	0.20420605
77	0x3dc9a81b	0.09846517
78	0x3df54696	0.11976354
79	0x3dc411ed	0.095737316
80	0xbe730ed2	-0.23736122
81	0x3cb0068c	0.021487497
82	0x3e75a1c1	0.23987485
83	0xbe052958	-0.13004053
84	0xbd6bd523	-0.05757631
85	0x3d5c0802	0.053718574
86	0x3d89834b	0.06714495
87	0x3e856be3	0.26058874
88	0x3e193c71	0.14964463
89	0x3e073d20	0.13206911
90	0xbe3d037e	-0.18458363
91	0x3e535a27	0.20639859
92	0x3c0cefd9	0.008602106
93	0x3e80ef34	0.25182498
94	0x3d4ce245	0.050020475
95	0xbe03dfd4	-0.12878352
96	0x3e5b7aa1	0.21433498
97	0x3e3a4d1d	0.18193479
98	0x3e66ff87	0.22558413
99	0x3e5f70fc	0.21820444
100	0x3d7cb461	0.06169546
101	0x3dae8c18	0.085228145
102	0xbb40013d	-0.0029297613
103	0x3e855e57	0.26048538
104	0x3e841e42	0.25804335
105	0x3ed0ad21	0.40757087
106	0xbb87da7f	-0.00414592
107	0x3dccb63f	0.09995698
108	0x3ea08f4e	0.31359333
109	0x3e0e10e4	0.13873631
110	0xbcd99a17	-0.026562734
111	0x3e893e34	0.2680527
112	0x3dcc198b	0.099658094
113	0x3d2014bf	0.039082285
114	0xbd0ac186	-0.033875965
115	0x3dd38345	0.10327772
116	0x3d1930ce	0.03740006
117	0x3d16300e	0.036666922
118	0x3e93e2bb	0.2888392
119	0x3d35f977	0.04442736
120	0x3d6a8902	0.057259567
121	0x3d53211a	0.05154524
122	0xbdc24799	-0.094863124
123	0x3d8c5b2e	0.06853329
124	0xbe26650c	-0.16249484
125	0xbe0fb3d3	-0.14033441
126	0x3d0a3fb8	0.033752173
127	0x3e9bd430	0.30435324
128	0x3daae995	0.083453335
129	0x3dcabe66	0.09899597
130	0xbe96d452	-0.29458863
131	0xbe747fd4	-0.23876888
132	0xbeb44bf7	-0.35214207
133	0xbc4c7129	-0.012478151
134	0xbd9daa89	-0.076985426
135	0x3c9126e2	0.017718736
136	0xbe0b82e2	-0.13624147
137	0x3dd2f31a	0.10300274
138	0xbe52b07d	-0.20575137
139	0x3dfad54b	0.12247714
140	0x3e4a067e	0.19729039
141	0xbe954869	-0.29156807
142	0x3db546a2	0.08851363
143	0x3e0d5c4f	0.13804744
144	0x3cd0ed14	0.025503673
145	0xbef439a5	-0.4770023
146	0x3d8b91b6	0.068149015
147	0x3da7c227	0.081913285
148	0x3d578fc3	0.052627336
149	0x3e2357cb	0.15951459
150	0xbddbf1e1	-0.10739494
151	0xbd552868	-0.052040488
152	0xbdab1ffc	-0.0835571
153	0x3dcd447a	0.100228265
154	0x3d6c0b6d	0.057628084
155	0xbdf0e4e4	-0.117624074
156	0x3dda9832	0.1067356
157	0x3e11f0a8	0.1425196
158	0xbf06dc77	-0.5268015
159	0xbebd0a74	-0.36922038
160	0x3dc15597	0.09440153
161	0xbd82e385	-0.06391052
162	0xbceaac0a	-0.028646488
163	0xbcf58857	-0.029972238
164	0xbc22c37a	-0.009934301
165	0xbd851cb8	-0.06499618
166	0xbe607b03	-0.21921925
167	0xbe23673d	-0.15957351
168	0x3dd84ae7	0.105611615
169	0xbd8113c1	-0.06302596
170	0xbe9c7e97	-0.3056533
171	0xbe5ff70b	-0.21871583
172	0xbdf804bd	-0.12110279
173	0x3e0b6767	0.13613664
174	0x3e3e656e	0.1859338
175	0xbc442e2f	-0.011973902
176	0xbeca3c47	-0.39499113
177	0x3ccaf0a4	0.02477295
178	0x3dba518c	0.09097585
179	0x3dfdcff2	0.12393178
180	0xbdaa3ac8	-0.08311993
181	0x3de4c9d2	0.11171307
182	0xbd3b0f3c	-0.045668826
183	0xbe85a728	-0.26104093
184	0x3c9d0ff1	0.01917264
185	0x3dda1360	0.10648227
186	0xbef06e1c	-0.46959007
187	0x3cd19f08	0.025588527
188	0xbe331763	-0.1748939
189	0xbd18c513	-0.03729732
190	0xbbf8a55b	-0.0075880713
191	0x3e36dc07	0.17857371
192	0xbedfe108	-0.43726373
193	0x3d52fcd3	0.051510643
194	0xbd36f168	-0.044663817
195	0xbc5e194a	-0.013555834
196	0xbd52c610	-0.05145842
197	0x3dd19a4c	0.10234508
198	0xbe283157	-0.16425072
199	0x3db5772a	0.08860619
200	0xbd379de8	-0.044828326
201	0xbe71bcc3	-0.23607163
202	0x3eb1ba99	0.34712675
203	0x3db9078f	0.09034645
204	0xbf0cfdb3	-0.55074614
205	0xbd621e44	-0.055204645
206	0x3d70a421	0.058750276
207	0x3d6d72f8	0.05797097
208	0xbd67fd3b	-0.056637984
209	0x3e0fead7	0.14054428
210	0xbe5dd811	-0.21664454
211	0x3e57f845	0.21090801
212	0xbde6ccee	-0.11269556
213	0xbe9ab8af	-0.30219027
214	0xbec95e2a	-0.39329654
215	0xbd085e76	-0.03329321
216	0x3d2df86f	0.042473253
217	0x3b93d139	0.0045110253
218	0x3b4c5139	0.0031176342
219	0x3ca03fce	0.019561674
220	0x3dbb1f47	0.09136825
221	0xbe303a59	-0.17209758
222	0x3e0fc0e5	0.14038427
223	0xbd8bd383	-0.06827452
224	0xbd462ca7	-0.048382428
225	0xbdf62e53	-0.120205544
226	0xbeb25fef	-0.34838817
227	0xbe5eddb4	-0.2176426
228	0x3d5926ba	0.05301545
229	0x3e158280	0.14600563
230	0xbe848dd6	-0.25889462
231	0x3e20a518	0.15687978
232	0xbd0a1672	-0.03371281
233	0x3b8549fe	0.0040676584
234	0x3e028003	0.12744145
235	0xbde24276	-0.11047833
236	0xbe7c119d	-0.24616094
237	0xbddbc80e	-0.10731517
238	0x3df2c743	0.118544124
239	0x3d6cee24	0.057844296
240	0xbe945c12	-0.28976494
241	0x3db2e09f	0.08734249
242	0x3d22a2d4	0.039706066
243	0x3db9973c	0.09062049
244	0x3c2c3aa5	0.010512029
245	0x3e29f217	0.16596256
246	0xbdb52d91	-0.08846582
247	0xbeefb27d	-0.46815863
248	0x3d94aba9	0.07259304
249	0x3d496450	0.04916793
250	0x3d87a3f8	0.066230714
251	0xba00f8f5	-0.000491991
252	0x3e10464d	0.14089318
253	0x3dc0c78a	0.09413059
254	0x3ddb45f8	0.10706705
255	0xbdc8e45e	-0.098091826

action_model._discrete_distribution.branches.0.bias f4 [7]
0	0xbe137571	-0.14400269
1	0x3e15a480	0.14613533
2	0xbdf17659	-0.11790151
3	0xbcc3c3c2	-0.023897056
4	0x3dbbc9cb	0.09169348
5	0x3d97dbfe	0.07415007
6	0x3cdf4b30	0.027257532

exp_avg f4 [128, 159]
0	0x39fba6e5	0.00047998797
1	0xba317296	-0.0006769089
2	0x38903939	6.8771136e-05
3	0xba06d178	-0.00051429076
4	0xba7145e2	-0.0009203834
5	0x3a5e46ea	0.0008479195
6	0xba43c1e4	-0.00074675516
7	0xb8326e54	-4.2541258e-05
8	0xba37c78c	-0.0007010631
9	0xba619363	-0.0008605031
10	0xb937509a	-0.00017482266
11	0xba3d8857	-0.0007230094
12	0x387054aa	5.729931e-05
13	0x394fb711	0.00019809256
14	0xba2bd979	-0.0006555538
15	0x39fe584b	0.0004851244
16	0xba101a75	-0.00054971065
17	0xb96f45c8	-0.00022818812
18	0xb9b75364	-0.0003496661
19	0xb9f65f1e	-0.00046991644
20	0x3a0e0cfd	0.00054188055
21	0xb90bbd87	-0.00013326677
22	0xb93e033c	-0.00018121017
23	0xba640641	-0.00086984417
24	0xba34cb46	-0.0006896745
25	0x39305ee8	0.00016820023
26	0xb9af425a	-0.00033428037
27	0xb9d0ce62	-0.0003982662
28	0xb8a3c67c	-7.809416e-05
29	0xba0caa78	-0.0005365978
30	0xb9780bee	-0.00023655567
31	0x37236f7a	9.741512e-06
32	0xb8ed4dd3	-0.000113155365
33	0xb99e94fa	-0.00030247105
34	0xb9df6fc6	-0.00042617152
35	0xb98f0db9	-0.0002728531
36	0xb933d2c7	-0.00017149291
37	0xb9caf435	-0.0003871039
38	0x394630e2	0.00018900962
39	0xb9b2bca8	-0.00034091366
40	0x39851f0a	0.00025390863
41	0xb9754ed2	-0.00023394384
42	0xba1a91c0	-0.0005896352
43	0xb8989c2a	-7.2770126e-05
44	0xba245baa	-0.00062697625
45	0x36b6c600	5.447073e-06
46	0x39bc6426	0.0003593277
47	0xb9dc731a	-0.00042047427
48	0xba19cf84	-0.0005867409
49	0xba028e88	-0.0004980345
50	0x39d1f9c8	0.00040049688
51	0xb893abc6	-7.0415015e-05
52	0xba315927	-0.0006765299
53	0xb99b2f65	-0.00029599215
54	0xba448370	-0.00074963924
55	0xb9184c87	-0.00014524358
56	0x390ff586	0.00013729007
57	0xb98e0247	-0.00027086047
58	0xb9bea522	-0.00036362658
59	0xba06b04a	-0.00051379635
60	0x39bde917	0.00036222555
61	0xb97a85f3	-0.00023891758
62	0xba02e56b	-0.00049932924
63	0xb98bae30	-0.00026641926
64	0xba6c5d0a	-0.00090165494
65	0xb94595fa	-0.00018843255
66	0x39c1cb8f	0.00036963492
67	0xba45426f	-0.0007524853
68	0xb8953a7a	-7.115766e-05
69	0xba0881be	-0.00052073214
70	0xb87da6a0	-6.0475082e-05
71	0xb9836478	-0.00025061122
72	0xb9c1b2ed	-0.0003694514
73	0x381fca86	3.809717e-05
74	0xb964f894	-0.00021836377
75	0xb9f78afc	-0.00047215063
76	0xb83c7485	-4.493121e-05
77	0xba1e9b9a	-0.0006050408
78	0x39fb7dd9	0.00047968214
79	0xb926729c	-0.00015873689
80	0x384f01b8	4.9354247e-05
81	0x39424448	0.00018526718
82	0xb9e711fa	-0.00044073147
83	0xb9e4c345	-0.00043633036
84	0xb9570ae0	-0.00020508049
85	0xba44237d	-0.0007482095
86	0x38b0d075	8.431162e-05
87	0xba14d511	-0.00056775013
88	0x3a1a750f	0.0005892077
89	0xb91e0053	-0.00015068175
90	0xb915bdec	-0.00014280499
91	0xb8bf747e	-9.129288e-05
92	0xba0c16b8	-0.00053439615
93	0x39042d36	0.00012605343
94	0xb9317ac8	-0.00016925775
95	0xba6c0134	-0.0009002865
96	0x39bae524	0.00035647408
97	0xba30a757	-0.0006738803
98	0x3a16cc84	0.0005752521
99	0x37fdc41e	3.0251274e-05
100	0x39bdd2c8	0.00036205933
101	0x392f46aa	0.00016715625
102	0xb9fb6ee4	-0.0004795707
103	0xba356d10	-0.00069208536
104	0xba1c4454	-0.00059611094
105	0x3977cd05	0.00023632131
106	0xb922e2c6	-0.00015534004
107	0xb9960778	-0.00028615794
108	0xb9e54086	-0.00043726357
109	0xb99a316d	-0.00029409994
110	0xba3460a6	-0.0006880857
111	0x39242146	0.00015652654
112	0xb8984c4e	-7.262138e-05
113	0xb8207900	-3.8259663e-05
114	0xb9b21400	-0.00033965707
115	0xb9d861da	-0.00041271636
116	0x391b09b9	0.00014785574
117	0xb7e56316	-2.7345068e-05
118	0xb9b79fb1	-0.0003502346
119	0xb981a536	-0.0002472789
120	0xba8ac21c	-0.0010586414
121	0x3a189930	0.00058211666
122	0x3901b51c	0.00012369867
123	0xb997d768	-0.00028961455
124	0xb9a951d6	-0.00032295164
125	0xba110a18	-0.0005532815
126	0x37f429a3	2.9106455e-05
127	0xb97d1d7e	-0.00024138947
128	0x39011ae8	0.00012312422
129	0xb88a3ff7	-6.592267e-05
130	0xba2bbf0d	-0.0006551601
131	0x3a51d568	0.00080045173
132	0xb955157e	-0.0002032127
133	0xba193a6e	-0.00058451935
134	0xb9b85e90	-0.0003516567
135	0xba5d376b	-0.0008438739
136	0xb9918d25	-0.00027761716
137	0xb8be60d4	-9.077942e-05
138	0x3a1560a4	0.00056982995
139	0x3875050e	5.841726e-05
140	0xba216d78	-0.0006157975
141	0x39bb79ed	0.0003575826
142	0xb9ab7f2a	-0.00032710406
143	0xb86f95c0	-5.7121506e-05
144	0xb9a76856	-0.00031930458
145	0xb8aceada	-8.2453436e-05
146	0xb82f24e0	-4.1757594e-05
147	0xb93ae3c8	-0.00017823197
148	0xb9b241b2	-0.00033999752
149	0xb9bb2f1b	-0.00035702516
150	0xb8aceada	-8.2453436e-05
151	0xb82f24e0	-4.1757594e-05
152	0xb93ae3c8	-0.00017823197
153	0xb9b241b2	-0.00033999752
154	0xb9bb2f1f	-0.00035702527
155	0x383c1940	4.484621e-05
156	0x37145a3c	8.842497e-06
157	0xba452db0	-0.00075217616
158	0xbd0dd966	-0.034631155
159	0xba0ade84	-0.00052974396
160	0x39896752	0.00026207656
161	0x38adf914	8.295677e-05
162	0x39663339	0.00021953591
163	0x39938071	0.0002813372
164	0xb96927b9	-0.0002223541
165	0x39b62967	0.00034744592
166	0xb840523b	-4.585295e-05
167	0xb83a48d8	-4.4413697e-05
168	0x392e6c90	0.00016634376
169	0xb97b56de	-0.00023969586
170	0x39ad375b	0.00033038374
171	0x38a13061	7.6860895e-05
172	0xb90b2bb6	-0.00013272357
173	0x38900aa6	6.8684385e-05
174	0xb9fc8446	-0.00048163737
175	0x39b90c5a	0.00035295152
176	0xb8ff8fb8	-0.00012186117
177	0x39959e03	0.00028537223
178	0x392180a7	0.00015402083
179	0x38acee1a	8.245949e-05
180	0x396027f0	0.00021377183
181	0xb860c0d5	-5.358535e-05
182	0xb959ea71	-0.00020782069
183	0xb903b9f2	-0.00012562404
184	0xb97e0d89	-0.0002422837
185	0x39360f24	0.00017362513
186	0x38ca5902	9.6486896e-05
187	0x36eac6e8	6.996899e-06
188	0x38013724	3.080735e-05
189	0xb7e2b7f4	-2.702696e-05
190	0x391d60be	0.00015008726
191	0xb7adc7c6	-2.0716234e-05
192	0xb88d98e3	-6.751881e-05
193	0xb7dcab10	-2.63057e-05
194	0x3857bec0	5.1437644e-05
195	0x38f51b01	0.0001168754
196	0x3812a03d	3.4958346e-05
197	0xb930a0f1	-0.00016844623
198	0xb8de95a6	-0.00010613659
199	0xb711f4c0	-8.699659e-06
200	0xb863c192	-5.4301294e-05
201	0x38a7d26e	8.002376e-05
202	0x37955659	1.7802393e-05
203	0xb8589816	-5.1640054e-05
204	0xb91d28a3	-0.00014987825
205	0x379fe740	1.9061961e-05
206	0x39313dbd	0.00016903035
207	0xb6636c40	-3.3888646e-06
208	0x38506c30	4.9691822e-05
209	0x38a62eb0	7.924193e-05
210	0xb9cdc804	-0.0003924967
211	0xb80a9bb3	-3.304677e-05
212	0x39c7d1f6	0.0003811267
213	0x39473ba0	0.00019000331
214	0xb98a504c	-0.00026381237
215	0x37cf4d0c	2.47122e-05
216	0x37d6e7a4	2.5618654e-05
217	0x39822f28	0.00024830666
218	0x38d5e206	0.000101987316
219	0x37e2f9dc	2.705765e-05
220	0xb993459a	-0.00028089882
221	0x38266f71	3.9681272e-05
222	0x39828a37	0.0002489851
223	0x393a8794	0.00017788849
224	0xb821f9cd	-3.8618036e-05
225	0xb8c31e00	-9.3039125e-05
226	0x38b4a6f3	8.6141656e-05
227	0x38a87c9e	8.034076e-05
228	0xb82ec14d	-4.1664858e-05
229	0x3628b760	2.514069e-06
230	0xb8ed095c	-0.00011302784
231	0x38a93523	8.0684455e-05
232	0x38879730	6.4654625e-05
233	0xb729c9fe	-1.0120215e-05
234	0x387bc99f	6.0030838e-05
235	0xb96c4a1f	-0.00022534326
236	0x36278170	2.4960282e-06
237	0x394f3e03	0.0001976416
238	0x37ab83a0	2.0446081e-05
239	0xb9219fe5	-0.00015413722
240	0xb84f830f	-4.9474704e-05
241	0x38bf5e35	9.125137e-05
242	0x391a55e5	0.00014718583
243	0x35c50ae0	1.4680809e-06
244	0xb8d01153	-9.92144e-05
245	0xb65bfc00	-3.2780226e-06
246	0x38931222	7.012884e-05
247	0x388ce7be	6.7188856e-05
248	0x38fcdf4c	0.00012057889
249	0x3687b10a	4.0439236e-06
250	0x38e4b4fb	0.000109055974
251	0xb4fedc00	-4.7471258e-07
252	0xb8a32892	-7.7800025e-05
253	0xb97fbd0c	-0.0002438912
254	0xb7ae7c6a	-2.0800351e-05
255	0x39149ed3	0.00014173547

exp_avg_sq f4 [128, 159]
0	0x369d881f	4.694811e-06
1	0x35bc1728	1.4013831e-06
2	0x35130daf	5.478168e-07
3	0x370fa3f4	8.5616375e-06
4	0x373ce0f0	1.1258046e-05
5	0x36b40b74	5.3657513e-06
6	0x35ef979a	1.785101e-06
7	0x3563f40a	8.4919213e-07
8	0x36e72c04	6.8894606e-06
9	0x3727b5f9	9.9963445e-06
10	0x36a61102	4.9491655e-06
11	0x35a3bebc	1.2199957e-06
12	0x34cb154d	3.7827195e-07
13	0x370cf14f	8.400834e-06
14	0x37417c2b	1.1532607e-05
15	0x36b9baf1	5.5351925e-06
16	0x35f3ac9d	1.8155148e-06
17	0x35968914	1.1215766e-06
18	0x36c6c871	5.9241943e-06
19	0x37159d0f	8.91766e-06
20	0x3690a9db	4.311308e-06
21	0x354e390d	7.6824e-07
22	0x350f7a6a	5.344979e-07
23	0x371e0783	9.419283e-06
24	0x3744d107	1.1731178e-05
25	0x36ac228a	5.1300203e-06
26	0x35f6af7e	1.8379503e-06
27	0x35c6765b	1.4786596e-06
28	0x36c76cba	5.9433196e-06
29	0x37135445	8.781503e-06
30	0x3695aba2	4.4605267e-06
31	0x35457404	7.3557044e-07
32	0x35904bee	1.0750935e-06
33	0x370aa769	8.264419e-06
34	0x3731f525	1.0607099e-05
35	0x36a5f9e5	4.9464747e-06
36	0x36038996	1.9600607e-06
37	0x361080a7	2.1532558e-06
38	0x36bbd04c	5.5972832e-06
39	0x37108a49	8.615266e-06
40	0x36e78d7a	6.9008065e-06
41	0x351bebf6	5.808537e-07
42	0x35f8721f	1.8510653e-06
43	0x36abe033	5.1222974e-06
44	0x36f19b97	7.2004727e-06
45	0x369fb867	4.7600365e-06
46	0x361e277b	2.3566815e-06
47	0x3629d8a6	2.5309068e-06
48	0x36b52f66	5.3997383e-06
49	0x3711139a	8.647237e-06
50	0x37122700	8.7113585e-06
51	0x359782dc	1.1288462e-06
52	0x36231b30	2.4304718e-06
53	0x363660f5	2.717655e-06
54	0x369dc3ed	4.7017734e-06
55	0x367e6d84	3.7912696e-06
56	0x362fb6b3	2.6183377e-06
57	0x361884e4	2.2727118e-06
58	0x36cf0cdf	6.170579e-06
59	0x37174348	9.0159665e-06
60	0x37288f20	1.0046904e-05
61	0x35b4b76c	1.3464428e-06
62	0x362cf4a4	2.5772397e-06
63	0x357c6475	9.40235e-07
64	0x3636fcba	2.726722e-06
65	0x3671eec3	3.6050776e-06
66	0x361f609b	2.3749078e-06
67	0x3622ee03	2.4278422e-06
68	0x36c36ec5	5.824348e-06
69	0x37185701	9.080163e-06
70	0x3722f342	9.71259e-06
71	0x35e57db6	1.7098416e-06
72	0x36385c2c	2.7471788e-06
73	0x356bd8b7	8.7859684e-07
74	0x3631e7b0	2.6509915e-06
75	0x364f0206	3.0846581e-06
76	0x362f9805	2.616552e-06
77	0x362f824c	2.6152875e-06
78	0x36d60bd6	6.379075e-06
79	0x371ffbdc	9.535779e-06
80	0x370613f8	7.991672e-06
81	0x361212df	2.176668e-06
82	0x363aafcb	2.7818485e-06
83	0x35ff3e68	1.9017143e-06
84	0x3680ac71	3.834772e-06
85	0x362e50a9	2.597497e-06
86	0x361b1f42	2.3114994e-06
87	0x361a51e9	2.2995466e-06
88	0x36fa28a8	7.4553136e-06
89	0x3732192c	1.0615488e-05
90	0x36c77616	5.944409e-06
91	0x36366912	2.7181272e-06
92	0x3646cd36	2.9623748e-06
93	0x364c65bc	3.0457586e-06
94	0x36bab349	5.5641035e-06
95	0x3655b595	3.1845168e-06
96	0x3616b81a	2.2458903e-06
97	0x36051688	1.983166e-06
98	0x36eb8d59	7.020001e-06
99	0x372ee850	1.0425298e-05
100	0x368b1a11	4.1455573e-06
101	0x363bc163	2.7977737e-06
102	0x363c675c	2.8074346e-06
103	0x3699b963	4.581337e-06
104	0x36fc150e	7.5126363e-06
105	0x3640bb06	2.8719091e-06
106	0x362051c2	2.3889447e-06
107	0x3615a8b4	2.2300928e-06
108	0x36f2b0a5	7.232726e-06
109	0x3730a244	1.0528198e-05
110	0x367922e8	3.712421e-06
111	0x3638fd91	2.7565732e-06
112	0x362508f5	2.459213e-06
113	0x36c2977a	5.7992847e-06
114	0x37121f41	8.709555e-06
115	0x362f2246	2.6096982e-06
116	0x360f956a	2.139563e-06
117	0x361cc6d0	2.3361536e-06
118	0x36f59ca3	7.319804e-06
119	0x37360065	1.0848137e-05
120	0x367c074f	3.755518e-06
121	0x3636f8e6	2.7264991e-06
122	0x361412d8	2.2064687e-06
123	0x36c8e5f3	5.987234e-06
124	0x371b2041	9.24623e-06
125	0x363eaf39	2.84142e-06
126	0x35f19347	1.7998763e-06
127	0x360fae5e	2.1410156e-06
128	0x37040779	7.869553e-06
129	0x373944ae	1.104285e-05
130	0x365d31f0	3.2960634e-06
131	0x362c8439	2.570696e-06
132	0x360e3c30	2.1194683e-06
133	0x36e026a8	6.6802204e-06
134	0x3726373e	9.907233e-06
135	0x36323be9	2.655894e-06
136	0x35f6e836	1.839601e-06
137	0x360d4278	2.1049327e-06
138	0x370be6fb	8.338825e-06
139	0x37427958	1.1591554e-05
140	0x36651088	3.4133282e-06
141	0x361871a0	2.2715903e-06
142	0x36134694	2.1945789e-06
143	0x36e5a35b	6.843749e-06
144	0x372ae764	1.0186664e-05
145	0x3660408a	3.3416168e-06
146	0x35ca6cea	1.5081871e-06
147	0x3603a70d	1.9617758e-06
148	0x3702574c	7.768929e-06
149	0x37379b32	1.0943784e-05
150	0x3660408a	3.3416168e-06
151	0x35ca6cea	1.5081871e-06
152	0x3603a70d	1.9617758e-06
153	0x3702574c	7.768929e-06
154	0x37379b32	1.0943784e-05
155	0x34a7e0eb	3.1269823e-07
156	0x36eab08b	6.9942957e-06
157	0x36bd1e4d	5.6361664e-06
158	0x3cf82e7c	0.030295603
159	0x358c30de	1.0445035e-06
160	0x3531cf0c	6.623893e-07
161	0x34eed6c5	4.448722e-07
162	0x36263234	2.476515e-06
163	0x36733ab8	3.6244e-06
164	0x353d4b63	7.051769e-07
165	0x3531136e	6.596591e-07
166	0x3571dcef	9.0100997e-07
167	0x362db52f	2.5884472e-06
168	0x367d5dab	3.775446e-06
169	0x359ed8fa	1.1835066e-06
170	0x355b8cf1	8.1788954e-07
171	0x34aa079b	3.16705e-07
172	0x361bb432	2.3201687e-06
173	0x366a18af	3.4883085e-06
174	0x358db6de	1.055854e-06
175	0x353ba897	6.990826e-07
176	0x359fc3fd	1.1903463e-06
177	0x35ed5d06	1.7684949e-06
178	0x366035d9	3.3409945e-06
179	0x35901e67	1.0737684e-06
180	0x3566cf8b	8.598369e-07
181	0x349f313a	2.9651875e-07
182	0x361e182b	2.3557902e-06
183	0x366be710	3.5152225e-06
184	0x359052a7	1.0752891e-06
185	0x35175273	5.6371863e-07
186	0x35beb7f5	1.4209642e-06
187	0x35eaaf4a	1.7485374e-06
188	0x365049e1	3.1037418e-06
189	0x356990a3	8.700974e-07
190	0x35a630df	1.2382187e-06
191	0x34ae8af0	3.2511116e-07
192	0x3615bedb	2.2313823e-06
193	0x366b0580	3.502093e-06
194	0x35aefc7f	1.3037496e-06
195	0x3517cc76	5.6549413e-07
196	0x35be2dff	1.416949e-06
197	0x35bde86d	1.4149242e-06
198	0x36391547	2.7579533e-06
199	0x3573bbba	9.079773e-07
200	0x35cfa535	1.5470783e-06
201	0x34df7910	4.162507e-07
202	0x35f64db7	1.8351046e-06
203	0x36536615	3.150087e-06
204	0x35c74187	1.4845726e-06
205	0x35393852	6.899983e-07
206	0x35afdcfd	1.3102832e-06
207	0x35a4f911	1.229144e-06
208	0x362c2811	2.565332e-06
209	0x35a7c247	1.2499012e-06
210	0x35c4ba84	1.4657421e-06
211	0x350bc226	5.206406e-07
212	0x35d5807b	1.5907129e-06
213	0x36350da1	2.6979035e-06
214	0x35b7b0da	1.3686033e-06
215	0x358e6b8e	1.0611127e-06
216	0x356e3c3a	8.874955e-07
217	0x35b5ced7	1.3545749e-06
218	0x362c4f72	2.567624e-06
219	0x36075f96	2.0172206e-06
220	0x35b675be	1.3594324e-06
221	0x350c920c	5.236659e-07
222	0x355afbc8	8.157772e-07
223	0x3605f769	1.9962556e-06
224	0x35af0ccb	1.3042239e-06
225	0x35a90c18	1.2595001e-06
226	0x352d5c57	6.4581894e-07
227	0x35c87989	1.4936533e-06
228	0x3634f094	2.6962125e-06
229	0x35dce1eb	1.6457028e-06
230	0x35a69f6b	1.241436e-06
231	0x34f10f57	4.490091e-07
232	0x35a6eb3c	1.2436426e-06
233	0x3611773c	2.1676087e-06
234	0x35875d17	1.0085377e-06
235	0x35a7dc76	1.2506632e-06
236	0x350a5b44	5.1541815e-07
237	0x36071095	2.012622e-06
238	0x3647d4e7	2.9777236e-06
239	0x35f75c39	1.8429774e-06
240	0x35a5bbbe	1.2348098e-06
241	0x34e37e50	4.237395e-07
242	0x35a88a34	1.2557198e-06
243	0x36150275	2.220416e-06
244	0x35843f59	9.853203e-07
245	0x35ac32e6	1.2829812e-06
246	0x34e2679c	4.2171166e-07
247	0x360b0bd1	2.0719492e-06
248	0x364eb583	3.0802046e-06
249	0x35d00e8a	1.5501439e-06
250	0x35a00826	1.19233e-06
251	0x34dbc7fc	4.0937437e-07
252	0x35c87f48	1.4938205e-06
253	0x3624f5f8	2.4581077e-06
254	0x355d9c34	8.255622e-07
255	0x35abe1ba	1.2806188e-06

exp_avg f4 [128]
0	0xba286975	-0.0006424406
1	0x38121152	3.4825243e-05
2	0x38800326	6.104102e-05
3	0x3a05872b	0.0005093689
4	0xb9e854fd	-0.0004431381
5	0x38a0a97b	7.660963e-05
6	0x3a08ae31	0.0005213945
7	0x39064d98	0.00012808142
8	0x39cfde13	0.00039647575
9	0x3a2aafba	0.00065111706
10	0x38f78661	0.00011802908
11	0xb92ef49b	-0.00016685056
12	0x3a41618f	0.0007376903
13	0x39760d51	0.00023465349
14	0x3a401468	0.00073272595
15	0x3a31d97a	0.00067844207
16	0xb9a24362	-0.00030949252
17	0x39ad7b5b	0.00033089038
18	0xb95c0a2a	-0.00020984621
19	0x380e6c18	3.395611e-05
20	0xb939142f	-0.00017650494
21	0x39de1078	0.0004235541
22	0x39bef552	0.00036422402
23	0x3a540535	0.0008087934
24	0xba04b6d5	-0.00050626445
25	0x39ce221d	0.00039316798
26	0x394f1842	0.00019750095
27	0xb9bedae7	-0.0003640272
28	0x36c576e1	5.884897e-06
29	0xb818ca3c	-3.642797e-05
30	0xb9a3e053	-0.00031256917
31	0xb94199cd	-0.0001846321
32	0x393ac06c	0.00017810025
33	0x3a2eb2a1	0.0006664191
34	0x399e0b09	0.0003014433
35	0x399cceb8	0.00029908656
36	0x37de87d0	2.6527705e-05
37	0xb9ed8e6a	-0.0004531027
38	0x3886dfdd	6.431316e-05
39	0xb992eb58	-0.00028022635
40	0x3a24b81f	0.00062835397
41	0xba137960	-0.0005625691
42	0xb8ccfc40	-9.774463e-05
43	0xba476892	-0.000760683
44	0xb94195ec	-0.00018461765
45	0xba3495ad	-0.00068887585
46	0x3a32636f	0.0006804978
47	0x39431f32	0.0001860827
48	0x39fee204	0.0004861505
49	0x3906f0be	0.0001286892
50	0xb9efd1b2	-0.00045741868
51	0xb9df3cd6	-0.000425792
52	0xb9bc6040	-0.00035929866
53	0x39cc0af8	0.00038918084
54	0x398f3090	0.00027311267
55	0xba45ec96	-0.00075502077
56	0xb9f249a4	-0.00046212703
57	0x38fc9c8c	0.000120454555
58	0xb98a1032	-0.00026333478
59	0xb900401c	-0.00012230914
60	0x39d27d6e	0.00040147774
61	0x3a7a0bc7	0.0009538498
62	0xb80ba9ec	-3.3298435e-05
63	0x3a0053be	0.0004895291
64	0x39cc49a6	0.00038964784
65	0x3a1d6876	0.00060046406
66	0x38fc79c4	0.00012038977
67	0xb9455b9d	-0.00018821513
68	0x3a68f39f	0.00088864
69	0xb777fe9c	-1.4781628e-05
70	0x3a9b9685	0.001187042
71	0x39e18f04	0.000430219
72	0x37dae828	2.6095731e-05
73	0x399aa09a	0.00029492826
74	0xb90635a2	-0.00012799216
75	0x3963de44	0.00021731207
76	0x3929a910	0.00016180077
77	0x39edc604	0.00045351696
78	0x396be2be	0.00022495814
79	0x3a1ee41e	0.0006061214
80	0x3a00546e	0.00048953935
81	0x38dda5cc	0.00010568983
82	0xb9aa4b69	-0.00032481112
83	0xb83259b5	-4.2522053e-05
84	0xba399f6f	-0.00070809474
85	0x36aad2f6	5.090954e-06
86	0xb9cedddf	-0.0003945669
87	0xba0438ba	-0.00050438533
88	0x38f52ed9	0.000116912364
89	0x387c7578	6.0190883e-05
90	0xb90a1eb8	-0.00013172149
91	0x3782836d	1.5558408e-05
92	0x36a6faea	4.9763958e-06
93	0xb8fd3a43	-0.00012074832
94	0x3a41be0c	0.0007390685
95	0x39d69f21	0.0004093582
96	0xb8efed2e	-0.00011440586
97	0x398bb5a2	0.00026647473
98	0x39ff4e0a	0.00048695534
99	0x39a72154	0.00031877554
100	0x3a407eac	0.00073430943
101	0x395066b0	0.0001987468
102	0x384b1982	4.8422728e-05
103	0xb8e384e6	-0.00010848958
104	0x390eefa8	0.00013631454
105	0x3a30826c	0.00067333016
106	0xb904827c	-0.0001263711
107	0x37ebcf4c	2.8110713e-05
108	0x390b6da4	0.00013296917
109	0xba29bed2	-0.0006475273
110	0xb9cc7580	-0.00038997456
111	0x390ac676	0.00013234638
112	0x39ab90d7	0.00032723576
113	0x3a563797	0.00081717357
114	0xb7581b50	-1.28809625e-05
115	0xb9b1aaae	-0.00033887237
116	0x3a243d0b	0.00062651996
117	0x37a7375b	1.9933728e-05
118	0xb9eb57fe	-0.00044888252
119	0xba5fb50d	-0.00085337536
120	0xba16da12	-0.0005754541
121	0xb9e74a06	-0.00044114905
122	0x3797cfee	1.8097428e-05
123	0xb9fa4466	-0.00047734677
124	0xb985b27c	-0.00025500718
125	0xb967ae5e	-0.00022094834
126	0x3885a37d	6.372386e-05
127	0x38b6a097	8.7083485e-05

exp_avg_sq f4 [128]
0	0x37824654	1.5529957e-05
1	0x36a35d5b	4.8686466e-06
2	0x3743d5c8	1.1672681e-05
3	0x37691abc	1.3894107e-05
4	0x35ec4af7	1.7605188e-06
5	0x368f6889	4.2739016e-06
6	0x3702e56c	7.80202e-06
7	0x359ba3af	1.1596038e-06
8	0x36f1678b	7.1944137e-06
9	0x371d90de	9.391659e-06
10	0x36386ebe	2.7482597e-06
11	0x36401221	2.8620782e-06
12	0x3717f3d8	9.057076e-06
13	0x36063945	2.0000891e-06
14	0x3708677b	8.130325e-06
15	0x373110a0	1.0553893e-05
16	0x369a0b8f	4.5909032e-06
17	0x353cc6ea	7.0324916e-07
18	0x35b980c4	1.382105e-06
19	0x36cc9947	6.0975176e-06
20	0x3633ab56	2.677281e-06
21	0x371568c3	8.905484e-06
22	0x368f4013	4.2691913e-06
23	0x36b5223f	5.398207e-06
24	0x36ebf359	7.031875e-06
25	0x37003689	7.642092e-06
26	0x36246690	2.4497604e-06
27	0x368c1feb	4.176041e-06
28	0x315b7dcb	3.19402e-09
29	0x362a7c1c	2.5404215e-06
30	0x364ca900	3.049674e-06
31	0x36d95189	6.476596e-06
32	0x3611ef75	2.1746066e-06
33	0x3778ae5a	1.4822546e-05
34	0x36e96333	6.9554894e-06
35	0x36f655d5	7.3413635e-06
36	0x3693e01b	4.4070307e-06
37	0x3767a2a5	1.3806542e-05
38	0x36e7f332	6.912648e-06
39	0x3609e725	2.0549135e-06
40	0x37a0695a	1.9122544e-05
41	0x36caabb8	6.04006e-06
42	0x372fe15e	1.0483285e-05
43	0x373b73a0	1.117299e-05
44	0x375245c2	1.2533217e-05
45	0x37b75a66	2.1857395e-05
46	0x374cacea	1.2199607e-05
47	0x375e91a1	1.3266138e-05
48	0x36615a98	3.3580345e-06
49	0x359434fd	1.1042281e-06
50	0x36dae2ba	6.5233007e-06
51	0x370aa050	8.262767e-06
52	0x3702230a	7.756762e-06
53	0x36a0aff3	4.7888548e-06
54	0x36a2b3fb	4.8489287e-06
55	0x370871ca	8.132725e-06
56	0x372f9ee0	1.0467804e-05
57	0x35bbed93	1.4001729e-06
58	0x361452b9	2.210187e-06
59	0x365e1b4c	3.3096467e-06
60	0x35e8c7c2	1.7343484e-06
61	0x375a9f0f	1.3030846e-05
62	0x3791f99e	1.7401584e-05
63	0x371fbfbc	9.52178e-06
64	0x373c481b	1.1222462e-05
65	0x362b81bf	2.5556508e-06
66	0x366b03ce	3.5019943e-06
67	0x3636da05	2.7247017e-06
68	0x373fb62e	1.1426904e-05
69	0x3309d74c	3.209361e-08
70	0x370c79ca	8.3730065e-06
71	0x371b7575	9.2660675e-06
72	0x32641190	1.327534e-08
73	0x36a74b4e	4.9857545e-06
74	0x3691add6	4.341574e-06
75	0x371c1e86	9.305431e-06
76	0x351b1b08	5.7781335e-07
77	0x37137670	8.789459e-06
78	0x36caa222	6.038944e-06
79	0x36da57c3	6.507123e-06
80	0x36d1510b	6.23812e-06
81	0x3667d5f8	3.4546229e-06
82	0x36902077	4.295314e-06
83	0x36d6b118	6.3983134e-06
84	0x36ca8991	6.036084e-06
85	0x30f67697	1.7932561e-09
86	0x368cf249	4.200531e-06
87	0x36bec636	5.685516e-06
88	0x362b351b	2.5511897e-06
89	0x3696bf6c	4.492633e-06
90	0x36164cd7	2.2396468e-06
91	0x36417ef3	2.8833135e-06
92	0x345d7f0b	2.0628447e-07
93	0x3706653f	8.010596e-06
94	0x36ef5f5a	7.1338554e-06
95	0x3720e16c	9.589228e-06
96	0x368359b1	3.9145457e-06
97	0x364eb1fb	3.079999e-06
98	0x35cff2df	1.5493387e-06
99	0x36139593	2.199177e-06
100	0x375b23c2	1.3061743e-05
101	0x3669a652	3.4816517e-06
102	0x368af653	4.1413964e-06
103	0x368c2654	4.176787e-06
104	0x3626c13f	2.4848412e-06
105	0x376cf55c	1.4123823e-05
106	0x365323f8	3.1462387e-06
107	0x36edceee	7.08724e-06
108	0x346d4165	2.2096135e-07
109	0x36ce3cad	6.146342e-06
110	0x368810c6	4.0550685e-06
111	0x369a7bd1	4.603972e-06
112	0x378ca893	1.6767799e-05
113	0x380bee54	3.3362143e-05
114	0x352e3756	6.4900576e-07
115	0x3632dc4b	2.6652294e-06
116	0x37748be2	1.4576102e-05
117	0x36971318	4.5023735e-06
118	0x358f6f6c	1.0686758e-06
119	0x363f7a52	2.8532418e-06
120	0x372d88b0	1.0343429e-05
121	0x36845be5	3.9446045e-06
122	0x31655a9b	3.337539e-09
123	0x379075ec	1.722105e-05
124	0x36f683af	7.3467013e-06
125	0x3648dfb0	2.9932526e-06
126	0x34a4154e	3.0562882e-07
127	0x36436939	2.9118512e-06
