Trained_Policies/WeightAgent_Training/WeightAgent_Training/WeightAgent_Training-10693878.pt (torch, 926564 bytes, 33 tensors)

network_body._body_endoder.seq_layers.0.weight f4 [128, 163]
000000 f0 a6 8f 3d 7f 4c 78 be 15 70 ea 3d c6 cf 2b 3e
       0.07014263 -0.24247931 0.11447159 0.16778478
000010 53 19 16 3e 82 ca e9 3d 11 3b e1 bd 43 b1 e0 bc
       0.14658098 0.114155784 -0.10997594 -0.027428275
000020 e0 02 50 3e 5b 78 76 3e 6c 84 b4 3c 2d 71 90 be
       0.20313597 0.2406935 0.0220358 -0.28211346
000030 d2 b2 b5 bd c6 69 f8 3d 63 3a 39 3e 10 ab 3c 3e
       -0.08871998 0.1212955 0.18088679 0.1842463
000040 7c bd 3a be 1d 1e 31 be 23 df 3b 3e a0 cc 7d 3e
       -0.18236345 -0.17296644 0.18346839 0.2478509
000050 98 5b 25 3e 21 5c 33 be cd 64 9b bd 33 52 b6 3d
       0.16148221 -0.17515613 -0.075875856 0.08902397
000060 ec 48 ab 3e 71 71 fb 3c 2c 8d 9e 3b c0 37 85 3c
       0.33454072 0.030693742 0.0048386063 0.016261935
000070 97 32 44 3e ce 7c 70 3e 14 78 65 3d 95 9b 97 be
       0.19159923 0.23485109 0.05602272 -0.29610887
000080 45 28 1a 3d 1f e0 49 3e 48 27 1d 3e 06 1d c2 3d
       0.03763606 0.19714402 0.15347016 0.09478192
000090 51 6d 01 bd 3f 6d 24 3a f6 d9 12 3d d5 f7 6d 3e
       -0.031598393 0.00062723825 0.035852395 0.23239072
0000a0 e4 1d 07 3e 63 56 90 bd bb bd 56 3b 9f b5 68 3d
       0.13194996 -0.07047727 0.0032766897 0.056813832
0000b0 82 93 2d 3e 9a da 9d 3d 35 f9 ec 3d 65 fd 4d 3d
       0.16950801 0.077077106 0.1157097 0.050290484
0000c0 b0 cb c4 3d e6 93 80 3e a1 e7 4a 3c 13 70 20 be
       0.09609163 0.25112838 0.012384326 -0.15667753
0000d0 a3 74 b4 bd 44 5e ba 3d 42 42 48 3e ce 75 3f bd
       -0.08811309 0.09100011 0.19556525 -0.046743207
0000e0 92 03 8a bd 72 e5 ab 3c d1 e5 13 3d 66 2d 21 3e
       -0.06738962 0.020983431 0.036107842 0.15739974
0000f0 3c 48 ce 3d a9 72 6d be c3 a4 a8 bd 7c 30 24 3d
       0.10072371 -0.2318827 -0.08234551 0.0400853
000100 5f eb 41 3e 73 1c 16 bd 27 5d dd 3d c5 0e 12 3d
       0.18937443 -0.036648225 0.10808783 0.035658617
000110 0b 75 8b 3d 83 eb 6b 3e 0c 89 9c 3d 1e c9 6a bd
       0.068094335 0.2303906 0.07643327 -0.057320707
000120 98 c3 ad 3c 75 98 e6 3b a9 96 03 3e 1d eb bb 3d
       0.02121143 0.0070372173 0.12850441 0.09175704
000130 9c 78 ad 3d 47 9e be 3d 0b a2 ba 3d db d5 b2 3b
       0.0847027 0.09307533 0.091129385 0.0054576225
000140 03 9e 53 3d 45 74 20 3e 3b 22 f0 3c a4 3a d3 3d
       0.051664364 0.15669353 0.029313197 0.10313919
000150 20 3c b6 3c 33 b2 8a bd f3 c1 b8 3d 11 92 1d 3c
       0.022245467 -0.0677227 0.09021368 0.0096173445
000160 6b 9c 27 bd 73 d7 c3 3d bb 86 58 bc 18 cd 83 3e
       -0.040920656 0.09562578 -0.013215716 0.25742412
000170 f6 94 9e 3d 19 83 6b 3e 78 70 e7 3a b8 35 dd bd
       0.07743256 0.22999229 0.001765742 -0.10801262
000180 01 f9 c3 3d f3 46 75 3e 30 cd 8a 3d 21 6c cb bb
       0.09568978 0.23952846 0.06777418 -0.0062079583
000190 55 f6 10 be 90 0a 2c 3e 00 26 f4 3d d5 55 45 3d
       -0.14156468 0.16800904 0.119213104 0.04817756
0001a0 70 a0 1b 3e 02 0a 30 be 28 d8 c2 3d 65 5e f5 3d
       0.15197921 -0.17191318 0.09513885 0.11980895
0001b0 79 fa 48 3e 73 86 08 bd 89 c2 dd bd fa 06 af 3d
       0.19626798 -0.033331346 -0.1082812 0.085462525
0001c0 86 60 d3 3d 99 c7 5a bd 8c 97 01 3e b1 1e d8 bd
       0.10321145 -0.053413007 0.12655467 -0.10552729
0001d0 44 bc 1f 3e 22 fd 88 3c 4f 66 0a 3d ec 26 20 bd
       0.15599161 0.016722266 0.033788975 -0.03909962
0001e0 a7 cb f0 bd 0c 8a 92 3d 2e ba 8d 3d cc 79 20 3d
       -0.117575936 0.071552366 0.069202766 0.039178655
0001f0 ef 70 17 be f3 a3 3b bd e1 f2 b7 3d e9 a1 d4 3d
       -0.14789174 -0.04581065 0.08981872 0.103824444
000200 b8 af 13 bd 6c 34 f1 bd 03 77 2c be e0 7e 3d 3e
       -0.03605625 -0.11777577 -0.16842274 0.1850543
000210 2c 16 25 3e 93 6b c9 bd 52 cb bf 3c 83 fb 08 3c
       0.16121739 -0.09834971 0.02341238 0.008360746
000220 92 fd 8d 3d 28 e8 b1 3c 69 7b d3 3d cb 69 1f be
       0.0693313 0.021717146 0.10326273 -0.155677
000230 7b 4e 42 be bc 30 b4 3d 9a d9 24 3e c6 b4 26 3e
       -0.1897525 0.08798358 0.16098633 0.16279897
000240 c2 be 2a 3d 93 85 58 be ed 43 06 3e b8 c1 c2 3d
       0.041685827 -0.21144705 0.13111849 0.09509605
000250 07 60 03 3e 06 12 8b bc 17 b4 3c be b5 e5 88 3e
       0.128296 -0.016976368 -0.18428074 0.26737753
000260 d0 a0 3f bc 67 fa 65 3e ba 1e 32 bd 7d 59 c6 bd
       -0.0116960555 0.22458802 -0.043486334 -0.09685037
000270 b8 8d d3 be ba 25 3c be a7 69 3f bc 44 f9 06 3e
       -0.4131906 -0.18373767 -0.011682904 0.13181025
000280 1c 93 07 3e bd 8e 09 3e b3 cc 44 3c d7 a0 41 3d
       0.13239712 0.13433357 0.012011695 0.04727253
000290 c3 46 3e be 91 76 12 bc 93 ab e9 3d 31 70 e8 3d
       -0.18581681 -0.008939401 0.11409678 0.11349524
0002a0 3c b0 19 3e 0d 4c 1b be b0 eb 29 3e 0c db 00 3e
       0.15008634 -0.1516573 0.16593814 0.1258356
0002b0 0c db c7 3d 25 c4 1b 3e e2 1e b1 3d da e4 cb bc
       0.09758577 0.15211542 0.086484686 -0.024889398
0002c0 83 60 c2 3d ac ea 72 3e db 51 84 3e 31 f0 a1 bd
       0.094910644 0.23722333 0.258437 -0.07907141
0002d0 25 f1 ad 3c ae 78 97 3e c7 b4 79 3e b9 02 cc 3d
       0.02123315 0.2958426 0.24385367 0.09961457
0002e0 83 c7 05 bd 6c d8 36 be b2 26 25 be c6 70 e2 3d
       -0.032660972 -0.17855996 -0.16128042 0.11056666
0002f0 c3 b6 85 3d 0c a1 80 3e d7 db 0f 3d 26 fe dc 3c
       0.06529 0.2512287 0.035121765 0.026976656
000300 fd f1 fd 3d fc 92 25 3b a1 80 fa 3d 20 b3 c9 bd
       0.12399671 0.0025264611 0.12231565 -0.098486185
000310 2f 3f 16 bd bd bc 39 3d f4 63 1a 3d 78 93 b3 3c
       -0.03668135 0.04534601 0.03769298 0.021920905
000320 74 5c e5 3d a1 8c 5c 3d 9a 9e 70 3d 1a b2 72 bd
       0.11199275 0.05384505 0.058745004 -0.059251882
000330 da 6f 8c 3e 9f 48 58 3d e2 ad 13 3d a0 aa cf 3c
       0.27429086 0.052803632 0.0360545 0.025349915
000340 70 74 3a 3e f9 30 00 3d 69 e4 1e 3d 5a f6 86 bd
       0.1820848 0.031296704 0.038792048 -0.065899566
000350 fa 3b d1 3d b2 85 8a bc 2e cf f8 bd 77 e2 23 be
       0.10216518 -0.016909454 -0.121488914 -0.16004358
000360 a2 19 ae 3d 33 20 2b 3e 4b 55 04 3e 36 dd 0a 3e
       0.08500983 0.16711502 0.12923162 0.13560948
000370 23 a1 4d bd 65 02 fd bd 82 79 da 3d 4f f4 c4 3d
       -0.0502025 -0.12353972 0.10667707 0.09616911
000380 fb a0 8c 3d d7 cc 6d be 1e 63 bd 3d c0 85 68 3d
       0.06866642 -0.23222671 0.09247421 0.05676818
000390 eb 73 80 3d f2 f9 31 bb 48 a7 da bc ac c5 e4 3c
       0.062721096 -0.0027157036 -0.026691094 0.027926289
0003a0 e0 6f dd 3d dc b5 7d be 30 a6 da 3d e9 ff 19 be
       0.10812354 -0.24776405 0.10676229 -0.15039028
0003b0 de f5 2d 3d 21 ac b7 3d 12 d6 a9 3d 58 9d 79 3e
       0.042470805 0.08968378 0.08292784 0.24376428
0003c0 87 94 1a b8 5b b6 44 be 73 4d 05 3e f7 e8 8b bd
       -3.6854788e-05 -0.19210188 0.13017826 -0.06831544
0003d0 fc 95 91 3d 13 95 9d 3c f9 a1 e0 bd c2 a2 2a 3d
       0.071086854 0.019236123 -0.10968394 0.041659124
0003e0 1a bf 0e 3d fe 56 55 3d 3c 6f 91 be 1c 57 8e 3c
       0.034850217 0.052084915 -0.28405178 0.017375521
0003f0 95 a8 58 3d dc e0 26 3d a3 60 0c bd 2e ae d9 bd
       0.052895147 0.040741786 -0.034271847 -0.10628925

network_body._body_endoder.seq_layers.0.bias f4 [128]
000000 64 31 83 3d 63 ff 6d 3d 83 e6 03 3b 62 61 de bc
       0.06405905 0.058104884 0.002012641 -0.027146045
000010 8e 97 c3 3c 4a f6 79 3d 63 e9 36 3d b7 11 d3 bc
       0.023875978 0.061025895 0.04465617 -0.025765283
000020 cd 3c 0d bc b7 78 df 3c 58 b0 b0 3c 8a 19 a0 3c
       -0.008620453 0.027279241 0.021568462 0.019543428
000030 30 75 d4 3c 15 cf 8b bb c2 e5 9c bc f3 ae 73 3d
       0.025934786 -0.0042666295 -0.019152526 0.059493016
000040 01 a9 fe 3c dd fe 5f 3c 7b 97 2e 3b aa 0b 61 bd
       0.031086447 0.013671604 0.0026640582 -0.054942764
000050 03 b8 1c bd 77 6a a8 3c ac 00 17 3c ba 77 4f 3d
       -0.038261425 0.020558579 0.009216469 0.05065129
000060 74 d4 29 3d 96 f2 c4 3c aa 06 16 3c 67 b7 18 3c
       0.041462377 0.024041455 0.009156862 0.00932107
000070 66 7e 5d bd 3e 52 95 bc 03 80 04 3d 2c 37 cc 3c
       -0.05407562 -0.018227693 0.032348644 0.024928652
000080 3e 96 45 bb ec a6 2b bd 10 80 18 3d eb 89 58 3c
       -0.0030149366 -0.041907236 0.037231505 0.013216476
000090 5c 19 29 bc 7c da 85 3c 58 2d 47 bc bb 49 0f 3c
       -0.010320988 0.016339533 -0.012156807 0.008745606
0000a0 b3 60 f9 3c 3e 9b cb bc 59 e6 f9 3c 0c 77 96 3c
       0.030441618 -0.024854299 0.030505346 0.018367313
0000b0 06 19 79 3d 31 33 95 3d ee a5 0b 3c a9 a3 bb bb
       0.06081488 0.072851546 0.008523447 -0.005726297
0000c0 f3 04 80 bc 92 cc 1f bd e5 8d 05 3d 06 fe 32 bc
       -0.01562736 -0.039013453 0.032606024 -0.010924822
0000d0 c6 22 55 bd 55 a2 a5 3c 1c 35 9c 3d 65 33 d1 3c
       -0.052035116 0.020219008 0.07627317 0.025537202
0000e0 5b 0c ee 3c 0e 02 37 3d 15 eb 45 bd 9f ba 02 bd
       0.029058626 0.044679694 -0.048319895 -0.031916257
0000f0 4a f6 18 3d 3a bd b5 3d f3 4a 88 bc b6 1e 11 bd
       0.037344255 0.08873983 -0.016637301 -0.03542968
000100 d0 8e b5 3c e7 5c e3 3c 7f da bb 3c 01 88 cd 3b
       0.022162825 0.02775426 0.022931335 0.0062723164
000110 c8 84 fa 3c ba 9c 07 3d a0 fd 89 3d 45 8b 79 3d
       0.030580893 0.03310845 0.06737828 0.060923833
000120 3c 1e d7 3c 30 6c 6a bc e6 f1 06 bc 8b 6e 6b 3d
       0.026259534 -0.0143080205 -0.008236384 0.05747847
000130 6a bc c3 bc 5e 5c 31 bd dc b8 13 3c 0f 12 52 bc
       -0.023893554 -0.04330098 0.009016242 -0.012821688
000140 93 52 01 bd 82 d9 85 3d 1b 5f a5 bb 74 bc 27 3c
       -0.03157289 0.06535627 -0.005046738 0.010237802
000150 1a bd da bc df 10 8e 3d c3 83 46 3b 24 f6 81 bd
       -0.026701499 0.06936812 0.0030290938 -0.06345776
000160 95 d1 57 3d b3 86 3e 3d 90 41 74 3c 20 2c 13 3d
       0.052690107 0.046515178 0.014908209 0.035930753
000170 1c b9 c1 bb 36 86 85 ba ef 23 ce bc 89 73 94 3d
       -0.0059119593 -0.0010187093 -0.025163619 0.07248599
000180 fa 62 72 3d 5d f8 e1 bc 84 f9 92 bc 4b a7 ad 3c
       0.059176423 -0.02758425 -0.017941244 0.021197936
000190 58 b9 5e bd c6 a7 95 bc 61 19 23 3d 8c f5 39 3d
       -0.054375976 -0.018268477 0.039819125 0.045400187
0001a0 77 91 27 bd b0 18 01 3d 30 eb be 3b 39 0e e7 3c
       -0.04091021 0.031517684 0.0058263764 0.028205024
0001b0 83 75 cb bc 01 2b 8f 3d 63 27 65 bc 79 c9 a3 3b
       -0.024836307 0.06990624 -0.013986441 0.0049983826
0001c0 8d fa e3 3c d2 79 5f bd d8 89 42 3d 93 04 08 3d
       0.027829433 -0.054559536 0.04749474 0.033207487
0001d0 7b 2f 9a 3c 2a 45 56 bd 5a 25 e3 ba 37 d6 a2 bd
       0.018821469 -0.052312054 -0.0017329857 -0.079510145
0001e0 c3 2c 4a 3d e0 3a e4 bc 6a e4 9e 3d 2a dd f2 3c
       0.049359094 -0.027860105 0.0775841 0.029646475
0001f0 07 2e 0c 3d 2f 17 9e 3a b6 d5 a8 3c eb 99 bf 3c
       0.034223583 0.0012061353 0.020609718 0.023388823

network_body._body_endoder.seq_layers.2.weight f4 [128, 128]
000000 90 be 1b 3e e0 c7 00 bd 04 7f 36 be 4d 87 70 be
       0.15209413 -0.031440616 -0.1782189 -0.23489113
000010 04 82 d1 bd f0 83 bb 3d f0 86 16 be 4f a7 5c be
       -0.10229877 0.091560245 -0.14699912 -0.21548198
000020 99 e7 82 be e7 52 1d 3c 5a aa 03 3e 46 b1 54 3d
       -0.2556732 0.009602285 0.12857953 0.051926874
000030 33 a6 13 3e a7 c4 77 bd a0 aa 04 bd de 62 86 bd
       0.14418869 -0.060490277 -0.032389283 -0.06561826
000040 e8 32 3e 3e 81 0a ed 3d 2f f1 ae bd 5d ea 0a be
       0.18574107 0.11574269 -0.08542096 -0.13565965
000050 d6 33 88 bd e3 88 4d 3e 02 b5 23 bd 31 fe 53 bd
       -0.06650512 0.2007175 -0.039967544 -0.051756088
000060 d9 b4 1d be fd 11 62 be cf d5 56 3d d7 ad 67 3d
       -0.15401019 -0.22077174 0.052449998 0.05656227
000070 89 0f 1d be 20 b9 21 be c1 07 9b bd 3c f1 07 be
       -0.15337957 -0.15793276 -0.07569838 -0.13275617
000080 38 42 7a 3a e5 5c 03 bd 3d c3 1e be 92 50 53 3d
       0.00095466105 -0.032071013 -0.15504165 0.05159051
000090 09 81 1c be 6f 88 7f bd 8d 1e 92 bd 41 42 33 3b
       -0.15283598 -0.062385973 -0.07134733 0.0027352723
0000a0 b5 63 a2 bd a5 1a d7 3d 8c d3 ae bb 76 66 81 3c
       -0.07929174 0.10503129 -0.005335277 0.015795927
0000b0 a8 18 58 3e 71 69 eb bd 5a aa c4 3c fc bd 86 bd
       0.21103156 -0.11494721 0.024007011 -0.065792054
0000c0 c3 0b 13 3c e4 4b 36 bd eb 3b e3 3d ca 95 93 be
       0.008974972 -0.04450597 0.11095413 -0.28825217
0000d0 41 2c 17 be c9 c2 e6 bd 1f d2 43 bd f5 e4 ec 3d
       -0.14762975 -0.11267621 -0.04780781 0.115671076
0000e0 30 85 ca bd db 2c 49 3e 62 34 aa 3d 0f 62 8f be
       -0.09888685 0.19646017 0.083107725 -0.280045
0000f0 dc ee 96 3d a2 2b 4e 3d d6 91 1c bd 19 ad 6c 3c
       0.073697776 0.05033458 -0.038225017 0.014445567
000100 74 00 bc 3c 07 71 30 bd ad 2a c1 3c 58 dc 56 3d
       0.022949435 -0.04307654 0.02357992 0.05245623
000110 d8 7b b6 3d fc 53 a1 bd 8e ac 87 3e d7 2e 41 3d
       0.0891034 -0.07877347 0.26498836 0.04716381
000120 07 30 56 be 9c 07 d7 3d 41 8f 92 bd 37 39 e7 3d
       -0.20916758 0.10499498 -0.0715623 0.1129021
000130 a9 58 38 3d f2 a5 f4 3d f8 e5 76 bd 2f 98 61 3d
       0.045006428 0.11945714 -0.06027791 0.055076774
000140 bf d7 3c bc 61 c5 fe bc d7 cb c0 3b c3 81 49 be
       -0.011526047 -0.031099977 0.0058836746 -0.19678406
000150 2f a9 30 be a0 80 02 be 9b 14 3e 3d c0 6d ce bd
       -0.17252038 -0.12744379 0.04640637 -0.10079527
000160 eb af 7d 3a f6 ce d8 bc c8 85 8c bd fc a1 c2 3d
       0.0009677398 -0.026465874 -0.06861454 0.09503552
000170 73 98 19 3e 87 62 cd bd 9a 46 33 be a0 e4 8d 3d
       0.14999561 -0.10028558 -0.17507401 0.069283724
000180 1f 1d 52 bc 57 83 95 bd 34 f6 ba bd c2 e0 6e bd
       -0.012824326 -0.07300442 -0.09128991 -0.058319815
000190 ba aa 96 3d 24 dc fa bd d1 d5 c6 bd 0d e9 af 3d
       0.07356782 -0.1224902 -0.09708751 0.08589373
0001a0 fb 75 ca 3d db f6 cc 3d 5e 99 05 be 39 8f a0 3d
       0.09885784 0.100080214 -0.13046786 0.078398176
0001b0 48 3d d3 3c da 1c bb bd 1a 04 87 bd af 5c 98 bd
       0.025786057 -0.091363624 -0.06592579 -0.07439553
0001c0 62 65 3c 3c 83 51 07 3d 3c 30 94 bb 24 ab 9e 3c
       0.011498781 0.03303672 -0.0045223515 0.019368716
0001d0 3e 5d 3c be db 39 85 bd bf 92 31 be 53 a0 93 be
       -0.18394944 -0.06505176 -0.17341135 -0.28833255
0001e0 8c 3b ac bd 7b 15 e5 3c d2 ab 0d 3d 42 95 0f 3e
       -0.08409795 0.027964344 0.03458769 0.14021781
0001f0 26 3f c1 bd 3d 7d ae bd 79 8f ec 3d 46 73 2b be
       -0.09435873 -0.08519981 0.11550803 -0.16743192
000200 b7 ba 15 3d 89 8a 06 be d6 ea 1f bd 44 31 ab bd
       0.03655502 -0.13138784 -0.039042316 -0.08359006
000210 e8 6f f3 bd 38 87 72 bd e1 5d 32 3d ce 67 37 3d
       -0.11886579 -0.059210986 0.04354656 0.04477673
000220 61 94 4f 3d e7 0e c2 bc 63 d2 b3 3c 9b 1e db 3d
       0.050678615 -0.023688747 0.021950906 0.10699197
000230 ef ec cb 3d b7 44 97 bd a5 70 7e 3d 6b 82 71 3d
       0.09957301 -0.07386153 0.062119145 0.058962267
000240 85 f6 21 3c ea 1f f4 bd 31 ad 45 ba 0a 4f 88 be
       0.009885435 -0.119201496 -0.0007540761 -0.26622802
000250 38 8c b2 bd 44 7e e5 3d 45 4b cc 3c 0c be ad bd
       -0.08718151 0.11205724 0.024938235 -0.08483514
000260 fd 05 74 bd c8 e3 12 be e5 52 a4 bc 67 cb 29 ba
       -0.059576023 -0.14344704 -0.020059058 -0.00064771477
000270 a1 cf ca bd e7 39 00 be 53 76 81 3d 33 31 b5 bd
       -0.09902883 -0.12522088 0.06321397 -0.08847275
000280 e5 a5 36 bc 47 32 da 3d 8d ab fb bd 53 64 92 3d
       -0.011147951 0.10654121 -0.1228858 0.071480416
000290 3a f1 a8 3d 30 6c 58 bd 9f 2d 81 bd a8 ea ce 3d
       0.08249135 -0.05283755 -0.0630753 0.10103351
0002a0 75 60 20 be 30 76 e8 bd 52 49 87 bc b2 ae 6f bd
       -0.15661795 -0.113506675 -0.016514454 -0.05851621
0002b0 40 f2 0c 3e 5a a2 d0 bc 27 bd 58 3c 9c ef 9c bb
       0.13764286 -0.02546804 0.013228691 -0.004789306
0002c0 00 b3 be bc f6 27 4b bd d0 b6 c4 bd 18 c2 9b 3d
       -0.023278713 -0.049598657 -0.09605181 0.0760538
0002d0 de 2b af bd ef 5c d5 bc 0f f8 f1 3d 03 88 17 3c
       -0.08553289 -0.02604529 0.118148915 0.009248736
0002e0 39 d2 18 be 31 b0 a5 bd de e6 5c 3d 4e 93 15 be
       -0.14923944 -0.080902465 0.05393111 -0.14606974
0002f0 f7 b0 f6 bc a1 93 da 3d b8 87 a5 3d 55 7c 90 3d
       -0.03011368 0.10672689 0.08082527 0.070549645
000300 71 27 f4 bd a4 a5 3e 3e a3 30 70 3c 38 df e7 bb
       -0.11921585 0.18617874 0.014660033 -0.0070761703
000310 9d 6b 86 3d 8f 10 57 be 50 1b f1 bc 5c f8 3f be
       0.06563494 -0.2100241 -0.029431969 -0.18747085
000320 e9 74 41 bd bb 45 25 bd 10 f9 49 3c 13 5b b0 bc
       -0.047230635 -0.040349703 0.0123274475 -0.021527803
000330 5f e2 dd bd 0c 9b c8 3d 27 69 e2 3d fa 0c c1 bd
       -0.108341925 0.09795198 0.110552125 -0.09426303
000340 59 73 1b 3c 5f da 3a 3d 02 2e 3d be f2 07 42 be
       0.00948795 0.04561841 -0.18474582 -0.18948343
000350 76 09 0e bd 78 6e fc bd 3d b2 ac 3d b5 14 bd 3c
       -0.03467699 -0.12325758 0.08432434 0.023081163
000360 7f 8c da 3d bc 25 e5 bd de 8b 2b 3e 2d ec a0 3d
       0.10671329 -0.11188838 0.16752574 0.07857547
000370 c5 75 01 bd 3a 0a 9d 3d f1 db 77 3d 17 85 09 3e
       -0.031606454 0.07667966 0.060512487 0.13429676
000380 99 36 99 bd 1d fa 24 be ad 45 25 3e c4 26 3c 3d
       -0.07481117 -0.16111036 0.1613986 0.045935407
000390 3f 43 8d 3c e2 f9 0d 3d d3 1a a5 bb ff ee 57 3d
       0.01724398 0.034662135 -0.005038598 0.05271816
0003a0 a9 7c 9a 3d e6 27 30 be da fa d1 bc fb 65 70 3d
       0.07543308 -0.1720272 -0.02563231 0.058691006
0003b0 20 7a 96 3d 24 2a 52 bd 97 56 20 3d bd 1f 95 3d
       0.07347512 -0.05130972 0.03914508 0.07281444
0003c0 ba 1d 92 3d fa f4 e0 bc 57 bf a8 be 37 f9 10 be
       0.07134576 -0.027460564 -0.3295848 -0.14157568
0003d0 22 0f 09 be 5d b0 e9 3c 85 60 4c be be b9 5b be
       -0.13384679 0.02852648 -0.19958694 -0.21457574
0003e0 67 db c4 bd 6d fc 08 be 52 06 0c 3d 38 f9 e3 bd
       -0.0961216 -0.13377543 0.034185715 -0.11131519
0003f0 ed 8e 79 bc 69 53 9b bc 0e 09 c4 3d 20 7a c4 bd
       -0.01523183 -0.018960671 0.095720395 -0.09593606

network_body._body_endoder.seq_layers.2.bias f4 [128]
000000 0f 0f 48 3c 33 48 29 bd f7 4c bb 3c 50 42 4a bd
       0.0122106215 -0.04132862 0.022863848 -0.049379647
000010 88 94 67 3a fa 0d 1d bd 13 3f 97 bd e0 89 8e 3b
       0.00088340836 -0.038343407 -0.07385077 0.004349932
000020 82 fb ff bc 88 07 b8 3d d9 45 4b 3d 94 d4 c5 3c
       -0.031247858 0.089858115 0.04962716 0.024149217
000030 9b 58 25 bc 28 91 51 bd 99 35 a8 3b 48 36 03 3d
       -0.010091926 -0.051163822 0.0051333425 0.03203419
000040 06 e3 40 3d 6d d1 e2 3b 46 ad 68 bd 0b b5 40 3d
       0.047091506 0.006921938 -0.05680587 0.047047656
000050 40 97 fd 3c e5 33 c2 3c 20 91 68 bb 14 2c 90 bc
       0.03095591 0.023706386 -0.0035486892 -0.017599143
000060 63 9e 20 3d 6d 4c 01 3c 8f 93 18 3c 73 6e 56 bd
       0.03921355 0.0078917565 0.009312524 -0.052351426
000070 aa 84 7a bb cf c6 2b bd f7 52 6b 3d 1a 77 17 bd
       -0.0038226047 -0.041937646 0.05745217 -0.03697882
000080 14 0d 2e bb 69 29 92 bd 67 cf 4c 3d 19 5d 62 bd
       -0.0026558088 -0.071368046 0.05000248 -0.055264566
000090 6d d4 a0 bd 98 11 0d 3c 2a 77 51 bc a3 da 2a 3d
       -0.07853017 0.008610152 -0.012784759 0.041712414
0000a0 17 c7 a2 bd 42 36 d1 3c 14 58 0e 3d 56 5a fa 3c
       -0.079481296 0.025538567 0.034751967 0.030560654
0000b0 e1 89 6c 3d 99 9a 42 3d 56 1f eb bc 1f f5 f3 3c
       0.05774868 0.047510717 -0.028701466 0.029779969
0000c0 65 e9 13 3d 53 40 34 3d b2 f3 7e 3c 21 64 5a bd
       0.036111254 0.044006657 0.015561031 -0.053318147
0000d0 ab af 31 3d d5 0d 7e 3d bd de 5f bc 7b ea 88 3d
       0.04338042 0.06202491 -0.013663945 0.066853486
0000e0 e3 4f 94 3d a9 8e 9a 3c 89 f4 81 3d 26 ab 4f bc
       0.072418 0.018866854 0.063454695 -0.012675082
0000f0 e5 0b a8 bd 8e e2 82 3d ca 30 f4 bc 7f cf c2 3c
       -0.08205394 0.06390868 -0.02980842 0.023780582
000100 c8 a9 e2 3b 21 b8 97 bc e8 44 1f 3c 74 b2 ee 3c
       0.006917212 -0.018520417 0.009721018 0.029137827
000110 d2 5e 3d bd 56 95 c0 3b 50 ba 8b bd 53 b6 08 3d
       -0.046233006 0.005877177 -0.06822646 0.033377003
000120 2f f5 11 3d 6f 3e 38 3d 26 29 6f 3c 70 da 77 bc
       0.035634216 0.044981416 0.014597213 -0.015127763
000130 47 c4 f1 3b 62 72 45 3d 06 2b 9c 3d d0 e9 3e bd
       0.0073781344 0.048204787 0.076253936 -0.0466097
000140 54 a7 54 3c fc 5c 1b bd f0 eb a7 3d c8 83 eb bc
       0.012979347 -0.037930474 0.081992984 -0.028749362
000150 50 8a 68 bd 7b 08 1f 3d 25 6f 1d 3d cd d6 a4 3c
       -0.05677253 0.038826447 0.038436074 0.020121956
000160 5f 26 04 3d 57 78 03 3d 75 af 98 3d dd e3 4a 3c
       0.032263156 0.032097187 0.07455341 0.012383428
000170 e0 5d 3c bc ce 0c c5 3c 7a 88 08 3c be ba 25 3d
       -0.011496991 0.024053957 0.00833332 0.040461294
000180 ba e1 37 3d ff 7e e9 3c 22 ed c8 3c 1a d4 1e bd
       0.044893004 0.02850294 0.024527136 -0.038776495
000190 e1 53 03 bd 3d 1e 78 3c a9 5a 8a 3c be 31 e2 3c
       -0.032062415 0.015143928 0.016888933 0.02761161
0001a0 7d 6e 17 3d 92 70 29 bd 98 32 89 3d c6 c6 9e 3d
       0.036970604 -0.04136712 0.06699103 0.07752757
0001b0 01 7e 5d bb d1 1a ab 3c 04 87 07 3c b7 4b 82 ba
       -0.0033797028 0.02088681 0.008271936 -0.0009940778
0001c0 79 32 b6 3d 0f d2 26 bd 47 c7 53 3b b4 5c 3f bd
       0.08896346 -0.04072767 0.0032314823 -0.046719268
0001d0 91 5a 9e 3d cb 0a 72 3d b7 f0 77 3c 8d 04 e0 3c
       0.07732118 0.059092324 0.0151330745 0.02734592
0001e0 44 55 1d bb 3a cb 59 bd eb 9a 8c 3d db d0 8d 3d
       -0.002400712 -0.053172328 0.06865486 0.06924602
0001f0 f0 15 aa bd bf ec 2d bd 2c db f0 bb 56 a2 00 bd
       -0.083049655 -0.042462107 -0.007350346 -0.031404816

action_model._discrete_distribution.branches.0.weight f4 [7, 128]
000000 f9 43 00 be 75 bb 8b 3d b2 fd 25 3d 6b 13 6c bd
       -0.1252593 0.06822864 0.040525146 -0.057635706
000010 b3 d7 68 3c 48 1f 90 bb 43 2e 58 bd 3c f5 b0 bc
       0.014211583 -0.0043982603 -0.052778494 -0.021601312
000020 a7 bd 14 bd ee 88 42 3c e3 0b d6 3c 1c 5d 0d bb
       -0.03631368 0.011873467 0.026128715 -0.002157039
000030 59 0c 98 bd fb b5 c5 bc 2a b6 33 3c 8f 2e 1a bd
       -0.0742423 -0.024134627 0.010968724 -0.037642058
000040 9a c2 72 3d 5f d9 01 3c 44 be 15 bd 19 db 1c bc
       0.059267618 0.00792536 -0.036558405 -0.009573721
000050 94 f1 c8 3c 5a e5 cd bd 39 a4 58 bd 06 7b 94 bc
       0.024529256 -0.10053511 -0.05289099 -0.018125068
000060 60 9f c0 bc c7 9a 29 3c ba b7 b9 3d 0c 5d f5 bc
       -0.023513496 0.010351843 0.09068246 -0.029951595
000070 eb 95 48 3d 0e ed a6 bc fd 7c 3d bd 95 b5 8e bb
       0.048971098 -0.020376708 -0.046261776 -0.0043551424
000080 88 04 33 bd ed 73 0b bd 6f 6f dc bc b8 92 25 bc
       -0.043705493 -0.034046102 -0.026908604 -0.010105781
000090 59 ce cc bc ee 68 2c bc 62 33 38 3c 6a 67 e7 bc
       -0.025000738 -0.010523064 0.011242719 -0.028247554
0000a0 48 e3 a4 bb 5e 77 80 bd 06 f0 06 3d 78 56 d3 3c
       -0.005031977 -0.062727675 0.032943748 0.025798067
0000b0 43 68 85 bd 5e 70 96 3c e9 e9 74 bc 75 c2 e9 3a
       -0.06514027 0.018364128 -0.014948347 0.0017834442
0000c0 91 3b 73 bd ae 66 8b 3c aa 2e b4 3b 4b 20 86 bd
       -0.05938298 0.017016735 0.005498727 -0.06549128
0000d0 14 a0 0e 3d d2 57 d8 bc b0 d5 a1 3a db 15 25 bc
       0.03482063 -0.026409063 0.0012347009 -0.0100760115
0000e0 c5 3f 8a 3c 18 f7 6d bd 56 4c c1 3c e1 db cb bc
       0.01687611 -0.058096975 0.02359597 -0.02488512
0000f0 e4 1f da b9 29 ce 36 3d 04 25 5c bd 60 89 d3 bc
       -0.0004160396 0.044630203 -0.05374624 -0.025822341
000100 79 aa b8 bd 69 13 50 3c 76 c5 84 3c db c4 7a 3d
       -0.0901689 0.01269994 0.016207438 0.061222892
000110 0d c6 0c 3c d0 19 77 3c cb fb 1e bd e5 32 11 3d
       0.008592141 0.015081838 -0.038814347 0.035448927
000120 8a 14 0c 3c 89 db 53 3c c4 36 8f 38 7e a1 db bc
       0.008549819 0.012930759 6.828972e-05 -0.026810404
000130 fd 46 7e bd 95 e6 8b bc 5a 4f 9c 3d bb e8 13 3c
       -0.06207942 -0.017077724 0.076323226 0.009027655
000140 37 fb 5f bc a3 41 09 3d 26 9d 22 3d 21 1e df 3c
       -0.013670734 0.03350986 0.03970065 0.027236046
000150 38 b8 cc ba a8 6c 2d 3d 65 45 48 ba f2 ad 09 bd
       -0.0015618866 0.04233995 -0.0007639735 -0.033613153
000160 ba 98 4d 3c 5c 0b 9b 3b f4 79 ee 3c 14 8e 00 3c
       0.01254862 0.0047315788 0.029110886 0.007846374
000170 40 8a 93 bc 3a e9 27 3d 2b 58 21 bd 2a f1 de 3c
       -0.018010259 0.040993907 -0.039390724 0.027214605
000180 24 0b 84 bd e2 03 43 3d cd 27 01 3d 60 fc f5 bc
       -0.064474374 0.047611125 0.031532098 -0.030027568
000190 60 35 18 3c dd 26 fd 3c 68 ff 91 3d ca 14 38 3c
       0.009290069 0.03090232 0.07128793 0.011235425
0001a0 07 06 7a 3d 6f dc 75 bc e4 05 92 3d 14 64 02 39
       0.061040904 -0.015006169 0.0713003 0.00012435048
0001b0 f6 a4 4f bd 26 9d 09 bd ee e0 84 bb c8 d0 48 bc
       -0.05069443 -0.033597134 -0.004055134 -0.012256809
0001c0 f8 21 9d 3c a6 2f 64 bd ec 4d f7 bc 35 bd f2 bc
       0.019181237 -0.055709504 -0.030188523 -0.029631237
0001d0 6f a5 9f 3d 03 8c ca 3b 12 d0 27 3c 5a a2 ba 3c
       0.07795226 0.0061812415 0.010242479 0.022782493
0001e0 6f 04 3d 3d 75 2f cd bc fc 1c 6d 3c 5d 69 15 3d
       0.046146806 -0.025047043 0.014472242 0.036477435
0001f0 c9 79 96 bc 0d b4 34 3d cc 83 7d 3c 45 ee 53 bd
       -0.018368619 0.044117022 0.015473317 -0.051740903
000200 57 55 7a 3d 7e 12 bf 3c 64 43 30 3b ed a7 b3 3c
       0.061116543 0.023324247 0.0026895637 0.02193066
000210 15 83 5d bc 58 89 64 3d 7b af 56 3d 8a 27 00 3e
       -0.013520022 0.055795044 0.052413445 0.12515083
000220 fe 06 c2 3d 7a 82 8e bc 5b 64 34 3b 4e 00 68 bc
       0.0947399 -0.0173962 0.0027525637 -0.014160229
000230 ad 1c bd 3c fa 05 60 3d f3 3e 59 bd 4c dd 17 3d
       0.023084963 0.0546932 -0.05303855 0.03707628
000240 cd 7c 86 3c 0e c8 9b 3c a6 df 6c 3d b8 01 2a 3d
       0.016416932 0.019016292 0.057830475 0.041505545
000250 ca 16 4b 3b ef 2f 85 3d f9 02 05 3c bb e8 83 3d
       0.0030988925 0.06503283 0.0081183845 0.06440874
000260 4b 41 5a 3d 93 e8 89 3d 35 c9 03 3d 2d a1 4e bb
       0.053284924 0.06733813 0.032174308 -0.0031529174
000270 7a 63 c2 3c e2 46 f8 3a 8f 22 1e bd d9 7d d0 3d
       0.023729075 0.0018942023 -0.038607176 0.101802535
000280 0e b5 55 3d 70 22 7d 3c 88 3f b3 3c f4 28 6d 3d
       0.05217462 0.015450105 0.02188088 0.057900384
000290 97 28 91 3d ee 92 87 3b 8e 64 6d 3d e0 e4 d6 3d
       0.0708782 0.0041373884 0.057957225 0.10492873
0002a0 76 dd 33 3d 7a fe de 3d 2c fe 82 3d c0 79 10 3d
       0.043912373 0.10888381 0.06396136 0.03527236
0002b0 dc 02 e1 3d f0 2b bf bc 87 5a 83 3c de 63 59 3d
       0.109868735 -0.02333638 0.016034378 0.053073756
0002c0 60 93 cf bc 55 7a 86 bd 9f 07 9d bc 7b f7 94 3d
       -0.025338829 -0.06566302 -0.019168673 0.07273766
0002d0 b1 ab 76 b9 60 6d 2a 3d 88 4d 89 3d 4f 08 19 bd
       -0.00023524348 0.041608214 0.06704241 -0.03736144
0002e0 cc 4b 4a bd 7b 81 b4 3d 7c 43 29 bd c4 16 aa bc
       -0.04938869 0.08813759 -0.041324124 -0.020762809
0002f0 32 b0 02 bb e3 31 ae bd 02 ac de 3c 23 d6 b4 bc
       -0.0019941446 -0.08505609 0.02718163 -0.022074765
000300 eb 7a 2b 3d 01 ec 22 3c 7b bd 5a bd 05 b9 40 3d
       0.04186527 0.009943963 -0.05340336 0.04705145
000310 35 ca cf 3d 18 81 9f 3d 11 df 4d bb a2 97 a6 bd
       0.1014599 0.077882946 -0.0031413476 -0.081343904
000320 b3 1b 8b 3d 77 74 73 3d 21 ef ca 3c ab a2 e9 3d
       0.067923926 0.05943724 0.024772229 0.114079796
000330 37 95 f4 3d a2 e2 38 bb 6d 6d f4 bd 1d 6c a4 bb
       0.11942523 -0.0028211256 -0.11934934 -0.005017771
000340 d9 2a a7 3d 4b 71 1e bd 43 d8 87 bd 61 a3 47 3d
       0.081624694 -0.038682263 -0.066330455 0.048739795
000350 95 5d 3c 3d e9 0b d1 bc 0e 35 74 3c e0 4d 8d 3b
       0.045987684 -0.025518375 0.014905227 0.004312262
000360 6d 7f 39 3c 29 47 04 bd cd a2 a6 bb ab 2b 53 3d
       0.011321885 -0.032294426 -0.0050853253 0.051555317
000370 28 9c 0a 3e 90 90 e1 3d b9 62 de bb f6 3e ff 3c
       0.13536131 0.11013901 -0.006786671 0.031157952
000380 09 d3 a6 bb 40 2f 35 3d ed 8c 3f 3c 25 b7 9d 3d
       -0.0050910753 0.044234514 0.011691314 0.07700948
000390 8c 9f 53 bc 02 2a 4a 3d 34 ef 9d bd 32 3a 0e bd
       -0.012916457 0.049356468 -0.0771164 -0.034723468
0003a0 6c 4c bf bc 21 93 1a 3c 74 53 03 be bb cc b3 bd
       -0.02335187 0.009434492 -0.12824804 -0.087792836
0003b0 86 9f 01 3e 54 4e 57 3d ca b1 46 bc 8e 33 d4 3d
       0.1265851 0.052564934 -0.012127349 0.10361396
0003c0 d1 7d 1d be 34 88 84 3d f2 b2 74 3c 98 09 0f 3d
       -0.15380026 0.06471291 0.014935242 0.03492126
0003d0 1d d3 83 bd de cd 85 bd 44 0e 45 3d 5b ef 99 bb
       -0.06436751 -0.06533407 0.048109308 -0.004697723
0003e0 a6 63 7f 3d 04 58 44 3d d7 74 e3 3b e6 c7 52 be
       0.06235089 0.0479355 0.0069414186 -0.20584068
0003f0 0f 85 d0 bc 1f 14 82 bd e7 dd be 3d 75 c0 9e 3d
       -0.025454072 -0.06351494 0.09319668 0.07751552

action_model._discrete_distribution.branches.0.bias f4 [7]
000000 25 8a f5 3c bc 46 88 bc 91 3c 60 3d a0 00 66 be
       0.029973099 -0.016635291 0.05474526 -0.22461176
000010 87 55 43 bd 67 81 17 bb e1 72 71 3c
       -0.047688987 -0.0023117901 0.014736862

exp_avg f4 [128, 163]
000000 30 1a 09 b4 5b 74 48 39 b8 fe 1a 38 e8 8c 21 b7
       -1.2768646e-07 0.00019116832 3.6953687e-05 -9.629155e-06
000010 ab 84 19 39 aa 4c 0b b5 24 fd 8c 39 ae 76 e4 38
       0.0001464064 -5.1893096e-07 0.00026891485 0.00010893993
000020 f7 dc 19 ba 41 2c af b9 98 4b f8 b3 d8 f6 ea 38
       -0.0005869413 -0.00033411573 -1.156215e-07 0.00011203968
000030 76 1c c8 38 9d 3b e8 b8 c2 d2 9e 38 aa cf 06 b5
       9.5420444e-05 -0.00011073726 7.573284e-05 -5.022108e-07
000040 2e ed 47 39 01 c3 5f 39 2b 53 b2 b9 5e 8b aa b9
       0.00019066475 0.00021339582 -0.0003401277 -0.00032528763
000050 0f e1 60 b3 6e 60 de b8 22 05 33 b8 37 b0 3e 39
       -5.2358754e-08 -0.00010603746 -4.2681706e-05 0.00018185457
000060 83 ad 71 39 31 73 06 b5 e6 f6 21 39 90 6a 82 39
       0.00023048189 -5.0086516e-07 0.00015446133 0.00024874927
000070 9d 11 b0 b9 c1 5b 7e b9 44 1b 0d 32 00 d3 05 36
       -0.0003358246 -0.00024257509 8.21348e-09 1.9941363e-06
000080 d3 a1 2c b9 91 9c 1d 39 b6 09 6c 39 ef 6d 03 b5
       -0.00016463482 0.00015031012 0.00022510331 -4.896128e-07
000090 f9 e8 ab b8 12 68 a2 39 83 06 45 38 2d 13 8c b8
       -8.19731e-05 0.00030976586 4.6974525e-05 -6.679292e-05
0000a0 1c f8 e8 31 29 0f c9 38 da 6f 67 b9 a0 74 d8 39
       6.7802954e-09 9.587251e-05 -0.00022071545 0.00041285623
0000b0 98 ac 15 38 09 00 f5 b4 3a 4c 32 b9 32 47 7c 39
       3.568511e-05 -4.5634832e-07 -0.000170038 0.00024059115
0000c0 5c ad 86 b8 e3 bf 16 39 84 24 51 32 aa b8 f4 38
       -6.4219086e-05 0.00014376598 1.2173704e-08 0.00011669223
0000d0 6f 13 2c b9 9d 37 04 3a 06 65 19 38 b2 42 d3 b4
       -0.00016410438 0.00050436874 3.6572128e-05 -3.935034e-07
0000e0 90 f4 9e 37 85 e7 a1 39 69 fa ad 38 2d 6f c2 39
       1.8948951e-05 0.00030880808 8.295925e-05 0.00037085396
0000f0 d0 1c 38 33 82 4e 03 39 af c4 cb 37 1e 39 31 39
       4.2867043e-08 0.0001252238 2.4291074e-05 0.00016901313
000100 6b 3c ac 38 f4 05 a9 b4 ea 54 75 39 cd 9a 7f 39
       8.212853e-05 -3.1483034e-07 0.00023396654 0.00024376363
000110 c8 03 77 b7 e2 10 94 39 c4 4a 5d 32 4c ad 9d 39
       -1.4723228e-05 0.00028241338 1.2880893e-08 0.0003007449
000120 5e 92 c0 b8 24 2d da 39 69 99 f6 39 4e 1c 7b 33
       -9.1825365e-05 0.00041613833 0.00047035076 5.8466235e-08
000130 66 9c 55 39 ff 8f 98 39 af 8d 1c 3a 6a 83 57 3a
       0.00020371526 0.00029098985 0.000597204 0.00082211813
000140 a8 3b f9 32 1e a8 5c 38 60 5f bc b8 ac c6 4a 3a
       2.9014544e-08 5.260866e-05 -8.9823036e-05 0.0007735293
000150 e6 2e 3b 3a 87 f7 82 33 5b 2f e5 38 55 d0 91 39
       0.00071404723 6.098622e-08 0.000109283916 0.00027811775
000160 b8 2a 21 37 bd ac a2 39 80 47 a6 33 a2 15 2e b7
       9.606294e-06 0.00031027748 7.742983e-08 -1.0376245e-05
000170 46 63 bd 38 1b 18 0c 3a 68 7e f7 39 87 e3 7a 33
       9.0307134e-05 0.0005344168 0.0004720569 5.8414596e-08
000180 f0 5c 32 37 23 9d b8 b9 30 38 b6 39 a6 2f 6f 38
       1.06312655e-05 -0.0003521229 0.00034755608 5.7026416e-05
000190 02 28 b8 33 6c 77 64 39 01 91 b0 b8 29 a0 a6 39
       8.575445e-08 0.00021788263 -8.419343e-05 0.00031781316
0001a0 7a 4b c0 39 bf bc 5f 33 e8 8a 55 39 c0 dc 31 ba
       0.00036677328 5.2092897e-08 0.0002036501 -0.00067849085
0001b0 b4 7a 80 39 56 56 db 38 86 71 c9 32 1b 19 c6 39
       0.00024505483 0.00010458815 2.3451104e-08 0.00037784208
0001c0 cd 13 8c b9 4e 99 2e 39 20 2c 3b 39 3b de 81 33
       -0.00026717634 0.00016651044 0.00017850148 6.047454e-08
0001d0 5c 09 35 37 e0 67 83 b9 8b 39 93 39 a9 0c 03 39
       1.079062e-05 -0.0002506366 0.00028080898 0.0001249785
0001e0 e1 68 55 33 89 5d 5f 39 9a 6e ec b8 4e 08 a7 39
       4.9688314e-08 0.00021301782 -0.00011273958 0.0003185891
0001f0 72 7e 9a 39 7b 53 0f 33 ce 8c a7 38 fe 96 eb b9
       0.00029467378 3.3370707e-08 7.9894075e-05 -0.0004493519
000200 98 ee 3a 39 60 ea bc 37 f6 b2 1a 33 7e 34 85 39
       0.00017827225 2.2520486e-05 3.6018683e-08 0.00025406847
000210 9f 1c 16 39 88 89 f0 38 17 7a c1 39 63 3f ce 32
       0.00014315777 0.00011469709 0.00036902793 2.4010381e-08
000220 d0 68 f4 35 b4 14 15 ba 32 42 02 3a b0 16 27 b8
       1.8209921e-06 -0.0005686984 0.00049689703 -3.9837032e-05
000230 fb a0 26 b3 60 d1 bc 39 82 ef 44 39 aa 6c ee 38
       -3.8796298e-08 0.0003601415 0.0001878124 0.000113689646
000240 df 15 c0 39 58 28 7d b2 75 34 0c 39 d2 6e b6 39
       0.0003663739 -1.4735711e-08 0.00013370982 0.00034796313
000250 30 ab 6a 39 9f 0d 01 3a 58 28 7d b2 75 34 0c 39
       0.00022379751 0.0004922989 -1.4735711e-08 0.00013370982
000260 d2 6e b6 39 30 ab 6a 39 a0 0d 01 3a f0 e7 c8 b6
       0.00034796313 0.00022379751 0.000492299 -5.9874656e-06
000270 be 16 c6 b9 71 ef 16 b9 5a 3f 03 3d 73 54 fd 37
       -0.00037782447 -0.00014394314 0.03204284 3.0199275e-05
000280 7c 87 28 38 f9 e8 12 38 c2 f0 87 38 69 11 f6 b1
       4.01805e-05 3.5026085e-05 6.482146e-05 -7.1615216e-09
000290 e2 93 52 b8 60 ea 22 38 c1 9e 23 b9 48 47 6f b9
       -5.020563e-05 3.884209e-05 -0.00015604032 -0.0002281937
0002a0 2d b7 72 33 90 25 c6 b6 6e 35 10 37 af 46 e7 b9
       5.6511613e-08 -5.9052327e-06 8.595509e-06 -0.00044112417
0002b0 08 42 16 ba 4e b4 37 b2 b9 f7 b7 b8 b3 c0 09 38
       -0.00057318853 -1.06929985e-08 -8.772262e-05 3.284281e-05
0002c0 1f 36 bc b8 15 dc 61 b9 67 37 e4 33 d5 19 43 b8
       -8.9746194e-05 -0.00021539659 1.0627155e-07 -4.651568e-05
0002d0 7b 04 25 38 21 b5 8f b9 73 e0 0e ba c3 8f 87 b2
       3.934324e-05 -0.00027410037 -0.00054503157 -1.5781444e-08
0002e0 72 50 53 b9 1a 1e e7 37 c9 60 39 38 58 bb 8d b8
       -0.00020152496 2.7551363e-05 4.4197575e-05 -6.7582994e-05
0002f0 9f 77 da 33 68 53 ae b8 a9 2f aa 38 24 32 26 b9
       1.0173175e-07 -8.312502e-05 8.115109e-05 -0.00015849672
000300 ea 03 cb b9 1f f8 d2 b1 d0 2e 19 b9 1b 63 ae 37
       -0.00038722093 -6.1400125e-09 -0.00014608656 2.0788566e-05
000310 44 e3 dd b7 e4 fe ab b8 e0 2f de 33 53 b5 3c b9
       -2.6451082e-05 -8.2013925e-05 1.0346389e-07 -0.00017996626
000320 88 69 b6 38 76 41 fd 37 f6 e0 90 b9 de f0 7c b1
       8.698093e-05 3.0190433e-05 -0.0002763343 -3.6807744e-09
000330 88 d6 13 b8 5d 16 52 b7 92 7b 33 b8 d6 79 a7 b9
       -3.524733e-05 -1.2522182e-05 -4.279201e-05 -0.00031943497
000340 9b aa 0c 34 36 dd 9d b8 f5 e7 e0 38 d4 f1 91 b7
       1.3100582e-07 -7.527547e-05 0.00010724358 -1.7397957e-05
000350 4e b2 e4 b7 6d 74 95 b3 0c 5d b7 b6 d8 20 20 37
       -2.7262748e-05 -6.959531e-08 -5.464657e-06 9.54439e-06
000360 3a 91 ff 37 1f 4e 8f b9 c6 fc 2c 34 0d e7 d3 b8
       3.0465995e-05 -0.0002733329 1.6110707e-07 -0.000101043006
000370 08 65 5e 39 02 13 ac b8 48 40 f5 b7 b0 f5 c2 b3
       0.00021209207 -8.2051396e-05 -2.923621e-05 -9.078519e-08
000380 b2 e4 97 38 38 77 f8 34 bc 54 a4 b7 b7 51 3f b9
       7.242839e-05 4.6280343e-07 -1.9589781e-05 -0.0001824562
000390 18 1a ef 33 2f d5 80 b8 d9 34 5f 39 1e f1 53 b9
       1.1134051e-07 -6.143224e-05 0.00021286625 -0.00020212351
0003a0 0c 86 a1 b8 50 08 fe b3 9e 63 37 39 0d c9 90 b8
       -7.7020464e-05 -1.1829309e-07 0.0001748935 -6.903904e-05
0003b0 f7 19 cf 38 2d bd 0f 38 f8 49 a3 33 a8 1a 5f b8
       9.8753655e-05 3.427004e-05 7.603734e-08 -5.319217e-05
0003c0 eb 07 2d 39 9c 6b ba 39 28 99 6d 39 7a ac 0b b4
       0.00016501515 0.0003555686 0.00022659136 -1.300813e-07
0003d0 f8 54 3f 38 10 ff fd b8 fe bb 68 39 ec 8d 3e 39
       4.5617082e-05 -0.00012111489 0.00022195277 0.00018172682
0003e0 71 b0 9f 33 90 75 19 b9 65 ae 33 39 7f fb f7 38
       7.436109e-08 -0.00014635012 0.00017135737 0.000118247226
0003f0 83 2e 0d b8 a7 f0 0d b4 68 2e 02 38 c2 1f ae b7
       -3.3660337e-05 -1.3219197e-07 3.1037634e-05 -2.0757205e-05

exp_avg_sq f4 [128, 163]
000000 6e 70 02 33 e8 37 71 35 85 a1 e4 35 03 8d 9d 36
       3.0370238e-08 8.986085e-07 1.7034332e-06 4.6953805e-06
000010 4f 46 03 37 34 99 af 32 ea e0 9f 35 7a 71 f5 35
       7.8245785e-06 2.044235e-08 1.1911882e-06 1.8286948e-06
000020 1e 56 ac 36 54 6b 13 37 ea ef fb 32 cd 90 57 35
       5.136025e-06 8.786872e-06 2.9329346e-08 8.0304454e-07
000030 60 3f dc 35 5c 7e 7b 36 48 34 dd 36 a7 13 94 32
       1.6409722e-06 3.7475465e-06 6.5923996e-06 1.7238404e-08
000040 3f 75 d2 35 43 0a f6 35 b9 59 a7 36 35 cf 1b 37
       1.5680342e-06 1.8331415e-06 4.987433e-06 9.286964e-06
000050 43 13 ff 32 ad 0d 7f 35 68 15 cd 35 33 23 52 36
       2.9694666e-08 9.5014803e-07 1.527992e-06 3.1312927e-06
000060 7f 3f c5 36 18 5b 6d 32 a8 dc 10 36 10 ac 0e 36
       5.8784494e-06 1.3815928e-08 2.158611e-06 2.1259802e-06
000070 c3 3e 94 36 d7 60 19 37 1d 42 04 33 6b cc 9e 35
       4.41805e-06 9.142058e-06 3.0793775e-08 1.1831411e-06
000080 7d 4a bc 35 fb 20 48 36 e3 18 ba 36 bd 4d 3c 32
       1.402877e-06 2.982152e-06 5.546129e-06 1.0960716e-08
000090 37 ad 40 36 b5 88 1f 36 94 00 80 36 cd 88 17 37
       2.8711054e-06 2.377242e-06 3.8147646e-06 9.032153e-06
0000a0 3e 72 f8 32 3e 09 aa 35 a0 93 a0 35 5f a6 4f 36
       2.8922951e-08 1.2668677e-06 1.1963893e-06 3.0942244e-06
0000b0 c0 79 be 36 2a 9d 3a 32 2e b4 5b 36 e8 b3 1e 36
       5.676615e-06 1.086236e-08 3.2738421e-06 2.3648554e-06
0000c0 82 fb 50 36 2f c7 14 37 85 87 e0 32 36 26 b4 35
       3.1140812e-06 8.8678635e-06 2.613866e-08 1.3422166e-06
0000d0 18 2b 8d 35 00 84 62 36 a3 c0 c8 36 f7 40 42 32
       1.0517861e-06 3.3753458e-06 5.9828903e-06 1.13070575e-08
0000e0 c5 a5 74 36 1f 1b 20 36 99 da 3c 36 e9 68 10 37
       3.6455324e-06 2.3857644e-06 2.8141424e-06 8.607495e-06
0000f0 e3 0a cd 32 25 59 ad 35 6b 3b 97 35 3d 42 79 36
       2.3870092e-08 1.2915449e-06 1.126767e-06 3.7142447e-06
000100 ac 31 e1 36 5f 75 31 32 6d 5d 86 36 c9 cf 1c 36
       6.711305e-06 1.0329443e-08 4.0043874e-06 2.3366758e-06
000110 1e d3 3f 36 a1 7a 11 37 2a 3b 77 32 68 b2 9c 35
       2.8584104e-06 8.671225e-06 1.4390745e-08 1.1674829e-06
000120 aa bf 93 35 59 c2 9d 36 31 be 02 37 53 bb 12 32
       1.1008135e-06 4.7015897e-06 7.792886e-06 8.540911e-09
000130 6e 69 7e 36 9d 60 21 36 fd f3 51 36 8c 3d 15 37
       3.7910318e-06 2.4047106e-06 3.1285447e-06 8.895422e-06
000140 12 a7 5f 32 e0 c8 9c 35 2f 34 89 35 5b f7 c5 36
       1.3018296e-08 1.1681368e-06 1.0222483e-06 5.8998535e-06
000150 82 b1 17 37 48 35 34 32 b0 07 76 36 01 3a 28 36
       9.041631e-06 1.0489494e-08 3.6661331e-06 2.5067714e-06
000160 8a cf 5d 36 e9 e8 18 37 5d 94 3c 32 f2 25 a9 35
       3.305237e-06 9.114135e-06 1.0976774e-08 1.2602525e-06
000170 0c c1 67 35 70 e6 dd 36 6d e9 26 37 a3 47 40 32
       8.6335126e-07 6.6131397e-06 9.94872e-06 1.1192159e-08
000180 aa fb 66 36 d2 ff 2d 36 6c 0d 7f 36 c6 ed 20 37
       3.4419159e-06 2.5927916e-06 3.8005774e-06 9.592104e-06
000190 09 d4 27 32 60 34 b8 35 3f ad 4d 35 8f 52 ef 36
       9.768891e-09 1.3724311e-06 7.662056e-07 7.132366e-06
0001a0 0e cd 30 37 29 fb 61 32 40 84 38 36 44 48 29 36
       1.05381605e-05 1.3153831e-08 2.7495116e-06 2.5225027e-06
0001b0 1d 87 a3 36 86 3b 2d 37 b9 1c 16 32 5e 67 ac 35
       4.873508e-06 1.0325462e-05 8.73768e-09 1.2845082e-06
0001c0 77 f2 2c 35 3b 6b 00 37 6e ca 36 37 b7 6c 64 32
       6.4427826e-07 7.654361e-06 1.0895177e-05 1.3296066e-08
0001d0 b6 8e 10 36 64 fd 11 36 ce 7c ce 36 f9 69 3a 37
       2.154074e-06 2.1754176e-06 6.1538076e-06 1.1111138e-05
0001e0 1f 36 10 32 18 72 b1 35 93 2d 31 35 59 db f7 36
       8.394209e-09 1.3220733e-06 6.600396e-07 7.386709e-06
0001f0 f2 f9 39 37 ba 4c 55 32 3d b2 c7 35 6d 66 ea 35
       1.1085054e-05 1.2415677e-08 1.487853e-06 1.7464168e-06
000200 e4 f1 fd 36 86 ce 44 37 ad f5 10 32 2c ce b5 35
       7.5681473e-06 1.1730595e-05 8.437763e-09 1.3545555e-06
000210 dc 9c 23 35 2a 54 00 37 a1 9d 3f 37 a5 23 4b 32
       6.095049e-07 7.6489905e-06 1.1421188e-05 1.182426e-08
000220 b5 8c 8e 35 88 3c b7 35 3b fd 0b 37 39 a3 4c 37
       1.0620776e-06 1.3652179e-06 8.344005e-06 1.2197351e-05
000230 23 4d 2d 32 7c 1c 8b 35 1e 71 26 35 30 61 10 37
       1.0087464e-08 1.0364597e-06 6.2004426e-07 8.605697e-06
000240 13 e9 4a 37 27 95 22 32 0c 79 5a 35 23 c2 66 35
       1.2094405e-05 9.463554e-09 8.1387475e-07 8.5964183e-07
000250 04 50 1f 37 23 f4 52 37 27 95 22 32 0c 79 5a 35
       9.495769e-06 1.2573818e-05 9.463554e-09 8.1387475e-07
000260 23 c2 66 35 04 50 1f 37 23 f4 52 37 b9 7e 16 36
       8.5964183e-07 9.495769e-06 1.2573818e-05 2.2425504e-06
000270 cb 4d 4a 37 bd e8 eb 35 8b c5 a3 3d 68 28 49 36
       1.2058251e-05 1.75766e-06 0.07996663 2.9974854e-06
000280 29 15 51 36 7d 88 ed 36 92 70 09 37 13 d1 4f 31
       3.1155744e-06 7.0790397e-06 8.192046e-06 3.024131e-09
000290 9b ce c7 34 ce 92 15 35 08 6e d7 35 a5 ff 1f 36
       3.7216964e-07 5.5720454e-07 1.6050772e-06 2.384165e-06
0002a0 82 57 42 31 96 71 0e 35 71 d2 27 35 d5 58 e8 35
       2.8280458e-09 5.306441e-07 6.251858e-07 1.73112e-06
0002b0 1b 4d 31 36 f4 5f 5e 31 95 68 b9 34 88 c0 0a 35
       2.6419937e-06 3.2359795e-09 3.453503e-07 5.1689176e-07
0002c0 38 ee a3 35 3d 0c 04 36 16 4b 32 31 0d d6 32 35
       1.2213777e-06 1.9676656e-06 2.594509e-09 6.662165e-07
0002d0 47 80 2b 35 d1 19 d3 35 ae 0c 39 36 78 5b 62 31
       6.388913e-07 1.5728239e-06 2.7574529e-06 3.2939322e-09
0002e0 86 30 da 34 66 55 04 35 f3 9b 88 35 09 84 e8 35
       4.064097e-07 4.9298103e-07 1.0178177e-06 1.7323774e-06
0002f0 09 fa 64 31 2a fe 72 35 a1 76 3a 35 a2 1e ad 35
       3.3320495e-09 9.052188e-07 6.946303e-07 1.289842e-06
000300 47 c0 31 36 ef 95 70 31 05 cd 05 35 08 8f ed 34
       2.6486975e-06 3.5009824e-09 4.9844704e-07 4.424876e-07
000310 d3 4e 7c 35 20 a5 e0 35 c7 34 6c 31 da 99 92 35
       9.399202e-07 1.6737358e-06 3.437252e-09 1.0922624e-06
000320 2f 17 47 35 92 68 9b 35 b5 b3 2b 36 a7 29 6c 31
       7.4167014e-07 1.1578834e-06 2.558559e-06 3.4366197e-09
000330 d3 bd 10 35 07 98 c2 34 27 2c 96 35 87 a3 f3 35
       5.392041e-07 3.624593e-07 1.1188721e-06 1.8152504e-06
000340 99 d0 8a 31 06 7d a1 35 6d c1 37 35 25 68 88 35
       4.0400434e-09 1.2031821e-06 6.8454284e-07 1.01631e-06
000350 da f4 27 36 57 bd 5f 31 90 73 19 35 b4 aa ae 34
       2.5027462e-06 3.2558398e-09 5.7165107e-07 3.2534228e-07
000360 57 35 98 35 ab 3c 01 36 3a 7e 96 31 b3 0a b8 35
       1.1340406e-06 1.9257811e-06 4.379925e-09 1.3712182e-06
000370 cf 8b 2b 35 90 60 72 35 5d 56 23 36 ef 5e 58 31
       6.390591e-07 9.029254e-07 2.4339163e-06 3.14861e-09
000380 e4 d5 0b 35 26 62 b6 34 66 03 a5 35 f2 cd 0b 36
       5.2092787e-07 3.3971554e-07 1.2294447e-06 2.083249e-06
000390 dc 89 89 31 ab c9 c7 35 33 39 31 35 98 18 70 35
       4.0028976e-09 1.4885348e-06 6.6020874e-07 8.9442756e-07
0003a0 91 7e 25 36 77 2c 54 31 c6 c1 01 35 5d cb c5 34
       2.4660587e-06 3.0875336e-09 4.833822e-07 3.6842076e-07
0003b0 1d 41 c4 35 34 45 1f 36 97 b8 b0 31 9e e4 bc 35
       1.4622088e-06 2.3733128e-06 5.1432596e-09 1.4073628e-06
0003c0 0d 82 4c 35 29 d6 7a 35 c8 78 2b 36 8b 40 6b 31
       7.618517e-07 9.34439e-07 2.555129e-06 3.423369e-09
0003d0 18 c0 fe 34 4f 0e be 34 fb 52 eb 35 46 c1 32 36
       4.7450953e-07 3.540067e-07 1.7533015e-06 2.6636567e-06
0003e0 75 18 cc 31 d5 02 a7 35 3b f2 61 35 f2 bd 8f 35
       5.939962e-09 1.2443294e-06 8.4171523e-07 1.0709612e-06
0003f0 20 e8 34 36 99 d5 b3 31 5f 10 03 35 f8 5a 99 34
       2.6957205e-06 5.233869e-09 4.8825126e-07 2.856466e-07

exp_avg f4 [128]
000000 86 a6 91 38 ff 65 ce b9 53 a7 a8 b9 bc d8 36 b9
       6.945156e-05 -0.00039367375 -0.00032168123 -0.00017437612
000010 2d b7 21 3a ef 71 83 b9 a2 43 4f ba 6c 6b f8 38
       0.0006168958 -0.00025071154 -0.00079065014 0.000118455704
000020 00 b3 b9 37 3a 93 50 b9 10 50 d2 b8 4c e0 7a 39
       2.2137072e-05 -0.00019891272 -0.00010028493 0.00023925415
000030 28 78 e5 39 06 3e f1 b8 b8 05 ce b7 c6 25 0a ba
       0.00043767807 -0.00011503328 -2.4559777e-05 -0.0005269911
000040 8f fd e9 39 b8 47 20 3a a7 1c e3 b8 b2 63 1d b8
       0.0004463014 0.00061142026 -0.000108295404 -3.7524565e-05
000050 bc d3 aa 38 81 04 f4 39 57 a4 02 ba 26 37 23 ba
       8.14567e-05 0.00046542662 -0.0004983595 -0.00062261743
000060 36 97 31 39 ed fe ae b9 17 50 93 39 f6 30 22 39
       0.00016936366 -0.000333778 0.00028097696 0.00015467763
000070 b6 01 51 b7 40 36 d5 38 20 bd 62 ba 78 aa 1b 3a
       -1.2457769e-05 0.00010166736 -0.00086493976 0.00059381826
000080 8e 0c 16 b6 b9 d2 fd 37 4c d2 68 ba 73 41 0b ba
       -2.235905e-06 3.0258076e-05 -0.00088814343 -0.0005312182
000090 3c 99 36 39 fb 89 bb 39 1d af 0d 3a 12 ed 10 b9
       0.00017413957 0.00035770223 0.0005404817 -0.00013821226
0000a0 d0 dc 6c 39 f0 d3 be b6 00 d8 cb b7 5b 09 94 39
       0.00022588973 -5.687114e-06 -2.4300069e-05 0.0002823573
0000b0 c3 a7 42 ba ef 32 c8 38 9c 4b 54 39 61 76 b6 b9
       -0.0007425511 9.54623e-05 0.00020246062 -0.00034801944
0000c0 a2 d2 5e 39 a7 c8 6b b8 f1 b2 2a b9 2a 53 8d b9
       0.00021250037 -5.6215238e-05 -0.00016279124 -0.00026955578
0000d0 d9 2d 08 39 bc 3a 86 b8 fc 0a c7 b8 1a 0a 03 39
       0.0001298705 -6.400558e-05 -9.4911054e-05 0.00012496897
0000e0 be ea 80 39 94 0b 48 b9 9b 69 bb b7 76 28 11 b9
       0.0002458896 -0.000190778 -2.2341314e-05 -0.0001384335
0000f0 21 3c 78 39 05 0d 24 3a 30 46 fb 38 17 04 2d b8
       0.00023673523 0.00062580436 0.00011981686 -4.1250223e-05
000100 f8 dc cc b9 b2 f9 23 ba d4 b1 3a b9 6e 16 a7 38
       -0.00039074547 -0.0006255164 -0.00017804588 7.9673584e-05
000110 34 61 b3 b9 ba e1 5d 3a 8e 63 33 3a 84 97 b8 39
       -0.00034213962 0.0008464117 0.0006843143 0.00035208103
000120 87 fa ed b9 49 ea 00 b8 00 20 fc 31 a8 e2 9f 39
       -0.0004539082 -3.0735773e-05 7.3378033e-09 0.00030495715
000130 ec 37 d1 b7 e0 8c 9c b6 dd 8f 2e 39 eb 2e 87 b9
       -2.4940782e-05 -4.6655623e-06 0.00016647526 -0.00025784163
000140 de d3 79 39 ee 72 ad 39 2e d5 99 b9 76 36 1a 39
       0.00023825417 0.0003308276 -0.00029341265 0.00014706873
000150 aa 0f aa 38 cc 5d 43 39 46 b4 2b b8 fe fa 21 38
       8.109149e-05 0.00018631591 -4.093747e-05 3.8619146e-05
000160 e0 bc 3b 38 d4 2e 4b ba a0 4f 4e b7 d8 9e 6b b9
       4.4760178e-05 -0.00077508134 -1.2297096e-05 -0.0002247052
000170 f2 68 4a 39 c0 bf a6 b9 a4 0d db b6 ea 74 d5 b9
       0.00019303316 -0.00031804852 -6.5282966e-06 -0.00040713634
000180 fc 56 cb b8 76 a8 92 37 fa cd a6 b7 68 9c 32 b9
       -9.6959964e-05 1.7483002e-05 -1.9884657e-05 -0.00017033669
000190 91 a5 cb 37 fe 5a b3 b8 6d f8 18 b8 98 30 c1 39
       2.4276584e-05 -8.552334e-05 -3.647099e-05 0.00036848034
0001a0 11 4f 1f b8 04 24 4a b9 17 a1 24 ba 08 70 21 3a
       -3.798219e-05 -0.00019277638 -0.0006280108 0.00061583566
0001b0 23 44 07 38 ce 6c fe 37 21 6f 04 38 85 86 28 b9
       3.2249965e-05 3.0329826e-05 3.157475e-05 -0.00016071841
0001c0 30 9f bb 38 ab d9 68 38 fc 49 04 ba ac ad 37 39
       8.946506e-05 5.551583e-05 -0.0005046425 0.00017516938
0001d0 38 db bc b9 2e b9 8d 37 10 a6 57 b9 b3 88 b5 38
       -0.00036021485 1.689474e-05 -0.00020565861 8.656215e-05
0001e0 7e aa 06 3a 96 32 cd b7 d6 90 e2 39 1e 63 90 b9
       0.00051370997 -2.446146e-05 0.0004321399 -0.00027539668
0001f0 48 c1 d9 b9 90 cf ce b8 12 b6 81 b9 c1 7d 16 ba
       -0.0004153347 -9.861507e-05 -0.0002474045 -0.00057407847
