Trained_Policies/WeightAgent_Training/WeightAgent_Training/WeightAgent_Training-7427720.onnx (onnx, 155824 bytes, 6 tensors)

network_body._body_endoder.seq_layers.0.weight f4 [128, 163]
-0.0056039165 -0.03575843 0.19061784 0.22668085 0.08016786 -0.0068568047 0.1278714 0.06620359
0.039652668 -0.0390209 -0.034780264 0.01178822 0.1458199 0.11532467 -0.038640585 0.0024855589
0.10608295 0.041740164 -0.00075561384 0.0052774814 -0.06896221 -0.05988091 0.36576337 -0.2760225
-0.067921504 -0.0017718474 0.09278924 0.08972956 -0.09613786 0.055994287 0.064616136 -0.0978207
0.21696661 -0.10043056 -0.24399434 -0.10013676 -0.17043051 -0.0038493718 -0.22209446 0.07574285
-0.034149684 0.12120054 0.19609287 0.016251178 -0.048650727 0.041118454 0.015602717 0.0049854736
-0.008119041 0.11111192 0.07784167 -0.082687266 0.28424445 -0.25050384 -0.17660499 -0.058215283
-0.10210705 0.011255461 0.06860932 -0.006816572 -0.03328333 -0.14559779 0.37195495 0.097389445
-0.12694219 -0.069121376 -0.16965637 0.046603918 0.034577478 0.19704948 -0.016315399 -0.019857137
0.16249408 -0.04590032 0.23038317 -0.0086023 -0.2464601 0.011649807 0.12950844 0.12502354
-0.040003024 0.1031525 0.12979972 -0.08425247 -0.00586579 0.07264445 -0.14777519 0.09206207
-0.049579915 0.14802127 -0.13516127 0.02303607 -0.049012076 0.000120784054 -0.09447275 0.094513014
-0.022150047 0.013790583 0.046474297 0.15555316 0.08322268 0.18414563 -0.0654522 -0.01294299
0.08558716 0.07075037 -0.16345716 -0.027498234 -0.092112824 -0.087620184 0.10883622 0.024758238
0.14295037 -0.16135137 -0.2164755 0.10948298 0.057349842 0.10014136 0.105519354 -0.02013446
0.037935022 0.10062209 -0.034454644 0.045383852 -0.07495207 0.24526756 -0.041005157 -0.0003510253
-0.1398684 -0.061004087 0.02405251 0.19798467 -0.14491428 0.007379171 0.021227008 -0.06889632
-0.11037077 0.067250334 -0.11048204 -0.098469585 0.039636668 0.021013124 -0.061893582 -0.009217803
0.22110376 0.1561204 -0.09362625 -0.0034767736 0.108139314 -0.04377931 0.22337334 -0.05284313
0.038364742 0.0065116487 -0.08027865 -0.035879754 0.07752015 -0.100145206 0.012756596 -0.06828934
0.008680984 -0.008710006 -0.062402535 -0.05038378 -0.045203414 0.06705662 0.026881153 -0.14017275
-0.046475623 -0.075368986 0.044960465 -0.03013611 -0.010718413 -0.06543465 -0.14736609 0.07357047
-0.10869486 -0.23069581 -0.0383288 -0.09685555 0.24681081 0.1162529 0.10854967 0.13461019
-0.21149965 0.07238734 0.0069785537 -0.08701502 -0.023214372 0.019882156 -0.04169281 -0.07188325
-0.0063288053 0.04191395 0.01602287 0.107662566 -0.100313544 -0.10975019 0.025281413 -0.18121843
0.15531579 -0.07315197 0.14941129 -0.023019772 0.011968773 -0.02306547 -0.006466776 -0.2504225
0.06757366 -0.17881843 0.04896509 0.008935519 -0.018522173 -0.08825905 0.11795542 0.11487832
-0.3008002 -0.12942989 -0.10246978 0.10726019 0.022919042 -0.021640724 0.106885485 -0.13149814
0.123728216 -0.10461498 -0.03543674 -0.2159271 -0.021885123 -0.038132943 0.04928197 0.07732286
0.023262603 -0.10567182 0.019122576 -0.07653852 -0.053440243 -0.14495806 -0.07606206 -0.1380077
0.12651846 -0.032667413 0.052959464 -0.024740024 -0.06505274 0.029001422 -0.1460076 -0.18728119
-0.0012595601 -0.07275877 -0.066574246 -0.007125563 0.06673255 -0.04333276 0.12142648 -0.13890655
00000000: 0fa1 b7bb 6e77 12bd 5331 433e 061f 683e
00000010: 0c2f a43d 0caf e0bb b8f0 023e bf95 873d
00000020: d66a 223d 61d4 1fbd c075 0ebd 6123 413c
00000030: d051 153e 572f ec3d 9745 1ebd c2e4 223b
00000040: 0542 d93d bcf7 2a3d 6314 46ba b9ee ac3b
00000050: 0f3c 8dbd af45 75bd 5645 bb3e d252 8dbe
00000060: 6e1a 8bbd 553d e8ba 4908 be3d 22c4 b73d
00000070: ede3 c4bd 445a 653d 7755 843d 3856 c8bd
00000080: 7f2c 5e3e 8aae cdbd a7d9 79be 8014 cdbd
00000090: 5685 2ebe be45 7cbb bb6c 63be 111f 9b3d
000000a0: 8ae0 0bbd fd37 f83d 92cc 483e 3121 853c
000000b0: fc45 47bd d36b 283d 8aa2 7f3c 2f5d a33b
000000c0: ba05 05bc a58e e33d 746b 9f3d f157 a9bd
000000d0: 7d88 913e 0a42 80be f0d7 34be 2673 6ebd
000000e0: 801d d1bd d368 383c 0b83 8c3d 8d5d dfbb
000000f0: 1a54 08bd 9617 15be e170 be3e 1e74 c73d
00000100: 22fd 01be 828f 8dbd 66ba 2dbe c0e3 3e3d
00000110: 1da1 0d3d 57c7 493e dfa7 85bc 6fab a2bc
00000120: d964 263e f901 3cbd 91e9 6b3e a9f0 0cbc
00000130: 0960 7cbe d5de 3e3c dc9d 043e 2c06 003e
00000140: 36da 23bd 9e41 d33d 38ea 043e 8f8c acbd
00000150: d035 c0bb 9dc6 943d 6152 17be 0a8b bc3d
00000160: 4f14 4bbd e392 173e b767 0abe 24b6 bc3c
00000170: e3c0 48bd 724d fd38 ee7a c1bd 0a90 c13d
00000180: 0474 b5bc e6f1 613c d55b 3e3d 5449 1f3e
00000190: a770 aa3d ac90 3c3e ce0b 86bd d60e 54bc
000001a0: 5248 af3d 92e5 903d 5061 27be fa43 e1bc
000001b0: a6a5 bcbd 3672 b3bd 86e5 de3d cad1 ca3c
000001c0: 9561 123e 4b39 25be c1ab 5dbe 9d38 e03d
000001d0: abe7 6a3d ea16 cd3d 881a d83d 06f1 a4bc
000001e0: c161 1b3d f412 ce3d 5020 0dbd 6be4 393d
000001f0: 7980 99bd 6b27 7b3e 06f5 27bd d109 b8b9
00000200: a939 0fbe 6cdf 79bd c509 c53c 7ebc 4a3e
00000210: 6964 14be f9cc f13b 43e4 ad3c 8419 8dbd
00000220: 120a e2bd 8bba 893d 6844 e2bd 6caa c9bd
00000230: 0f5a 223d b723 ac3c 2084 7dbd 4506 17bc
00000240: 0669 623e 07de 1f3e 1fbf bfbd 95da 63bb
00000250: 2578 dd3d ef51 33bd fbbb 643e 0a72 58bd
00000260: 5924 1d3d ab5f d53b 2269 a4bd a6f6 12bd
00000270: e2c2 9e3d ee18 cdbd 0b01 513c 48db 8bbd
00000280: b03a 0e3c 6ab4 0ebc cd99 7fbd 395f 4ebd
00000290: 3727 39bd fb54 893d dd35 dc3c 7289 0fbe
000002a0: 395d 3ebd 0e5b 9abd 7728 383d 01e0 f6bc
000002b0: 489c 2fbc 9a02 86bd 23e7 16be 1dac 963d
000002c0: 699b debd 863b 6cbe a9fe 1cbd 345c c6bd
000002d0: f9bb 7c3e 0016 ee3d 4a4f de3d 41d7 093e
000002e0: 5d93 58be d03f 943d 5aac e43b ee34 b2bd
000002f0: 112c bebc e7df a23c 14c6 2abd 8637 93bd
00000300: de61 cfbb f6ad 2b3d 6542 833c 317e dc3d
00000310: 3071 cdbd b5c4 e0bd f71a cf3c 5391 39be
00000320: 1a0b 1f3e b3d0 95bd 46ff 183e f693 bcbc
00000330: ac18 443c ccf3 bcbc 40e7 d3bb 6137 80be
00000340: 0f64 8a3d 2e1c 37be 9e8f 483d 4866 123c
00000350: d0bb 97bc 29c1 b4bd 9c92 f13d 5345 eb3d
00000360: 7c02 9abe 4589 04be addb d1bd 3bab db3d
00000370: b7c0 bb3c e347 b1bc c7e6 da3d 73a7 06be
00000380: 3865 fd3d 6140 d6bd 1d26 11bd fe1b 5dbe
00000390: 6e48 b3bc 4a31 1cbd e4db 493d 735b 9e3d
000003a0: 3791 be3c 786a d8bd f3a6 9c3c 3ac0 9cbd
000003b0: 28e4 5abd e36f 14be 6dc6 9bbd e451 0dbe
000003c0: 0e8e 013e 44ce 05bd 06ec 583d 97ab cabc
000003d0: 5f3a 85bd 6494 ed3c 0483 15be a4c6 3fbe
000003e0: d317 a5ba 8d02 95bd 1458 88bd 8e7d e9bb
000003f0: 13ab 883d b17d 31bd 72ae f83d 853d 0ebe

network_body._body_endoder.seq_layers.0.bias f4 [128]
-0.0032435418 -0.0036692736 -0.0027280485 0.0030406178 0.03236156 -0.048054267 -0.023264132 0.04870184
0.0065168524 -0.04084895 0.016052883 0.005112537 -0.010677541 0.017187975 -0.06511393 -0.0010193168
-0.076464 -0.0032880951 0.001794874 0.027389916 0.046908617 0.021994522 -0.04976333 0.023077715
0.010348782 -0.017858487 -0.025831498 0.044159543 0.0045045833 -0.009039718 0.004824446 -0.019878069
-0.061587952 0.010126987 -0.09382314 0.034604486 0.0308685 0.034767464 0.005971556 -0.037232533
0.039441243 0.008335881 -0.038465995 0.004955326 0.04795454 0.034515824 -0.053764746 -0.051268533
-0.02872017 0.04235219 -0.022045502 0.06147193 -0.027897911 0.10109019 -0.050406046 -0.026460614
-0.005061636 -0.045958452 0.022420928 -0.009033144 0.012846462 0.022938572 -0.06687142 -0.015640685
0.03781759 0.017984517 -0.008082674 0.044815704 -0.030908586 0.008131956 0.0281359 -0.029834008
-0.009603517 -0.019889122 0.09216505 0.035931777 0.059586607 -0.0555068 -0.0059879175 0.0071699866
-0.050561473 0.06511477 -0.021097563 0.014459109 -0.059389662 -0.0024072165 -0.061431527 0.02209139
0.02730749 -0.031724285 0.038755186 0.07654358 -0.016019462 0.008746508 0.03769659 0.027338857
-0.012598528 -0.06280483 0.04263689 -0.003475267 -0.03610019 0.016032489 -0.0025352554 0.0053846594
0.039340094 0.043898217 0.0037471624 -0.005131535 0.002976923 0.009334361 0.051252794 0.020616403
-0.008638511 0.03804198 0.013339379 0.0024909258 -0.0834544 0.027537452 0.044504847 0.07121955
-0.028794909 0.04673299 0.011171407 0.050220326 0.0060517937 -0.047795925 -0.056540105 -0.043636426
00000000: 9a91 54bb 3278 70bb 0fc9 32bb 1a45 473b
00000010: 8e8d 043d 8dd4 44bd 6c94 bebc 957b 473d
00000020: 528b d53b 3b51 27bd 5681 833c 1287 a73b
00000030: daf0 2ebc cccd 8c3c 745a 85bd 999a 85ba
00000040: 2899 9cbd 157d 57bb fa41 eb3a d160 e03c
00000050: 4023 403d db2d b43c a2d4 4bbd 7a0d bd3c
00000060: f08d 293c f64b 92bc 949c d3bc a3e0 343d
00000070: 2f9b 933b 531b 14bc 6316 9e3b 55d7 a2bc
00000080: a643 7cbd a9eb 253c 5926 c0bd 6fbd 0d3d
00000090: f0df fc3c 5468 0e3d 0bad c33b 2481 18bd
000000a0: 248d 213d 3893 083c 858e 1dbd 4a60 a23b
000000b0: fb6b 443d 7760 0d3d 6c38 5cbd f4fe 51bd
000000c0: 9046 ebbc 7d79 2d3d c598 b4bc fec9 7b3d
000000d0: 298a e4bc 6008 cf3d 9276 4ebd eec3 d8bc
000000e0: 15dc a5bb ee3e 3cbd 18ac b73c c1ff 13bc
000000f0: f879 523c ace9 bb3c e2f3 88bd e520 80bc
00000100: 9ee6 1a3d 4454 933c 316d 04bc ac90 373d
00000110: 0134 fdbc e53b 053c 427d e63c 7366 f4bc
00000120: 1258 1dbc 83ee a2bc 08c1 bc3d 332d 133d
00000130: 1611 743d 195b 63bd 4b36 c4bb 35f2 ea3b
00000140: 8c19 4fbd e45a 853d ccd4 acbc e6e5 6c3c
00000150: 9342 73bd 64c2 1dbb a09f 7bbd 01f9 b43c
00000160: f5b3 df3c 53f1 01bd c2bd 1e3d e1c2 9c3d
00000170: 3f3b 83bc 834d 0f3c bd67 1a3d bdf5 df3c
00000180: 0e6a 4ebc d29f 80bd 05a4 2e3d 4ec1 63bb
00000190: cbdd 13bd 9156 833c 8726 26bb cc71 b03b
000001a0: 1423 213d 9ece 333d f492 753b 7026 a8bb
000001b0: 7b18 433b 26ef 183c 73ee 513d bbe3 a83c
000001c0: 8b88 0dbc e8d1 1b3d 698d 5a3c cd3e 233b
000001d0: 24ea aabd 3996 e13c b74a 363d 8edb 913d
000001e0: 4de3 ebbc 176b 3f3d 4708 373c d4b3 4d3d
000001f0: 204e c63b a9c5 43bd 9996 67bd 1cbc 32bd

network_body._body_endoder.seq_layers.2.weight f4 [128, 128]
0.10135443 -0.015310647 -0.08041109 0.09677307 -0.012278206 -0.1208816 -0.057077784 0.15485293
-0.06753871 -0.07850685 -0.057374597 0.00667046 0.16355076 -0.04315773 -0.011663816 0.009834981
-0.17805447 0.08927602 -0.120078966 0.07230028 0.20357727 0.0110745095 0.027444813 0.023458635
0.04312233 0.047467876 0.101865046 0.008196835 0.16852705 0.029798051 0.013722998 -0.07079769
-0.0078505 0.08365817 0.037294794 -0.032793537 0.1147226 -0.029227342 0.041159783 -0.03215957
-0.0006616369 0.03956893 -0.14677563 0.08911159 0.19498186 0.119565964 -0.27387178 -0.20868951
-0.12525906 0.0061223516 0.10575553 0.1469553 -0.19017284 0.19577742 -0.19813614 -0.068453595
-0.006329756 0.009730965 -0.17662615 -0.0835834 0.03942724 0.3281535 -0.057249967 0.05157539
0.1766016 0.14199018 0.013116219 -0.13215601 0.037770495 0.069374785 0.18668678 0.10165739
-0.062052365 0.14187378 0.08041187 -0.092531286 0.12660107 -0.112851694 0.1512585 0.041186947
-0.016650049 -0.085608296 -0.0019016338 -0.24062604 -0.072120525 -0.18208475 -0.11857627 -0.07111965
-0.0053536315 -0.08277483 -0.16165335 0.15511088 -0.049238846 -0.041852124 0.025940306 -0.12065255
-0.022438768 -0.1839499 0.031516615 -0.049805585 0.03871385 -0.13888963 -0.055747427 0.010855827
0.05877818 0.018931089 -0.05986612 0.20480163 -0.06852869 -0.09570406 0.02068337 0.041605543
-0.024639603 0.015374092 -0.13714522 -0.14659151 -0.16092834 -0.33541617 0.094605386 0.13618398
-0.14636494 0.18585628 -0.070017576 -0.0077996384 0.06263612 -0.0010248341 -0.034444544 0.0044676
-0.09273497 -0.06807338 0.10407773 -0.11015879 0.10506926 0.0976859 -0.29481834 -0.032057986
0.061059207 -0.11102116 -0.09650258 -0.09702054 -0.03297862 -0.13043569 -0.15682922 -0.16012336
-0.14024955 -0.10381273 -0.12077798 0.06806159 0.12952158 0.0352187 0.03100849 -0.031982217
-0.06850065 0.01974509 -0.22264536 0.16497613 0.07044095 -0.19060616 -0.12454752 -0.26028758
-0.18160895 0.06172416 -0.10452349 0.09121109 -0.011661931 0.06891971 0.12273539 -0.19354571
-0.013301227 -0.095319904 0.12141641 -0.023473939 -0.017350312 0.16900982 -0.14879367 -0.22397836
-0.20795004 -0.13297978 -0.15581025 -0.060923897 0.05412954 0.24010812 -0.037158865 0.016166616
-0.010193261 0.044952698 -0.17001615 -0.1303407 0.13379961 -0.024918225 0.005898388 -0.05582733
-0.20601366 -0.1663582 -0.0040028463 -0.019124495 0.061047442 -0.28448018 0.009118189 -0.03816177
0.12504753 -0.16908799 0.06692413 0.19231212 -0.0012785913 -0.18116017 -0.003941971 0.1252334
-0.0902955 0.039468754 0.017714115 -0.05152351 -0.09162445 0.05035309 -0.055545773 -0.09656103
0.07826414 -0.22435136 0.08956019 0.21184908 0.020357493 -0.09426588 0.057075564 -0.16043885
-0.03624454 -0.06385842 0.15892597 0.094445355 -0.21693563 0.03775373 0.021072485 -0.033894256
0.015034759 -0.1086581 -0.03192214 0.004359065 0.13005455 0.13305514 -0.11134407 -0.004961927
-0.12753876 0.18723278 -0.18605548 -0.13729744 -0.14030522 0.18623719 0.03438957 0.12572408
-0.22578491 -0.22058782 0.001415502 0.10637388 -0.046070643 -0.08198117 0.04134906 -0.13064498
00000000: e992 cf3d 82d9 7abc 92ae a4bd f630 c63d
00000010: 872a 49bc c690 f7bd 65ca 69bd c491 1e3e
00000020: bc51 8abd 33c8 a0bd a001 6bbd e093 da3b
00000030: da79 273e 29c6 30bd 9719 3fbc e622 213c
00000040: e953 36be 59d6 b63d f6eb f5bd 2b12 943d
00000050: 8f76 503e dc71 353c f2d3 e03c 532c c03c
00000060: 0aa1 303d ad6d 423d 9f9e d03d 054c 063c
00000070: 5b92 2c3e 0b1b f43c 6dd6 603c 61fe 90bd
00000080: 629f 00bc fa54 ab3d 6dc2 183d 8452 06bd
00000090: aff3 ea3d 2e6e efbc 2997 283d c1b9 03bd
000000a0: b371 2dba 0813 223d 5a4c 16be 2380 b63d
000000b0: 53a9 473e 00df f43d ec38 8cbe b4b2 55be
000000c0: e943 00be 029e c83b 5b96 d83d 737b 163e
000000d0: abbc 42be e079 483e 33e4 4abe 6631 8cbd
000000e0: d869 cfbb a06e 1f3c 7cdd 34be c62d abbd
000000f0: 757e 213d bc03 a83e f17e 6abd b740 533d
00000100: 0dd7 343e e065 113e 69e5 563c e853 07be
00000110: 3cb5 1a3d 5e14 8e3d d22a 3f3e c031 d03d
00000120: 9f2a 7ebd 5c47 113e faae a43d 0b81 bdbd
00000130: b6a3 013e ca1e e7bd 82e3 1a3e a5b3 283d
00000140: af65 88bc 6753 afbd 3e40 f9ba ac66 76be
00000150: edb3 93bd 6d74 3abe 1ed8 f2bd 2ea7 91bd
00000160: 846d afbb da85 a9bd 7588 25be 63d5 1e3e
00000170: acae 49bd 226d 2bbd c480 d43c af18 f7bd
00000180: 82d1 b7bc 5d5d 3cbe 9117 013d f100 4cbd
00000190: 6a92 1e3d 1539 0ebe 6a57 64bd a3dc 313c
000001a0: 64c1 703d 5f15 9b3c 2d36 75bd 85b7 513e
000001b0: c558 8cbd 7d00 c4bd 2c70 a93c 936a 2a3d
000001c0: fed8 c9bc 9ee3 7b3c cc6f 0cbe 161c 16be
000001d0: 66ca 24be abbb abbe 78c0 c13d d073 0b3e
000001e0: b1e0 15be 1c51 3e3e 6065 8fbd 1c94 ffbb
000001f0: 5e47 803d ba53 86ba b915 0dbd f264 923b
00000200: d5eb bdbd 0e6a 8bbd b426 d53d ef9a e1bd
00000210: 8d2e d73d 8c0f c83d 6ef2 96be 3c4f 03bd
00000220: 3819 7a3d 105f e3bd 25a3 c5bd b4b2 c6bd
00000230: 9714 07bd ef90 05be d797 20be 61f7 23be
00000240: 949d 0fbe c59b d4bd 725a f7bd e063 8b3d
00000250: 4ea1 043e 7c41 103d 8405 fe3c c9ff 02bd
00000260: 124a 8cbd 74c0 a13c 25fd 63be 81ef 283e
00000270: 5843 903d 432e 43be c512 ffbd 6a44 85be
00000280: b2f7 39be 79d2 7c3d 6910 d6bd e1cc ba3d
00000290: af11 3fbc c725 8d3d b15c fb3d d930 46be
000002a0: 64ed 59bc 1537 c3bd 2ba9 f83d 6b4c c0bc
000002b0: 3e22 8ebc e910 2d3e 5e5d 18be 955a 65be
000002c0: dbf0 54be da2b 08be b98c 1fbe 568b 79bd
000002d0: f0b6 5d3d e7de 753e e533 18bd da6f 843c
000002e0: a301 27bc 5220 383d b718 2ebe 0878 05be
000002f0: c402 093e 4e21 ccbc 4447 c13b 33ab 64bd
00000300: 3ff5 52be ce59 2abe 4f2a 83bb f9aa 9cbc
00000310: e20c 7a3d 63a7 91be 7564 153c 844f 1cbd
00000320: 760c 003e 6725 2dbe 850f 893d 78ed 443e
00000330: 6896 a7ba 0d82 39be a62b 81bb 2f3d 003e
00000340: d9ec b8bd fda9 213d 311d 913c 510a 53bd
00000350: 9aa5 bbbd 0b3f 4e3d f783 63bd cac1 c5bd
00000360: f348 a03d 5dbc 65be 556b b73d f7ee 583e
00000370: c2c4 a63c 780e c1bd 11c8 693d 154a 24be
00000380: 2875 14bd 34c8 82bd 7dbd 223e 916c c13d
00000390: 6024 5ebe a8a3 1a3d 34a0 ac3c b4d4 0abd
000003a0: 5a54 763c 2388 debd cac0 02bd 7dd6 8e3b
000003b0: 052d 053e 9b3f 083e 5c08 e4bd a997 a2bb
000003c0: 8599 02be f3b9 3f3e 5485 3ebe b397 0cbe
000003d0: 2cac 0fbe f6b4 3e3e 14dc 0c3d d0bd 003e
000003e0: 2934 67be c6e1 61be 5e88 b93a 8cda d93d
000003f0: 92b4 3cbd bee5 a7bd a25d 293d ccc7 05be

network_body._body_endoder.seq_layers.2.bias f4 [128]
0.049251255 0.066747785 -0.057724345 -0.059352998 -0.025861172 0.0025252572 -0.0031862617 -0.012721249
-0.050150085 0.10884807 -0.023346102 -0.051004034 0.019216113 -0.011336628 -0.004259036 -0.0017118643
0.013465501 0.03518496 -0.04717432 0.027581036 -0.0048686494 0.02328804 -0.011124881 0.07244598
0.042386327 -0.0043242285 0.02166236 0.057545207 -0.010316792 -0.038932517 0.010828465 0.046994016
0.01301905 0.052597113 0.022833055 0.02907973 -0.029238269 -0.003827983 -0.007511381 0.010472006
-0.090972155 0.030217992 0.043710552 -0.026838465 -0.016781796 0.01388246 0.015655361 -0.026254596
-0.0022877608 -0.033768132 -0.008374931 -0.10416859 -0.050702963 -0.056047294 -0.034287825 0.04816651
-0.004582233 0.034318224 -0.042529825 -0.021853864 -0.0024611314 0.015346259 0.05630401 -0.05006767
-0.031136643 0.0051952964 0.016072158 -0.008361132 0.008414774 0.034035154 0.11150817 -0.009468532
-0.01711329 -0.020871745 0.021406667 0.05468742 0.057471305 -0.08046047 0.0051848995 0.022098025
-0.0106555885 0.006090671 0.034601323 0.046895336 0.065061465 0.08136269 -0.020476071 -0.028542884
0.024094308 0.041078217 0.003249678 -0.054202594 -0.060961694 0.016719129 -0.0491153 0.0181681
-0.07335044 -0.018075071 -0.05213228 0.030548401 -0.03897394 0.04301687 -0.07593427 -0.0010196079
-0.0031542897 0.03872612 0.019556541 0.013006057 0.03892855 0.060154848 0.013839817 -0.023016103
-0.053637985 -0.0011185687 -0.013666533 0.040366363 -0.012824965 0.023308787 -0.022929765 -0.04606936
0.028962547 -0.0439913 -0.037531313 -0.034049664 -0.0058399 -0.0006196958 -0.016803049 -0.043203525
00000000: afbb 493d 10b3 883d 5d70 6cbd 211c 73bd
00000010: cfda d3bc c97e 253b 9ad0 50bb c96c 50bc
00000020: 2d6a 4dbd bdeb de3d 5340 bfbc 9be9 50bd
00000030: 1c6b 9d3c 44bd 39bc 628f 8bbb a260 e0ba
00000040: 689e 5c3c 1b1e 103d dc39 41bd a0f1 e13c
00000050: 3189 9fbb 8fc6 be3c 2245 36bc 8f5e 943d
00000060: 499d 2d3d 42b2 8dbb 4375 b13c 86b4 6b3d
00000070: c307 29bc b477 1fbd e069 313c cc7c 403d
00000080: da4d 553c 1270 573d 630c bb3c 9d38 ee3c
00000090: 1885 efbc e6de 7abb 0822 f6bb c792 2b3c
000000a0: 9c4f babd b98b f73c d609 333d 57dc dbbc
000000b0: fa79 89bc 4273 633c ac3f 803c e113 d7bc
000000c0: 42ee 15bb 7450 0abd 0237 09bc 5756 d5bd
000000d0: e9ad 4fbd d991 65bd 6471 0cbd 3f4a 453d
000000e0: 8e26 96bb 4491 0c3d c133 2ebd e006 b3bc
000000f0: ef4a 21bb e06e 7b3c 099f 663d c213 4dbd
00000100: 4612 ffbc 4e3d aa3b c2a9 833c 21fd 08bc
00000110: 1fde 093c 7268 0b3d 655e e43d e721 1bbc
00000120: 2c31 8cbc 39fb aabc 095d af3c ebff 5f3d
00000130: 0867 6b3d 75c8 a4bd 17e6 a93b eb06 b53c
00000140: c794 2ebc 4094 c73b 1eba 0d3d 5315 403d
00000150: f23e 853d 7ba1 a63d 6fbd a7bc c4d2 e9bc
00000160: 6d61 c53c a241 283d 8df8 543b 8a03 5ebd
00000170: f8b2 79bd 8ef6 883c 202d 49bd 44d5 943c
00000180: c138 96bd 2c12 94bc a888 55bd a440 fa3c
00000190: 23a3 1fbd 7532 303d 6d83 9bbd 5da4 85ba
000001a0: 33b8 4ebb 489f 1e3d 0a35 a03c 5b17 553c
000001b0: 8b73 1f3d ee64 763d 66c0 623c 448c bcbc
000001c0: 81b3 5bbd f09c 92ba 98e9 5fbc 3357 253d
000001d0: cd1f 52bc 12f2 be3c 34d7 bbbc 3ab3 3cbd
000001e0: dd42 ed3c 3930 34bd 6fba 19bd a977 0bbd
000001f0: a25c bfbb 1573 22ba 8ca6 89bc 2ef6 30bd

action_model._discrete_distribution.branches.0.weight f4 [7, 128]
0.059911083 -0.04966223 0.0035128905 0.025476446 0.014305046 0.010771719 -0.021153208 -0.02151744
-0.022128055 0.018840976 -0.03048713 -0.019421814 -0.024195395 0.0633509 -0.060376957 -0.074295826
0.046688993 -0.018524086 -0.067937 0.029471684 0.032356914 0.077336274 0.01968048 -0.0036872202
0.014246571 0.003792167 0.027820097 0.0037226395 -0.11143387 0.004653375 -0.011610091 0.004426688
0.009008742 0.061009318 -0.024582174 0.031575516 0.001473322 0.054181077 -0.05413532 0.007888479
-0.021600204 0.027516348 0.016935084 0.042978562 0.028883167 -0.015622599 0.053833302 0.015085247
-0.028616687 0.04830663 0.024863208 -0.01175439 0.00392973 -0.02990652 -0.0048229517 0.032595668
-0.00036739936 0.036156688 0.01686421 0.013352662 -0.04183261 0.047427505 0.021928074 -0.03081855
-0.06581189 -0.06632563 -0.03249601 0.018372374 -0.029351637 0.032001365 0.08055258 0.020832397
0.05260356 0.03802118 -0.04389816 -0.042561363 0.059591055 0.016309986 0.07069091 0.062225047
0.008805727 -0.07752952 0.02583562 0.04798476 -0.007613225 0.052463982 0.024656298 -0.025394699
0.031230472 -0.041961297 0.061906137 -0.07418396 -0.045297857 0.06381745 -0.017612923 -0.07849026
-0.009579322 0.11184903 -0.0016795984 -0.0036056808 -0.007131055 -0.017430168 -0.026545946 0.02575247
0.0061660307 -0.00194732 -0.032446206 0.053399336 -0.020761497 -0.017133173 0.013734653 0.014809058
-0.022040684 0.02481272 0.01101991 0.05012352 0.0312063 0.07011794 0.02843029 -0.010777266
-0.014860354 -0.028823344 -0.06313592 -0.09049521 0.004680045 -0.054524116 0.03258433 -0.014141817
-0.084727585 0.020391589 0.04537742 -0.017253384 0.05603452 0.06029126 0.058024257 0.040826656
-0.006529435 -0.090169206 0.07051776 0.031599455 0.01425588 -0.011101257 0.040814802 0.02025919
0.02830045 0.041572 0.048250686 0.01168674 -0.042633053 -0.049638636 0.035649225 -0.040902983
-0.055055715 -0.037412502 0.10143044 -0.021138633 0.044572107 0.016213117 0.0067912857 0.020145804
0.035559583 -0.04174733 0.05766896 0.024189763 0.09356811 -0.033512294 0.039606605 0.009334674
0.02600214 0.006107703 0.06926398 0.007172215 0.04206739 0.063309096 0.013038887 0.045615025
-0.0071174833 0.0035764417 0.06643297 0.004153659 0.0019177774 0.02487581 -0.011811676 -0.06377079
0.025674935 0.002856932 0.021354025 0.034966875 -0.03870273 0.02583183 -0.051709544 0.049712207
0.06994522 0.03858468 0.037002552 0.031207021 0.002576814 -0.04064196 -0.08193836 0.041826747
0.01853277 0.037674043 0.057473596 -0.036873423 -0.060707867 -0.0034072795 -0.0049657207 0.08485747
0.064285636 0.061521925 0.05428958 -0.010361819 0.022673965 -0.02068523 0.054187898 0.054041836
0.09775658 -0.023762764 -0.024241433 0.0292069 0.030382851 -0.035627518 0.041516233 0.009934035
0.017961977 -0.03180658 0.023058973 0.010790148 -0.020360786 0.049425554 0.024246652 0.06527141
0.046782613 -0.080179684 -0.019141857 -0.013854716 0.06009203 0.075870864 0.06641505 0.022279982
0.02065617 0.015850063 -0.006817982 -0.1172081 0.041515253 0.008180981 0.020118425 0.017029297
0.030555869 0.09951419 0.037253693 0.06373194 0.03245448 0.059999574 0.010184744 0.0065300604
00000000: 5365 753d 9f6a 4bbd 8638 663b fbb3 d03c
00000010: b65f 6a3c dd7b 303c 7e49 adbc 5845 b0bc
00000020: e545 b5bc 6458 9a3c 25c0 f9bc 7f1a 9fbc
00000030: 6c35 c6bc 1ebe 813d d44d 77bd 6928 98bd
00000040: f53c 3f3d d3bf 97bc 8e22 8bbd 9a6e f13c
00000050: af88 043d 7b62 9e3d f538 a13c 4aa5 71bb
00000060: 736a 693c 0186 783b f9e6 e33c 87f7 733b
00000070: 7137 e4bd 577b 983b 4038 3ebc c00d 913b
00000080: 6799 133c e8e4 793d 8e60 c9bc 5455 013d
00000090: 7c1c c13a faec 5d3d ffbc 5dbd ae3e 013c
000000a0: e9f2 b0bc f769 e13c 72bb 8a3c 4a0a 303d
000000b0: 649c ec3c eef5 7fbc 4f80 5c3d 1d28 773c
000000c0: 8b6d eabc 2cdd 453d edad cb3c 7c95 40bc
000000d0: f7c4 803b 85fe f4bc da09 9ebb 0983 053d
000000e0: 829f c0b9 0919 143d d026 8a3c 20c5 5a3c
000000f0: ac58 2bbd 5843 423d 81a2 b33c 2f77 fcbc
00000100: 62c8 86bd bbd5 87bd 891a 05bd a981 963c
00000110: d872 f0bc dd13 033d c0f8 a43d b4a8 aa3c
00000120: d576 573d 19bc 1b3d 8fce 33bd d354 2ebd
00000130: c015 743d 859c 853c 65c6 903d b1df 7e3d
00000140: e545 103c ccc7 9ebd 39a5 d33c ab8b 443d
00000150: 5c78 f9bb 79e4 563d 01fc c93c 8b08 d0bc
00000160: 0cd7 ff3c 9cdf 2bbd 4a91 7d3d c3ed 97bd
00000170: 3f8a 39bd b9b2 823d fa48 90bc 80bf a0bd
00000180: 97f2 1cbc 1b11 e53d f825 dcba 494d 6cbb
00000190: a0ab e9bb b6c9 8ebc e276 d9bc d8f6 d23c
000001a0: 6a0c ca3b 373d ffba 50e6 04bd 43b9 5a3d
000001b0: 0414 aabc de5a 8cbc 4f07 613c b1a1 723c
000001c0: aa8e b4bc 0c44 cb3c da8c 343c 524e 4d3d
000001d0: 5ba4 ff3c ff99 8f3d a4e6 e83c 2193 30bc
000001e0: d878 73bc ef1e ecbc 684d 81bd 8d55 b9bd
000001f0: 105b 993b ae54 5fbd 2577 053d 14b3 67bc
00000200: a885 adbd 430c a73c acdd 393d f856 8dbc
00000210: 7484 653d f8f3 763d d8aa 6d3d da39 273d
00000220: dff4 d5bb a2aa b8bd 9e6b 903d 6e6e 013d
00000230: 7f91 693c 0ce2 35bc 6c2d 273d 9af6 a53c
00000240: 58d6 e73c 6747 2a3d 83a2 453d be79 3f3c
00000250: ff9f 2ebd e251 4bbd ec04 123d e389 27bd
00000260: 1a82 61bd da3d 19bd c3ba cf3d ed2a adbc
00000270: 3e91 363d 5fd1 843c 6f89 de3b d008 a53c
00000280: eda6 113d 40ff 2abd 4a36 6c3d 9c29 c63c
00000290: a3a0 bf3d 3044 09bd 893a 223d 76f0 183c
000002a0: 7102 d53c 2023 c83b 46da 8d3d e604 eb3b
000002b0: db4e 2c3d 33a8 813d 0ea1 553c d2d6 3a3d
000002c0: c739 e9bb bc62 6a3b 020e 883d 6b1b 883b
000002d0: ee5d fb3a 5bc8 cb3c c385 41bc 439a 82bd
000002e0: 3e54 d23c 5e3b 3b3b a3ee ae3c 6d39 0f3d
000002f0: c186 1ebd 469d d33c 63cd 53bd 079f 4b3d
00000300: 713f 8f3d f80a 1e3d fd8f 173d dea5 ff3c
00000310: c4df 283b 2f78 26bd 4dcf a7bd 8652 2b3d
00000320: 09d2 973c 1950 1a3d 6f69 6b3d 9608 17bd
00000330: d0a8 78bd aa4c 5fbb 7cb7 a2bb c1c9 ad3d
00000340: 30a8 833d 6afe 7b3d c05e 5e3d 9ec4 29bc
00000350: c0be b93c 1274 a9bc 21f4 5d3d f95a 5d3d
00000360: 9a34 c83d 21aa c2bc f895 c6bc 4f43 ef3c
00000370: 75e5 f83c 29ee 11bd ed0c 2a3d 5dc2 223c
00000380: ff24 933c 9e47 02bd 2ce6 bc3c 29c9 303c
00000390: aacb a6bc 7372 4a3d eaa0 c63c 04ad 853d
000003a0: 209f 3f3d 3f35 a4bd 62cf 9cbc e4fe 62bc
000003b0: 0f23 763d 2f62 9b3d 9d04 883d 8284 b63c
000003c0: 2137 a93c fed7 813c 6169 dfbb cd0a f0bd
000003d0: e60b 2a3d 8509 063c 65cf a43c 0681 8b3c
000003e0: 4d50 fa3c 18ce cb3d 5497 183d e485 823d
000003f0: fdee 043d 1dc2 753d eadd 263c 1efa d53b

action_model._discrete_distribution.branches.0.bias f4 [7]
0.036823556 -0.012436315 0.04101554 -0.10773931 -0.06562006 0.010406512 0.037587516
00000000: 4cd4 163d b0c1 4bbc e9ff 273d 6da6 dcbd
00000010: cf63 86bd 1380 2a3c 5ef5 193d
