Trained_Policies/WeightAgent_Training/WeightAgent_Training/WeightAgent_Training-243499985.pt (torch, 926628 bytes, 33 tensors)

network_body._body_endoder.seq_layers.0.weight f4 [128, 163]
000000 4b 4d 95 3e 85 ab fc be 30 b3 71 3d 7c 21 3b 3e
       0.29160532 -0.4934961 0.059008777 0.18274492
000010 32 c6 da 3e 7a d5 32 bd 66 8f dc be 82 05 94 be
       0.42729336 -0.04366062 -0.43078154 -0.28910452
000020 0d 5a 00 3e 1a 14 37 3f 09 20 a0 3e cd e4 45 be
       0.12534352 0.7151505 0.3127444 -0.19325562
000030 5d b7 cb 3e 92 3e dd b9 32 6e 27 3e 1a c2 a7 bd
       0.39788333 -0.00042199023 0.1635063 -0.08191319
000040 a7 87 ac be 9b 88 67 bf 7a 25 6f 3c 7e bf 02 3f
       -0.33697245 -0.9044282 0.014596337 0.51073444
000050 e9 6a fb 3e 28 41 bf bc d3 d9 2b 3f cb 14 b8 3e
       0.49105003 -0.023346499 0.6712925 0.35953364
000060 0b 41 08 bf bb d3 b0 be 3d 91 b1 be 88 08 e4 be
       -0.5322425 -0.34536538 -0.3468112 -0.4453776
000070 1d 9b 8e be 17 cb d6 3e 29 b9 55 3e 96 28 06 3d
       -0.27852717 0.4195182 0.20871414 0.03275355
000080 5d 21 10 3f 66 17 1c 3e 51 2d 17 bf 29 2a 74 be
       0.5630091 0.15243301 -0.5905352 -0.23844208
000090 76 a7 29 bf b9 8a 45 be 6a b1 3f be 5a 90 73 3e
       -0.6627115 -0.192912 -0.18720022 0.23785535
0000a0 2c ea 32 3e d2 5e 25 3e b0 c9 0c 3f 50 6b 6e 3e
       0.17472142 0.16149452 0.5499525 0.23283124
0000b0 b8 0e 1e bf d3 42 d2 be 9d 6c fe be 7d 6e b4 3c
       -0.6174121 -0.41066608 -0.4969224 0.022025341
0000c0 aa a4 35 be 39 a0 a1 3d 60 10 0d 3f 9c c2 9a 3e
       -0.17738596 0.07891888 0.5510311 0.302266
0000d0 bd 37 e4 3d c5 33 1c 3f d9 71 94 be 11 c1 ac be
       0.11143444 0.61016494 -0.2899311 -0.33741048
0000e0 d4 bd 80 3d 1b ec 62 3e fb fc 35 be dd 66 a4 3e
       0.06286207 0.2216038 -0.17772286 0.32109728
0000f0 95 13 cf 3e 99 3c c9 3d 93 6e 86 3e 61 5a 02 3d
       0.40444627 0.09826011 0.26256236 0.031824473
000100 6d ad bd be f6 85 8b be a6 c9 86 be 4f 3f 19 3e
       -0.37046376 -0.27250642 -0.2632572 0.14965557
000110 a5 ef d3 bd 87 6a 29 3e 2c 2e 05 3f 3c 4a d4 bc
       -0.10348443 0.16544543 0.5202358 -0.025914304
000120 c4 53 a2 3e 19 83 32 3e 92 d2 e1 bd 43 92 07 3e
       0.31704533 0.17432822 -0.11026491 0.13239388
000130 4c aa fd 3c 2a d5 71 3e 4d 07 74 be 0c c8 6e 3d
       0.030964993 0.23616472 -0.2383091 0.05829625
000140 93 c0 a2 3e 22 7a d8 be bf e2 7f be 28 e3 f8 3d
       0.31787547 -0.4228068 -0.2498884 0.121527016
000150 8b 0b 8d bc ab fa 18 3e ca 8c bf be 02 f7 9c bd
       -0.017217418 0.14939372 -0.374121 -0.076643005
000160 53 d6 e8 bd 65 ab d7 3d 57 a7 0c 3e 85 1c 56 3e
       -0.11369004 0.10530738 0.1373571 0.20909317
000170 8f 9a 91 be 74 10 da bd be 15 06 bc cc 54 fd bd
       -0.2843823 -0.106476694 -0.008183895 -0.12369689
000180 de 8c ec bd fc b0 4e 3e 15 42 37 be 9f 5d 57 3d
       -0.11550306 0.20184702 -0.17896302 0.05257952
000190 b2 19 0d 3d 29 9b 6f be 27 ec 3b be fa 3f fb 3d
       0.034448333 -0.23399033 -0.18351804 0.12268062
0001a0 08 7c c3 3b b3 6c 8a 3d 70 75 28 be 41 ea d1 3c
       0.0059657134 0.06759014 -0.16451049 0.025624396
0001b0 49 eb 3f 3e cf 84 34 3d ff ae e5 3d 74 7a a2 be
       0.18742098 0.04407197 0.112150185 -0.3173405
0001c0 11 f0 2c bd 02 32 8d 3e 7a 1b c2 bd 19 94 61 be
       -0.042221133 0.27577215 -0.09477897 -0.22029151
0001d0 d2 24 b2 3d cf 8e 1c be f0 2b 60 bd 61 00 25 3e
       0.08698429 -0.15288852 -0.054729402 0.16113426
0001e0 53 09 3e 3b 34 e5 c7 be ba 60 bf 3d 59 51 48 3e
       0.0028997257 -0.39042056 0.09344621 0.19562282
0001f0 b8 1c 59 be c8 89 ab be 11 72 21 3e 8f c7 21 bc
       -0.21202362 -0.33503556 0.15766169 -0.009874239
000200 01 f9 38 3e b3 18 d6 3d 69 ea 1c be c2 0a 8c bd
       0.18063737 0.1045393 -0.15323795 -0.068379894
000210 1a 8d 1a 3d a2 62 f0 bd 96 1c 86 be ed 95 2b bd
       0.03773222 -0.11737563 -0.26193684 -0.041891027
000220 b7 da 65 be dc 2c 97 be 81 fb 07 3e 19 f6 92 3d
       -0.22446714 -0.29526412 0.13279535 0.07175846
000230 56 c5 ad be fe 35 43 be 19 1d b4 be b5 70 0d 3c
       -0.33939618 -0.19063565 -0.3517845 0.0086328285
000240 8f d0 2d be 4f 7c 22 be be 57 cb bd 2e 24 6d 3d
       -0.1697409 -0.15867732 -0.09928845 0.05789583
000250 8a fc 66 bd 03 7d a4 3d b3 f2 4d be 62 34 81 be
       -0.056393184 0.080316566 -0.20112114 -0.25235277
000260 1c d3 0b bd 83 9b 88 3d 22 ec 3d 3d c0 43 fd bc
       -0.034136876 0.066702865 0.046367772 -0.030916095
000270 03 04 95 3e 69 92 8f be c5 08 f8 bc 38 4e a2 bd
       0.29104623 -0.2804139 -0.03027762 -0.07925075
000280 78 eb 7d 3d 29 64 30 3e 2c 1d 21 bf 4b 22 28 bb
       0.06199214 0.17225708 -0.6293514 -0.0025655206
000290 c9 6d 02 3f 19 43 9e bd 12 29 84 bd 60 e4 10 bf
       0.5094877 -0.077276416 -0.06453146 -0.5659847
0002a0 af e2 80 3d 7e ac 7c 3e dc 62 87 3d 1a f5 24 3e
       0.062932365 0.24675176 0.06610653 0.16109124
0002b0 fd 77 7a bf fb 23 62 3e 33 c8 51 3d 85 02 43 bf
       -0.9783934 0.22084038 0.051216315 -0.7617572
0002c0 34 74 ec 3e 57 a3 02 bf 25 c1 d1 3c 2e 09 c8 3e
       0.46182406 -0.51030487 0.025604794 0.39069504
0002d0 21 db ab 3e 53 da ba bc c0 79 6b bf 47 30 d0 3e
       0.3356562 -0.022809183 -0.9198265 0.40661833
0002e0 1e 6e 5c 3e 4c 4f aa bf 96 39 11 3e e8 45 4c be
       0.21526381 -1.330545 0.14182124 -0.19948542
0002f0 f2 8a 1a be 4c 38 ba 3d a6 4b 31 3e 6f ea bb 3e
       -0.15092066 0.09092769 0.17314014 0.36702296
000300 a7 c5 16 bf 7b de 03 bd cd c5 89 3e a1 87 47 bf
       -0.58895344 -0.032194596 0.26908723 -0.7794133
000310 71 5c 64 3e 91 19 fd 3b 69 02 80 bd b2 8a 46 3d
       0.22300889 0.007723995 -0.0625046 0.048472114
000320 0b 1a 56 3e 23 ee 2e 3e 34 d2 2d bf c2 a1 65 3d
       0.20908372 0.1708303 -0.6789887 0.056062467
000330 e9 87 a8 3e e6 54 f9 be af 1e db 3d ac ce f5 3d
       0.3291619 -0.48697585 0.10699212 0.1200231
000340 d9 8b 8e 3c 9b 5d a6 3d 47 e0 8c 3e 0c fa 95 3e
       0.017400669 0.081233226 0.2751486 0.29292333
000350 67 66 ec be 81 90 e8 3d 80 fa 9c 3e 9a 3b 36 be
       -0.46171877 0.11355687 0.30659866 -0.17796174
000360 33 7b 47 bc d0 4d 18 3e 9c be 48 3d 8a 1d c7 3d
       -0.012175369 0.14873433 0.049009904 0.09722431
000370 da 7a 1e 3e 92 0d 74 3e 25 37 81 bd 87 54 1e 3d
       0.15476552 0.23833302 -0.06309346 0.03865483
000380 43 f5 37 3e 22 8a 2a 3e c6 e0 76 bd b6 62 0f 3e
       0.17964654 0.16654256 -0.060272954 0.14002499
000390 b4 44 0a 3d 5e db 90 3e f7 e1 3d 3e 8d 1d 60 bd
       0.033756927 0.28292364 0.1854323 -0.05471568
0003a0 a2 e1 a0 3d 81 29 28 3e 03 ac 6b 3e 46 99 ad bb
       0.07855536 0.16422082 0.23014836 -0.0052978126
0003b0 4e 93 08 3e 8b d1 af 3d 9b 84 93 be 37 e3 28 3e
       0.13337442 0.08584889 -0.28812107 0.16492926
0003c0 9a 38 84 3d 55 53 c8 bd 3d 65 9e 3d bb 65 c2 3d
       0.064561084 -0.09781519 0.077341534 0.0949206
0003d0 a9 d5 61 bc 92 e1 2e 3e 90 cd 92 be 03 aa bf 3b
       -0.013783851 0.17078236 -0.28672457 0.0058491244
0003e0 03 4d 67 bd 3d 5e 9e 3d 25 6d af 3d 2e ec 16 3e
       -0.05646993 0.07732818 0.085657395 0.14738533
0003f0 15 52 75 3e 96 3d ae 3e ad 27 1a 3d 72 80 2f be
       0.23957093 0.3403136 0.037635494 -0.17138842

network_body._body_endoder.seq_layers.0.bias f4 [128]
000000 96 24 87 3c f7 e5 e4 3d 2a d0 7e 3d 72 f0 7e bd
       0.016496938 0.11176675 0.06221024 -0.062241025
000010 77 fd 22 3e f8 c1 19 bd 2c 0f 38 3d 48 28 b6 3e
       0.15917002 -0.0375385 0.044936344 0.35577607
000020 bb 83 da bd d9 0b ec bb a0 2c 65 3d 22 2e d3 3d
       -0.10669657 -0.007203561 0.05595076 0.103115335
000030 f3 ff 7d 3b f2 25 72 3d 75 f1 76 3d 40 87 cd bd
       0.0038757294 0.05911822 0.060288865 -0.100355625
000040 c7 f6 1a bd 36 be 3d bd f2 86 83 3d 38 b6 04 be
       -0.037833 -0.046323977 0.06422223 -0.12960136
000050 8b d0 39 3e e4 7b e8 bd 1b 0a 67 3e 6b a7 e3 bd
       0.18145959 -0.11351755 0.22562449 -0.11115917
000060 0c 61 ed 3d ca d3 92 3d 37 d5 6a bd 98 1c 15 3b
       0.11590776 0.07169302 -0.057332244 0.002275264
000070 e9 fa b3 3d c5 b3 f4 3c 6e 3b 0c be ba f7 a4 3d
       0.08788092 0.029870877 -0.13694546 0.080550626
000080 0a b9 80 bc 58 f6 f9 3d c1 41 a4 3d 87 7d 26 3d
       -0.015713234 0.122051895 0.08020354 0.040647056
000090 6e ae 1e 3e a3 79 37 3d ed 39 91 bb bc 7b e9 bd
       0.15496227 0.044793736 -0.004431954 -0.114005536
0000a0 ec dd 46 3e 14 19 86 bd 6a 28 14 bd 4b cf 58 3d
       0.19420594 -0.06547752 -0.036171354 0.052932065
0000b0 8c 02 ab 3d 70 d8 9a bb bd 2c 59 bc 17 2d 73 3c
       0.08350095 -0.0047255084 -0.013255295 0.014842293
0000c0 18 4c 50 bd 85 b6 f9 3c 7d 30 28 be 85 82 db 3b
       -0.05085382 0.03048254 -0.16424747 0.0066989087
0000d0 27 be 89 3d ec c6 3a 3d a7 0e 27 bd a8 e3 33 bd
       0.06725722 0.045599863 -0.040785458 -0.04391828
0000e0 91 db a8 bd 8f f0 d8 3d 7b 64 a0 bc 6d ac f2 3c
       -0.08245004 0.10592758 -0.019579163 0.029623235
0000f0 77 54 fb 3c 37 05 fb 3c 31 b2 28 bd b6 20 8e 3c
       0.030679924 0.030642135 -0.04118556 0.017349582
000100 cd a7 46 3e 82 63 0f 3d 3f bc a3 3c b3 e5 b5 bd
       0.19399948 0.035007007 0.019987224 -0.08881702
000110 35 e4 3e be c8 db 36 be ff 42 84 3e 49 a1 c0 bd
       -0.18641742 -0.17857277 0.25832364 -0.09405763
000120 65 2f c3 bc 16 34 9b bd 43 ff e3 3d f1 f7 9c 3b
       -0.02382631 -0.07578294 0.11132672 0.004790299
000130 a8 85 d3 bd f0 5b 9a 3b 8d bf 1a 3c 30 07 0e 3e
       -0.10328227 0.004710667 0.009445083 0.1386993
000140 e2 b9 54 3b 32 63 53 bc 81 b3 84 3e 73 63 e5 bd
       0.0032459428 -0.012902068 0.259182 -0.11200609
000150 f3 1f c5 bc d5 4c a3 3c 13 86 0c be e6 75 f6 bc
       -0.024063086 0.019934097 -0.1372302 -0.030085515
000160 28 e8 bd bd 7c 24 6c 3c 60 4e c3 3c c4 f6 a9 bd
       -0.09272796 0.014412995 0.023841083 -0.0829902
000170 18 0e 00 3c 4e f8 36 bc 8d 4d 51 3e 9e c8 6d 3d
       0.00781586 -0.011167599 0.2043974 0.05805265
000180 d0 06 6a 3e 9a ed ab bc 3c 64 26 3e 10 f7 8d 3c
       0.22854161 -0.02098732 0.16249174 0.017329723
000190 04 72 31 3c 74 aa 21 be 8e 9a 26 3e 8a 55 b6 3d
       0.010830406 -0.15787679 0.16269895 0.08903034
0001a0 ac 93 72 bb 02 e9 5c bd 37 e4 f3 bd cd 0f 00 3d
       -0.0037014289 -0.05393315 -0.11908763 0.03126507
0001b0 c7 bb b3 3d f0 28 35 be 78 96 95 bd 1c 67 c1 bd
       0.0877605 -0.17691398 -0.0730409 -0.09443495
0001c0 fc 0d ee 3d b6 35 ad bd 5c 1c 15 bd b8 76 21 be
       0.11623761 -0.0845751 -0.036404 -0.15767944
0001d0 4c 05 36 3d be 47 2d 3d be 65 27 3e 7e 88 86 bd
       0.044438645 0.042304747 0.16347405 -0.065690026
0001e0 27 32 60 3d 2d f3 4e 3d 86 08 48 3d 5e 40 dc bc
       0.05473533 0.05052488 0.048836254 -0.026886161
0001f0 48 42 57 3c 92 2a e4 3d 74 79 87 3d 94 27 e4 3d
       0.013138361 0.11140932 0.06614962 0.111403614

network_body._body_endoder.seq_layers.2.weight f4 [128, 128]
000000 45 d3 20 3f 9d 8c 2a bf dd 13 34 be e9 ea 19 be
       0.6282237 -0.6662081 -0.17585702 -0.15031017
000010 8a d7 8c 3d 0a ab 70 be 61 8a 16 3d 86 87 2c bf
       0.06877048 -0.23502746 0.036753062 -0.6739429
000020 d9 90 b9 3e 16 ed 8c be c0 ff ef bb 87 da ab be
       0.36243322 -0.27524632 -0.007324189 -0.3356516
000030 90 7a b0 3c a2 16 32 bf c9 10 40 3e 5f 78 e3 3d
       0.021542817 -0.69565785 0.18756403 0.11106943
000040 9a d4 58 be be df a8 be f7 4c fe bd 87 87 b3 be
       -0.21174851 -0.32983202 -0.12417024 -0.35064337
000050 be 26 de be fe b3 8b 3e e7 21 d9 be af 4c 8e be
       -0.43388933 0.2728576 -0.42408678 -0.2779288
000060 74 72 fc 3d ae 61 8a be 92 6d 06 3d 49 fe 01 be
       0.12326518 -0.2702765 0.03281934 -0.12694658
000070 6a e8 e2 3d b5 68 0a 3e 22 5b 16 3d 1b a8 05 bd
       0.11079486 0.13516505 0.036708005 -0.03263102
000080 8b 6e c1 bd 09 07 f3 bc 47 f7 79 be e9 5b 35 3d
       -0.094449125 -0.02966644 -0.24410735 0.044277105
000090 71 db 23 3e 46 a7 f8 bd 8b 52 d3 3b 70 15 e1 3d
       0.16001679 -0.1214128 0.006449049 0.10990417
0000a0 97 ea 5e bc 10 50 54 3e d9 6f a4 3e 54 1c a5 3d
       -0.013605735 0.20733666 0.32116583 0.08062044
0000b0 74 df 5b be 85 75 9d 3d da 62 a2 be 02 de db be
       -0.2147196 0.07688431 -0.31716043 -0.42942816
0000c0 b9 b0 a6 be d9 c2 f5 be 86 d4 4f 3e aa 00 7b be
       -0.32556704 -0.4800022 0.20295915 -0.24511972
0000d0 5b 5f 23 3e f1 d5 9f 3d 14 0b 4a bf b2 7e 18 be
       0.15954344 0.07804478 -0.78923154 -0.1489208
0000e0 27 e7 32 be 32 a6 0a bf b6 b2 af bd 98 3c 0f bd
       -0.1747099 -0.54159844 -0.08579008 -0.034969896
0000f0 e6 dc 75 3e f5 f5 56 be 82 4f 5f 3e 88 2f d2 3c
       0.24010047 -0.20992263 0.21807674 0.02565743
000100 64 ca 5f be bb b7 4a bf e9 c5 2d bc 95 e5 09 3e
       -0.2185455 -0.791866 -0.0106062675 0.13466485
000110 9e dc 3b be 83 1b 25 be 03 9d d8 bd 96 64 a4 3d
       -0.18345878 -0.16123776 -0.105768226 0.08026998
000120 bf 0d c9 3c ec 90 45 3e 84 c1 12 bc 94 06 84 be
       0.024542687 0.19293565 -0.0089572705 -0.2578627
000130 ad 48 df bd 0a a1 0f be fb 09 4d be ae 71 bc bd
       -0.10902534 -0.14026275 -0.20023338 -0.0920137
000140 9e cb 8e bc 0b b5 21 3a 3d 73 4a bd c9 16 4c 3e
       -0.017431077 0.000616864 -0.049426306 0.19930567
000150 9a 41 00 bf 5d 9e 4b bc 66 fe 33 bd 19 9c 98 3d
       -0.501001 -0.0124278935 -0.043943785 0.07451648
000160 78 5c 56 bd d9 a3 8f bc 6b be 17 3e 35 dc 18 be
       -0.05233428 -0.017534183 0.14818732 -0.14927752
000170 43 93 37 bd 50 69 4a ba 4b 10 b0 be 0a 9d bf bd
       -0.044818174 -0.0007721381 -0.3438743 -0.09356125
000180 ad 9c d8 3c d7 d1 bf be c0 8d ca 3d 59 64 02 bf
       0.026441896 -0.37464783 0.09890318 -0.5093437
000190 d5 a1 81 3e 1c 5f 70 bd a8 b3 cd 3d 8c 6f 57 3e
       0.2531878 -0.058684453 0.10044032 0.21038646
0001a0 19 70 19 3d b2 41 ae be ca d6 5f be e6 52 b3 be
       0.03746042 -0.34034497 -0.2185928 -0.35024184
0001b0 42 6e b1 3e 2b 47 8e be b1 0e a2 be 50 5c 0f bf
       0.34654433 -0.27788672 -0.31651834 -0.5600023
0001c0 c0 ff 88 3d 98 19 81 be 4c 20 f6 be 75 1d 41 be
       0.066894054 -0.2521484 -0.48071516 -0.18858893
0001d0 4f 53 2c be 2d bc 45 bd 69 52 26 3e 07 7a f1 be
       -0.16828655 -0.04827516 0.16242374 -0.47163412
0001e0 ff 3b 47 be b2 a9 d6 be de 98 89 bd ae b0 31 3e
       -0.1945648 -0.41926342 -0.0671861 0.17352554
0001f0 dc 2f 37 3e 21 cc 90 3c d9 6a 39 3e e8 0c 5e 3e
       0.1788935 0.017675461 0.18107165 0.21684611
000200 12 5e 47 bd aa dc ec bb 6f 75 e8 bd 63 5e fc 3e
       -0.048673697 -0.0072284536 -0.11350524 0.4929076
000210 6e 75 de be 6c eb c6 bb 2b d5 ee 3e ef 06 5c 3c
       -0.43448967 -0.006070545 0.4664701 0.0134293875
000220 81 74 36 3e a9 fe d0 3e fc 82 0b 3f db ee 10 3f
       0.1781788 0.4081929 0.5449674 0.56614465
000230 bf 5a 93 be 9e 25 dc 3d 8d 3c 39 3e 7c a0 c4 3e
       -0.2878017 0.107493624 0.18089505 0.3840369
000240 17 b3 1c be 4d 22 eb bd fe 1a fd 3e fe 03 e6 3e
       -0.15302692 -0.11481152 0.49434656 0.4492492
000250 6c f7 2a 3d 52 25 a6 be c0 99 96 3c 21 6b de bc
       0.041739866 -0.32450348 0.01838386 -0.027150692
000260 26 c9 c9 3e bf 93 10 3e 3a a1 a1 be 56 3c e0 be
       0.39411277 0.1411886 -0.3156832 -0.43796033
000270 a4 ec 02 3d 3c 5a 92 bd 58 22 ee 3d df 83 ff 3d
       0.03196396 -0.07146117 0.11627644 0.12476324
000280 40 1b 9a 3d 71 d0 46 3e 23 7f 53 be 99 e4 99 3e
       0.07524729 0.19415452 -0.20653968 0.3005722
000290 92 d8 1f 3e e5 bc 38 3d f7 e2 88 3e da e7 85 3e
       0.15609959 0.04510202 0.2673566 0.2615345
0002a0 04 64 c3 3e cc 2e 89 3d 36 e2 66 bd cb 00 dc bd
       0.38162243 0.06698379 -0.056368075 -0.10742339
0002b0 77 de 03 3f 17 de ce bc f5 4b 37 be ff 65 c8 3e
       0.5151133 -0.025252385 -0.17900069 0.39140317
0002c0 53 cc 4b 3e e0 0e 35 3f 29 29 c0 be fc f9 54 bb
       0.19902162 0.7072582 -0.37531403 -0.0032497635
0002d0 7c aa 6f be 4f cd 80 be 62 63 1d 3e b8 c0 7d bd
       -0.23404878 -0.25156638 0.15369943 -0.06195137
0002e0 5c 07 82 3e 6f af e1 3e 77 d5 38 3e 43 d8 0e bf
       0.2539624 0.44079158 0.1805018 -0.5579874
0002f0 ec de 92 3d d9 75 d7 3d c4 da ba 3d 3f a8 46 be
       0.07171425 0.105205245 0.091237575 -0.19400118
000300 b4 92 14 be 2c a1 dc 3e fa 76 b5 be c7 b5 8c 3e
       -0.14509088 0.43091714 -0.35442334 0.27482435
000310 0a 44 bd 3d e5 03 35 3e f5 93 3b bd 89 72 21 3f
       0.09241493 0.17677267 -0.0457954 0.6306539
000320 4a f3 8d be 39 10 91 bd 9e 0a 2a bd f6 a6 24 3f
       -0.27724677 -0.07083172 -0.04151403 0.6431726
000330 e9 80 9f 3e 8d 66 26 3f 3a 72 40 3e 9d 26 e6 bd
       0.31153038 0.6500023 0.18793574 -0.11237834
000340 7c 61 da 3d 1d ba 98 3e 33 d3 e7 bd 75 47 fa bd
       0.10663125 0.29829493 -0.1131958 -0.122206606
000350 0b fa 64 bd e9 82 87 be 06 11 3e 3e ac e7 92 3d
       -0.055902522 -0.26467064 0.18561181 0.07173094
000360 0c 7c 86 be 80 0a 52 3e 43 85 79 be 52 f4 15 be
       -0.26266515 0.20511818 -0.24367242 -0.14643982
000370 9a 9d 36 3f fa 8f ff bd 7f 06 13 3e f5 7a 31 bc
       0.7133423 -0.12478633 0.14357947 -0.010832538
000380 d8 f6 78 be 5a 9c a6 3e 30 ae 35 be 3b fc 02 bd
       -0.24312913 0.32541162 -0.17742229 -0.031978827
000390 62 3e 41 3c 6e cf a5 bc 5e 61 e0 bd cb 6d 36 be
       0.011794658 -0.020240512 -0.10956071 -0.1781532
0003a0 9a 70 68 be d2 6c 01 bd bf 03 be bd 2d c4 0c 3e
       -0.22699204 -0.03159792 -0.09278058 0.1374671
0003b0 20 74 46 3e f2 d1 b1 3e 7d 52 b4 3d ba 79 2f be
       0.19380236 0.34730488 0.08804796 -0.17136279
0003c0 fa 56 66 bc 93 a0 cd be 1a 41 c9 be 4b 9d 28 be
       -0.014058823 -0.4016157 -0.3930748 -0.16466253
0003d0 77 a1 0f 3e b9 e8 ac 3d 18 35 80 3d 5f 55 75 3e
       0.14026438 0.08442826 0.06260127 0.23958348
0003e0 c6 0e 90 be ba 3a bd bd 58 4f 39 bc ee f4 90 bd
       -0.2813627 -0.09239717 -0.011310421 -0.07077967
0003f0 ae 4c 49 3e d2 fb 92 be 78 b7 97 bd 77 7e 91 be
       0.19658157 -0.2870775 -0.07408041 -0.28416798

network_body._body_endoder.seq_layers.2.bias f4 [128]
000000 c6 cd 37 bd 84 72 2a 3d 84 4c 4d bb da f1 e3 3d
       -0.044873975 0.041613117 -0.0031326124 0.11130114
000010 bb bc 7f 3e 80 fc 42 3e d3 06 be bd 30 d7 56 3d
       0.24974339 0.19041634 -0.09278645 0.052451313
000020 bf 0c 11 be 11 1e 42 3d 0a 8e 78 bb 61 12 9a bd
       -0.14165018 0.047391955 -0.0037926459 -0.07523037
000030 85 c3 cd 3d 72 6c 10 3e 81 e2 0d 3e 3d 98 0b 3e
       0.10047058 0.14103869 0.13855936 0.13632293
000040 ff b6 3d be 20 dd 69 be ee 25 c6 3c 83 3c 91 3d
       -0.18526839 -0.22838259 0.024188008 0.0709162
000050 f8 1d 76 3e 2a 5f 18 3e 4d ba a2 bd 30 79 a7 3e
       0.2403487 0.14880052 -0.0794569 0.32709646
000060 de 51 a9 be a5 06 c4 bd 45 61 ca bd 1c 25 e3 3d
       -0.33070272 -0.0957158 -0.09881834 0.110910624
000070 e8 b8 30 be 4f 37 63 be a7 84 86 bd 74 ad 7d bd
       -0.17258036 -0.22189067 -0.0656827 -0.061932996
000080 f3 30 55 3d 22 f7 2c 3e 94 f9 08 bd 04 a2 24 bd
       0.052048635 0.16891149 -0.03344114 -0.040193573
000090 35 6e 0b be ab fe 07 3e a0 f8 c4 3d 67 1b 59 3e
       -0.1361626 0.13280742 0.09617734 0.2120186
0000a0 bd 76 0e 3d c7 f2 a6 3d 16 40 0b be 10 c4 90 be
       0.034781206 0.08151775 -0.13598666 -0.28274584
0000b0 9a 26 2e be 11 94 8f 3d ab 1f 68 3e 03 65 bc 3d
       -0.17006913 0.07010663 0.2266833 0.09198954
0000c0 7c d5 a8 be ac 96 33 be d5 80 25 be 50 e2 5e bc
       -0.32975376 -0.17537946 -0.16162427 -0.013603762
0000d0 b8 39 0a 3e 43 84 d8 bd 22 b6 a4 bc 3d b6 37 3e
       0.1349858 -0.10572102 -0.020106379 0.17940612
0000e0 4c bb 90 bd a9 69 ba bd 66 52 e2 3d 60 f1 84 3e
       -0.07066974 -0.09102184 0.110508725 0.25965405
0000f0 2f b8 6f be 39 ee 5b be a7 2d 0c bd 55 da b4 3e
       -0.23410104 -0.21477593 -0.034223225 0.35322824
000100 91 27 80 3d f0 06 51 3d a8 5a b3 be fc 04 23 bd
       0.06257547 0.051032007 -0.35030103 -0.039799675
000110 0a c2 40 bd 78 c3 18 bd 09 e9 9d be a8 b1 bd 3c
       -0.04706005 -0.03729579 -0.30841854 0.023156002
000120 44 49 3d be d5 38 02 be 4b 1d 85 3d 29 54 6f 3e
       -0.1848498 -0.12716992 0.06499728 0.23371948
000130 fe c1 dd 3d 17 9e 32 bd 51 05 b4 bd ed 60 ad 3e
       0.10828017 -0.043607797 -0.087900765 0.3386301
000140 a3 85 10 be 68 e5 d7 3e 1b 83 3f be 23 f3 4f 3e
       -0.14113478 0.4216721 -0.18702357 0.20307593
000150 c4 ae 4a 3c 22 e1 0b 3e 58 52 83 3e a5 d4 a1 3e
       0.012370769 0.136601 0.2564876 0.31607547
000160 32 c7 36 3e 8f 47 d4 3d 03 f2 0d 3c 00 8b 77 3e
       0.17849424 0.10365211 0.008663657 0.24174118
000170 84 88 90 3e e9 97 35 be 9d bb 42 bd 94 d8 7e be
       0.28229153 -0.1773373 -0.047542203 -0.24887305
000180 bd 44 30 3e a8 f7 de 3d 94 bc 00 be 1a 0f b2 3d
       0.17213722 0.108870804 -0.12571937 0.08694287
000190 22 62 34 3d 74 5d ee 3d 93 f0 f6 3d 96 ef 21 3d
       0.0440389 0.116389185 0.12057605 0.039535128
0001a0 81 d1 7b 3e 37 ee b0 3c 1a 5f c5 3e a6 b2 40 3e
       0.24591638 0.021597965 0.3854912 0.18818149
0001b0 16 4c a3 bc 17 53 0b 3d db b1 94 be 9b 66 ae 3c
       -0.019933742 0.034014788 -0.29041943 0.02128916
0001c0 e2 a6 ff 3d 4f 78 77 3e 0b 9d ba 3d 8f 8f 24 3e
       0.12483002 0.24166988 0.09111985 0.16070388
0001d0 44 e3 02 be 03 ac 69 3d b4 04 69 3d 20 d1 85 be
       -0.12782007 0.05704881 0.05688925 -0.26136112
0001e0 80 11 3f be 13 bf 3e be a5 08 72 3d f6 44 f0 bc
       -0.1865902 -0.18627577 0.059090275 -0.029329758
0001f0 eb e8 8b 3c 7a 35 b2 3d da e1 22 bd 7c aa c8 3d
       0.017078837 0.08701606 -0.03976617 0.09798142

action_model._discrete_distribution.branches.0.weight f4 [7, 128]
000000 e0 3b c7 be 96 1d b6 3c cf 55 53 be 6a b2 ee be
       -0.38912868 0.022230905 -0.20638202 -0.46620494
000010 fa 7d 5d be e3 b1 d5 3d f3 73 6f be 1a b7 9d bd
       -0.21630087 0.1043432 -0.23384075 -0.077009395
000020 dd f9 8e 3d 42 79 f2 bc 8f fd d6 bd f7 0a 19 bf
       0.069812514 -0.029598836 -0.10497581 -0.59782356
000030 74 ed 9b bf 7f 94 41 3c 88 22 f5 3d f3 8e c6 bd
       -1.218184 0.011815189 0.11969477 -0.09695234
000040 7e b2 50 bd e9 dc 81 bc 37 e1 ad be fc 04 97 3e
       -0.050951473 -0.015852408 -0.33960888 0.2949599
000050 18 a0 1b be 6e 71 ed 3d 77 8a 99 bc 87 e9 ec bc
       -0.1519779 0.115939006 -0.018742783 -0.028919948
000060 8a ea 36 be 82 4d 13 bf 3e 60 18 bd 44 1a fe 3c
       -0.17862907 -0.5754014 -0.03720116 0.031018384
000070 32 5f 75 3d 3a 30 77 3e e7 d9 88 3e 3c e9 22 3f
       0.05990524 0.2413949 0.26728746 0.6363714
000080 3b 89 c7 3d 20 0b e4 be f3 24 c5 bc 42 82 4a 3e
       0.097429715 -0.44539738 -0.02406547 0.19776252
000090 d7 8d 42 3e b3 c6 18 ba e4 fd 5d 3e ef c4 9c bd
       0.1899942 -0.00058279483 0.21678883 -0.076547496
0000a0 47 9a 89 3e c8 73 64 3e a7 34 93 bd 61 89 cd 3e
       0.26875517 0.22309792 -0.07187777 0.40143874
0000b0 61 02 c6 be 2d 62 55 bc 04 f0 60 3d 63 d9 59 3e
       -0.3867369 -0.013023895 0.054916397 0.21274333
0000c0 23 8a 07 3e 01 14 42 bc ff 55 1e 3e 02 11 c1 be
       0.13236289 -0.01184559 0.15462492 -0.37708288
0000d0 2a 86 7c bd ca df 7c be 31 bd 23 be f7 2c c7 be
       -0.061651386 -0.24694744 -0.1599014 -0.38901493
0000e0 db 32 67 be df ca 3e 3d 0d 1b 46 3e 86 a9 88 3d
       -0.22577994 0.04658019 0.19346257 0.06672959
0000f0 7d 19 16 be 84 6a 8f be 95 d8 0b bd 4e 1f 81 be
       -0.1465816 -0.28010952 -0.034142096 -0.25219196
000100 27 4f 9d 3d 54 61 af 3e 1d 39 18 bb 43 87 9e 3e
       0.07681113 0.34253943 -0.0023227402 0.30962572
000110 ae b1 ed bd b6 5f 53 be d6 33 cc be 0e 19 05 3e
       -0.11606155 -0.2064198 -0.39883298 0.12997839
000120 3f 15 7a 3c 09 aa ef 3d 60 8c 0a 3d 78 47 9c bd
       0.0152638545 0.117023535 0.03382528 -0.07630819
000130 4f f5 d1 3d 44 de 89 3d c8 64 f6 be 39 d5 03 bf
       0.10251867 0.06731847 -0.48123765 -0.51497227
000140 93 01 e4 bd 39 63 ed 3d ad 74 81 3e 9f d5 e5 be
       -0.11133113 0.11591191 0.2528433 -0.44889542
000150 ee 77 2d bf bc 9e 03 3e 6e c0 b2 3e 09 4c 33 3e
       -0.67761123 0.12853521 0.34912437 0.17509474
000160 5e fa 4a 3d d8 7a 18 3d 28 96 02 be 97 13 b4 3e
       0.049555175 0.037226528 -0.12752593 0.35171196
000170 c5 76 1a 3e d0 2d 34 bf 9b a3 a9 be 22 d9 dc ba
       0.1508437 -0.70382404 -0.33132634 -0.0016849379
000180 41 6c 54 3d bc 44 21 3e e9 b9 4f bd 9f 7f c7 be
       0.05186105 0.15748876 -0.050714407 -0.38964555
000190 59 16 a4 be 42 d0 a8 be 6d 9f 8a 3e f3 71 9f be
       -0.320483 -0.32971388 0.27074757 -0.31141624
0001a0 5c a2 1d 3e 95 6c 0b bf 97 c0 04 3e 2b fb 06 3e
       0.15393966 -0.5446256 0.12964092 0.1318175
0001b0 24 6b fa be aa 9a 4e 3d 56 79 82 bd 68 cb c8 bd
       -0.48909867 0.050440468 -0.06370799 -0.09804422
0001c0 f1 96 1b 3d 42 3c 3b bd 28 ce f6 be 8a ea 3c bf
       0.037985746 -0.045711763 -0.4820416 -0.7379538
0001d0 f3 53 8c bd a8 ce 35 3d 46 cd 33 be 50 e3 a3 3d
       -0.068519495 0.044386536 -0.17558774 0.08002341
0001e0 6c cc de be b5 5b 3a be e1 66 a4 3d 3c ef 9c 3d
       -0.43515337 -0.18199046 0.08027435 0.07662818
0001f0 0f 6e 37 3e 17 51 62 3d 67 a6 cf 3e c7 83 19 3e
       0.17913078 0.055253115 0.40556642 0.14991675
000200 6d 3f ec 3d 5b c1 13 bf 17 2d 9b bd 9c 2d bc 3d
       0.11535535 -0.5771691 -0.075769596 0.09188387
000210 06 5c 69 be f0 14 1e 3e 80 6e a4 3e bd 10 9a be
       -0.2278901 0.15437675 0.32115555 -0.30090895
000220 40 2d cd bc 2f b3 ae 3e 36 d7 e6 be d4 3b c7 3e
       -0.025045991 0.3412108 -0.45086068 0.38912833
000230 6c 20 01 3e eb 2c 11 3e ec 1a 45 3e 42 ae c5 3d
       0.12610024 0.14177291 0.19248551 0.09652378
000240 8a 42 f7 be f0 10 1a 3f 16 83 a8 3e 29 41 bb bb
       -0.48292953 0.60182095 0.3291251 -0.005714555
000250 97 1d 08 be c8 1b 75 be fb 77 46 3d d2 81 59 be
       -0.13292538 -0.23936379 0.048454266 -0.21240929
000260 62 dd de 3e 4c 8a 19 3e 10 79 95 3e 4d 42 90 3b
       0.43528277 0.14994162 0.29193926 0.004402435
000270 77 8e 04 3f 5a 44 00 3f 85 49 ec bd 43 4e 39 3e
       0.51779884 0.50104296 -0.1153746 0.1809626
000280 ec 98 a5 be 5a 85 91 3e ab b7 f2 3e f4 44 df bd
       -0.32343233 0.28422052 0.47405753 -0.10901824
000290 6a 50 bb 3e 48 98 0e 3f a1 10 cf be 7c 78 0f 3f
       0.3658479 0.5570111 -0.40442374 0.5604322
0002a0 20 fb c1 3e bb 0e 67 be 18 06 00 3d 66 c7 84 3e
       0.37886906 -0.22564213 0.03125581 0.2593338
0002b0 5b 6a 08 3d 79 de bb 3e 9e 1a 59 3e ee c1 0a bf
       0.033304553 0.3669317 0.2120156 -0.54202163
0002c0 8a e7 0a 3e 87 5e fa 3e 92 9b 13 3a 70 4b 38 3e
       0.13564888 0.48900244 0.0005630787 0.17997527
0002d0 be ab 0a 3f 4b 40 d7 3d d3 ad 81 be 53 e2 8b bd
       0.5416831 0.1051031 -0.2532793 -0.06830277
0002e0 3d 6f f7 3e b1 26 9b bc c9 6a 10 3e 2e 6a c0 be
       0.48327056 -0.018939348 0.14103235 -0.3758101
0002f0 0a 90 e9 3e 78 0e 1b 3f 76 7d f5 3d 30 b0 17 3e
       0.45617706 0.6056895 0.119868204 0.14813304
000300 3c f2 78 be 82 9c c6 3e 7b 2e be 3e 69 46 ee be
       -0.24311155 0.3879128 0.37144837 -0.46538094
000310 21 21 39 be b6 51 86 3e ff ce 23 3d 29 17 be bc
       -0.18079044 0.26234215 0.03999233 -0.023204403
000320 f7 6b 8c 3e b9 03 46 be 68 f4 3b 3e 21 bb 51 3e
       0.2742612 -0.19337358 0.18354952 0.2048154
000330 dd dc b4 3e 45 fa be 3d 46 ee eb 3d ed e4 0d be
       0.35324755 0.09325079 0.115200564 -0.1385686
000340 bf c3 2f be 9f 11 ae bd 14 9c 10 be 65 31 18 3f
       -0.17164515 -0.08499455 -0.14122039 0.5945037
000350 f1 29 66 3e c5 c9 bd 3d 64 00 5a be c0 e3 b5 be
       0.22476937 0.09267 -0.21289212 -0.35525322
000360 b4 8b 4a 3e 01 a6 b5 3e 17 8e 3f 3f 24 41 09 3e
       0.19779855 0.35478213 0.74826187 0.13403755
000370 91 e5 7e bd 48 cb 20 3e 12 c0 1e bd 07 93 11 3f
       -0.06223065 0.15702546 -0.03875739 0.5686497
000380 96 ed 72 3e b1 39 b6 3d 67 43 5b be 00 62 0c 3f
       0.23723444 0.088977225 -0.2141243 0.54837036
000390 34 eb 21 bf db d1 87 be 01 34 45 be 5d 40 80 3e
       -0.63249516 -0.26527295 -0.19258119 0.25049105
0003a0 45 56 b6 3e d7 05 7e bc cd 6b ad bd a1 17 7b 3e
       0.35612693 -0.015504322 -0.08467827 0.24520732
0003b0 a0 e5 24 3e 5a 1c b4 3e 2c 82 fd 3e 88 fd cc 3e
       0.1610322 0.3517788 0.49513376 0.4003718
0003c0 13 16 27 3e de a6 25 bf cd db f5 3d 22 54 ab 3e
       0.16317014 -0.64707744 0.12004814 0.33462626
0003d0 d8 44 b0 3e 0e 08 c7 3e 9e 53 8a 3c b1 0f 72 3e
       0.34427524 0.38873333 0.016885575 0.23638798
0003e0 18 32 2e 3f 8b 0e 14 3e fb 98 03 3e fa 90 8e be
       0.68045187 0.14458673 0.12851326 -0.27844983
0003f0 d6 e6 da bd 3c 72 a6 3e 0c e1 45 3d eb 35 d8 3e
       -0.1068856 0.3250903 0.048310325 0.42228636

action_model._discrete_distribution.branches.0.bias f4 [7]
000000 47 3d 6e bd fe e9 5f be cb c1 2c 3e 81 81 5c 3e
       -0.058163907 -0.21866605 0.16870801 0.21533777
000010 a7 2b 0e bf 42 91 4f 3e be df 61 3e
       -0.5553536 0.20270255 0.22058007

exp_avg f4 [128, 163]
000000 0d 6e bb b7 f1 83 80 b8 0c 88 d5 36 e0 9f fb 36
       -2.2343384e-05 -6.1280916e-05 6.3637326e-06 7.498995e-06
000010 d0 5d ba 38 80 fb 69 b7 d8 43 26 b7 05 b7 68 37
       8.886645e-05 -1.3946439e-05 -9.910167e-06 1.387089e-05
000020 5c db 5b b8 07 a0 9f b8 08 f6 bc b7 f0 9a dc b7
       -5.2417963e-05 -7.611518e-05 -2.2525914e-05 -2.6298192e-05
000030 b5 c2 2e 38 4f 3a 28 b9 10 6d 4b b7 ed 57 0c b5
       4.1666168e-05 -0.0001604345 -1.2125136e-05 -5.2282013e-07
000040 99 a3 ad b7 08 57 5d 37 59 49 44 b9 59 c0 52 b9
       -2.0699388e-05 1.319289e-05 -0.00018719341 -0.00020098816
000050 6c 58 db b7 ce 0f bf b8 ba 7f 47 39 9b 26 e3 38
       -2.6148009e-05 -9.1105336e-05 0.00019025701 0.00010831394
000060 2c 55 06 39 d5 31 c3 b5 00 d4 ae b6 46 48 15 b8
       0.00012810965 -1.4543135e-06 -5.210284e-06 -3.5591678e-05
000070 e5 fc ab b9 a4 ba b5 b9 42 15 dc b7 80 6e da 37
       -0.00032804083 -0.00034662068 -2.6235943e-05 2.603908e-05
000080 c2 bd 8f 39 fb 65 8f b8 a1 21 2a 38 9c 34 6c 36
       0.00027416466 -6.837767e-05 4.0562478e-05 3.5197363e-06
000090 3c 45 5c b6 26 c8 c1 b8 cc 73 33 38 83 f8 b9 b8
       -3.2822854e-06 -9.240238e-05 4.278477e-05 -8.867776e-05
0000a0 05 18 59 b7 1a 9c b1 b8 2d 8c 9d 39 e0 78 2c 36
       -1.29398e-05 -8.469094e-05 0.00030049813 2.5700356e-06
0000b0 e4 03 7c 38 92 0a 61 36 c0 9b a8 36 78 f7 09 b7
       6.0085105e-05 3.3533765e-06 5.024922e-06 -8.223455e-06
0000c0 02 46 11 39 fe 88 c1 38 de a0 86 b6 9f a1 0e 39
       0.00013854358 9.228474e-05 -4.0122386e-06 0.00013602384
0000d0 4b 6a 8a 39 d6 da 5a b8 20 1f fe 38 b3 70 5c 35
       0.00026400606 -5.2179057e-05 0.00012117461 8.2120386e-07
0000e0 6a cd 15 39 a5 3f d0 b7 3e 87 03 39 09 8b 64 39
       0.0001428627 -2.4825169e-05 0.00012543515 0.00021795569
0000f0 81 bb a8 b5 6c c8 ff b7 7b 59 69 39 f2 fa 9e b7
       -1.2571546e-06 -3.0491698e-05 0.00022253946 -1.8951923e-05
000100 53 76 01 39 ba 1f 5d 35 46 6b 41 38 c2 57 9d 38
       0.00012346478 8.2375084e-07 4.6114692e-05 7.5026896e-05
000110 a2 71 ac 39 c5 b8 4c 39 81 b5 72 36 f4 7f e0 37
       0.0003289106 0.00019523788 3.616646e-06 2.6762464e-05
000120 21 f9 58 39 d0 85 f4 b8 b3 5c ce 38 e7 e7 21 33
       0.00020692173 -0.00011659751 9.840112e-05 3.7696648e-08
000130 24 8a 83 37 f7 52 01 39 29 62 62 39 1b d2 63 39
       1.5680744e-05 0.00012333305 0.00021589607 0.00021726677
000140 65 51 7e 36 5e 40 2f b8 6a 85 fa 38 c4 33 b3 39
       3.7896327e-06 -4.1783198e-05 0.00011945779 0.0003418011
000150 33 45 96 39 5f 5c 5e b3 4a c1 85 38 b1 b2 20 39
       0.00028661787 -5.1772414e-08 6.377937e-05 0.00015325357
000160 51 b8 76 b9 b4 3e 9e b8 83 71 bc 35 e9 89 01 b9
       -0.00023529051 -7.5457065e-05 1.4040128e-06 -0.00012353774
000170 1b b8 8f 38 aa 25 0b 39 3a f0 23 39 14 ee ac b4
       6.853064e-05 0.00013270104 0.00015634383 -3.221072e-07
000180 5a 6b f6 38 1b ef b6 38 d8 57 d8 b8 a6 cd 6b b8
       0.0001175019 8.722973e-05 -0.00010316045 -5.621989e-05
000190 74 9b 16 34 f0 ba 58 36 54 c9 93 38 f6 d7 8e b7
       1.4026392e-07 3.229532e-06 7.0470065e-05 -1.7028284e-05
0001a0 d7 b9 0a 39 9d 18 8c b2 5e 31 a8 b6 89 ef 00 39
       0.00013229936 -1.6309338e-08 -5.0125373e-06 0.00012296265
0001b0 64 5c 21 b8 e6 6d 7e 38 74 9b 16 34 bf 2a 7f b7
       -3.8471437e-05 6.066067e-05 1.4026392e-07 -1.5209137e-05
0001c0 b2 f4 90 38 e0 63 07 b9 a0 d1 c3 38 7e c7 64 32
       6.912033e-05 -0.0001291181 9.33737e-05 1.3316706e-08
0001d0 99 bc 6d b8 24 b7 be 38 b8 09 8b 37 ac 17 47 b6
       -5.668085e-05 9.0940186e-05 1.6574617e-05 -2.966709e-06
0001e0 74 9b 16 34 aa 93 91 b7 60 78 61 38 e3 2c 46 38
       1.4026392e-07 -1.7354108e-05 5.375629e-05 4.7248683e-05
0001f0 66 a9 a0 37 7e c7 64 32 5b 8b 90 b8 ee da 1e 38
       1.9152369e-05 1.3316706e-08 -6.892412e-05 3.787403e-05
000200 2c 85 8e 38 42 fe d2 b8 74 9b 16 34 82 cf 5d b7
       6.795893e-05 -0.000100609395 1.4026392e-07 -1.3220941e-05
000210 20 27 3f b5 48 6c 74 b9 de 7f 7b b8 cf 84 3f 32
       -7.120998e-07 -0.00023309991 -5.996215e-05 1.114786e-08
000220 a9 0d 87 b9 04 5d 5c 38 f2 78 b3 39 55 20 1b 39
       -0.00025759384 5.2538715e-05 0.00034231652 0.00014793997
000230 74 9b 16 34 85 bf 8e 38 82 41 68 38 34 19 a2 b8
       1.4026392e-07 6.806761e-05 5.537412e-05 -7.7294564e-05
000240 df bc da 37 23 b5 38 31 03 e7 04 b8 4d 3f a4 38
       2.6075575e-05 2.6878488e-09 -3.16864e-05 7.83192e-05
000250 b4 f5 c4 b8 ac de fb 37 23 b5 38 31 03 e7 04 b8
       -9.391774e-05 3.0025221e-05 2.6878488e-09 -3.16864e-05
000260 4d 3f a4 38 b4 f5 c4 b8 7f de fb 37 be 2b 91 38
       7.83192e-05 -9.391774e-05 3.002514e-05 6.9222864e-05
000270 c7 97 3f b9 52 cc 82 b7 5c 05 34 ba 10 12 8b b8
       -0.00018271721 -1.5592352e-05 -0.00068672537 -6.631401e-05
000280 74 f0 53 b8 ca ef d8 b7 9b f3 3f b8 aa 6f 92 b8
       -5.053026e-05 -2.5860867e-05 -4.5764824e-05 -6.9826216e-05
000290 dd b3 3e 39 12 47 6f b8 4b c6 dd b8 a8 bc 37 b9
       0.00018186816 -5.704823e-05 -0.00010575036 -0.0001752252
0002a0 b8 15 a6 b8 08 50 57 b8 a8 5a 17 b8 ea ed 17 39
       -7.919542e-05 -5.133453e-05 -3.6085636e-05 0.00014489112
0002b0 a1 49 74 37 f7 a0 c0 b8 31 85 1d b8 28 79 ff b7
       1.4560676e-05 -9.1852555e-05 -3.755576e-05 -3.0454787e-05
0002c0 74 8d ef b8 bc 96 91 b9 f9 62 b0 b8 91 48 da b7
       -0.00011422756 -0.0002776886 -8.410769e-05 -2.6021416e-05
0002d0 d2 9c db b8 57 94 b6 b8 4f 73 d8 b9 66 a8 f7 b8
       -0.00010471944 -8.706067e-05 -0.00041284642 -0.000118092445
0002e0 3f 66 0b b8 9d 7b 85 b8 39 21 62 b9 ec 59 e5 b9
       -3.3235407e-05 -6.364959e-05 -0.00021565416 -0.0004374528
0002f0 a3 3a 3e b7 0a 06 80 39 28 c2 93 b9 d4 a6 33 ba
       -1.1338535e-05 0.00024418562 -0.00028182683 -0.00068531674
000300 8a 3e 58 ba b8 e2 1f b8 2a 5a 71 38 b5 26 16 b9
       -0.0008249065 -3.8119702e-05 5.754285e-05 -0.00014319534
000310 cc 09 a9 b9 f7 60 2a ba 14 f9 ca b7 7f de d4 b9
       -0.0003224149 -0.0006499434 -2.4196263e-05 -0.00040601564
000320 14 df 9a b9 5b e1 a0 b9 dc 5a 40 ba ee fd 8a b7
       -0.00029539375 -0.0003068548 -0.0007337758 -1.6569127e-05
000330 1f aa de b8 82 71 ab b9 11 ea 32 b9 b4 e0 3a ba
       -0.000106174724 -0.00032700232 -0.000170626 -0.000712882
000340 ee 33 c9 b7 44 31 2e ba 6f 5c a8 b9 9b 6f b6 39
       -2.3985249e-05 -0.00066449144 -0.00032112325 0.00034796898
000350 95 54 8d b9 f2 f6 58 b7 ec 5f b9 b9 95 dd cc b9
       -0.00026956634 -1.29321e-05 -0.00035357417 -0.00039075004
000360 08 bc 06 b9 e3 f3 78 ba 55 b6 33 36 92 60 d9 b9
       -0.00012849283 -0.0009496791 2.677921e-06 -0.00041461416
000370 8d c0 55 b9 a4 95 da b9 f2 74 31 ba 3d ec cf b6
       -0.00020384994 -0.0004169169 -0.00067694404 -6.1965825e-06
000380 86 e3 95 b9 ff f4 bd b9 aa ac 24 ba 17 a0 a0 ba
       -0.00028589013 -0.00036231425 -0.00062818325 -0.0012254742
000390 eb 66 25 35 96 fd af b9 99 3d 00 ba 66 ff 08 3a
       6.1617055e-07 -0.00033567537 -0.0004891991 0.00052260456
0003a0 ea 42 2d ba d6 0f c8 b6 98 3e 6e b9 d5 fd 9c b9
       -0.0006609397 -5.962308e-06 -0.00022720767 -0.00029943758
0003b0 26 d8 53 ba 78 28 be ba a6 78 ca 35 99 ad 3b ba
       -0.000808122 -0.001450791 1.5085286e-06 -0.0007159352
0003c0 f0 d2 ef b9 7c 81 ce 38 47 2b f8 b9 4a bb ab b6
       -0.00045742793 9.846964e-05 -0.0004733449 -5.1180004e-06
0003d0 e0 88 31 b6 24 13 66 b9 32 a1 40 ba 53 1b bf ba
       -2.6454727e-06 -0.0002194164 -0.0007348239 -0.0014580287
0003e0 78 66 5d 35 f0 4e bd ba 91 d7 e2 b9 be d8 39 ba
       8.247803e-07 -0.0014443081 -0.0004326669 -0.0007089487
0003f0 a4 e1 78 b9 c0 b8 bf b4 c4 4f 1e 3a b0 d3 22 b9
       -0.00023735181 -3.5710946e-07 0.00060391077 -0.00015528384

exp_avg_sq f4 [128, 163]
000000 90 52 02 33 df 77 28 33 97 cc cd 34 9b 5f ea 34
       3.0343074e-08 3.922457e-08 3.8333084e-07 4.365546e-07
000010 15 3f 8c 35 e3 bd a4 32 ea 17 03 33 b7 00 7f 34
       1.0449172e-06 1.9178463e-08 3.0522564e-08 2.3748986e-07
000020 db 61 e2 34 2f d6 68 35 4b b4 1d 33 20 df b6 33
       4.216698e-07 8.6738413e-07 3.6718387e-08 8.5156216e-08
000030 e1 26 89 35 28 c8 2d 35 0d 4e f7 35 8d 47 20 32
       1.0218611e-06 6.473879e-07 1.842565e-06 9.3294945e-09
000040 ff 20 83 33 76 6d ee 33 d6 00 f8 34 d5 70 6e 35
       6.106165e-08 1.11026495e-07 4.6194208e-07 8.88261e-07
000050 be 22 42 33 3a de e7 33 84 88 88 36 45 44 a2 34
       4.5200743e-08 1.07971985e-07 4.0690084e-06 3.0224524e-07
000060 ad fe d1 35 03 c2 8d 32 2c 7a 2c 34 ba 7b e2 33
       1.5645834e-06 1.6502787e-08 1.6063194e-07 1.0546451e-07
000070 98 65 b9 34 96 0b 59 35 ff 40 34 33 fe 88 25 34
       3.4532854e-07 8.085566e-07 4.196863e-08 1.541666e-07
000080 ea c8 a5 36 3a d3 d7 33 44 ac 8d 35 f0 83 8b 32
       4.9407727e-06 1.00501396e-07 1.0555455e-06 1.6241728e-08
000090 2b ae 0f 34 90 a1 82 34 3f d8 ef 34 ac de 85 35
       1.3381275e-07 2.433194e-07 4.467456e-07 9.974078e-07
0000a0 77 e3 8b 33 2a 47 3d 34 af e3 a8 36 f4 45 cf 33
       6.5140675e-08 1.7627886e-07 5.033296e-06 9.651913e-08
0000b0 d7 07 74 35 69 a1 90 32 38 cf 91 34 a3 67 01 35
       9.090849e-07 1.6837207e-08 2.7159126e-07 4.8207056e-07
0000c0 ec db 27 35 12 2e c1 35 40 7f 99 33 12 a8 4e 34
       6.2532376e-07 1.4393029e-06 7.147764e-08 1.9246389e-07
0000d0 27 da b3 36 d2 37 3c 34 48 78 83 35 e9 a5 8c 32
       5.360012e-06 1.7529172e-07 9.795267e-07 1.6373592e-08
0000e0 04 7b d0 34 86 8c 14 35 78 a2 90 35 a4 c8 0b 36
       3.8832525e-07 5.5338785e-07 1.0776121e-06 2.0829402e-06
0000f0 ec 79 96 33 13 5c 2f 34 08 6e 9e 36 21 80 56 34
       7.007097e-08 1.6331641e-07 4.7215763e-06 1.9976916e-07
000100 39 75 aa 35 36 42 8e 32 e5 7c f9 34 43 c5 30 35
       1.2700103e-06 1.6561085e-08 4.6470737e-07 6.585216e-07
000110 5e b7 ab 35 9a 06 21 36 e9 46 b6 33 da 02 73 34
       1.279386e-06 2.3994712e-06 8.487934e-08 2.2632176e-07
000120 67 27 1d 36 55 2d 45 35 72 8f 1a 36 7c c9 8a 31
       2.3417758e-06 7.3454186e-07 2.3031284e-06 4.0392347e-09
000130 bc 7d fd 34 a8 78 1a 35 48 1a 87 35 30 95 28 36
       4.7216406e-07 5.754505e-07 1.0065933e-06 2.512079e-06
000140 a8 83 9b 33 02 4e aa 34 bc 19 c4 34 bc dd 81 35
       7.241698e-08 3.1721726e-07 3.652657e-07 9.675782e-07
000150 53 52 12 36 0a 7c 90 31 26 75 f4 34 2a 9d 0e 35
       2.1803614e-06 4.205053e-09 4.5533778e-07 5.3127826e-07
000160 3f 8d be 35 83 62 41 36 6d ce 44 33 16 e9 cb 34
       1.4197211e-06 2.8816582e-06 4.582255e-08 3.798129e-07
000170 c4 b9 25 34 2c 9c 58 35 90 3b e9 35 1d b2 8e 31
       1.5434404e-07 8.069353e-07 1.7377188e-06 4.152993e-09
000180 21 e4 22 35 45 47 fd 34 5d 7d d3 35 16 09 5b 36
       6.0681674e-07 4.7176778e-07 1.5757211e-06 3.2638832e-06
000190 59 75 28 33 94 3b 7c 34 0f c5 fb 33 94 cd 60 35
       3.9222275e-08 2.3491003e-07 1.1723943e-07 8.374566e-07
0001a0 eb cd da 35 f1 4b 8e 31 b7 e5 2b 35 f5 70 b2 34
       1.6302196e-06 4.1413775e-09 6.4036743e-07 3.323727e-07
0001b0 e7 6b 1e 36 dd d3 80 36 fb ed 04 33 3c b5 26 34
       2.3606642e-06 3.8393614e-06 3.0950087e-08 1.5525887e-07
0001c0 c9 31 0b 34 5b e5 a2 35 94 80 ea 35 3b 4a 8a 31
       1.2963496e-07 1.2136692e-06 1.747178e-06 4.0247676e-09
0001d0 fc 61 52 35 d0 ef 88 34 b7 4b 16 36 9c 9e 84 36
       7.837368e-07 2.550646e-07 2.2395814e-06 3.952371e-06
0001e0 2c aa 04 32 7c d0 3b 34 85 a0 05 34 80 1a 9a 35
       7.722104e-09 1.7491578e-07 1.2444987e-07 1.1481607e-06
0001f0 43 19 f8 35 7c 28 a6 30 5f f2 4c 35 17 01 09 34
       1.8484792e-06 1.2089596e-09 7.634862e-07 1.2759516e-07
000200 e2 5e 37 36 25 56 8b 36 88 74 fe 31 45 d4 85 34
       2.7324354e-06 4.1525514e-06 7.405621e-09 2.4927627e-07
000210 aa 37 26 34 5d c8 7a 35 cd a6 08 36 4f 33 8b 30
       1.5480205e-07 9.3423824e-07 2.036267e-06 1.0128164e-09
000220 86 69 4c 35 94 4e 8c 33 de 9d 26 36 6e cb 86 36
       7.614948e-07 6.533551e-08 2.4827818e-06 4.0171935e-06
000230 1f 34 3e 31 a9 55 cc 34 31 de a8 33 79 6a c8 35
       2.7678266e-09 3.8060287e-07 7.863526e-08 1.4932149e-06
000240 22 0c 42 36 ee 4d 9a 30 3c 99 10 35 74 0b 8f 33
       2.8915315e-06 1.1227124e-09 5.3867166e-07 6.66104e-08
000250 32 8e 22 36 fc e2 7d 36 ee 4d 9a 30 3c 99 10 35
       2.422265e-06 3.783206e-06 1.1227124e-09 5.3867166e-07
000260 74 0b 8f 33 32 8e 22 36 fc e2 7d 36 b5 0a 8f 34
       6.66104e-08 2.422265e-06 3.783206e-06 2.6643616e-07
000270 97 54 83 35 61 74 80 35 5d 64 ee 3b aa 1c c7 36
       9.78488e-07 9.570614e-07 0.007275148 5.933999e-06
000280 86 56 1c 36 25 bd 06 36 0d 15 86 36 ac ed f3 33
       2.3296175e-06 2.0077653e-06 3.995962e-06 1.13588015e-07
000290 76 fd f8 34 2f 44 b9 33 6d a1 33 35 d0 bd f0 35
       4.6378017e-07 8.627136e-08 6.69176e-07 1.7936636e-06
0002a0 ce 78 ca 33 ba a5 df 34 cf d8 86 34 9d 1f 46 35
       9.428332e-08 4.165757e-07 2.5117194e-07 7.380675e-07
0002b0 86 93 f4 35 87 4c f7 33 49 80 05 35 ac 82 48 33
       1.8222352e-06 1.1515754e-07 4.973304e-07 4.6684974e-08
0002c0 e2 8e 5b 35 5f 82 06 36 8e 38 5f 33 b3 a3 09 35
       8.179178e-07 2.0043442e-06 5.197267e-08 5.127469e-07
0002d0 9b 66 c2 34 2b b7 62 35 75 6c 0c 36 ff 61 e1 33
       3.620997e-07 8.4458105e-07 2.0924756e-06 1.0495204e-07
0002e0 c2 70 05 35 87 4e 03 34 f1 c0 a3 35 de 54 19 36
       4.9710445e-07 1.2228894e-07 1.22006e-06 2.2848176e-06
0002f0 9b 05 93 32 e3 34 3d 35 a2 90 08 35 43 16 ab 35
       1.7115601e-08 7.0484947e-07 5.0874417e-07 1.2746972e-06
000300 57 61 3b 36 9e c0 93 33 b9 4f 36 35 61 91 fd 34
       2.792183e-06 6.880258e-08 6.7916295e-07 4.72307e-07
000310 3e 44 98 35 0e 28 26 36 c7 96 ed 32 66 93 ae 35
       1.1344744e-06 2.4759242e-06 2.7658997e-08 1.3006909e-06
000320 c0 8d 64 35 91 50 20 36 6f 5a 9a 36 73 6e 14 33
       8.514289e-07 2.3888754e-06 4.6000855e-06 3.455939e-08
000330 5c be 69 35 58 6e 90 35 86 ca b1 35 1e 50 46 36
       8.7076273e-07 1.076095e-06 1.324647e-06 2.9550934e-06
000340 e2 2d e0 32 ab 91 40 36 50 5d c9 35 7c 9d 5b 36
       2.6097897e-08 2.869502e-06 1.5002825e-06 3.272521e-06
000350 af f5 f8 36 89 f0 3a 33 dc f0 b4 35 98 a0 e0 35
       7.4195773e-06 4.3525265e-08 1.3481144e-06 1.673604e-06
000360 12 82 c8 35 09 f5 77 36 b9 14 c5 32 5b ed 9f 36
       1.4939017e-06 3.6948497e-06 2.2943242e-08 4.766201e-06
000370 46 9b 3c 36 a8 6c b0 36 f3 1d 40 37 99 0e 5c 33
       2.8104564e-06 5.257858e-06 1.1451065e-05 5.1236018e-08
000380 44 5a 0a 36 85 71 29 36 b7 8c 2f 36 20 e2 ca 36
       2.0616144e-06 2.524904e-06 2.615894e-06 6.0463935e-06
000390 3d 37 c4 32 35 ff db 36 dc 11 7e 36 80 33 dc 36
       2.2842523e-08 6.5564186e-06 3.7859345e-06 6.5625063e-06
0003a0 60 64 7c 37 2c ac ae 33 5e 6e 56 36 2e 98 85 36
       1.5043741e-05 8.133824e-08 3.1952727e-06 3.981425e-06
0003b0 66 a8 98 36 b7 7c 24 37 7f 77 bb 32 dc e0 eb 36
       4.549557e-06 9.804199e-06 2.1824006e-08 7.029723e-06
0003c0 ce 6b 94 36 7a 1d 10 37 29 fc 8f 37 42 20 a8 33
       4.423294e-06 8.589932e-06 1.716435e-05 7.828977e-08
0003d0 3e c0 89 36 44 0f 9d 36 9a 86 c2 36 e5 a5 59 37
       4.105298e-06 4.6807418e-06 5.7973202e-06 1.2972833e-05
0003e0 69 a7 05 32 6f 54 f1 36 60 bb a2 36 99 c1 15 37
       7.779684e-09 7.192189e-06 4.8497895e-06 8.9261675e-06
0003f0 cb b6 96 37 28 46 99 33 d6 86 c3 36 f7 fb c6 36
       1.7966513e-05 7.137379e-08 5.82715e-06 5.9301924e-06

exp_avg f4 [128]
000000 4b 8a 97 b8 32 01 a4 ba 13 01 e8 39 68 3b ec b8
       -7.226e-05 -0.0012512563 0.0004425129 -0.00011264422
000010 e8 48 bc b9 c4 85 86 3a dd c6 8a b9 08 06 29 3a
       -0.00035912474 0.0010263254 -0.00026469576 0.0006447737
000020 f7 db 95 b8 02 ec 0c b9 30 29 69 37 2c 95 89 39
       -7.145845e-05 -0.0001343936 1.3897472e-05 0.00026241818
000030 cb 3b 54 b9 5f 54 3c 38 be c7 88 39 bf 67 c0 38
       -0.0002024017 4.490127e-05 0.0002608876 9.174598e-05
000040 57 7b 61 ba 57 e3 39 b9 f0 b1 d6 3a 7f 6c 8f b9
       -0.0008601448 -0.00017727666 0.0016379934 -0.0002735592
000050 f1 e3 3d 39 cb d4 80 ba f8 0f 56 3a f0 f7 72 ba
       0.0001810936 -0.0009829042 0.00081658317 -0.0009268513
000060 e3 cb 77 ba bd 20 23 ba e5 dd 12 3a 31 98 6c 3a
       -0.0009452684 -0.0006222835 0.0005602523 0.0009025364
000070 67 45 9d b9 4c 67 7a b9 00 78 f4 b4 7e 13 75 39
       -0.00029997082 -0.00023880339 -4.5535853e-07 0.00023372282
000080 20 aa d4 b8 c5 d9 d7 39 54 28 50 b9 42 e9 1b ba
       -0.00010140636 0.00041170247 -0.00019851449 -0.0005947539
000090 a0 d7 06 ba a2 55 f2 38 88 c1 25 3a 19 1d b5 b8
       -0.0005143825 0.000115554096 0.0006323089 -8.6361724e-05
0000a0 a8 a8 2d ba 9a f4 80 38 70 34 85 ba e8 5a 4b ba
       -0.0006624558 6.149076e-05 -0.0010162722 -0.00077573815
0000b0 90 07 ee 38 cb ea 83 b9 69 73 4a 38 ef 57 96 b9
       0.00011350133 -0.00025161201 4.8268037e-05 -0.00028675745
0000c0 d7 d1 d7 39 cb 2b 9e 39 ed 75 3a ba d7 10 3f 3a
       0.00041164338 0.00030168737 -0.0007112909 0.0007288581
0000d0 20 80 3f 38 94 a0 30 39 98 4c 23 b9 81 3f 00 b9
       4.5657274e-05 0.00016844488 -0.00015573425 -0.00012230688
0000e0 51 eb b9 b9 3f ca 15 3a 80 9e d3 b8 8c 05 33 3a
       -0.00035461274 0.0005714036 -0.00010090787 0.00068291347
0000f0 ab ee c1 3a fe ea 20 b8 1f df e8 b9 16 ed b0 39
       0.001479586 -3.8365826e-05 -0.00044416726 0.0003374598
000100 e9 06 34 3a a8 ee 29 38 42 8c db 38 8d 9e 00 3b
       0.0006867485 4.0515006e-05 0.00010468859 0.0019625754
000110 74 67 8e b9 32 9b 09 39 72 9d c5 38 b2 7c be b9
       -0.0002716143 0.00013123153 9.4230185e-05 -0.0003633253
000120 1c bc 7c b9 55 bd 7c b9 20 cc 9a b7 e8 73 6a b9
       -0.00024102669 -0.00024103124 -1.8453284e-05 -0.00022359157
000130 9e a8 85 b9 f4 ed 82 ba 75 4f 5d 3a dd 47 95 3a
       -0.00025493366 -0.0009989128 0.0008442321 0.0011389215
000140 b0 81 48 b8 af d8 51 3a b4 6e 38 3a 7c 6d 8f b9
       -4.7804497e-05 0.00080050057 0.0007035539 -0.00027356658
000150 80 13 39 39 1b fd 18 38 99 12 c0 39 f7 44 6d 38
       0.00017650239 3.6475347e-05 0.0003663495 5.656943e-05
000160 0a 2c 57 b9 24 4b a4 b9 48 44 d5 b8 f8 d3 0d 3a
       -0.00020520404 -0.00031336502 -0.0001016935 0.0005410309
000170 c2 22 14 3a 8a 1d 83 ba 68 11 83 b7 2a 66 22 ba
       0.0005650931 -0.001000331 -1.5624522e-05 -0.0006195033
000180 58 8b 8d 39 53 c4 2e 37 16 67 95 b9 ae 90 5f b8
       0.00026997435 1.04169185e-05 -0.000284963 -5.3302087e-05
000190 ac 0d b6 b7 d5 04 38 3a 1c b9 58 38 ce 3d 08 ba
       -2.1702457e-05 0.0007019763 5.167081e-05 -0.0005197198
0001a0 b9 7d 89 39 e0 46 f2 b9 9c 81 1d b9 06 3b d8 39
       0.00026224347 -0.00046210643 -0.0001502097 0.00041242706
0001b0 cc 5a d8 b9 60 02 b1 38 e6 96 c1 39 39 bd 1e 3a
       -0.0004126638 8.44046e-05 0.00036924257 0.0006055418
0001c0 04 7b e6 b9 2b 71 a9 b9 17 a5 e5 b9 2d e5 75 ba
       -0.00043960672 -0.0003231851 -0.00043801285 -0.0009380158
0001d0 79 a3 5c 39 61 3a 57 ba f4 bd ef b8 5c aa 0d ba
       0.00021041733 -0.0008210298 -0.000114317896 -0.00054041087
0001e0 5e d7 71 38 82 6c ae 39 f0 63 56 39 87 ba 7d b9
       5.7659454e-05 0.0003326871 0.0002044586 -0.00024197447
0001f0 ca 17 db 38 b8 29 cb b7 1e a2 0a ba 7e 45 4d b9
       0.00010447165 -2.4218913e-05 -0.00052884396 -0.00019576211
