Trained_Policies/WeightAgent_Training/WeightAgent_Training/WeightAgent_Training-244499981.pt (torch, 926628 bytes, 33 tensors)

network_body._body_endoder.seq_layers.0.weight f4 [128, 163]
000000 32 01 97 3e 9d 00 f5 be 78 b4 84 3d eb 7b 3c 3e
       0.294931 -0.4785203 0.06479734 0.18406646
000010 e2 01 df 3e a9 cb 43 bd 0e 2b e5 be 5d 9d 93 be
       0.43556124 -0.047801647 -0.4475941 -0.28830996
000020 92 21 00 3e 81 86 39 3f 3d e0 9c 3e 4a 6c 54 be
       0.12512806 0.7247086 0.3063983 -0.20744434
000030 f9 29 d1 3e ad 46 3e 3a 83 92 2e 3e 89 fb a2 bd
       0.40852335 0.00072584563 0.17048077 -0.07958133
000040 03 07 b1 be df 92 65 bf 2e ca a3 3c 54 6a 04 3f
       -0.34575662 -0.8967723 0.019993868 0.51724744
000050 01 a6 f9 3e 51 87 b6 bb da 12 2b 3f 90 af bb 3e
       0.48759463 -0.00557033 0.6682564 0.3665738
000060 18 20 06 bf 65 15 b1 be 94 ac b6 be f9 cb e4 be
       -0.5239272 -0.34586635 -0.35678542 -0.4468687
000070 f3 66 89 be 62 60 d6 3e e1 8b 57 3e 86 e6 55 3d
       -0.26836357 0.4187041 0.21049453 0.052221797
000080 f4 4a 10 3f c7 a7 0e 3e 49 24 17 bf 43 02 78 be
       0.5636437 0.1393119 -0.5903974 -0.24219613
000090 b2 4c 2c bf 61 37 47 be 38 df 45 be fa cc 6f 3e
       -0.6730453 -0.19454719 -0.19323432 0.23418036
0000a0 4c 70 37 3e 0f fd 2e 3e 8a 78 0c 3f 9a 7f 76 3e
       0.17913932 0.17088722 0.5487143 0.24072114
0000b0 83 4c 1d bf ab d5 d3 be 56 fd fd be a6 aa 9a 3c
       -0.6144487 -0.41373953 -0.49607342 0.0188802
0000c0 a2 ac 2f be 70 92 a2 3d 37 4c 0d 3f 06 d5 9e 3e
       -0.17155698 0.07938087 0.5519442 0.310219
0000d0 dc 7d e5 3d e3 14 22 3f ee f4 90 be 01 10 a9 be
       0.112056464 0.6331312 -0.28311867 -0.33020023
0000e0 bc bd 75 3d f5 08 6f 3e eb 7c 37 be d6 f8 a2 3e
       0.059995398 0.2334326 -0.17918746 0.31830472
0000f0 69 75 d8 3e 5f da be 3d 2d 80 87 3e 70 70 39 3d
       0.42277077 0.09318995 0.26464978 0.045273244
000100 34 f2 b8 be 5f 4f 87 be dc 8d 81 be e0 2d 27 3e
       -0.36122286 -0.26427743 -0.25303543 0.16326094
000110 19 2e e9 bd 4d ab 26 3e 16 b0 09 3f d7 c8 0d bd
       -0.113857456 0.16276284 0.5378431 -0.034615364
000120 a3 76 a3 3e 95 eb 41 3e 50 91 d9 bd 91 bb 16 3e
       0.3192645 0.18937524 -0.10623419 0.14719988
000130 f8 1c a5 3c b8 55 7c 3e ac 34 6d be 42 c9 7f 3d
       0.020155415 0.24642074 -0.23164624 0.062447794
000140 8f a5 ac 3e 89 e4 de be c3 ca 79 be e1 fe f0 3d
       0.3372006 -0.43533733 -0.24393754 0.11767364
000150 e8 c0 4c bc 35 2a 20 3e a3 0e c6 be da fd 8c bd
       -0.012497164 0.156411 -0.38683042 -0.06884356
000160 e6 19 e7 bd f9 bf d4 3d f5 97 20 3e e2 f5 5d 3e
       -0.112842366 0.103881784 0.15682967 0.21675828
000170 db e4 8e be f9 80 ef bd 2e 32 e9 bb b8 5a f0 bd
       -0.27908978 -0.116945215 -0.0071165776 -0.11736053
000180 aa 53 d2 bd 2b 38 4e 3e b7 f6 3a be 74 a5 3b 3d
       -0.10269864 0.20138614 -0.18258177 0.045812085
000190 b7 43 6c 3d b5 76 66 be 83 97 4d be 01 37 fb 3d
       0.057681765 -0.2250622 -0.20077328 0.122663505
0001a0 2b ff 09 3c 88 04 56 3d 47 4a 17 be ec 0f d7 3c
       0.008422653 0.052250415 -0.14774428 0.02625271
0001b0 86 33 39 3e c7 5e 14 3d e1 dc f2 3d be 57 a6 be
       0.18086061 0.0362232 0.118585356 -0.32488817
0001c0 fb 87 6b bd 73 bc 8f 3e 33 65 ae bd 60 a1 6f be
       -0.057502728 0.28073463 -0.08515396 -0.23401403
0001d0 85 fd c0 3d 3d 69 15 be f7 42 5e bd 5e 33 22 3e
       0.09423355 -0.14590926 -0.05426308 0.15839908
0001e0 e3 af 95 3c 85 1e d3 be 5d 99 b4 3d 5e 05 40 3e
       0.018272346 -0.41234222 0.08818314 0.18752047
0001f0 39 16 58 be ce 90 af be 1b d4 20 3e 03 bc 13 bb
       -0.21102227 -0.34290165 0.15705912 -0.0022542484
000200 63 ec 37 3e 94 0c d8 3d 9c c8 0b be 2f ce 99 bd
       0.17961268 0.10549274 -0.13650745 -0.075100295
000210 26 ea 0d 3d 8d 12 03 be 46 2f 88 be ab 6e 1a bd
       0.03464713 -0.12800045 -0.26598567 -0.037703197
000220 ee e3 67 be 9c ba 88 be f0 1a 06 3e ff d0 90 3d
       -0.22645542 -0.26704872 0.13096213 0.07071113
000230 5c c8 a4 be 8a 3f 4e be de 4e b2 be 1c 57 25 3c
       -0.32184112 -0.20141426 -0.34825796 0.010091569
000240 fd 6e 2f be 89 cd 26 be 42 36 c9 bd 72 90 94 3d
       -0.17132182 -0.16289343 -0.09824802 0.07254113
000250 68 20 7c bd df f3 98 3d ed 43 52 be f2 ab 80 be
       -0.061554343 0.0746839 -0.20533724 -0.25131184
000260 ac ac 9f bc 17 13 7c 3d f5 d9 26 3d b4 00 2b bd
       -0.019491516 0.061541643 0.040735204 -0.041748717
000270 58 b5 96 3e 3f 03 91 be 0f e7 af bc a0 23 a6 bd
       0.2943523 -0.2832279 -0.021472482 -0.08112264
000280 75 71 70 3d a2 70 2a 3e d5 3d 21 bf 67 2b b9 bb
       0.05870195 0.16644529 -0.62984973 -0.005650926
000290 45 c3 fd 3e 75 4c ad bd a0 0e 8b bd 61 2a 11 bf
       0.4956304 -0.08461849 -0.06789899 -0.5670529
0002a0 00 bc 6a 3d 8d d7 73 3e 3e 2a 8b 3d aa 68 1b 3e
       0.057308197 0.23812695 0.067951664 0.15176645
0002b0 eb 54 7b bf bd fd 5c 3e a6 76 86 3d 36 8c 48 bf
       -0.9817645 0.21581168 0.06565599 -0.78338945
0002c0 79 a0 eb 3e 3b fa 01 bf 0d 79 cb 3c 6b a2 cb 3e
       0.46020868 -0.50772446 0.024837995 0.39772353
0002d0 e3 0d a1 3e f8 d7 b5 bc a7 cf 6a bf 23 aa cd 3e
       0.31455907 -0.022197708 -0.917231 0.40168867
0002e0 a6 87 6f 3e d8 f8 aa bf f4 b1 11 3e e1 e2 41 be
       0.2339159 -1.3357191 0.1422804 -0.18934204
0002f0 af b3 14 be a3 67 b8 3d cd d8 4a 3e ec 94 bc 3e
       -0.14521669 0.09004142 0.19809265 0.36832368
000300 dd 4d 15 bf 19 18 0e bd 6c 77 8a 3e e6 4f 4e bf
       -0.58321935 -0.03469095 0.27044237 -0.80590665
000310 cc f8 81 3e c6 97 f9 3c b6 08 5d bd 95 72 09 3d
       0.2538513 0.030467879 -0.053963386 0.03355654
000320 1f 9a 5f 3e 59 e8 2b 3e 31 cf 2e bf 07 ad 76 3d
       0.21836136 0.16787852 -0.682849 0.060223605
000330 92 97 b0 3e bf d0 f9 be bf a0 d8 3d 2c 44 02 3e
       0.3449064 -0.48792073 0.10577535 0.12721318
000340 65 d2 62 3c 8a 02 b7 3d 34 25 95 3e be b1 99 3e
       0.013844107 0.08936031 0.29129946 0.3001842
000350 68 a2 e7 be 6c b7 de 3d 14 f8 a7 3e f1 93 3e be
       -0.45241094 0.10874829 0.32806456 -0.18611123
000360 27 4d 06 bd e8 28 15 3e 0a 8f 23 3d ce f6 e1 3d
       -0.032788422 0.14566386 0.039931335 0.110334024
000370 c8 d5 22 3e e0 92 74 3e 1c 3e 88 bd d5 7d ca 3c
       0.15901864 0.23884153 -0.066524714 0.024718205
000380 21 82 51 3e 99 8a 22 3e 83 8b 7f bd 80 ee 0e 3e
       0.20459796 0.15873183 -0.062388908 0.13958168
000390 4f 58 07 3d d1 35 95 3e c8 4e 4a 3e a1 8a 51 bd
       0.033043202 0.2914262 0.19756615 -0.051157597
0003a0 af a3 9d 3d 0f 01 11 3e 04 6b 7e 3e 96 9a 82 bc
       0.07697236 0.1416056 0.2484551 -0.015942853
0003b0 e1 e1 0a 3e 7a 14 ab 3d 45 3d 91 be 3c 96 30 3e
       0.13562728 0.08353515 -0.28367057 0.1724481
0003c0 c0 5c 87 3d 33 37 be bd b1 f8 9f 3d d2 8b a6 3d
       0.066094875 -0.09287872 0.07811106 0.08132137
0003d0 26 c6 23 bc 1d 42 25 3e 82 01 8a be 09 19 29 3c
       -0.009995973 0.16138501 -0.26954275 0.01032091
0003e0 62 1f 66 bd d4 c3 95 3d ce 5c aa 3d a1 90 15 3e
       -0.056182273 0.07312742 0.08318482 0.14605953
0003f0 79 ca 73 3e e5 3f a9 3e 4a 37 47 3d 5c 69 2e be
       0.23807706 0.3305656 0.048636712 -0.17032379

network_body._body_endoder.seq_layers.0.bias f4 [128]
000000 d6 54 6d 3c 6a 20 e5 3d 90 99 6b 3d af 9c 64 bd
       0.0144855585 0.11187823 0.057519495 -0.055813488
000010 65 47 19 3e dd b9 1d bd c8 eb 19 3d b6 8b b5 3e
       0.14968641 -0.03850733 0.037578374 0.35458153
000020 f3 40 d8 bd fc 2a 6f 3a be 69 81 3d 57 6b e0 3d
       -0.10559263 0.00091235316 0.06318997 0.109579735
000030 d4 50 72 3c e7 bb 95 3d 25 d4 88 3d 06 c8 c8 bd
       0.014789779 0.0731123 0.06681088 -0.098037764
000040 50 10 1e bd 02 4d 3e bd ab cb 81 3d 51 59 04 be
       -0.038589776 -0.04646016 0.06337675 -0.12924697
000050 4e ba 47 3e d6 c8 fc bd 68 37 56 3e 41 b9 dd bd
       0.19504663 -0.12342994 0.20919573 -0.1082635
000060 4f d6 01 3e 12 f7 8b 3d a3 46 63 bd e5 f1 bd 3b
       0.12679408 0.06834234 -0.055487286 0.0057966583
000070 ed ff b7 3d 6b f1 07 3d d1 70 0d be a8 1b b6 3d
       0.08984361 0.03318922 -0.13812567 0.08891994
000080 c1 4d 18 bc 5f 99 f2 3d 28 60 92 3d f6 bf 2a 3d
       -0.009295882 0.118456595 0.071472466 0.041686974
000090 5c 5e 20 3e dc 85 6d 3d a7 32 a7 bb e4 f1 cc bd
       0.15660995 0.057988986 -0.005102474 -0.100070745
0000a0 c6 c9 4c 3e f4 9a ae bd e3 11 10 bd 76 46 53 3d
       0.19998845 -0.08525649 -0.035173308 0.05158087
0000b0 3f 2b b2 3d c6 f0 47 bc 4b 31 8d bb 4b 3a 74 3c
       0.08699655 -0.012203401 -0.0043088547 0.014906476
0000c0 71 f5 46 bd 64 91 10 3d 8a e4 23 be d6 12 30 3c
       -0.048573915 0.035294905 -0.1600515 0.010746678
0000d0 ae 88 94 3d 49 8c 2b 3d ef bd d2 bc b4 e3 0d bd
       0.07252632 0.041881833 -0.025725333 -0.034640983
0000e0 4e 5f 9b bd 18 6b d5 3d 5f d3 5d bc e3 ea 11 3d
       -0.07586537 0.10420817 -0.013539164 0.035624396
0000f0 92 d8 e8 3c 1c 6b 2a 3d 23 f9 3b bd 3e f5 d8 3c
       0.028423581 0.041606054 -0.045891892 0.026484128
000100 6b bd 4a 3e 9f 93 f3 3c 9d 00 c2 3c 07 1c b5 bd
       0.1979882 0.029733477 0.023681933 -0.088432364
000110 cf 02 3e be 95 0c 3a be 84 3f 88 3e 6e 6c a2 bd
       -0.18555759 -0.18168862 0.2661096 -0.079308376
000120 f2 cd 98 bc 7d 80 81 bd f9 f8 ca 3d af 90 fb 3a
       -0.01865289 -0.06323335 0.09910769 0.0019192899
000130 8b 00 c0 bd 7b a3 b2 3b 05 9c 16 3c 0b 6b 08 3e
       -0.093751036 0.0054516173 0.009192471 0.13322084
000140 d8 74 a6 3a 46 30 fb bc 25 15 89 3e ea 57 d8 bd
       0.0012699617 -0.030662667 0.26773944 -0.10563643
000150 cc de eb bc a2 7d c0 3c 88 b1 17 be 18 e9 09 bd
       -0.028792761 0.023497406 -0.14813817 -0.03366956
000160 09 cd ad bd 2d 25 28 3c 93 9e bd 3c 38 51 c3 bd
       -0.08486373 0.01026277 0.023146903 -0.095369756
000170 c4 4f 31 3c d1 a9 49 bc 7b f1 50 3e 2f 47 8d 3d
       0.01082224 -0.012308554 0.20404617 0.06898343
000180 53 42 64 3e 61 c7 bc ba c8 b7 2e 3e ba aa 05 3d
       0.22290926 -0.0014402681 0.17062294 0.03263352
000190 1f 05 3e 3c d1 42 2d be 1c 7f 25 3e 53 6e d2 3d
       0.011597901 -0.1692002 0.1616177 0.10274949
0001a0 be 16 40 bc bf df 39 bd cd 8e f5 bd 3f 63 cd 3c
       -0.011724172 -0.045379397 -0.11990128 0.025071738
0001b0 81 97 ae 3d b4 8d 2b be 11 67 9c bd 94 1f bf bd
       0.08524991 -0.16753274 -0.07636846 -0.09332195
0001c0 1f 32 1e 3e 5f 8e a8 bd a2 88 05 bd cf 0f 24 be
       0.15448807 -0.0823028 -0.032601006 -0.16021655
0001d0 5b 68 44 3d 01 70 50 3d 67 7b 2b 3e 22 ab 82 bd
       0.047951084 0.050888065 0.16746293 -0.06380297
0001e0 87 b9 69 3d 00 02 5a 3d cc 87 30 3d 33 ea b5 bc
       0.0570617 0.053224564 0.043098256 -0.022206401
0001f0 ab 83 42 3c 1f 90 e4 3d 89 b8 91 3d 1d 2d ca 3d
       0.011872212 0.111603014 0.071152754 0.09871886

network_body._body_endoder.seq_layers.2.weight f4 [128, 128]
000000 46 82 21 3f 0e f7 28 bf a6 8b 2a be 55 58 10 be
       0.63089406 -0.66001976 -0.16654834 -0.14096196
000010 ae 93 90 3d 5c ca 6c be 26 e3 0b 3d d6 de 28 bf
       0.07059418 -0.23124069 0.034152173 -0.6596502
000020 4c 08 b6 3e 3d f9 86 be 12 c5 99 ba 2c 6e a5 be
       0.35553205 -0.2636203 -0.0011731705 -0.32310617
000030 d7 c2 be 3c 73 06 2f bf cc 2e 42 3e 76 97 bd 3d
       0.023286266 -0.68369216 0.18963164 0.092574045
000040 94 3b 5b be 3a e0 ae be d0 50 05 be b5 82 ad be
       -0.21409446 -0.34155446 -0.13019109 -0.33888784
000050 fa ba e3 be df 3e 8e 3e 51 d1 da be 97 30 95 be
       -0.4447859 0.27782342 -0.4273782 -0.29138634
000060 5d 5d f0 3d 59 0c 8b be 0b 68 bd 3c 6d 3e 08 be
       0.11736558 -0.27157858 0.0231209 -0.13305064
000070 89 8b e3 3d ce 83 06 3e 8b fb c0 3c ce 71 22 bd
       0.111105986 0.13136217 0.023557445 -0.039659314
000080 a5 31 ce bd 16 55 c6 bc 1e 8d 6e be 89 e3 4b 3d
       -0.10068063 -0.024210494 -0.2329602 0.04977754
000090 7c 6b 28 3e 04 b0 00 be 1a f3 33 ba 1b ef d8 3d
       0.16447252 -0.12567145 -0.0006864533 0.10592481
0000a0 99 82 dd bc 98 f4 56 3e 00 5c a7 3e cb ee 8a 3d
       -0.027039813 0.20991743 0.32687378 0.067838274
0000b0 b5 a6 4f be 3d e7 be 3d ea 26 a1 be a2 02 db be
       -0.20278437 0.09321449 -0.31475002 -0.42775446
0000c0 d7 e9 9f be 6c 22 f2 be bc 56 52 3e c3 f2 7a be
       -0.31233093 -0.47291887 0.20540899 -0.24506669
0000d0 94 fd 21 3e be 88 ac 3d 01 38 47 bf 02 d7 14 be
       0.15819389 0.08424519 -0.7781983 -0.14535144
0000e0 36 fd 2b be 67 e5 08 bf bd c6 84 bd f2 8d e4 bc
       -0.16795811 -0.5347504 -0.06483219 -0.027899716
0000f0 68 0d 76 3e b9 34 4b be 4e 79 5e 3e 9e 85 a0 3c
       0.24028552 -0.19844331 0.21725962 0.019594964
000100 8e 8d 6f be 48 d4 49 bf ce da 32 bc 98 3b 00 3e
       -0.23393843 -0.7883954 -0.010916425 0.12522733
000110 1a b6 3f be 88 aa 2a be 8b 9a e4 bd ca 55 9b 3d
       -0.1872181 -0.16666615 -0.11162289 0.07584722
000120 ee 44 cb 3c d4 d6 46 3e be 1c a1 bb c0 27 86 be
       0.024813142 0.19417888 -0.0049167564 -0.26202202
000130 a9 6c d3 bd 8f 13 0f be 1b bd 58 be 08 45 cc bd
       -0.1032346 -0.13972305 -0.21165888 -0.09974104
000140 17 7d d9 bc 09 37 e9 bb 0a 47 71 bd b8 71 49 3e
       -0.026548905 -0.0071171564 -0.05890564 0.19672287
000150 87 d0 fe be 7c 01 ad bc 2d f6 6c bd 47 14 a4 3d
       -0.4976847 -0.021118872 -0.05785196 0.0801168
000160 fd 60 58 bd eb dc 9b bc 15 8c 12 3e b2 7f 13 be
       -0.05282687 -0.01902624 0.1431125 -0.1440418
000170 c0 33 40 bd 05 b9 f2 bb 19 b9 a2 be 53 1a c8 bd
       -0.046924353 -0.00740731 -0.31781843 -0.09770646
000180 47 eb bb 3c 92 bd b9 be 81 46 dc 3d 36 0f ff be
       0.022939337 -0.36277443 0.10755635 -0.49816293
000190 c0 de 84 3e 35 b7 82 bd 48 44 ce 3d d6 34 44 3e
       0.25951195 -0.063826 0.10071617 0.1916078
0001a0 75 f9 24 3d 8f 99 af be ff 23 5e be 01 86 b9 be
       0.040276963 -0.34296843 -0.21693419 -0.3623505
0001b0 97 21 af 3e b9 4c 8b be 5c 6d a4 be dd 41 0d bf
       0.34205315 -0.27206972 -0.32114685 -0.55178624
0001c0 44 a2 80 3d cd 77 87 be 93 03 fc be 95 2c 40 be
       0.0628095 -0.26458588 -0.49221477 -0.18767007
0001d0 04 81 20 be b5 4a 3c bd 87 a3 35 3e ab f2 f4 be
       -0.15674216 -0.045969684 0.17738162 -0.4784139
0001e0 a2 c5 3e be 94 59 d8 be 0b e0 99 bd 2c 5b 30 3e
       -0.18630078 -0.42255843 -0.07513436 0.1722228
0001f0 22 c1 40 3e 34 49 98 3c 45 ff 3c 3e 99 9e 5d 3e
       0.18823674 0.018589593 0.18456753 0.21642531
000200 fd f3 4e bd 2e 6c c8 bb 1a e7 04 be 2c 8c f9 3e
       -0.050525654 -0.0061164116 -0.12978783 0.48739755
000210 81 02 dd be d0 e1 91 bc 2f fd ec 3e bf 42 e4 3a
       -0.43165973 -0.017807871 0.46286914 0.0017414911
000220 88 d0 22 3e 24 12 d2 3e cc 08 0b 3f 94 88 11 3f
       0.15899861 0.41029465 0.543103 0.56849027
000230 42 10 9a be bf f6 f1 3d 48 07 3c 3e aa 86 c8 3e
       -0.3009053 0.11814641 0.18362153 0.3916524
000240 2a b7 24 be 9a 4e fe bd e7 9c fd 3e ca 15 ef 3e
       -0.16085497 -0.12417336 0.4953377 0.4669631
000250 8d 05 53 3d 4a 79 a1 be 5e 84 96 3b 73 fe 16 bd
       0.051518966 -0.3153785 0.004593416 -0.036863755
000260 2f 5e c9 3e 1f 72 08 3e 6e 87 a7 be 7a 20 db be
       0.3932967 0.13324784 -0.32720512 -0.42798215
000270 1b ae d4 3c 66 72 c3 bd 36 f4 e5 3d fd b8 01 3e
       0.025961926 -0.09543304 0.1122822 0.12668224
000280 63 c7 8a 3d 39 7e 3a 3e 30 0f 50 be a4 73 9c 3e
       0.06776311 0.18212213 -0.20318294 0.30556977
000290 bf cb 22 3e 06 98 47 3d 1d 39 8b 3e a7 34 89 3e
       0.15898035 0.048728965 0.2719201 0.26797983
0002a0 18 d5 c3 3e 35 47 a6 3d d9 eb 62 bd 3d 5a d3 bd
       0.38248515 0.081190504 -0.055400703 -0.10319946
0002b0 9c 4e 05 3f 65 44 be bc 77 c9 3e be 64 b8 c8 3e
       0.52073073 -0.023225972 -0.1863154 0.3920318
0002c0 ee 33 41 3e 9b 82 34 3f 58 04 c8 be eb 35 d0 ba
       0.18867466 0.7051179 -0.39065814 -0.001588521
0002d0 46 7b 7a be 68 05 8b be 42 b0 26 3e 24 72 96 bd
       -0.24461088 -0.27152562 0.16278175 -0.07345989
0002e0 c9 a8 85 3e 26 e9 db 3e dd b4 32 3e c9 6d 0e bf
       0.26105335 0.42951316 0.17451806 -0.5563627
0002f0 da 5c 8d 3d 74 fc d4 3d 60 da a4 3d 13 83 54 be
       0.06902476 0.10399714 0.08049464 -0.20753126
000300 e1 ad 1e be 3d da d8 3e f2 c3 b7 be 18 0c 8c 3e
       -0.15496017 0.42354003 -0.35891682 0.27352977
000310 01 2c c2 3d 77 a7 40 3e 46 9c 48 bd 8f 7b 1c 3f
       0.09481049 0.18813883 -0.04897716 0.61126035
000320 91 a4 88 be 42 f4 95 bd e2 08 3f bd 29 6e 23 3f
       -0.26688054 -0.07321979 -0.04663933 0.63839966
000330 bf 12 9d 3e 8d fc 29 3f c3 a7 38 3e 62 a2 fe bd
       0.30678365 0.66400987 0.18032746 -0.12433316
000340 78 ad c9 3d c5 06 9c 3e 97 b6 fb bd 1a 21 10 be
       0.0984754 0.30473915 -0.122906856 -0.14075127
000350 86 0d 83 bd 9f 65 86 be f2 e7 37 3e 96 de 8b 3d
       -0.06399064 -0.26249406 0.17959574 0.06829564
000360 84 3f 90 be 9e 9c 57 3e 52 e6 85 be 8f 56 1e be
       -0.2817346 0.21055838 -0.26152283 -0.15462707
000370 75 b9 34 3f 0d 25 07 be 92 00 13 3e d4 04 82 bc
       0.70595485 -0.13197728 0.14355686 -0.015871443
000380 65 bf 75 be e2 b4 a5 3e 82 dd 33 be d9 20 35 bd
       -0.23998792 0.32364565 -0.17564967 -0.04422078
000390 45 ce 14 3c 7b fe e3 bc 30 41 d6 bd b9 df 37 be
       0.009082382 -0.027831307 -0.10461652 -0.17956437
0003a0 33 b3 67 be 6f 88 32 bd d0 15 a6 bd 39 0e 0c 3e
       -0.22626953 -0.043587144 -0.08109629 0.136773
0003b0 e1 9d 3a 3e c8 d8 af 3e 4b 2e a9 3d 1a 5e 2f be
       0.18224289 0.34345078 0.08260783 -0.1712574
0003c0 97 41 64 bc d0 7c cf be 8f 7a d0 be 4f 2c 37 be
       -0.013931653 -0.40524912 -0.40718505 -0.17887996
0003d0 b3 c1 0f 3e 8e 97 90 3d 6c cd 6a 3d 33 c2 6c 3e
       0.14038734 0.07060157 0.05732481 0.23120956
0003e0 6b 5b 8f be a7 a9 d6 bd b0 c7 6b bc 31 96 b4 bd
       -0.27999434 -0.10481577 -0.014390871 -0.08817709
0003f0 e7 bd 3e 3e 8e 10 98 be b3 0d 8b bd a4 19 8b be
       0.1862713 -0.2970013 -0.06789722 -0.27168

network_body._body_endoder.seq_layers.2.bias f4 [128]
000000 ee dc 4c bd ec 4d 12 3d 04 d8 eb 3b 04 71 f1 3d
       -0.050015382 0.035718843 0.007197382 0.11789134
000010 d9 92 7c 3e b2 80 36 3e f1 47 bf bd fd bb 19 3d
       0.24665393 0.17822531 -0.093398936 0.037532795
000020 1a 61 10 be 54 7c 52 3d 7a d0 d8 bc 7d 3d ad bd
       -0.14099541 0.0513881 -0.026466597 -0.084589936
000030 4f bf bd 3d 80 cb 0d 3e 8a 54 0f 3e a8 63 12 3e
       0.09265005 0.1384716 0.13997093 0.14295828
000040 de ef 3a be f0 65 6d be 5c 1c bb 3c 98 9f 91 3d
       -0.18255565 -0.23183417 0.022840671 0.07110518
000050 c2 72 79 3e cf f8 1f 3e 73 56 c7 bd fc 19 ab 3e
       0.24360183 0.15622257 -0.09733286 0.33418262
000060 b5 07 a5 be e9 05 d9 bd 19 3b d6 bd f1 5e fe 3d
       -0.32232442 -0.105968304 -0.10460491 0.124204524
000070 dc 6f 2d be 29 04 5b be 27 c1 7a bd b0 c0 4d bd
       -0.16937202 -0.21388306 -0.06121936 -0.05023259
000080 e5 3a 7d 3d cc 31 28 3e 89 fa f0 bc b6 5d 83 bd
       0.061823744 0.16425246 -0.02941634 -0.06414358
000090 9e eb 03 be 8b 8d 13 3e 6d e7 c3 3d 19 90 4c 3e
       -0.1288285 0.14409463 0.09565625 0.19976844
0000a0 11 62 0e 3d ed 0d 99 3d fb fa 0b be 02 24 89 be
       0.034761492 0.07473359 -0.1366996 -0.26785284
0000b0 aa 46 2b be 4c 6d a2 3d fe 96 69 3e 54 e7 ba 3d
       -0.16726175 0.07931003 0.22811505 0.091261536
0000c0 09 38 b0 be 39 25 3b be 18 98 23 be 89 1c 94 bc
       -0.3441775 -0.18275918 -0.15975988 -0.018080013
0000d0 9f ff 0b 3e 65 1e db bd a4 43 ac bc 14 b4 3b 3e
       0.1367173 -0.10699157 -0.021028347 0.18330413
0000e0 e3 26 9e bd d5 65 c3 bd bb 65 da 3d f0 2c 86 3e
       -0.07722261 -0.09540907 0.10663935 0.2620616
0000f0 39 57 68 be a0 d6 50 be d8 4d d6 bc f7 b1 b2 3e
       -0.22689523 -0.20394373 -0.026160166 0.349014
000100 54 90 86 3d 5d 92 4a 3d 64 0f a9 be f0 90 c3 bc
       0.06570497 0.04945599 -0.33019555 -0.023872823
000110 f7 9a 41 bd 9d dc 5c bd b5 20 9d be cc 2e f9 3c
       -0.047266927 -0.05392133 -0.30689016 0.030417822
000120 c4 11 40 be 7e 6f 00 be 04 52 79 3d 40 65 68 3e
       -0.18756777 -0.12542531 0.06086923 0.22694874
000130 fe f2 c9 3d e0 c6 1a bd bc ee c7 bd b1 9c a7 3e
       0.098608 -0.03778732 -0.09762332 0.32736734
000140 f9 c3 16 be b9 db da 3e 55 47 3c be 9b c2 4e 3e
       -0.14723195 0.4274576 -0.18386586 0.20191424
000150 75 7c 6d 3b 4f 91 07 3e ce 2e 80 3e 7e e8 a5 3e
       0.0036237512 0.13239025 0.2503571 0.3240394
000160 56 2d 2f 3e 1e 6e b7 3d 83 bc 6c 3b 48 ac 6f 3e
       0.17107138 0.0895655 0.0036123104 0.23405564
000170 50 14 8f 3e 1d 29 43 be 8d f4 75 bd 78 0e 7f be
       0.27945185 -0.19058652 -0.060047675 -0.24907863
000180 1d 61 31 3e d6 83 eb 3d 65 6b 0c be 91 a5 aa 3d
       0.17322202 0.11499755 -0.13712843 0.083323605
000190 99 69 2a 3d 38 12 ee 3d 02 ef f3 3d 6b e2 23 3d
       0.041604612 0.11624569 0.119108215 0.04001085
0001a0 51 01 81 3e 34 fa aa 3c fd 28 c5 3e a0 37 4d 3e
       0.25196317 0.02087126 0.38507834 0.2004075
0001b0 a7 93 f9 bc 51 c2 48 3d 87 29 9e be 97 dd 9d 3c
       -0.030465914 0.04901344 -0.30891058 0.019270701
0001c0 3a 12 05 3e 7f 04 7d 3e 28 ea c1 3d 83 32 19 3e
       0.12995234 0.24708746 0.0946849 0.14960675
0001d0 52 43 f9 bd 86 9a 63 3d 6c 2e 69 3d c8 0d 8a be
       -0.121710435 0.055567287 0.056929037 -0.2696364
0001e0 9a 09 3b be 68 79 43 be 94 22 80 3d ac 9d e2 bc
       -0.18265381 -0.19089282 0.06256595 -0.027663074
0001f0 a6 6d 22 3d bc 36 ae 3d d4 fd e0 bc f0 04 ae 3d
       0.03965535 0.085065335 -0.027464785 0.084970355

action_model._discrete_distribution.branches.0.weight f4 [7, 128]
000000 9c 64 c2 be aa a5 80 3c b1 c1 59 be 93 d6 f5 be
       -0.37967384 0.015703995 -0.21265294 -0.4801527
000010 4c 59 5c be 2d 95 ca 3d a7 1f 72 be 68 36 88 bd
       -0.21518439 0.09891734 -0.23644887 -0.06651002
000020 11 a7 a5 3d 87 02 45 bd 6c 55 b2 bd 35 a8 13 bf
       0.08088506 -0.048098113 -0.08707699 -0.5767854
000030 3d 24 9c bf 11 9b 9d 3b e0 3d fd 3d e0 ca bc bd
       -1.2198559 0.004809745 0.12365317 -0.09218383
000040 90 76 5a bd bf bb 9e bc ee 66 a7 be ac 34 9e 3e
       -0.053335726 -0.019376634 -0.32695717 0.3089956
000050 6b 78 0f be b6 9b f8 3d 4e e0 7e bc a6 0b 12 bd
       -0.1401078 0.121390745 -0.015556408 -0.03565564
000060 dc 08 2e be 15 f3 10 bf c5 05 43 bd 70 e9 93 3c
       -0.16995567 -0.56620914 -0.047612924 0.018055648
000070 3c 25 76 3d 99 ef 75 3e 69 10 88 3e 48 fa 22 3f
       0.060094103 0.2401718 0.2657502 0.6366315
000080 26 87 cd 3d fe d0 df be 95 5e 3d bc 3a 7f 4e 3e
       0.10035543 -0.43714136 -0.011558195 0.2016572
000090 63 1b 45 3e 65 86 53 3c 06 a0 57 3e 47 af a0 bd
       0.19248728 0.01291046 0.21057138 -0.078459315
0000a0 5b f5 88 3e 1d 13 5b 3e a1 be bc bd e2 3e cb 3e
       0.2674969 0.2139401 -0.09216047 0.39696413
0000b0 7b 49 cd be 70 2e 9b bc 6d 7e cc 3c 63 e9 58 3e
       -0.40095124 -0.018943042 0.024962628 0.2118278
0000c0 ea 43 18 3e d0 dd 40 bc f1 de 27 3e da d3 b6 be
       0.14869657 -0.011771634 0.16393639 -0.35708505
0000d0 ca c3 30 bd 11 8b 7c be 04 ef 20 be 65 2c c5 be
       -0.04315547 -0.24662425 -0.15716177 -0.38510433
0000e0 bf 93 5e be 1f 60 56 3d 75 f8 39 3e 0c bc 79 3d
       -0.21736048 0.052337762 0.18161185 0.06097035
0000f0 b7 e1 16 be e7 af 8a be 11 ce 6f bd 0f b1 80 be
       -0.14734541 -0.27087328 -0.05854613 -0.25135085
000100 09 32 8b 3d 2f 35 ad 3e 17 d9 67 3c 79 0b a3 3e
       0.06796653 0.33829638 0.014150879 0.3184469
000110 02 1e e9 bd 8d 69 56 be 62 48 ca be 4c b7 f4 3d
       -0.11382677 -0.20938702 -0.3950835 0.119490236
000120 12 57 9f 3c df 07 f9 3d 84 c8 18 3d 72 b1 b5 bd
       0.019450698 0.121597044 0.0373006 -0.08871736
000130 77 70 d5 3d cd ae 7b 3d f7 e7 f5 be ff 78 01 bf
       0.104218416 0.061446 -0.48028538 -0.5057525
000140 1b 0a f7 bd 31 1a e2 3d 4b 17 87 3e e8 13 e3 be
       -0.12062474 0.11040152 0.2638496 -0.44351125
000150 55 c1 2d bf e6 b1 f9 3d 6c bd ae 3e fc c4 35 3e
       -0.67873126 0.121921346 0.34128892 0.17750925
000160 e6 3c 56 3d 0f 8f 01 3d 58 30 da bd 5f 31 b3 3e
       0.05230417 0.031630572 -0.10653752 0.34998605
000170 85 86 22 3e a4 cf 2f bf a1 c9 a1 be 7e f9 86 bc
       0.15871628 -0.6867621 -0.31599143 -0.016476389
000180 b1 15 54 3d 76 d8 18 3e a5 8f 52 bd 9b fc c1 be
       0.0517785 0.14926323 -0.05140652 -0.37888035
000190 4e e7 ad be b6 1a b0 be d9 23 8c 3e 8b cc a1 be
       -0.33965534 -0.3439538 0.273711 -0.31601366
0001a0 e7 76 1a 3e f1 62 0e bf d2 42 02 3e bd 47 04 3e
       0.1508442 -0.5561972 0.12720802 0.12917991
0001b0 b3 df f5 be 44 f9 6c 3d 06 22 4b bd 11 10 dc bd
       -0.4802223 0.057854906 -0.049592994 -0.10745252
0001c0 bf 35 04 3d 9a 17 69 bd bd 13 f3 be 24 51 3d bf
       0.03227782 -0.056907274 -0.47475997 -0.73951936
0001d0 ed 29 5c bd 71 ac 55 3d 4d 99 12 be 92 81 a1 3d
       -0.05375092 0.052166406 -0.14316292 0.07886042
0001e0 b6 f5 d2 be 88 5e 2f be a5 76 a1 3d 6d eb a5 3d
       -0.41203088 -0.17125905 0.07883958 0.081015445
0001f0 bc fb 40 3e 11 cd 70 3d f5 0a db 3e a4 c9 20 3e
       0.18846029 0.058789317 0.42781797 0.1570192
000200 63 9b f8 3d 1c 2f 15 bf b9 bc 9b bd 6e 08 b9 3d
       0.12139013 -0.5827501 -0.07604355 0.09034811
000210 b4 02 5f be 92 6f 14 3e 1a fd aa 3e e9 13 96 be
       -0.21778375 0.14495686 0.33396226 -0.29312065
000220 14 c8 a7 bc 09 bf bc 3e 94 37 e3 be 0a 18 ce 3e
       -0.020481147 0.36864498 -0.4437834 0.40252715
000230 2d 84 0e 3e 4c d9 10 3e 65 e6 42 3e 66 55 c4 3d
       0.13917609 0.14145392 0.19033201 0.09586601
000240 ca 5a fd be 53 64 1d 3f 16 79 a2 3e 8f c1 61 bb
       -0.4948333 0.6148121 0.31733006 -0.0034447645
000250 56 75 0b be df e3 8a be 46 10 43 3d 28 97 5e be
       -0.13618979 -0.27126977 0.04762294 -0.21737349
000260 1c 7f e3 3e 9f e7 1f 3e 70 c9 95 3e 47 0a bb 3b
       0.44432914 0.156157 0.29255247 0.0057080123
000270 b6 46 05 3f d4 ce ff 3e 43 37 0c be 80 51 3c 3e
       0.5206102 0.49962485 -0.13692956 0.18390465
000280 22 13 a9 be 2f 39 9a 3e 32 16 f1 3e d9 c3 cf bd
       -0.3302241 0.30121753 0.47087246 -0.10144777
000290 f1 f2 b8 3e df d1 0f 3f 7d 5a cb be 15 90 11 3f
       0.3612285 0.5617961 -0.39717475 0.56860477
0002a0 4c 33 c9 3e 6c 27 5c be 76 61 0c 3d 2c 5c 91 3e
       0.3929695 -0.21499413 0.034272633 0.28390634
0002b0 64 b7 3b 3d f2 cf bb 3e 93 d0 64 3e c8 c4 0b bf
       0.04582919 0.36682087 0.2234519 -0.5459714
0002c0 58 c5 eb 3d 7b ca f9 3e f1 24 14 3b de 50 3a 3e
       0.1151225 0.48787293 0.0022605027 0.18194911
0002d0 c4 10 0e 3f a9 fa e5 3d cd 82 88 be 04 2f 63 bd
       0.5549433 0.1122945 -0.26662293 -0.05546476
0002e0 d3 a6 f9 3e 71 f9 b9 bc 1d 55 0d 3e a5 53 be be
       0.4876009 -0.02270195 0.13802 -0.3717319
0002f0 0d 9a f4 3e 47 66 1b 3f f6 47 02 3e 86 50 1b 3e
       0.4777378 0.6070294 0.12722763 0.15167436
000300 78 dd 7f be 5e 57 c3 3e 2e 05 cc 3e 94 22 fa be
       -0.24986827 0.38152593 0.39847702 -0.48854506
000310 6c 0a 2f be e5 65 8b 3e 01 7c 25 3d fb 2e 0d bd
       -0.1709382 0.27226177 0.040401462 -0.034468632
000320 66 1c 8c 3e af bc 39 be fc 99 34 3e 6c f1 35 3e
       0.27365416 -0.18138383 0.17636865 0.17767876
000330 c7 4f b2 3e a5 54 9f 3d 16 91 ed 3d 38 ad 0f be
       0.3482649 0.077798165 0.115999386 -0.14030921
000340 57 d2 24 be 75 6a 8a bd da 6a 16 be 01 8d 16 3f
       -0.16095863 -0.06758586 -0.14689198 0.58808905
000350 bc 7e 61 3e a0 1a bf 3d 8a a7 52 be d6 8c b9 be
       0.22021002 0.0933125 -0.20571724 -0.36240262
000360 0b d2 4a 3e cc 8e b3 3e 2e c5 3f 3f 4f 7a 02 3e
       0.19806688 0.35069883 0.7491025 0.1274197
000370 45 9a 93 bd e4 18 19 3e 67 6b 2d bd b1 c1 13 3f
       -0.07207159 0.14950901 -0.042338755 0.57717425
000380 50 63 76 3e f1 52 a1 3d aa 41 6d be 2c 37 08 3f
       0.24061322 0.07877148 -0.2316958 0.53209186
000390 74 bf 20 bf 26 8f 87 be 31 ef 3d be c5 cc 71 3e
       -0.62792134 -0.264764 -0.18548276 0.2361327
0003a0 fd 20 b4 3e fa 8b 22 bc 9c 38 b3 bd ed cb 80 3e
       0.35181418 -0.009921068 -0.08751032 0.25155583
0003b0 f6 4f 24 3e b7 57 b6 3e 58 1b fe 3e 04 f5 cf 3e
       0.16046128 0.35613796 0.49630237 0.4061662
0003c0 83 ae 1a 3e eb 6d 26 bf 06 40 dc 3d 22 d1 b2 3e
       0.15105633 -0.6501147 0.10754399 0.3492518
0003d0 bc 25 b0 3e 42 47 d2 3e 3e 6e 73 3c 6f d4 6f 3e
       0.3440379 0.4106999 0.014857827 0.2342088
0003e0 46 d8 32 3f 7d cc 01 3e 25 b0 e5 3d 27 84 92 be
       0.6986126 0.12675662 0.112152375 -0.2861645
0003f0 5e bf ef bd 99 8f a3 3e 61 24 29 3d 7d 75 d7 3e
       -0.11706422 0.31945494 0.04129446 0.42081824

action_model._discrete_distribution.branches.0.bias f4 [7]
000000 d6 8a 6d bd 92 b6 6a be f1 8a 29 3e 36 b1 5e 3e
       -0.057993732 -0.22921208 0.16556908 0.21747288
000010 13 d1 0d bf 42 a9 55 3e 2c 31 65 3e
       -0.55397147 0.20865348 0.22382039

exp_avg f4 [128, 163]
000000 0e e5 14 b8 03 83 23 b7 48 90 54 37 6e 24 53 b9
       -3.5499274e-05 -9.746061e-06 1.2669778e-05 -0.00020136099
000010 82 cc e7 b9 22 ae f0 b6 46 75 9b b6 f6 48 d8 37
       -0.00044212124 -7.172829e-06 -4.6330124e-06 2.5783182e-05
000020 e8 3b 2d b9 5c 05 c0 b9 5d 5a 30 b7 72 ba c8 b7
       -0.00016520882 -0.00036625087 -1.0511457e-05 -2.3928678e-05
000030 0a c3 49 b9 48 fc ae 38 0a 26 80 b9 28 97 cb b6
       -0.00019241511 8.3439576e-05 -0.00024442404 -6.0674683e-06
000040 6d 16 21 38 aa d2 69 38 15 f8 4f b9 b3 49 a7 b9
       3.8406277e-05 5.5747725e-05 -0.00019833476 -0.00031907632
000050 79 f4 28 b7 7d 7f fc b8 08 c0 7a b8 5c ae ce 36
       -1.0070501e-05 -0.00012040043 -5.9783488e-05 6.1595765e-06
000060 e2 bd ab b8 f0 11 98 b7 22 9d 08 37 64 2d be b7
       -8.189284e-05 -1.8128165e-05 8.142817e-06 -2.2670902e-05
000070 72 6f da b8 3c 76 a4 b9 8a 99 91 b7 7a 41 29 37
       -0.00010415808 -0.0003136861 -1.7356844e-05 1.008843e-05
000080 90 b6 cb b8 6f 4c 4b 38 5e fd df b8 7a ba 97 b7
       -9.713799e-05 4.8470156e-05 -0.00010680662 -1.8087438e-05
000090 5c 62 bd b8 da b3 9c 38 c0 b1 7b b8 b9 c9 4d b9
       -9.030543e-05 7.4721596e-05 -6.0008606e-05 -0.00019625471
0000a0 ff 31 9b b7 e0 58 4e 37 a0 f8 6b 37 2f 1a e4 b8
       -1.8500721e-05 1.229925e-05 1.4064979e-05 -0.00010876764
0000b0 00 4b 24 b9 30 c2 49 b7 36 39 67 b8 e0 00 09 39
       -0.00015668198 -1.2025746e-05 -5.5127974e-05 0.00013065664
0000c0 11 23 cd b9 59 6e c7 b9 3c bf e8 37 78 be 21 39
       -0.00039126773 -0.00038038453 2.7745606e-05 0.00015425112
0000d0 0c 86 8b b8 af 91 35 b9 15 1c 3d b9 cb c1 49 b7
       -6.653005e-05 -0.00017315776 -0.00018034906 -1.20256545e-05
0000e0 f6 9e 1d 39 34 6f 9c b8 fd 16 b4 b9 30 2b 85 b9
       0.00015031904 -7.459373e-05 -0.00034349403 -0.00025399914
0000f0 d6 c2 87 36 07 b0 39 39 c4 db 7f b9 a4 10 fe 38
       4.0459954e-06 0.0001770855 -0.00024400564 0.000121147634
000100 58 4f ae b8 cb c1 49 b7 8e cd 39 b9 77 1f 82 b9
       -8.3117455e-05 -1.20256545e-05 -0.0001771955 -0.00024818975
000110 00 09 56 b5 3e 40 46 b9 03 61 1f b6 10 b0 8a 36
       -7.973431e-07 -0.00018906684 -2.3749315e-06 4.133217e-06
000120 24 bb 63 b9 dd 99 0e 3a 33 5f 56 b9 6c 86 21 33
       -0.00021718122 0.00054397975 -0.00020444095 3.760799e-08
000130 c7 e3 90 b9 18 a1 36 b8 dc b2 9a 38 64 ec 8b b8
       -0.00027635528 -4.354221e-05 7.3766074e-05 -6.672068e-05
000140 8a b6 7a 36 de 4c 9b 38 89 af 5c 39 4e be b1 b9
       3.7359155e-06 7.4052936e-05 0.00021046227 -0.0003390186
000150 48 ec 47 b9 c4 45 9a 36 4a 3b 1c b8 98 1e b4 36
       -0.0001906614 4.5976794e-06 -3.7248516e-05 5.3679796e-06
000160 c4 d2 45 39 81 d6 22 b9 37 19 91 36 60 6d 93 b5
       0.000188659 -0.00015529433 4.324272e-06 -1.0984186e-06
000170 aa 1b 80 38 64 c8 50 38 20 e5 69 37 73 b7 c9 36
       6.1086685e-05 4.9777693e-05 1.394123e-05 6.011623e-06
000180 e6 7b c1 b8 16 f1 06 38 3f 8a 0a b9 fe fd 82 b9
       -9.226035e-05 3.217262e-05 -0.00013212206 -0.0002498477
000190 2a 35 16 b7 30 bb a4 b8 2c 6a bb 36 e0 31 71 37
       -8.953075e-06 -7.854996e-05 5.5853943e-06 1.4376332e-05
0001a0 e0 27 de b7 9e b6 c9 36 46 46 48 b9 d6 2d d4 38
       -2.648303e-05 6.0115262e-06 -0.00019099665 0.00010117485
0001b0 ac ce 1e ba ad 7f 02 ba 81 5e 91 b6 28 87 5f 36
       -0.0006058018 -0.00049781316 -4.3323384e-06 3.330826e-06
0001c0 34 73 9c 36 12 74 40 b9 86 7d f2 b8 57 b7 c9 36
       4.6625737e-06 -0.00018353786 -0.0001156284 6.0116104e-06
0001d0 c6 f0 8e b8 0d fd fa b8 01 19 a1 b8 9b 08 92 b9
       -6.815935e-05 -0.00011968063 -7.6817356e-05 -0.00027853702
0001e0 d7 40 2c b5 00 f2 ea 38 25 47 77 b7 13 82 2c 38
       -6.416935e-07 0.000112030655 -1.4738912e-05 4.1129137e-05
0001f0 ea 8f 4d 38 68 64 ca 36 37 81 cb 38 f3 c5 12 b9
       4.900984e-05 6.031758e-06 9.7038625e-05 -0.00013997387
000200 00 2a 5b b9 70 70 a7 b9 75 91 8f b3 c5 89 3a 38
       -0.00020901114 -0.00031936495 -6.685415e-08 4.4474164e-05
000210 38 64 ed b6 c0 39 22 b6 ec 39 31 b9 fa a7 39 b3
       -7.0748174e-06 -2.4173496e-06 -0.00016901613 -4.3226443e-08
000220 26 6b ae b9 e6 d1 d7 b8 40 e1 6e b6 f3 32 25 b9
       -0.00033267698 -0.000102910955 -3.5595876e-06 -0.00015754606
000230 d6 40 38 b3 27 27 85 b8 c4 db e5 b6 4d 70 09 b8
       -4.2899806e-08 -6.349227e-05 -6.850316e-06 -3.2767934e-05
000240 ec fd 9c b9 0d f2 37 b3 b4 fc c9 b7 01 fe db 37
       -0.00029943825 -4.282815e-08 -2.4078741e-05 2.6225114e-05
000250 bb 12 d1 38 74 53 8a b9 0d f2 37 b3 b4 fc c9 b7
       9.9693854e-05 -0.0002638359 -4.282815e-08 -2.4078741e-05
000260 01 fe db 37 bb 12 d1 38 77 53 8a b9 81 ce 12 b9
       2.6225114e-05 9.9693854e-05 -0.00026383597 -0.00014000574
000270 d4 9b a1 b9 a9 36 2f b9 3e 4a 12 bc a3 d1 c1 b9
       -0.00030824414 -0.00016709663 -0.0089288335 -0.0003696802
000280 58 7d 82 b8 12 b8 0e b8 d7 91 d8 b9 f2 aa 9a 37
       -6.22223e-05 -3.4026867e-05 -0.0004130739 1.8437833e-05
000290 60 46 32 38 36 99 b7 b6 2c 9f 67 b9 40 c8 02 ba
       4.250405e-05 -5.471661e-06 -0.00022089173 -0.0004988946
0002a0 f1 98 91 b6 38 5d c1 38 69 a5 a6 b8 73 d9 68 b8
       -4.3391415e-06 9.2203205e-05 -7.946307e-05 -5.5515626e-05
0002b0 80 ac 12 ba 60 97 ff 36 ac e3 b2 38 d5 9e 20 b8
       -0.00055951625 7.6172146e-06 8.5301086e-05 -3.8294897e-05
0002c0 1d 89 8e b9 2a ba 33 b9 05 01 45 36 44 83 d9 38
       -0.00027186508 -0.00017140122 2.935588e-06 0.000103718165
0002d0 df ee 7b b7 a8 c5 1f 38 0c 2d a2 b9 d0 86 07 37
       -1.5016382e-05 3.8092636e-05 -0.0003093261 8.0780155e-06
0002e0 4a 36 20 b9 58 1a 30 b9 50 17 c2 39 bc 29 d0 b8
       -0.00015279013 -0.00016794482 0.00037019933 -9.9259865e-05
0002f0 86 38 09 37 a6 bb e6 39 ed 1c 52 b9 76 60 94 b9
       8.178997e-06 0.00044008828 -0.00020037936 -0.0002830063
000300 f8 52 f9 b9 80 72 a9 36 ce 35 b0 b8 62 54 b9 b7
       -0.00047554797 5.049922e-06 -8.402356e-05 -2.2093012e-05
000310 9f a5 b2 38 d0 a1 f9 b8 01 88 b0 38 67 ac 0e ba
       8.518551e-05 -0.00011903385 8.417667e-05 -0.000544256
000320 22 6f 71 b9 24 a1 17 ba 45 49 53 ba 06 97 c4 37
       -0.00023024951 -0.00057842047 -0.0008059929 2.3435347e-05
000330 ac af 19 b9 03 5a d1 38 f5 5d 23 39 48 c2 8c 38
       -0.0001465666 9.9826626e-05 0.00015579893 6.711908e-05
000340 ce 42 aa 38 b6 e6 00 39 39 15 2f b9 54 ce 84 ba
       8.118675e-05 0.00012292978 -0.00016697207 -0.0010132291
000350 7b c5 87 ba ad a7 1c 37 4a 30 cf b8 d6 e6 02 39
       -0.0010358536 9.337365e-06 -9.879524e-05 0.00012483759
000360 44 78 71 b9 79 5e 98 b9 ef 42 aa 38 ee af 8e b9
       -0.00023028353 -0.00029062087 8.118699e-05 -0.00027215428
000370 3e 98 01 ba 5c 87 ca b9 07 2c 91 ba ae f8 f0 37
       -0.00049436453 -0.00038629293 -0.0011075743 2.872603e-05
000380 12 b4 c6 b9 72 55 6a 39 17 ca 79 39 ce 67 f7 b8
       -0.00037899666 0.0002234781 0.00023821775 -0.00011797213
000390 ef 42 aa 38 f1 da c2 b9 67 09 cb b9 07 7d 1a 39
       8.118699e-05 -0.00037165688 -0.00038726183 0.00014733161
0003a0 3c 98 24 ba f8 44 52 38 cd 78 f3 b8 5a d3 4b 39
       -0.0006278788 5.0132134e-05 -0.00011609644 0.00019438323
0003b0 74 39 a3 38 5c 53 02 b9 e3 5d 9f 38 5d 8b 99 ba
       7.783147e-05 -0.0001242882 7.5991986e-05 -0.0011714507
0003c0 7d 3e 0c 39 1f 72 be b9 03 7a 47 ba 4b 26 7e 38
       0.00013374719 -0.0003632465 -0.0007609429 6.0593982e-05
0003d0 e3 95 38 39 c5 10 39 39 d2 32 13 ba 43 6d 01 ba
       0.00017603445 0.00017649222 -0.0005615178 -0.0004937241
0003e0 24 14 d3 36 31 43 8c b9 78 a1 a1 38 9c 38 77 ba
       6.2906347e-06 -0.00026752942 7.707154e-05 -0.00094307377
0003f0 3a a3 89 ba 9f 4d 72 38 af 88 92 39 e9 eb 20 39
       -0.0010500916 5.7769586e-05 0.00027949127 0.00015346672

exp_avg_sq f4 [128, 163]
000000 6e 27 96 32 f8 66 37 33 e7 4a 64 34 9b 8d da 34
       1.7480229e-08 4.2701657e-08 2.1261404e-07 4.0708696e-07
000010 5e d6 90 35 b0 62 74 32 eb 9f 46 33 0c 34 e6 33
       1.0791225e-06 1.4225108e-08 4.6245912e-08 1.0719677e-07
000020 0d eb 09 35 52 20 84 35 e8 16 ba 32 76 67 88 33
       5.137852e-07 9.844173e-07 2.1663666e-08 6.351813e-08
000030 c7 b6 07 35 6b 06 24 35 9d d9 db 35 6a 43 c6 31
       5.0557395e-07 6.11041e-07 1.6380105e-06 5.7702225e-09
000040 cf 39 a3 33 df 79 4f 33 fb 0e d2 34 5c 18 59 35
       7.600794e-08 4.8306784e-08 3.9126448e-07 8.0874247e-07
000050 7a 89 eb 32 d5 56 1a 34 58 6f 2e 36 dc 4b 0a 35
       2.7420118e-08 1.4373957e-07 2.599283e-06 5.1519396e-07
000060 88 46 d7 35 3f 45 4b 31 43 ea e4 33 2e 1c 00 34
       1.6039276e-06 2.957975e-09 1.0659689e-07 1.193118e-07
000070 90 db b0 34 a3 cb 62 35 c7 bb b5 32 4f 1a 94 34
       3.2942307e-07 8.448789e-07 2.1156565e-08 2.758629e-07
000080 5d 9a 7d 36 f0 99 b2 33 6b 51 8d 35 28 24 5f 31
       3.778979e-06 8.316772e-08 1.0529014e-06 3.2471323e-09
000090 50 8c 18 34 cc ce 9b 34 d1 86 8e 34 05 6e 70 35
       1.4207149e-07 2.9021464e-07 2.6547653e-07 8.9567067e-07
0000a0 d2 84 c5 32 1b 66 99 34 9d 97 81 36 b1 ca d5 33
       2.2994218e-08 2.8572762e-07 3.8621497e-06 9.955455e-08
0000b0 ca f9 74 35 9f da 58 31 f4 da 54 34 89 b8 13 35
       9.1260574e-07 3.1556409e-09 1.9823693e-07 5.50303e-07
0000c0 61 77 0f 35 96 80 b3 35 b0 25 a0 32 59 b3 8e 34
       5.344537e-07 1.3373963e-06 1.864359e-08 2.6580054e-07
0000d0 d9 73 79 36 0b df 65 34 3e 05 84 35 a4 73 f9 32
       3.7171324e-06 2.140843e-07 9.836292e-07 2.9040002e-08
0000e0 89 c1 c6 34 a3 08 65 35 11 9b 91 35 61 2e 03 36
       3.702119e-07 8.5321716e-07 1.0848472e-06 1.9547517e-06
0000f0 be 08 94 32 47 2c 78 34 71 00 68 36 7d c7 4a 34
       1.7233443e-08 2.3112908e-07 3.457095e-06 1.888529e-07
000100 5f a1 91 35 f0 d4 02 33 6b 66 d4 34 f7 b1 a1 35
       1.0850307e-06 3.046165e-08 3.9562596e-07 1.2047229e-06
000110 bb f3 66 35 3a 71 fe 35 06 29 91 32 d8 21 72 34
       8.603635e-07 1.8957428e-06 1.6898877e-08 2.2550319e-07
000120 a7 95 04 36 4b 8a 4c 35 64 bf ff 35 48 eb fe 32
       1.9756642e-06 7.6197165e-07 1.9054683e-06 2.9676485e-08
000130 24 a3 cb 34 d4 eb ae 35 3f 05 40 35 14 c4 fc 35
       3.7930397e-07 1.3032645e-06 7.153321e-07 1.8832529e-06
000140 88 a9 6f 32 c5 e6 98 34 db 4f 28 35 06 19 4d 35
       1.3950178e-08 2.8480113e-07 6.270108e-07 7.6404865e-07
000150 66 24 e9 35 59 e7 01 33 8f 8f d9 34 1a fe 9d 35
       1.7370446e-06 3.0245562e-08 4.0523852e-07 1.1771365e-06
000160 4a 41 2e 35 7d a3 eb 35 74 71 56 32 14 df b6 34
       6.491506e-07 1.7556446e-06 1.2482236e-08 3.4062452e-07
000170 49 fa 82 34 e0 f0 1a 35 b0 0d c3 35 a9 40 fe 32
       2.4396493e-07 5.771999e-07 1.4532616e-06 2.9598896e-08
000180 8a 74 02 35 94 5c 80 35 73 01 60 35 40 71 09 36
       4.859836e-07 9.563687e-07 8.344861e-07 2.048051e-06
000190 13 be 60 32 e9 0c 75 34 c4 a4 64 34 a6 37 29 35
       1.3081734e-08 2.28221e-07 2.1294096e-07 6.3038385e-07
0001a0 1d ab b8 35 98 ed 54 31 ce 2b 02 35 56 79 4a 35
       1.3758869e-06 3.0985117e-09 4.849252e-07 7.542743e-07
0001b0 87 e6 ba 35 d8 0a 2b 36 8b 84 9c 31 6f 73 19 34
       1.3925172e-06 2.5487298e-06 4.555266e-09 1.429123e-07
0001c0 cd de 53 34 9e 31 57 35 31 20 be 35 1d f0 09 31
       1.9731961e-07 8.0165944e-07 1.4165472e-06 2.0072612e-09
0001d0 f1 92 05 35 f0 73 b9 34 39 85 01 36 50 c3 44 36
       4.976019e-07 3.454329e-07 1.9300044e-06 2.9319963e-06
0001e0 e3 b5 cd 30 64 46 3c 34 ec 60 3f 34 5a 36 45 35
       1.4967408e-09 1.7534472e-07 1.7823521e-07 7.346731e-07
0001f0 d3 c2 b8 35 04 74 c6 30 a3 1a 1b 35 3e d4 33 34
       1.376577e-06 1.443937e-09 5.778076e-07 1.6747887e-07
000200 cf 88 dc 35 b2 8a 30 36 8d 25 cc 30 3b 5a 76 34
       1.6431094e-06 2.6306775e-06 1.4853626e-09 2.2943361e-07
000210 ff 6f 42 34 d2 6f 3d 35 1f 3c c0 35 f6 37 a5 30
       1.8108402e-07 7.0570707e-07 1.4322612e-06 1.2021235e-09
000220 ff 5f 20 35 55 42 03 34 48 e0 c2 35 13 64 24 36
       5.974434e-07 1.2224457e-07 1.4519401e-06 2.4496155e-06
000230 70 33 b6 30 00 b2 21 34 75 61 0b 34 97 43 85 35
       1.3256862e-09 1.505905e-07 1.2980838e-07 9.928943e-07
000240 d7 3c eb 35 ee b4 b8 30 53 e9 90 34 78 93 18 34
       1.7526571e-06 1.3439185e-09 2.6991856e-07 1.4209752e-07
000250 fe 97 ca 35 ac b0 1a 36 ee b4 b8 30 53 e9 90 34
       1.5094408e-06 2.3050625e-06 1.3439185e-09 2.6991856e-07
000260 78 93 18 34 fe 97 ca 35 ab b0 1a 36 28 48 81 34
       1.4209752e-07 1.5094408e-06 2.3050623e-06 2.4080623e-07
000270 f5 01 80 35 53 15 41 35 cc 84 ce 3b d6 9b 8a 36
       9.537313e-07 7.1929134e-07 0.0063024517 4.130862e-06
000280 ea 7c dc 35 cd 2e c2 35 ee 4c 18 36 c7 fc a0 33
       1.6427632e-06 1.4467747e-06 2.2694544e-06 7.4965605e-08
000290 6b 00 f6 34 92 9f f3 33 da be 41 35 82 7e fa 35
       4.5821375e-07 1.1344595e-07 7.217583e-07 1.866327e-06
0002a0 99 7b 93 33 87 36 ea 34 b2 df 2f 34 a0 ab 5b 35
       6.867703e-08 4.362557e-07 1.6379525e-07 8.1833605e-07
0002b0 52 48 03 36 ba 0f ac 33 1b ab 00 35 79 37 9e 33
       1.9562617e-06 8.012235e-08 4.7932707e-07 7.367539e-08
0002c0 de bd 70 35 58 8b 07 36 6f 69 ef 32 39 f3 25 35
       8.968326e-07 2.0197676e-06 2.7871208e-08 6.1821225e-07
0002d0 de 09 97 34 2a 36 5e 35 60 f9 14 36 d1 df a6 33
       2.813312e-07 8.2780264e-07 2.2198874e-06 7.770689e-08
0002e0 97 66 3c 35 1a c5 4e 33 29 57 69 35 e6 d7 0e 36
       7.0184745e-07 4.8142375e-08 8.69261e-07 2.1285318e-06
0002f0 3d cd cc 31 83 05 64 35 5d 9a f4 34 d6 26 b9 35
       5.9605143e-09 8.494464e-07 4.5560856e-07 1.3794877e-06
000300 7d f8 52 36 b2 09 70 33 27 b1 80 35 36 7f c1 34
       3.1437078e-06 5.5888172e-08 9.588301e-07 3.604161e-07
000310 71 1b 75 35 c6 96 15 36 f4 16 c7 31 14 a8 c2 35
       9.1309545e-07 2.2290492e-06 5.7942717e-09 1.4503044e-06
000320 33 d2 7d 35 dc 32 e4 35 8c 8e 91 36 2b 93 bf 32
       9.4555725e-07 1.7002126e-06 4.3379314e-06 2.230225e-08
000330 7c 88 a3 35 64 b2 2e 35 ac 1a 73 35 30 f0 24 36
       1.2184169e-06 6.5079644e-07 9.0563367e-07 2.4577712e-06
000340 bf 7e 99 31 78 61 62 36 f4 95 f3 35 35 7a 4d 36
       4.4672954e-09 3.3733359e-06 1.8148553e-06 3.0618514e-06
000350 78 a6 f5 36 aa cc a9 32 86 26 c4 35 27 31 73 35
       7.3209485e-06 1.976726e-08 1.461435e-06 9.059608e-07
000360 ce ce a7 35 4f 06 5a 36 2f bc 72 31 47 70 c4 36
       1.2502658e-06 3.2488203e-06 3.5322605e-09 5.854326e-06
000370 01 b5 79 36 b5 4b 93 36 70 2c 34 37 e6 e1 a4 32
       3.720925e-06 4.389755e-06 1.07391825e-05 1.919484e-08
000380 b2 89 e4 35 ae 9d ac 35 3a 18 09 36 b7 6b 9f 36
       1.7027398e-06 1.286089e-06 2.0428693e-06 4.751109e-06
000390 85 60 8f 31 35 69 02 37 89 69 97 36 0d 85 98 36
       4.1728208e-09 7.773099e-06 4.5124366e-06 4.545442e-06
0003a0 ce 4d 4d 37 9a e7 00 33 64 a3 1b 36 74 90 c7 35
       1.22370675e-05 3.0012963e-08 2.3191906e-06 1.4868697e-06
0003b0 b5 6e 66 36 c2 60 03 37 98 93 b1 31 bc 03 0f 37
       3.433711e-06 7.830737e-06 5.1681575e-09 8.524334e-06
0003c0 93 70 a5 36 55 b5 9f 36 3a 0d 5c 37 40 73 06 33
       4.9304886e-06 4.759679e-06 1.3116101e-05 3.1304126e-08
0003d0 55 3f 54 36 09 bd 02 36 df a7 8a 36 0d 1d 2e 37
       3.1627326e-06 1.9481542e-06 4.1322633e-06 1.0377972e-05
0003e0 0c 6c 01 32 ec b9 0a 37 3e 0e aa 36 26 56 cc 36
       7.533355e-09 8.268729e-06 5.068053e-06 6.0897028e-06
0003f0 2a 54 72 37 10 d8 fc 32 58 69 9b 36 7c 11 0e 36
       1.444392e-05 2.9434915e-08 4.6316236e-06 2.1169826e-06

exp_avg f4 [128]
000000 8b 24 fc b9 37 0c 9e ba 7c d1 98 b8 0e 50 8d b7
       -0.00048092412 -0.0012058084 -7.286944e-05 -1.6845788e-05
000010 c2 b4 40 b9 c4 9e 40 b9 6c c4 53 b7 01 24 6c 3a
       -0.00018377884 -0.00018369692 -1.2622313e-05 0.00090080505
000020 a0 1e a8 39 2d eb 49 37 22 e4 d7 3a 48 80 e1 ba
       0.00032066274 1.203529e-05 0.0016471187 -0.0017204368
000030 0b c8 a2 39 b4 62 79 38 e0 cb 6b b8 d9 1a f5 39
       0.00031048091 5.945815e-05 -5.621824e-05 0.00046750045
000040 7e 26 57 3a 78 a7 7f ba 32 d5 25 3a 8d 5f 9d b7
       0.0008207335 -0.0009752433 0.0006326019 -1.8760353e-05
000050 f6 0d d3 3a d8 ff a9 b8 60 64 04 37 9d 53 88 3a
       0.0016102183 -8.1062026e-05 7.8911835e-06 0.0010400895
000060 f5 99 61 3a b9 c4 30 3a dc ec f4 3a ac be 0f b9
       0.000860601 0.0006743181 0.0018686312 -0.00013708574
000070 66 bb 1f 3a 12 a5 1f ba ea 68 b7 39 f5 8f 9c 38
       0.0006093293 -0.0006089966 0.00034982647 7.465474e-05
000080 7c 6b 83 b9 7b c6 19 3a 1e ef 98 39 88 72 6d b8
       -0.0002506635 0.0005866063 0.00029169855 -5.661187e-05
000090 78 06 18 ba 2a b9 7f ba 2e 55 e3 39 1c b0 11 b9
       -0.0005799304 -0.00097550696 0.00043360278 -0.00013893883
0000a0 c4 39 f1 39 87 a0 7b 39 b5 51 55 3a 73 43 0d ba
       0.0004601014 0.00023997026 0.00081374805 -0.0005388774
0000b0 fe cd 7f b9 08 08 30 3a 46 19 84 b8 f1 87 22 3a
       -0.00024395433 0.0006715064 -6.298958e-05 0.00062000664
0000c0 97 6c c4 b9 94 dc a1 3a 67 04 86 3a f9 e8 39 3a
       -0.0003746494 0.0012349063 0.0010224701 0.00070919056
0000d0 46 a6 20 3a ee a3 2a ba bc 31 9c b8 09 d3 2a 39
       0.00061282923 -0.0006509413 -7.4479234e-05 0.0001629108
0000e0 cd 4a f2 38 84 07 b8 3a 87 09 2b b9 a2 03 ad ba
       0.00011553392 0.0014040326 -0.0001631138 -0.0013199935
0000f0 1e db 0e 3a 61 02 f5 b7 8b 01 8b 39 ff 63 34 39
       0.0005449521 -2.9207384e-05 0.00026513296 0.00017203389
000100 16 19 24 ba 95 6b f0 37 74 04 a6 ba ee 5c b0 ba
       -0.00062598416 2.8660326e-05 -0.0012666122 -0.001345543
000110 5e 55 66 39 89 7c e0 b7 32 14 7d ba e8 94 94 b9
       0.00021966311 -2.6760872e-05 -0.00096541934 -0.00028339704
000120 66 cb 40 ba 5c 49 8a ba d9 85 5f b9 cc 3b 5f 3a
       -0.00073545275 -0.0010550427 -0.000213168 0.00085156853
000130 ae 0d a4 b9 f6 75 dc 3a 98 50 8d 37 8b a4 39 3a
       -0.0003129071 0.0016819823 1.684604e-05 0.0007081709
000140 fa 59 90 ba 41 7f 72 3a 94 84 4a ba 2a cd ce 37
       -0.0011013143 0.00092505297 -0.0007725444 2.465265e-05
000150 b6 92 15 3a 18 d3 43 3a 2a ef e0 39 37 ed 2f 38
       0.00057057606 0.0007470115 0.000429028 4.1944175e-05
000160 1d 61 20 3a 12 7b 4d b9 30 e6 80 b7 8c 4d c4 ba
       0.00061179866 -0.00019596171 -1.5365978e-05 -0.0014976724
000170 c2 81 ba 39 7a 8e fc b9 24 99 26 39 58 27 fd b8
       0.00035573362 -0.0004817134 0.00015888043 -0.000120713084
000180 35 50 96 38 68 1f 66 37 8b 04 2a ba 8c d9 87 b7
       7.167497e-05 1.3716381e-05 -0.00064856623 -1.6194557e-05
000190 08 f8 86 38 00 90 5a 37 28 5c f5 ba 98 fb ad b9
       6.435817e-05 1.302734e-05 -0.0018719481 -0.00033184583
0001a0 87 f6 81 39 58 f4 70 38 a8 d1 ff b7 66 54 08 b8
       0.00024788475 5.7448022e-05 -3.0495998e-05 -3.250353e-05
0001b0 eb 7b b8 b9 6d 3c a8 b9 1c 2f bb b9 17 f2 3b b9
       -0.0003518754 -0.00032088478 -0.0003570252 -0.00017923895
0001c0 54 84 87 37 07 35 5f b9 a8 8d 0f 38 b9 0e cc 3a
       1.6154874e-05 -0.00021286691 3.4225784e-05 0.0015568353
0001d0 04 7c 39 39 cd eb 1b ba 08 0c c4 39 96 ca 36 ba
       0.00017689174 -0.0005947918 0.00037392997 -0.00069729367
0001e0 8c f0 46 ba ee ba 54 3a 71 12 5a 39 b8 82 15 3a
       -0.0007588945 0.0008115013 0.0002079697 0.00057033775
0001f0 8b 9d a6 39 fe 8f cc b9 df 9e 87 b9 bb 3e 28 39
       0.00031779366 -0.00039017195 -0.00025867575 0.00016045097
