Trained_Policies/WeightAgent_Training/WeightAgent_Training/WeightAgent_Training-9999988.onnx (onnx, 155824 bytes, 6 tensors)

network_body._body_endoder.seq_layers.0.weight f4 [128, 163]
0	0x3d7e49b4	0.062082008
1	0xbe4a06af	-0.19729112
2	0x3e096f4a	0.1342136
3	0x3e34c8b7	0.17654692
4	0x3e15979b	0.14608614
5	0x3de4606e	0.11151205
6	0xbd863a38	-0.06554073
7	0xbc9bc029	-0.019012528
8	0x3e515a5c	0.20444626
9	0x3e72d0cd	0.23712464
10	0x3c85cca2	0.016332928
11	0xbe883c9d	-0.26608744
12	0xbd9919d3	-0.07475629
13	0x3e0038f9	0.12521733
14	0x3e2bc88f	0.16775726
15	0x3e3fa7af	0.1871631
16	0xbe1e02d9	-0.15430774
17	0xbe2617b8	-0.16219985
18	0x3e300d29	0.1719252
19	0x3e7a9788	0.24471867
20	0x3e25d417	0.16194187
21	0xbe178a65	-0.14798887
22	0xbd89c21e	-0.06726478
23	0x3dc69020	0.096954584
24	0x3ea41d1e	0.32053465
25	0x3d709eb9	0.05874512
26	0x3b698e0c	0.0035637645
27	0x3cc5d4db	0.024149349
28	0x3e51e833	0.20498733
29	0x3e72c460	0.23707724
30	0x3d52ddb7	0.051480975
31	0xbe8a7ed3	-0.27049884
32	0x3d0142f1	0.03155798
33	0x3e4a5a27	0.19760953
34	0x3e0dde97	0.13854443
35	0x3de185c1	0.1101184
36	0xbc508c2b	-0.012728731
37	0xbbcbf2a2	-0.0062239924
38	0x3d35f9a8	0.044427544
39	0x3e6fe7ef	0.2342832
40	0x3dfe946c	0.12430653
41	0xbd5943f7	-0.053043332
42	0xb91ef3b5	-0.00015158842
43	0x3d69a1ce	0.057039075
44	0x3e1d39ec	0.15354127
45	0x3db9c0ba	0.09069963
46	0x3e00ad8b	0.12566201
47	0x3d3ef2f2	0.04661841
48	0x3dd6e543	0.10492947
49	0x3e820548	0.25394654
50	0xba9e57c4	-0.00120806
51	0xbe236218	-0.15955389
52	0xbdc9be9a	-0.098508075
53	0x3de1a634	0.11018029
54	0x3e3dd3b8	0.18537796
55	0xbd09f522	-0.033681042
56	0xbd8749c5	-0.06605867
57	0x3ce07010	0.027397186
58	0x3d1e5509	0.038655315
59	0x3e2168c8	0.15762627
60	0x3db3c4f6	0.08777802
61	0xbe7a4ee1	-0.24444152
62	0xbda6856a	-0.081309155
63	0x3d41ae23	0.04728521
64	0x3e365968	0.17807543
65	0xbc47d3a9	-0.01219646
66	0x3dd9b657	0.10630482
67	0x3d340811	0.043953005
68	0x3d932cf8	0.071863115
69	0x3e68d99c	0.22739261
70	0x3d9cd421	0.07657648
71	0xbd56885e	-0.052376144
72	0x3c9ce923	0.019154137
73	0xbb4e3111	-0.0031462351
74	0x3deb4c66	0.11489181
75	0x3df081f9	0.1174354
76	0x3daa891d	0.083269335
77	0x3db1bc71	0.086785205
78	0x3dc803b2	0.0976633
79	0x3b64070d	0.0034794242
80	0x3d4e7cb1	0.050411884
81	0x3e26621d	0.16248365
82	0x3d360a80	0.044443607
83	0x3dc5fa3e	0.096668705
84	0x3c647eb9	0.013946229
85	0xbd0057b5	-0.031333644
86	0x3de14281	0.10999013
87	0x3bca4a6a	0.0061734216
88	0xbd9e2ee1	-0.07723785
89	0x3dab02fa	0.08350177
90	0xbbea17c0	-0.0071439445
91	0x3e816e5e	0.25279516
92	0x3dbce242	0.09222843
93	0x3e5b0abb	0.21390812
94	0xbb967f9a	-0.004592848
95	0xbda32610	-0.07966244
96	0x3e00bd94	0.12572318
97	0x3e715279	0.23566617
98	0x3cfa6869	0.030567365
99	0xbc8f6c7c	-0.017507784
100	0xbe100bfb	-0.1406707
101	0x3e22d1d8	0.15900362
102	0x3e091707	0.1338769
103	0x3d3f10aa	0.04664675
104	0x3e1fed00	0.15617752
105	0xbe0be08e	-0.1365988
106	0x3e0b2e41	0.13591863
107	0x3dc27605	0.09495167
108	0x3e34f5fc	0.1767196
109	0xbd168dca	-0.036756314
110	0xbe013ca3	-0.12620787
111	0x3db7aaa5	0.08968095
112	0x3ddf6d1a	0.10909481
113	0xbd5d9f9f	-0.054107305
114	0x3e02c063	0.12768702
115	0xbd9f52fd	-0.07779501
116	0x3e336ad8	0.17521226
117	0x3cd64dbf	0.02616012
118	0x3c4b51fe	0.012409685
119	0xbd1ff9e9	-0.039056692
120	0xbde2022d	-0.11035571
121	0x3da95a37	0.0826916
122	0x3d7bec6b	0.061504763
123	0x3d0b6b37	0.034037795
124	0xbe17cbfb	-0.14823906
125	0xbcb4703b	-0.022026172
126	0x3db87833	0.09007301
127	0x3ddc6b98	0.107627094
128	0xbd3ac0a5	-0.045593876
129	0xbdef421d	-0.11682532
130	0xbe2371e9	-0.15961422
131	0x3e4163ed	0.18885775
132	0x3e274af6	0.16337189
133	0xbde321af	-0.11090409
134	0x3c880efb	0.016608706
135	0x3d085a30	0.033289135
136	0x3d639660	0.05556333
137	0x3d1d78df	0.03844535
138	0x3dc4d624	0.096111566
139	0xbe1ff751	-0.15621687
140	0xbe3176a0	-0.17330408
141	0x3deef264	0.11667326
142	0x3e39d5f4	0.18148023
143	0x3e18558c	0.14876384
144	0x3d23e424	0.040012494
145	0xbe3eb022	-0.18621877
146	0x3e079150	0.13239026
147	0x3dedeefe	0.1161785
148	0x3de02cc3	0.109460376
149	0xbcaa5b1a	-0.020795394
150	0xbe22dea6	-0.15905246
151	0x3e898c56	0.2686488
152	0x3c19c977	0.009386412
153	0x3e52b0ba	0.20575228
154	0xbd41c342	-0.047305353
155	0xbdb85be9	-0.090019055
156	0xbed3ed6d	-0.4139208
157	0xbe46c0e5	-0.19409521
158	0xbc6b25f9	-0.014352315
159	0x3e07fd20	0.13280153
160	0x3e06e1bc	0.13172048
161	0x3e0c8592	0.13722828
162	0x3c52e067	0.0128708845
163	0x3d0b88ca	0.034066
164	0xbe28345a	-0.1642622
165	0x3b7abb11	0.0038258473
166	0x3df20f0a	0.11819275
167	0x3de824b4	0.113351256
168	0x3e12bb07	0.14329158
169	0xbdf96e27	-0.12179213
170	0x3e2895f6	0.16463456
171	0x3e09cf18	0.13457906
172	0x3dccb447	0.09995323
173	0x3e0e524c	0.13898581
174	0x3daf7c44	0.08568624
175	0xbc2b9aa9	-0.010473886
176	0x3dbb126b	0.09134372
177	0x3e6744ad	0.22584791
178	0x3e84e3b6	0.2595498
179	0xbd6d8c05	-0.05799486
180	0x3cc5d3c4	0.02414883
181	0x3e955677	0.2916753
182	0x3e7e60c9	0.24841608
183	0x3dc3d363	0.09561803
184	0xbcbfd98b	-0.023419162
185	0xbe2a65af	-0.16640352
186	0xbe249e14	-0.16075927
187	0x3dd1b0ca	0.10238798
188	0x3db02899	0.086014934
189	0x3e81dc86	0.2536356
190	0x3d4e7f4c	0.05041437
191	0x3d0ebe43	0.034849416
192	0x3e055495	0.13020547
193	0xbaa0f54f	-0.0012280139
194	0x3e095089	0.13409628
195	0xbdf16403	-0.11786654
196	0xbd1c3727	-0.038138535
197	0x3d19f3bc	0.03758596
198	0x3d5f0244	0.05444552
199	0x3d24197a	0.04006336
200	0x3deb4ded	0.114894725
201	0x3d4410ad	0.047867466
202	0x3d76db48	0.060267717
203	0xbd7ad157	-0.0612348
204	0x3e8ee6fd	0.27910605
205	0x3d211b31	0.039332572
206	0x3d0f158d	0.03493266
207	0x3c8a5ef2	0.016890977
208	0x3e4754a8	0.19465888
209	0x3d32196f	0.043481287
210	0x3d247a10	0.04015547
211	0xbd933c1c	-0.07189199
212	0x3dd55afd	0.10417745
213	0xbcac8aa8	-0.02106221
214	0xbe00ad4f	-0.12566112
215	0xbe357227	-0.17719327
216	0x3dccd55d	0.10001633
217	0x3e2a28b6	0.16617092
218	0x3e11b740	0.1423006
219	0x3e12a739	0.14321603
220	0xbcfce51f	-0.030870972
221	0xbe05b9d3	-0.13059168
222	0x3dded5cc	0.10880622
223	0x3dbecad8	0.09316033
224	0x3d7c2b74	0.061564878
225	0xbe71e9d4	-0.23624355
226	0x3dc55042	0.096344486
227	0x3d587de0	0.05285442
228	0x3daa0f06	0.08303647
229	0x3c1fb4f4	0.009747732
230	0xbc1fe328	-0.009758748
231	0x3c935258	0.0179836
232	0x3de08f32	0.10964812
233	0xbe6f0997	-0.23343502
234	0x3df09a94	0.117482334
235	0xbe1ad478	-0.15120113
236	0x3cdd336f	0.027002065
237	0x3da691f5	0.08133308
238	0x3dc8bcca	0.09801634
239	0x3e760b9e	0.24027869
240	0xb9ae7dd4	-0.00033281615
241	0xbe36e434	-0.1786049
242	0x3e0ac0c6	0.135501
243	0xbd5a0fd5	-0.053237755
244	0x3d9991e1	0.07498527
245	0x3cdf1b8e	0.027234819
246	0xbdef6bb2	-0.11690463
247	0x3d205e38	0.039152354
248	0x3d7734cc	0.060353085
249	0x3d5825c4	0.05277039
250	0xbe8c85d8	-0.27445865
251	0x3c4ec9f7	0.012621394
252	0x3d571d02	0.0525179
253	0x3d62c7bd	0.055366267
254	0xbd141dc1	-0.036161188
255	0xbdc9586d	-0.09831319

network_body._body_endoder.seq_layers.0.bias f4 [128]
0	0x3d8872c0	0.06662512
1	0x3d7882b8	0.060671538
2	0xbb0f170c	-0.0021833805
3	0xbcdc5ba2	-0.026899163
4	0x3c7be046	0.015373295
5	0x3d590d53	0.052991223
6	0x3d2ff333	0.042956542
7	0xbcfa2d6b	-0.030539235
8	0xbc09dd92	-0.008414643
9	0x3ca29d87	0.019850506
10	0x3ca4c82a	0.020114977
11	0x3cc559bd	0.024090642
12	0x3ce1ddff	0.027571676
13	0xbbd3a4b7	-0.0064588445
14	0xbd32eb0e	-0.043681197
15	0x3d6f46e2	0.05841721
16	0x3d0b9b14	0.03408344
17	0x3c2b4b0a	0.010454902
18	0xbbb49630	-0.005511068
19	0xbd47d768	-0.04878941
20	0xbd3a088a	-0.0454183
21	0x3ca900a0	0.02063018
22	0x3c71f7d6	0.014768561
23	0x3d4e7c4c	0.050411507
24	0x3cd5903d	0.026069755
25	0x3cdad235	0.026711563
26	0x3bea8618	0.0071570985
27	0x3bb02986	0.0053760437
28	0xbd5493b4	-0.051898673
29	0xbc2f02db	-0.010681833
30	0x3d031fac	0.032012627
31	0x3c60cef8	0.01372122
32	0xbc866207	-0.016404165
33	0xbd794d99	-0.06086502
34	0x3d105364	0.035235777
35	0x3c3cbee7	0.011520124
36	0xbbcede38	-0.0063131116
37	0x3bbdfaa0	0.005797699
38	0xbc674b3f	-0.014117061
39	0x3c9d69e2	0.019215528
40	0x3d0354fa	0.03206346
41	0xbceb68e9	-0.028736548
42	0x3d0fff43	0.035155546
43	0x3cc3b1cd	0.023888493
44	0x3d820be7	0.063499264
45	0x3d8b3bff	0.06798553
46	0xbae4995f	-0.0017440728
47	0xbb7f51c2	-0.0038958644
48	0xbc503174	-0.012707103
49	0xbd08d080	-0.033401966
50	0x3d1f31bf	0.0388658
51	0xbc5a781a	-0.0133342985
52	0xbd61590e	-0.05501657
53	0x3c8ee0d6	0.017441195
54	0x3d9f972e	0.07792507
55	0x3c989290	0.018624574
56	0x3ca35187	0.019936336
57	0x3d3ab78d	0.045585204
58	0xbd6a03c5	-0.0571325
59	0xbcaf6d0a	-0.021414299
60	0x3d0d0e44	0.034437433
61	0x3db1a506	0.08674054
62	0xbc8d7703	-0.017268663
63	0xbd6251cb	-0.055253785
64	0x3cd09f8d	0.025466705
65	0x3d0be272	0.034151502
66	0x3cd9fab9	0.026608812
67	0x3bc7681e	0.00608541
68	0x3d10b159	0.035325382
69	0x3d00f1ac	0.031480476
70	0x3d848561	0.064707525
71	0x3d6dcf8e	0.058059268
72	0x3cc741be	0.02432334
73	0xbc7692da	-0.015049661
74	0xbd08592e	-0.033288173
75	0x3d6471de	0.055772655
76	0xbcce69e8	-0.025196984
77	0xbd0ee187	-0.03488305
78	0x3c681813	0.014165896
79	0xbc4a9348	-0.012364216
80	0xbd1643f5	-0.036685903
81	0x3d85da79	0.06535811
82	0x3a88c0af	0.0010433401
83	0x3c70513d	0.014667806
84	0xbcb31060	-0.021858394
85	0x3d8bd346	0.068274066
86	0x3c0b9aef	0.008520826
87	0xbd246db1	-0.040143672
88	0x3d4488c7	0.047982004
89	0x3d306a22	0.043069966
90	0x3c5c0d8f	0.013430967
91	0x3cc41f1d	0.023940617
92	0xbb4e736f	-0.003150191
93	0xbb6995de	-0.0035642306
94	0xbd070a54	-0.032968834
95	0x3d8a3542	0.06748439
96	0x3d7d33f6	0.061817132
97	0xbccbe7b3	-0.024890756
98	0xbd07e224	-0.03317465
99	0x3cb5c38b	0.022187969
100	0xbd7b7976	-0.06139513
101	0xbc90499e	-0.017613228
102	0x3cc6c302	0.024262909
103	0x3d3fb309	0.0468016
104	0xbd41c4fe	-0.047307007
105	0x3d23ea0f	0.040018138
106	0x3c3464fa	0.011010403
107	0x3cbf6f8f	0.023368625
108	0xbd0035ef	-0.031301435
109	0x3d8fd12f	0.070223205
110	0xbc5ca1e6	-0.013466334
111	0x3bc9cfc1	0.0061587994
112	0x3ce046d6	0.027377527
113	0xbd5a7fe8	-0.053344637
114	0x3d4ceea2	0.050032265
115	0x3ceceb5a	0.028920818
116	0x3c1e6641	0.009667934
117	0xbd5c238a	-0.05374483
118	0x3c599240	0.013279498
119	0xbd91d3e2	-0.071204916
120	0x3d4d366b	0.050100725
121	0xbd12bdec	-0.035825655
122	0x3d94e42a	0.07270081
123	0x3cf84877	0.030307991
124	0x3d14db8f	0.0363422
125	0xbbb284c0	-0.005447954
126	0x3cc57015	0.024101296
127	0x3ca09b16	0.0196052

network_body._body_endoder.seq_layers.2.weight f4 [128, 128]
0	0x3e2841be	0.16431329
1	0xbce12143	-0.02748168
2	0xbe2e7ebf	-0.17040537
3	0xbe73a006	-0.23791513
4	0xbd872fbb	-0.06600901
5	0x3dca9af5	0.09892837
6	0xbe03d676	-0.12874779
7	0xbe50e0f2	-0.2039831
8	0xbe8c2ddc	-0.27378738
9	0x3cba4d18	0.02274184
10	0x3e0ca49b	0.13734667
11	0x3d8322fe	0.064031586
12	0x3e259abb	0.16172306
13	0xbcd728f0	-0.026264638
14	0xbd201179	-0.039079163
15	0xbd456a71	-0.048197214
16	0x3e4b7682	0.19869426
17	0x3df45b91	0.119315274
18	0xbdabbb5f	-0.083853476
19	0xbe1ac246	-0.15113172
20	0xbd697333	-0.05699463
21	0x3e5e8657	0.21730934
22	0xbccfd896	-0.02537183
23	0xbd3da9fa	-0.04630468
24	0xbe0f6278	-0.14002407
25	0xbe702593	-0.23451833
26	0x3d81d621	0.0633967
27	0x3d8f0958	0.06984204
28	0xbe24ac68	-0.16081393
29	0xbe19e130	-0.15027308
30	0xbd840a7c	-0.06447312
31	0xbdfa74dd	-0.12229321
32	0xbb113be3	-0.002216094
33	0xbcee957f	-0.02912402
34	0xbe0fc4cd	-0.14039917
35	0x3d92158c	0.07133016
36	0xbe0eda4e	-0.13950464
37	0xbd5b0358	-0.053469986
38	0xbd2bc999	-0.041940305
39	0xbc62f44a	-0.013852188
40	0xbd6b59d1	-0.057458702
41	0x3debc2e0	0.11511779
42	0x3c3cc6c3	0.011521998
43	0x3c8a1eb4	0.016860344
44	0x3e5c3ea1	0.21508266
45	0xbdce6350	-0.10077536
46	0x3d4beb05	0.04978468
47	0xbdb8f62e	-0.0903133
48	0x3c6d639e	0.014489083
49	0xbd540da9	-0.05177084
50	0x3df99e73	0.12188425
51	0xbe823378	-0.25429893
52	0xbe1a353e	-0.15059373
53	0xbdbdcca8	-0.09267551
54	0xbd4d4b4e	-0.050120644
55	0x3e07ac04	0.13249213
56	0xbdbc452b	-0.0919288
57	0x3e5a4c1d	0.21318097
58	0x3d952e7b	0.07284256
59	0xbe8f8f1c	-0.2803887
60	0x3dab2e5a	0.0835845
61	0x3d8fdd0e	0.07024585
62	0xbd403313	-0.04692371
63	0x3c443dad	0.011977595
64	0x3bb72557	0.005589168
65	0xbd4e00a6	-0.050293587
66	0x3cf82291	0.03028992
67	0x3d67bf0e	0.05657869
68	0x3ddfe182	0.10931684
69	0xbd890798	-0.066909015
70	0x3e8903fa	0.26760846
71	0x3d51d66a	0.05122987
72	0xbe3738c0	-0.17892742
73	0x3dd7ec35	0.105431
74	0xbda8a0c0	-0.08233786
75	0x3dc9b661	0.09849239
76	0x3d1fcaad	0.039011646
77	0x3df5c0b7	0.11999648
78	0xbd6bc40d	-0.057560015
79	0x3d4344b3	0.04767294
80	0xbc717a73	-0.014738667
81	0xbc879428	-0.016550139
82	0x3d01ecea	0.03172008
83	0xbe3f5bf3	-0.1868742
84	0xbe17e1ff	-0.14832304
85	0xbdfbb438	-0.122902334
86	0x3d35f6b5	0.04442473
87	0xbdcf802d	-0.101318695
88	0x3d35287b	0.04422806
89	0xbc16329f	-0.009167342
90	0xbd87ce65	-0.066311635
91	0x3dc5a8a2	0.09651305
92	0x3e10a9e0	0.14127302
93	0xbda379f0	-0.07982242
94	0xbe3ae203	-0.18250279
95	0x3dbbcde6	0.091701314
96	0xbb5ffa90	-0.0034176446
97	0xbd8559de	-0.065112814
98	0xbdd53714	-0.10410896
99	0xbd929904	-0.07158092
100	0x3d8c114c	0.068392366
101	0xbe064b17	-0.13114582
102	0xbd191c42	-0.037380464
103	0x3dba6b10	0.09102452
104	0x3db73ece	0.08947526
105	0x3dee9976	0.11650364
106	0xbdf2f009	-0.11862189
107	0x3da6e489	0.08149058
108	0x3cbe7ff8	0.02325438
109	0xbd9d029e	-0.07666515
110	0xbda6ad3e	-0.08138512
111	0xbd967149	-0.07345826
112	0x3cad5e75	0.021163205
113	0x3c3cc9a4	0.011522684
114	0x3c2e367e	0.010633109
115	0x3cde00a8	0.027099922
116	0xbe40b614	-0.18819457
117	0xbd8ca867	-0.06868058
118	0xbe099509	-0.13435759
119	0xbe8b062d	-0.2715315
120	0xbd8b8ebf	-0.06814336
121	0x3d05a85a	0.032631256
122	0x3d49e852	0.049293824
123	0x3e20ed71	0.15715577
124	0xbdbb9e63	-0.09161069
125	0xbd451c1d	-0.048122514
126	0x3df5a879	0.11995024
127	0xbe293cb9	-0.1652707
128	0x3d0e76f6	0.03478142
129	0xbde448dc	-0.11146709
130	0xbcc3fdaa	-0.023924667
131	0xbd8fe9a1	-0.07026983
132	0xbdddc350	-0.108282685
133	0xbd4317d1	-0.047630135
134	0x3d22e965	0.039773364
135	0x3cbc40e4	0.022980161
136	0x3d4dce59	0.050245617
137	0xbcb0248a	-0.021501798
138	0xbc62ea46	-0.0138498
139	0x3dc88af6	0.0979213
140	0x3de32468	0.11090928
141	0xbd8ac55c	-0.067759246
142	0x3d9bcd8a	0.07607563
143	0x3d6c3414	0.057666853
144	0x3bbf4618	0.0058372132
145	0xbde6bc72	-0.11266412
146	0x3c3ac66d	0.011399847
147	0xbe79cd7d	-0.24394794
148	0xbda9890e	-0.08278094
149	0x3de4fe32	0.111812964
150	0x3c817f20	0.015807688
151	0xbd87010f	-0.06591999
152	0xbd03f3c5	-0.0322149
153	0xbe0ac318	-0.13550985
154	0x3b9c6ee8	0.0047739632
155	0x3bcbebb9	0.0062231687
156	0xbde40933	-0.11134567
157	0xbdf7c534	-0.120981604
158	0x3d8e9df9	0.06963725
159	0xbd9396b6	-0.0720648
160	0xbc9b1b86	-0.018934023
161	0x3dd11f8a	0.10211094
162	0xbe04b0dd	-0.12958093
163	0x3d9c6a85	0.076375045
164	0x3db02ffa	0.08602901
165	0xbd18abd1	-0.037273232
166	0xbd511393	-0.051044058
167	0x3de5012c	0.11181864
168	0xbe15327d	-0.14570041
169	0xbdf8c956	-0.12147777
170	0x3b459680	0.003014952
171	0xbd881210	-0.0664407
172	0x3e1f4b73	0.15556125
173	0xbcc2a044	-0.023758061
174	0x3cb62bda	0.022237707
175	0x3ba789fb	0.005112884
176	0x3b5aefe5	0.0033407148
177	0xbd7c75aa	-0.06163565
178	0xbdf3a2aa	-0.1189626
179	0x3d9ddd9f	0.077082865
180	0xbd966274	-0.07342997
181	0xbd68f432	-0.056873508
182	0x3de24a53	0.110493325
183	0x3cb4e8a7	0.022083594
184	0xbe0fec39	-0.14054956
185	0xbda52285	-0.08063225
186	0x3d519843	0.0511706
187	0xbe0acf68	-0.13555682
188	0xbcc02fbf	-0.023460267
189	0x3dab1224	0.083530694
190	0x3dc56bd1	0.09639705
191	0x3d762339	0.060092185
192	0xbdd14acd	-0.10219345
193	0x3e3feacb	0.1874191
194	0x3d221317	0.039568987
195	0x3c589a74	0.013220418
196	0x3d37201a	0.04470835
197	0xbe4ee113	-0.20203047
198	0xbd2065c0	-0.039159536
199	0xbe2ab618	-0.16671026
200	0xbd3e4e05	-0.046461124
201	0xbb5ba76d	-0.0033516542
202	0x3c2d5696	0.010579726
203	0xbd471ce9	-0.048611555
204	0xbddda739	-0.10822911
205	0x3d912219	0.07086582
206	0x3d9bb6f5	0.07603256
207	0xbd9a5dbf	-0.07537412
208	0x3d02f187	0.03196862
209	0x3d180dcc	0.037122533
210	0xbe397416	-0.1811069
211	0xbe3de5ae	-0.18544647
212	0xbcf0cdbb	-0.029394975
213	0xbe08162a	-0.13289705
214	0x3dc73922	0.09727694
215	0x3ca069ce	0.019581702
216	0x3dcd0e92	0.10012545
217	0xbded396a	-0.115832165
218	0x3e22b9c9	0.15891184
219	0x3da8740d	0.0822526
220	0xbcb5a519	-0.022173451
221	0x3d812ba4	0.06307152
222	0x3d56661f	0.052343484
223	0x3e07a5d2	0.13246849
224	0xbd896d0e	-0.06710254
225	0xbe1d7d71	-0.15379883
226	0x3e22b63b	0.15889828
227	0x3d2fed91	0.04295117
228	0x3c12adfe	0.008952616
229	0x3d1b1ffd	0.037872303
230	0xbb6d0aec	-0.003616984
231	0x3d8d7e3e	0.069088444
232	0x3d86d551	0.065836556
233	0xbe3aa570	-0.18227172
234	0xbce507f7	-0.0279579
235	0x3d84f73e	0.0649247
236	0x3da74d80	0.08169079
237	0xbd56e774	-0.052466825
238	0x3d27e989	0.0409942
239	0x3d6bd3c7	0.057575013
240	0x3d8526f4	0.0650157
241	0xbc133b56	-0.008986315
242	0xbea8427d	-0.32863227
243	0xbe091a75	-0.13388999
244	0xbdef82cd	-0.1169487
245	0x3c8d4042	0.017242555
246	0xbe3e0970	-0.18558288
247	0xbe5763f0	-0.21034217
248	0xbdc14f0c	-0.09438905
249	0xbe12859f	-0.14308785
250	0x3cf9fb4e	0.03051534
251	0xbde06c6c	-0.1095818
252	0xbcb2633e	-0.021775838
253	0xbd2e752a	-0.042592205
254	0x3dce3c8b	0.100701414
255	0xbdc036f9	-0.09385485

network_body._body_endoder.seq_layers.2.bias f4 [128]
0	0x3cbeda1b	0.02329736
1	0xbd169d9d	-0.036771405
2	0x3c94133f	0.018075584
3	0xbd1fa18f	-0.038972434
4	0x3b5a9eeb	0.0033358883
5	0xbcd25beb	-0.025678596
6	0xbda89610	-0.08231747
7	0x3c059e91	0.008155481
8	0xbd2cd992	-0.04219968
9	0x3da1c9d2	0.07899822
10	0x3d510e11	0.051038805
11	0x3cc08569	0.023501115
12	0xbc324091	-0.010879652
13	0xbd462799	-0.048377607
14	0x3be03427	0.0068421545
15	0x3d0323a8	0.032016426
16	0x3d246ea8	0.040144593
17	0x3c157337	0.009121708
18	0xbd6a75fe	-0.057241432
19	0x3d33ef2e	0.04392927
20	0x3cbbf809	0.02294542
21	0x3cadda7d	0.021222347
22	0xbb0e41f2	-0.0021706787
23	0xbc10a41f	-0.008828192
24	0x3d3e71fa	0.046495415
25	0x3c46ced6	0.0121342745
26	0x3c947b35	0.018125156
27	0xbd22f4d3	-0.039784264
28	0x3b8a69f6	0.0042240573
29	0xbd0ef823	-0.03490461
30	0x3d2ba0f6	0.04190155
31	0xbcb2c17d	-0.021820778
32	0xbaac14d4	-0.0013128766
33	0xbd835ed2	-0.0641457
34	0x3d4f215d	0.050568927
35	0xbd673cba	-0.056454398
36	0xbda19286	-0.07889275
37	0x3a0fdd7e	0.0005488022
38	0xbccb9b3c	-0.024854295
39	0x3d17697c	0.036965832
40	0xbd9bd45c	-0.07608864
41	0x3cb00ef6	0.021491509
42	0x3d033436	0.032032214
43	0x3cbe7240	0.023247838
44	0x3d6fb288	0.05851987
45	0x3d38273b	0.044959288
46	0xbcfb2ada	-0.030660082
47	0x3d10b01e	0.03532421
48	0x3d3b042d	0.04565828
49	0x3d11e099	0.035614584
50	0x3b7ead35	0.0038860564
51	0xbd5ae01c	-0.053436384
52	0x3cd31a20	0.025769293
53	0x3d6160c4	0.055023924
54	0xbcccc597	-0.024996562
55	0x3d76933d	0.06019901
56	0x3d887a30	0.066639304
57	0x3ca6e4c5	0.020372758
58	0x3d7dd06d	0.06196635
59	0xbb38ca3a	-0.0028196708
60	0xbda5af40	-0.08090067
61	0x3d4c5b4e	0.049891762
62	0xbd3325e9	-0.043737326
63	0x3d275183	0.04084922
64	0x3bf5ac0f	0.0074973176
65	0xbc68c6c2	-0.014207544
66	0x3c1897cf	0.009313538
67	0x3cff15b9	0.031138288
68	0xbd245133	-0.0401165
69	0x3c198821	0.009370835
70	0xbd802a2c	-0.06258044
71	0x3d06d847	0.032921102
72	0x3d38dbcc	0.04513149
73	0x3d1a237f	0.037631508
74	0x3c74577d	0.014913437
75	0xbc4d9b1e	-0.01254919
76	0x3be4b97a	0.0069801183
77	0x3d363221	0.0444814
78	0x3d855bc2	0.06511642
79	0xbd13d9b6	-0.036096297
80	0x3c8b13aa	0.01697715
81	0xbd0a35c8	-0.033742696
82	0x3d917492	0.07102312
83	0xbcf07bfa	-0.029355992
84	0xbd556472	-0.052097745
85	0x3c575a64	0.013144109
86	0x3d0178af	0.031609233
87	0x3cd3ad17	0.025839372
88	0x3d022031	0.03176898
89	0x3d12595c	0.03572975
90	0x3d9820d0	0.074281335
91	0xbb2c7be5	-0.0026318964
92	0xbc57157a	-0.013127679
93	0x3caa01e4	0.020752855
94	0x3b4445ee	0.0029948908
95	0x3d22c7fe	0.03974151
96	0x3d4ab32e	0.049487285
97	0x3b9bf1ec	0.004759064
98	0x3bf075f2	0.007338279
99	0xbcfd3d52	-0.030913029
100	0xbcabf199	-0.020989226
101	0x3c78fa2e	0.015196366
102	0x3c9224a2	0.017839734
103	0x3d02e787	0.031959083
104	0x3d335bb6	0.043788634
105	0xbd4aa0cf	-0.049469765
106	0x3d739abe	0.059473746
107	0x3d8c3c5a	0.06847449
108	0xbb66a0f8	-0.003519116
109	0x3ca173ff	0.019708632
110	0x3bd7aa74	0.006581599
111	0x3af267f6	0.0018494118
112	0x3d98b207	0.07455831
113	0xbd676ea2	-0.056501992
114	0x3a9ff440	0.001220353
115	0xbd43b686	-0.04778149
116	0x3da2876c	0.07935986
117	0x3d77bb11	0.060481135
118	0x3c969ce2	0.018385354
119	0x3d089ae7	0.03335085
120	0xbba98eeb	-0.005174508
121	0xbd455c30	-0.04818362
122	0x3d47d46b	0.048786562
123	0x3d6d73f6	0.057971917
124	0xbd86ac4a	-0.0657583
125	0xbd0e4491	-0.03473336
126	0x3bc87009	0.0061168713
127	0xbd0e7d78	-0.034787625

action_model._discrete_distribution.branches.0.weight f4 [7, 128]
0	0xbe0108f1	-0.12601067
1	0x3da8ec32	0.08248176
2	0x3ca166c8	0.01970233
3	0xbd4cf2b7	-0.05003616
4	0x3d04cdf9	0.032422993
5	0xbc14572e	-0.009053988
6	0xbd448f7e	-0.047988407
7	0xbb9bc9be	-0.004754274
8	0xbcb7d96d	-0.022442544
9	0x3c1b5360	0.009480327
10	0x3c582aeb	0.013193826
11	0xbbd0f0c0	-0.006376356
12	0xbd7221dc	-0.059114322
13	0xbc91c159	-0.01779239
14	0x3b9453da	0.0045265974
15	0xbcb08825	-0.021549294
16	0x3d004aa7	0.031321194
17	0x3cff2834	0.0311471
18	0xbd047a0d	-0.03234296
19	0xbc208e01	-0.009799481
20	0x3ca6efdc	0.020378046
21	0xbd971e47	-0.07378822
22	0xbd4af7ed	-0.049552847
23	0xbcb9eeb0	-0.022696823
24	0xbc5e0f7a	-0.013553495
25	0xbbd7131d	-0.006563558
26	0x3db4fecd	0.08837662
27	0xbcea3b9f	-0.028592883
28	0x3d1a875a	0.037726738
29	0xbcb3102b	-0.021858295
30	0xbd352d06	-0.04423239
31	0x3b14a12b	0.0022679071
32	0xbd112b22	-0.035441525
33	0xbce0dcc7	-0.027449025
34	0xbcdb7416	-0.026788753
35	0xbc7cbc8e	-0.015425814
36	0xbce712b1	-0.028207155
37	0x3b2c5311	0.0026294629
38	0x3bbc9693	0.0057552545
39	0xbca0488e	-0.019565847
40	0xbc574476	-0.013138881
41	0xbd8d9439	-0.06913037
42	0x3d870709	0.06593139
43	0x3c681f62	0.0141676385
44	0xbd0a3aae	-0.033747368
45	0x3bb28215	0.005447636
46	0xbba3f9d1	-0.0050041457
47	0x3b833034	0.004003549
48	0xbd868f4d	-0.06570301
49	0x3c8b0825	0.016971657
50	0x3bd27685	0.00642282
51	0xbd3f0c5e	-0.046642654
52	0x3ca1c682	0.019747976
53	0xbca8d877	-0.020611031
54	0x3c36dca4	0.011161003
55	0xbc161652	-0.009160595
56	0x3cae0093	0.021240508
57	0xbd8186ee	-0.06324564
58	0x3cd212b4	0.025643684
59	0xbb7e2e9c	-0.0038785106
60	0x3beb8ba8	0.007188279
61	0x3d32d734	0.043662265
62	0xbd12d58a	-0.035848178
63	0xbd05e76c	-0.032691404
64	0xbdcbd970	-0.09953582
65	0x3cf2dcac	0.02964624
66	0x3cc1aaee	0.023641076
67	0x3cfbb8d7	0.030727787
68	0x3b9934cc	0.0046754833
69	0x3c0fd1b3	0.0087780235
70	0xbd34f217	-0.044176187
71	0x3c8f2ff6	0.017478924
72	0x3bb4a2f6	0.0055125905
73	0x3c0624c4	0.008187477
74	0x3c166f8f	0.009181871
75	0x3b83c4b3	0.004021251
76	0xbd65e271	-0.056124154
77	0xbca52918	-0.020161197
78	0x3d2dbdd7	0.042417374
79	0x3c307166	0.010769224
80	0xbc4e8a56	-0.012606224
81	0x3d12ca50	0.03583747
82	0x3d308ae2	0.0431012
83	0x3ce384c4	0.027773269
84	0xbbc7321d	-0.006078972
85	0x3c83f60b	0.016108533
86	0xbc806f96	-0.015678208
87	0xbd08f6b2	-0.033438392
88	0x3c3fb497	0.011700771
89	0x3b5af647	0.0033410953
90	0x3cc4c302	0.024018768
91	0x3c0d7a15	0.008635064
92	0x3c55bb3c	0.013045128
93	0x3cd7ff19	0.026366757
94	0xbcc30b17	-0.023808999
95	0x3cfb530d	0.03067925
96	0xbd8cb87c	-0.06871125
97	0x3c35ed9d	0.011104015
98	0x3c8c3e9b	0.017119696
99	0xbca0caca	-0.019627947
100	0x3c8aeea7	0.016959501
101	0x3ce9eee7	0.0285563
102	0x3d9b0a68	0.07570344
103	0x3cd85ffc	0.026412956
104	0x3d24cb8a	0.040233172
105	0xbb493dc6	-0.0030706986
106	0x3d4bdf8a	0.04977373
107	0xba2e6a6e	-0.00066534325
108	0xbcc43d39	-0.023954974
109	0xbc80d7e9	-0.015727954
110	0x3c59a1ba	0.0132831875
111	0x3c459c9d	0.012061265
112	0x3c583005	0.0131950425
113	0xbd13f0aa	-0.036118187
114	0xbc93b030	-0.018028349
115	0xbd017e1a	-0.0316144
116	0x3d5cbaf7	0.05388924
117	0xbbc3e21f	-0.0059778835
118	0x3cafdffd	0.02146911
119	0x3c992f9f	0.018699465
120	0x3d378d1b	0.044812303
121	0xbc76a751	-0.01505454
122	0x3c72b1fa	0.014812941
123	0x3d33c006	0.0438843
124	0xbba01e41	-0.004886419
125	0x3d11d3ae	0.035602264
126	0x3b9d5140	0.0048009455
127	0xbd31d790	-0.043418467
128	0x3d6d1303	0.05787946
129	0x3c414551	0.0117963115
130	0x3ca1ff85	0.019775162
131	0x3d019395	0.031634886
132	0xbabe9bb7	-0.0014542256
133	0x3d73336e	0.05937522
134	0x3d3d3f06	0.046202682
135	0x3e00b05b	0.12567274
136	0x3dabad5a	0.083826736
137	0xbc91fd27	-0.017820908
138	0x39d13e60	0.0003991006
139	0xbc0d3043	-0.0086174635
140	0x3d0b36ea	0.033987917
141	0x3d420082	0.047363766
142	0xbd3c1f7b	-0.04592846
143	0x3d3f9381	0.04677153
144	0x3c35f12c	0.011104863
145	0x3cb45fcf	0.022018341
146	0x3d12a14d	0.03579836
147	0x3d0ed5ba	0.034871794
148	0x3a36989e	0.0006965491
149	0x3d848f09	0.06472594
150	0x3c3b66b7	0.011438063
151	0x3d882eb1	0.06649531
152	0x3d88fedb	0.06689235
153	0x3d878f35	0.066191114
154	0x3cd7ab94	0.026326932
155	0xbb43b455	-0.0029862125
156	0x3cbb3a64	0.022854991
157	0x3ba74bfc	0.0051054936
158	0xbd17dc22	-0.03707517
159	0x3db97bf5	0.09056846
160	0x3d493b91	0.049129073
161	0x3c61ef34	0.013789941
162	0x3cc6895e	0.024235424
163	0x3d531982	0.051537998
164	0x3d5ec292	0.054384775
165	0xbaeda66d	-0.0018131264
166	0x3d22fc81	0.039791588
167	0x3dccad73	0.0999402
168	0x3d2a8489	0.0416303
169	0x3dd61c32	0.104545966
170	0x3d309388	0.043109447
171	0x3d496cb1	0.04917592
172	0x3df776ce	0.12083207
173	0xbc8405fc	-0.016116135
174	0x3b203270	0.0024444126
175	0x3d330820	0.04370892
176	0xbcf9bc86	-0.030485403
177	0xbd946f5d	-0.07247803
178	0xbb16afc8	-0.0022992957
179	0x3d8fbcc4	0.07018426
180	0x3ce8ed8e	0.028433587
181	0x3d3c12a3	0.04591621
182	0x3d3ca084	0.046051517
183	0xbd29a72f	-0.041419204
184	0xbd3dd017	-0.046341028
185	0x3db1d099	0.08682365
186	0xbd1d1304	-0.038348213
187	0xbc99f18d	-0.018791938
188	0xbc94bf9b	-0.01815777
189	0xbda9e70e	-0.08296023
190	0x3cc57089	0.024101513
191	0xbc6117d0	-0.0137385875
192	0x3d74551e	0.059651487
193	0x3c3d1e17	0.0115428185
194	0xbd36f89d	-0.04467069
195	0x3d5eb4ee	0.054371767
196	0x3dc2efbc	0.09518382
197	0x3da95f7c	0.08270165
198	0xba56efe5	-0.0008199199
199	0xbd796f0f	-0.06089693
200	0x3d9d9feb	0.076965176
201	0x3d9086ab	0.07056936
202	0x3c49e77f	0.012323259
203	0x3dba5e31	0.09099997
204	0x3dfe6835	0.1242222
205	0x3c790ca8	0.015200771
206	0xbde0d4dc	-0.109781
207	0xbb0328c9	-0.0020013324
208	0x3db2a95d	0.0872371
209	0xbd467fc3	-0.048461687
210	0xbd823d60	-0.063593626
211	0x3d3ab5df	0.045583602
212	0x3d5fa6f7	0.05460259
213	0xbd1c3554	-0.038136795
214	0x3caf9e1b	0.021437695
215	0x3cda33e1	0.026636066
216	0x3ce1fd2a	0.027586538
217	0xbcea5356	-0.02860419
218	0xba9dceaa	-0.001203974
219	0x3d38b82f	0.045097526
220	0x3e070bc3	0.1318808
221	0x3de3fb0f	0.1113187
222	0xbc4b9bad	-0.012427253
223	0x3ce5e4db	0.028063228
224	0xbbf38f0f	-0.0074328254
225	0x3d0a0ccf	0.03370362
226	0x3be3711b	0.0069409735
227	0x3d8f46b3	0.06995907
228	0xbca0a895	-0.019611636
229	0x3d680462	0.056644805
230	0xbd932f8b	-0.071868025
231	0xbcc33338	-0.023828134
232	0xbcf0fa6a	-0.029416282
233	0xbb7a08f0	-0.00381523
234	0xbdf2c6e0	-0.11854339
235	0xbd907a61	-0.07054592
236	0x3dff269c	0.12458536
237	0x3d6a31c2	0.05717636
238	0xbc2d2c01	-0.010569573
239	0x3ddca81d	0.107742526
240	0xbe097ffd	-0.1342773
241	0x3d62eb57	0.05540022
242	0x3cad972e	0.021190252
243	0x3d0dcf36	0.03462144
244	0xbd8b4ae6	-0.06801395
245	0xbd7d3c3f	-0.061825033
246	0x3ce500ec	0.027954541
247	0x3c375dfc	0.011191841
248	0x3d379655	0.044821102
249	0x3d44a8bc	0.04801248
250	0x3d0ff5b9	0.03514645
251	0xbe3538e7	-0.17697488
252	0xbcbb3107	-0.022850526
253	0xbd8e9162	-0.06961323
254	0x3dc8de3c	0.09808013
255	0x3d686b50	0.056742966

action_model._discrete_distribution.branches.0.bias f4 [7]
0	0x3cb7a57b	0.022417774
1	0xbc0a4dd7	-0.00844141
2	0x3d613688	0.054983646
3	0xbe5e994e	-0.21738169
4	0xbd4f4879	-0.050606225
5	0xbc04606f	-0.008079632
6	0x3c90a219	0.01765542
