Trained_Policies/WeightAgent_Training/WeightAgent_Training/WeightAgent_Training-7141163.pt (torch, 926564 bytes, 33 tensors)

network_body._body_endoder.seq_layers.0.weight f4 [128, 163]
000000 2f 8f 13 3c c4 69 03 bd 90 3c 46 3e 53 c0 49 3e
       0.009006306 -0.032083288 0.1935904 0.19702272
000010 26 21 90 3d a8 22 0e 3c e9 bb eb 3d 42 11 4c 3d
       0.070375726 0.008675255 0.115104504 0.049821146
000020 fd 7c fd 3c 27 0a 4a bd 48 c5 10 bd ab 3e 3b 3d
       0.030943388 -0.04932609 -0.035344392 0.04571406
000030 ab c9 04 3e ca 7d a9 3d ec 28 6e bd dc 04 23 37
       0.12967555 0.082759455 -0.058144495 9.7166885e-06
000040 8c 77 9d 3d 71 92 32 3d a1 7d f0 3c ae 1e c9 3b
       0.076888174 0.04359669 0.02935678 0.0061376905
000050 ce 80 a7 bd 32 7a 08 bd 6b 29 9f 3e 4f 84 81 be
       -0.081788644 -0.03331966 0.31086287 -0.25296256
000060 cb 0c 7c bd eb 03 ef bb 06 b1 55 3d 3f 34 ce 3d
       -0.061535638 -0.007294168 0.052170776 0.10068559
000070 d1 c6 9b bd ae 5f 6c 3d ab 66 3e 3d ae d5 bd bd
       -0.076062806 0.057708435 0.04648463 -0.09269272
000080 63 ab 39 3e d0 76 a0 bd 25 30 6f be a9 7b d2 bd
       0.18131785 -0.07835162 -0.2335821 -0.102774926
000090 1d 23 3c be c2 df 01 3d c6 5e 75 be 08 80 8e 3d
       -0.1837277 0.031707533 -0.23961934 0.06958014
0000a0 f2 bb ae bc be 03 dc 3d 73 54 36 3e c4 a9 54 3c
       -0.021329854 0.10742901 0.17805652 0.012979928
0000b0 0d 3d 2e bd 83 15 30 3d e0 d3 56 bc 0f 77 67 3d
       -0.04253869 0.042989265 -0.013112038 0.056510027
0000c0 61 7c fa bc 27 97 de 3d 3b 8a b2 3d 4e 69 d5 bd
       -0.030576887 0.10868674 0.087177716 -0.10420476
0000d0 9d 60 85 3e 5c 2b 83 be 32 e6 2f be 2f 72 68 bd
       0.26050273 -0.25619018 -0.17177656 -0.05674952
0000e0 8b 97 dd bd fd 44 57 3d 3c 0e 66 3d 29 9d 29 bc
       -0.1081992 0.052556027 0.05616592 -0.010352411
0000f0 ed af 80 bc 22 2f 17 be e3 fb af 3e 5e b7 e5 3d
       -0.015708888 -0.14764073 0.34371862 0.11216615
000100 a3 95 ed bd 42 74 8d bd c3 ac 15 be 17 85 8f 3d
       -0.116008066 -0.0690694 -0.14616685 0.07007807
000110 09 a9 21 3c 8f 76 43 3e 12 f5 c6 3b e1 4d 01 bd
       0.009866961 0.19088195 0.006071695 -0.03156841
000120 45 dd 2b 3e d0 42 9a bd 6d b1 69 3e 15 c4 f4 ba
       0.16783626 -0.07532275 0.22821589 -0.001867416
000130 f0 19 69 be ff cb 5b 3c ab 92 ff 3d 7d 3e fc 3d
       -0.227638 0.013415336 0.124791466 0.12316606
000140 91 8d 99 bc 9d 80 c5 3d 2d e2 13 3e 45 6b f5 bd
       -0.018744262 0.09643672 0.14441748 -0.11983351
000150 52 72 81 bc 87 f7 5a 3d 94 17 29 be b5 26 b3 3d
       -0.015801582 0.053458717 -0.165129 0.08747617
000160 ea 88 25 bd 1c 26 22 3e a9 2c ed bd 18 fc f1 bb
       -0.040413775 0.1583485 -0.11580784 -0.0073847882
000170 95 76 17 bd 34 4f 1e bb 4c dd c3 bd 93 31 95 3d
       -0.036978323 -0.0024156095 -0.095636934 0.07284846
000180 73 07 84 bd ee 0a 94 bb 01 54 34 3d ef d9 25 3e
       -0.06446733 -0.0045179045 0.044025425 0.16196416
000190 9c e3 c5 3d 9d ae 27 3e 6b 45 67 bd 90 8a ee bb
       0.09662554 0.16375203 -0.056462687 -0.0072797015
0001a0 d6 6c b2 3d 67 ff 9d 3d 81 0a 54 be 02 3d 07 bd
       0.08712165 0.0771473 -0.20707132 -0.033017166
0001b0 76 7d b8 bd 08 6a a8 bd ca 1e ff 3d 2d 8d 46 3b
       -0.09008305 -0.08223349 0.124570444 0.003029655
0001c0 d4 64 1a 3e c6 ad 21 be 7e a1 5a be 62 57 e8 3d
       0.15077525 -0.15788946 -0.21350667 0.11344792
0001d0 c6 5b 45 3d fc 05 ea 3d aa 4e ba 3d cb b3 be bc
       0.048183225 0.11426923 0.09097035 -0.023279091
0001e0 69 9c 5e 3d ff 59 b7 3d 66 3c 9e bd 3a 57 1c 3d
       0.054348383 0.08952712 -0.07726364 0.038169123
0001f0 e3 9c 9c bd 65 58 76 3e 62 e9 84 bd 53 dc 98 3c
       -0.07647111 0.24057157 -0.06489827 0.018659746
000200 3c 11 11 be b9 81 78 bd bd 60 2f 3d e8 f7 40 3e
       -0.1416673 -0.06067059 0.042816866 0.18844569
000210 ef 57 30 be a3 1a d4 ba 06 c2 bf 3c 63 4e 4a bd
       -0.17221044 -0.0016182255 0.023407947 -0.04939116
000220 17 97 c6 bd 4f de 1e 3d 24 e2 c6 bd c0 86 d2 bd
       -0.09696787 0.03878623 -0.09711102 -0.10279608
000230 81 f6 75 3d 87 92 60 3c f7 9a d7 bd c7 8e ae 3c
       0.060049538 0.01370681 -0.10527604 0.021308316
000240 e0 98 65 3e 4a 3c 2a 3e eb 64 bf bd da e9 47 bd
       0.22421598 0.16624561 -0.093454204 -0.048807003
000250 0e d2 c3 3d c6 df 51 bd 3e 1a 6f 3e d2 bd 57 bd
       0.09561549 -0.051238798 0.23349854 -0.05267126
000260 84 3e e4 bb 10 02 c5 bb 14 b0 b3 bd d6 4c f3 bc
       -0.0069654603 -0.0060122088 -0.087738186 -0.029699724
000270 a9 21 ce 3b b7 96 c7 bd 31 22 8e 3b db d0 96 bd
       0.0062906337 -0.097455435 0.004337572 -0.07364055
000280 26 dd b1 3b 92 f5 09 3b 60 03 74 bd 1e 25 8d bd
       0.0054279743 0.0021050912 -0.05957353 -0.06891845
000290 f1 ae 5c bd f2 53 a0 3d 7e 46 a7 3c 4b 73 0b be
       -0.053877775 0.07828511 0.020419355 -0.136182
0002a0 b8 88 83 bd 43 4a d3 bd 25 9b 50 3d 88 76 c5 bc
       -0.064225614 -0.10316899 0.050929207 -0.024104372
0002b0 c5 9e 78 bb d4 c1 ac bd f5 ad fd bd b3 da 93 3d
       -0.003793643 -0.08435407 -0.12386695 0.07219448
0002c0 49 3f ef bd 12 0f 6f be 74 43 6a bd a7 87 df bd
       -0.116819926 -0.23345593 -0.057193235 -0.109145455
0002d0 2a f9 86 3e cd 76 fd 3d 35 60 ec 3d 90 53 fb 3d
       0.26361972 0.12376175 0.115417875 0.12271798
0002e0 ee df 30 be cf f6 7f 3d 1d df c4 3b fd b8 a4 bd
       -0.17272922 0.062491234 0.0060080425 -0.08043096
0002f0 09 4a 2f bd c0 16 77 3c 9f 29 14 bd 20 08 4c bd
       -0.042795215 0.015081108 -0.036172505 -0.049812436
000300 40 15 2a 3c 86 47 23 3d 63 7c 75 3c 1b 0f cc 3d
       0.010381043 0.039863132 0.014983269 0.09963819
000310 e2 81 8e bd 69 ce c4 bd 16 8f 67 3c 8b 8b 3f be
       -0.06958367 -0.09609682 0.014133235 -0.18705575
000320 a6 05 30 3e 3b 82 8c bd 0b 1a 21 3e 52 d2 e8 bb
       0.17189655 -0.06860777 0.15732591 -0.0071051503
000330 5a 72 01 3c e8 51 8a bc 6a 99 37 bc 59 e8 7f be
       0.007900799 -0.016884759 -0.01120601 -0.24990977
000340 e3 1f 66 3d 27 f1 34 be 89 cc 9f 3d 0b 87 c9 ba
       0.056182753 -0.17670117 0.07802684 -0.0015375329
000350 77 46 7a bc 0a 2c 96 bd 9f e1 df 3d 2d cb d0 3d
       -0.015275589 -0.073326185 0.10931706 0.10195003
000360 43 e8 92 be 10 d2 01 be cd 4c d7 bd d6 3c 07 3e
       -0.28692827 -0.12677789 -0.105126955 0.13206801
000370 11 16 39 3d ee 19 02 bd 00 5b e2 3d a2 b6 f3 bd
       0.04518706 -0.03176301 0.11052513 -0.11900069
000380 85 3b 03 3e 23 8d fe bd 5a 51 ac bc e8 21 4f be
       0.12815674 -0.124292634 -0.021034885 -0.20227778
000390 74 94 87 bc e4 f1 6b bc d5 65 5d 3d 22 13 99 3d
       -0.01655028 -0.014400933 0.054052193 0.074743524
0003a0 9c 96 04 3d 97 76 bb bd 54 0b f3 3c 08 69 aa bd
       0.032370195 -0.091534786 0.029668488 -0.08320814
0003b0 b3 b4 68 bd 3f 05 07 be 51 61 8d bd eb e9 04 be
       -0.056812953 -0.13185595 -0.06903327 -0.12979858
0003c0 bc 62 fd 3d 24 d6 95 bc 43 e3 83 3d a1 d7 49 bc
       0.12372348 -0.018290587 0.06439831 -0.012319476
0003d0 4a 80 4e bd 7d 8f c1 3c 4d 03 1a be 97 f2 36 be
       -0.050415315 0.02362799 -0.15040322 -0.17865978
0003e0 7c 8f f5 3a 7e 2d 76 bd 04 89 9d bd 11 d3 21 bb
       0.0018734778 -0.06010198 -0.07692149 -0.0024692456
0003f0 13 88 9f 3d ef f5 05 bd 9f 1c fd 3d 3d fc 03 be
       0.07789626 -0.032705244 0.12358975 -0.1288919

network_body._body_endoder.seq_layers.0.bias f4 [128]
000000 08 92 52 bb 1e c0 f6 3b 08 59 92 bb 89 4a 9c bb
       -0.0032130498 0.0075302264 -0.0044661798 -0.0047696275
000010 c3 84 0e 3d b2 e1 4f bd 35 72 d5 bc 1f e0 1d 3d
       0.03479458 -0.05075235 -0.026055435 0.038543817
000020 c2 90 88 3c 8a 4a 4a bd a9 f5 af 3c 71 99 23 3c
       0.016670588 -0.049387492 0.021479445 0.009985314
000030 34 7a 51 bb c9 28 aa 3c fa f1 8a bd 90 c5 77 bb
       -0.0031963708 0.020771401 -0.067844346 -0.0037806965
000040 f7 d4 9c bd bd de f7 bb d3 e9 08 3c 39 0a a1 3c
       -0.07657807 -0.0075643943 0.008356529 0.019658195
000050 a8 40 32 3d a2 49 90 3c db ef 41 bd 91 f4 82 3c
       0.043518692 0.017613236 -0.047347885 0.015985759
000060 8f 85 90 3a 50 d1 bb bb 53 69 a2 bc bd 7f 4a 3d
       0.0011026132 -0.005731739 -0.019825613 0.049438227
000070 57 01 ea 3b f1 8f 87 bb dd f2 db 3b a7 0f 02 bd
       0.007141273 -0.004137032 0.006712301 -0.03175321
000080 78 c8 8b bd 0a c7 17 3b fb d4 b3 bd ca 6d e8 3c
       -0.06825346 0.0023159408 -0.08780857 0.028372664
000090 fb da f3 3c 58 b0 0c 3d 0f e7 4f 3b ef 7a f4 bc
       0.029767504 0.034347862 0.0031723415 -0.029843776
0000a0 44 75 29 3d f7 2a e1 3b ae 45 32 bd 08 4f df 3a
       0.0413716 0.006871577 -0.043523483 0.0017037103
0000b0 90 12 5a 3d 44 e3 05 3d 16 28 6d bd de f9 59 bd
       0.05324036 0.03268744 -0.057899557 -0.053216808
0000c0 7a e0 ff bc 91 87 60 3d da 99 ad bc 04 4b 51 3d
       -0.031234968 0.054816786 -0.021191526 0.05109693
0000d0 ed 19 d5 bc 5f 38 c3 3d a5 54 65 bd be bb a7 bc
       -0.026013339 0.09532236 -0.055988926 -0.020475265
0000e0 76 c7 e9 3a 3d 35 39 bd e1 7e c1 3c 28 d1 72 bc
       0.0017835933 -0.045216788 0.02362007 -0.014820375
0000f0 83 60 8e 3c bb e6 99 3c 41 c1 99 bd 00 28 3a bc
       0.017380005 0.018786779 -0.075075634 -0.011362076
000100 1f 6c 34 3d 1a 32 e6 3b ab 68 e4 ba ac 53 3e 3d
       0.044048425 0.0070250155 -0.0017426213 0.046466514
000110 09 b9 bb bc 19 4f af 3b 2c 8b d3 3c 37 2e 9b bc
       -0.02291538 0.0053500053 0.025823198 -0.018942935
000120 b2 5a e9 bb 08 e9 97 bc a5 1b ab 3d b8 db e5 3c
       -0.0071214074 -0.018543735 0.08354882 0.028058872
000130 be 98 5c 3d b8 c6 6b bd 6b a8 df 3b ed 40 bb 3b
       0.053856604 -0.05756256 0.006825497 0.005714527
000140 88 48 58 bd 18 ce 8a 3d fd 0b 97 bc cd b9 aa 3c
       -0.052803546 0.067775905 -0.018438334 0.02084055
000150 c3 3d 82 bd 6b bc fa bc 1d 69 83 bd 81 86 ad 3c
       -0.06359436 -0.030607423 -0.06416533 0.0211823
000160 1d a1 74 3c ae 87 08 bd a1 fc 30 3d e0 49 8f 3d
       0.0149309905 -0.03333252 0.043209676 0.069965124
000170 56 6a a4 bb a5 90 f0 3a a9 77 4f 3d 75 3b ba 3c
       -0.005017559 0.0018353654 0.050651226 0.02273343
000180 7b 35 99 bc c8 33 8c bd 13 60 4a 3d cf 8a d0 3a
       -0.01870226 -0.06845814 0.04940803 0.0015910509
000190 20 99 0e bd ac 7e ca 3c 98 64 93 3a 31 21 0f 3c
       -0.034814 0.024718605 0.0011245189 0.008735941
0001a0 c1 e5 4a 3d 62 5d 3b 3d 6b 7e 9c 3b a3 51 7b 3c
       0.049535517 0.045743354 0.0047758124 0.015339288
0001b0 4b e0 ac 3a ee ec 84 3c 38 e6 4e 3d 4b 90 ad 3c
       0.0013189403 0.016226258 0.050512522 0.021186968
0001c0 b8 28 2a 3b 5a 5e 12 3d ea 0f af 3c 49 df d1 3b
       0.0025964212 0.035734512 0.021369893 0.0064047915
0001d0 be 91 b1 bd e0 b3 05 3d 13 9a 13 3d 44 e6 81 3d
       -0.08670376 0.032642245 0.03603561 0.06342748
0001e0 b4 a6 ac bc f7 f9 0a 3d 35 cd 66 3c 03 18 5c 3d
       -0.021075584 0.03392979 0.014087011 0.053733837
0001f0 1a cf b1 bb 29 d3 62 bd f5 be 52 bd c4 0b 67 bd
       -0.0054262998 -0.05537716 -0.051451642 -0.056407705

network_body._body_endoder.seq_layers.2.weight f4 [128, 128]
000000 6a fa a7 3d 5c 27 b1 bc 57 69 9c bd 0a 57 cc 3d
       0.082020596 -0.021625213 -0.076372795 0.09977539
000010 db 9b 77 bc d8 40 ed bd 72 3c 7d bd 6f b5 19 3e
       -0.015112842 -0.115846336 -0.061825223 0.15010618
000020 be 16 97 bd 07 0c 94 bd 7b 6a 84 bd 35 e7 40 b9
       -0.073773846 -0.072288565 -0.06465622 -0.00018396678
000030 95 b3 21 3e 92 de 3a bd 01 5c a8 bb dd 39 eb b9
       0.15791161 -0.045622416 -0.005137921 -0.00044865804
000040 29 a0 32 be b0 cc ac 3d 43 9d f8 bd b8 50 95 3d
       -0.17443909 0.084374785 -0.1213937 0.072907865
000050 62 5b 48 3e 1e 4b 4b 3c 51 57 09 3d dc f7 46 3c
       0.1956611 0.012408046 0.033530537 0.012144055
000060 04 dd 3d 3d 50 67 06 3d 1c 28 c1 3d 3f 71 83 3b
       0.046353355 0.03281337 0.094314784 0.0040113027
000070 6f 09 2b 3e d8 67 c6 3c 2f fc 88 ba 9a 7a 96 bd
       0.16702817 0.024219438 -0.0010451133 -0.07347603
000080 f7 cd 13 bb 3e 56 a7 3d 2e d0 41 3d 1a dd 4e bd
       -0.0022553185 0.08170746 0.047317676 -0.050503828
000090 f8 b7 ed 3d f5 b3 11 bd 1f 90 21 3d 0a 12 df bc
       0.11607355 -0.03557201 0.039444085 -0.027230281
0000a0 56 1b 5d bb ac d9 15 3d cb 60 19 be 92 6e b4 3d
       -0.0033738217 0.03658454 -0.1497833 0.08810152
0000b0 ad c8 4b 3e 4d 30 02 3e ef a3 89 be 01 1f 4d be
       0.1990077 0.12713738 -0.26882884 -0.20031358
0000c0 2a 14 f8 bd d5 fe 15 bc df 11 cb 3d 79 49 12 3e
       -0.12113221 -0.009154995 0.09915518 0.1428584
0000d0 ef a9 44 be 16 25 3f 3e ce 89 45 be f7 a7 82 bd
       -0.1920545 0.18666491 -0.1929085 -0.06379693
0000e0 fc 92 08 bc d0 15 71 3c 2d b6 39 be 98 e2 8a bd
       -0.008335825 0.014714673 -0.18135901 -0.067815006
0000f0 41 f2 0b 3d 2e 69 a4 3e 4d dc 4b bd 82 7c 6d 3d
       0.03416658 0.32111496 -0.049770642 0.057980068
000100 d5 37 27 3e 8c ce f9 3d 9e d0 ad ba dc 37 09 be
       0.16329892 0.12197599 -0.0013261025 -0.13400215
000110 8c ea cb 3c 25 c4 93 3d 4d 52 41 3e 90 68 b6 3d
       0.024892114 0.07215146 0.18879052 0.089066625
000120 ad 85 4a bd 93 bc fa 3d 76 84 96 3d 3a c5 c9 bd
       -0.04944389 0.12242999 0.07349484 -0.09852071
000130 f2 6c f1 3d e3 2b d6 bd 84 20 12 3e c3 cb 3e 3d
       0.11788358 -0.104575895 0.14270216 0.04658104
000140 19 20 10 bc fd a5 a9 bd d8 7a 77 3b da 65 78 be
       -0.008796715 -0.08283613 0.003776243 -0.24257603
000150 4c 45 8c bd bb d9 22 be e3 c5 ea bd 7c 22 9b bd
       -0.06849155 -0.1590337 -0.11463525 -0.07574937
000160 e0 83 11 bc 8a 4c a6 bd 27 e7 2a be dd 58 17 3e
       -0.008881539 -0.081200674 -0.1668974 0.14779992
000170 04 d4 1e bd 89 38 2f bd b9 c7 cb 3c ed 1f f0 bd
       -0.038776413 -0.042778526 0.024875509 -0.11724839
000180 1f 06 12 bd ba f3 34 be e4 8e e5 3c e6 ac 75 bd
       -0.03565037 -0.176711 0.028022237 -0.059979342
000190 d6 8b 57 3d 12 40 1e be bc 3e 5a bd 4b 77 17 3c
       0.052623592 -0.15454128 -0.053282484 0.00924475
0001a0 db 97 5c 3d 2f 06 a4 3c 03 cb 86 bd c0 00 47 3e
       0.05385576 0.02002248 -0.0658169 0.1943388
0001b0 2e 98 7f bd 4c 51 da bd d6 64 44 3c 51 8e 1c 3d
       -0.06240099 -0.106600374 0.011986932 0.03822166
0001c0 7c 7c f7 bc 93 78 d7 3c cb 58 17 be dd 75 1a be
       -0.030210726 0.026302611 -0.14779966 -0.15084024
0001d0 12 ab 1e be eb db b0 be b8 24 cc 3d 11 5d 02 3e
       -0.15494946 -0.34542784 0.09967941 0.12730815
0001e0 04 5c 23 be 77 07 31 3e 28 68 aa bd 40 e9 8e bc
       -0.1595307 0.17288004 -0.083206475 -0.017445207
0001f0 59 3a 65 3d 0b c1 90 3b b4 ed b9 bc 0b f3 3a 3c
       0.055963848 0.0044175438 -0.022696353 0.011410485
000200 05 ee 71 bd 70 83 7f bd 11 63 cd 3d 63 1c eb bd
       -0.059064884 -0.062381208 0.10028661 -0.11480024
000210 a6 cc d0 3d 60 98 ab 3d d3 92 8e be ca ed cd bc
       0.101952836 0.083786726 -0.27846393 -0.0251378
000220 b9 07 83 3d 34 13 ec bd 9b a5 ba bd c6 4f d5 bd
       0.06397957 -0.115271 -0.09113618 -0.10415606
000230 2d 73 08 bd 58 a6 f7 bd 09 af 27 be 95 5e 25 be
       -0.033312965 -0.120922744 -0.16375364 -0.16149361
000240 20 45 17 be 24 fb bd bd d6 01 e6 bd e2 70 95 3d
       -0.14772463 -0.09276417 -0.11230819 0.07296921
000250 72 38 02 3e b2 83 32 3d 30 a1 d5 3c 20 b5 a3 bc
       0.12716845 0.043582626 0.026077837 -0.019983828
000260 a8 3a 28 bd 12 f4 ea 3c 97 2b 5d be 44 87 28 3e
       -0.041071564 0.028680835 -0.2159866 0.1645785
000270 3a 4d 96 3d 9f 52 38 be 1e 6f f6 bd 27 54 82 be
       0.073389485 -0.18000267 -0.12032913 -0.25454828
000280 c0 88 3e be 9e 07 97 3d d6 80 e9 bd 2a 3c d0 3d
       -0.18606853 0.073745 -0.11401527 0.101677254
000290 93 df 82 3b ff d0 7e 3d 79 30 04 3e 69 8b 4d be
       0.0039939373 0.062211033 0.12909116 -0.20072712
0002a0 79 22 64 bc c7 47 b4 bd 80 58 00 3e f6 34 fd bb
       -0.013924235 -0.08802753 0.1253376 -0.0077272607
0002b0 41 ee 40 bc 80 50 30 3e 89 23 1e be f4 5a 6b be
       -0.011775554 0.17218208 -0.15443243 -0.22983915
0002c0 ec c1 54 be a5 f3 0c be b6 a0 f7 bd 01 ea 7d bd
       -0.207771 -0.13764818 -0.120912 -0.06199074
0002d0 2f 7c 5d 3d d4 d2 7e 3e 1c b7 3e bd f4 a5 1d 3c
       0.05407351 0.24885112 -0.046561345 0.009622086
0002e0 c6 4f 85 bc 49 02 18 3d 60 da 21 be a3 23 f2 bd
       -0.01627339 0.037111554 -0.1580596 -0.118232034
0002f0 ff 3d 0f 3e 96 2a b6 bb 59 b6 fb b9 39 b4 5b bd
       0.13988493 -0.005559276 -0.0004801031 -0.05363867
000300 0e 13 49 be 34 95 19 be 01 ef fb 3b 04 3a 7f bc
       -0.19636175 -0.14998323 0.0076884036 -0.015577797
000310 69 37 88 3d 32 0a 92 be 9b 6f 20 3c d6 bd dc bc
       0.06651194 -0.28523403 0.009792234 -0.02694599
000320 50 04 ef 3d fe ad 28 be fc 9f 8d 3d c7 ab 48 3e
       0.116707444 -0.16472623 0.0691528 0.19596778
000330 61 62 08 3b da ca 42 be 52 14 e1 3b b3 03 f8 3d
       0.0020810592 -0.19022694 0.0068688774 0.121100806
000340 69 1f c4 bd 2b e0 32 3d 2e d8 5f 3c b8 62 4f bd
       -0.095763035 0.043670814 0.013662381 -0.050631255
000350 56 95 c5 bd b5 d0 3a 3d 2f 1e 72 bd 36 a0 bf bd
       -0.09647624 0.045609195 -0.059110817 -0.0935673
000360 8f 21 a7 3d 1a 5d 5b be 3b 10 b6 3d ed 55 60 3e
       0.08160698 -0.21422234 0.088898145 0.21907778
000370 07 7b 07 3d a5 ce ad bd 3e 39 69 3d b9 5d 23 be
       0.033076312 -0.0848668 0.056939356 -0.15953721
000380 1a aa af bc a3 41 95 bd 45 bd 28 3e 5a 09 b6 3d
       -0.021443415 -0.0728791 0.1647845 0.088885024
000390 d1 53 5f be fe 0c 26 3d d8 b0 c1 3c b9 c3 f6 bc
       -0.21809317 0.040539734 0.023643896 -0.030122625
0003a0 f7 e2 80 3c ed f7 d5 bd c7 cf d2 bc 0b 9c d3 3b
       0.015733225 -0.10447679 -0.025733842 0.0064578108
0003b0 a9 82 08 3e f9 8a f9 3d f1 ad ce bd 15 66 33 3b
       0.13331093 0.1218471 -0.100917704 0.0027374078
0003c0 f0 fd f6 bd 14 08 3d 3e 39 b4 41 be dd 60 10 be
       -0.120601535 0.18460113 -0.18916406 -0.1409945
0003d0 ea d6 16 be 28 6b 3a 3e 10 44 28 3d 04 70 08 3e
       -0.1473042 0.1820494 0.041080534 0.1332398
0003e0 cc 82 6e be 13 44 5a be 7b 5b 77 3c de 86 dd 3d
       -0.23292083 -0.21315031 0.015097494 0.108167395
0003f0 2f 1c 07 bd f4 0b ad bd 26 7e 12 3d 26 83 09 be
       -0.032985862 -0.084495455 0.035764836 -0.13428935

network_body._body_endoder.seq_layers.2.bias f4 [128]
000000 4a bb 28 3d f8 c0 90 3d ef 24 77 bd 33 6e 4a bd
       0.041194238 0.07068056 -0.060337957 -0.0494215
000010 51 ab 01 bd dd 6a 57 3b 9a 68 b0 3b 97 60 aa bc
       -0.03165752 0.0032870092 0.005383563 -0.02079801
000020 22 15 5e bd 24 d2 ce 3d 7a 14 c9 bc bc 33 6d bd
       -0.054219373 0.10098675 -0.024545897 -0.057910666
000030 52 d1 ae 3c 60 56 89 bc 2f 05 1b 3b f3 49 03 3c
       0.021340046 -0.01676482 0.0023654213 0.008013236
000040 8c 26 be 3c 32 70 2e 3d a3 b7 56 bd 2f ea b5 3c
       0.02321174 0.042587467 -0.052421223 0.022206394
000050 7c f8 fa bb 3b b7 a4 3c d7 e1 12 3b 0b 06 89 3d
       -0.007659016 0.020106902 0.0022412443 0.06690606
000060 da a0 17 3d 10 a4 3a 3c fd 30 a7 3c ef ba 54 3d
       0.037018634 0.011391655 0.020409102 0.051936086
000070 af a2 51 3a 43 62 43 bd d8 10 87 3c d9 ca 41 3d
       0.0007996959 -0.04770113 0.016487524 0.04731259
000080 69 04 5c 3c 05 23 47 3d c5 00 05 3d e0 2d 04 3d
       0.013428786 0.04861738 0.032471437 0.032270312
000090 12 3e c7 bc 8c 77 8d 3b 2a b3 db bc e6 76 1c 3c
       -0.02432159 0.0043172296 -0.02681883 0.009549832
0000a0 6b 0f d3 bd cf c0 c4 3c 78 2d 1e 3d af b7 72 bc
       -0.10305675 0.02401772 0.03861758 -0.014814301
0000b0 4f 71 82 bc 55 a0 ad 3c fa 26 64 3c ea f2 f9 bc
       -0.01592317 0.021194616 0.013925308 -0.030511338
0000c0 d7 d0 69 3c 82 ee 14 bd 4f 1c 30 bb 28 8a e4 bd
       0.014270983 -0.03636027 -0.0026872342 -0.11159164
0000d0 74 ed 69 bd ad c0 74 bd a4 83 16 bd 1c 91 31 3d
       -0.05711122 -0.059754062 -0.036746636 0.043351278
0000e0 54 68 4a 3b 4a ff eb 3c ad 6b ee bc 0a fb 05 bd
       0.0030884938 0.028808255 -0.029104078 -0.032710113
0000f0 8f 8a e7 bb a5 2c ed 3b 2c 52 4d 3d f3 89 64 bd
       -0.007066078 0.007237988 0.050127193 -0.05579562
000100 12 c6 0c bd eb b8 5a 3c 88 ae b0 3c 46 a2 9a bc
       -0.034368582 0.013349752 0.021567598 -0.018876206
000110 89 7b 29 3c 50 64 d6 3c b7 74 cf 3d d4 8d 20 bc
       0.0103443945 0.02617088 0.101296835 -0.009799439
000120 27 42 83 bc 58 4d 3e bb 42 b5 bd 3c a6 68 58 3d
       -0.016022755 -0.00290378 0.02315772 0.052834176
000130 b4 1e 46 3d 7e 96 90 bd aa 11 64 3a bd d5 e5 3c
       0.048369125 -0.07059954 0.0008700142 0.02805602
000140 37 79 c0 bb 66 d4 a5 3b 59 92 51 3d 20 4c 2a 3d
       -0.005873825 0.0050607203 0.05116496 0.041576505
000150 e6 ff 53 3d bf 27 a0 3d 80 7c 78 bc aa 41 14 bd
       0.051757716 0.07820081 -0.015166402 -0.036195435
000160 23 bc 01 3d ce 54 34 3d 8b 61 9c 3b 94 2b 71 bd
       0.03167356 0.04402619 0.00477237 -0.05887945
000170 ef e8 8a bd e1 fa 06 3c ba 1e 52 bd 08 6b a9 3c
       -0.0678271 0.008238525 -0.051298834 0.02068092
000180 56 8b a1 bd 0f e5 11 bd 8b 75 6c bd 6b 2a 23 3d
       -0.07887904 -0.035618838 -0.057729285 0.039835375
000190 74 7d 05 bd bb 4c 0b 3d bc d5 a0 bd 54 ce e8 3a
       -0.032590345 0.034008723 -0.078532666 0.0017761686
0001a0 ac 6c 54 3c bd cb 97 3c 64 02 71 3c a1 c7 3d 3c
       0.0129653625 0.018529767 0.014710043 0.01158324
0001b0 0f 66 2e 3d 1c c6 68 3d cb ba b7 3c e1 3a 83 bc
       0.0425778 0.056829557 0.022427937 -0.016019287
0001c0 f8 3e 82 bd 16 23 50 bb 31 53 cb bc e4 7a 17 3d
       -0.063596666 -0.0031759194 -0.024819942 0.036982432
0001d0 34 45 1f bc a8 a3 ab 3c 71 2c c0 bc 2b 8f 40 bd
       -0.009721089 0.02095206 -0.023458691 -0.047011536
0001e0 e5 80 10 3d 62 80 53 bd fa 03 d2 bc fb 12 cc bc
       0.035279173 -0.051636107 -0.025636662 -0.024911394
0001f0 f1 e9 7c 3c 7b 4f b6 3b f9 6b e3 ba d8 f2 46 bd
       0.015436635 0.005563674 -0.0017350904 -0.048571438

action_model._discrete_distribution.branches.0.weight f4 [7, 128]
000000 8b 1d 4b 3d 46 15 65 bd 92 32 92 3c f7 0d 30 3d
       0.04958872 -0.05592849 0.01784638 0.042982068
000010 4f d3 a8 3c 3c 35 52 bb af 76 eb bc 57 80 08 bc
       0.020608572 -0.0032075187 -0.028743116 -0.00833138
000020 b9 e7 9e bc 61 e2 37 3c 18 c6 df bc a0 91 74 bb
       -0.019397603 0.0112234065 -0.027316138 -0.0037318245
000030 48 b6 a7 bc 4d ba 6c 3d 10 f3 81 bd dd e3 9c bd
       -0.02047266 0.057794858 -0.063451886 -0.07660649
000040 13 e2 ed 3c 64 93 ce bc 33 8c 6c bd 4d 26 13 3d
       0.029038465 -0.025216766 -0.057750892 0.0359252
000050 ae 80 0a 3d ad 9c 98 3d 12 15 1f 3d 25 b4 b9 bc
       0.033814125 0.074517585 0.038838454 -0.022668907
000060 1e ea 82 3b 86 95 54 3b d8 b4 7c 3c 22 b7 b6 bc
       0.003995194 0.0032437756 0.015423976 -0.022304121
000070 57 3a f8 bd 58 c4 8c 3c dd dd b0 bc 90 f7 e9 bb
       -0.121205024 0.017183468 -0.021590168 -0.0071401075
000080 63 f4 42 3b 15 a5 0c 3d 25 79 0a bd a6 22 c1 3c
       0.0029747717 0.034337122 -0.03380694 0.023576092
000090 e5 be 47 3c 44 f4 71 3d 20 8b 2a bd 24 38 8c bb
       0.012191509 0.05907084 -0.041636586 -0.0042791534
0000a0 5e f7 94 bc 04 aa ff 3c 55 73 6a 3c 5d 55 22 3d
       -0.01818436 0.031209 0.014309724 0.03963219
0000b0 90 14 f6 3c 80 9a e8 ba 9d d8 49 3d ab d0 8b 3c
       0.030039102 -0.001774624 0.049278844 0.017067274
0000c0 a6 5e 1a bd e9 d1 74 3d eb c8 77 3c 04 ae d8 bb
       -0.03768792 0.0597705 0.015123586 -0.006612541
0000d0 b5 66 65 3c 3e 45 c2 bc 6e 9c f6 3b 5d 4c d6 3c
       0.014001538 -0.023714658 0.007525972 0.02615946
0000e0 66 2b 98 bb a1 50 35 3d d5 55 f7 3c 59 36 ce 3c
       -0.0046438454 0.044266347 0.030192295 0.0251724
0000f0 4f 97 42 bd 5d 0a 46 3d 77 15 fe 3a 16 31 c6 bc
       -0.04750758 0.048349727 0.0019385059 -0.024193328
000100 cb 06 82 bd 04 83 b1 bd 6a ac 0e bd 9a c1 df 3c
       -0.06348952 -0.08667567 -0.034832396 0.027313996
000110 46 34 56 bd bd ac 6c 3c fc 28 98 3d 64 f5 bf 3c
       -0.052295946 0.014445481 0.07429692 0.023432441
000120 e2 e6 67 3d fb 06 3d 3d 8c 14 16 bd 7e 97 74 bd
       0.05661667 0.046149235 -0.03664069 -0.059714787
000130 67 22 5c 3d fb 6b c2 3c e9 43 8c 3d 23 9f 18 3d
       0.053743746 0.02373313 0.0684889 0.03726114
000140 fb 20 f9 3a 5c 99 8d bd db d9 a1 3c 3a fe 3e 3d
       0.0019007021 -0.069140166 0.019757202 0.046629168
000150 8b e1 cf bb 04 a8 33 3d 61 00 0b 3d 3e 1a 9a bc
       -0.0063440255 0.043861404 0.03393591 -0.018811341
000160 6a ab 41 3d 6d bc 45 bd 7b c6 6e 3d 93 54 75 bd
       0.047282614 -0.0482754 0.058294754 -0.05989511
000170 04 02 29 bd 3a 21 73 3d 83 3b 94 bc 63 00 b2 bd
       -0.041261688 0.05935786 -0.018094784 -0.0869148
000180 b4 7d 9c bb b8 41 e1 3d fc 11 85 bb c4 15 fb bb
       -0.004775727 0.10998863 -0.004060982 -0.007662507
000190 b7 ba fc 3b 89 10 96 bc d2 15 ca bc 25 5f 8f 3c
       0.007712688 -0.018318431 -0.024668608 0.017501423
0001a0 a2 21 f4 3b 51 fe 86 bc 45 3b 43 bd c9 25 39 3d
       0.0074502984 -0.01647869 -0.047663946 0.04520205
0001b0 54 6d dd bc 70 9b d7 bc b7 4f a4 bb e3 24 06 3d
       -0.02702967 -0.026319236 -0.0050143856 0.03275002
0001c0 cc 9f 9d bc 1e 0f 3a 3c bd 51 68 3c 7d 72 4d 3d
       -0.019241236 0.011356143 0.014179644 0.050158013
0001d0 16 a4 e2 3c 41 58 8e 3d 69 e7 00 3d 56 51 56 bb
       0.027666133 0.06950427 0.03147069 -0.0032702289
0001e0 26 c3 8b bc 72 5d a0 bc d5 80 9c bd 05 fc c5 bd
       -0.017060827 -0.019575808 -0.0764176 -0.096672095
0001f0 a0 77 fa 3b 6a 8c 4b bd b8 5f f9 3c fc b0 91 bc
       0.007643655 -0.049694456 0.03044115 -0.017784588
000200 d8 34 a1 bd 49 73 bd 3c a8 50 15 3d 6f 54 b5 bc
       -0.07871407 0.023126261 0.036453873 -0.022134988
000210 d3 ec 4a 3d d8 e3 7e 3d 68 13 68 3d 62 62 e9 3c
       0.04954226 0.062229007 0.056659132 0.028489295
000220 6d 62 2b bc 88 4b ad bd 72 6a 6a 3d fa eb bc 3c
       -0.010460478 -0.08461672 0.05723042 0.023061741
000230 98 7f 65 3c 9f f2 3d bc 55 18 23 3d 38 86 bd 3c
       0.0140074715 -0.01159349 0.039818127 0.02313529
000240 5a 30 be 3c aa 52 43 3d dc 20 38 3d a4 cc 26 bc
       0.023216415 0.047686256 0.044953212 -0.010180626
000250 1d 53 13 bd 95 2e 70 bd 5b fb 11 3d cc 7a 1c bd
       -0.035967935 -0.058638174 0.035640102 -0.038203046
000260 88 fb 52 bd 58 a0 58 bd cd 15 d6 3d e6 02 73 bc
       -0.05150941 -0.05288729 0.10453377 -0.014832234
000270 95 50 47 3d 66 d9 16 3c 3c bc af 3b dc 2c d7 3c
       0.048660833 0.009207105 0.0053630155 0.026266508
000280 1b 5e 32 3d a4 b6 03 bd 56 3d 81 3d 2f ec c9 3c
       0.043546777 -0.0321566 0.06310527 0.024648754
000290 60 f5 ba 3d 56 ce 25 bd 52 d7 c0 3c 14 99 b5 3b
       0.09128833 -0.04047998 0.023540173 0.00554193
0002a0 6c e7 88 3c 87 66 16 bc e5 e8 87 3d c6 a3 0a 3b
       0.016711913 -0.009179718 0.06636218 0.0021154745
0002b0 61 66 23 3d 44 3b 88 3d 6d 4f 0f 3c 99 1c 19 3d
       0.039892558 0.06651929 0.008746964 0.03738079
0002c0 c6 8e 16 bc 46 9b 46 bb 65 78 99 3d c6 2a b6 ba
       -0.009189313 -0.0030304953 0.074936666 -0.0013898246
0002d0 79 78 99 bb 10 cd 56 3c cc 96 f3 bc 94 f8 60 bd
       -0.004683551 0.013110414 -0.029734991 -0.054924563
0002e0 66 1e b8 3c 22 a2 a4 ba 5e 2e 7b 3c 00 26 bc 3c
       0.022475433 -0.0012560526 0.015330879 0.022967339
0002f0 52 ae 1b bd e6 0b 8f 3c 1d 49 48 bd 14 33 38 3d
       -0.03800804 0.017461728 -0.04889785 0.044970587
000300 30 00 84 3d b2 1e 27 3d ed 18 09 3d b1 7e b6 3c
       0.06445348 0.040800758 0.033471037 0.022277208
000310 c2 c7 c5 3b 47 95 f3 bc f1 f5 a1 bd a9 2e 21 3d
       0.006035776 -0.029734267 -0.07908238 0.03935114
000320 0f 23 64 3c 91 0a 1d 3d a9 04 6b 3d 6c 07 fd bc
       0.013924374 0.038340155 0.05737749 -0.030887328
000330 4d 24 6b bd 3c bf 13 bc eb cf 22 bc 72 da c2 3d
       -0.057407666 -0.009017762 -0.009937267 0.095143214
000340 94 d4 76 3d 3a d9 60 3d 12 68 69 3d f5 66 88 bc
       0.060261324 0.054894663 0.056984015 -0.016650656
000350 46 1e a7 3c b8 9d aa bc bf cd 76 3d 09 ee 3c 3d
       0.020400178 -0.02082716 0.06025481 0.046125446
000360 13 2f c9 3d c9 9f 02 bd 15 20 ba bc d1 60 c7 3c
       0.09823432 -0.031890664 -0.022720376 0.024338158
000370 be 86 ca 3c 08 1b 2d bd 75 b7 13 3d d0 ce 0f bb
       0.024722453 -0.042262107 0.03606363 -0.0021943338
000380 03 6d 47 3c 0a e7 e7 bc 18 e9 9e 3c 17 44 a9 3c
       0.0121719865 -0.02830841 0.019398257 0.02066235
000390 f0 10 bc bc 81 26 36 3d 2b 69 a4 3c ff a1 8b 3d
       -0.022957295 0.044470314 0.02006968 0.06818008
0003a0 98 bb 55 3d 75 6f 90 bd 9c 63 b3 bc a8 c7 83 bc
       0.052180856 -0.07052509 -0.021898083 -0.016086414
0003b0 d3 f5 80 3d a6 0c 9b 3d d9 bb 8f 3d e5 75 a8 3b
       0.06296887 0.07570772 0.07018251 0.0051410072
0003c0 78 fa 76 3c b4 43 8b 3c 20 a6 0f bc ec 77 f9 bd
       0.015074365 0.017000057 -0.008767635 -0.121810764
0003d0 08 36 53 3d f3 11 1d 3b 89 14 5d 3c 04 e7 df 3b
       0.0515652 0.0023966997 0.0134936655 0.006832959
0003e0 50 53 0e 3d f2 58 b8 3d 3e 4d 28 3d fb c8 7c 3d
       0.03474742 0.0900134 0.04108929 0.061715107
0003f0 57 bf df 3c 66 0e 61 3d eb f9 b9 3a f6 77 91 3b
       0.027312918 0.054945372 0.0014188861 0.0044393493

action_model._discrete_distribution.branches.0.bias f4 [7]
000000 54 89 f0 3c 59 80 0c bc 49 0e 08 3d 07 08 df bd
       0.029362358 -0.008575522 0.03321675 -0.10890203
000010 8b de 66 bd 3c 49 34 3c b2 bc 28 3d
       -0.056364577 0.011003789 0.04119558

exp_avg f4 [128, 163]
000000 45 43 6e 01 0d d4 a4 36 51 b7 ec b3 da 0e 98 b1
       4.376196e-38 4.912267e-06 -1.10229514e-07 -4.4254707e-09
000010 38 3c 44 36 04 00 00 80 84 94 49 b4 9c c0 ed b3
       2.9241328e-06 -6e-45 -1.8773613e-07 -1.1071208e-07
000020 0b 3e ab 36 1e 1f 9c 36 f6 f8 89 02 b9 8c a4 36
       5.10342e-06 4.652785e-06 2.0273237e-37 4.903963e-06
000030 bf 51 ed b3 56 7c 85 b1 66 66 14 36 42 0c 00 00
       -1.1051042e-07 -3.884945e-09 2.2113322e-06 4.397e-42
000040 54 64 48 b4 46 7b ee b3 6c 37 ab 36 73 6b 9a 36
       -1.866295e-07 -1.1105162e-07 5.102649e-06 4.6020664e-06
000050 3d 90 72 81 5d 33 66 36 22 85 ee b3 26 b6 b0 b3
       -4.4551866e-38 3.4302568e-06 -1.11069554e-07 -8.228771e-08
000060 40 10 ce 35 8a 8b 01 00 7f c9 07 b2 ed 29 f3 b3
       1.5352925e-06 1.41893e-40 -7.903849e-09 -1.13231955e-07
000070 7c 54 a5 36 39 58 97 36 0f 29 5b 81 75 5f 6d 36
       4.9272185e-06 4.510421e-06 -4.0253405e-38 3.5371315e-06
000080 b4 e3 fd b3 8e 6d 43 b4 ac 57 50 36 8a 8b 01 00
       -1.18226495e-07 -1.8200646e-07 3.1045447e-06 1.41893e-40
000090 12 c2 80 b2 ed 29 f3 b3 5c 91 a5 36 0f af 6e 36
       -1.4989414e-08 -1.13231955e-07 4.9343053e-06 3.5566661e-06
0000a0 f7 31 30 82 e5 0d d4 b5 3e 1a fc b3 75 9a a5 36
       -1.2944777e-37 -1.5799275e-06 -1.1739438e-07 4.9353644e-06
0000b0 c7 4c 85 36 8a 8b 01 00 b4 db 0d b2 16 d7 32 b1
       3.972647e-06 1.41893e-40 -8.257235e-09 -2.6024671e-09
0000c0 9a 7e 62 36 71 ea 5c 36 f1 8f 8c 02 62 f5 d1 b5
       3.3750316e-06 3.2919017e-06 2.065377e-37 -1.5643129e-06
0000d0 18 75 ee b3 74 d4 aa 36 4b c6 78 36 8a 8b 01 00
       -1.1104038e-07 5.0911276e-06 3.7070301e-06 1.41893e-40
0000e0 80 db 0d b2 1f 8b ab 36 45 ca e9 b5 02 f9 1c 36
       -8.257189e-09 5.112393e-06 -1.7418721e-06 2.3390753e-06
0000f0 b5 cf af 02 b3 73 37 b2 ee 74 ee b3 13 bc d3 b5
       2.5833157e-37 -1.0678309e-08 -1.1104008e-07 -1.5775462e-06
000100 ee df ae 35 8a 8b 01 00 14 e8 d4 b0 1f 8b ab 36
       1.3029182e-06 1.41893e-40 -1.5490991e-09 5.112393e-06
000110 3c cc eb b5 31 4d b6 35 4b fc 48 02 7d 8b 5e b4
       -1.7568304e-06 1.3582522e-06 1.4766084e-37 -2.0726107e-07
000120 3d 14 89 b1 4b d5 df b5 ed 42 86 35 e4 85 01 00
       -3.9895256e-09 -1.6676871e-06 1.0003256e-06 1.39866e-40
000130 bb c9 0f b1 cc a7 a5 36 9a ee e2 b5 70 db 66 35
       -2.092391e-09 4.9369173e-06 -1.6907754e-06 8.6001e-07
000140 46 aa 3d 03 7a 36 40 b4 b3 e5 98 b0 02 db e3 b5
       5.5737572e-37 -1.7901212e-07 -1.112474e-09 -1.6976558e-06
000150 d6 33 cc 35 04 00 00 00 07 b7 0d b2 cc a7 a5 36
       1.5214271e-06 6e-45 -8.248896e-09 4.9369173e-06
000160 ff 1a e2 b5 96 03 7f 35 87 a9 3d 03 ce 8a ab 36
       -1.6846169e-06 9.500012e-07 5.5736716e-37 5.112356e-06
000170 ef fb 01 2e 69 ae fb b5 21 c2 10 36 73 0c 00 00
       2.9554966e-11 -1.8751717e-06 2.157067e-06 4.466e-42
000180 8a f0 22 b2 ab 41 3f b4 b9 4b 66 36 aa 00 60 36
       -9.484333e-09 -1.7812151e-07 3.4316747e-06 3.3378988e-06
000190 82 a9 3d 03 bc 10 4f 2f fb 3b d1 b0 74 59 59 36
       5.5736694e-37 1.8832486e-10 -1.5223799e-09 3.2387588e-06
0001a0 5d 41 59 36 28 20 00 00 81 e0 d1 b5 ab 41 3f b4
       3.2373566e-06 1.1535e-41 -1.5637053e-06 -1.7812151e-07
0001b0 07 14 a7 36 05 3d 8c 36 8f ef 4a 03 cd e3 18 2f
       4.9793193e-06 4.1794287e-06 5.9637464e-37 1.390525e-10
0001c0 c4 0e d5 b0 94 c9 60 36 ba b5 5e 36 22 24 00 00
       -1.5501986e-09 3.3495935e-06 3.3186357e-06 1.2962e-41
0001d0 40 f5 d1 b5 a7 62 55 25 f2 19 a1 36 a1 e5 91 36
       -1.5643091e-06 1.850823e-16 4.8011943e-06 4.348069e-06
0001e0 aa 2b 65 03 fd 1a 50 a1 da 4b d5 b0 00 fb 60 36
       6.7347175e-37 -7.050886e-19 -1.5519348e-09 3.3524702e-06
0001f0 2d 20 5f 36 22 24 00 00 b6 ec d2 b5 c4 e1 c1 25
       3.3248318e-06 1.2962e-41 -1.5715111e-06 3.3633148e-16
000200 5b 95 a1 36 37 06 90 36 3f f6 a0 02 e9 1a 50 a1
       4.815561e-06 4.292258e-06 2.3651225e-37 -7.0508757e-19
000210 ab 41 3f b4 80 49 6d 36 0e 14 61 36 22 24 00 00
       -1.7812151e-07 3.5358535e-06 3.3539286e-06 1.2962e-41
000220 ba cb 8b b2 aa a2 24 a9 b0 d4 5a 36 60 3d 5a 36
       -1.6274374e-08 -3.6556404e-14 3.2608332e-06 3.2520256e-06
000230 1d 24 00 00 e7 c9 4f 98 cc a7 a5 36 35 c3 d3 b5
       1.2955e-41 -2.6856058e-24 4.9369173e-06 -1.5777538e-06
000240 78 2d 4b 36 22 24 00 00 05 db 1b 98 dd a1 ab 36
       3.0275824e-06 1.2962e-41 -2.0143857e-24 5.1150405e-06
000250 6a ed ea b5 45 2f 2e 36 22 24 00 00 05 db 1b 98
       -1.7503455e-06 2.5955535e-06 1.2962e-41 -2.0143857e-24
000260 dd a1 ab 36 6a ed ea b5 45 2f 2e 36 7b e7 88 32
       5.1150405e-06 -1.7503455e-06 2.5955535e-06 1.5937749e-08
000270 3d df 63 b2 a6 77 b1 35 81 42 bf 39 17 4e 0c 36
       -1.32638975e-08 1.322235e-06 0.00036479908 2.090708e-06
000280 84 39 59 36 04 00 00 80 04 00 00 80 31 4b 7f 00
       3.2368998e-06 -6e-45 -6e-45 1.1690082e-38
000290 a0 f1 99 b6 bc 61 33 33 3d 54 70 b2 6c c0 2a b6
       -4.587884e-06 4.1765574e-08 -1.3988992e-08 -2.5443978e-06
0002a0 04 00 00 00 4c fb 08 b6 1a a2 33 33 89 cb 32 b6
       6e-45 -2.0411853e-06 4.1824116e-08 -2.664254e-06
0002b0 36 c3 75 b6 4b c5 1b 03 5c 97 96 b6 6c 0d 34 33
       -3.6621473e-06 4.5776887e-37 -4.487969e-06 4.1921723e-08
0002c0 75 27 3f b2 ee 67 0f b6 06 57 00 00 2f 2f 09 b6
       -1.1126635e-08 -2.1369156e-06 3.1218e-41 -2.0442055e-06
0002d0 46 7f 34 33 22 9b 32 b6 09 2a 87 b6 1b 38 20 03
       4.202527e-08 -2.6614366e-06 -4.028207e-06 4.708418e-37
0002e0 bc bb 44 b6 c4 36 35 33 64 86 64 b5 70 cb 39 b6
       -2.9315552e-06 4.2192156e-08 -8.5132183e-07 -2.7685564e-06
0002f0 04 ba 05 00 f8 4f 66 b4 90 65 4d 33 e5 e6 96 b6
       5.25907e-40 -2.1449512e-07 4.7822653e-08 -4.497228e-06
000300 7f 68 91 b6 c7 22 22 03 c2 50 e7 b5 25 17 37 b4
       -4.3335017e-06 4.7647444e-37 -1.7234345e-06 -1.7051623e-07
000310 4d dd f7 b5 9c 74 70 b6 04 ba 05 00 f0 99 5f b4
       -1.8467341e-06 -3.5830662e-06 5.25907e-40 -2.0824496e-07
000320 90 65 4d 33 9a 1c 97 b6 5d bd 82 b6 04 fa 36 03
       4.7822653e-08 -4.5034803e-06 -3.8963467e-06 5.3771997e-37
000330 3a 15 7a 35 b8 8c 37 b4 8f 24 97 b6 ab b1 85 b6
       9.3163146e-07 -1.7094396e-07 -4.5044067e-06 -3.984392e-06
000340 04 ba 05 00 7e 22 61 b4 b5 af c6 31 ef 0d 7e b6
       5.25907e-40 -2.0967306e-07 5.782534e-09 -3.785706e-06
000350 ab 2f 76 b6 33 4f 81 03 a0 62 42 35 7f 92 34 33
       -3.6684603e-06 7.600122e-37 7.241415e-07 4.2042753e-08
000360 15 49 32 b6 00 63 51 b6 04 ba 05 00 5b 21 61 b4
       -2.6566606e-06 -3.1201052e-06 5.25907e-40 -2.0966893e-07
000370 1c c0 31 b6 95 c1 97 b5 7e 4f 54 b6 09 6b aa 03
       -2.6486878e-06 -1.1306716e-06 -3.1636732e-06 1.0016276e-36
000380 5b f7 a5 31 64 92 34 33 7a 81 40 35 12 96 fa b5
       4.830253e-09 4.2042657e-08 7.1713987e-07 -1.8670128e-06
000390 04 ba 05 00 d1 cc 75 b2 1c c0 31 b6 d3 70 73 b5
       5.25907e-40 -1.4307447e-08 -2.6486878e-06 -9.0688735e-07
0003a0 34 9c 2e b6 86 9d 86 03 df e1 f6 b5 78 65 b9 30
       -2.6018943e-06 7.911978e-37 -1.8394165e-06 1.3489361e-09
0003b0 65 e7 49 35 f4 98 1d b6 f6 7c 05 00 19 67 93 b2
       7.521506e-07 -2.3483854e-06 5.04005e-40 -1.7159936e-08
0003c0 a2 a9 96 b6 2a 70 83 35 29 8b e3 b5 b3 44 d7 03
       -4.490096e-06 9.792905e-07 -1.6953319e-06 1.2652337e-36
0003d0 fa 72 f9 b5 8a 99 9d 2f b0 c7 4d 35 87 0b 2c b6
       -1.8585408e-06 2.866723e-10 7.6659035e-07 -2.5636707e-06
0003e0 04 00 00 00 6b 1d c6 30 a2 a9 96 b6 2e f0 80 35
       6e-45 1.4414757e-09 -4.490096e-06 9.606645e-07
0003f0 e1 96 cb b5 a5 44 d7 03 ac e5 32 b6 2e f0 b4 ad
       -1.516859e-06 1.2652324e-36 -2.6657754e-06 -2.0570292e-11

exp_avg_sq f4 [128, 163]
000000 77 a2 5d 2d d2 58 15 31 31 27 04 31 89 72 47 32
       1.259847e-11 2.1732842e-09 1.9230806e-09 1.1609367e-08
000010 db 48 6a 32 9f 64 ff 2c 55 49 1b 31 81 cf ba 31
       1.3637158e-08 7.258707e-12 2.2597153e-09 5.436903e-09
000020 0f 80 10 32 75 0a 36 32 70 d7 38 2e 83 5c f6 30
       8.41102e-09 1.0596172e-08 4.2028103e-11 1.7925149e-09
000030 27 44 0f 31 6b e8 34 32 54 20 5e 32 21 01 de 2c
       2.084798e-09 1.0530225e-08 1.2929451e-08 6.309745e-12
000040 5a 2c 48 31 4b ee c9 31 64 12 f9 31 86 e5 24 32
       2.9129041e-09 5.8769607e-09 7.2489446e-09 9.598244e-09
000050 e9 7f a9 2e 65 4f f4 30 46 f2 28 31 e9 6b 12 32
       7.7079516e-11 1.7775902e-09 2.4584934e-09 8.522854e-09
000060 67 3e 51 32 0d f1 ae 2c 4a e9 d2 30 d9 f4 08 32
       1.217959e-08 4.9721395e-12 1.5345816e-09 7.971914e-09
000070 15 34 ca 31 8c c0 27 32 b9 2e a5 2e dc d3 2f 31
       5.884895e-09 9.7644595e-09 7.511631e-11 2.558628e-09
000080 b9 16 48 31 67 bd 05 32 b2 f7 46 32 81 08 0e 2d
       2.9116747e-09 7.784684e-09 1.1581436e-08 8.073654e-12
000090 0b 04 bf 30 49 b0 0b 32 2d d0 bf 31 45 40 25 32
       1.3898228e-09 8.1309475e-09 5.5824985e-09 9.618877e-09
0000a0 88 bb d2 2e a3 4b 31 31 47 ce 59 31 74 cd 05 32
       9.5830066e-11 2.5799884e-09 3.1694911e-09 7.7883335e-09
0000b0 5d f0 42 32 63 6e 66 2d 9d 38 66 30 6c 55 f8 31
       1.13469385e-08 1.3098497e-11 8.3753965e-10 7.2274613e-09
0000c0 39 59 e5 31 f8 0d 36 32 47 c7 32 2f 1c 97 40 31
       6.6749206e-09 1.059697e-08 1.6259803e-10 2.8025573e-09
0000d0 bb 84 04 32 a3 75 98 31 77 f1 40 32 4d 91 77 2d
       7.713591e-09 4.437156e-09 1.1230774e-08 1.4072588e-11
0000e0 3f 2a 83 30 c6 45 84 31 e1 6f 22 32 c1 29 59 32
       9.543512e-10 3.849638e-09 9.455079e-09 1.2640556e-08
0000f0 6a 2e 3c 2f 6d b8 4c 31 3e ff 03 32 fd 6e a8 31
       1.711499e-10 2.979074e-09 7.683239e-09 4.9020614e-09
000100 5c 47 36 32 21 14 0b 2e 57 ca 0e 30 a2 de 08 31
       1.06100195e-08 3.162282e-11 5.194684e-10 1.9917157e-09
000110 f4 ea 58 32 5e e3 78 32 e1 c4 3c 2f d2 ed 45 31
       1.2626277e-08 1.4487197e-08 1.7168446e-10 2.8802458e-09
000120 61 ea 05 32 1f 24 ae 31 ca 47 41 32 5b d4 65 2e
       7.7949105e-09 5.068173e-09 1.12504015e-08 5.225718e-11
000130 41 02 a7 2f 17 47 05 31 ad 59 60 32 c7 5c 81 32
       3.0378725e-10 1.9394457e-09 1.3058906e-08 1.5059767e-08
000140 dc a3 51 2f 33 ab 53 31 46 96 c1 31 50 e2 03 32
       1.9066654e-10 3.0801857e-09 5.6341234e-09 7.676661e-09
000150 11 12 5e 32 23 65 65 2e 11 42 e8 2f 30 fa 1e 31
       1.29262085e-08 5.21584e-11 4.2247497e-10 2.3134241e-09
000160 e5 96 50 32 00 e5 80 32 fb e7 56 2f 9e cf 55 31
       1.2141503e-08 1.5005298e-08 1.9545603e-10 3.1113596e-09
000170 c1 24 7d 31 a4 6a 1e 32 9e 5b 57 32 33 37 44 2e
       3.6837238e-09 9.221058e-09 1.2535478e-08 4.4614267e-11
000180 ea 22 37 30 01 df 0c 31 da 69 55 32 28 96 7d 32
       6.662463e-10 2.0499444e-09 1.24223e-08 1.476068e-08
000190 8e 70 57 2f d0 2e 71 31 96 fe 73 31 58 d0 04 32
       1.9594124e-10 3.5096726e-09 3.550587e-09 7.730783e-09
0001a0 5e 11 48 32 68 21 5e 2e 6a 51 83 30 92 a0 bb 30
       1.1645481e-08 5.0506627e-11 9.554644e-10 1.3651678e-09
0001b0 2b ac 58 32 2f 6c 7d 32 75 f7 58 2f 02 6d 69 31
       1.2612001e-08 1.4751136e-08 1.9733e-10 3.3967926e-09
0001c0 9c 12 5c 31 42 ea 04 32 28 0c 45 32 d1 43 83 2e
       3.2024792e-09 7.736675e-09 1.1469673e-08 5.969237e-11
0001d0 6a 0e c7 30 a9 35 5f 30 89 a4 5c 32 0e 9c 79 32
       1.4483252e-09 8.1203183e-10 1.2843096e-08 1.452919e-08
0001e0 c9 98 2a 2f 38 dd 88 31 dc b4 1f 31 51 cb c8 31
       1.551569e-10 3.9832706e-09 2.3240352e-09 5.8438805e-09
0001f0 1e af 29 32 32 65 8e 2e a8 d7 1f 31 bf 5d 8f 30
       9.876912e-09 6.475388e-11 2.3260132e-09 1.0431264e-09
000200 4f dd 26 32 9e db 5d 32 9b c9 54 2e 31 0b b2 31
       9.7127915e-09 1.2913828e-08 4.838228e-11 5.181754e-09
000210 84 36 c9 30 e0 ef da 31 bb 23 24 32 2f 68 b2 2d
       1.4640169e-09 6.3719057e-09 9.554181e-09 2.0282524e-11
000220 24 a5 da 30 26 a7 a0 30 7b a6 33 32 8f 71 5f 32
       1.5908523e-09 1.1689039e-09 1.0457025e-08 1.3006129e-08
000230 84 47 15 2e 71 01 5a 31 a2 ce e2 30 07 71 07 32
       3.3942196e-11 3.1723995e-09 1.6502393e-09 7.883734e-09
000240 7a 36 3a 32 5a ed b5 2d 4a d7 b6 30 ff 26 af 30
       1.08390115e-08 2.0682723e-11 1.3303432e-09 1.2744009e-09
000250 6e 85 48 32 69 d2 67 32 5a ed b5 2d 4a d7 b6 30
       1.1671871e-08 1.3493811e-08 2.0682723e-11 1.3303432e-09
000260 ff 26 af 30 6e 85 48 32 69 d2 67 32 ec a8 99 2f
       1.2744009e-09 1.1671871e-08 1.3493811e-08 2.7950564e-10
000270 b8 d0 51 31 29 4b 34 31 70 ce 41 37 38 c0 a3 31
       3.0532146e-09 2.623617e-09 1.1551761e-05 4.765777e-09
000280 d0 be 04 32 3b 81 4f 31 bd 85 e2 30 ec 24 18 2e
       7.726797e-09 3.0195924e-09 1.6481675e-09 3.4593592e-11
000290 9b b6 5b 31 e7 3f 10 31 fa 5c 09 33 b0 31 19 33
       3.1972494e-09 2.0991082e-09 3.198236e-08 3.566828e-08
0002a0 94 e2 1f 2e 2a 10 05 31 a2 8f 8f 31 16 d1 0b 33
       3.6353656e-11 1.9363235e-09 4.178177e-09 3.2553622e-08
0002b0 6d 8a 1b 33 4f a8 ad 2e 70 93 19 31 b3 6e 32 31
       3.6214647e-08 7.897027e-11 2.2348239e-09 2.5965334e-09
0002c0 71 f2 e9 32 f0 ec 0a 33 21 ea 28 2e ef a8 5f 31
       2.723502e-08 3.2346122e-08 3.8406726e-11 3.2546799e-09
0002d0 d6 9e da 31 74 26 f6 32 02 22 12 33 80 70 c8 2e
       6.3626926e-09 2.8655656e-08 3.4024204e-08 9.114931e-11
0002e0 03 6e 6d 31 fc d3 6c 31 0e 84 d3 32 16 13 09 33
       3.4550574e-09 3.446302e-09 2.4623684e-08 3.1915157e-08
0002f0 e8 84 0b 2e fb f1 af 31 58 31 1b 32 5f b5 c3 32
       3.1722985e-11 5.1206803e-09 9.033407e-09 2.2783466e-08
000300 af de 03 33 52 d3 c4 2e 68 04 90 32 fd 3e 95 31
       3.0703344e-08 8.950586e-11 1.676581e-08 4.3436317e-09
000310 e1 d9 3b 32 7d dd ef 32 de e8 de 2d f2 31 a8 31
       1.09343725e-08 2.7923983e-08 2.5341892e-11 4.8951216e-09
000320 eb c3 f8 31 81 f7 9e 32 21 c7 e0 32 fa 6b d6 2e
       7.2400232e-09 1.8506173e-08 2.6167585e-08 9.750774e-11
000330 bf 2b 9a 32 97 84 8c 31 cd 6b 3f 32 dc 57 d5 32
       1.7947853e-08 4.08961e-09 1.1142174e-08 2.4836417e-08
000340 32 ab 73 2e 3b 12 99 31 22 b8 05 32 9f f5 80 32
       5.5403855e-11 4.4549586e-09 7.783486e-09 1.5012857e-08
000350 7e cd b6 32 21 9e 16 2f f5 d7 ab 32 08 14 a0 31
       2.1281036e-08 1.3698599e-10 2.0005226e-08 4.65889e-09
000360 88 85 0f 32 4b 97 b9 32 24 18 45 2e 41 e9 3d 31
       8.354057e-09 2.1605635e-08 4.4814055e-11 2.763571e-09
000370 af 86 f4 31 97 d3 a1 32 b0 9a d2 32 53 31 1f 2f
       7.1166464e-09 1.8839087e-08 2.4517561e-08 1.4478489e-10
000380 be 29 b6 32 8c 4d 8b 31 6d 10 18 32 b3 46 b9 32
       2.120657e-08 4.0542485e-09 8.851299e-09 2.1568985e-08
000390 29 04 43 2e 84 c9 7c 31 db 19 96 31 5a cc b5 32
       4.434156e-11 3.6785375e-09 4.368514e-09 2.1164102e-08
0003a0 a2 ec e1 32 85 dc 11 2f 49 4f ae 32 4b 59 89 31
       2.6301056e-08 1.3266017e-10 2.029232e-08 3.997376e-09
0003b0 b1 69 3c 32 e2 20 cf 32 fa e4 27 2e 06 ca c4 31
       1.0967072e-08 2.4112925e-08 3.8174776e-11 5.727318e-09
0003c0 20 b5 84 31 bb 9e a7 32 0b 0d fa 32 4a 72 29 2f
       3.862297e-09 1.9513541e-08 2.9109762e-08 1.5411064e-10
0003d0 d6 ec 21 32 ee f4 83 32 54 42 57 32 c7 f3 e5 32
       9.425284e-09 1.5361788e-08 1.2529728e-08 2.6769966e-08
0003e0 1c 1d 23 2e ea ac cb 31 58 9c 85 31 ff 05 ee 32
       3.7087763e-11 5.9277356e-09 3.8885837e-09 2.7709573e-08
0003f0 96 ac 16 33 bd a2 2b 2f 88 80 2e 32 48 f3 62 32
       3.5081563e-08 1.5610176e-10 1.0157358e-08 1.3210247e-08

exp_avg f4 [128]
000000 81 39 59 36 74 08 7b b6 54 e4 88 36 bc 00 28 35
       3.2368991e-06 -3.7406835e-06 4.0796967e-06 6.2585946e-07
000010 23 6d 8c 35 5a e5 11 b4 14 e6 5c b6 eb dd 33 b6
       1.0462576e-06 -1.3587615e-07 -3.2916478e-06 -2.6802252e-06
000020 c1 0b df 36 60 aa 22 ad 72 75 a0 35 b9 0d 13 37
       6.647286e-06 -9.246465e-12 1.195511e-06 8.765078e-06
000030 af 96 95 b6 de f1 bd 37 b0 40 f6 b2 c2 b4 3f b7
       -4.458088e-06 2.2643184e-05 -2.8667586e-08 -1.1426573e-05
000040 83 34 f4 2e 38 6e 5d b7 7e 68 8a b6 c1 fb 88 b7
       1.1105163e-10 -1.3198289e-05 -4.124885e-06 -1.6329695e-05
000050 d4 57 6a 33 d3 69 dc b6 a9 7a f0 33 bf 6c 9e b6
       5.456225e-08 -6.5688305e-06 1.1198183e-07 -4.7214266e-06
000060 ab 53 50 b7 c2 c7 5f 36 41 a7 01 36 e0 f2 f2 b6
       -1.2417247e-05 3.3345864e-06 1.9319853e-06 -7.2404364e-06
000070 95 2e f4 b6 1f 68 ff b6 9b 38 35 35 62 5a 91 b6
       -7.2771895e-06 -7.6117135e-06 6.7510126e-07 -4.3318587e-06
000080 8f 47 aa b1 32 a2 09 b7 54 f5 e5 30 55 88 0a b2
       -4.9557864e-09 -8.2036e-06 1.6731669e-09 -8.0636555e-09
000090 d2 03 6a b7 46 fd 1e b3 4f d4 07 35 86 92 5f 2b
       -1.3948376e-05 -3.7017593e-08 5.060037e-07 7.9428857e-13
0000a0 a7 25 51 35 3c af 07 35 5d d7 4c b4 1b 75 50 b7
       7.791336e-07 5.054642e-07 -1.9077329e-07 -1.2425032e-05
0000b0 8a 50 57 37 db 8d 21 35 93 c5 55 32 18 09 fb b0
       1.2833751e-05 6.01836e-07 1.2443155e-08 -1.8265238e-09
0000c0 70 91 15 35 2a bb b1 36 82 49 32 35 91 92 b8 b6
       5.5718465e-07 5.2968e-06 6.6417135e-07 -5.50069e-06
0000d0 fd cf 85 36 59 2c db b1 f2 4f 39 b4 89 b7 cb 36
       3.987922e-06 -6.3787806e-09 -1.7258552e-07 6.0712377e-06
0000e0 1a c8 c5 35 48 ee 2a b4 d2 2a fe b6 db 65 14 b7
       1.4735881e-06 -1.591917e-07 -7.574775e-06 -8.8452025e-06
0000f0 14 a6 b7 35 db 09 64 b7 86 19 e0 30 0f ea 6b b0
       1.3682898e-06 -1.3592154e-05 1.6305399e-09 -8.582512e-10
000100 b8 72 ba b5 12 0a 9e 35 99 d6 00 37 48 bd 05 37
       -1.3891467e-06 1.1774848e-06 7.679359e-06 7.971488e-06
000110 22 da c7 b5 db 74 2f b7 c8 ac b9 af 64 c6 e1 32
       -1.489014e-06 -1.045802e-05 -3.3774072e-10 2.6283665e-08
000120 8c d0 a4 b1 e4 7b cf 37 28 e6 61 b7 49 53 1e b7
       -4.7967372e-09 2.4734014e-05 -1.34646325e-05 -9.436925e-06
000130 e3 b0 b8 35 c7 81 5d 30 42 a9 cf b5 2c 32 60 36
       1.3760549e-06 8.0583756e-10 -1.5471962e-06 3.3407805e-06
000140 8b b3 16 32 1f e4 fa 34 a4 99 72 b5 c3 c2 08 37
       8.7719725e-09 4.673211e-07 -9.03756e-07 8.151578e-06
000150 8e b8 52 31 a5 4c a1 b4 04 c7 81 32 81 35 b6 36
       3.066393e-09 -3.0044353e-07 1.5108078e-08 5.4302513e-06
000160 08 35 87 b7 91 72 3c b7 c1 cb ad 36 c5 6f d9 33
       -1.6117949e-05 -1.1232348e-05 5.179522e-06 1.0125181e-07
000170 7b b9 10 b6 15 19 22 b7 f8 07 a8 b5 8e 69 fa b5
       -2.1565636e-06 -9.661792e-06 -1.2519295e-06 -1.8657172e-06
000180 71 e4 0b b7 dd 7c 97 b2 64 27 90 33 f0 99 06 b4
       -8.338234e-06 -1.7635495e-08 6.712688e-08 -1.2535725e-07
000190 44 2d 30 2f 5f c3 e3 36 74 be 59 36 57 8e df b6
       1.6023188e-10 6.7878714e-06 3.2446378e-06 -6.6624884e-06
0001a0 bf 70 a3 36 62 35 fb b1 d7 22 37 36 09 76 bd b6
       4.870904e-06 -7.3111304e-09 2.7289404e-06 -5.64638e-06
0001b0 24 a7 11 b6 f2 19 56 36 78 7e 34 b7 47 aa 6a 36
       -2.1703972e-06 3.1903587e-06 -1.0758282e-05 3.4967832e-06
0001c0 1c b1 21 36 ce 5f 10 b1 b7 2b 7f 37 48 52 00 37
       2.409396e-06 -2.1009217e-09 1.5209363e-05 7.648552e-06
0001d0 8f 7e 2e b2 7e b3 ea 36 25 b0 42 b7 d0 f5 45 b6
       -1.0156909e-08 6.994639e-06 -1.1604313e-05 -2.949837e-06
0001e0 cf 17 56 37 e3 62 ea b7 21 aa f1 35 d5 da 11 37
       1.2760937e-05 -2.7941021e-05 1.8005413e-06 8.693624e-06
0001f0 5f 8d 0f b7 d3 25 98 b2 81 60 41 35 d2 16 62 31
       -8.55638e-06 -1.771233e-08 7.2038534e-07 3.29003e-09
