Trained_Policies/WeightAgent_Training/WeightAgent_Training/WeightAgent_Training-366499976.pt (torch, 926628 bytes, 33 tensors)

network_body._body_endoder.seq_layers.0.weight f4 [128, 163]
0.3120168 -0.11277393 -0.46408847 0.13571218 0.36462486 0.17552401 -0.022895627 -0.41320717
-0.29535446 0.10439876 0.4705331 -0.09685349 -0.41996482 0.21805836 0.6399381 -0.042239573
-0.08957193 -0.25915846 -0.73702294 0.09157803 0.5432562 -0.08767517 0.082955055 0.031543177
0.5395265 0.08421585 -0.021415923 -0.2666647 -0.09006601 -0.116425194 0.26051793 0.09836895
0.07221934 0.047539618 0.57365954 -0.22824578 0.07727157 -0.4974861 -0.18304655 -0.16861595
-0.03866348 0.0036999036 -0.00424771 0.13829999 0.32273963 -0.16073562 0.09714091 -0.12343573
0.20846744 -0.08144395 -0.045153797 0.11630857 -0.11003948 -0.01719033 0.10125444 0.049877238
0.2697928 -0.22863632 -0.18890338 -0.0025607205 -0.009878051 0.0902498 -0.1731266 -0.22829454
-0.04284645 -0.20183542 -0.09827312 -0.12613459 -0.32624117 0.05641812 -0.2793527 -0.020787485
-0.28660625 -0.26338646 -0.09655315 -0.21748956 -0.537299 -0.23052402 -0.17387493 0.035743713
-0.30194834 0.07317146 -0.2517315 0.1656191 -0.21800889 0.21210715 -0.7528085 -0.10601243
-0.1368074 0.030112438 0.089325994 0.14005396 -0.18270722 0.05918821 -0.4886201 0.3590568
-0.08296493 -0.20131059 0.019855712 0.02139304 -0.049348358 -0.09448744 -0.0979563 0.052716795
-0.28294098 0.32108024 0.031345394 -0.076118685 -0.06845496 0.009643624 -0.08806831 0.024454387
-0.013350495 -0.02424154 -0.20706593 0.28377295 -0.024854356 -0.07422091 -0.07901171 -0.01276593
-0.11263508 0.0360694 -0.21644367 0.062947884 -0.2049492 0.124199405 0.087387145 0.23145679
-0.21480694 -0.15134746 -0.28064665 -0.033495847 0.06673514 -0.16949114 -0.29463795 0.09192179
-0.0947466 0.12322073 0.09419343 -0.07643196 -0.11467113 -0.035948936 -0.009779874 0.22314882
-0.04100109 0.029685345 0.012947154 -0.037611466 -0.003428184 -0.0060777958 -0.11471111 -0.069296405
0.045499276 0.117735334 -0.027097762 -0.6281738 -0.045566384 -0.8657361 -0.0029869222 -0.047678173
0.5688833 -0.33679953 0.007665357 -0.20462166 -0.23537183 -0.62667096 -0.61371845 -0.33840725
-0.21244204 -0.014895793 -0.3548248 0.34150392 0.21669064 -0.26176375 -0.3419352 -0.6618683
0.113366716 -0.14574663 -0.25756633 0.37238568 -0.029373491 -0.26171628 0.040133882 -0.17438716
-1.1562332 -0.33857587 -0.20068797 -0.3402476 0.03157891 -0.068598785 -0.15620142 -0.2787311
-0.12935336 -0.14030822 -0.7732787 -0.023308897 -0.19914784 -0.21809171 -0.09134852 -0.4691071
-0.5146357 0.3392467 0.23397976 0.325826 -0.5282125 0.14895043 0.06063845 0.018362703
0.053769924 -0.44469953 -0.5067973 0.061583966 0.04126258 0.30210057 -0.17482854 -0.024046825
0.012684055 0.22827166 -0.06637316 0.13391632 -0.34819996 -0.23840652 0.04755567 -0.13754068
-0.19195528 0.06980385 0.095997214 0.07957448 -0.13291228 -0.079848856 -0.38787732 0.06640268
0.12400465 -0.263055 0.18866551 -0.02508542 -0.071503505 0.0017068475 -0.2888875 0.042275082
-0.09183392 -0.19078636 -0.11490142 -0.14714101 -0.29697528 -0.23823145 0.11655142 0.13773245
-0.5737969 -0.07786906 0.00034489605 -0.07317098 -0.20368819 0.048870344 -0.21000123 -0.103900954
00000000: aac0 9f3e 05f6 e6bd 019d edbe 22f8 0a3e
00000010: 1cb0 ba3e 91bc 333e 9c8f bbbc e48f d3be
00000020: b338 97be 04cf d53d b7e9 f03e 1f5b c6bd
00000030: a105 d7be b14a 5f3e fcd2 233f 6703 2dbd
00000040: 7d71 b7bd 6bb0 84be 89ad 3cbf 438d bb3d
00000050: d712 0b3f 0a8f b3bd 57e4 a93d 6b33 013d
00000060: 691e 0a3f 5c79 ac3d 7270 afbc 4788 88be
00000070: 8774 b8bd 5570 eebd 9b62 853e a975 c93d
00000080: bce7 933d e7b8 423d 5adb 123f 43b9 69be
00000090: 8f40 9e3d 80b6 febe 8e70 3bbe a9a9 2cbe
000000a0: 995d 1ebd 157a 723b 6030 8bbb 839e 0d3e
000000b0: 213e a53e e197 24be d0f1 c63d dfcb fcbd
000000c0: 7d78 553e 16cc a6bd 30f3 38bd 3033 ee3d
000000d0: 615c e1bd bcd2 8cbc 7d5e cf3d 134c 4c3d
000000e0: 4822 8a3e a41f 6abe e36f 41be c3d1 27bb
000000f0: 8cd7 21bc e3d4 b83d 1948 31be 0bc6 69be
00000100: c27f 2fbd f2ad 4ebe 6b43 c9bd 6d29 01be
00000110: 1509 a7be b016 673d 5107 8fbe 844a aabc
00000120: 0ebe 92be 97da 86be a8bd c5bd 95b5 5ebe
00000130: 6d8c 09bf 7d0e 6cbe 450c 32be 0068 123d
00000140: f998 9abe ebda 953d f3e2 80be 0e98 293e
00000150: b93d 5fbe 9e32 593e 0fb8 40bf 0b1d d9bd
00000160: 3d17 0cbe 5cae f63c 8cf0 b63d 4e6a 0f3e
00000170: 9a17 3bbe 566f 723d 6a2c fabe 4bd6 b73e
00000180: 84e9 a9bd 5d24 4ebe 72a8 a23c 7540 af3c
00000190: 8121 4abd a282 c1bd 509d c8bd 91ed 573d
000001a0: a4dd 90be a164 a43e 0764 003d 1de4 9bbd
000001b0: 1d32 8cbd 4a00 1e3c 285d b4bd 9154 c83c
000001c0: 09bc 5abc 3296 c6bc 1709 54be b04a 913e
000001d0: 5d9b cbbc 2201 98bd e4d0 a1bd 3128 51bc
000001e0: 39ad e6bd 82bd 133d 69a3 5dbe d2ea 803d
000001f0: 34de 51be 425c fe3d 08f8 b23d 0203 6d3e
00000200: 5af6 5bbe d4fa 1abe ebb0 8fbe f132 09bd
00000210: 6fac 883d 168f 2dbe c9da 96be 7e41 bc3d
00000220: 810a c2bd 265b fc3d 7ce8 c03d 5c88 9cbd
00000230: b3d8 eabd 313f 13bd c43b 20bc 2081 643e
00000240: c2f0 27bd ae2e f33c 4d20 543c 7b0e 1abd
00000250: 62ab 60bb 3f28 c7bb a9ed eabd 46eb 8dbd
00000260: 735d 3a3d 391f f13d 20fc ddbc 00d0 20bf
00000270: d1a3 3abd e2a0 5dbf 3dc0 43bb 304a 43bd
00000280: 56a2 113f fd70 acbe ad2d fb3b 5788 51be
00000290: 5005 71be 826d 20bf a71c 1dbf b743 adbe
000002a0: 688a 59be 7c0d 74bc 99ab b5be 9ad9 ae3e
000002b0: 27e4 5d3e e605 86be 2112 afbe 3370 29bf
000002c0: cf2c e83d 9b3e 15be bcdf 83be 56a9 be3e
000002d0: ada0 f0bc adff 85be 6d63 243d 8c92 32be
000002e0: 73ff 93bf d159 adbe 2681 4dbe ef34 aebe
000002f0: e358 013d 857d 8cbd 44f3 1fbe d8b5 8ebe
00000300: 3575 04be f5ac 0fbe 98f5 45bf 4df2 bebc
00000310: 69ed 4bbe 6f53 5fbe ef14 bbbd ce2e f0be
00000320: 2abf 03bf beb1 ad3e 6498 6f3e aad2 a63e
00000330: ef38 07bf 7686 183e 0660 783d 616d 963c
00000340: da3d 5c3d a8af e3be 78bd 01bf 783f 7c3d
00000350: f302 293d edac 9a3e 4106 33be d9fd c4bc
00000360: c8d0 4f3c 0cc0 693e a7ee 87bd 5c21 093e
00000370: 4447 b2be d720 74be bcc9 423d 77d7 0cbe
00000380: ed8f 44be 52f5 8e3d 309a c43d f2f7 a23d
00000390: 281a 08be cc87 a3bd db97 c6be 21fe 873d
000003a0: 26f6 fd3d 25af 86be 8831 413e f07f cdbc
000003b0: 6e70 92bd 4cb8 df3a 10e9 93be a328 2d3d
000003c0: 6c13 bcbd 805d 43be 7051 ebbd 22ac 16be
000003d0: 250d 98be f2f2 73be 83b2 ee3d bc09 0d3e
000003e0: 5be4 12bf d079 9fbd 2ad3 b439 abda 95bd
000003f0: a393 50be 452c 483d 900a 57be 06ca d4bd

network_body._body_endoder.seq_layers.0.bias f4 [128]
-0.11014122 -0.17505942 -0.17120397 -0.12892596 -0.07497827 -0.3426288 -0.10917458 -0.054393586
0.2653274 -0.11199281 0.16893251 0.17999966 0.043538667 -0.12187185 -0.21678154 -0.324513
0.32060388 -0.16251527 -0.20519665 0.21863449 0.008760295 0.0431889 -0.17331931 0.0061252974
0.07314899 -0.008028558 0.051629733 0.1963883 -0.17866161 0.10581041 -0.16521563 0.142947
-0.6939388 -0.010962407 -0.47971386 -0.012008921 -0.2533645 -0.061988145 -0.44711867 -0.121425994
0.21105944 0.12709607 0.2198496 -0.06266813 -0.13080359 -0.013270169 0.32486734 -0.35805044
0.23072423 0.0033946421 0.19172087 -0.158213 0.21500376 0.36241803 -0.0696261 -0.30516347
0.0543679 0.09352475 -0.15929659 0.2843431 -0.13582477 -0.26383746 -0.0045529185 0.13764982
0.011520251 -0.029999593 0.14078209 0.27193412 0.16545624 0.20647037 0.18495254 0.2640933
-0.22557138 0.036281496 -0.10747557 0.1478809 -0.07555287 0.12128646 -0.41223705 0.2907476
-0.059388343 -0.11519073 -0.37700275 0.044413324 -0.17037101 -0.008471992 0.25654078 -0.17053059
-0.050344244 0.07406274 -0.20824397 -0.6343352 -0.102438666 0.22059757 0.15435678 -0.091740765
0.35420534 0.31996295 0.20960423 -0.33663225 0.10394527 0.08594262 0.04630164 0.17250235
0.18588166 -0.12962061 0.17007586 0.046136197 0.08145206 0.17232892 0.25302842 0.2951841
0.3006674 0.2518917 0.062248234 -0.046774663 -0.21562856 0.017976856 0.17263484 -0.087989405
-0.4201783 0.02427398 0.2449607 0.17991672 0.14121804 0.39766544 -0.19594386 -0.21861692
00000000: b891 e1bd c742 33be 1850 2fbe 2b05 04be
00000010: 358e 99bd 0b6d afbe ec96 dfbd cfcb 5ebd
00000020: fed8 873e 7d5c e5bd a5fc 2c3e d551 383e
00000030: 9a55 323d f397 f9bd fbfb 5dbe 9126 a6be
00000040: 3126 a43e 676a 26be 121f 52be b8e1 5f3e
00000050: 5787 0f3c d8e6 303d 9e7a 31be b8b6 c83b
00000060: 23cf 953d 378a 03bc b379 533d 041a 493e
00000070: 12f3 36be 21b3 d83d 492e 29be b360 123e
00000080: f9a5 31bf ab9b 33bc 0e9d f5be 11c1 44bc
00000090: feb8 81be 48e7 7dbd bdec e4be 31ae f8bd
000000a0: f71f 583e 7925 023e 4120 613e 2658 80bd
000000b0: 60f1 05be 1f6b 59bc 0355 a63e 6352 b7be
000000c0: f942 6c3e a578 5e3b 7a52 443e 9702 22be
000000d0: f229 5c3e db8e b93e 2198 8ebd 633e 9cbe
000000e0: e0b0 5e3d e789 bf3d a51e 23be 6b95 913e
000000f0: a615 0bbe b415 87be a630 95bb 13f4 0c3e
00000100: 6fbf 3c3c b5c1 f5bc 2e29 103e f33a 8b3e
00000110: 5c6d 293e f86c 533e 3364 3d3e 3d37 873e
00000120: 2ffc 66be e89b 143d 271c dcbd 176e 173e
00000130: 77bb 9abd 0965 f83d bc10 d3be dfdc 943e
00000140: 3141 73bd 1ee9 ebbd 8106 c1be bfea 353d
00000150: bd75 2ebe 1cce 0abc 5059 833e 929f 2ebe
00000160: c435 4ebd 35ae 973d e83d 55be cb63 22bf
00000170: 5dcb d1bd 54e4 613e b40f 1e3e 95e2 bbbd
00000180: 675a b53e 2fd2 a33e 7ea2 563e 105b acbe
00000190: 42e1 d43d af02 b03d caa6 3d3d 75a4 303e
000001a0: c357 3e3e 44bb 04be 5e28 2e3e 4ff9 3c3d
000001b0: 56d0 a63d fe76 303e f18c 813e 5f22 973e
000001c0: 14f1 993e f3f7 803e 01f8 7e3d ca96 3fbd
000001d0: bccd 5cbe 3344 933c 30c7 303e ca33 b4bd
000001e0: 9c21 d7be 3ada c63c fad6 7a3e 173c 383e
000001f0: 769b 103e ce9a cb3e 82a5 48be 1ddd 5fbe

network_body._body_endoder.seq_layers.2.weight f4 [128, 128]
0.44417584 -0.30579543 0.083516635 -0.64417166 0.4612509 -0.28533575 -0.32037947 -0.065387756
-0.040143922 -0.06342261 0.4619451 0.3624223 0.09119868 0.007291341 0.11131196 0.13937093
0.46717048 0.1851483 -0.23086521 0.29506925 -0.13650633 -0.48008725 -0.25192165 0.08130223
-0.30627242 -0.23597957 0.40518513 0.3077402 -0.43421403 -0.11114472 -0.06027726 -0.014720253
-0.41422856 -0.16043484 -0.16711608 0.13365123 0.13927855 -0.08817272 0.24415301 0.13743348
0.5700984 -0.020232351 -0.3975833 -0.011757984 -0.6269261 0.05139335 -0.18721093 -0.23448321
-0.55360985 0.072982416 -0.37100753 -0.21154462 -0.06995066 -0.16787936 0.083851635 -0.4108432
-0.40465403 0.028510436 -0.36653057 -0.022062132 -0.24274163 0.122710615 0.2553933 -0.11002455
0.26738894 0.1013338 -0.45650533 -0.026710879 -0.36805534 -0.6207396 -0.078749605 -0.59771967
-0.65304554 -0.05743539 -0.2391122 0.29925507 -0.11930775 -0.08186305 0.24512833 -0.29660127
-0.42061934 -0.30164042 -0.15159477 0.12458134 -0.2965723 -0.07171445 -0.12436602 0.104120836
0.03744868 0.07313263 -0.1084132 -0.09507673 -0.662957 0.01035701 -0.087248385 -0.20260294
0.29256564 -0.26277587 -0.11862748 -0.39520997 -0.5023873 0.33369035 -0.6694439 0.016620073
0.37265444 0.20511167 -0.33955532 -0.23215206 -0.27333248 0.3828265 0.4033979 0.21107239
0.638497 0.63031083 -0.44727823 -0.40689152 -0.41081348 0.17385022 -0.21798155 -0.19378787
-0.4263454 -0.025986874 -0.0958967 -0.010497323 -0.1905139 -0.44239962 0.18917854 0.06597123
-0.32488662 -0.0071708527 0.26054958 -0.079479225 0.03935496 -0.013036084 0.09578844 0.23694935
0.012744729 -0.18358305 -0.37229916 -0.32742152 0.12025819 -0.14221883 0.2495286 -0.04781872
-0.4544926 0.22336954 0.24481407 0.073579565 -0.010243515 0.20296204 0.23023944 0.32368833
0.25696203 0.066556364 0.1857671 -0.014604181 -0.09279876 -0.020359473 0.047675524 0.03322341
0.03905497 0.10783612 0.40934289 0.07530921 0.12667148 0.1649448 0.17433622 -0.15497361
0.12123131 0.36871424 -0.22944036 0.002075219 -0.07824934 -0.13181184 -0.045502204 0.017216932
-0.5975522 0.14377683 -0.025441313 -0.30659145 -0.015883893 -0.08040018 -0.06672195 0.05167974
-0.24776506 0.25424632 -0.08682169 -0.35021397 -0.109241076 -0.0767778 -0.024988143 -0.2642323
0.10362476 0.009733353 -0.18793313 -0.039541863 0.23816696 -0.6399726 0.16334963 -0.48119855
-0.41453907 -0.24018446 0.30306292 -0.5282081 0.07591727 -0.1722061 0.3166547 -0.22079839
0.16562824 -0.39749578 0.19457372 -0.69209796 -0.16480437 0.22706611 0.074221216 0.12568979
-0.03722049 -0.14406368 0.43494308 0.32062832 -0.0047364035 0.0906718 -0.1040158 0.1566357
0.27543464 -0.009657862 -0.27901232 -0.44713286 0.07429672 -0.18913229 -0.11189831 -0.05933767
0.8363082 0.11398889 0.12096369 0.14837271 -0.10935797 0.3343893 0.4610523 -0.23120932
1.2325051 -0.61075515 0.0666166 -0.15074539 -0.052688897 0.20929721 -0.47967938 0.058287375
-0.09097694 0.07093462 0.311078 -0.27023062 0.03584561 -0.04946038 -0.0783145 0.48455197
00000000: 046b e33e 3891 9cbe c50a ab3d 6fe8 24bf
00000010: 1429 ec3e 8717 92be c708 a4be 04ea 85bd
00000020: f46d 24bd b7e3 81bd 1184 ec3e 6a8f b93e
00000030: 60c6 ba3d 34ec ee3b 86f7 e33d 41b7 0e3e
00000040: f830 ef3e 8497 3d3e ee67 6cbe 5113 973e
00000050: 51c8 0bbe ffcd f5be e0fb 80be c981 a63d
00000060: bdcf 9cbe a1a4 71be 6d74 cf3e 2090 9d3e
00000070: 4d51 debe d89f e3bd 4ae5 76bd 372d 71bc
00000080: c415 d4be 0849 24be 7a20 2bbe dedb 083e
00000090: 099f 0e3e e693 b4bd 3f03 7a3e 5dbb 0c3e
000000a0: f8f1 113f 51be a5bc 0a90 cbbe 8fa4 40bc
000000b0: 3b7e 20bf d581 523d 39b4 3fbe 5e1c 70be
000000c0: 60b9 0dbf ce77 953d b3f4 bdbe 279f 58be
000000d0: 4b42 8fbd 91e8 2bbe 68ba ab3d 0a5a d2be
000000e0: d02e cfbe b88e e93c e5a9 bbbe a5bb b4bc
000000f0: 4391 78be b44f fb3d e9c2 823e 8d54 e1bd
00000100: 34e7 883e 1888 cf3d 11bb e9be c6d0 dabc
00000110: c071 bcbe cae8 1ebf 7947 a1bd 2804 19bf
00000120: fe2d 27bf 5f41 6bbd d4d9 74be f637 993e
00000130: 9f57 f4bd d1a7 a7bd ec02 7b3e 1fdc 97be
00000140: 6b5b d7be 9d70 9abe a93b 1bbe 8024 ff3d
00000150: 53d8 97be 07df 92bd 9db3 febd 4e3d d53d
00000160: c963 193d 8fc6 953d bd07 debd 97b7 c2bd
00000170: 8db7 29bf 73b0 293c 48af b2bd 2577 4fbe
00000180: 2acb 953e 8f8a 86be f7f2 f2bd f658 cabe
00000190: 749c 00bf 76d9 aa3e ad60 2bbf d226 883c
000001a0: 90cc be3e cb08 523e 32da adbe 45b9 6dbe
000001b0: 3cf2 8bbe d601 c43e 2b8a ce3e 5c23 583e
000001c0: 8a74 233f 0d5c 213f a701 e5be 1654 d0be
000001d0: 2556 d2be cb05 323e 8e36 5fbe 5470 46be
000001e0: f249 dabe 6de2 d4bc 7d65 c4bd f7fc 2bbc
000001f0: 1316 43be 3482 e2be 05b8 413e ed1b 873d
00000200: 8a57 a6be 79f9 eabb c166 853e 01c6 a2bd
00000210: ab32 213d 4d95 55bc bb2c c43d daa2 723e
00000220: 45cf 503c 32fd 3bbe ff9d bebe cba3 a7be
00000230: ed49 f63d d0a1 11be 6d84 7f3e 90dd 43bd
00000240: 41b3 e8be fcba 643e 8ab0 7a3e e2b0 963d
00000250: 6ad4 27bc 48d5 4f3e e3c3 6b3e 7aba a53e
00000260: 8790 833e b44e 883d bb39 3e3e 6046 6fbc
00000270: 470d bebd e9c8 a6bc 6947 433d 4515 083d
00000280: 1bf8 1f3d 2fd9 dc3d 6495 d13e b73b 9a3d
00000290: 2bb6 013e 4ae7 283e 3285 323e 67b1 1ebe
000002a0: 1f48 f83d 1dc8 bc3e 6af2 6abe 6600 083b
000002b0: 3141 a0bd aff9 06be 8560 3abd 860a 8d3c
000002c0: 2ef9 18bf 3c3a 133e 4d6a d0bc 8ef9 9cbe
000002d0: f01e 82bc d9a8 a4bd 85a5 88bd 23ae 533d
000002e0: 20b6 7dbe 932c 823e 92cf b1bd 3f4f b3be
000002f0: c9b9 dfbd ae3d 9dbd efb3 ccbc 7549 87be
00000300: 3839 d43d a478 1f3c 8b71 40be a6f6 21bd
00000310: 0ae2 733e 3fd5 23bf 2045 273e a85f f6be
00000320: 773e d4be eaf2 75be 102b 9b3e a538 07bf
00000330: 837a 9b3d cc56 30be 9120 a23e f918 62be
00000340: 739a 293e 9184 cbbe 553e 473e 552d 31bf
00000350: 7ac2 28be 0584 683e 4b01 983d d3b4 003e
00000360: 8374 18bd 6e85 13be dcb0 de3e 6529 a43e
00000370: d533 9bbb 23b2 b93d 3c06 d5bd 1c65 203e
00000380: c505 8d3e 023c 1ebc b4da 8ebe 99ee e4be
00000390: e128 983d e5ab 41be f12a e5bd 0f0c 73bd
000003a0: 4b18 563f 0273 e93d d0bb f73d 04ef 173e
000003b0: 12f7 dfbd 1335 ab3e 0c0f ec3e 23c2 6cbe
000003c0: bac2 9d3f 735a 1cbf 496e 883d 005d 1abe
000003d0: 50d0 57bd 0252 563e 8998 f5be bebe 6e3d
000003e0: 1e52 babd 2c46 913d 9e45 9f3e ab5b 8abe
000003f0: d9d2 123d f896 4abd 5a63 a0bd 3217 f83e

network_body._body_endoder.seq_layers.2.bias f4 [128]
0.07010904 -0.077447385 -0.16138738 -0.38512173 -0.12100267 0.0067133475 -0.03983277 0.38525572
0.0072090644 0.0005965881 0.23038302 0.14731918 0.09448946 -0.10223237 -0.06664292 -0.17754163
-0.08520225 0.13005766 0.1108079 0.17204566 0.30446202 -0.1393968 -0.11435736 0.14256307
0.007599785 -0.12640053 0.16349098 0.038789835 0.22132528 0.40973306 -0.10500453 -0.06846697
0.038858727 0.38711134 0.15592664 0.1881845 0.13846894 0.10410511 0.030960293 0.07791179
-0.09814588 0.23148444 -0.13112782 0.03967533 -0.17559433 0.44289282 0.13319239 -0.43716043
-0.032797333 -0.42856473 -0.0040591527 0.18605572 0.08023265 0.71081054 0.06478452 -0.24201849
-0.120273225 0.07477912 0.10599308 0.053586233 -0.05193873 -0.1533264 0.3362682 0.13058683
-0.023236752 0.41466242 -0.3745294 -0.0925059 0.23258315 0.32695568 0.19476305 -0.30191463
0.022799341 0.1283146 -0.17089455 0.029056298 -0.017673446 0.27501968 0.043426745 -0.27054602
-0.10941155 0.042918246 0.21409981 -0.15825772 0.07648368 0.06281956 0.29582012 0.0029036955
0.063741475 0.2157833 0.10410959 0.07291877 -0.2662074 0.44746655 -0.025226748 0.18373853
0.08336817 0.106321655 0.04734791 0.1276872 0.045686886 0.32398286 0.21753825 0.16163036
0.54322463 0.3307822 -0.18561672 0.03439557 0.048391357 0.1077374 -0.06921517 0.13790926
0.26381278 0.17494437 0.3077844 -0.14004642 -0.11979156 -0.06767577 0.07333617 -0.50453
0.18633157 0.040931106 -0.053701837 0.13088658 0.027006052 0.14656277 0.033305135 0.10883056
00000000: 5495 8f3d bc9c 9ebd bc42 25be ad2e c5be
00000010: 3fd0 f7bd a4fb db3b b027 23bd 3d40 c53e
00000020: 043a ec3b 5a64 1c3a 87e9 6b3e d7da 163e
00000030: b183 c13d 345f d1bd 157c 88bd 79cd 35be
00000040: 847e aebd d62d 053e 41ef e23d bd2c 303e
00000050: 72e2 9b3e 09be 0ebe 3134 eabd 0efc 113e
00000060: 9e07 f93b 246f 01be 2e6a 273e 17e2 1e3d
00000070: 18a3 623e 88c8 d13e 9d0c d7bd 6938 8cbd
00000080: 542a 1f3d 7533 c63e 3cab 1f3e 70b3 403e
00000090: cdca 0d3e 0f35 d53d 71a0 fd3c 3790 9f3d
000000a0: b500 c9bd 420a 6d3e 5f46 06be 9982 223d
000000b0: 00cf 33be d9c2 e23e 9663 083e 7ed3 dfbe
000000c0: 7f56 06bd d66c dbbe a402 85bb 6485 3e3e
000000d0: 0451 a43d aef7 353f bfad 843d b2d3 77be
000000e0: cf51 f6bd cc25 993d e612 d93d 3d7d 5b3d
000000f0: b5bd 54bd 9901 1dbe 582b ac3e 8eb8 053e
00000100: 005b bebc a24e d43e 51c2 bfbe bc73 bdbd
00000110: 472a 6e3e bc66 a73e f76f 473e 8e94 9abe
00000120: afc5 ba3c e764 033e fbfe 2ebe 7907 ee3c
00000130: e7c7 90bc 61cf 8c3e 3ee0 313d 0285 8abe
00000140: 2a13 e0bd 0bcb 2f3d fb3c 5b3e 500e 22be
00000150: 7aa3 9c3d 8ba7 803d bc75 973e ed4b 3e3b
00000160: e48a 823d 4cf6 5c3e 6937 d53d 7056 953d
00000170: 564c 88be 561a e53e 53a8 cebc f425 3c3e
00000180: eebc aa3d 2bbf d93d e2ef 413d 6fc0 023e
00000190: 2c22 3b3d 15e1 a53e 59c2 5e3e 6e82 253e
000001a0: c510 0b3f 495c a93e 4f12 3ebe 5fe2 0c3d
000001b0: 0436 463d 6da5 dc3d afc0 8dbd 1638 0d3e
000001c0: 7812 873e 9e24 333e eb95 9d3e 5468 0fbe
000001d0: 4755 f5bd 9899 8abd 4631 963d e128 01bf
000001e0: b4cd 3e3e 60a7 273d 75f6 5bbd 2207 063e
000001f0: cc3b dd3c 8d14 163e f76a 083d 8fe2 de3d

action_model._discrete_distribution.branches.0.weight f4 [7, 128]
0.1867524 0.0018379841 0.013405201 -0.23537925 -0.0001499613 0.1940315 0.1186694 0.24575087
0.084007725 0.24147972 0.29336777 0.31661677 0.14452597 0.28199765 -0.28418207 0.21593462
-0.55616206 -0.0072973557 0.191891 0.3418782 0.226435 0.24513727 0.009652284 -0.25484934
0.1504013 0.02896519 0.22378309 0.27221757 0.33878687 0.13408674 0.12034878 -0.06232677
0.18029064 0.06689601 0.19570434 0.11769103 0.30571228 0.35043034 -0.19127655 -0.05236357
-0.09963456 0.050024435 0.18767376 0.14864434 -0.052605946 0.3037714 0.3902925 0.17538339
0.17061718 0.049393944 0.21855398 0.34468672 0.1241952 0.12856007 0.2908511 0.30039024
0.21915443 0.3080854 0.41926455 0.2031592 0.13413756 0.12669122 0.2543204 0.38774893
0.28620657 0.3252479 -0.043125447 0.12819517 -0.07566682 0.17735264 0.111465774 0.14097577
0.20014589 0.17323911 0.20842618 -0.090693094 0.084347524 0.088939846 0.038103413 -0.17695798
0.27942774 0.031097349 -0.1312427 0.39610988 0.15259331 -0.09949214 0.31138128 0.279622
0.0362874 0.21951418 0.216132 -0.05847308 0.3786654 0.06054933 0.44312346 0.16937378
0.38650888 0.32764256 0.050004415 0.004539949 0.09372525 0.33255383 0.1778536 0.31728148
0.14089507 0.17663057 0.22361524 0.12925036 0.32645556 0.27714235 0.19164729 0.064160675
0.13416886 0.03858362 0.2788708 -0.040844638 0.20053078 0.40680307 0.18556304 0.30018026
0.20028722 0.32280716 0.08986124 0.32448488 0.13234687 0.23326443 -0.24080734 0.061590802
-0.08461042 -0.12947287 -0.12440377 -0.38319784 0.12758602 -0.029130898 -0.123871885 0.08198241
0.36025438 0.72171974 0.6235031 0.0015712717 0.3659955 0.23555867 -0.20564742 0.43368334
0.12930027 -0.34094068 -0.3332194 0.0041522435 -0.03145041 0.035135698 -0.55341333 -0.35349816
0.030031644 -0.21193229 0.3378437 0.29350588 0.102375545 0.27060887 -0.5095643 -0.02608419
0.16448201 0.3639155 0.19077824 -0.41303375 0.2988298 -0.22273286 0.091170296 0.2516693
0.027266998 0.42165804 -0.029486144 -0.4070102 -0.21775402 0.18588175 0.3568183 0.34630463
0.13396113 0.27137724 0.5350156 -0.3264575 0.26912838 0.1159285 0.042928033 0.32735273
0.14286704 -0.022185776 -0.013199373 0.09293568 0.09397776 -0.44852933 -0.35541472 0.012498482
-0.14942649 -0.60142815 -0.30315274 0.34829134 0.4887628 0.43627828 -0.41887182 0.17926984
-0.043602336 -0.036219172 0.4527465 0.21402352 0.36364678 0.11512903 -0.6166638 0.13758409
-0.14565006 0.06786825 0.32858634 0.14063992 0.587025 -0.15894684 -0.23919232 0.088457435
0.4587507 0.044936582 0.009853934 -0.28482592 -0.12916218 0.26055327 0.08598813 0.48906615
-0.1559124 -0.3994009 0.0016649436 0.18776658 0.26833272 -0.44484013 0.4970128 -0.19338877
0.09998736 0.30848438 0.04242742 0.5142749 0.0004318041 -0.56353414 0.3392916 -0.6765975
0.049469363 0.33991146 0.23129377 0.2939609 -0.009993481 -0.2662161 -0.44551513 -0.24658187
0.20433131 -0.051236086 0.25211665 0.36552253 0.23560381 0.25326702 0.1599598 0.35135692
00000000: 053c 3f3e 83e8 f03a 7da1 5b3c 4207 71be
00000010: ee3e 1db9 32b0 463e f108 f33d 1ea6 7b3e
00000020: 3e0c ac3d 7646 773e 4d34 963e 981b a23e
00000030: 9efe 133e ff61 903e 5080 91be f71d 5d3e
00000040: a360 0ebf a81e efbb 137f 443e a90a af3e
00000050: 94de 673e 4405 7b3e 9d24 1e3c 9d7b 82be
00000060: cc02 1a3e 6848 ed3c 6527 653e 1a60 8b3e
00000070: 7975 ad3e 094e 093e 6c79 f63d 5b4a 7fbd
00000080: 1c9e 383e c600 893d b866 483e ff07 f13d
00000090: 5286 9c3e 9b6b b33e 00de 43be 2f7b 56bd
000000a0: 340d ccbd 6ce6 4c3d 8d2d 403e 3936 183e
000000b0: 5579 57bd ed87 9b3e 6bd4 c73e b497 333e
000000c0: 45b6 2e3e 4e51 4a3d 9dcc 5f3e c77a b03e
000000d0: 0e5a fe3d 40a5 033e 6fea 943e c0cc 993e
000000e0: 056a 603e 5fbd 9d3e d8a9 d63e f708 503e
000000f0: 5b5b 093e 58bb 013e 4936 823e 0787 c63e
00000100: ab89 923e e586 a63e 4fa4 30bd 9845 033e
00000110: 35f7 9abd ee9b 353e 2b48 e43d f45b 103e
00000120: 0bf3 4c3e 9865 313e ac6d 553e 4dbd b9bd
00000130: 65be ac3d 1826 b63d 5312 1c3d 7934 35be
00000140: 2711 8f3e debf fe3c 7d64 06be eace ca3e
00000150: 6c41 1c3e 89c2 cbbd 5e6d 9f3e 9d2a 8f3e
00000160: 19a2 143d 53c8 603e b551 5d3e 7881 6fbd
00000170: 6ee0 c13e 9302 783d 14e1 e23e 5270 2d3e
00000180: 7ee4 c53e c4c0 a73e 6ed1 4c3d dac3 943b
00000190: 06f3 bf3d 7f44 aa3e 411f 363e b872 a23e
000001a0: cc46 103e a5de 343e 65fb 643e 355a 043e
000001b0: 2f25 a73e 9ae5 8d3e 303f 443e ac66 833d
000001c0: 9063 093e dc09 1e3d 27c8 8e3e b54c 27bd
000001d0: f157 4d3e 7e48 d03e 3d04 3e3e 3ab1 993e
000001e0: 1818 4d3e fb46 a53e 2b09 b83d e222 a63e
000001f0: f085 073e dfdc 6e3e 3396 76be a346 7c3d
00000200: 3a48 adbd 8994 04be 67c7 febd 8232 c4be
00000210: e9a5 023e eca3 eebc 8bb0 fdbd 65e6 a73d
00000220: 4373 b83e a0c2 383f e69d 1f3f 21f3 cd3a
00000230: c363 bb3e 4b36 713e 3d95 52be be0b de3e
00000240: 4a67 043e c78f aebe bc9b aabe 8b0f 883b
00000250: 25d2 00bd 73ea 0f3d 7fac 0dbf b6fd b4be
00000260: ec04 f63c c704 59be d9f9 ac3e 6746 963e
00000270: 45aa d13d 3f8d 8a3e ce72 02bf 83ae d5bc
00000280: f96d 283e 2253 ba3e 5f5b 433e 2979 d3be
00000290: 3800 993e 1514 64be 7eb7 ba3d ccda 803e
000002a0: 0a5f df3c 90e3 d73e ed8c f1bc a463 d0be
000002b0: e9fa 5ebe c957 3e3e e3b0 b63e d74e b13e
000002c0: 1b2d 093e f5f1 8a3e c8f6 083f 7025 a7be
000002d0: 32cb 893e ec6b ed3d 4ed5 2f3d c79a a73e
000002e0: bd4b 123e f2be b5bc 2f42 58bc 1055 be3d
000002f0: 6977 c03d a3a5 e5be ebf8 b5be 6fc6 4c3c
00000300: 4203 19be 32f7 19bf d636 9bbe 3e53 b23e
00000310: 1e3f fa3e de5f df3e 5e76 d6be 8392 373e
00000320: 5d98 32bd 8e5a 14bd 64ce e73e fb28 5b3e
00000330: e92f ba3e c5c8 eb3d aedd 1dbf d8e2 0c3e
00000340: 4a25 15be 82fe 8a3d 783c a83e e903 103e
00000350: 4547 163f f6c2 22be d5ee 74be 2c29 b53d
00000360: 5fe1 ea3e 6c0f 383d 6572 213c b4d4 91be
00000370: 1743 04be 3d67 853e 8b1a b03d e166 fa3e
00000380: 80a7 1fbe 467e ccbe 3d3a da3a e245 403e
00000390: e862 893e 16c2 e3be 7678 fe3e b507 46be
000003a0: 2cc6 cc3d aaf1 9d3e 60c8 2d3d 85a7 033f
000003b0: c463 e239 c643 10bf a1b7 ad3e 7e35 2dbf
000003c0: 63a0 4a3d e008 ae3e 46d8 6c3e 0b82 963e
000003d0: b3bb 23bc 7a4d 88be 8f1a e4be f57f 7cbe
000003e0: 3a3c 513e eedc 51bd 6f15 813e c525 bb3e
000003f0: 2042 713e 37ac 813e 80cc 233e 0ee5 b33e

action_model._discrete_distribution.branches.0.bias f4 [7]
-0.19102897 0.18295364 0.057395235 -0.88506484 -0.85057193 0.4089488 0.40545538
00000000: 199d 43be 3358 3b3e 4417 6b3d 9c93 62bf
00000010: 15bf 59bf bd61 d13e d997 cf3e

exp_avg f4 [128, 163]
1.28429245e-17 -0.00020806935 1.6358576e-06 -2.1136424e-05 -0.00014788432 1.2409714e-17 -5.9640162e-05 -6.8334324e-05
-4.5846384e-05 -0.00017947936 1.28445946e-17 -9.750459e-05 -1.5465106e-05 9.290799e-05 -0.00011056362 6e-45
1.3764853e-05 -4.534159e-05 1.6833239e-05 -0.00013683613 4.3224388e-15 -7.275958e-12 -1.5137331e-05 -0.00017043322
-0.00019905785 6e-45 -4.875969e-05 1.2629887e-05 3.529224e-05 -8.852759e-05 5.981294e-15 1.5268408e-05
-2.4302106e-05 -0.00015235563 -0.00015843629 6e-45 -7.702736e-06 5.068904e-06 1.2003846e-05 -7.365236e-05
6.052584e-15 -0.000106344574 0.0001108372 -0.00018170512 -0.00010059761 6e-45 -5.8152844e-05 -1.513617e-05
-0.000103285136 -0.00016676335 6.052584e-15 8.5773754e-05 8.625856e-05 -0.00016293878 -9.8619545e-05 6e-45
-6.429621e-05 3.5928308e-05 2.9948911e-05 -9.671136e-05 6.0401725e-15 -9.479685e-06 -0.00016140919 0.00024371853
2.7625065e-06 6e-45 9.482543e-05 -1.3369019e-05 6.908304e-05 -4.0740953e-05 6.039739e-15 -4.6806454e-05
-7.449696e-05 6.966668e-05 -0.00013424791 6e-45 0.00015415884 -2.4799987e-05 -3.5827907e-06 -0.00018810871
6.039739e-15 -3.907587e-05 -0.00012578425 2.7837545e-05 -6.390618e-05 -6e-45 0.00012746821 1.7301038e-05
6.09518e-05 8.622682e-05 1.7301453e-15 9.392495e-05 -0.00013933885 -0.00017382822 -0.0002743816 -6e-45
1.1139644e-05 -7.026995e-05 0.00013628817 0.000112240356 2.950843e-22 3.9692313e-06 -0.00012807676 -0.00010372825
-0.0002008244 6e-45 -4.2802345e-05 -7.776533e-05 6.391837e-05 -5.1578514e-05 3.0104583e-22 6.336186e-05
-0.00017578987 -0.0001352291 -0.00023200993 6e-45 8.2886996e-05 -0.00013762356 0.000105355306 -3.3484175e-05
2.980281e-24 -4.0565476e-05 -0.0001349668 -0.00029115038 -0.00020583143 6e-45 6.640643e-05 -0.00010370762
8.398298e-05 -7.554407e-05 2.980281e-24 3.0339233e-05 -0.00017692396 0.00018021543 0.00016251745 6e-45
-1.8894254e-05 -4.528938e-05 -0.000115855786 -0.00013528726 -5.1115315e-24 6.996481e-05 -0.0001138592 0.00019055587
5.2155476e-05 6e-45 1.2062533e-05 -8.621221e-05 0.000100308396 -7.011231e-05 6e-45 1.2062533e-05
-8.621221e-05 0.000100308396 -7.0112284e-05 -5.8897207e-05 0.00029680855 -6.657281e-05 -0.015465094 -0.00012396178
-9.450729e-05 -7.838173e-06 -5.9721933e-05 2.3287675e-17 -7.761946e-06 5.719524e-06 -4.9518726e-06 6.272865e-05
2.0361797e-17 -9.159601e-06 1.1625516e-05 3.6102414e-05 8.2512954e-05 2.33016e-17 -3.34349e-06 -1.91476e-06
-1.3084423e-05 8.40689e-05 -6e-45 -2.8330172e-05 1.1664488e-05 0.00015010448 0.00017581633 2.33016e-17
2.8371178e-05 3.975319e-06 2.4872079e-05 0.00012602683 -6e-45 -4.378032e-05 1.4437752e-05 3.9295097e-05
0.00014338057 2.33016e-17 2.8831544e-05 3.089104e-05 0.000103462065 0.000157849 -6e-45 3.678225e-05
1.2899898e-05 -2.8463674e-05 0.00013878736 2.3301613e-17 1.00958105e-05 -5.6526005e-06 4.966319e-05 0.0001184327
-6e-45 4.648156e-05 3.9601306e-05 0.000100075864 0.00019232006 2.3301613e-17 6.2412786e-05 2.5822961e-05
-7.4107547e-06 0.00013980627 -6e-45 6.0469974e-05 5.903733e-05 6.3162996e-05 0.00016717412 2.9398154e-18
1.4965755e-05 2.0962852e-05 4.9467853e-05 0.00016784063 -6e-45 5.2802316e-05 3.5417877e-05 2.9144438e-05
0.00010736513 1.030427e-23 -4.3486576e-05 7.085718e-05 4.38101e-05 0.00021133693 -6e-45 0.00016689874
5.9777463e-05 -1.3325942e-05 9.6431395e-05 1.0300992e-23 -1.6161666e-05 5.3780546e-05 8.0318285e-05 0.00019641405
-6e-45 0.000101661404 2.8030592e-05 0.00011778407 0.00018036758 1.0276002e-23 3.1612413e-05 4.0944884e-05
00000000: ffe8 6c23 312d 5ab9 a48f db35 204e b1b7
00000010: 6511 1bb9 38eb 6423 2326 7ab8 b64e 8fb8
00000020: 2e4b 40b8 a032 3cb9 e2f0 6c23 617b ccb8
00000030: 10bb 81b7 99d7 c238 64de e7b8 0400 0000
00000040: 98ef 6637 292d 3eb8 1b35 8d37 ab7b 0fb9
00000050: 76bb 9b27 0000 00ad 57f6 7db7 52b6 32b9
00000060: 2fba 50b9 0400 0000 5283 4cb8 f4e4 5337
00000070: c106 1438 e3a7 b9b8 b37f d727 a814 8037
00000080: 60dc cbb7 a7c1 1fb9 eb21 26b9 0400 0000
00000090: 003b 01b7 8e15 aa36 2064 4937 cf75 9ab8
000000a0: 3c11 da27 4f05 dfb8 4571 e838 1988 3eb9
000000b0: eef7 d2b8 0400 0000 24e9 73b8 5bf1 7db7
000000c0: c99a d8b8 32dd 2eb9 3c11 da27 6fe1 b338
000000d0: b6e5 b438 8cda 2ab9 f7d1 ceb8 0400 0000
000000e0: c4d6 86b8 bab1 1638 cc3a fb37 84d1 cab8
000000f0: c29e d927 f00a 1fb7 f33f 29b9 b28e 7f39
00000100: 8063 3936 0400 0000 04dd c638 804b 60b7
00000110: ade0 9038 44e1 2ab8 c39a d927 0c52 44b8
00000120: 403b 9cb8 041a 9238 e6c4 0cb9 0400 0000
00000130: b3a5 2139 9109 d0b7 e06f 70b6 0c3f 45b9
00000140: c39a d927 65e5 23b8 f4e4 03b9 ac84 e937
00000150: 5e05 86b8 0400 0080 fda8 0539 b221 9137
00000160: 7fa6 7f38 acd4 b438 1857 f926 93f9 c438
00000170: 7d1b 12b9 a845 36b9 e0da 8fb9 0400 0080
00000180: 68e4 3a37 e45d 93b8 94e8 0e39 9562 eb38
00000190: 155e b21b 702f 8536 584c 06b9 ae88 d9b8
000001a0: 6494 52b9 0400 0000 ab86 33b8 f215 a3b8
000001b0: ea0b 8638 0256 58b8 96f8 b51b 24e1 8438
000001c0: 3c54 38b9 49cc 0db9 b147 73b9 0400 0000
000001d0: 9ed3 ad38 0b4f 10b9 33f2 dc38 5c71 0cb8
000001e0: 8c96 6618 d924 2ab8 e085 0db9 8ba5 98b9
000001f0: 74d4 57b9 0400 0000 ae43 8b38 9b7d d9b8
00000200: 0520 b038 6a6d 9eb8 8c96 6618 0281 fe37
00000210: aa84 39b9 36f8 3c39 7269 2a39 0400 0000
00000220: 1a7f 9eb7 1af5 3db8 9af7 f2b8 e6db 0db9
00000230: 28be c598 12ba 9238 b1c7 eeb8 f4cf 4739
00000240: 84c1 5a38 0400 0000 2f60 4a37 d4cc b4b8
00000250: a95c d238 4309 93b8 0400 0000 2f60 4a37
00000260: d4cc b4b8 a95c d238 3f09 93b8 6508 77b8
00000270: f89c 9b39 019d 8bb8 4e61 7dbc bdfb 01b9
00000280: 3732 c6b8 b280 03b7 f07d 7ab8 78ca d623
00000290: 4e39 02b7 56ea bf36 4328 a6b6 308d 8338
000002a0: efcd bb23 30ac 19b7 360b 4337 ac6c 1738
000002b0: ce0a ad38 59eb d623 b960 60b6 547f 00b6
000002c0: 2b85 5bb7 264e b038 0400 0080 95a6 edb7
000002d0: 98b2 4337 5d65 1d39 565b 3839 59eb d623
000002e0: a4fe ed37 bb63 8536 62a4 d037 1226 0439
000002f0: 0400 0080 c3a0 37b8 ac39 7237 cad0 2438
00000300: 6e58 1639 59eb d623 45db f137 0091 0138
00000310: c6f9 d838 4584 2539 0400 0080 a446 1a38
00000320: a46c 5837 46c5 eeb7 7387 1139 61eb d623
00000330: 2d61 2937 78ab bdb6 724d 5038 125f f838
00000340: 0400 0080 32f5 4238 9419 2638 d2df d138
00000350: 86a9 4939 61eb d623 9ce3 8238 639e d837
00000360: e6a9 f8b6 f698 1239 0400 0080 24a1 7d38
00000370: da9e 7738 6076 8438 764b 2f39 8beb 5822
00000380: 6e15 7b37 62d9 af37 b47b 4f38 60fe 2f39
00000390: 0400 0080 0e78 5d38 a88d 1438 347b f437
000003a0: 3729 e138 4650 4719 5b65 36b8 2999 9438
000003b0: bdc0 3738 539a 5d39 0400 0080 8a01 2f39
000003c0: 90b9 7a38 7c92 5fb7 363b ca38 0b40 4719
000003d0: ea92 87b7 6c92 6138 8d70 a838 7ff4 4d39
000003e0: 0400 0080 0d33 d538 3d23 eb37 d702 f738
000003f0: 0e21 3d39 4cc4 4619 9297 0438 3cbc 2b38

exp_avg_sq f4 [128, 163]
2.6750992e-11 3.648128e-07 3.4345824e-08 1.4472292e-06 1.9328722e-06 2.9899763e-11 3.3962073e-07 3.6571837e-08
6.594793e-07 1.150631e-06 1.624622e-11 5.108424e-07 8.39678e-08 2.0634993e-06 2.827472e-06 1.2046289e-10
3.9517303e-07 3.5240056e-08 2.934401e-07 7.466114e-07 6.6979005e-12 7.832755e-07 2.1194117e-07 2.1197877e-06
3.053116e-06 1.2252888e-10 4.0282046e-07 3.5253407e-08 2.8401368e-07 6.244784e-07 2.9576508e-11 1.1545505e-06
3.5410167e-07 1.8752318e-06 2.843969e-06 1.1989632e-10 5.0547163e-07 2.9767547e-08 2.6375105e-07 5.951771e-07
4.582225e-11 1.3730007e-06 5.8723367e-07 1.4632731e-06 2.4786484e-06 1.14994875e-10 4.6004925e-07 4.571149e-08
3.1024362e-07 6.6809406e-07 4.4152355e-11 1.6499487e-06 6.653812e-07 9.681513e-07 1.9688475e-06 1.14545894e-10
6.316656e-07 8.257557e-08 2.6716583e-07 7.1157285e-07 4.3485972e-11 1.8208391e-06 4.6796671e-07 7.269755e-07
1.5843435e-06 1.15480306e-10 6.53387e-07 1.2816523e-07 3.32065e-07 8.5062607e-07 4.2624577e-11 1.8820582e-06
3.7617087e-07 6.1900977e-07 1.4276012e-06 1.16300004e-10 3.6399712e-07 1.7633796e-07 5.6839497e-07 1.298292e-06
4.245106e-11 1.7812757e-06 3.2505068e-07 6.635219e-07 1.3709746e-06 1.1509443e-10 2.0304985e-07 2.3357029e-07
9.4338856e-07 1.7146967e-06 4.248253e-11 1.8030306e-06 3.2083176e-07 5.9456085e-07 1.2708048e-06 1.4766052e-10
4.3277907e-07 1.9855138e-07 1.128062e-06 1.9482616e-06 4.289222e-11 1.655142e-06 3.514451e-07 5.8756467e-07
1.3687911e-06 1.4942832e-10 4.045454e-07 2.2054697e-07 1.1777887e-06 2.071392e-06 4.3655808e-11 1.4361649e-06
3.5701675e-07 8.4600765e-07 1.7207992e-06 6.211117e-11 3.9781906e-07 2.3227496e-07 1.1173291e-06 2.0459745e-06
2.1654898e-11 1.2340254e-06 4.0119878e-07 1.1046415e-06 1.9711722e-06 5.5511224e-11 3.867123e-07 2.9641336e-07
1.196552e-06 2.1682945e-06 3.8067834e-11 1.0526569e-06 4.0351722e-07 1.2886301e-06 2.310392e-06 4.048327e-11
3.871065e-07 2.6923405e-07 1.6608199e-06 2.4783112e-06 5.2338738e-11 7.1826577e-07 3.3020214e-07 1.73804e-06
2.602927e-06 5.4676305e-11 6.033745e-07 3.1097915e-07 1.6846367e-06 2.603169e-06 5.4676305e-11 6.033745e-07
3.1097915e-07 1.6846367e-06 2.6031687e-06 1.5879806e-06 5.215192e-06 3.755213e-07 0.012521228 3.3568426e-06
1.6409704e-06 1.2803272e-06 1.0405789e-06 9.360454e-11 3.087156e-08 6.3824723e-09 1.9678264e-08 1.038715e-07
1.0128802e-10 5.2620464e-08 6.5175483e-09 5.2931288e-08 1.3921881e-07 9.21358e-11 2.3359824e-08 1.3934458e-08
3.449377e-08 1.1566191e-07 1.05713e-10 9.325088e-08 1.7040804e-08 4.899986e-08 1.6488295e-07 5.904927e-13
1.08227916e-08 2.9927932e-08 6.156055e-08 1.7234737e-07 1.1292756e-10 1.4358751e-07 2.4867678e-08 6.622566e-08
1.9172995e-07 5.2180027e-13 2.1279906e-08 1.0724989e-07 1.9684542e-07 4.1471168e-07 1.1295675e-10 3.7902268e-07
3.652185e-08 1.7816431e-07 3.703689e-07 3.3450098e-13 1.3811996e-07 4.132394e-07 1.2628092e-06 1.7330985e-06
1.4629112e-11 3.030875e-07 3.7731603e-08 3.2415602e-07 6.254276e-07 3.4426054e-13 1.8457942e-07 1.7731134e-07
1.3491602e-06 1.8071695e-06 1.4570161e-11 4.3317831e-07 5.923296e-08 9.026355e-07 1.2245421e-06 2.3577453e-13
2.9807515e-07 2.0040672e-07 1.4650368e-06 1.8750494e-06 6.3093493e-12 4.2000323e-07 6.44481e-08 8.2350556e-07
1.2365097e-06 2.391852e-13 4.5899748e-07 1.0471695e-06 4.6513807e-07 8.857931e-07 1.623787e-12 4.0934935e-07
6.6528315e-08 7.8440996e-07 1.2800515e-06 2.757222e-13 5.406616e-07 1.0870727e-06 4.6461906e-07 1.06659e-06
4.3215122e-13 3.6321276e-07 6.4786725e-08 6.034878e-07 1.2753615e-06 3.3793029e-13 9.811e-07 1.0830012e-06
00000000: e14d eb2d 7ddb c334 a283 1333 6b3e c235
00000010: 7eb6 0136 2480 032e 1e55 b634 2913 1d33
00000020: 1307 3135 616f 9a35 3ce7 8e2d d320 0935
00000030: c951 b433 a67a 0a36 99bf 3d36 4a73 042f
00000040: 2b28 d434 da5a 1733 1a8a 9d34 bf6a 4835
00000050: 53a9 eb2c 4842 5235 f291 6334 ad41 0e36
00000060: 22e4 4c36 d0b8 062f 3943 d834 8869 1733
00000070: 8b7a 9834 d4a1 2735 3014 022e 0ef6 9a35
00000080: 5d1b be34 79b0 fb35 04db 3e36 d0d3 032f
00000090: bfaf 0735 87b3 ff32 ab99 8d34 42c4 1f35
000000a0: 4487 492e f247 b835 64a2 1d35 ae65 c435
000000b0: db56 2636 5ce0 fc2e b0fc f634 5154 4433
000000c0: 8f8f a634 1357 3335 222f 422e ce73 dd35
000000d0: a69c 3235 6df1 8135 8b20 0436 9be3 fb2e
000000e0: bb8f 2935 6654 b133 fe6e 8f34 ea02 3f35
000000f0: da40 3f2e 8e63 f435 db3c fb34 6025 4335
00000100: a1a5 d435 a2f1 fd2e 6a64 2f35 ca9d 0934
00000110: ab46 b234 9456 6435 0277 3b2e 079b fc35
00000120: 88f4 c934 072a 2635 019c bf35 15bf ff2e
00000130: 626b c334 6957 3d34 ce93 1835 f940 ae35
00000140: a5b3 3a2e 2b14 ef35 a082 ae34 e11c 3235
00000150: 5402 b835 6718 fd2e eb05 5a34 50cb 7a34
00000160: 2b3d 7d35 8824 e635 14d7 3a2e a9ff f135
00000170: c83e ac34 e999 1f35 8590 aa35 be5a 222f
00000180: b458 e834 6331 5534 ea67 9735 e1be 0236
00000190: 59a4 3c2e 3f26 de35 3fae bc34 23b9 1d35
000001a0: 4eb7 b735 554c 242f 4c30 d934 7dcf 6c34
000001b0: 8314 9e35 3e02 0b36 1200 402e 40c2 c035
000001c0: 02ac bf34 3419 6335 36f6 e635 7b95 882e
000001d0: d693 d534 4167 7934 23f7 9535 934d 0936
000001e0: 7f7a be2d caa0 a535 5764 d734 3143 9435
000001f0: 7b48 0436 1524 742e 559d cf34 be22 9f34
00000200: 3799 a035 0483 1136 926c 272e 0449 8d35
00000210: fca2 d834 fef4 ac35 3b0c 1b36 1c0c 322e
00000220: 83d3 cf34 3f8b 9034 56e9 de35 1051 2636
00000230: 2e30 662e d9ce 4035 a346 b134 9a46 e935
00000240: f2ad 2e36 0c78 702e 94f7 2135 a6f4 a634
00000250: ad1b e235 1ab2 2e36 0c78 702e 94f7 2135
00000260: a6f4 a634 ad1b e235 19b2 2e36 9922 d535
00000270: 28fe ae36 419b c934 d625 4d3c 1e46 6136
00000280: 503f dc35 b5d7 ab35 05aa 8b35 acd6 cd2e
00000290: a497 0433 d24c db31 f608 a932 f60f df33
000002a0: 16bc de2e d000 6233 f6f0 df31 9156 6333
000002b0: 2d7c 1534 d89b ca2e cca8 c832 6564 6f32
000002c0: 4d26 1433 cf61 f833 2177 e82e 3741 c833
000002d0: 2061 9232 ea73 5233 ae0a 3134 7c35 262b
000002e0: 24ef 3932 1c8a 0033 4533 8433 7c0e 3934
000002f0: 9154 f82e 092d 1a34 9a9c d532 f137 8e33
00000300: 54de 4d34 acdf 122b 02cb b632 4051 e633
00000310: 755c 5334 8aa5 de34 ff64 f82e 7b7c cb34
00000320: 33dc 1c33 6f4d 3f34 1dd7 c634 ac4e bc2a
00000330: 204e 1434 31db dd34 cb7d a935 d09c e835
00000340: d5ad 802d 07b8 a234 560e 2233 aa07 ae34
00000350: 0fe3 2735 2ccd c12a ce30 4634 f862 3e34
00000360: cb14 b535 df8d f235 1629 802d 938f e834
00000370: 5467 7e33 a44c 7235 f25a a435 b1ba 842a
00000380: 2307 a034 612f 5734 48a2 c435 35aa fb35
00000390: 91fd dd2c ce7c e134 b866 8a33 df0e 5d35
000003a0: 26f6 a535 38a6 862a 226c f634 788c 8c35
000003b0: 17b8 f934 3dc7 6d35 1887 e42b 8cc4 db34
000003c0: 54de 8e33 3e90 5235 3cce ab35 c237 9b2a
000003d0: fb21 1135 89e7 9135 c270 f934 c127 8f35
000003e0: 8e47 f32a 95ff c234 e120 8b33 5eff 2135
000003f0: 162d ab35 e33c be2a 57ae 8335 a35b 9135

exp_avg f4 [128]
-0.00012910945 0.00032718672 0.00038564886 -0.0011542952 -1.857468e-05 2.5020889e-05 -0.00045230394 -0.00012984093
0.0002550501 -6.185654e-05 0.0012783315 -0.00051998906 0.00042637388 -0.00015975443 -0.00041300443 -0.00038885456
0.0006000547 7.331498e-05 -6.8484034e-05 0.00018777508 0.00048261695 -0.00045942102 -0.0010991092 0.00019954762
0.00019457507 -0.00054466433 0.0005429107 0.00016020722 0.000501742 -0.00044074233 -0.0013127599 -0.0001494518
0.000683016 8.5853407e-07 -0.00040045098 0.0005691814 -5.0930834e-05 -0.0005643011 -0.0003589559 -0.0004658723
0.00054323586 -0.00022118575 -0.00019773615 -0.0004945332 -0.00010154146 0.00023733266 -0.0003185834 -0.00041439512
-0.0015151947 -0.00021588939 0.00011369944 4.0535206e-06 -6.398684e-05 -0.004458951 -0.00018489463 -0.00048201915
-0.00082987885 5.3962256e-05 -0.00011781624 -0.00084771507 -0.0004092616 -0.00049869635 0.00029695977 0.00020535578
0.00050501263 0.0002237013 0.0012107888 0.0009813902 -0.0013947261 -0.0010712291 0.00025510625 -0.002284777
-4.4906767e-05 1.159931e-05 -1.890277e-05 -0.00023051215 -0.00050269463 -0.00052272226 0.00054386066 0.0006735212
-0.0002390871 0.0003367158 -0.000203479 0.00028934452 -0.00029318727 0.00021073752 -9.066771e-05 0.00020443942
0.00020819722 9.0652764e-05 -0.001269053 -0.0005144255 -0.00027848745 -0.0022785626 -0.0027631596 0.00025750397
0.0016867087 0.00055187626 0.00039930956 -0.00040531094 -0.00021795064 -0.001165037 -4.30909e-05 7.207556e-05
0.0013479498 -0.00012778494 0.0004401751 -0.00040189436 -0.00039605043 0.001097677 0.00040085462 8.3842315e-06
0.00075594016 0.0006446302 0.0005128744 0.00023621465 -0.0007456426 -0.00013450912 0.0011532828 -0.00017422398
0.00033122482 -0.0007735518 -4.2423904e-05 -0.00071186357 -0.000110020745 0.00018017604 0.0001848211 -0.0003936048
00000000: 8e61 07b9 428a ab39 ea30 ca39 b84b 97ba
00000010: d2d0 9bb7 f3e3 d137 3523 edb9 e925 08b9
00000020: 3fb8 8539 fab8 81b8 b08d a73a e04f 08ba
00000030: ef8a df39 c183 27b9 8488 d8b9 2ddf cbb9
00000040: fd4c 1d3a aec0 9938 169f 8fb8 7de5 4439
00000050: c007 fd39 72de f0b9 fc0f 90ba a83d 5139
00000060: d906 4c39 cec7 0eba 1f52 0e3a 4cfd 2739
00000070: 5687 033a 6f13 e7b9 ea10 acba 29b6 1cb9
00000080: 6e0c 333a 0376 6635 9ff3 d1b9 1e35 153a
00000090: 919e 55b8 9bed 13ba 3f32 bcb9 5240 f4b9
000000a0: f167 0e3a 19ee 67b9 6557 4fb9 90a3 01ba
000000b0: a8f2 d4b8 80dc 7839 8a07 a7b9 2c43 d9b9
000000c0: 7f99 c6ba 5e60 62b9 ec71 ee38 7a03 8836
000000d0: ac30 86b8 641c 92bb 46e0 41b9 84b7 fcb9
000000e0: 3a8c 59ba 8855 6238 1d14 f7b8 3239 5eba
000000f0: 2a92 d6b9 f2ba 02ba 44b1 9b39 c654 5739
00000100: d362 043a 5c91 6a39 55b3 9e3a fea1 803a
00000110: 3ecf b6ba 7c68 8cba c8bf 8539 32bc 15bb
00000120: 465a 3cb8 a89a 4237 6491 9eb7 a2b5 71b9
00000130: 44c7 03ba 4c07 09ba df91 0e3a 3e8f 303a
00000140: 74b3 7ab9 3b89 b039 fa5c 55b9 2ab3 9739
00000150: eeb6 99b9 6cf9 5c39 db24 beb8 ca5e 5639
00000160: 844f 5a39 d51c be38 5a56 a6ba 83da 06ba
00000170: f401 92b9 f053 15bb 2016 35bb 9901 8739
00000180: 8d14 dd3a caab 103a 6c5a d139 ea7f d4b9
00000190: ae89 64b9 28b4 98ba 80bc 34b8 4627 9738
000001a0: b1ad b03a 02fe 05b9 4dc7 e639 59b5 d2b9
000001b0: fda4 cfb9 eedf 8f3a cc29 d239 00aa 0c37
000001c0: 492a 463a 67fc 283a 6b72 063a 63b0 7739
000001d0: 3a77 43ba 040b 0db9 c029 973a e5af 36b9
000001e0: 3ea8 ad39 2fc8 4aba 52f0 31b8 5b9c 3aba
000001f0: f0ba e6b8 a3ed 3c39 89cc 4139 be5c ceb9

exp_avg_sq f4 [128]
5.0065523e-06 3.3524457e-06 3.736292e-05 4.1417192e-05 4.5964684e-06 3.512318e-07 4.023893e-06 2.3916473e-06
1.1887052e-05 1.0345295e-07 3.7862494e-05 8.573342e-06 1.8687782e-05 1.1707859e-05 2.3359418e-05 1.3896273e-05
0.00010568479 2.0372327e-06 2.8692417e-05 9.133826e-06 3.342031e-05 1.6257794e-05 1.5136576e-05 6.8907716e-06
2.2340608e-05 1.0172854e-05 2.0873524e-05 9.645265e-06 1.0978441e-05 5.880832e-06 1.5315401e-05 1.2376058e-05
2.7569945e-06 1.0099719e-07 1.7775816e-05 3.8096707e-05 2.0546962e-07 2.7970784e-05 1.6991255e-05 1.4349796e-05
4.2975626e-05 7.829403e-06 2.9600847e-06 8.933805e-06 4.112971e-06 2.6159494e-05 0.00022592008 1.9484956e-05
4.932606e-05 1.1694301e-05 2.4700208e-05 2.5785795e-08 2.5375619e-05 0.00018246553 2.4699219e-05 1.2363919e-05
3.7897207e-05 2.8845705e-05 3.5220737e-07 8.74633e-06 8.009067e-06 1.8818238e-05 1.4302263e-05 9.411596e-05
1.37914885e-05 9.779501e-06 2.5680196e-05 2.9645837e-05 4.4448396e-05 2.9663654e-05 5.8402762e-05 0.00013518415
3.492999e-07 4.5261127e-06 7.055708e-07 5.781998e-06 1.4886417e-05 3.5594142e-06 2.3632483e-05 2.6601827e-05
1.7672028e-06 2.2683984e-05 2.0334808e-05 2.076844e-05 1.0685369e-05 1.1862481e-05 4.495208e-06 2.259073e-05
1.7739087e-06 1.7920576e-06 3.214065e-05 9.193638e-06 4.743079e-07 8.578462e-05 7.8060686e-05 2.6725256e-06
4.3482087e-05 0.00020661547 3.174884e-05 1.9285075e-05 6.7071396e-06 2.676428e-05 4.9703954e-07 3.845317e-06
9.266489e-05 5.1753577e-06 2.352017e-05 4.111095e-06 4.1340398e-05 4.6406378e-05 5.8867467e-05 3.2809177e-05
0.0001096051 3.1083662e-05 3.5712317e-05 2.5548225e-06 5.5918163e-06 8.4930225e-06 3.445681e-05 3.9177223e-07
1.2772377e-05 1.6657174e-05 2.1319825e-06 1.9937592e-05 8.720444e-06 4.9121725e-05 3.0744193e-06 5.617982e-06
00000000: f5fd a736 94fa 6036 21b6 1c38 5fb7 2d38
00000010: 5d3b 9a36 ee90 bc34 fa04 8736 3080 2036
00000020: 806e 4737 dc29 de33 8bce 1e38 39d6 0f37
00000030: b5c3 9c37 df6c 4437 f8f3 c337 0a24 6937
00000040: 17a3 dd38 64b7 0836 7fb0 f037 7c3d 1937
00000050: c92c 0c38 5961 8837 19f3 7d37 4737 e736
00000060: 1768 bb37 13ac 2a37 8d19 af37 19d2 2137
00000070: 0c30 3837 f653 c536 9379 8037 c4a2 4f37
00000080: ce04 3936 cbe3 d833 461d 9537 07ca 1f38
00000090: 0f9f 5c34 cda2 ea37 7188 8e37 e8bf 7037
000000a0: ba40 3438 085b 0337 dea5 4636 66e2 1537
000000b0: 2702 8a36 1671 db37 f6e4 6c39 a073 a337
000000c0: 74e3 4e38 a432 4437 4b33 cf37 907f dd32
000000d0: badd d437 3854 3f39 2b31 cf37 a16e 4f37
000000e0: d1f3 1e38 aef9 f137 0317 bd34 34bd 1237
000000f0: ae5e 0637 dcdb 9d37 c0f3 6f37 1f60 c538
00000100: fe61 6737 a312 2437 cd6b d737 f3af f837
00000110: 1a6e 3a38 36d6 f837 7df5 7438 38c0 0d39
00000120: 6a87 bb34 03df 9736 7566 3d35 fc02 c236
00000130: adc0 7937 45de 6e36 5f3e c637 fd26 df37
00000140: a030 ed35 7c49 be37 ab94 aa37 e337 ae37
00000150: 4f45 3337 f804 4737 8bd5 9636 3981 bd37
00000160: 0a17 ee35 a186 f035 c3ce 0638 603e 1a37
00000170: 62a4 fe34 44e7 b338 83b4 a338 a459 3336
00000180: 8960 3638 eba6 5839 0f2a 0538 62c6 a137
00000190: e40d e136 db83 e037 4c6c 0535 0607 8136
000001a0: 1655 c238 fca7 ad36 2e4d c537 0af2 8936
000001b0: ea64 2d38 78a4 4238 76e8 7638 969c 0938
000001c0: cadb e538 d45f 0238 cfc9 1538 8473 2b36
000001d0: 56a1 bb36 417d 0e37 b885 1038 c454 d234
000001e0: f148 5637 02bb 8b37 2e13 0f36 a73f a737
000001f0: 064e 1237 0d08 4e38 1f52 4e36 1982 bc36
