Trained_Policies/WeightAgent_Training/WeightAgent_Training/WeightAgent_Training-243499985.onnx (onnx, 155824 bytes, 6 tensors)

network_body._body_endoder.seq_layers.0.weight f4 [128, 163]
0.29160532 -0.4934961 0.059008777 0.18274492 0.42729336 -0.04366062 -0.43078154 -0.28910452
0.12534352 0.7151505 0.3127444 -0.19325562 0.39788333 -0.00042199023 0.1635063 -0.08191319
-0.33697245 -0.9044282 0.014596337 0.51073444 0.49105003 -0.023346499 0.6712925 0.35953364
-0.5322425 -0.34536538 -0.3468112 -0.4453776 -0.27852717 0.4195182 0.20871414 0.03275355
0.5630091 0.15243301 -0.5905352 -0.23844208 -0.6627115 -0.192912 -0.18720022 0.23785535
0.17472142 0.16149452 0.5499525 0.23283124 -0.6174121 -0.41066608 -0.4969224 0.022025341
-0.17738596 0.07891888 0.5510311 0.302266 0.11143444 0.61016494 -0.2899311 -0.33741048
0.06286207 0.2216038 -0.17772286 0.32109728 0.40444627 0.09826011 0.26256236 0.031824473
-0.37046376 -0.27250642 -0.2632572 0.14965557 -0.10348443 0.16544543 0.5202358 -0.025914304
0.31704533 0.17432822 -0.11026491 0.13239388 0.030964993 0.23616472 -0.2383091 0.05829625
0.31787547 -0.4228068 -0.2498884 0.121527016 -0.017217418 0.14939372 -0.374121 -0.076643005
-0.11369004 0.10530738 0.1373571 0.20909317 -0.2843823 -0.106476694 -0.008183895 -0.12369689
-0.11550306 0.20184702 -0.17896302 0.05257952 0.034448333 -0.23399033 -0.18351804 0.12268062
0.0059657134 0.06759014 -0.16451049 0.025624396 0.18742098 0.04407197 0.112150185 -0.3173405
-0.042221133 0.27577215 -0.09477897 -0.22029151 0.08698429 -0.15288852 -0.054729402 0.16113426
0.0028997257 -0.39042056 0.09344621 0.19562282 -0.21202362 -0.33503556 0.15766169 -0.009874239
0.18063737 0.1045393 -0.15323795 -0.068379894 0.03773222 -0.11737563 -0.26193684 -0.041891027
-0.22446714 -0.29526412 0.13279535 0.07175846 -0.33939618 -0.19063565 -0.3517845 0.0086328285
-0.1697409 -0.15867732 -0.09928845 0.05789583 -0.056393184 0.080316566 -0.20112114 -0.25235277
-0.034136876 0.066702865 0.046367772 -0.030916095 0.29104623 -0.2804139 -0.03027762 -0.07925075
0.06199214 0.17225708 -0.6293514 -0.0025655206 0.5094877 -0.077276416 -0.06453146 -0.5659847
0.062932365 0.24675176 0.06610653 0.16109124 -0.9783934 0.22084038 0.051216315 -0.7617572
0.46182406 -0.51030487 0.025604794 0.39069504 0.3356562 -0.022809183 -0.9198265 0.40661833
0.21526381 -1.330545 0.14182124 -0.19948542 -0.15092066 0.09092769 0.17314014 0.36702296
-0.58895344 -0.032194596 0.26908723 -0.7794133 0.22300889 0.007723995 -0.0625046 0.048472114
0.20908372 0.1708303 -0.6789887 0.056062467 0.3291619 -0.48697585 0.10699212 0.1200231
0.017400669 0.081233226 0.2751486 0.29292333 -0.46171877 0.11355687 0.30659866 -0.17796174
-0.012175369 0.14873433 0.049009904 0.09722431 0.15476552 0.23833302 -0.06309346 0.03865483
0.17964654 0.16654256 -0.060272954 0.14002499 0.033756927 0.28292364 0.1854323 -0.05471568
0.07855536 0.16422082 0.23014836 -0.0052978126 0.13337442 0.08584889 -0.28812107 0.16492926
0.064561084 -0.09781519 0.077341534 0.0949206 -0.013783851 0.17078236 -0.28672457 0.0058491244
-0.05646993 0.07732818 0.085657395 0.14738533 0.23957093 0.3403136 0.037635494 -0.17138842
00000000: 4b4d 953e 85ab fcbe 30b3 713d 7c21 3b3e
00000010: 32c6 da3e 7ad5 32bd 668f dcbe 8205 94be
00000020: 0d5a 003e 1a14 373f 0920 a03e cde4 45be
00000030: 5db7 cb3e 923e ddb9 326e 273e 1ac2 a7bd
00000040: a787 acbe 9b88 67bf 7a25 6f3c 7ebf 023f
00000050: e96a fb3e 2841 bfbc d3d9 2b3f cb14 b83e
00000060: 0b41 08bf bbd3 b0be 3d91 b1be 8808 e4be
00000070: 1d9b 8ebe 17cb d63e 29b9 553e 9628 063d
00000080: 5d21 103f 6617 1c3e 512d 17bf 292a 74be
00000090: 76a7 29bf b98a 45be 6ab1 3fbe 5a90 733e
000000a0: 2cea 323e d25e 253e b0c9 0c3f 506b 6e3e
000000b0: b80e 1ebf d342 d2be 9d6c febe 7d6e b43c
000000c0: aaa4 35be 39a0 a13d 6010 0d3f 9cc2 9a3e
000000d0: bd37 e43d c533 1c3f d971 94be 11c1 acbe
000000e0: d4bd 803d 1bec 623e fbfc 35be dd66 a43e
000000f0: 9513 cf3e 993c c93d 936e 863e 615a 023d
00000100: 6dad bdbe f685 8bbe a6c9 86be 4f3f 193e
00000110: a5ef d3bd 876a 293e 2c2e 053f 3c4a d4bc
00000120: c453 a23e 1983 323e 92d2 e1bd 4392 073e
00000130: 4caa fd3c 2ad5 713e 4d07 74be 0cc8 6e3d
00000140: 93c0 a23e 227a d8be bfe2 7fbe 28e3 f83d
00000150: 8b0b 8dbc abfa 183e ca8c bfbe 02f7 9cbd
00000160: 53d6 e8bd 65ab d73d 57a7 0c3e 851c 563e
00000170: 8f9a 91be 7410 dabd be15 06bc cc54 fdbd
00000180: de8c ecbd fcb0 4e3e 1542 37be 9f5d 573d
00000190: b219 0d3d 299b 6fbe 27ec 3bbe fa3f fb3d
000001a0: 087c c33b b36c 8a3d 7075 28be 41ea d13c
000001b0: 49eb 3f3e cf84 343d ffae e53d 747a a2be
000001c0: 11f0 2cbd 0232 8d3e 7a1b c2bd 1994 61be
000001d0: d224 b23d cf8e 1cbe f02b 60bd 6100 253e
000001e0: 5309 3e3b 34e5 c7be ba60 bf3d 5951 483e
000001f0: b81c 59be c889 abbe 1172 213e 8fc7 21bc
00000200: 01f9 383e b318 d63d 69ea 1cbe c20a 8cbd
00000210: 1a8d 1a3d a262 f0bd 961c 86be ed95 2bbd
00000220: b7da 65be dc2c 97be 81fb 073e 19f6 923d
00000230: 56c5 adbe fe35 43be 191d b4be b570 0d3c
00000240: 8fd0 2dbe 4f7c 22be be57 cbbd 2e24 6d3d
00000250: 8afc 66bd 037d a43d b3f2 4dbe 6234 81be
00000260: 1cd3 0bbd 839b 883d 22ec 3d3d c043 fdbc
00000270: 0304 953e 6992 8fbe c508 f8bc 384e a2bd
00000280: 78eb 7d3d 2964 303e 2c1d 21bf 4b22 28bb
00000290: c96d 023f 1943 9ebd 1229 84bd 60e4 10bf
000002a0: afe2 803d 7eac 7c3e dc62 873d 1af5 243e
000002b0: fd77 7abf fb23 623e 33c8 513d 8502 43bf
000002c0: 3474 ec3e 57a3 02bf 25c1 d13c 2e09 c83e
000002d0: 21db ab3e 53da babc c079 6bbf 4730 d03e
000002e0: 1e6e 5c3e 4c4f aabf 9639 113e e845 4cbe
000002f0: f28a 1abe 4c38 ba3d a64b 313e 6fea bb3e
00000300: a7c5 16bf 7bde 03bd cdc5 893e a187 47bf
00000310: 715c 643e 9119 fd3b 6902 80bd b28a 463d
00000320: 0b1a 563e 23ee 2e3e 34d2 2dbf c2a1 653d
00000330: e987 a83e e654 f9be af1e db3d acce f53d
00000340: d98b 8e3c 9b5d a63d 47e0 8c3e 0cfa 953e
00000350: 6766 ecbe 8190 e83d 80fa 9c3e 9a3b 36be
00000360: 337b 47bc d04d 183e 9cbe 483d 8a1d c73d
00000370: da7a 1e3e 920d 743e 2537 81bd 8754 1e3d
00000380: 43f5 373e 228a 2a3e c6e0 76bd b662 0f3e
00000390: b444 0a3d 5edb 903e f7e1 3d3e 8d1d 60bd
000003a0: a2e1 a03d 8129 283e 03ac 6b3e 4699 adbb
000003b0: 4e93 083e 8bd1 af3d 9b84 93be 37e3 283e
000003c0: 9a38 843d 5553 c8bd 3d65 9e3d bb65 c23d
000003d0: a9d5 61bc 92e1 2e3e 90cd 92be 03aa bf3b
000003e0: 034d 67bd 3d5e 9e3d 256d af3d 2eec 163e
000003f0: 1552 753e 963d ae3e ad27 1a3d 7280 2fbe

network_body._body_endoder.seq_layers.0.bias f4 [128]
0.016496938 0.11176675 0.06221024 -0.062241025 0.15917002 -0.0375385 0.044936344 0.35577607
-0.10669657 -0.007203561 0.05595076 0.103115335 0.0038757294 0.05911822 0.060288865 -0.100355625
-0.037833 -0.046323977 0.06422223 -0.12960136 0.18145959 -0.11351755 0.22562449 -0.11115917
0.11590776 0.07169302 -0.057332244 0.002275264 0.08788092 0.029870877 -0.13694546 0.080550626
-0.015713234 0.122051895 0.08020354 0.040647056 0.15496227 0.044793736 -0.004431954 -0.114005536
0.19420594 -0.06547752 -0.036171354 0.052932065 0.08350095 -0.0047255084 -0.013255295 0.014842293
-0.05085382 0.03048254 -0.16424747 0.0066989087 0.06725722 0.045599863 -0.040785458 -0.04391828
-0.08245004 0.10592758 -0.019579163 0.029623235 0.030679924 0.030642135 -0.04118556 0.017349582
0.19399948 0.035007007 0.019987224 -0.08881702 -0.18641742 -0.17857277 0.25832364 -0.09405763
-0.02382631 -0.07578294 0.11132672 0.004790299 -0.10328227 0.004710667 0.009445083 0.1386993
0.0032459428 -0.012902068 0.259182 -0.11200609 -0.024063086 0.019934097 -0.1372302 -0.030085515
-0.09272796 0.014412995 0.023841083 -0.0829902 0.00781586 -0.011167599 0.2043974 0.05805265
0.22854161 -0.02098732 0.16249174 0.017329723 0.010830406 -0.15787679 0.16269895 0.08903034
-0.0037014289 -0.05393315 -0.11908763 0.03126507 0.0877605 -0.17691398 -0.0730409 -0.09443495
0.11623761 -0.0845751 -0.036404 -0.15767944 0.044438645 0.042304747 0.16347405 -0.065690026
0.05473533 0.05052488 0.048836254 -0.026886161 0.013138361 0.11140932 0.06614962 0.111403614
00000000: 9624 873c f7e5 e43d 2ad0 7e3d 72f0 7ebd
00000010: 77fd 223e f8c1 19bd 2c0f 383d 4828 b63e
00000020: bb83 dabd d90b ecbb a02c 653d 222e d33d
00000030: f3ff 7d3b f225 723d 75f1 763d 4087 cdbd
00000040: c7f6 1abd 36be 3dbd f286 833d 38b6 04be
00000050: 8bd0 393e e47b e8bd 1b0a 673e 6ba7 e3bd
00000060: 0c61 ed3d cad3 923d 37d5 6abd 981c 153b
00000070: e9fa b33d c5b3 f43c 6e3b 0cbe baf7 a43d
00000080: 0ab9 80bc 58f6 f93d c141 a43d 877d 263d
00000090: 6eae 1e3e a379 373d ed39 91bb bc7b e9bd
000000a0: ecdd 463e 1419 86bd 6a28 14bd 4bcf 583d
000000b0: 8c02 ab3d 70d8 9abb bd2c 59bc 172d 733c
000000c0: 184c 50bd 85b6 f93c 7d30 28be 8582 db3b
000000d0: 27be 893d ecc6 3a3d a70e 27bd a8e3 33bd
000000e0: 91db a8bd 8ff0 d83d 7b64 a0bc 6dac f23c
000000f0: 7754 fb3c 3705 fb3c 31b2 28bd b620 8e3c
00000100: cda7 463e 8263 0f3d 3fbc a33c b3e5 b5bd
00000110: 35e4 3ebe c8db 36be ff42 843e 49a1 c0bd
00000120: 652f c3bc 1634 9bbd 43ff e33d f1f7 9c3b
00000130: a885 d3bd f05b 9a3b 8dbf 1a3c 3007 0e3e
00000140: e2b9 543b 3263 53bc 81b3 843e 7363 e5bd
00000150: f31f c5bc d54c a33c 1386 0cbe e675 f6bc
00000160: 28e8 bdbd 7c24 6c3c 604e c33c c4f6 a9bd
00000170: 180e 003c 4ef8 36bc 8d4d 513e 9ec8 6d3d
00000180: d006 6a3e 9aed abbc 3c64 263e 10f7 8d3c
00000190: 0472 313c 74aa 21be 8e9a 263e 8a55 b63d
000001a0: ac93 72bb 02e9 5cbd 37e4 f3bd cd0f 003d
000001b0: c7bb b33d f028 35be 7896 95bd 1c67 c1bd
000001c0: fc0d ee3d b635 adbd 5c1c 15bd b876 21be
000001d0: 4c05 363d be47 2d3d be65 273e 7e88 86bd
000001e0: 2732 603d 2df3 4e3d 8608 483d 5e40 dcbc
000001f0: 4842 573c 922a e43d 7479 873d 9427 e43d

network_body._body_endoder.seq_layers.2.weight f4 [128, 128]
0.6282237 -0.6662081 -0.17585702 -0.15031017 0.06877048 -0.23502746 0.036753062 -0.6739429
0.36243322 -0.27524632 -0.007324189 -0.3356516 0.021542817 -0.69565785 0.18756403 0.11106943
-0.21174851 -0.32983202 -0.12417024 -0.35064337 -0.43388933 0.2728576 -0.42408678 -0.2779288
0.12326518 -0.2702765 0.03281934 -0.12694658 0.11079486 0.13516505 0.036708005 -0.03263102
-0.094449125 -0.02966644 -0.24410735 0.044277105 0.16001679 -0.1214128 0.006449049 0.10990417
-0.013605735 0.20733666 0.32116583 0.08062044 -0.2147196 0.07688431 -0.31716043 -0.42942816
-0.32556704 -0.4800022 0.20295915 -0.24511972 0.15954344 0.07804478 -0.78923154 -0.1489208
-0.1747099 -0.54159844 -0.08579008 -0.034969896 0.24010047 -0.20992263 0.21807674 0.02565743
-0.2185455 -0.791866 -0.0106062675 0.13466485 -0.18345878 -0.16123776 -0.105768226 0.08026998
0.024542687 0.19293565 -0.0089572705 -0.2578627 -0.10902534 -0.14026275 -0.20023338 -0.0920137
-0.017431077 0.000616864 -0.049426306 0.19930567 -0.501001 -0.0124278935 -0.043943785 0.07451648
-0.05233428 -0.017534183 0.14818732 -0.14927752 -0.044818174 -0.0007721381 -0.3438743 -0.09356125
0.026441896 -0.37464783 0.09890318 -0.5093437 0.2531878 -0.058684453 0.10044032 0.21038646
0.03746042 -0.34034497 -0.2185928 -0.35024184 0.34654433 -0.27788672 -0.31651834 -0.5600023
0.066894054 -0.2521484 -0.48071516 -0.18858893 -0.16828655 -0.04827516 0.16242374 -0.47163412
-0.1945648 -0.41926342 -0.0671861 0.17352554 0.1788935 0.017675461 0.18107165 0.21684611
-0.048673697 -0.0072284536 -0.11350524 0.4929076 -0.43448967 -0.006070545 0.4664701 0.0134293875
0.1781788 0.4081929 0.5449674 0.56614465 -0.2878017 0.107493624 0.18089505 0.3840369
-0.15302692 -0.11481152 0.49434656 0.4492492 0.041739866 -0.32450348 0.01838386 -0.027150692
0.39411277 0.1411886 -0.3156832 -0.43796033 0.03196396 -0.07146117 0.11627644 0.12476324
0.07524729 0.19415452 -0.20653968 0.3005722 0.15609959 0.04510202 0.2673566 0.2615345
0.38162243 0.06698379 -0.056368075 -0.10742339 0.5151133 -0.025252385 -0.17900069 0.39140317
0.19902162 0.7072582 -0.37531403 -0.0032497635 -0.23404878 -0.25156638 0.15369943 -0.06195137
0.2539624 0.44079158 0.1805018 -0.5579874 0.07171425 0.105205245 0.091237575 -0.19400118
-0.14509088 0.43091714 -0.35442334 0.27482435 0.09241493 0.17677267 -0.0457954 0.6306539
-0.27724677 -0.07083172 -0.04151403 0.6431726 0.31153038 0.6500023 0.18793574 -0.11237834
0.10663125 0.29829493 -0.1131958 -0.122206606 -0.055902522 -0.26467064 0.18561181 0.07173094
-0.26266515 0.20511818 -0.24367242 -0.14643982 0.7133423 -0.12478633 0.14357947 -0.010832538
-0.24312913 0.32541162 -0.17742229 -0.031978827 0.011794658 -0.020240512 -0.10956071 -0.1781532
-0.22699204 -0.03159792 -0.09278058 0.1374671 0.19380236 0.34730488 0.08804796 -0.17136279
-0.014058823 -0.4016157 -0.3930748 -0.16466253 0.14026438 0.08442826 0.06260127 0.23958348
-0.2813627 -0.09239717 -0.011310421 -0.07077967 0.19658157 -0.2870775 -0.07408041 -0.28416798
00000000: 45d3 203f 9d8c 2abf dd13 34be e9ea 19be
00000010: 8ad7 8c3d 0aab 70be 618a 163d 8687 2cbf
00000020: d990 b93e 16ed 8cbe c0ff efbb 87da abbe
00000030: 907a b03c a216 32bf c910 403e 5f78 e33d
00000040: 9ad4 58be bedf a8be f74c febd 8787 b3be
00000050: be26 debe feb3 8b3e e721 d9be af4c 8ebe
00000060: 7472 fc3d ae61 8abe 926d 063d 49fe 01be
00000070: 6ae8 e23d b568 0a3e 225b 163d 1ba8 05bd
00000080: 8b6e c1bd 0907 f3bc 47f7 79be e95b 353d
00000090: 71db 233e 46a7 f8bd 8b52 d33b 7015 e13d
000000a0: 97ea 5ebc 1050 543e d96f a43e 541c a53d
000000b0: 74df 5bbe 8575 9d3d da62 a2be 02de dbbe
000000c0: b9b0 a6be d9c2 f5be 86d4 4f3e aa00 7bbe
000000d0: 5b5f 233e f1d5 9f3d 140b 4abf b27e 18be
000000e0: 27e7 32be 32a6 0abf b6b2 afbd 983c 0fbd
000000f0: e6dc 753e f5f5 56be 824f 5f3e 882f d23c
00000100: 64ca 5fbe bbb7 4abf e9c5 2dbc 95e5 093e
00000110: 9edc 3bbe 831b 25be 039d d8bd 9664 a43d
00000120: bf0d c93c ec90 453e 84c1 12bc 9406 84be
00000130: ad48 dfbd 0aa1 0fbe fb09 4dbe ae71 bcbd
00000140: 9ecb 8ebc 0bb5 213a 3d73 4abd c916 4c3e
00000150: 9a41 00bf 5d9e 4bbc 66fe 33bd 199c 983d
00000160: 785c 56bd d9a3 8fbc 6bbe 173e 35dc 18be
00000170: 4393 37bd 5069 4aba 4b10 b0be 0a9d bfbd
00000180: ad9c d83c d7d1 bfbe c08d ca3d 5964 02bf
00000190: d5a1 813e 1c5f 70bd a8b3 cd3d 8c6f 573e
000001a0: 1970 193d b241 aebe cad6 5fbe e652 b3be
000001b0: 426e b13e 2b47 8ebe b10e a2be 505c 0fbf
000001c0: c0ff 883d 9819 81be 4c20 f6be 751d 41be
000001d0: 4f53 2cbe 2dbc 45bd 6952 263e 077a f1be
000001e0: ff3b 47be b2a9 d6be de98 89bd aeb0 313e
000001f0: dc2f 373e 21cc 903c d96a 393e e80c 5e3e
00000200: 125e 47bd aadc ecbb 6f75 e8bd 635e fc3e
00000210: 6e75 debe 6ceb c6bb 2bd5 ee3e ef06 5c3c
00000220: 8174 363e a9fe d03e fc82 0b3f dbee 103f
00000230: bf5a 93be 9e25 dc3d 8d3c 393e 7ca0 c43e
00000240: 17b3 1cbe 4d22 ebbd fe1a fd3e fe03 e63e
00000250: 6cf7 2a3d 5225 a6be c099 963c 216b debc
00000260: 26c9 c93e bf93 103e 3aa1 a1be 563c e0be
00000270: a4ec 023d 3c5a 92bd 5822 ee3d df83 ff3d
00000280: 401b 9a3d 71d0 463e 237f 53be 99e4 993e
00000290: 92d8 1f3e e5bc 383d f7e2 883e dae7 853e
000002a0: 0464 c33e cc2e 893d 36e2 66bd cb00 dcbd
000002b0: 77de 033f 17de cebc f54b 37be ff65 c83e
000002c0: 53cc 4b3e e00e 353f 2929 c0be fcf9 54bb
000002d0: 7caa 6fbe 4fcd 80be 6263 1d3e b8c0 7dbd
000002e0: 5c07 823e 6faf e13e 77d5 383e 43d8 0ebf
000002f0: ecde 923d d975 d73d c4da ba3d 3fa8 46be
00000300: b492 14be 2ca1 dc3e fa76 b5be c7b5 8c3e
00000310: 0a44 bd3d e503 353e f593 3bbd 8972 213f
00000320: 4af3 8dbe 3910 91bd 9e0a 2abd f6a6 243f
00000330: e980 9f3e 8d66 263f 3a72 403e 9d26 e6bd
00000340: 7c61 da3d 1dba 983e 33d3 e7bd 7547 fabd
00000350: 0bfa 64bd e982 87be 0611 3e3e ace7 923d
00000360: 0c7c 86be 800a 523e 4385 79be 52f4 15be
00000370: 9a9d 363f fa8f ffbd 7f06 133e f57a 31bc
00000380: d8f6 78be 5a9c a63e 30ae 35be 3bfc 02bd
00000390: 623e 413c 6ecf a5bc 5e61 e0bd cb6d 36be
000003a0: 9a70 68be d26c 01bd bf03 bebd 2dc4 0c3e
000003b0: 2074 463e f2d1 b13e 7d52 b43d ba79 2fbe
000003c0: fa56 66bc 93a0 cdbe 1a41 c9be 4b9d 28be
000003d0: 77a1 0f3e b9e8 ac3d 1835 803d 5f55 753e
000003e0: c60e 90be ba3a bdbd 584f 39bc eef4 90bd
000003f0: ae4c 493e d2fb 92be 78b7 97bd 777e 91be

network_body._body_endoder.seq_layers.2.bias f4 [128]
-0.044873975 0.041613117 -0.0031326124 0.11130114 0.24974339 0.19041634 -0.09278645 0.052451313
-0.14165018 0.047391955 -0.0037926459 -0.07523037 0.10047058 0.14103869 0.13855936 0.13632293
-0.18526839 -0.22838259 0.024188008 0.0709162 0.2403487 0.14880052 -0.0794569 0.32709646
-0.33070272 -0.0957158 -0.09881834 0.110910624 -0.17258036 -0.22189067 -0.0656827 -0.061932996
0.052048635 0.16891149 -0.03344114 -0.040193573 -0.1361626 0.13280742 0.09617734 0.2120186
0.034781206 0.08151775 -0.13598666 -0.28274584 -0.17006913 0.07010663 0.2266833 0.09198954
-0.32975376 -0.17537946 -0.16162427 -0.013603762 0.1349858 -0.10572102 -0.020106379 0.17940612
-0.07066974 -0.09102184 0.110508725 0.25965405 -0.23410104 -0.21477593 -0.034223225 0.35322824
0.06257547 0.051032007 -0.35030103 -0.039799675 -0.04706005 -0.03729579 -0.30841854 0.023156002
-0.1848498 -0.12716992 0.06499728 0.23371948 0.10828017 -0.043607797 -0.087900765 0.3386301
-0.14113478 0.4216721 -0.18702357 0.20307593 0.012370769 0.136601 0.2564876 0.31607547
0.17849424 0.10365211 0.008663657 0.24174118 0.28229153 -0.1773373 -0.047542203 -0.24887305
0.17213722 0.108870804 -0.12571937 0.08694287 0.0440389 0.116389185 0.12057605 0.039535128
0.24591638 0.021597965 0.3854912 0.18818149 -0.019933742 0.034014788 -0.29041943 0.02128916
0.12483002 0.24166988 0.09111985 0.16070388 -0.12782007 0.05704881 0.05688925 -0.26136112
-0.1865902 -0.18627577 0.059090275 -0.029329758 0.017078837 0.08701606 -0.03976617 0.09798142
00000000: c6cd 37bd 8472 2a3d 844c 4dbb daf1 e33d
00000010: bbbc 7f3e 80fc 423e d306 bebd 30d7 563d
00000020: bf0c 11be 111e 423d 0a8e 78bb 6112 9abd
00000030: 85c3 cd3d 726c 103e 81e2 0d3e 3d98 0b3e
00000040: ffb6 3dbe 20dd 69be ee25 c63c 833c 913d
00000050: f81d 763e 2a5f 183e 4dba a2bd 3079 a73e
00000060: de51 a9be a506 c4bd 4561 cabd 1c25 e33d
00000070: e8b8 30be 4f37 63be a784 86bd 74ad 7dbd
00000080: f330 553d 22f7 2c3e 94f9 08bd 04a2 24bd
00000090: 356e 0bbe abfe 073e a0f8 c43d 671b 593e
000000a0: bd76 0e3d c7f2 a63d 1640 0bbe 10c4 90be
000000b0: 9a26 2ebe 1194 8f3d ab1f 683e 0365 bc3d
000000c0: 7cd5 a8be ac96 33be d580 25be 50e2 5ebc
000000d0: b839 0a3e 4384 d8bd 22b6 a4bc 3db6 373e
000000e0: 4cbb 90bd a969 babd 6652 e23d 60f1 843e
000000f0: 2fb8 6fbe 39ee 5bbe a72d 0cbd 55da b43e
00000100: 9127 803d f006 513d a85a b3be fc04 23bd
00000110: 0ac2 40bd 78c3 18bd 09e9 9dbe a8b1 bd3c
00000120: 4449 3dbe d538 02be 4b1d 853d 2954 6f3e
00000130: fec1 dd3d 179e 32bd 5105 b4bd ed60 ad3e
00000140: a385 10be 68e5 d73e 1b83 3fbe 23f3 4f3e
00000150: c4ae 4a3c 22e1 0b3e 5852 833e a5d4 a13e
00000160: 32c7 363e 8f47 d43d 03f2 0d3c 008b 773e
00000170: 8488 903e e997 35be 9dbb 42bd 94d8 7ebe
00000180: bd44 303e a8f7 de3d 94bc 00be 1a0f b23d
00000190: 2262 343d 745d ee3d 93f0 f63d 96ef 213d
000001a0: 81d1 7b3e 37ee b03c 1a5f c53e a6b2 403e
000001b0: 164c a3bc 1753 0b3d dbb1 94be 9b66 ae3c
000001c0: e2a6 ff3d 4f78 773e 0b9d ba3d 8f8f 243e
000001d0: 44e3 02be 03ac 693d b404 693d 20d1 85be
000001e0: 8011 3fbe 13bf 3ebe a508 723d f644 f0bc
000001f0: ebe8 8b3c 7a35 b23d dae1 22bd 7caa c83d

action_model._discrete_distribution.branches.0.weight f4 [7, 128]
-0.38912868 0.022230905 -0.20638202 -0.46620494 -0.21630087 0.1043432 -0.23384075 -0.077009395
0.069812514 -0.029598836 -0.10497581 -0.59782356 -1.218184 0.011815189 0.11969477 -0.09695234
-0.050951473 -0.015852408 -0.33960888 0.2949599 -0.1519779 0.115939006 -0.018742783 -0.028919948
-0.17862907 -0.5754014 -0.03720116 0.031018384 0.05990524 0.2413949 0.26728746 0.6363714
0.097429715 -0.44539738 -0.02406547 0.19776252 0.1899942 -0.00058279483 0.21678883 -0.076547496
0.26875517 0.22309792 -0.07187777 0.40143874 -0.3867369 -0.013023895 0.054916397 0.21274333
0.13236289 -0.01184559 0.15462492 -0.37708288 -0.061651386 -0.24694744 -0.1599014 -0.38901493
-0.22577994 0.04658019 0.19346257 0.06672959 -0.1465816 -0.28010952 -0.034142096 -0.25219196
0.07681113 0.34253943 -0.0023227402 0.30962572 -0.11606155 -0.2064198 -0.39883298 0.12997839
0.0152638545 0.117023535 0.03382528 -0.07630819 0.10251867 0.06731847 -0.48123765 -0.51497227
-0.11133113 0.11591191 0.2528433 -0.44889542 -0.67761123 0.12853521 0.34912437 0.17509474
0.049555175 0.037226528 -0.12752593 0.35171196 0.1508437 -0.70382404 -0.33132634 -0.0016849379
0.05186105 0.15748876 -0.050714407 -0.38964555 -0.320483 -0.32971388 0.27074757 -0.31141624
0.15393966 -0.5446256 0.12964092 0.1318175 -0.48909867 0.050440468 -0.06370799 -0.09804422
0.037985746 -0.045711763 -0.4820416 -0.7379538 -0.068519495 0.044386536 -0.17558774 0.08002341
-0.43515337 -0.18199046 0.08027435 0.07662818 0.17913078 0.055253115 0.40556642 0.14991675
0.11535535 -0.5771691 -0.075769596 0.09188387 -0.2278901 0.15437675 0.32115555 -0.30090895
-0.025045991 0.3412108 -0.45086068 0.38912833 0.12610024 0.14177291 0.19248551 0.09652378
-0.48292953 0.60182095 0.3291251 -0.005714555 -0.13292538 -0.23936379 0.048454266 -0.21240929
0.43528277 0.14994162 0.29193926 0.004402435 0.51779884 0.50104296 -0.1153746 0.1809626
-0.32343233 0.28422052 0.47405753 -0.10901824 0.3658479 0.5570111 -0.40442374 0.5604322
0.37886906 -0.22564213 0.03125581 0.2593338 0.033304553 0.3669317 0.2120156 -0.54202163
0.13564888 0.48900244 0.0005630787 0.17997527 0.5416831 0.1051031 -0.2532793 -0.06830277
0.48327056 -0.018939348 0.14103235 -0.3758101 0.45617706 0.6056895 0.119868204 0.14813304
-0.24311155 0.3879128 0.37144837 -0.46538094 -0.18079044 0.26234215 0.03999233 -0.023204403
0.2742612 -0.19337358 0.18354952 0.2048154 0.35324755 0.09325079 0.115200564 -0.1385686
-0.17164515 -0.08499455 -0.14122039 0.5945037 0.22476937 0.09267 -0.21289212 -0.35525322
0.19779855 0.35478213 0.74826187 0.13403755 -0.06223065 0.15702546 -0.03875739 0.5686497
0.23723444 0.088977225 -0.2141243 0.54837036 -0.63249516 -0.26527295 -0.19258119 0.25049105
0.35612693 -0.015504322 -0.08467827 0.24520732 0.1610322 0.3517788 0.49513376 0.4003718
0.16317014 -0.64707744 0.12004814 0.33462626 0.34427524 0.38873333 0.016885575 0.23638798
0.68045187 0.14458673 0.12851326 -0.27844983 -0.1068856 0.3250903 0.048310325 0.42228636
00000000: e03b c7be 961d b63c cf55 53be 6ab2 eebe
00000010: fa7d 5dbe e3b1 d53d f373 6fbe 1ab7 9dbd
00000020: ddf9 8e3d 4279 f2bc 8ffd d6bd f70a 19bf
00000030: 74ed 9bbf 7f94 413c 8822 f53d f38e c6bd
00000040: 7eb2 50bd e9dc 81bc 37e1 adbe fc04 973e
00000050: 18a0 1bbe 6e71 ed3d 778a 99bc 87e9 ecbc
00000060: 8aea 36be 824d 13bf 3e60 18bd 441a fe3c
00000070: 325f 753d 3a30 773e e7d9 883e 3ce9 223f
00000080: 3b89 c73d 200b e4be f324 c5bc 4282 4a3e
00000090: d78d 423e b3c6 18ba e4fd 5d3e efc4 9cbd
000000a0: 479a 893e c873 643e a734 93bd 6189 cd3e
000000b0: 6102 c6be 2d62 55bc 04f0 603d 63d9 593e
000000c0: 238a 073e 0114 42bc ff55 1e3e 0211 c1be
000000d0: 2a86 7cbd cadf 7cbe 31bd 23be f72c c7be
000000e0: db32 67be dfca 3e3d 0d1b 463e 86a9 883d
000000f0: 7d19 16be 846a 8fbe 95d8 0bbd 4e1f 81be
00000100: 274f 9d3d 5461 af3e 1d39 18bb 4387 9e3e
00000110: aeb1 edbd b65f 53be d633 ccbe 0e19 053e
00000120: 3f15 7a3c 09aa ef3d 608c 0a3d 7847 9cbd
00000130: 4ff5 d13d 44de 893d c864 f6be 39d5 03bf
00000140: 9301 e4bd 3963 ed3d ad74 813e 9fd5 e5be
00000150: ee77 2dbf bc9e 033e 6ec0 b23e 094c 333e
00000160: 5efa 4a3d d87a 183d 2896 02be 9713 b43e
00000170: c576 1a3e d02d 34bf 9ba3 a9be 22d9 dcba
00000180: 416c 543d bc44 213e e9b9 4fbd 9f7f c7be
00000190: 5916 a4be 42d0 a8be 6d9f 8a3e f371 9fbe
000001a0: 5ca2 1d3e 956c 0bbf 97c0 043e 2bfb 063e
000001b0: 246b fabe aa9a 4e3d 5679 82bd 68cb c8bd
000001c0: f196 1b3d 423c 3bbd 28ce f6be 8aea 3cbf
000001d0: f353 8cbd a8ce 353d 46cd 33be 50e3 a33d
000001e0: 6ccc debe b55b 3abe e166 a43d 3cef 9c3d
000001f0: 0f6e 373e 1751 623d 67a6 cf3e c783 193e
00000200: 6d3f ec3d 5bc1 13bf 172d 9bbd 9c2d bc3d
00000210: 065c 69be f014 1e3e 806e a43e bd10 9abe
00000220: 402d cdbc 2fb3 ae3e 36d7 e6be d43b c73e
00000230: 6c20 013e eb2c 113e ec1a 453e 42ae c53d
00000240: 8a42 f7be f010 1a3f 1683 a83e 2941 bbbb
00000250: 971d 08be c81b 75be fb77 463d d281 59be
00000260: 62dd de3e 4c8a 193e 1079 953e 4d42 903b
00000270: 778e 043f 5a44 003f 8549 ecbd 434e 393e
00000280: ec98 a5be 5a85 913e abb7 f23e f444 dfbd
00000290: 6a50 bb3e 4898 0e3f a110 cfbe 7c78 0f3f
000002a0: 20fb c13e bb0e 67be 1806 003d 66c7 843e
000002b0: 5b6a 083d 79de bb3e 9e1a 593e eec1 0abf
000002c0: 8ae7 0a3e 875e fa3e 929b 133a 704b 383e
000002d0: beab 0a3f 4b40 d73d d3ad 81be 53e2 8bbd
000002e0: 3d6f f73e b126 9bbc c96a 103e 2e6a c0be
000002f0: 0a90 e93e 780e 1b3f 767d f53d 30b0 173e
00000300: 3cf2 78be 829c c63e 7b2e be3e 6946 eebe
00000310: 2121 39be b651 863e ffce 233d 2917 bebc
00000320: f76b 8c3e b903 46be 68f4 3b3e 21bb 513e
00000330: dddc b43e 45fa be3d 46ee eb3d ede4 0dbe
00000340: bfc3 2fbe 9f11 aebd 149c 10be 6531 183f
00000350: f129 663e c5c9 bd3d 6400 5abe c0e3 b5be
00000360: b48b 4a3e 01a6 b53e 178e 3f3f 2441 093e
00000370: 91e5 7ebd 48cb 203e 12c0 1ebd 0793 113f
00000380: 96ed 723e b139 b63d 6743 5bbe 0062 0c3f
00000390: 34eb 21bf dbd1 87be 0134 45be 5d40 803e
000003a0: 4556 b63e d705 7ebc cd6b adbd a117 7b3e
000003b0: a0e5 243e 5a1c b43e 2c82 fd3e 88fd cc3e
000003c0: 1316 273e dea6 25bf cddb f53d 2254 ab3e
000003d0: d844 b03e 0e08 c73e 9e53 8a3c b10f 723e
000003e0: 1832 2e3f 8b0e 143e fb98 033e fa90 8ebe
000003f0: d6e6 dabd 3c72 a63e 0ce1 453d eb35 d83e

action_model._discrete_distribution.branches.0.bias f4 [7]
-0.058163907 -0.21866605 0.16870801 0.21533777 -0.5553536 0.20270255 0.22058007
00000000: 473d 6ebd fee9 5fbe cbc1 2c3e 8181 5c3e
00000010: a72b 0ebf 4291 4f3e bedf 613e
