Trained_Policies/WeightAgent_Training/WeightAgent_Training/WeightAgent_Training-8999961.onnx (onnx, 155824 bytes, 6 tensors)

network_body._body_endoder.seq_layers.0.weight f4 [128, 163]
0	0x3d6b126f	0.057390627
1	0xbe2e193a	-0.1700181
2	0x3d9b4bcb	0.07582816
3	0x3e40984f	0.18808101
4	0x3e0c685d	0.13711686
5	0x3dcc2aec	0.09969124
6	0xbd43e9a3	-0.047830235
7	0xbd9ac15b	-0.07556411
8	0x3e67b143	0.22626214
9	0x3e6d1789	0.23153509
10	0x3ceca51a	0.02888732
11	0xbe8791e7	-0.26478502
12	0xbdfc6f1d	-0.12325881
13	0x3e03a206	0.12854776
14	0x3e1c85a8	0.15285361
15	0x3e3249ed	0.17411013
16	0xbe16210a	-0.14661041
17	0xbe3d7eed	-0.1850545
18	0x3e2973a6	0.16548023
19	0x3e6e940a	0.2329866
20	0x3e383eba	0.17992678
21	0xbe025cb4	-0.12730676
22	0xbdba7eea	-0.09106238
23	0x3db55072	0.08853234
24	0x3e99b64a	0.30021888
25	0x3d5dfb09	0.054194484
26	0x3cc60097	0.024170203
27	0x3ba9b367	0.005178857
28	0x3e2876ad	0.16451521
29	0x3e5b1d7f	0.2139797
30	0x3d7f7cdc	0.062374935
31	0xbe8f6268	-0.28004766
32	0x3cb29008	0.021797195
33	0x3e5e6fd3	0.21722345
34	0x3e0604d3	0.13087778
35	0x3de2c6bb	0.11073061
36	0xbca3340b	-0.019922277
37	0xbc5ada9e	-0.013357786
38	0x3d389bef	0.045070585
39	0x3e5a2f0f	0.21307014
40	0x3e0ea41d	0.13929792
41	0xbd3cd51a	-0.046101667
42	0x3bfb9f27	0.0076788845
43	0x3d7d7294	0.06187685
44	0x3e0b8f9d	0.13629003
45	0x3dd9dfb0	0.10638368
46	0x3e0bc5d8	0.1364969
47	0x3cfbfd28	0.030760363
48	0x3dbe6327	0.092962556
49	0x3e6e0206	0.2324296
50	0x3b72b08d	0.0037031502
51	0xbe2628d8	-0.16226518
52	0xbd81e84b	-0.063431345
53	0x3dc8877e	0.09791468
54	0x3e28e4af	0.16493486
55	0xbd07f693	-0.033194136
56	0xbd781a03	-0.06057168
57	0x3cea87f1	0.028629275
58	0x3cf8e632	0.030383203
59	0x3e0eb69b	0.13936846
60	0x3df371b6	0.11886923
61	0xbe62e9b9	-0.2215947
62	0xbd8d01d0	-0.06885111
63	0x3d4c27c5	0.049842615
64	0x3e2ffd95	0.17186578
65	0x3c042048	0.008064337
66	0x3da8b7d3	0.08238187
67	0x3dc46333	0.09589233
68	0x3d4be065	0.049774546
69	0x3e5cb21f	0.21552323
70	0x3db6eab2	0.08931483
71	0xbcdea1b2	-0.027176712
72	0x3d16e090	0.036835253
73	0xbbb03ca7	-0.005378324
74	0x3dec0afe	0.11525534
75	0x3dff16c4	0.12455514
76	0x3d7d492c	0.06183736
77	0x3e15e735	0.1463898
78	0x3db000e2	0.085939184
79	0x3b653d94	0.003497933
80	0x3d73e9bc	0.05954908
81	0x3e3c35f8	0.18379962
82	0x3d810f1a	0.063017085
83	0x3de37ea3	0.111081384
84	0x3ccb8daa	0.024847824
85	0xbd05a983	-0.032632362
86	0x3dc9823a	0.09839292
87	0x3c83239d	0.016008193
88	0xbd73182d	-0.059349228
89	0x3dc3a3c0	0.09552717
90	0x3bca0f28	0.0061663575
91	0x3e7a5b56	0.24448904
92	0x3dd22b64	0.10262182
93	0x3e711abd	0.23545356
94	0x3c363e42	0.011123242
95	0xbdb560b6	-0.08856337
96	0x3de39c45	0.111137904
97	0x3e7b90ff	0.2456703
98	0x3ceffbed	0.029294932
99	0xbc803937	-0.015652282
100	0xbdea39dc	-0.11436817
101	0x3e2434ac	0.16035718
102	0x3e255b75	0.1614817
103	0x3d387806	0.04503634
104	0x3e23c04b	0.15991323
105	0xbe10d0f6	-0.14142212
106	0x3df43a20	0.11925149
107	0x3dc74325	0.09729604
108	0x3e2bb3ad	0.1676776
109	0xbd0b2661	-0.033972148
110	0xbdbd922d	-0.092563964
111	0x3dceb2ab	0.10092672
112	0x3e0af766	0.13570938
113	0xbd9f6f2f	-0.077848785
114	0x3dfe0608	0.12403494
115	0xbda7a762	-0.081862226
116	0x3e304695	0.17214425
117	0xbbf42323	-0.0074504777
118	0x3c96759e	0.018366631
119	0xbd1caef2	-0.03825278
120	0xbde2572d	-0.11051784
121	0x3dda7803	0.10667422
122	0x3dcec63e	0.100964054
123	0x3ce652e6	0.0281157
124	0xbe170546	-0.14748105
125	0xbd097b9d	-0.033565152
126	0x3d99a1b3	0.07501545
127	0x3dd58ee8	0.10427648
128	0xbd22fc30	-0.039791286
129	0xbde8fa3c	-0.113758534
130	0xbe30e0fb	-0.17273323
131	0x3e438ddb	0.19097082
132	0x3e35b2d6	0.17744002
133	0xbddc8340	-0.107672215
134	0x3ca44820	0.020053923
135	0x3d0694e9	0.032856856
136	0x3dacdd4d	0.08440647
137	0x3d649777	0.05580851
138	0x3dc5b9e1	0.09654594
139	0xbe1fad3e	-0.1559343
140	0xbe3d1928	-0.18466628
141	0x3e138d83	0.14409451
142	0x3e57f4bb	0.21089451
143	0x3e0c6db5	0.13713725
144	0x3d33946e	0.043842725
145	0xbe4b762c	-0.19869298
146	0x3e00e755	0.12588246
147	0x3e0932cf	0.13398288
148	0x3dde2700	0.108472824
149	0xbc851fa1	-0.016250433
150	0xbe2fa4b0	-0.17152667
151	0x3e86374f	0.26214072
152	0x3cdebf5e	0.02719086
153	0x3e51addd	0.2047648
154	0xbd2f2577	-0.04276034
155	0xbdf62cc4	-0.12020257
156	0xbece533a	-0.40297872
157	0xbe3b96e7	-0.18319283
158	0xbc6d2d40	-0.0144761205
159	0x3e0eb0a1	0.13934566
160	0x3e084929	0.13309158
161	0x3e110486	0.14161882
162	0x3c3d6544	0.011559788
163	0x3d2139fb	0.039361935
164	0xbe10eef4	-0.14153653
165	0xbba50963	-0.0050365194
166	0x3dd3a119	0.10333461
167	0x3dbe4840	0.09291124
168	0x3e142d8b	0.14470498
169	0xbdd54de1	-0.10415245
170	0x3dfb76f4	0.12278548
171	0x3e26d9c4	0.16294008
172	0x3dc25240	0.09488344
173	0x3e0ffad6	0.1406053
174	0x3d72c118	0.05926618
175	0xbc858acf	-0.01630154
176	0x3d9e6078	0.07733244
177	0x3e4d9740	0.20077229
178	0x3e85bae5	0.26119152
179	0xbd26b81b	-0.04070292
180	0x3c9f04aa	0.019411404
181	0x3e84afa2	0.25915247
182	0x3e6c0599	0.2304901
183	0x3dd44e10	0.10366452
184	0xbd2df739	-0.042472098
185	0xbe2dccab	-0.16972606
186	0xbe2b126e	-0.16706249
187	0x3da383e5	0.07984141
188	0x3dc8f30e	0.09811984
189	0x3e8418ed	0.25800267
190	0x3cbe659b	0.023241809
191	0x3bd24288	0.0064166225
192	0x3dd6a3db	0.10480472
193	0x3b474a32	0.0030409214
194	0x3e0314a2	0.1280084
195	0xbdd8b3f3	-0.105811976
196	0xbd4bd31f	-0.049761888
197	0x3c9ccca9	0.019140558
198	0x3d929bc3	0.071586154
199	0x3cf9f255	0.03051106
200	0x3dd876e8	0.105695546
201	0x3d45fe2b	0.048338097
202	0x3d0d421e	0.034486882
203	0xbd4e0308	-0.05029586
204	0x3e8b3da9	0.2719548
205	0x3d439650	0.04775077
206	0x3cf886b3	0.030337667
207	0xbc0cdd1b	-0.0085976375
208	0x3e61cbb1	0.22050358
209	0x3d26d186	0.04072716
210	0x3cf11a2d	0.029431427
211	0xbd8a60bc	-0.06756732
212	0x3da19404	0.0788956
213	0xbcae112a	-0.021248419
214	0xbe08c083	-0.13354687
215	0xbe182894	-0.1485923
216	0x3d89882d	0.067154266
217	0x3e0a4a48	0.13504899
218	0x3e1b87c6	0.15188512
219	0x3e13f891	0.1445029
220	0xbcef1221	-0.02918345
221	0xbe0ee86f	-0.13955854
222	0x3da4ee6d	0.080532886
223	0x3df29f77	0.11846822
224	0x3d8cd233	0.0687603
225	0xbe6f1951	-0.23349501
226	0x3db72736	0.08943026
227	0x3d233f95	0.03985556
228	0x3dd09b92	0.10185923
229	0xbca815e8	-0.020518258
230	0x3d0e3845	0.03472163
231	0x3b95dfce	0.0045737987
232	0x3dbaceef	0.09121501
233	0xbe62bb07	-0.22141658
234	0x3dffe247	0.12494331
235	0xbe0ec4fc	-0.13942331
236	0x3c9c427e	0.019074675
237	0x3d98a6fd	0.074537255
238	0x3dcaef83	0.099089645
239	0x3e551b7c	0.20811266
240	0x3d5d5970	0.054040372
241	0xbe376ebb	-0.17913334
242	0x3e00eb60	0.12589788
243	0xbd5d1d59	-0.053983066
244	0x3ddc6e3d	0.10763214
245	0x3d042a9d	0.0322672
246	0xbdcc4f8e	-0.09976111
247	0x3d46f7df	0.048576232
248	0x3d5255fb	0.05135153
249	0x3d235478	0.039875478
250	0xbe8c2c5c	-0.27377594
251	0x3cb1b880	0.021694422
252	0x3d5bff78	0.05371043
253	0x3d8114c3	0.06302788
254	0xbc9d81af	-0.019226877
255	0xbdd0fa35	-0.10203973

network_body._body_endoder.seq_layers.0.bias f4 [128]
0	0x3d8fef78	0.07028097
1	0x3d629240	0.055315256
2	0x3b2ef3ae	0.0026695537
3	0xbcea80ad	-0.02862581
4	0x3c157963	0.009123179
5	0x3d423a6c	0.047418997
6	0x3d2a6b1f	0.041606065
7	0xbc7070f0	-0.014675364
8	0xbd0945c2	-0.03351379
9	0x3d0b60e7	0.03402796
10	0x3c9fe7c0	0.019519687
11	0x3c8d31b0	0.017235607
12	0x3ce69ae4	0.02815003
13	0xbb90ee9d	-0.004422976
14	0xbd160104	-0.036622062
15	0x3d81a724	0.06330708
16	0x3d07de39	0.033170912
17	0x3c2bb640	0.0104804635
18	0x3bbd9bb0	0.0057863817
19	0xbd2e72e1	-0.042590026
20	0xbd03945d	-0.032123912
21	0x3c96975d	0.018382723
22	0x3c949db7	0.01814161
23	0x3d432719	0.04764471
24	0x3c9afaec	0.018918477
25	0x3d0c5825	0.03426375
26	0x3c1c51ef	0.009541019
27	0x3c1b2737	0.009469799
28	0xbd598aa9	-0.053110752
29	0xbb8e9a59	-0.004351896
30	0x3d12b91f	0.035821076
31	0x3c88f000	0.016716003
32	0x3b484bf0	0.003056284
33	0xbd58da98	-0.052942842
34	0x3d0f36ad	0.034964252
35	0x3c6220c6	0.013801759
36	0xbc2c7e09	-0.010528096
37	0x3bde510d	0.0067845643
38	0xbc46451b	-0.012101437
39	0x3cc81f92	0.024429116
40	0x3cf6a1f0	0.030106515
41	0xbca69a0e	-0.02033713
42	0x3cf36294	0.029710092
43	0x3cabd5d2	0.02097598
44	0x3d88cd71	0.0667981
45	0x3d9526e4	0.072828084
46	0x3b4edeac	0.0031565828
47	0x3aa82928	0.0012829648
48	0xbcac64fd	-0.021044249
49	0xbd1ab8ac	-0.037773773
50	0x3d12c98a	0.035836734
51	0xbc42e235	-0.011894752
52	0xbd670235	-0.05639859
53	0x3c3fca44	0.011705939
54	0x3da27af8	0.07933611
55	0x3caf5b5a	0.021405865
56	0x3ca3e7f5	0.020008067
57	0x3cfc07cf	0.030765442
58	0xbd8436a5	-0.06455735
59	0xbbbf353f	-0.005835205
60	0x3d217487	0.03941777
61	0x3da373e3	0.07981088
62	0xbce00201	-0.027344706
63	0xbd230964	-0.039803877
64	0x3cc042db	0.02346938
65	0x3ce65b6c	0.028119765
66	0x3cf96e1a	0.030448008
67	0x3c41fe7c	0.011840459
68	0x3d272cd8	0.04081425
69	0x3d073350	0.03300792
70	0x3d85bf0b	0.06530579
71	0x3d6d43ef	0.057926115
72	0x3cbe6577	0.023241742
73	0xbc6d0baf	-0.014468118
74	0xbcef0909	-0.029179113
75	0x3d7f6f35	0.062361915
76	0xbca0b4a2	-0.019617382
77	0xbcfc19c0	-0.030773997
78	0x3c235981	0.00997007
79	0xbca821e8	-0.02052398
80	0xbd21073d	-0.039313544
81	0x3d8facc8	0.07015377
82	0x3bd1ff62	0.006408618
83	0xbb7a4a3f	-0.0038191227
84	0xbcc731b9	-0.024315702
85	0x3d68a7fe	0.056800835
86	0x3ba5576f	0.0050458233
87	0xbce72460	-0.028215587
88	0x3cb68249	0.022278922
89	0x3d3493f1	0.0440864
90	0x3c51b051	0.012798385
91	0x3d094088	0.033508807
92	0xbbad63e2	-0.005291448
93	0x3c03a985	0.008036022
94	0xbd08fa41	-0.033441786
95	0x3d83a4b4	0.06427899
96	0x3d82d19c	0.06387636
97	0xbcbede88	-0.02329947
98	0xbd0314c9	-0.032002244
99	0x3cc1f4a3	0.023676222
100	0xbd7a536f	-0.061114725
101	0xbca5207a	-0.020157088
102	0x3ceb0e43	0.028693324
103	0x3d44292e	0.047890835
104	0xbd4524a8	-0.04813066
105	0x3d286e19	0.041120622
106	0x3c234886	0.009966021
107	0x3cbb051b	0.022829583
108	0xbcc10c24	-0.02356536
109	0x3d910aa9	0.070821114
110	0xbc5a37e3	-0.0133189885
111	0x3c214bb3	0.009844708
112	0x3cc8ff00	0.024535656
113	0xbd4b4559	-0.049626682
114	0x3d2b08ce	0.041756444
115	0x3d220d89	0.03956369
116	0x3c1ba87d	0.00950062
117	0xbd1e95eb	-0.03871719
118	0xbb9506c2	-0.0045479247
119	0xbd8fcac3	-0.070210956
120	0x3d4a937e	0.049457066
121	0xbcdbbe9f	-0.026824294
122	0x3da25777	0.07926839
123	0x3cb6aeef	0.022300212
124	0x3d14d310	0.036334097
125	0xbb97030e	-0.0046085184
126	0x3ccbd78d	0.024883056
127	0x3c7f2cbd	0.015574631

network_body._body_endoder.seq_layers.2.weight f4 [128, 128]
0	0x3e1c2a58	0.15250528
1	0xbd4e7e7c	-0.050413594
2	0xbe146769	-0.14492573
3	0xbe786abb	-0.24259464
4	0xbd56f565	-0.05248012
5	0x3da7f76b	0.08201488
6	0xbe0e01a1	-0.13867809
7	0xbe3eb4a3	-0.18623595
8	0xbe84198b	-0.25800738
9	0x3c7ce7c2	0.015436115
10	0x3e16093a	0.14651957
11	0x3d43e752	0.047828026
12	0x3e27ac67	0.1637436
13	0xbc6b8e89	-0.014377245
14	0xbcaf0a48	-0.021367207
15	0xbd7d7286	-0.061876796
16	0x3e4c3538	0.19942176
17	0x3de18142	0.11010982
18	0xbd7f0bf2	-0.06226725
19	0xbdfc3df7	-0.12316506
20	0xbcdbdcfc	-0.026838772
21	0x3e4d326f	0.2003877
22	0xbc9d5a42	-0.019208077
23	0xbd64e902	-0.055886276
24	0xbde4acaf	-0.11165749
25	0xbe8424da	-0.25809366
26	0x3d6ff5ae	0.058583908
27	0x3db920e3	0.09039476
28	0xbe2129f1	-0.15738656
29	0xbe0f0bff	-0.1396942
30	0xbd72685f	-0.059181567
31	0xbde379f6	-0.111072466
32	0x3c8e52e0	0.017373502
33	0xbc8fdf88	-0.017562643
34	0xbe0944d6	-0.13405165
35	0x3d74c66f	0.059759554
36	0xbde4d8bc	-0.11174151
37	0xbd07b3e8	-0.033130556
38	0xbce22255	-0.027604261
39	0x3c808ee8	0.015693143
40	0xbd83b4bd	-0.064309575
41	0x3e07a82c	0.13247746
42	0xbcd51115	-0.026009122
43	0xbbde4d24	-0.006784098
44	0x3e50e706	0.20400628
45	0xbdfc5d4f	-0.12322485
46	0x3d865e85	0.06560997
47	0xbd5a2f15	-0.053267557
48	0x3d41d108	0.04731849
49	0xbd289c9b	-0.041164976
50	0x3dc5f6f2	0.09666242
51	0xbe7380b0	-0.23779559
52	0xbda04918	-0.078264415
53	0xbdc02236	-0.09381525
54	0xbd0ecbb3	-0.03486223
55	0x3de4ebd9	0.11177797
56	0xbdd857ce	-0.105636224
57	0x3e5f2417	0.21791111
58	0x3daf2949	0.085527964
59	0xbe8551e9	-0.26039055
60	0x3d8504a7	0.06495028
61	0x3d60ce12	0.054884024
62	0xbc67b861	-0.01414308
63	0x3cd81f0c	0.026381992
64	0x3c3f552b	0.0116780205
65	0xbd1956b4	-0.037436202
66	0x3c9efb82	0.019407038
67	0x3d46d416	0.048542105
68	0x3dcdf334	0.10056153
69	0xbd926748	-0.071486056
70	0x3e81dc21	0.25363258
71	0x3d1b4feb	0.037918013
72	0xbe28c0f3	-0.16479854
73	0x3dc852eb	0.0978144
74	0xbd8cb294	-0.068699986
75	0x3d99f475	0.075173296
76	0x3d1ccfc1	0.038284067
77	0x3e212dac	0.15740079
78	0xbdb483fe	-0.08814238
79	0x3d980460	0.074227095
80	0x3c8feb8a	0.017568368
81	0xbd02ffde	-0.031982295
82	0x3ccef2d5	0.025262276
83	0xbe309e58	-0.17247903
84	0xbe027cd5	-0.12742932
85	0xbe13ef18	-0.14446676
86	0x3cfa094b	0.03052201
87	0xbd9d76a4	-0.076886445
88	0x3da1b6a2	0.078961626
89	0xbcb963bb	-0.022630563
90	0xbd8c96b4	-0.06864682
91	0x3dc2f14d	0.09518681
92	0x3e166e4a	0.1469051
93	0xbdb0be27	-0.08630019
94	0xbe33b690	-0.17550111
95	0x3dc1f8b6	0.09471266
96	0xbc9fec3e	-0.019521829
97	0xbd73864d	-0.05945425
98	0xbdb7a8fe	-0.089677796
99	0xbd639636	-0.055563174
100	0x3d8cdc4e	0.06877957
101	0xbdbfe07c	-0.09368989
102	0xbd30f688	-0.04320386
103	0x3d95027f	0.07275867
104	0x3dc0214d	0.093813516
105	0x3de060fa	0.10955997
106	0xbe051343	-0.12995629
107	0x3d8e2f04	0.06942561
108	0x3d08e6a2	0.033423074
109	0xbdbdef9b	-0.09274217
110	0xbd86a96b	-0.06575283
111	0xbd919178	-0.07107824
112	0x3bd2a420	0.0064282566
113	0x3d4f13cd	0.050555993
114	0x3c1cd63d	0.009572563
115	0x3ce07527	0.027399613
116	0xbe25ce52	-0.16191986
117	0xbd6cc39f	-0.057803746
118	0xbdcac205	-0.099002875
119	0xbe718b12	-0.23588207
120	0xbda90d03	-0.08254435
121	0x3d6001b4	0.054689124
122	0x3d00eab5	0.031473834
123	0x3e031183	0.12799649
124	0xbde3399f	-0.11094975
125	0xbd5002b5	-0.05078383
126	0x3dc6347e	0.09677981
127	0xbe1ce980	-0.15323448
128	0x3aa43718	0.0012528626
129	0xbe1c81b2	-0.1528385
130	0xbd548fcb	-0.051894944
131	0xbda0bfdc	-0.07849094
132	0xbda39728	-0.07987815
133	0xbda56949	-0.08076722
134	0x3c1b09a7	0.0094627505
135	0x3cc23064	0.023704715
136	0x3daae475	0.08344356
137	0xbd20a8e7	-0.039223578
138	0xbc9f9435	-0.01947985
139	0x3d591763	0.05300082
140	0x3da7c555	0.08191935
141	0xbd924e51	-0.07143844
142	0x3dd0e202	0.101993576
143	0x3c4b1343	0.012394729
144	0xbb62dd01	-0.0034616592
145	0xbe077a7a	-0.13230315
146	0xbc79937b	-0.015232916
147	0xbe70d033	-0.23516922
148	0xbdbd2e25	-0.09237317
149	0x3dcb5efc	0.09930226
150	0xbbbded8d	-0.0057961405
151	0xbde0576b	-0.10954174
152	0xbce0538f	-0.027383594
153	0xbe18ea8a	-0.1493322
154	0xbd0c0054	-0.03418
155	0xbbd6c4aa	-0.006554206
156	0xbdb329ae	-0.08748184
157	0xbdef19c6	-0.11674838
158	0x3d0cd93d	0.034386862
159	0xbd7d344b	-0.06181745
160	0x3c92c22e	0.017914858
161	0x3de1d71e	0.110273585
162	0xbe322868	-0.17398226
163	0x3d51dd78	0.0512366
164	0x3db913c1	0.09036971
165	0xbd649fbb	-0.055816393
166	0xbd31bb66	-0.043391608
167	0x3df1ca10	0.118061185
168	0xbe0006d1	-0.125026
169	0xbdf29ce8	-0.11846334
170	0xbca25a4b	-0.019818446
171	0xbd96aee5	-0.07357577
172	0x3e0569de	0.13028666
173	0xbd277af1	-0.04088873
174	0x3c2455bf	0.010030209
175	0xbd43fb26	-0.047846936
176	0x3d55c073	0.052185487
177	0xbcc838f7	-0.024441225
178	0xbe1b07b6	-0.1513966
179	0x3d855d6a	0.06511958
180	0xbdac224a	-0.084049776
181	0xbd6754d0	-0.056477368
182	0x3d893dc6	0.067012355
183	0x3c421848	0.011846609
184	0xbe2f1d02	-0.1710091
185	0xbdc123ca	-0.09430654
186	0x3d83a066	0.06427078
187	0xbe079b11	-0.13242747
188	0xbd55fdf2	-0.052244134
189	0x3d8bbf94	0.0682365
190	0x3e0a8bb8	0.13529861
191	0x3da8f9ac	0.08250746
192	0xbdfef070	-0.124482036
193	0x3e19e5d5	0.1502908
194	0x392607b2	0.0001583386
195	0xbc80515e	-0.015663799
196	0x3cdfd3a3	0.027322596
197	0xbe715f3c	-0.23571485
198	0xbd81347b	-0.06308838
199	0xbe41bb45	-0.18919094
200	0xbd31f3dd	-0.043445457
201	0xbcdb5ea8	-0.026778534
202	0x3cec46bb	0.02884232
203	0xbda517ae	-0.08061157
204	0xbd9ff9df	-0.07811331
205	0x3d80691b	0.06270047
206	0x3d6c4db6	0.0576913
207	0xbda096c1	-0.07841254
208	0x3d5c1ef9	0.053740475
209	0x3c075f2a	0.008262435
210	0xbe4c645a	-0.19960156
211	0xbe3e0b5c	-0.18559021
212	0xbd0c6173	-0.034272622
213	0xbe219e39	-0.15783013
214	0x3e14baf4	0.14524442
215	0x3d0ae427	0.03390899
216	0x3ddde318	0.1083433
217	0xbe1d6bce	-0.15373155
218	0x3de602a2	0.11230971
219	0x3cc576c5	0.024104485
220	0x3c1975f1	0.009366498
221	0x3d682aa5	0.056681294
222	0x3d9d4bfd	0.07680509
223	0x3dcc4a41	0.099751
224	0xbddcdaee	-0.10783945
225	0xbe1646c3	-0.14675431
226	0x3e3366a7	0.17519628
227	0x3d2a15be	0.04152464
228	0x3d10115b	0.0351728
229	0x3ca7ad67	0.020468427
230	0x3cccbc02	0.024991993
231	0x3cc3fe3e	0.023924943
232	0x3da9dbf4	0.08293906
233	0xbe4ab81f	-0.19796799
234	0xbd3b6d38	-0.045758456
235	0x3d23a170	0.03994888
236	0x3ddb032e	0.10693966
237	0xbdadbd2c	-0.08483347
238	0x3dc0a56c	0.09406552
239	0x3cd44fc1	0.025916936
240	0x3cc673ef	0.024225203
241	0x3c932c68	0.01796551
242	0xbeaa9c22	-0.33322245
243	0xbe347cd2	-0.1762574
244	0xbe127516	-0.14302477
245	0x3d3fa048	0.046783715
246	0xbe27461c	-0.16335338
247	0xbe53c12c	-0.20679158
248	0xbdfe2b13	-0.124105595
249	0xbdfadab0	-0.122487426
250	0xbc258a63	-0.010103795
251	0xbdf3bc9c	-0.11901209
252	0xbd53a22b	-0.051668327
253	0xbd38ab36	-0.045085154
254	0x3d7a5819	0.061119173
255	0xbe329310	-0.17438912

network_body._body_endoder.seq_layers.2.bias f4 [128]
0	0x3c66150d	0.014043105
1	0xbd8a1b36	-0.06743471
2	0x3c86fe30	0.016478628
3	0xbd950ea8	-0.07278186
4	0x3c0a9655	0.0084586935
5	0xbd636568	-0.05551663
6	0xbd9922d3	-0.07477345
7	0x3c23cd69	0.009997704
8	0xbd5efa7a	-0.05443809
9	0x3d9f1db7	0.077693395
10	0x3d1f1559	0.038838718
11	0x3cbdc1b4	0.023163654
12	0xbb548ed0	-0.0032433756
13	0xbd5d953c	-0.0540974
14	0x3bd6c49e	0.0065542003
15	0x3d1f1730	0.038840473
16	0x3d48de2a	0.049039997
17	0x3cba83a3	0.022767847
18	0xbd555a25	-0.05208792
19	0x3d529322	0.051409848
20	0x3cd326f3	0.025775408
21	0x3c8b1326	0.016976904
22	0xbc0aea97	-0.008478782
23	0xbcacbfee	-0.021087613
24	0x3d3b3da1	0.04571307
25	0x3c2fa86b	0.010721306
26	0x3cfbef8d	0.030753875
27	0xbd68775e	-0.056754462
28	0xbcb6cbe0	-0.022314012
29	0xbd67d6fd	-0.056601513
30	0x3d3d76b8	0.046255797
31	0xbc48cd7c	-0.012256023
32	0xbbe5d4b1	-0.00701388
33	0xbd9954df	-0.07486891
34	0x3d4a6af0	0.04941839
35	0xbd8230b8	-0.063569486
36	0xbd956dd8	-0.07296342
37	0x3cc3ce9c	0.02390223
38	0xbd0b9a9c	-0.034082994
39	0x3d2ce835	0.042213637
40	0xbd9db7dd	-0.07701085
41	0x3cc5bd32	0.024138067
42	0x3d0819ad	0.03322761
43	0x3c8e50d0	0.017372519
44	0x3d3942cc	0.045229718
45	0x3d0a023a	0.03369353
46	0xbcef5b7e	-0.029218432
47	0x3cab85aa	0.02093776
48	0x3cfb5bf1	0.03068349
49	0x3d1f2625	0.038854737
50	0xbc385963	-0.01125178
51	0xbd86bf3a	-0.06579442
52	0x3d274c8d	0.04084449
53	0x3d62df32	0.055388637
54	0xbd2d8474	-0.042362645
55	0x3d4a6006	0.04940798
56	0x3d88a6af	0.06672417
57	0x3c8cc9b5	0.017186025
58	0x3d5d3345	0.054003973
59	0x3bd13fe6	0.006385791
60	0xbda0a7d2	-0.07844509
61	0x3d40abda	0.04703889
62	0xbd3e847b	-0.046513062
63	0x3d0e1634	0.034689143
64	0x3c533cd0	0.012892917
65	0x3c5f37a7	0.013624108
66	0x3c876e36	0.016532045
67	0x3d2a266a	0.04154054
68	0xbd562882	-0.052284725
69	0x3c753e82	0.014968516
70	0xbd5c1ef9	-0.053740475
71	0x3d238f72	0.039931722
72	0x3c9e86ca	0.019351382
73	0x3d1ca93b	0.03824733
74	0xbc23313d	-0.00996047
75	0xbc8cf418	-0.017206237
76	0x3b514108	0.003192963
77	0x3d1cd736	0.03829118
78	0x3d4aee62	0.049543746
79	0xbcb86584	-0.022509344
80	0x3c952319	0.018205212
81	0xbc874644	-0.016512997
82	0x3d94208a	0.07232769
83	0xbcd3cbf5	-0.02585409
84	0xbd27ddd6	-0.040983044
85	0x3c9f1c6e	0.019422736
86	0x3d0d0dfb	0.03443716
87	0x3cc83a02	0.024441723
88	0x3cd4dc34	0.025983907
89	0x3d1f1a9e	0.038843744
90	0x3da77359	0.08176298
91	0xbbd3d115	-0.0064641335
92	0xbbc1c41d	-0.005913271
93	0x3cbee8b6	0.023304325
94	0xbcbe0d4c	-0.0231997
95	0x3d3ec523	0.046574723
96	0x3d2ae802	0.041725166
97	0x3ba0befd	0.00490558
98	0x3c9b6ba3	0.018972224
99	0xbce9d7b3	-0.028545236
100	0xbbf269e4	-0.007397877
101	0x3cbd917d	0.023140663
102	0x3d00d18e	0.031449847
103	0x3cfd9179	0.030953156
104	0x3cca0aa1	0.024663271
105	0xbd901b05	-0.070364036
106	0x3d54d83c	0.05196403
107	0x3d859ae2	0.06523682
108	0xbb769e95	-0.0037631143
109	0x3ca9a820	0.020710051
110	0x3c355744	0.011068169
111	0x3c252111	0.010078684
112	0x3d88376f	0.06651198
113	0xbd73eb9b	-0.059550863
114	0x39b5fcef	0.0003471146
115	0xbd285a38	-0.041101664
116	0x3d86140c	0.065467924
117	0x3d7817a6	0.060569428
118	0x3c8a6ada	0.016896654
119	0x3d05ce09	0.032667194
120	0x3b267135	0.0025397066
121	0xbd56ac18	-0.052410215
122	0x3d842bca	0.064536646
123	0x3d4d10a3	0.050064694
124	0xbd995eb1	-0.07488764
125	0xbd147a70	-0.036249578
126	0x3c8b6662	0.017016593
127	0xbd03501e	-0.032058828

action_model._discrete_distribution.branches.0.weight f4 [7, 128]
0	0xbde358f4	-0.11100951
1	0x3d861cd0	0.06548464
2	0x3ac6f6d1	0.0015179758
3	0xbd5dad71	-0.054120485
4	0x3d06657d	0.03281163
5	0xbd05e44f	-0.032688435
6	0xbd7b60f0	-0.061371744
7	0x3bbaf37a	0.005705294
8	0xbcd84a75	-0.026402691
9	0x3c490f41	0.012271703
10	0x3ce0e1b8	0.027451381
11	0x3bc69322	0.00606002
12	0xbd9ef856	-0.0776221
13	0xbcdde05c	-0.027084522
14	0x3cdcffe0	0.02697748
15	0xbd042070	-0.032257497
16	0x3d45dc23	0.04830564
17	0x3d4194e5	0.047261138
18	0xbd23a59f	-0.03995287
19	0xbc2145ca	-0.009843299
20	0x3d16c320	0.03680718
21	0xbd652c1f	-0.05595028
22	0xbd7ee8eb	-0.062233847
23	0xbc25dc32	-0.010123299
24	0xbc350c36	-0.011050275
25	0x3b5622be	0.0032674517
26	0x3dc9650f	0.098337285
27	0xbd0de37b	-0.03464077
28	0x3d4f5114	0.05061443
29	0xbcdb61d3	-0.026780045
30	0xbd00c8b5	-0.03144141
31	0xbcb6453b	-0.022249809
32	0xbce32a3d	-0.027730102
33	0xbd262200	-0.04055977
34	0xbca33f4c	-0.019927643
35	0xbccf1442	-0.025278214
36	0xbd2a1798	-0.041526407
37	0xbb3d1efb	-0.0028857577
38	0xbc8fe75e	-0.01756638
39	0xbbb3f540	-0.0054918826
40	0xbcb02f45	-0.021506915
41	0xbd823493	-0.06357684
42	0x3d56679b	0.0523449
43	0x3cfc0a96	0.030766767
44	0xbcef708e	-0.029228475
45	0x3bc1306b	0.0058956644
46	0xbcf3ee17	-0.029776616
47	0x3b8292bc	0.0039847773
48	0xbd664114	-0.056214407
49	0x3ce8a921	0.02840096
50	0x3bda2da7	0.006658274
51	0xbd6d6020	-0.057953
52	0x3d261487	0.04054692
53	0xbc85f842	-0.01635373
54	0x3b662cd1	0.0035121928
55	0x3d0918c6	0.03347089
56	0x3cec829b	0.028870871
57	0xbd945636	-0.07243006
58	0x3d0a28bf	0.033730265
59	0xbc4a96a3	-0.012365016
60	0x3bdef297	0.0068038213
61	0x3d7de46a	0.06198541
62	0xbd31e6cf	-0.043433007
63	0xbd259870	-0.04042858
64	0xbdda3b47	-0.106558375
65	0x3d13fcc5	0.03612973
66	0x3cca5c0f	0.0247021
67	0x3cd845fd	0.02640056
68	0xbc6979a9	-0.014250197
69	0x3c80406c	0.015655719
70	0xbd76ea17	-0.06028184
71	0x3d1e110b	0.038590472
72	0x3cd1af1f	0.0255962
73	0x3c8f0298	0.017457291
74	0x3ca703e7	0.020387603
75	0xbc4c245e	-0.0124598425
76	0xbd1902bd	-0.037356127
77	0xbd05fee0	-0.03271377
78	0x3d25811f	0.040406343
79	0xbb55f568	-0.0032647494
80	0x3be9b132	0.007131719
81	0x3c9d708c	0.019218706
82	0x3d70cddc	0.058790073
83	0x3d1069e3	0.03525723
84	0x3c16b843	0.009199205
85	0x3c2ecccf	0.010668947
86	0xbc05553b	-0.008137996
87	0xbd3720b2	-0.044708915
88	0x3d0c5887	0.034264114
89	0x3c88e880	0.016712427
90	0x3d0a7d93	0.033811163
91	0x3c827980	0.015927076
92	0x3cc850b2	0.024452541
93	0x3d0642fa	0.032778718
94	0xbc9ef9b5	-0.019406179
95	0x3d0d9837	0.03456899
96	0xbd4a572d	-0.049399544
97	0x3c30f65e	0.010800926
98	0x3d07331d	0.03300773
99	0x3be6542c	0.007029077
100	0x3d0a6632	0.033788867
101	0x3d72e55d	0.05930077
102	0x3dc14403	0.094368
103	0x3c550c90	0.013003483
104	0x3d468756	0.04846891
105	0xbbfe2f09	-0.007757072
106	0x3d885f98	0.06658858
107	0x3af39abb	0.0018585542
108	0xbcee7023	-0.029106205
109	0x3cc2590f	0.023724107
110	0x3ce99915	0.028515378
111	0x3cf0aac6	0.029378306
112	0x3ccdeeb5	0.025138238
113	0xbd2a2721	-0.041541222
114	0x3a54ef7c	0.0008122844
115	0xbd3cce29	-0.046095047
116	0x3d798353	0.060916256
117	0x3a8fd149	0.0010972406
118	0x3c84b865	0.016201207
119	0x3d169025	0.03675856
120	0x3d4c6981	0.049905304
121	0xbcf177d9	-0.029476093
122	0x3b6da586	0.003626199
123	0x3cc0fbd7	0.023557587
124	0xbc36fbce	-0.011168433
125	0x3d02d21e	0.031938665
126	0x3c251890	0.010076657
127	0xbd864769	-0.06556589
128	0x3d8e8bf1	0.069602855
129	0x3bf0f213	0.0073530762
130	0x3bb651b7	0.0055639404
131	0x3c767386	0.015042191
132	0x3be4bb50	0.006980337
133	0x3d5da937	0.054116454
134	0x3d3b51cb	0.0457323
135	0x3dfbb771	0.12290848
136	0x3d96f4c6	0.073709056
137	0xbc6dfcaf	-0.0145255765
138	0xbb73eda0	-0.0037220493
139	0x3c24ec14	0.010066051
140	0x3d66d85f	0.05635869
141	0x3d3173b2	0.043323226
142	0xbd42cd30	-0.047558963
143	0x3d54fb78	0.05199763
144	0x3cd7505b	0.026283434
145	0x3c6bff80	0.014404178
146	0x3d27da67	0.04097977
147	0x3d2d34bd	0.042286623
148	0x3bfe3df8	0.007758852
149	0x3da54e31	0.080715545
150	0x3c900e72	0.017585013
151	0x3d90f65b	0.070782386
152	0x3d92215c	0.07135269
153	0x3d4d8bf1	0.050182287
154	0x3cea651b	0.028612664
155	0xbbe4b544	-0.0069796164
156	0x3c85e6aa	0.01634534
157	0x3b9ec516	0.004845272
158	0xbcbba19b	-0.022904208
159	0x3da90e4d	0.08254681
160	0x3d360b4b	0.044444364
161	0x3c422edf	0.011851995
162	0x3d06074e	0.03272181
163	0x3d10e264	0.035372153
164	0x3d298ec6	0.041395925
165	0x3a3b4538	0.0007143798
166	0x3d31ef35	0.043441016
167	0x3dc79bc4	0.09746507
168	0x3d1f9d1f	0.0389682
169	0x3dce0177	0.10058873
170	0x3d419fa8	0.0472714
171	0x3d44398b	0.04790644
172	0x3ddf76aa	0.10911305
173	0xbc384561	-0.01124701
174	0x3b0a1f2c	0.0021075709
175	0x3d1eee1c	0.038801298
176	0xbc59fe92	-0.013305323
177	0xbd8983fc	-0.06714627
178	0xbc19de35	-0.009391357
179	0x3d8acf99	0.06777877
180	0x3cae042f	0.02124223
181	0x3d40bcf7	0.04705521
182	0x3d0c9476	0.03432127
183	0xbd02adf1	-0.031904165
184	0xbd1be41a	-0.03805933
185	0x3da2b1dc	0.0794408
186	0xbc6f3501	-0.014600039
187	0xbc68f06c	-0.014217477
188	0xbcec943a	-0.028879274
189	0xbd87afc7	-0.06625324
190	0x3ca7f507	0.02050258
191	0xba7ec0f9	-0.0009718086
192	0x3d858eb5	0.0652136
193	0x3be2dc64	0.0069232453
194	0xbcc30e6f	-0.023810593
195	0x3d384fc5	0.04499795
196	0x3daa07ea	0.08302291
197	0x3d9b788f	0.07591354
198	0xbb57024a	-0.003280776
199	0xbd73d315	-0.059527475
200	0x3d4fed59	0.05076346
201	0x3da06c9d	0.07833216
202	0x3c9f0782	0.01941276
203	0x3db2862f	0.08717
204	0x3deb0f65	0.11477546
205	0x3cb1187e	0.021618124
206	0xbdd4d8d4	-0.10392919
207	0x3abbb914	0.0014322125
208	0x3da39cba	0.079888776
209	0xbd309ed9	-0.04312024
210	0xbd573425	-0.052539963
211	0x3d2377c6	0.039909147
212	0x3d4c6007	0.049896266
213	0xbce9abb2	-0.028524254
214	0x3d040f77	0.03224131
215	0x3c9bf93a	0.019039739
216	0x3caa026e	0.020753112
217	0xbd1254cb	-0.035725396
218	0xbb377ccb	-0.0027997966
219	0x3cdea9af	0.02718052
220	0x3dee91f6	0.116489336
221	0x3dd4ea78	0.10396284
222	0xbc9a876f	-0.018863408
223	0x3d0c85aa	0.03430716
224	0xbc67a194	-0.014137644
225	0x3d023c95	0.031796057
226	0x3c9cd6d2	0.019145403
227	0x3d84dfc1	0.0648799
228	0xbc141fe8	-0.00904081
229	0x3d4827f1	0.048866216
230	0xbd9cae72	-0.0765046
231	0xbc294b88	-0.010332949
232	0xbcfe084b	-0.031009814
233	0xbc081179	-0.008304947
234	0xbde8114e	-0.113314256
235	0xbd951577	-0.07279485
236	0x3e018dd1	0.12651755
237	0x3d06d8e3	0.032921683
238	0xbc5b9214	-0.013401527
239	0x3dc1cf4b	0.09463366
240	0xbdbf504f	-0.093414895
241	0x3d36dc47	0.044643667
242	0x3ca1bb5f	0.019742666
243	0x3d1130fd	0.03544711
244	0xbd8fa1af	-0.070132606
245	0xbd683c3e	-0.056698076
246	0x3d185a34	0.0371954
247	0xbc02538e	-0.007954491
248	0x3cdffd62	0.027342502
249	0x3d38e825	0.045143265
250	0x3d38acda	0.04508672
251	0xbe112a53	-0.14176302
252	0xbca367c7	-0.019946946
253	0xbd7f795e	-0.062371604
254	0x3da79139	0.08181996
255	0x3d5d705e	0.05406224

action_model._discrete_distribution.branches.0.bias f4 [7]
0	0x3d139194	0.036027506
1	0xbc36b03b	-0.011150415
2	0x3d258ffa	0.04042051
3	0xbe4e2f5c	-0.20135254
4	0xbd6fbfd6	-0.05853256
5	0xbc0c1f20	-0.008552343
6	0x3ca0ee23	0.019644802
