Trained_Policies/WeightAgent_Training/WeightAgent_Training/WeightAgent_Training-243999989.onnx (onnx, 155824 bytes, 6 tensors)

network_body._body_endoder.seq_layers.0.weight f4 [128, 163]
0	0x3e981241	0.29701427
1	0xbef554e7	-0.47916338
2	0x3d5fb80a	0.054618873
3	0x3e3d3390	0.18476701
4	0x3eddf295	0.43349138
5	0xbd3c0797	-0.045905676
6	0xbee3b3e5	-0.44473186
7	0xbe933921	-0.28754523
8	0x3dff3f90	0.124632955
9	0x3f3818bb	0.71912736
10	0x3ea061d2	0.3132463
11	0xbe4cb936	-0.19992527
12	0x3ecd2116	0.40064305
13	0xbaf7b1c6	-0.0018897585
14	0x3e2e2999	0.17008056
15	0xbda654ce	-0.08121644
16	0xbeae61e0	-0.34059048
17	0xbf67f95f	-0.90614885
18	0x3c444b42	0.0119808335
19	0x3f034668	0.51279306
20	0x3efd2ce2	0.49448305
21	0xbca83727	-0.020534111
22	0x3f2de472	0.67926705
23	0x3eb72e13	0.3577734
24	0xbf074944	-0.5284617
25	0xbeb3ab8b	-0.35091814
26	0xbeb08880	-0.3447914
27	0xbee9161a	-0.45524675
28	0xbe89268a	-0.26787215
29	0x3ed7f18f	0.42176482
30	0x3e55649c	0.2083916
31	0x3d1d647e	0.038425915
32	0x3f11c443	0.56940097
33	0x3e1083a6	0.1411272
34	0xbf1651d0	-0.58718586
35	0xbe784a8a	-0.24247184
36	0xbf2a31c1	-0.6648217
37	0xbe4a770b	-0.19771974
38	0xbe3c24df	-0.1837344
39	0x3e73c505	0.23805626
40	0x3e2fce70	0.17168593
41	0x3e2baedb	0.16765921
42	0x3f0dd859	0.55408245
43	0x3e770763	0.24123912
44	0xbf1c3bbe	-0.6102866
45	0xbed40e74	-0.41417277
46	0xbf018dcf	-0.5060701
47	0x3c78b7e0	0.015180558
48	0xbe2d3e6e	-0.16918346
49	0x3da4f6ea	0.080549076
50	0x3f0abec6	0.5419735
51	0x3e9c775f	0.30559823
52	0x3dead8c2	0.114671245
53	0x3f1ef2fa	0.620895
54	0xbe917c51	-0.28415158
55	0xbeaee2f5	-0.3415753
56	0x3d820596	0.06348722
57	0x3e6cd21b	0.23127024
58	0xbe3bf57d	-0.18355365
59	0x3ea25e68	0.3171265
60	0x3ece16e2	0.40251833
61	0x3dcdb702	0.100446716
62	0x3e885488	0.26626992
63	0x3d2607b3	0.040534686
64	0xbeba5504	-0.36392987
65	0xbe8d4d04	-0.2759782
66	0xbe808924	-0.2510463
67	0x3e2036c3	0.1564589
68	0xbddcd332	-0.1078247
69	0x3e25a81a	0.16177407
70	0x3f0537b1	0.52038103
71	0xbd07329c	-0.03300725
72	0x3ea0fbd9	0.31442145
73	0x3e3f3952	0.1867421
74	0xbddc0d5e	-0.10744737
75	0x3e0c99d7	0.1373056
76	0x3cebd93d	0.02879011
77	0x3e722bea	0.23649564
78	0xbe74fd5b	-0.23924772
79	0x3d602c13	0.054729532
80	0x3ea3d562	0.31998736
81	0xbedbfceb	-0.429664
82	0xbe79a3ef	-0.24378942
83	0x3dec6d5e	0.11544298
84	0xbc99df63	-0.018783277
85	0x3e138d7e	0.14409444
86	0xbec24c24	-0.37948716
87	0xbd95e21a	-0.07318516
88	0xbdf09031	-0.11746252
89	0x3dccecf6	0.10006134
90	0x3e140b79	0.14457501
91	0x3e5e4f4a	0.21709934
92	0xbe8e45f0	-0.27787733
93	0xbdea19e7	-0.11430722
94	0xbc46f00a	-0.012142191
95	0xbe03ead3	-0.12882547
96	0xbde16f88	-0.11007601
97	0x3e4ded99	0.20110168
98	0xbe3bb226	-0.18329677
99	0x3d477556	0.048695885
100	0x3d346509	0.044041667
101	0xbe6c9e8b	-0.23107354
102	0xbe3ea5c5	-0.18617924
103	0x3df12b52	0.11775841
104	0x3b64fee9	0.0034941977
105	0x3d788dd7	0.060682144
106	0xbe2d5348	-0.169263
107	0x3ca0ed3a	0.019644368
108	0x3e42b755	0.19015248
109	0x3d25ccb1	0.040478412
110	0x3deb20ec	0.11480889
111	0xbea54659	-0.32280234
112	0xbd49406b	-0.0491337
113	0x3e8b8a36	0.27253884
114	0xbdbd69b9	-0.092486806
115	0xbe6b069d	-0.22951742
116	0x3db38d43	0.08767178
117	0xbe18d5f2	-0.14925364
118	0xbd6e956b	-0.058247965
119	0x3e21c826	0.15799007
120	0x3bad7995	0.0052940347
121	0xbecc44bf	-0.398962
122	0x3db96dd8	0.09054154
123	0x3e426668	0.18984377
124	0xbe5971c8	-0.2123481
125	0xbeade156	-0.3396098
126	0x3e207c43	0.15672402
127	0xbb851fee	-0.004062644
128	0x3e32d138	0.17462623
129	0x3dcd2dd6	0.10018508
130	0xbe1a6ebc	-0.15081304
131	0xbd9034b1	-0.070413
132	0x3d1d7a73	0.038446855
133	0xbdec5402	-0.11539461
134	0xbe85ca0d	-0.26130715
135	0xbd1e7647	-0.038687017
136	0xbe6ee30f	-0.23328803
137	0xbe8ba1d2	-0.27271897
138	0x3dff2718	0.124586284
139	0x3d88af02	0.06674005
140	0xbeac769c	-0.33684242
141	0xbe478fcc	-0.19488448
142	0xbeae847e	-0.3408546
143	0x3c3000d7	0.010742388
144	0xbe2d9d95	-0.16954644
145	0xbe2548f5	-0.16141112
146	0xbdd2219c	-0.10260317
147	0x3d9aef5f	0.07565188
148	0xbd6b8878	-0.057503194
149	0x3d9d6d86	0.076869056
150	0xbe50bf59	-0.20385493
151	0xbe82e6e0	-0.2556677
152	0xbc863129	-0.016380863
153	0x3d865589	0.06559283
154	0x3d2fcd25	0.04292025
155	0xbd15683b	-0.036476355
156	0x3e96e165	0.29468837
157	0xbe909b0b	-0.28243288
158	0xbcba6eef	-0.022757975
159	0xbda4dd32	-0.08050002
160	0x3d79f5cc	0.061025426
161	0x3e2f1664	0.17098385
162	0xbf21417e	-0.6299056
163	0x3b02b859	0.0019946306
164	0x3efdf343	0.49599656
165	0xbd969372	-0.07352342
166	0xbd7b3a5a	-0.061334945
167	0xbf114599	-0.5674682
168	0x3d82978a	0.0637656
169	0x3e70d57b	0.23518936
170	0x3d9997a6	0.07499628
171	0x3e22b7c8	0.1589042
172	0xbf7b770e	-0.9822854
173	0x3e63e82f	0.2225654
174	0x3d492441	0.04910684
175	0xbf4367c4	-0.7633021
176	0x3eece0f5	0.4626538
177	0xbf02e629	-0.51132447
178	0x3cc14444	0.023592122
179	0x3ec544e0	0.3852911
180	0x3ea8fdab	0.33006033
181	0xbccda3f7	-0.025102599
182	0xbf6b8a8c	-0.9200828
183	0x3ed187ad	0.40923825
184	0x3e65a232	0.22425154
185	0xbfaa6c22	-1.331425
186	0x3e0b2025	0.13586481
187	0xbe4e98e0	-0.20175505
188	0xbe173589	-0.14766516
189	0x3db63358	0.08896512
190	0x3e32d76c	0.1746499
191	0x3ebcf0bd	0.3690242
192	0xbf1651a6	-0.58718336
193	0xbcf3f6a2	-0.02978069
194	0x3e8ad79b	0.2711762
195	0xbf4ae944	-0.79262185
196	0x3e6e1df7	0.23253618
197	0x3c4dd31f	0.012562542
198	0xbd53efe3	-0.051742446
199	0x3d295dc7	0.0413492
200	0x3e573384	0.21015745
201	0x3e33ec70	0.17570662
202	0xbf2dfbaf	-0.67962164
203	0x3d760a23	0.06006826
204	0x3eaa0393	0.33205852
205	0xbef48125	-0.4775478
206	0x3dd20787	0.10255342
207	0x3df875c6	0.121318385
208	0x3cabb809	0.020961778
209	0x3db6d1b8	0.089267194
210	0x3e8f3c50	0.27975702
211	0x3e973477	0.29532215
212	0xbeea955e	-0.45817083
213	0x3ddca59b	0.10773774
214	0x3e9d3a0e	0.30708355
215	0xbe2f1da9	-0.17101158
216	0xbcd39117	-0.02582602
217	0x3e16088b	0.14651696
218	0x3d5af196	0.05345305
219	0x3dd5ad11	0.104334004
220	0x3e21362d	0.15743323
221	0x3e743bf6	0.23850998
222	0xbd7a9894	-0.061180666
223	0x3d0e4a80	0.034739017
224	0x3e390415	0.18067963
225	0x3e29916f	0.16559385
226	0xbd6a6873	-0.057228517
227	0x3e114f1d	0.14190336
228	0x3d2cf0e2	0.04222191
229	0x3e93fef9	0.28905466
230	0x3e3f677b	0.18691818
231	0xbd57ff6d	-0.052733827
232	0x3da7f98f	0.082018964
233	0x3e1d9cbd	0.15391822
234	0x3e70e887	0.23526202
235	0xbc80d177	-0.01572488
236	0x3e0b563f	0.13607119
237	0x3dabc3e4	0.083869725
238	0xbe8cc729	-0.27495697
239	0x3e300c4a	0.17192188
240	0x3d7c0bbc	0.06153463
241	0xbdc8f1f0	-0.09811771
242	0x3da420a0	0.08014035
243	0x3dbc058e	0.09180747
244	0xbbe3e389	-0.0069546145
245	0x3e255fda	0.16149846
246	0xbe8cea43	-0.27522478
247	0x3bfbff70	0.0076903626
248	0xbd48f40f	-0.049060877
249	0x3da20c77	0.07912534
250	0x3da091f3	0.078403376
251	0x3e1de2ed	0.15418597
252	0x3e772814	0.24136382
253	0x3eaa17a4	0.3322116
254	0x3d512176	0.0510573
255	0xbe362146	-0.1778613

network_body._body_endoder.seq_layers.0.bias f4 [128]
0	0x3c79ef3d	0.015254793
1	0x3de9b85b	0.11412116
2	0x3d6db5cc	0.058034703
3	0xbd805fdd	-0.062682845
4	0x3e1e0c12	0.15434292
5	0xbd176f64	-0.036971465
6	0x3d26e660	0.040747046
7	0x3eb7b43b	0.35879692
8	0xbdd689ec	-0.10475525
9	0xbc1fa61a	-0.009744192
10	0x3d6ded68	0.058087736
11	0x3ddaf4e9	0.10691244
12	0x3c257074	0.010097612
13	0x3d8ef4e0	0.069803
14	0x3d76c129	0.060242806
15	0xbdc9733e	-0.09836434
16	0xbd14bede	-0.036314838
17	0xbd47a320	-0.048739552
18	0x3d838426	0.0642169
19	0xbe055e59	-0.13024272
20	0x3e42f9e6	0.19040641
21	0xbdf985f3	-0.12183752
22	0x3e60825f	0.21924733
23	0xbdde32f5	-0.10849563
24	0x3df3fca6	0.11913423
25	0x3d8a0bf9	0.06740565
26	0xbd66e529	-0.056370888
27	0x3bb2a3b9	0.005451646
28	0x3dc11d7c	0.09429452
29	0x3d08d44c	0.033405587
30	0xbe0d3011	-0.13787867
31	0x3da6e787	0.08149629
32	0xbc3c311d	-0.011486319
33	0x3dfd94e8	0.12381917
34	0x3d93a9e5	0.07210139
35	0x3d352e70	0.04423374
36	0x3e1e9dfa	0.15489951
37	0x3d3c3b9e	0.045955293
38	0xbc14960d	-0.009068978
39	0xbde3bcb7	-0.11119979
40	0x3e47e2ac	0.19520062
41	0xbd905728	-0.07047874
42	0xbcf3e5cd	-0.029772663
43	0x3d60ff46	0.054930948
44	0x3dafd50b	0.085855566
45	0xbc253cee	-0.010085328
46	0xbc2c4b7f	-0.010516047
47	0x3c5588ca	0.013033101
48	0xbd58ff23	-0.052977692
49	0x3d02b6b5	0.031912524
50	0xbe1f6b38	-0.15568244
51	0x3c316062	0.010826202
52	0x3d856f37	0.06515353
53	0x3d2feea2	0.042952187
54	0xbce89010	-0.028389007
55	0xbd1b37fe	-0.037895195
56	0xbd9919e7	-0.074756436
57	0x3dd59594	0.104289204
58	0xbcaccc22	-0.021093432
59	0x3d187fcf	0.037231263
60	0x3cfb19cd	0.030651951
61	0x3d06efa7	0.032943394
62	0xbd2fc4f5	-0.042912442
63	0x3cac39d5	0.02102367
64	0x3e4d2cc7	0.20036612
65	0x3d18962e	0.037252598
66	0x3cbcc6cc	0.023044012
67	0xbdb3cffb	-0.087799035
68	0xbe41b20b	-0.18915574
69	0xbe3858bc	-0.180026
70	0x3e8791d6	0.26478451
71	0xbdad96b9	-0.08476014
72	0xbc81b5ef	-0.015833823
73	0xbd87051c	-0.065927714
74	0x3de28d23	0.11062076
75	0x3b7f80bc	0.0038986644
76	0xbdc857ff	-0.09782409
77	0x397c5a61	0.00024066262
78	0x3c06b270	0.008221254
79	0x3e0dd073	0.13849048
80	0x3b772ee7	0.0037717165
81	0xbcc15838	-0.023601636
82	0x3e86f14f	0.2635598
83	0xbde8e35a	-0.11371489
84	0xbccc3846	-0.024929177
85	0x3cb0f201	0.021599771
86	0xbe13fabb	-0.14451115
87	0xbd0c3c4f	-0.034237202
88	0xbdb25757	-0.08708065
89	0x3c9094b8	0.01764904
90	0x3cc278d2	0.023739252
91	0xbdb85d77	-0.09002202
92	0x3b9a574f	0.004710115
93	0xbc15413f	-0.009109794
94	0x3e4ebb1e	0.20188567
95	0x3d7d1522	0.061787732
96	0x3e6b57d8	0.22982728
97	0xbc055e80	-0.008140206
98	0x3e2d0ec8	0.1690017
99	0x3cc78cb0	0.024359077
100	0x3bb7a18b	0.005603974
101	0xbe28e6a5	-0.16494234
102	0x3e296045	0.1654063
103	0x3dc38343	0.095465206
104	0xbb95f4be	-0.0045762947
105	0xbd3f33db	-0.046680313
106	0xbdef9436	-0.11698191
107	0x3ccd120e	0.025033023
108	0x3dab8dfd	0.083766915
109	0xbe32dd32	-0.17467192
110	0xbda1bbcb	-0.07897147
111	0xbdce18e0	-0.10063338
112	0x3e0f27fb	0.13980095
113	0xbda24dab	-0.0792497
114	0xbd0acf50	-0.033889115
115	0xbe1e7aea	-0.15476575
116	0x3d7ad485	0.06123783
117	0x3d417248	0.047228128
118	0x3e25b39e	0.161818
119	0xbd855748	-0.06510788
120	0x3d85025c	0.06494591
121	0x3d504a05	0.05085184
122	0x3d4d8a66	0.050180815
123	0xbca8ecdc	-0.020620756
124	0x3c6e35ba	0.014539177
125	0x3de2dce1	0.110772856
126	0x3d8517a2	0.06498648
127	0x3dd1e0f2	0.10247983

network_body._body_endoder.seq_layers.2.weight f4 [128, 128]
0	0x3f224774	0.6339028
1	0xbf2af2b5	-0.6677659
2	0xbe28466c	-0.16433114
3	0xbe194c19	-0.14970435
4	0x3d865cfe	0.065607056
5	0xbe713744	-0.23556238
6	0x3ce74960	0.02823323
7	0xbf2944e5	-0.6612075
8	0x3ebbe6f9	0.36699656
9	0xbe8af376	-0.2713887
10	0xbba46bba	-0.005017725
11	0xbea6ea47	-0.32600614
12	0x3c5edb4f	0.013602092
13	0xbf30cad7	-0.6905951
14	0x3e453e39	0.19262017
15	0x3ddac631	0.10682333
16	0xbe523da7	-0.20531331
17	0xbeac4eff	-0.3365402
18	0xbdf506e2	-0.119642034
19	0xbeb74ec8	-0.35802293
20	0xbedc96fd	-0.43083945
21	0x3e8ba7dc	0.27276504
22	0xbed5a068	-0.41723943
23	0xbe8bd630	-0.2731185
24	0x3df7f8c8	0.12107998
25	0xbe88a815	-0.26690736
26	0x3d11b438	0.03557226
27	0xbdf2bb58	-0.11852139
28	0x3dfd1882	0.1235819
29	0x3dfdfaf8	0.12401384
30	0x3cfd10b8	0.030891761
31	0xbcfe7a4f	-0.03106418
32	0xbdbf7b94	-0.093497425
33	0xbc8854fc	-0.016642086
34	0xbe77ee36	-0.24211964
35	0x3d569395	0.05238684
36	0x3e20279a	0.15640107
37	0xbe07000a	-0.13183609
38	0x3c748348	0.014923878
39	0x3ddb49b1	0.10707415
40	0xbc8630cf	-0.016380696
41	0x3e512f47	0.20428191
42	0x3ea893a0	0.3292513
43	0x3da4627d	0.08026598
44	0xbe59b1ba	-0.21259204
45	0x3dafc788	0.085829794
46	0xbea2e6b5	-0.3181664
47	0xbedb8ae9	-0.42879418
48	0xbe9e9b46	-0.3097784
49	0xbef3d364	-0.47622216
50	0x3e58ed22	0.21184209
51	0xbe71563e	-0.23568055
52	0x3e2a1826	0.16610774
53	0x3db40846	0.087906405
54	0xbf49d013	-0.7883312
55	0xbe1abd90	-0.15111375
56	0xbe2d3f72	-0.16918734
57	0xbf0bda0b	-0.5462958
58	0xbd9a3148	-0.07528931
59	0xbd05c078	-0.032654256
60	0x3e7c65f6	0.2464827
61	0xbe57767a	-0.21041289
62	0x3e62eaf8	0.22159946
63	0x3ca60685	0.02026678
64	0xbe63c3c0	-0.22242641
65	0xbf4ad978	-0.7923808
66	0x3ad6b6bc	0.0016381363
67	0x3e073b28	0.1320616
68	0xbe37dcd9	-0.1795534
69	0xbe2d46a3	-0.16921477
70	0xbdd8fc3c	-0.10594985
71	0x3d9e83b5	0.07739965
72	0x3d0b6eec	0.03404133
73	0x3e496d10	0.1967051
74	0xbc56d4e9	-0.013112285
75	0xbe851f21	-0.26000312
76	0xbdc94e4e	-0.098293886
77	0xbe06f061	-0.13177635
78	0xbe4c7c63	-0.19969325
79	0xbdb5d2ba	-0.088780835
80	0xbcb3cb43	-0.021947509
81	0xba8ee9f5	-0.0010903465
82	0xbd4055b0	-0.046956718
83	0x3e4c1d6c	0.19933099
84	0xbf008100	-0.5019684
85	0xbc6b895e	-0.014376013
86	0xbd4b8283	-0.049685013
87	0x3d965417	0.073402576
88	0xbd363f1b	-0.044493776
89	0xbbea5ea7	-0.0071523967
90	0x3e1aef81	0.15130426
91	0xbe137483	-0.14399914
92	0xbd4272b8	-0.047472686
93	0xbb870929	-0.004120965
94	0xbea90a3b	-0.33015618
95	0xbdc72264	-0.09723356
96	0x3cfc1984	0.030773886
97	0xbebf2c4a	-0.37338477
98	0x3dcf113d	0.1011071
99	0xbeffeab0	-0.4998374
100	0x3e84f96f	0.25971553
101	0xbd673a1c	-0.0564519
102	0x3decc9d5	0.11561934
103	0x3e51af62	0.2047706
104	0x3d215c5d	0.039394725
105	0xbeab7572	-0.3348804
106	0xbe67dd1a	-0.22642937
107	0xbeb627d0	-0.3557725
108	0x3eb298e2	0.34882265
109	0xbe8e2420	-0.27761936
110	0xbea538f8	-0.32270026
111	0xbf100fd7	-0.5627417
112	0x3d8b6d66	0.068079755
113	0xbe82cac9	-0.25545338
114	0xbef7a88e	-0.48370785
115	0xbe3a62c0	-0.18201733
116	0xbe2eeeaa	-0.1708323
117	0xbd41084f	-0.047127064
118	0x3e34d41c	0.17659038
119	0xbef0d4e5	-0.47037426
120	0xbe3a6cc1	-0.18205549
121	0xbed3700a	-0.41296417
122	0xbd8b5e1c	-0.06805059
123	0x3e377fbf	0.17919825
124	0x3e38b248	0.18036759
125	0x3cd140ef	0.025543658
126	0x3e3873e2	0.18012956
127	0x3e616e46	0.22014722
128	0xbd4b5ef7	-0.049651112
129	0xbc11e3f6	-0.008904448
130	0xbdfd8a88	-0.12379938
131	0x3ef9150e	0.48648876
132	0xbedb5fa8	-0.42846417
133	0xbc0c2d1d	-0.008555678
134	0x3eebb12f	0.46033618
135	0x3c2ab8a3	0.010419997
136	0x3e324ab7	0.17411314
137	0x3ecff729	0.40618256
138	0x3f0b9496	0.545236
139	0x3f12f84b	0.57410115
140	0xbe94b74c	-0.29046094
141	0x3defd82a	0.11711152
142	0x3e333a71	0.17502762
143	0x3ec3fc47	0.3827841
144	0xbe1f22da	-0.15540639
145	0xbdfcc6fe	-0.12342642
146	0x3efd081a	0.49420244
147	0x3ee8cee5	0.45470348
148	0x3d376677	0.044775452
149	0xbea5ed74	-0.32407725
150	0x3c3baa56	0.0114541855
151	0xbcff4651	-0.03116146
152	0x3ecb121b	0.3966225
153	0x3e0cfaa6	0.1376749
154	0xbea33007	-0.3187258
155	0xbedabc12	-0.4272161
156	0x3cd16cc4	0.025564559
157	0xbda23147	-0.07919555
158	0x3deb0b26	0.11476736
159	0x3e04c1e1	0.12964584
160	0x3d998f5f	0.07498049
161	0x3e4094b3	0.18806724
162	0xbe54a88c	-0.2076742
163	0x3e9ff7b9	0.31243685
164	0x3e226a9c	0.15860981
165	0x3d163584	0.03667213
166	0x3e8dc4cf	0.27689216
167	0x3e874c18	0.26425242
168	0x3ec333c6	0.38125437
169	0x3d93b107	0.072115
170	0xbd5c6b75	-0.053813417
171	0xbdd17787	-0.10227876
172	0x3f061a5c	0.5238397
173	0xbc72e990	-0.014826193
174	0xbe420b72	-0.18949679
175	0x3ecaa9d9	0.39582708
176	0x3e465841	0.19369604
177	0x3f34b8bf	0.705944
178	0xbec3baeb	-0.38228545
179	0xbb2a0c05	-0.0025947106
180	0xbe725174	-0.23663884
181	0xbe87a9b7	-0.2649667
182	0x3e229fd7	0.15881287
183	0xbd7bcded	-0.061475683
184	0x3e883409	0.266022
185	0x3edcda55	0.43135324
186	0x3e30b150	0.1725514
187	0xbf0d6e25	-0.5524619
188	0x3d99e142	0.07513668
189	0x3dd9182c	0.106003135
190	0x3dafc33e	0.08582161
191	0xbe44e604	-0.19228369
192	0xbe1ab112	-0.1510661
193	0x3ed8e025	0.4235851
194	0xbeb50437	-0.35354778
195	0x3e8b33e6	0.27188033
196	0x3dbad04f	0.09121763
197	0x3e3e3dc1	0.18578245
198	0xbd33a5cc	-0.043859288
199	0x3f2096ef	0.62730306
200	0xbe8d7227	-0.27626154
201	0xbd8de93d	-0.06929252
202	0xbd3322a5	-0.04373421
203	0x3f234a0e	0.63784873
204	0x3e9fabf0	0.31185865
205	0x3f278cf0	0.6544943
206	0x3e3ce084	0.18445021
207	0xbdf02916	-0.117265865
208	0x3dd03028	0.10165435
209	0x3e9cdd1b	0.3063744
210	0xbdef867b	-0.11695572
211	0xbdff80c4	-0.12475732
212	0xbd6e1423	-0.058124673
213	0xbe86e10a	-0.26343566
214	0x3e3c4d73	0.1838892
215	0x3d8da460	0.06916118
216	0xbe8c4106	-0.2739336
217	0x3e5c516a	0.21515432
218	0xbe7bf7cf	-0.2460625
219	0xbe19d2c4	-0.15021807
220	0x3f3432e7	0.7039017
221	0xbe037b63	-0.12840037
222	0x3e12479e	0.14285132
223	0xbc14340e	-0.009045614
224	0xbe7529cd	-0.23941727
225	0x3ea448c4	0.32086766
226	0xbe318cff	-0.17338942
227	0xbd30515f	-0.04304635
228	0x3c70ae4d	0.014689994
229	0xbcd895f1	-0.026438685
230	0xbdcd5621	-0.100261934
231	0xbe2d395e	-0.16916415
232	0xbe64474b	-0.22292821
233	0xbd209a0d	-0.039209414
234	0xbdb6855d	-0.08912156
235	0x3e1086d2	0.1411393
236	0x3e4448e2	0.19168428
237	0x3eaeabd2	0.34115463
238	0x3dbcf464	0.09226301
239	0xbe38bbc6	-0.1804038
240	0xbc179ce5	-0.009253715
241	0xbecfb409	-0.40567043
242	0xbecc068a	-0.3984874
243	0xbe2fe201	-0.17176057
244	0x3e16ae4a	0.14714924
245	0x3da6b8b8	0.08140701
246	0x3d87ccd7	0.06630867
247	0x3e71097a	0.23538771
248	0xbe893ddc	-0.26805007
249	0xbdc9010c	-0.09814653
250	0xbbcc9218	-0.0062430017
251	0xbd916f74	-0.07101336
252	0x3e469d04	0.19395834
253	0xbe953625	-0.29142871
254	0xbd90cb0b	-0.070699774
255	0xbe8db86b	-0.27679762

network_body._body_endoder.seq_layers.2.bias f4 [128]
0	0xbd26ab98	-0.04069099
1	0x3d26521b	0.040605646
2	0x3b48800b	0.0030593898
3	0x3dee6091	0.11639512
4	0x3e80d01f	0.25158784
5	0x3e38ef11	0.18059947
6	0xbdbb69be	-0.09151028
7	0x3d2c3f99	0.04205284
8	0xbe136325	-0.1439329
9	0x3d442dfa	0.04789541
10	0xbc490acc	-0.012270641
11	0xbdb136e2	-0.08653046
12	0x3dc981ff	0.09839248
13	0x3e0c6944	0.1371203
14	0x3e112d87	0.14177524
15	0x3e0eea05	0.13956459
16	0xbe3e971e	-0.18612334
17	0xbe6f59ed	-0.23374148
18	0x3c8f3d0f	0.01748517
19	0x3d8f5a83	0.069996856
20	0x3e75fc0a	0.24021927
21	0x3e1caefa	0.15301123
22	0xbdbe66bd	-0.092969395
23	0x3ea95284	0.33070767
24	0xbead9184	-0.33900082
25	0xbdcd4c68	-0.10024339
26	0xbdd13077	-0.10214322
27	0x3ded8997	0.11598509
28	0xbe2de1eb	-0.16980712
29	0xbe60bdfb	-0.21947472
30	0xbd7ca9ee	-0.061685495
31	0xbd615688	-0.055014163
32	0x3d5a79f0	0.053338945
33	0x3e2d4e25	0.16924341
34	0xbce3da67	-0.027814103
35	0xbd5a1266	-0.053240202
36	0xbe019441	-0.1265421
37	0x3e0b4457	0.13600288
38	0x3dc04b6d	0.09389386
39	0x3e599d20	0.21251345
40	0x3d0d851b	0.034550767
41	0x3d924158	0.071413696
42	0xbe0d418f	-0.1379454
43	0xbe90afcd	-0.28259125
44	0xbe23d259	-0.1599821
45	0x3d96139f	0.07327961
46	0x3e636cb0	0.2220943
47	0x3dbb11c0	0.09134245
48	0xbeada73c	-0.33916652
49	0xbe378e3d	-0.17925353
50	0xbe2af11d	-0.1669354
51	0xbc53d3cb	-0.012928913
52	0x3e0b53f8	0.1360625
53	0xbdc701f3	-0.09717169
54	0xbc88cb5e	-0.016698536
55	0x3e3badaf	0.18327974
56	0xbd979362	-0.07401158
57	0xbdcc92a3	-0.09988906
58	0x3dd8548d	0.10563002
59	0x3e877cc1	0.26462367
60	0xbe6d6edb	-0.2318682
61	0xbe52115d	-0.20514436
62	0xbcf31d0a	-0.029676933
63	0x3eb2aff2	0.3489986
64	0x3d814d9c	0.06313631
65	0x3d4ee0ed	0.050507475
66	0xbeac452a	-0.33646518
67	0xbd0cdf61	-0.03439272
68	0xbd103273	-0.035204362
69	0xbd1c8f00	-0.038222313
70	0xbea276a9	-0.31731156
71	0x3cf80424	0.030275412
72	0xbe3970c6	-0.18109426
73	0xbdff1def	-0.12456881
74	0x3d813cf7	0.06310456
75	0x3e6f40f7	0.23364626
76	0x3dd4ddcb	0.10393866
77	0xbd2ee69d	-0.0427004
78	0xbdc39a8e	-0.09550963
79	0x3eaa34bf	0.33243367
80	0xbe13b939	-0.14426126
81	0x3ed86fc6	0.42272776
82	0xbe3d4958	-0.1848501
83	0x3e488528	0.19582045
84	0x3c2f0f8f	0.010684862
85	0x3e0d11ea	0.13776365
86	0x3e809005	0.25109878
87	0x3ea2677e	0.31719583
88	0x3e351c20	0.1768651
89	0x3dc2a512	0.09504141
90	0x3b35eab4	0.0027758302
91	0x3e6fe49c	0.23427051
92	0x3e8e8b36	0.27840585
93	0xbe3e54b3	-0.18586998
94	0xbd657d97	-0.056027975
95	0xbe7bcafa	-0.24589148
96	0x3e2f7da9	0.1713778
97	0x3df78429	0.120857544
98	0xbe00436b	-0.12525718
99	0x3db4efdb	0.08834811
100	0x3d39f0fc	0.045395836
101	0x3de60104	0.112306625
102	0x3df5b7e3	0.11997964
103	0x3d297e30	0.041380107
104	0x3e7bd3e9	0.24592556
105	0x3c71b029	0.0147514725
106	0x3ec65cbc	0.38742626
107	0x3e490a99	0.19632949
108	0xbd0b212a	-0.033967175
109	0x3d1d8c5a	0.038463928
110	0xbe975235	-0.29554906
111	0x3cacf3bd	0.021112317
112	0x3e04ae31	0.12957074
113	0x3e809a3b	0.25117669
114	0x3dbe2085	0.09283546
115	0x3e1d42fc	0.15357584
116	0xbdfe903e	-0.12429856
117	0x3d565f28	0.05233684
118	0x3d63d3d6	0.055621944
119	0xbe838537	-0.25687572
120	0xbe3aea06	-0.18253335
121	0xbe471e6c	-0.19445199
122	0x3d74c8cc	0.059761807
123	0xbce60c22	-0.028081957
124	0x3cf43777	0.029811604
125	0x3db407a0	0.08790517
126	0xbd268334	-0.04065247
127	0x3db7dab0	0.08977258

action_model._discrete_distribution.branches.0.weight f4 [7, 128]
0	0xbec67a91	-0.38765386
1	0x3cbac646	0.022799622
2	0xbe5821b4	-0.21106607
3	0xbef69bb6	-0.48165673
4	0xbe5bd380	-0.214674
5	0x3dc887b7	0.097915106
6	0xbe6451de	-0.22296855
7	0xbd964b6b	-0.073386036
8	0x3d8c8f74	0.06863299
9	0xbd139761	-0.036033038
10	0xbdc72837	-0.09724467
11	0xbf15bf4c	-0.5849502
12	0xbf9c65d6	-1.2218578
13	0x3c50721c	0.012722518
14	0x3df5c1ae	0.11999832
15	0xbdc280f2	-0.094972506
16	0xbd5dd34c	-0.054156587
17	0xbc9a669b	-0.018847754
18	0xbea75a3c	-0.3268603
19	0x3e9b04ca	0.3027709
20	0xbe16bca8	-0.14720404
21	0x3df3173d	0.11869667
22	0xbca2a539	-0.019854175
23	0xbcee74a6	-0.029108357
24	0xbe373150	-0.17889905
25	0xbf1184e4	-0.568434
26	0xbd19bab8	-0.037531585
27	0x3cdeddd5	0.027205387
28	0x3d847a40	0.0646863
29	0x3e78eed5	0.24309857
30	0x3e8aee5b	0.27134976
31	0x3f22af12	0.63548386
32	0x3dcc5b02	0.09978296
33	0xbee42d5a	-0.4456585
34	0xbd003195	-0.031297285
35	0x3e4c761e	0.19966933
36	0x3e38b232	0.18036726
37	0x3b845033	0.004037881
38	0x3e5f065c	0.2177977
39	0xbd92d9df	-0.07170462
40	0x3e87bfc9	0.26513508
41	0x3e5d5518	0.21614492
42	0xbda87968	-0.082262814
43	0x3ec7882d	0.3897108
44	0xbec9be1a	-0.39402848
45	0xbc537d1a	-0.0129082445
46	0x3d342329	0.043978844
47	0x3e5729e0	0.21012068
48	0x3e104438	0.14088523
49	0xbbe73846	-0.007056269
50	0x3e233ceb	0.15941207
51	0xbec0cc7e	-0.37656015
52	0xbd5c5fef	-0.053802427
53	0xbe819ae3	-0.25313482
54	0xbe23f0d9	-0.16009845
55	0xbec783d3	-0.3896776
56	0xbe637162	-0.22211221
57	0x3d4238d6	0.047417484
58	0x3e404d01	0.18779375
59	0x3d8bb60f	0.06821834
60	0xbe20934d	-0.15681191
61	0xbe904516	-0.28177708
62	0xbd2ed491	-0.042683188
63	0xbe7b630f	-0.24549507
64	0x3d8f7f13	0.07006659
65	0x3ead0143	0.33790025
66	0xba7e4a39	-0.0009700391
67	0x3ea0e699	0.31425932
68	0xbdec7076	-0.11544888
69	0xbe52377f	-0.20528983
70	0xbecadf57	-0.3962352
71	0x3df87842	0.12132312
72	0x3c87a876	0.01655982
73	0x3e008b38	0.12553108
74	0x3cfe7fc9	0.031066792
75	0xbdc4c3b1	-0.09607638
76	0x3dd49659	0.10380239
77	0x3d6f4bbb	0.05842183
78	0xbef5d6a2	-0.48015314
79	0xbf021c85	-0.5082477
80	0xbddc8cf9	-0.10769076
81	0x3de9cbef	0.1141585
82	0x3e83d53e	0.25748628
83	0xbee03172	-0.43787724
84	0xbf2d1ec5	-0.67625076
85	0x3e04a8ed	0.12955065
86	0x3eae35f1	0.3402553
87	0x3e33e5cc	0.1756813
88	0x3d5cf9d2	0.053949185
89	0x3d1abaa1	0.03777564
90	0xbde00e43	-0.1094022
91	0x3eb3d0ff	0.3512039
92	0x3e206a91	0.15665652
93	0xbf306f50	-0.6891985
94	0xbea4e9f2	-0.32209736
95	0xbc7effe2	-0.015563937
96	0x3d6192b9	0.055071566
97	0x3e1a689a	0.15078965
98	0xbd6db7bb	-0.058036547
99	0xbec7c051	-0.39013913
100	0xbea86fae	-0.32897705
101	0xbeaabfac	-0.3334936
102	0x3e8c4b3b	0.27401146
103	0xbea26489	-0.31717327
104	0x3e1bee5b	0.15227644
105	0xbf0ca38f	-0.5493707
106	0x3e0b94ab	0.13630931
107	0x3e0ac36d	0.13551112
108	0xbef74d45	-0.4830114
109	0x3d4d69f6	0.05014988
110	0xbd71a239	-0.0589926
111	0xbdc37410	-0.095436215
112	0x3d093487	0.03349736
113	0xbd6c031b	-0.05762015
114	0xbef743a6	-0.482938
115	0xbf3ef0ae	-0.74586
116	0xbd66576d	-0.05623572
117	0x3d41207a	0.047150113
118	0xbe22ffb5	-0.15917857
119	0x3da3dc17	0.08000963
120	0xbedc2a02	-0.430008
121	0xbe3b2a52	-0.18277863
122	0x3da5846a	0.080818966
123	0x3da065d1	0.0783192
124	0x3e3e9964	0.18613201
125	0x3d4ff670	0.05077213
126	0x3ed2674a	0.41094428
127	0x3e1a08d4	0.1504243
128	0x3df94a93	0.12172427
129	0xbf12b165	-0.5730193
130	0xbd96ce37	-0.07363551
131	0x3dc791f2	0.09744634
132	0xbe612781	-0.21987726
133	0x3e180d1a	0.14848748
134	0x3ea85a17	0.32881233
135	0xbe963227	-0.29335138
136	0xbcaa2bcd	-0.020772839
137	0x3eb154ed	0.34635106
138	0xbee66257	-0.44996902
139	0x3eca4d26	0.39511985
140	0x3e01c73c	0.12673658
141	0x3e131018	0.14361608
142	0x3e4a34fd	0.19746776
143	0x3dd424f1	0.103586085
144	0xbef6b373	-0.48183784
145	0x3f1d2a61	0.6139279
146	0x3ea35219	0.31898573
147	0xbbcc6fa8	-0.0062388964
148	0xbe05ffbc	-0.13085836
149	0xbe81fa68	-0.25386357
150	0x3d45ba1f	0.048273202
151	0xbe645c08	-0.22300732
152	0x3ee04d35	0.43808904
153	0x3e179c35	0.14805682
154	0x3e96d117	0.29456398
155	0xba3afa81	-0.0007132665
156	0x3f064546	0.5244945
157	0x3f01fcb6	0.5077623
158	0xbdfdfa8c	-0.12401304
159	0x3e35e502	0.17763141
160	0xbea3b005	-0.3197023
161	0x3e93ae2d	0.28843823
162	0x3ef0c0bf	0.47022054
163	0xbde908f3	-0.1137866
164	0x3eba50b7	0.36389706
165	0x3f0dd1be	0.55398166
166	0xbecd2675	-0.40068403
167	0x3f11a397	0.56890243
168	0x3ec57b07	0.38570425
169	0xbe60780e	-0.21920797
170	0x3ce50078	0.027954325
171	0x3e887322	0.2665034
172	0x3d4bfc2e	0.049801044
173	0x3ebb7dcf	0.36619422
174	0x3e5a1ae5	0.21299322
175	0xbf0b0d53	-0.54317206
176	0x3e0ad1da	0.13556615
177	0x3ef9d19d	0.48792735
178	0xbb869165	-0.004106688
179	0x3e3aa0be	0.18225381
180	0x3f0bf0a4	0.54664063
181	0x3dc2c1a8	0.09509593
182	0xbe82891f	-0.2549524
183	0xbd8eeb88	-0.06978518
184	0x3ef354cf	0.4752564
185	0xbcb60227	-0.022217823
186	0x3e1200ca	0.14258114
187	0xbec11379	-0.3771017
188	0x3eed1ffb	0.46313462
189	0x3f1c41b5	0.6103776
190	0x3e04dcb3	0.12974815
191	0x3e0dc797	0.13845669
192	0xbe826870	-0.25470304
193	0x3ec27714	0.37981474
194	0x3ec23ce4	0.3793708
195	0xbef47da3	-0.47752103
196	0xbe3252ec	-0.17414445
197	0x3e899bf6	0.268768
198	0x3d3e8b43	0.04651953
199	0xbcc15707	-0.023601068
200	0x3e8c5fca	0.2741683
201	0xbe3d28c3	-0.1847258
202	0x3e3c2ab7	0.1837567
203	0x3e45277f	0.19253348
204	0x3eb7be69	0.3588746
205	0x3db2e327	0.08734732
206	0x3de8e8aa	0.11372502
207	0xbe0d4a66	-0.13797912
208	0xbe28ec54	-0.16496402
209	0xbda7e8ad	-0.08198676
210	0xbe1a1664	-0.15047604
211	0x3f17bec0	0.59275436
212	0x3e6757e3	0.2259212
213	0x3dc319fd	0.09526441
214	0xbe546bb2	-0.20744208
215	0xbeb566a2	-0.35429865
216	0x3e4816cd	0.19539948
217	0x3eb3e807	0.3513796
218	0x3f3fb8bf	0.74891275
219	0x3e0808cb	0.13284604
220	0xbd895ac2	-0.06706764
221	0x3e1c0d9b	0.15239565
222	0xbd2ba304	-0.04190351
223	0x3f12098b	0.5704581
224	0x3e6fd9b2	0.23422888
225	0x3d968d29	0.07351143
226	0xbe5c589c	-0.21518177
227	0x3f0aa2f7	0.54154915
228	0xbf232436	-0.6372713
229	0xbe83a2a4	-0.25710022
230	0xbe3d8beb	-0.18510406
231	0x3e7c33ee	0.24629185
232	0x3eb2c50a	0.34915954
233	0xbc71b177	-0.014751784
234	0xbdb3f1fd	-0.0878639
235	0x3e784aa7	0.24247228
236	0x3e1762fe	0.14783856
237	0x3eb90e2f	0.36143634
238	0x3efb2237	0.4904954
239	0x3ecc3dca	0.3989089
240	0x3e21eddf	0.15813397
241	0xbf260d4f	-0.6486406
242	0x3de93736	0.11387484
243	0x3eaf5b30	0.34249258
244	0x3eb09f88	0.34496713
245	0x3ecbf05e	0.39831823
246	0x3bf4f37d	0.007475315
247	0x3e74f82e	0.23922798
248	0x3f2f962f	0.68588537
249	0x3e020567	0.12697373
250	0x3dfc6643	0.123241924
251	0xbe8f10f7	-0.2794263
252	0xbded35d5	-0.11582533
253	0x3ea58c5d	0.3233365
254	0x3d56c1a1	0.052430753
255	0x3ed80fb3	0.42199478

action_model._discrete_distribution.branches.0.bias f4 [7]
0	0xbd5ef2fe	-0.054430954
1	0xbe644c1b	-0.22294657
2	0x3e29ab0a	0.16569152
3	0x3e594da5	0.21221025
4	0xbf0e74d9	-0.55647045
5	0x3e504cf6	0.20341858
6	0x3e659c9a	0.2242302
