Trained_Policies/WeightAgent_Training/WeightAgent_Training/WeightAgent_Training-9499972.pt (torch, 926564 bytes, 33 tensors)

network_body._body_endoder.seq_layers.0.weight f4 [128, 163]
000000 bc 20 82 3d b0 fe 41 be de 3b e9 3d 29 2c 45 3e
       0.063539 -0.18944812 0.11388372 0.19255127
000010 d1 dd 15 3e 33 37 d7 3d f8 44 9b bd ce 15 33 bd
       0.14635397 0.10508575 -0.07581514 -0.043721966
000020 2e 99 6c 3e db f1 74 3e 09 7d a2 3c b5 35 85 be
       0.23105308 0.23920386 0.019835012 -0.26017538
000030 4f ec a6 bd a7 cd 09 3e c0 44 2f 3e 48 93 37 3e
       -0.08150541 0.13457356 0.1711607 0.17927277
000040 f6 7c 1d be 3a 9e 27 be 65 97 31 3e 3d 8f 75 3e
       -0.153797 -0.16368952 0.17342909 0.23980422
000050 44 88 26 3e 02 1d 15 be 57 cf 67 bd 93 1d c9 3d
       0.16262919 -0.14561847 -0.05659422 0.09820094
000060 f7 a5 a1 3e 76 d4 5b 3d 07 58 88 3c 72 4d e2 3b
       0.31571934 0.053669415 0.016643537 0.006906205
000070 72 72 4c 3e 7d d9 68 3e 1f f4 54 3d 15 d7 8e be
       0.19965532 0.22739215 0.051990625 -0.2789847
000080 7b 5e 66 3d 83 b5 4e 3e de 87 0e 3e 26 2e e7 3d
       0.056242447 0.20186429 0.13919017 0.11288099
000090 db 9b f8 bb 6a 43 1a bc d2 44 2a 3d 9a dd 62 3e
       -0.007586939 -0.009415487 0.04156954 0.22154847
0000a0 cf ec 04 3e 88 07 3f bd 11 70 c6 3c ab 0d 47 3d
       0.1298096 -0.04663804 0.02422336 0.04859702
0000b0 41 13 18 3e 8d f5 b5 3d 26 f8 0f 3e 2e 90 25 3d
       0.14851095 0.08884726 0.14059505 0.040420704
0000c0 1b b3 cf 3d 14 45 7b 3e 91 ff 50 3b 64 b2 2d be
       0.101415835 0.2453807 0.003189061 -0.16962582
0000d0 2c 76 40 bd 66 4c b6 3d 6a 8b 32 3e 60 b1 18 bd
       -0.046987697 0.089012906 0.17435995 -0.037278533
0000e0 64 66 87 bd 35 79 f8 3c 3d 77 29 3d d2 43 1b 3e
       -0.06611326 0.030331234 0.04137348 0.1516259
0000f0 4a ae bf 3d 3f 26 77 be cc c6 28 bd 45 bb 1d 3d
       0.09359415 -0.24135683 -0.041205212 0.038508672
000100 5a fd 33 3e e4 73 2c bc db 59 c2 3d 8f 35 8c 3d
       0.17577115 -0.010525677 0.09489795 0.06846153
000110 6f 97 73 3d c1 c8 64 3e 2a ee ac 3d f2 4d 3b bd
       0.05947059 0.22342207 0.08443864 -0.04572863
000120 29 91 33 3d 8e 47 68 bb 0f ba f2 3d cf 72 02 3e
       0.043839607 -0.003544304 0.11851894 0.12739109
000130 8c 45 87 3d d2 f1 d8 3d 7f bb e9 3d 0a 88 22 3c
       0.06605062 0.105929986 0.11412715 0.00992013
000140 7c e0 72 3d 83 5c 33 3e 5e bf 39 3d 78 da df 3d
       0.059296116 0.17515759 0.045348518 0.109303415
000150 bd e7 a2 3c 5d a3 cd bc d6 40 df 3d 25 12 97 3b
       0.019885892 -0.025102312 0.10901038 0.0046103173
000160 73 1b 68 bd 7d 7a c1 3d c1 85 bb 3a 15 ab 84 3e
       -0.056666803 0.09447191 0.001430683 0.25911775
000170 b4 80 b2 3d 3d b9 5e 3e 35 4b 17 bb b8 13 ae bd
       0.087159544 0.2175035 -0.0023085598 -0.08499855
000180 fb 8e 05 3e a0 2e 72 3e d3 02 b6 3c 47 c3 96 bc
       0.13042824 0.23650599 0.022218144 -0.018403662
000190 6b 5c 00 be b5 14 2b 3e 0d 3a 07 3e b6 47 36 3d
       -0.12535255 0.16707118 0.13205738 0.044501983
0001a0 31 f8 20 3e 95 a8 10 be 73 89 0e 3e de bf b5 3d
       0.15719678 -0.14126809 0.1391962 0.088744864
0001b0 61 a6 32 3e 98 6f 0b bd 08 5e e2 bd b1 9e c0 3d
       0.17446281 -0.03404197 -0.11053091 0.09405268
0001c0 6f c6 eb 3d 5b f8 6b bd 74 45 07 3e 97 bc af bd
       0.115124576 -0.057609897 0.13210088 -0.085808925
0001d0 88 5d 44 3e 3f 11 9f ba ac da b5 3c 75 54 19 bd
       0.19176304 -0.0012135877 0.022198997 -0.03743406
0001e0 55 26 e5 bd 56 d2 da 3d 1b 8d 8a 3d 6e 07 ff 3c
       -0.11188952 0.1068465 0.06765195 0.031131472
0001f0 a3 56 16 be 56 ba d5 bc 98 39 bb 3d e5 bb e1 3d
       -0.14681487 -0.026089828 0.091418445 0.11022166
000200 52 c3 44 bd 98 29 f1 bd 1f 4e 2f be 4f 49 50 3e
       -0.048037834 -0.117755115 -0.17119645 0.20340465
000210 f6 e3 2e 3e c1 da d1 bd bb cb af 3c fa 6c ea 3c
       0.17079148 -0.10246802 0.021459451 0.028616417
000220 1c 76 8e 3d 95 fc 4e 3d 63 ac c3 3d 4e 36 1e be
       0.06956121 0.05053385 0.095543645 -0.15450403
000230 5f e7 2e be d5 91 0a 3e c0 09 4b 3e 56 48 15 3e
       -0.17080449 0.13532193 0.19827938 0.14578375
000240 b2 c4 2e 3d 2e 71 42 be b1 d8 00 3e 49 ee ee 3d
       0.042668052 -0.18988487 0.12582661 0.11666543
000250 62 29 f5 3d c3 ba 88 bc b2 9f 26 be fd 2f 86 3e
       0.11970784 -0.016690617 -0.16271856 0.26208487
000260 ed c3 21 3c 16 2f 5d 3e 12 f3 30 bd 3b 28 ba bd
       0.0098733725 0.21599993 -0.04320056 -0.090897046
000270 a8 54 cf be 3d bb 49 be a9 0a 57 bc 5c 37 0e 3e
       -0.40494275 -0.19700332 -0.0131251 0.13888305
000280 e9 2c 06 3e 18 a6 0d 3e 57 5c 85 3c 64 77 11 3d
       0.1310307 0.13832891 0.016279383 0.03551425
000290 4a a2 26 be 9d c9 22 ba e5 cc f7 3d ec 41 d4 3d
       -0.16272846 -0.0006209852 0.120996274 0.10364136
0002a0 88 13 0f 3e ec 66 05 be 5e 50 0f 3e 75 1f 24 3e
       0.13972294 -0.13027543 0.13995501 0.16027625
0002b0 a3 48 c5 3d 4c 41 13 3e 77 f2 9c 3d a3 f1 1e bb
       0.09632995 0.14380378 0.07663434 -0.0024252913
0002c0 bd ed ae 3d 0f b8 5f 3e 63 a4 81 3e 26 4b 82 bd
       0.08541439 0.21847557 0.2532073 -0.0636199
0002d0 aa 60 c1 3c 34 b4 8f 3e 5f 80 71 3e 20 b5 c4 3d
       0.023605663 0.28067172 0.23584126 0.09604859
0002e0 1a 24 16 bd fd bd 1f be 5d e6 1f be 63 15 ba 3d
       -0.036655523 -0.15599819 -0.1561522 0.090861104
0002f0 d5 93 ab 3d 9b 5b 82 3e 8d d4 cd 3c 7b c3 f8 3c
       0.08377806 0.25460514 0.025125766 0.03036665
000300 0e 7e eb 3d c8 34 e6 b9 95 6f f6 3d 0a c0 b8 bd
       0.114986524 -0.00043908344 0.12033001 -0.090210035
000310 27 2c 43 bd 0c 01 da 3c 6e 88 85 3d 8e da 1c 3d
       -0.04764953 0.026611827 0.065201625 0.038294367
000320 73 1f da 3d f3 08 33 3d 4f d3 20 3d 9a e7 60 bd
       0.1065053 0.043709707 0.03926402 -0.054908372
000330 ac 16 8a 3e b9 b2 44 3d b3 04 d2 3c 5b 53 ff 38
       0.26970422 0.048022006 0.025637006 0.00012174874
000340 e5 f8 48 3e e5 50 5d 3d 67 ba 97 3c 13 08 9f bd
       0.19626196 0.054032225 0.0185215 -0.07765212
000350 9d c1 a8 3d d1 82 88 bc 2b bc 07 be 5f 61 18 be
       0.08240054 -0.01666394 -0.13255374 -0.14880894
000360 5f 18 9d 3d 06 d4 13 3e 1d 75 0e 3e 96 2c 0c 3e
       0.07670664 0.1443635 0.13911863 0.13688883
000370 14 36 16 bd 61 14 08 be 52 cd b2 3d b7 7d d3 3d
       -0.036672667 -0.13289024 0.08730568 0.103267126
000380 1d eb 8a 3d 40 63 5a be ed f4 ad 3d 06 8b 37 3d
       0.067831255 -0.21326923 0.084939815 0.044810317
000390 60 11 aa 3d 6f 06 3b bc 85 8a 47 3c ed db 09 3c
       0.08304095 -0.011415108 0.012179022 0.008414251
0003a0 30 67 ca 3d 58 62 63 be d2 bf f7 3d 4b cd 07 be
       0.09882963 -0.22205484 0.12097134 -0.13261907
0003b0 d9 4b 99 3c aa f0 a1 3d ce cd d3 3d 2f 3c 5a 3e
       0.018712925 0.07907231 0.103419885 0.2131202
0003c0 24 ec a6 3c 9b 7c 21 be 2f 4e 08 3e 8f 3b 3e bd
       0.020376272 -0.1577019 0.13311075 -0.04644352
0003d0 06 8e c0 3d 04 ea 95 3c 6d b1 c8 bd cb ee 36 3d
       0.09402089 0.018300064 -0.09799466 0.044661324
0003e0 67 10 81 3d 3f 1b 25 3d 8d 2c 8b be df 69 ec 3c
       0.063019566 0.040309187 -0.27182427 0.028859077
0003f0 63 58 64 3d 76 a4 74 3d 8c 0b c2 bc 82 2c d7 bd
       0.055748355 0.059727155 -0.023687147 -0.10506536

network_body._body_endoder.seq_layers.0.bias f4 [128]
000000 ad 74 8d 3d 46 37 5c 3d f2 0f d8 3b 7a 27 13 bd
       0.0690702 0.05376365 0.0065936977 -0.03592632
000010 34 65 ef 3b b0 94 5c 3d 50 a4 31 3d b0 e3 02 bd
       0.0073057655 0.053852737 0.04336959 -0.03195542
000020 30 2f ab bc 2a 27 19 3d b9 0e bf 3c 68 c1 a0 3c
       -0.020896524 0.037390865 0.02332245 0.019623473
000030 e9 37 d9 3c f3 5c 3b 3b 13 ba 15 bd 39 56 83 3d
       0.026515918 0.0028589338 -0.036554407 0.0641293
000040 13 7c f0 3c f4 66 22 3c 28 e3 12 bb 03 f9 44 bd
       0.029356038 0.009912241 -0.0022413228 -0.04808904
000050 19 05 45 bd 00 5d 5b 3c 3b 36 82 3c a2 7a 58 3d
       -0.048100565 0.013388872 0.015895 0.052851327
000060 e8 02 a7 3c ee 20 e4 3c c0 d2 c7 3b 6b 07 1d 3a
       0.020387128 0.027847733 0.0060981214 0.000599018
000070 db f6 48 bd f3 28 52 bb 43 74 15 3d 4c 45 5a 3c
       -0.049063545 -0.0032067865 0.03648783 0.013322186
000080 21 63 a2 bb 52 d8 79 bd 85 e2 20 3d 71 f9 8e 3c
       -0.0049556647 -0.060997315 0.039278526 0.017452927
000090 32 52 c6 bb 06 1b d2 ba db 6b a9 bc 1b 49 95 3c
       -0.006052279 -0.0016029782 -0.020681312 0.018223336
0000a0 fc 89 f9 3c d1 51 b6 bc c2 bb d4 3c c8 4c a8 3c
       0.030461304 -0.02225581 0.025968436 0.020544425
0000b0 d9 4d 90 3d 61 52 98 3d 37 83 c9 bb 8d 17 a8 3a
       0.07046098 0.074375875 -0.006149675 0.0012824401
0000c0 92 99 a5 bc 50 1f 28 bd 90 4b 2b 3d 2a 52 32 bb
       -0.02021483 -0.041045487 0.04182011 -0.0027209618
0000d0 4a 5c 8a bd b6 21 a6 3c 29 9c 93 3d 5d a7 d4 3c
       -0.06755884 0.020279747 0.072075196 0.025958711
0000e0 c5 1b ab 3c ca 6a 3c 3d c8 6e 41 bd c4 0c a1 bc
       0.020887265 0.04600028 -0.04722479 -0.019659407
0000f0 b8 4d 1f 3d ad 31 a6 3d 3c 04 c8 bc fd 05 3b bd
       0.038892478 0.08114944 -0.024416082 -0.045660008
000100 3e 5d e7 3c 10 19 1c 3d f0 2e fc 3c 8a 23 1f 3c
       0.028242704 0.03810984 0.0307841 0.009713063
000110 7f 4c 22 3d 52 90 f0 3c f1 bf 75 3d b7 72 63 3d
       0.039623734 0.029365692 0.059997503 0.055529322
000120 ba 6d c5 3c 2d d2 7f bc 95 c3 db bc 03 c2 65 3d
       0.024100173 -0.015614075 -0.02682666 0.056093227
000130 eb f3 61 bc 1f 75 e5 bc 3c 54 31 3c d1 9d 66 bc
       -0.013791065 -0.02800995 0.010823306 -0.014075712
000140 5e 73 2c bd 3b 20 83 3d fd 61 d3 3b 15 b9 18 3c
       -0.04210221 0.06402632 0.00645089 0.009321471
000150 c3 c4 b2 bc 5e 92 83 3d eb 21 53 3c 20 ca 16 bd
       -0.021822339 0.06424402 0.012886505 -0.036813855
000160 79 fd 1f 3d 70 44 42 3d 5e 2e 4d 3c 95 93 06 3d
       0.03906009 0.04742855 0.012523262 0.03285559
000170 54 84 a0 bb 1c 6a 82 3b 5e 4c f1 bc d7 59 8f 3d
       -0.0048985872 0.0039799344 -0.02945536 0.069995575
000180 2f 64 7a 3d 0e 9e ee bc 8c 06 fe bc ee 23 dc 3c
       0.0611307 -0.0291281 -0.031008981 0.026872601
000190 af 93 82 bd bb 12 8c bc d3 34 91 3c 67 42 41 3d
       -0.06375825 -0.017098775 0.017725384 0.047182467
0001a0 21 3b 41 bd 46 0a 41 3d 91 88 53 3c 90 ef a8 3c
       -0.04717553 0.04712894 0.012910978 0.020622045
0001b0 99 b4 d5 bc 39 ac 91 3d c6 2f 81 bc e5 21 c1 3b
       -0.026087092 0.07112927 -0.01576985 0.005893933
0001c0 42 bc d0 3c 2a 2f 64 bd 9b f6 4d 3d f9 5a 0a 3d
       0.025480393 -0.05570904 0.05028401 0.033778165
0001d0 64 81 58 3c 0e f8 37 bd cf 26 67 bc f4 02 97 bd
       0.013214443 -0.044914298 -0.014108374 -0.0737361
0001e0 8c 7c 42 3d bf f0 cc bc 2a b9 9a 3d 54 60 0d 3d
       0.04748206 -0.02501714 0.075548485 0.034515694
0001f0 d8 a2 2c 3d f4 03 29 bc 53 cc a9 3c 27 8e 9f 3c
       0.042147487 -0.010315884 0.020727312 0.019476963

network_body._body_endoder.seq_layers.2.weight f4 [128, 128]
000000 91 47 2c 3e a9 26 ff bc 29 e9 1a be 26 f3 73 be
       0.16824175 -0.031146364 -0.15128006 -0.23823223
000010 84 7a 8e bd e6 48 c5 3d 00 bb f9 bd e7 b6 32 be
       -0.06956962 0.09633045 -0.121938705 -0.17452584
000020 b7 7f 8c be 45 d3 fd 3c 95 76 2e 3e 32 43 7b 3d
       -0.2744119 0.03098453 0.17037423 0.06134338
000030 e6 e0 29 3e b3 f5 b9 bc 7f 33 23 bd 55 08 31 bd
       0.16589698 -0.022700166 -0.039844032 -0.043220837
000040 53 19 52 3e 86 d4 03 3e c7 30 92 bd c2 ae 1f be
       0.20517473 0.1287404 -0.0713821 -0.15594009
000050 8d 89 23 bd 65 b1 5a 3e da c2 70 bc 9a 10 29 bd
       -0.0399261 0.21356733 -0.014694894 -0.041275598
000060 41 79 01 be 76 c5 6d be 61 f7 87 3d 69 31 b9 3d
       -0.12643911 -0.23219857 0.06638981 0.09042627
000070 7c 1c 2d be bc fd 1c be 50 2d 4f bd 23 20 fc bd
       -0.16905397 -0.15331167 -0.050580323 -0.12310817
000080 d5 ad 31 bc 71 c0 11 bd 5d e5 05 be a2 15 84 3d
       -0.010844667 -0.035583917 -0.13075776 0.06449439
000090 90 cf 00 be 10 70 12 bd 0e 6d 42 bd 89 41 bc 3b
       -0.12579179 -0.035751402 -0.047467284 0.005745117
0000a0 53 de 4d bd 54 42 03 3e ce c8 e0 bb 6e b7 41 3c
       -0.050260853 0.12818271 -0.0068598753 0.011823518
0000b0 ee a0 63 3e 17 9a d6 bd 78 66 79 3d 3e 9e 7e bd
       0.22229359 -0.10478609 0.060888737 -0.06216263
0000c0 d3 56 ed 3c 58 ae 6a bd ca ef f5 3d 82 4a 75 be
       0.028972065 -0.057295173 0.12008627 -0.23954204
0000d0 77 1e f6 bd ea 47 b4 bd 14 e1 bd bc 1d 68 01 3e
       -0.120175295 -0.08802779 -0.023178615 0.12637372
0000e0 f7 a2 b5 bd f6 48 78 3e 05 ea 8b 3d 45 5d 8d be
       -0.08868974 0.24246582 0.06831745 -0.27610222
0000f0 32 6c a2 3d 23 65 89 3d 51 77 e7 bc d2 d1 2b 3c
       0.07930793 0.067087434 -0.028255137 0.010487037
000100 23 02 68 3c b2 ee 9f bc ab 3f 12 3d 8b 02 82 3d
       0.014160666 -0.019522998 0.03570525 0.06348141
000110 4d 01 ff 3d 75 ed 6c bd 0f 7b 87 3e ba e1 5e 3d
       0.1245142 -0.057843644 0.26461074 0.05441449
000120 5d 00 25 be 42 8a d4 3d bb ee b4 bd a8 61 cc 3d
       -0.1611342 0.10377933 -0.08834597 0.09979564
000130 7d e5 ba 3c 5d ac 18 3e e7 ce 97 bd 1a 66 42 3d
       0.022814507 0.14909501 -0.0741251 0.047460653
000140 7d a9 fd bb 6e 35 70 bc 55 e7 21 3d 0a c8 34 be
       -0.007741152 -0.014661176 0.039527256 -0.17654434
000150 1e 90 15 be 81 45 fd bd aa 56 02 3d a3 0e cc bd
       -0.14605758 -0.123667724 0.03182093 -0.09963729
000160 96 e1 9b 3d 27 87 9d bb 80 70 55 bd bc 83 d3 3d
       0.076113865 -0.004807371 -0.05210924 0.10327861
000170 53 71 25 3e 09 f0 87 bd 38 22 43 be 70 80 d1 3d
       0.16156511 -0.0663758 -0.19056022 0.10229576
000180 64 22 79 39 3f 13 70 bd 2e 7b db bd 60 1b 5d bd
       0.00023759302 -0.058612105 -0.10716854 -0.053981185
000190 b1 28 6d 3d cd c2 02 be 9d 98 2a bd 8d 7e be 3d
       0.057900134 -0.12769623 -0.04164945 0.093014814
0001a0 a7 60 a6 3d f9 35 ff 3d 04 71 e3 bd 33 2e a4 3d
       0.08123904 0.12461466 -0.111055404 0.08016624
0001b0 3c d6 6e 3c 1b 21 96 bd 9b 3f 86 bd d9 81 53 bd
       0.014577445 -0.07330533 -0.065551005 -0.051637504
0001c0 92 ab b9 3c b6 3f dd 3c 11 4e f2 3c 3f c2 04 3d
       0.022664819 0.027007919 0.02957824 0.03241181
0001d0 b0 9b 33 be 6b fa 98 bd c7 38 d8 bd ee f5 7b be
       -0.17539859 -0.074696384 -0.105577044 -0.24605533
0001e0 5b 81 82 bd f4 fd ff 3c a3 5d 48 3d 3a bb 1d 3e
       -0.06372329 0.031249024 0.048917424 0.15403453
0001f0 2e 5b bc bd 9c cb 49 bd 6c 42 ec 3d 73 5d 19 be
       -0.09197079 -0.049266443 0.115361065 -0.14977054
000200 60 1f 90 3b db 85 11 be 0a 00 58 bd fa 22 92 bd
       0.0043982714 -0.14211218 -0.052734412 -0.071355775
000210 04 80 bd bd 9d 05 80 bd 59 a4 8b 3c bd eb f0 3c
       -0.09252933 -0.06251071 0.01704614 0.029409284
000220 96 16 af 3d 43 75 19 bd 43 be 80 bc b0 63 82 3d
       0.0854923 -0.037465345 -0.015715724 0.0636667
000230 b9 9b a1 3d 23 67 9c bd f3 30 ca 3d e0 fc a0 3c
       0.0789103 -0.07636859 0.098726176 0.01965183
000240 01 36 fa bb aa 3b 04 be 02 84 41 bc 4e 06 75 be
       -0.0076358323 -0.12913385 -0.011811258 -0.23928186
000250 34 3c b0 bd cc 52 cd 3d 5d 0b 7b bc 40 c6 c7 bd
       -0.08605233 0.10025558 -0.015322533 -0.0975461
000260 de d3 ca bc c4 f9 1f be da 4c c6 bc a3 df 13 bc
       -0.02475923 -0.15622622 -0.024206568 -0.009025487
000270 e3 fa b2 bd 82 25 f9 bd a2 64 f7 3c 61 73 96 bd
       -0.08739259 -0.12165357 0.030199353 -0.073462255
000280 0f 19 a5 3c d2 fa d8 3d 1e e7 2c be ac 2f 4e 3d
       0.02015355 0.10594715 -0.16885039 0.050338432
000290 ae 27 ab 3d b9 ae 70 bd 8f 9c 50 bd b9 46 dc 3d
       0.08357178 -0.05876038 -0.050930556 0.10755677
0002a0 b8 54 02 be 74 a8 fc bd 3d b6 3c bc e0 0a 8e bd
       -0.1272763 -0.123368174 -0.011518058 -0.06935668
0002b0 d4 9f 09 3e 5d 23 18 bd 51 b3 17 3c df fd 50 bd
       0.13439876 -0.0371431 0.009259061 -0.05102336
0002c0 4b f3 04 3d 81 4b e8 bc 1c cc 0d be ef 1b 72 3d
       0.032458585 -0.028356316 -0.13847393 0.05910867
0002d0 bf 1a af bd 4a 58 72 bd d9 70 8c 3d d9 77 60 3c
       -0.08550023 -0.05916623 0.068574615 0.013700449
0002e0 14 b8 26 be 6e 6e a5 bd 72 bf 8b 3d e0 7b 0f be
       -0.16281158 -0.080777034 0.06823625 -0.14012098
0002f0 69 89 50 bd 09 9a 8f 3d 6e b7 f7 3d 0f 50 a7 3d
       -0.050912295 0.07011802 0.12095533 0.08169567
000300 a7 92 f5 bd 30 5b 27 3e c4 85 bd 3b 9e 96 35 bc
       -0.11990862 0.16343379 0.0057837684 -0.011083273
000310 5f 7a f6 3c 18 91 67 be 08 5d 6e bd 7a 9d 3e be
       0.030087648 -0.22613943 -0.05819419 -0.1861476
000320 40 12 48 bd 32 27 ab bc 77 0b eb 3c c2 3b 8c bd
       -0.04884553 -0.020892713 0.02869199 -0.068473354
000330 7d 0b a4 bd b1 73 6b 3d 08 bf 81 3d f5 a6 a0 bd
       -0.08010004 0.05748338 0.063352644 -0.078443445
000340 76 a1 1b 3d b6 26 56 3c ea 7e 52 be 33 b4 43 be
       0.037995778 0.013070753 -0.20556226 -0.1911171
000350 ca 09 32 bd fd 5e 1a be 86 e2 08 3e e3 1a 05 3d
       -0.043466367 -0.15075298 0.13367662 0.032496344
000360 3f 98 db 3d d5 bd 1a be 5e 91 f4 3d 37 ae 2d 3d
       0.10722398 -0.15111478 0.11941789 0.042402472
000370 3b 26 83 bb 1c f1 50 3d 8d 0d a0 3d eb cc cb 3d
       -0.00400236 0.05101119 0.078150846 0.099511944
000380 65 e7 ca bd fd ce 19 be 22 04 31 3e f4 88 4d 3d
       -0.09907416 -0.15020366 0.17286733 0.050179437
000390 e2 7c f1 3c 55 a7 7f 3c 79 2e bb 3c 36 35 1b 3d
       0.029478494 0.01560386 0.022849308 0.037892543
0003a0 f5 27 a5 3d 57 f9 4b be db f8 45 bd 89 36 38 3d
       0.08064262 -0.19919334 -0.04833303 0.044973884
0003b0 09 90 d5 3d 83 3f a5 bd 0f 91 93 3d 96 ee ce 3c
       0.10427863 -0.080687545 0.07205402 0.025260251
0003c0 f5 dd ee 3c dc 69 e2 3a 8b a2 a5 be 58 d0 29 be
       0.029158572 0.001727398 -0.32350573 -0.16583383
0003d0 99 52 13 be b2 41 33 3d 75 6e 25 be 51 75 5a be
       -0.14386977 0.043763824 -0.16155417 -0.21333815
0003e0 74 fe f7 bd 06 ac 01 be aa ca c0 bb c8 8b fb bd
       -0.1210908 -0.12663278 -0.0058835344 -0.122825205
0003f0 e6 51 45 bd 5d db 09 bd b2 b4 87 3d 48 9c 25 be
       -0.048173808 -0.033656467 0.06626262 -0.16172898

network_body._body_endoder.seq_layers.2.bias f4 [128]
000000 42 68 f8 3c d7 c0 83 bd 04 7e 8e 3c 52 f0 8e bd
       0.030323151 -0.06433266 0.017394073 -0.06979431
000010 d6 b1 96 3c c9 cf 1d bd 2d 2b 99 bd 50 6d d4 3b
       0.018395346 -0.038528237 -0.07478938 0.0064827576
000020 78 36 3c bd 3d 4d 9e 3d 3f c5 31 3d a0 f6 fc 3c
       -0.045950383 0.07729576 0.043401 0.030879319
000030 7c cc 4a bc 68 30 34 bd 78 a8 55 3c 42 55 0e 3d
       -0.012377854 -0.043991476 0.013040654 0.034749277
000040 51 c2 39 3d 2b f0 b4 3c ee e2 57 bd 2a b1 37 3d
       0.04535133 0.022087177 -0.05270665 0.04484669
000050 bc f0 ca 3c e8 46 b1 3c 6b 49 1e bc 6d 67 11 bc
       0.024772994 0.021640256 -0.009661059 -0.008874756
000060 59 87 4b 3d e9 b7 84 3c d2 00 d1 3c 15 78 62 bd
       0.049689624 0.016200976 0.025513086 -0.0552903
000070 7f f7 21 bc 94 24 49 bd c4 2e 4d 3d d7 dc 8d bc
       -0.009885668 -0.04910715 0.050093427 -0.017317219
000080 dd 38 83 bb 1d d4 86 bd 5e 51 53 3d df e4 55 bd
       -0.0040045814 -0.06583426 0.05159127 -0.05222022
000090 a3 cc 90 bd 34 d2 f1 3b ee 6e ee bc ca 4f 18 3d
       -0.07070281 0.0073797945 -0.02910563 0.037185468
0000a0 03 de 89 bd 39 17 cd 3c 24 97 03 3d 44 0e 05 3d
       -0.067317985 0.025035487 0.03212656 0.032484308
0000b0 a2 89 5b 3d 9d 07 26 3d 87 71 b9 bc 4a 8b a6 3c
       0.053598054 0.040534604 -0.022637142 0.02033009
0000c0 46 5f 38 3d e4 18 20 3d 25 0b 02 bb 12 21 7e bd
       0.045012735 0.039086238 -0.0019843068 -0.062043257
0000d0 10 c1 1c 3d c9 39 56 3d 82 d8 06 bd 4d a4 7e 3d
       0.038270056 0.052301202 -0.03292132 0.06216841
0000e0 c6 4a 83 3d e0 d6 83 3c 3e 40 66 3d 6c bd 9b 3a
       0.06410746 0.016093671 0.05621361 0.0011882014
0000f0 a9 58 b3 bd 7d da 47 3d 20 c3 34 bd 7c 82 da 3c
       -0.08757145 0.04879235 -0.0441314 0.026673548
000100 e9 d7 38 3c b3 63 89 bb 41 4c b9 3c 6f 8f 04 3d
       0.011281946 -0.0041927933 0.022619369 0.03236335
000110 8e d0 2a bd 2a bd 1a 3c 6f 36 4c bd 3f b3 20 3d
       -0.0417028 0.009444514 -0.0498566 0.039233442
000120 66 31 ca 3c b0 8a 18 3d e9 43 a1 bc c1 cc 76 bc
       0.024681758 0.037241638 -0.019685702 -0.015063466
000130 ae b2 04 3c b9 8b 3b 3d 8a 39 73 3d c6 92 e2 bc
       0.008099241 0.045787547 0.059381045 -0.027657878
000140 64 79 ef 3c c9 6e fb bc 95 50 98 3d cf c6 0f bd
       0.029232688 -0.030692475 0.07437245 -0.035101708
000150 ab 39 18 bd 18 b7 b8 3c 50 13 e8 3c 9f 8b 00 3d
       -0.03716437 0.022548243 0.028329521 0.031383153
000160 b0 66 02 3d fd 66 02 3d ed 8b 99 3d 66 7c 96 3b
       0.03183621 0.0318365 0.07497392 0.004592466
000170 12 e9 14 bc 59 88 af 3c d0 08 af bc 4f c2 34 3d
       -0.009088771 0.02142732 -0.021366507 0.04413062
000180 57 20 7b 3d c9 1c 07 3c 76 4a 52 3c 9e d4 db bc
       0.06131014 0.008246609 0.012835136 -0.026834782
000190 f3 57 70 bc a9 75 b8 3c 97 c2 07 3d 3a c4 05 3d
       -0.014669406 0.022517042 0.03314456 0.03265784
0001a0 16 ca 82 3c 21 76 92 bd c8 97 7f 3d 08 d1 8d 3d
       0.015965503 -0.071514376 0.06240061 0.06924635
0001b0 5a d1 a4 ba 9c d8 02 3d 24 ff 84 3c 21 52 d4 3b
       -0.0012574599 0.031944856 0.016234942 0.006479517
0001c0 8a 73 a0 3d 06 16 60 bd eb 20 bc 3b 67 bd 23 bd
       0.07834537 -0.054708503 0.005741229 -0.03997555
0001d0 92 a4 80 3d a7 67 68 3d dc 29 78 3c 27 f3 25 3d
       0.06281389 0.056739476 0.015146699 0.04051509
0001e0 1c a0 c5 3b 15 de 4d bd 41 a1 3a 3d 58 73 79 3d
       0.0060310494 -0.050260622 0.04556394 0.060901016
0001f0 5d e5 9c bd b0 9f 01 bd 0c 71 14 ba 47 46 fd bc
       -0.07660935 -0.03164643 -0.0005662597 -0.0309173

action_model._discrete_distribution.branches.0.weight f4 [7, 128]
000000 20 d1 06 be e2 e6 9b 3d a0 fb 63 3c cf c9 1c bd
       -0.13165712 0.07612397 0.013914973 -0.038278397
000010 b6 69 fc 3c fa f1 8e bc 6e c9 47 bd 0c 0e 10 bc
       0.030812126 -0.017449368 -0.048776083 -0.008792412
000020 b2 c4 70 bc e9 e5 05 3c af bb 4c 3c a4 c1 fb bb
       -0.014695333 0.008172491 0.012495919 -0.007682996
000030 32 1a 89 bd 68 02 27 bc e1 03 aa 3c ab 79 af bc
       -0.066944495 -0.010193445 0.020753803 -0.02142032
000040 1b 9c 07 3d 51 ae 18 3d 14 2d 0f bd 00 d5 03 bc
       0.03310786 0.037275616 -0.0349551 -0.008046389
000050 22 07 b9 3c b1 fa 9d bd 8d 7b 4a bd 8a 41 01 bd
       0.022586409 -0.07713831 -0.049434233 -0.031556644
000060 10 14 7d bc 24 4a 56 bc 48 20 b0 3d b7 91 c0 bc
       -0.015446678 -0.0130792 0.08599907 -0.023506982
000070 76 e6 0e 3d 28 ac 79 bc 6a af 3f bd d3 d9 27 bc
       0.034887753 -0.015238799 -0.046798147 -0.010244804
000080 bd c3 12 bd 45 4a dd bc ba a7 b6 bc 5b f4 1e bc
       -0.0358312 -0.027012954 -0.022296775 -0.009701814
000090 5f 2c f3 bc ff 27 a9 3b 77 0c 93 bb 1e fc 53 bc
       -0.029684244 0.0051622386 -0.00448757 -0.012938527
0000a0 3a 26 d6 bb 31 18 92 bd 82 4e 81 3d 22 8c 07 3d
       -0.0065353187 -0.071335204 0.06313802 0.033092625
0000b0 2b 82 27 bd 45 1f 68 bb db 63 b2 bb 56 4a d7 3a
       -0.040895622 -0.0035419029 -0.0054440326 0.0016425352
0000c0 29 19 7b bd 89 25 aa 3c 7d 9b 1a 3c 20 f1 3a bd
       -0.06130329 0.020769851 0.009436485 -0.04564011
0000d0 af 06 c8 3c a1 22 9b bc a0 66 60 3c 49 92 8e bb
       0.02441725 -0.01893741 0.013696343 -0.0043509346
0000e0 f9 22 d1 3c 45 d4 9a bd ea 73 1a 3d 83 6a 1d bc
       0.025529372 -0.075600185 0.0377082 -0.009607914
0000f0 e1 aa 85 3c ba 48 3a 3d 74 b7 f9 bc e4 e3 1c bd
       0.016316833 0.045479514 -0.030482985 -0.03830327
000100 e4 da e2 bd 08 2a 05 3d 51 ee c8 3c cb 50 aa 3c
       -0.11076906 0.032510787 0.0245277 0.020790478
000110 63 ce 21 3b de 99 72 3c 6d 1c 22 bd 2a dd 70 3c
       0.0024689666 0.014807193 -0.03957789 0.014701167
000120 86 49 87 3c 3e 78 7c 3c 0e b7 a6 3c ef ac 10 bb
       0.01651455 0.015409527 0.02035096 -0.0022075733
000130 8d f2 6e bd 92 c2 ce bc 98 12 24 3d bf 35 20 3c
       -0.058336783 -0.025239263 0.040056795 0.009778439
000140 f3 70 80 bb 41 9a fd 3c f0 b0 40 3d 6e 17 ed 3c
       -0.0039197146 0.030957343 0.04704374 0.028941836
000150 13 08 22 bb 0b 52 e3 3c 29 1e 6c bc 52 ae 61 bd
       -0.002472405 0.027749082 -0.014411488 -0.055097885
000160 64 aa 88 3c af 32 91 3c 2a cf dd 3c 00 e6 9d 3b
       0.016682811 0.017724363 0.027076323 0.004818678
000170 96 68 80 3c 97 fa 0f 3d 3d 7c 26 bc de 41 18 3d
       0.01567487 0.03515109 -0.010161457 0.03717219
000180 ad 5c 89 bd 69 c8 c4 3a 8e 07 5b 3c a5 b5 10 bc
       -0.067071296 0.001501334 0.0133685 -0.00883237
000190 3d c8 a6 3c fa e5 28 3d 2c ca ac 3d c5 1b c6 3c
       0.020359153 0.041234948 0.08436999 0.024183163
0001a0 d5 5e 24 3d 14 43 30 3b 46 50 7f 3d 48 7d b7 ba
       0.0401295 0.002689545 0.062332414 -0.0013999129
0001b0 2f 5e f1 bc 05 54 7c bb af 72 5f 3b ac 7e 82 3c
       -0.029463856 -0.0038502228 0.0034095456 0.015929542
0001c0 73 5a 28 3b f8 0c 08 bd f2 9f 80 3b 44 49 05 bd
       0.0025688678 -0.033215493 0.003925317 -0.032540575
0001d0 79 c7 4d 3d 81 2f 15 3a 04 31 d8 3b 64 7c eb 3c
       0.05023906 0.00056909776 0.00659764 0.028745838
0001e0 72 51 1d 3d 7a 11 5c bc 0c fc 99 3c 42 9a 26 3c
       0.03840775 -0.013431901 0.018796943 0.010168614
0001f0 57 85 21 3b d3 cc 2f 3d 2b a1 dc 3a 1e 02 53 bd
       0.0024646127 0.042919945 0.00168327 -0.05151569
000200 79 44 51 3d 7e ad 53 3c 97 50 35 3c 84 05 df 3c
       0.05109069 0.012919782 0.011066577 0.02722431
000210 7e cd 23 bc b6 b0 85 3d 29 a6 4c 3d f5 9a fe 3d
       -0.009997724 0.065278456 0.04996315 0.124318995
000220 3b e5 b4 3d 87 dc 24 bc 01 b8 7a bb e2 63 ef bb
       0.08832785 -0.010062343 -0.0038256648 -0.007305608
000230 a1 26 29 3d 8e e6 62 3d 8f 8d 4d bd d9 db 48 3d
       0.041296605 0.055395655 -0.05018383 0.049037788
000240 ef 28 86 3c 0e 03 87 3c 14 f0 2b 3d 8e 12 29 3d
       0.01637694 0.016480949 0.041977003 0.04127746
000250 5a 2d eb 3b b0 0e 83 3d 8e fc b6 3c 5a 03 76 3d
       0.007177037 0.06399286 0.022337224 0.06006179
000260 45 5c 89 3d 5a 89 5b 3d ad 34 d1 3c 80 12 87 3b
       0.06707052 0.053597786 0.025537813 0.0041220784
000270 1e e6 68 3c cc 4a 9c 3c 9a 45 d8 bc 71 b6 af 3d
       0.01421502 0.019078635 -0.026400376 0.0857972
000280 68 5c 45 3d 1a 39 ac 3c b8 d1 f1 3c 52 5e 62 3d
       0.04818383 0.021023322 0.029518947 0.055265732
000290 5e fe 53 3d 5f c2 8f 3b ac 27 60 3d 9f 32 c8 3d
       0.051756255 0.0043871845 0.054725334 0.0977528
0002a0 8e 79 59 3d 87 68 da 3d 76 4b 20 3d 4d 0e 5e 3d
       0.05309444 0.10664468 0.039134465 0.054212857
0002b0 4e f5 e4 3d f5 7d b5 bc 19 6e 3b 3a 47 e8 19 3d
       0.11179601 -0.022154788 0.000714989 0.037575033
0002c0 50 18 0c bd bb d1 8f bd 68 b5 1c bc c4 c1 a0 3d
       -0.034202874 -0.07022425 -0.009564735 0.07849458
0002d0 12 97 00 3d cb c7 46 3d 35 7c 3a 3d 8e 93 19 bd
       0.031394072 0.04853038 0.04552861 -0.037494235
0002e0 2f 2d 39 bd 02 aa 95 3d 7c 2f 10 bd a0 19 5e bc
       -0.045209106 0.07307817 -0.035201535 -0.013555914
0002f0 d4 4a 2f bc 4f a6 99 bd b5 ae e6 3c 66 20 82 bb
       -0.010698993 -0.07502424 0.028159479 -0.0039711474
000300 9b c7 68 3d bc 66 00 3c 5f 38 24 bd 7c 48 70 3d
       0.056830984 0.007836994 -0.040092822 0.058662876
000310 9f 65 cd 3d f2 e5 9d 3d 8b 50 69 3b f4 18 92 bd
       0.10029148 0.07709874 0.0035600986 -0.07133666
000320 df 5a 84 3d 79 f7 9f 3d 4d 68 f2 3b ef 52 bb 3d
       0.06462645 0.078108735 0.0073976875 0.09146678
000330 23 6d f5 3d 8d 62 65 3c 11 fd e0 bd 68 a5 9d 39
       0.11983707 0.014000547 -0.109857686 0.0003006861
000340 9c c9 a8 3d 6b a0 36 bd 93 fe 6f bd b0 14 3f 3d
       0.08241579 -0.04458658 -0.05859239 0.04665059
000350 5d c9 42 3d 91 3e df bc 4e 1a ef 3c 9c 78 ee 3c
       0.047555316 -0.027251514 0.029187348 0.029110245
000360 0e c2 ac 3c ea 9a e4 bc 59 cd a1 bb b2 32 53 3d
       0.021088626 -0.0279059 -0.0049378094 0.05156202
000370 8a 63 02 3e bd 72 df 3d 8e ec 2b bb 0c 60 15 3d
       0.12733284 0.109105565 -0.0026233527 0.03646855
000380 83 0b 8b bc f2 87 35 3d dc 27 4c 3c 43 9f 73 3d
       -0.016973263 0.0443191 0.012460675 0.059478056
000390 f7 d0 84 bc 15 f3 4c 3d 35 41 98 bd e1 24 b1 bc
       -0.016212923 0.05003651 -0.07434312 -0.02162403
0003a0 cc 73 f2 bc 9a fe f9 b9 5c b8 fa bd ef 82 a6 bd
       -0.029596232 -0.00047682674 -0.12242195 -0.08130442
0003b0 b1 9a 04 3e d7 85 31 3d 9a 47 ab bb b6 73 cf 3d
       0.12949635 0.04334053 -0.0052270414 0.10129492
0003c0 19 9d eb bd 2e d2 62 3d 4d f3 a4 3c 31 1a 28 3d
       -0.115045734 0.055376224 0.020135546 0.041040603
0003d0 45 40 94 bd 0f a0 6e bd 69 45 08 3d df 7b 15 bc
       -0.07238821 -0.058258113 0.03326932 -0.009123771
0003e0 87 14 3e 3d cc 21 62 3d a3 fe 19 3d ef 83 21 be
       0.046406295 0.055208012 0.037596356 -0.15772985
0003f0 05 02 33 bc 34 fc 7f bd 89 ff a1 3d 0f 0b 7e 3d
       -0.010925774 -0.06249638 0.079100676 0.062022265

action_model._discrete_distribution.branches.0.bias f4 [7]
000000 3b 89 cd 3c e0 3d 40 bc 8e 6d 3c 3d e5 97 55 be
       0.02508985 -0.011733502 0.046002917 -0.20858724
000010 d7 c2 52 bd 07 9e 66 bb a5 ff a9 3c
       -0.051455345 -0.0035189406 0.020751784

exp_avg f4 [128, 163]
000000 18 d5 7b b0 d8 df 16 b9 fa 6d 2f 39 18 5e 68 ba
       -9.161609e-10 -0.00014388503 0.0001673027 -0.0008864119
000010 76 e6 38 ba 19 7f 84 b0 f5 71 e3 b9 6c 2a 1e 3a
       -0.00070533843 -9.640387e-10 -0.0004338172 0.0006033543
000020 40 19 c6 ba fc 0b 55 ba ed 24 13 32 7f cc ae b9
       -0.0015113726 -0.0008127091 8.564922e-09 -0.00033340228
000030 3a 15 09 ba a1 e1 a7 39 2c 9e df b9 d8 b7 88 b0
       -0.0005229298 0.0003202083 -0.00042651722 -9.947554e-10
000040 30 bb 86 b9 43 37 aa 39 48 53 e4 b9 0f 15 ed b9
       -0.00025697937 0.000324661 -0.00043549598 -0.00045219852
000050 df f6 4c 32 c7 c8 2c b9 24 1f 88 b7 28 13 f4 b9
       1.1930495e-08 -0.00016477994 -1.6226964e-05 -0.0004655358
000060 4c 9c 9a b9 bb 1c 7e b0 5a 82 25 38 25 14 d8 b8
       -0.0002948962 -9.244549e-10 3.9460465e-05 -0.00010303435
000070 d5 7b 15 b9 33 5c be b9 58 31 11 31 1d 1b 02 ba
       -0.00014255878 -0.00036308318 2.1128326e-09 -0.00049631466
000080 d8 12 c6 38 a0 41 ed b7 20 d9 85 37 c2 9c 3f 2f
       9.444886e-05 -2.828316e-05 1.5955942e-05 1.742704e-10
000090 24 0e 8a 39 64 f3 5b b9 ae 5c 4b b9 0a 65 c5 b9
       0.00026331947 -0.00020976138 -0.00019394114 -0.00037650048
0000a0 51 fe 70 31 d0 24 33 38 b2 d8 36 b9 b4 7b d5 38
       3.5069159e-09 4.271121e-05 -0.00017437598 0.00010179673
0000b0 5c 2b f1 38 3a 02 b0 2f 1b 57 f4 38 d8 96 36 b9
       0.00011499852 3.2015796e-10 0.00011651051 -0.00017413066
0000c0 eb 9c fc b9 5a e1 ca b9 e5 45 b8 31 10 15 7f b7
       -0.00048182099 -0.00038696342 5.363051e-09 -1.5204088e-05
0000d0 c8 ec 27 37 93 a2 a5 39 ec 16 ab 38 d4 ee 44 2e
       1.0009106e-05 0.0003159238 8.158185e-05 4.4777362e-11
0000e0 13 0d 24 39 a2 03 03 ba 03 67 e3 39 70 ae ff b7
       0.0001564513 -0.0004997795 0.00043373564 -3.0479598e-05
0000f0 c6 4f bd 31 5c 86 99 b8 12 65 73 b9 ef f9 f8 39
       5.509693e-09 -7.320635e-05 -0.00023211938 0.0004748846
000100 2f c6 b4 b9 08 01 42 28 55 04 cd b8 03 25 0f b9
       -0.00034479934 1.0769387e-14 -9.775969e-05 -0.0001365133
000110 02 3f ab b9 6e 46 a2 b9 f2 ff 26 b1 04 ae 32 39
       -0.00032662606 -0.00030951522 -2.4301667e-09 0.00017040229
000120 26 3a ed b9 9d 94 67 39 5f 33 37 ba 6b ee a7 ab
       -0.00045247487 0.0002208524 -0.0006988551 -1.1932238e-12
000130 52 48 63 39 b2 17 ab b9 20 81 69 b9 8c 3c 76 b9
       0.00021675348 -0.00032633316 -0.00022268714 -0.00023482944
000140 d4 cd 93 b1 f8 6c 09 37 5c cc e6 b8 8c 5e 14 ba
       -4.301663e-09 8.191208e-06 -0.000110053195 -0.00056598405
000150 f4 06 89 ba 3b 9e 00 aa 8b e3 6e 39 be 4d 63 b9
       -0.0010454343 -1.1423581e-13 0.00022782215 -0.00021677368
000160 af f1 0d ba 38 03 58 b8 9f e9 20 b2 14 2b c7 37
       -0.0005414737 -5.150141e-05 -9.366345e-09 2.3742708e-05
000170 dc 2a cb 38 4d 2f ac ba 34 02 80 ba 9e 90 00 aa
       9.6877775e-05 -0.0013136655 -0.0009766282 -1.1418858e-13
000180 62 c4 6b b8 8a a4 2d b8 5f 5b 12 ba fe 9b d6 b9
       -5.6211262e-05 -4.1399653e-05 -0.00055830734 -0.00040933484
000190 0a 00 1b 31 3e 9d 93 b9 4c ff 4f 39 57 4c 37 ba
       2.255549e-09 -0.0002815518 0.00019836164 -0.00069922715
0001a0 66 9b 3b ba 46 0b ff a9 21 b8 27 ba 3c 2e a0 38
       -0.000715664 -1.13262305e-13 -0.0006397982 7.638006e-05
0001b0 52 5c 29 b9 be 72 ac b9 cb e3 8a 30 82 72 a8 b9
       -0.00016151488 -0.00032891886 1.0105564e-09 -0.00032128772
0001c0 a7 da b6 39 fe d0 9f ba f0 7c 48 ba d1 e8 4c ac
       0.00034876654 -0.0012193022 -0.00076480117 -2.9119383e-12
0001d0 5e c0 a5 b8 f4 df 03 3a e4 51 37 ba ea fa b2 b9
       -7.903644e-05 0.0005030625 -0.00069930987 -0.0003413775
0001e0 a0 a4 53 ac 33 0e 39 38 72 d2 5e 39 c4 29 8c b9
       -3.0076289e-12 4.412066e-05 0.00021249967 -0.00026734
0001f0 63 31 b3 b9 de e8 4c ac 1c 16 c4 b7 c5 68 1c b9
       -0.00034178337 -2.911941e-12 -2.3375316e-05 -0.00014916349
000200 42 7d af b8 79 2b 91 b9 c9 43 53 ac 9d 23 47 39
       -8.367981e-05 -0.00027688945 -3.0022532e-12 0.00018991386
000210 b1 48 da b8 70 cb 46 b8 98 c6 44 b9 9e b9 5c ac
       -0.0001040859 -4.7396345e-05 -0.00018765999 -3.1366919e-12
000220 10 37 d1 b8 98 6c 95 37 60 fe 5e b7 e6 ce 10 ba
       -9.976153e-05 1.7812752e-05 -1.3291457e-05 -0.00055239943
000230 72 5d 94 ac a4 6d a1 37 be 42 85 39 9f 50 fd b9
       -4.2167875e-12 1.9243751e-05 0.00025417464 -0.00048315988
000240 f4 46 40 b9 96 b9 5c ac fb 4c 4f b9 be bd 14 39
       -0.00018336979 -3.1366901e-12 -0.00019769736 0.00014185064
000250 10 33 53 b8 f8 dc 39 b9 96 b9 5c ac fb 4c 4f b9
       -5.0353876e-05 -0.00017725292 -3.1366901e-12 -0.00019769736
000260 be bd 14 39 10 33 53 b8 f0 dc 39 b9 68 ea 32 b9
       0.00014185064 -5.0353876e-05 -0.0001772528 -0.00017062726
000270 89 d5 93 b9 f6 1e 3e b9 46 dd a3 3c 3b 46 83 b9
       -0.0002819712 -0.00018131346 0.020002972 -0.00025038593
000280 cc 73 6f b9 34 65 d6 b3 1d 45 36 b9 05 ef ac 2e
       -0.00022835954 -9.98356e-08 -0.00017382619 7.864113e-11
000290 c0 2e 1b b9 50 43 c8 37 6c 49 09 ba 61 36 01 ba
       -0.00014799368 2.3873203e-05 -0.0005237076 -0.00049290626
0002a0 89 d1 b4 2e 16 c6 4a b9 f3 15 1f 39 6c 97 f2 b9
       8.222673e-11 -0.00019338014 0.00015171598 -0.00046270655
0002b0 f8 24 ab b9 42 64 33 30 5c 21 97 b9 15 11 2c b9
       -0.00032643205 6.5262296e-10 -0.0002882582 -0.00016409562
0002c0 55 dd 2b b9 48 eb 07 ba 1d 07 b9 2e b2 00 85 b9
       -0.00016390283 -0.0005184901 8.4140896e-11 -0.00025368255
0002d0 8a 02 52 39 8e f2 31 b9 76 2e 36 b9 38 d2 1f 31
       0.00020028107 -0.00016970394 -0.0001737418 2.325704e-09
0002e0 20 da 21 b9 24 bb 65 b7 b4 bf bb b9 62 32 cd b9
       -0.00015435414 -1.3693036e-05 -0.0003581025 -0.00039138185
0002f0 26 16 b0 2e 24 8b 61 b9 3a f5 e3 38 00 a9 84 38
       8.007488e-11 -0.00021509506 0.000108698805 6.325729e-05
000300 9a da 37 b9 51 2c 2d b1 07 3e c0 b9 f1 ad 6e 38
       -0.00017533675 -2.5200004e-09 -0.00036667308 5.6905617e-05
000310 66 ee 66 b9 60 fa a2 b9 d8 ba a7 ad d5 16 50 38
       -0.0002202332 -0.00031085592 -1.9068677e-11 4.961233e-05
000320 4c 6e 18 b8 17 ba 05 b8 2d fb 4a b9 ef 57 25 b1
       -3.6342346e-05 -3.188298e-05 -0.00019357791 -2.4060645e-09
000330 39 24 93 b8 03 71 6c b8 17 8f b3 b9 ad 06 9a b9
       -7.016253e-05 -5.6372035e-05 -0.0003424815 -0.00029378143
000340 fc 9a be ad 46 86 11 b9 c4 e9 70 38 52 90 77 b9
       -2.1669326e-11 -0.00013878298 5.743817e-05 -0.00023609519
000350 04 96 7b b9 45 b4 8a b0 e8 0e 88 b7 b0 25 4f 36
       -0.0002399311 -1.0092057e-09 -1.6219405e-05 3.086734e-06
000360 20 f6 1c 37 56 76 f2 b8 6f 63 6b ac 87 c7 5f b9
       9.35563e-06 -0.00011561501 -3.3450705e-12 -0.00021341267
000370 cd 9e b3 b7 c4 c8 f3 37 f0 6f 4b b9 76 41 75 b0
       -2.141241e-05 2.9061346e-05 -0.00019401289 -8.9223506e-10
000380 2e fc 93 b7 ac 39 d5 b8 50 92 89 39 9d 51 77 b9
       -1.7641196e-05 -0.00010167374 0.00026239688 -0.00023586159
000390 c8 fd e6 27 25 07 c7 b8 5a 57 12 b8 7d 62 97 b9
       6.4112974e-15 -9.49039e-05 -3.4890465e-05 -0.00028874344
0003a0 2c 4c 8b b9 25 cf 3e b0 10 30 cb 38 b1 28 6e b8
       -0.00026568898 -6.941597e-10 9.688747e-05 -5.678152e-05
0003b0 c5 45 3d b9 cb 31 f4 b9 9f b2 76 ab 53 42 96 b9
       -0.00018050436 -0.00046576405 -8.7644643e-13 -0.00028659645
0003c0 b2 16 85 37 c0 92 cf b7 77 69 5a b9 fa f5 c6 b0
       1.5865404e-05 -2.4744659e-05 -0.00020829389 -1.4476307e-09
0003d0 b2 50 72 37 81 18 be b7 bd 1b ac b9 61 ff 23 ba
       1.4443112e-05 -2.2661176e-05 -0.00032827063 -0.0006256011
0003e0 af d5 9a aa 17 de a5 b8 b4 bc 09 38 3b e8 98 b9
       -2.7504168e-13 -7.9091806e-05 3.283909e-05 -0.00029164724
0003f0 ae d2 89 b9 67 cc 85 b1 46 42 25 b8 e8 c0 8b 37
       -0.00026287645 -3.8940473e-09 -3.9400788e-05 1.665992e-05

exp_avg_sq f4 [128, 163]
000000 c1 8e 8a 32 87 35 8d 35 65 01 c8 35 8a 40 df 36
       1.6130231e-08 1.0520897e-06 1.4901567e-06 6.6534312e-06
000010 84 c9 38 37 8c be 89 32 8e 2b d8 35 46 45 b8 35
       1.1014174e-05 1.603555e-08 1.610593e-06 1.372923e-06
000020 55 5f f8 36 69 67 4d 37 1b 16 a3 32 a0 cb 8c 35
       7.402074e-06 1.2243029e-05 1.898575e-08 1.0490076e-06
000030 f2 fb bb 35 01 c9 c1 36 7a 98 23 37 bc db 88 32
       1.4005911e-06 5.775248e-06 9.751058e-06 1.5932407e-08
000040 94 ba 17 36 aa bb db 35 bb 20 eb 36 e2 85 56 37
       2.2609356e-06 1.6371389e-06 7.007356e-06 1.2786566e-05
000050 75 f2 a5 32 d8 45 9a 35 6c 9b b7 35 bf 0a 9f 36
       1.9318785e-08 1.1494221e-06 1.3679796e-06 4.7398203e-06
000060 2c a0 0d 37 df f2 85 32 c5 ef 47 36 63 c5 eb 35
       8.441548e-06 1.5593683e-08 2.9792875e-06 1.7566311e-06
000070 e3 44 c0 36 d2 0b 4b 37 fe 9f c9 32 6d 83 b2 35
       5.7300654e-06 1.2102495e-05 2.3472236e-08 1.3300283e-06
000080 07 2f af 35 c4 d7 97 36 ec 59 06 37 08 17 ef 31
       1.3052203e-06 4.525269e-06 8.007959e-06 6.958434e-09
000090 e7 cc 7d 36 46 50 0b 36 1a 1f 9c 36 c5 83 3e 37
       3.7819207e-06 2.075934e-06 4.652783e-06 1.13555625e-05
0000a0 53 8a b8 32 d3 5c d3 35 2f c3 ac 35 f2 27 88 36
       2.1483322e-08 1.574774e-06 1.2871805e-06 4.057766e-06
0000b0 01 30 00 37 ec cd c8 31 0a 4d 84 36 ba 65 10 36
       7.640571e-06 5.8441767e-09 3.942875e-06 2.1516885e-06
0000c0 c5 12 88 36 ea 4c 3a 37 f4 90 50 32 c0 11 d3 35
       4.055301e-06 1.1104372e-05 1.2140152e-08 1.5725891e-06
0000d0 f9 f6 a5 35 7b b0 89 36 9f 4b 01 37 bb cf 62 31
       1.2365336e-06 4.103463e-06 7.706606e-06 3.300541e-09
0000e0 72 60 8b 36 d6 ca 1f 36 e6 fd 86 36 29 81 36 37
       4.1537505e-06 2.3810912e-06 4.023069e-06 1.0878118e-05
0000f0 47 80 49 32 83 9a de 35 ea b8 ab 35 99 f5 91 36
       1.1728907e-08 1.6585258e-06 1.279431e-06 4.349928e-06
000100 74 66 09 37 7e 9f 60 31 9c f2 97 36 81 69 1b 36
       8.189691e-06 3.268695e-09 4.528394e-06 2.3158211e-06
000110 89 75 8b 36 ea d0 35 37 d4 eb 14 32 aa 41 cc 35
       4.1562057e-06 1.0837082e-05 8.668355e-09 1.5218295e-06
000120 dd 57 a8 35 97 e3 ad 36 3b 58 1a 37 a7 db a5 31
       1.2542547e-06 5.1822967e-06 9.199658e-06 4.8271036e-09
000130 98 02 9a 36 ea 1a 2b 36 fd 52 79 36 e7 69 30 37
       4.5898596e-06 2.5496652e-06 3.7152197e-06 1.0515075e-05
000140 af bd 15 32 70 56 a8 35 0e 87 9e 35 f0 e8 cc 36
       8.7160705e-09 1.2542132e-06 1.1811223e-06 6.1067913e-06
000150 9b d0 29 37 b4 4c 99 31 99 4b 90 36 9a ca 27 36
       1.0121755e-05 4.461606e-09 4.300335e-06 2.5002869e-06
000160 12 e7 73 36 c0 94 30 37 ca 5e 26 32 bf ae 94 35
       3.6344322e-06 1.0525051e-05 9.684024e-09 1.1077717e-06
000170 84 86 8a 35 6a ed fa 36 38 7c 41 37 db 84 9a 31
       1.032095e-06 7.4782192e-06 1.1532618e-05 4.497094e-09
000180 89 bf 83 36 b7 ce 29 36 fa 58 92 36 7d 68 3a 37
       3.926402e-06 2.5303286e-06 4.3614973e-06 1.1110792e-05
000190 c9 db c1 31 f2 29 9c 35 ad ea 6e 35 ab b4 05 37
       5.642026e-09 1.1635113e-06 8.900341e-07 7.969483e-06
0001a0 3e b0 4b 37 5b 28 b8 31 83 72 53 36 5e 58 1c 36
       1.21407775e-05 5.3596927e-09 3.1508105e-06 2.3297248e-06
0001b0 75 c6 be 36 13 3f 50 37 a0 76 d0 31 74 b9 b9 35
       5.6855447e-06 1.2412452e-05 6.067083e-09 1.3837548e-06
0001c0 69 ac 6c 35 a7 b3 04 37 17 24 52 37 ec fe f6 31
       8.816774e-07 7.909642e-06 1.2525378e-05 7.1885236e-09
0001d0 cf 8e 0f 36 36 d9 0d 36 fb 61 ee 36 08 cd 5f 37
       2.1391786e-06 2.113707e-06 7.104359e-06 1.3339573e-05
0001e0 40 fa c5 31 36 74 c2 35 f6 08 4f 35 61 1f 09 37
       5.7619047e-09 1.4487948e-06 7.712655e-07 8.173142e-06
0001f0 94 4f 5c 37 49 d9 0b 32 eb 02 c7 35 10 94 dc 35
       1.313155e-05 8.14027e-09 1.4827505e-06 1.6434369e-06
000200 3a d5 1b 37 4e 7b 6f 37 2a 9a e7 31 f2 8d a9 35
       9.288366e-06 1.4274219e-05 6.7405113e-09 1.2632793e-06
000210 f2 8e 09 35 a2 b1 14 37 ba 97 63 37 0a 76 12 32
       5.124449e-07 8.862846e-06 1.3565581e-05 8.5251575e-09
000220 68 f5 8b 35 ea 1f 98 35 9a ba 36 37 0d a0 7a 37
       1.042773e-06 1.1334171e-06 1.0891492e-05 1.4938426e-05
000230 f7 20 e1 31 89 7d 8c 35 25 f7 07 35 8b fc 32 37
       6.5521095e-09 1.0467348e-06 5.065106e-07 1.06684265e-05
000240 c4 bd 72 37 7e 27 d9 31 b2 bb 61 35 63 82 3b 35
       1.4468507e-05 6.320021e-09 8.4092164e-07 6.9852666e-07
000250 2d 0f 45 37 bc 52 80 37 7e 27 d9 31 b2 bb 61 35
       1.1745648e-05 1.5297315e-05 6.320021e-09 8.4092164e-07
000260 63 82 3b 35 2d 0f 45 37 bc 52 80 37 d3 38 33 36
       6.9852666e-07 1.1745648e-05 1.5297315e-05 2.6706155e-06
000270 d0 57 88 37 90 55 d2 35 21 8e ad 3d 71 15 a4 36
       1.6253354e-05 1.5671121e-06 0.084743746 4.890077e-06
000280 e1 74 10 37 80 5b 8c 36 c3 b6 3d 36 79 ea b7 31
       8.610282e-06 4.182977e-06 2.8269576e-06 5.3526574e-09
000290 e4 ca a0 34 3a 07 c6 34 98 2c da 35 15 64 25 36
       2.9949945e-07 3.6885632e-07 1.6255244e-06 2.4645171e-06
0002a0 03 12 b8 31 9e 00 e9 34 fe 9e c6 34 5a 81 f7 35
       5.3571525e-09 4.340008e-07 3.6996056e-07 1.844058e-06
0002b0 6a bb 39 36 2a d2 b6 31 d7 d0 af 34 99 39 ae 34
       2.7676238e-06 5.32079e-09 3.274824e-07 3.2451933e-07
0002c0 c4 ea b7 35 af 54 0f 36 e4 73 b9 31 99 e5 33 35
       1.3702888e-06 2.1357953e-06 5.397384e-09 6.7016805e-07
0002d0 dc 4e fc 34 d8 cf d2 35 74 57 37 36 01 da b4 31
       4.6996036e-07 1.570671e-06 2.732003e-06 5.2634737e-09
0002e0 e2 5a e8 34 a2 e8 8e 34 66 ac 8a 35 9b 44 ea 35
       4.3279493e-07 2.6618824e-07 1.0331976e-06 1.7454325e-06
0002f0 7d 34 b1 31 9e f3 77 35 18 23 0d 35 53 5c 95 35
       5.157345e-09 9.236918e-07 5.257766e-07 1.1128235e-06
000300 b5 d0 25 36 4b d6 d6 31 b3 2b f7 34 55 58 60 34
       2.47084e-06 6.252582e-09 4.603913e-07 2.089376e-07
000310 30 7d 87 35 b6 ff e2 35 4f 90 2f 31 ad da 92 35
       1.0094718e-06 1.6912734e-06 2.5547882e-09 1.0941491e-06
000320 d5 ac 20 35 b5 ce 7b 35 c5 75 1c 36 5f f2 c3 31
       5.985615e-07 9.3805585e-07 2.3314362e-06 5.7028013e-09
000330 90 c5 14 35 38 f0 4e 34 ee 2b 85 35 4a bd e5 35
       5.542179e-07 1.9272636e-07 9.922057e-07 1.711692e-06
000340 2d 40 1a 31 ce 2c 9c 35 f3 a1 1a 35 de 22 4c 35
       2.244643e-09 1.1635946e-06 5.760514e-07 7.604666e-07
000350 e1 34 13 36 28 51 4b 31 a8 cf 10 35 42 83 49 34
       2.1935487e-06 2.958652e-09 5.394636e-07 1.8767335e-07
000360 cc 56 81 35 29 9a e2 35 5c 7c d0 30 f0 56 a1 35
       9.63651e-07 1.6883179e-06 1.5169337e-09 1.2020737e-06
000370 1b f6 1e 35 32 47 55 35 1a a0 11 36 72 f8 2d 31
       5.921772e-07 7.9452286e-07 2.1699875e-06 2.5316038e-09
000380 48 4d 0c 35 c5 88 7a 34 19 7e 88 35 76 69 eb 35
       5.2266523e-07 2.3332821e-07 1.0169489e-06 1.7539558e-06
000390 c6 5b df 30 da 10 a7 35 bc 8b 1c 35 1e 9e 61 35
       1.6251469e-09 1.2447374e-06 5.831787e-07 8.404912e-07
0003a0 2d 69 12 36 8e b6 2b 31 cb 79 fa 34 b7 19 79 34
       2.1816916e-06 2.4987545e-09 4.6654745e-07 2.3199287e-07
0003b0 cc 3a 98 35 2d 1f 02 36 b7 5f 23 31 a3 c1 a7 35
       1.1341995e-06 1.9389656e-06 2.377403e-09 1.2498825e-06
0003c0 c8 58 30 35 5b 09 3b 35 58 e5 0d 36 b6 53 54 31
       6.5694303e-07 6.967654e-07 2.1144133e-06 3.0897644e-09
0003d0 dc ec d5 34 a5 2e 91 34 4e d8 ac 35 c5 9a 10 36
       3.984668e-07 2.7042293e-07 1.2877952e-06 2.154776e-06
0003e0 85 73 0c 31 25 dd 97 35 e5 b4 30 35 ed 7b 56 35
       2.0438347e-09 1.1314738e-06 6.5828345e-07 7.990155e-07
0003f0 7d 3a 15 36 35 2e 85 31 a9 ab 9a 34 80 7b 61 34
       2.2236775e-06 3.8760626e-09 2.8809635e-07 2.0999687e-07

exp_avg f4 [128]
000000 44 16 d2 b9 cc 33 e7 b9 6e d0 b4 b9 41 68 a4 38
       -0.0004007091 -0.00044098345 -0.00034487568 7.839548e-05
000010 73 0f 04 3a 98 69 de 37 f0 6e 50 38 1a 1a ac 39
       0.00050377025 2.6513633e-05 4.9694383e-05 0.00032825844
000020 04 00 4f 38 36 ff c0 b8 72 59 d4 39 ca 4e 26 ba
       4.935266e-05 -9.20281e-05 0.00040502433 -0.0006344138
000030 fb d4 ef b9 06 4d cf 38 ca 6f f4 36 66 76 df b9
       -0.00045744315 9.884876e-05 7.2847806e-06 -0.00042622088
000040 58 fc 6b b9 59 ea b6 39 7c c3 53 b8 5a fc e0 b8
       -0.00022505352 0.00034888348 -5.048838e-05 -0.000107281565
000050 d6 2e fa 38 1f f2 da 39 7a 31 1e b9 82 ad b1 b9
       0.00011929653 0.00041760594 -0.00015086486 -0.00033889344
000060 4b 86 2f 39 7e a8 5f b9 c6 c2 0a 3a bc 46 a9 38
       0.00016739329 -0.00021329705 0.0005293306 8.071723e-05
000070 9c 7f 64 38 38 09 b7 38 00 c9 e3 b9 70 47 3e 3a
       5.447828e-05 8.727837e-05 -0.0004344657 0.000725857
000080 71 5a 02 b7 1b 6d f2 b6 f6 2b 13 ba 51 0c 00 ba
       -7.769661e-06 -7.2248636e-06 -0.00056141557 -0.0004884648
000090 08 f3 8f 38 5e 1c 11 3a 7e 98 9a 39 30 1d 56 b8
       6.8640395e-05 0.0005535538 0.00029486784 -5.104876e-05
0000a0 6a 36 ce 38 6c 81 ec 38 31 db c9 b9 3a d9 d9 39
       9.832981e-05 0.00011277464 -0.00038501018 0.00041551312
0000b0 11 53 53 ba b9 13 49 39 5b 83 98 39 04 dd bf b8
       -0.0008061389 0.00019176201 0.00029089567 -9.148757e-05
0000c0 06 7d b1 39 2c 9d 45 38 a3 a3 44 39 a4 5c 2a 38
       0.0003385322 4.7114838e-05 0.00018752976 4.0617437e-05
0000d0 c1 1b 9d 39 cc 73 b3 38 40 57 20 b9 22 3c 03 3a
       0.00029966052 8.556954e-05 -0.00015291292 0.0005006214
0000e0 a3 5c 9e 39 03 e7 a4 38 d0 2c bd 38 7e d1 ec b8
       0.00030205128 7.863159e-05 9.020569e-05 -0.00011292378
0000f0 d3 80 b4 b9 ef 9e 45 39 d1 ec 2a 39 4c c4 1a 37
       -0.00034428257 0.00018846591 0.00016300684 9.224819e-06
000100 a0 74 fc b9 d4 b5 7d ba 4e 49 02 ba 18 21 4b b8
       -0.00048152078 -0.00096782786 -0.00049700297 -4.8429793e-05
000110 7b 1a 0b b9 f6 ea 58 39 bf a6 17 38 d8 95 ec 39
       -0.00013265938 0.00020686895 3.61565e-05 0.0004512507
000120 dd d3 82 b9 f2 05 c2 b8 e0 82 34 b7 4e f4 44 39
       -0.00024953383 -9.251748e-05 -1.0759308e-05 0.00018783027
000130 f8 66 66 b7 c8 d4 79 38 3f 68 46 39 4e 63 02 b9
       -1.3733043e-05 5.9564394e-05 0.00018921586 -0.0001243476
000140 8c a3 8a 39 0e aa 24 3a d2 26 23 b9 23 20 80 37
       0.00026443263 0.00062814436 -0.00015559353 1.5273754e-05
000150 a7 12 35 b9 f2 e5 11 3a 90 46 b3 37 e2 56 2b b7
       -0.00017268454 0.00055655756 2.1371321e-05 -1.0212623e-05
000160 77 f1 d6 38 76 fe 7a b9 bc ab 90 b9 e9 70 23 b9
       0.000102492915 -0.00023936652 -0.00027593772 -0.00015586954
000170 64 36 eb b8 49 06 52 b9 a7 0b af 37 b0 12 65 39
       -0.00011215804 -0.00020029502 2.0867052e-05 0.00021846103
000180 64 0c 99 ba f3 9c a0 38 c8 1a fc 36 38 be 3e 37
       -0.0011676666 7.6586286e-05 7.513303e-06 1.1369171e-05
000190 e8 f6 1c 38 aa 89 0d b9 26 29 03 b7 98 95 f3 b9
       3.7423248e-05 -0.00013498092 -7.817789e-06 -0.00046460028
0001a0 67 ba 91 38 17 9a 2e 39 24 97 28 38 30 fd ef b8
       6.948859e-05 0.00016651336 4.0195082e-05 -0.00011443568
0001b0 20 8f 63 35 ab 9e 0e 39 d4 26 8d 38 3a 6f 64 b9
       8.4772364e-07 0.00013601284 6.730636e-05 -0.0002178521
0001c0 a2 ad ce b9 67 ec 59 39 3c bf b5 b7 c0 4e 71 b9
       -0.00039420748 0.000207828 -2.1665932e-05 -0.00023012888
0001d0 b8 aa 80 b8 ce 5d 8f b8 47 55 a0 38 de 73 b8 38
       -6.1353145e-05 -6.836244e-05 7.645279e-05 8.795386e-05
0001e0 00 f5 6e b9 5e f0 9f b7 3a 48 d3 b9 2d 6c ab 38
       -0.00022788718 -1.9066207e-05 -0.0004029887 8.174065e-05
0001f0 64 17 b0 b9 ae 99 b0 38 f7 f9 45 ba e0 36 1c b8
       -0.00033586763 8.420959e-05 -0.0007552201 -3.7244405e-05
