Trained_Policies/WeightAgent_Training/WeightAgent_Training/WeightAgent_Training-366999987.pt (torch, 926628 bytes, 33 tensors)

network_body._body_endoder.seq_layers.0.weight f4 [128, 163]
0.31914267 -0.09738744 -0.45684442 0.13913956 0.37286776 0.1825642 -0.013471008 -0.4116948
-0.29038703 0.11386532 0.47816962 -0.09047424 -0.41516092 0.21675715 0.6426187 -0.03648955
-0.083197765 -0.25238958 -0.74142754 0.09004881 0.5483011 -0.08498545 0.08604852 0.03364983
0.5404643 0.08993325 -0.019319052 -0.26078334 -0.09193398 -0.116347015 0.2647981 0.09574223
0.08090328 0.044307396 0.57551247 -0.22426248 0.079767 -0.49237996 -0.18428528 -0.16702424
-0.03570935 -0.003401141 0.002226555 0.14208272 0.3254058 -0.15697737 0.09729943 -0.12297292
0.22256148 -0.07312485 -0.044944286 0.116067424 -0.11276208 -0.014955653 0.10343745 0.050322413
0.26261646 -0.22466153 -0.17624307 0.006097956 -0.009253354 0.08894663 -0.17587098 -0.2300819
-0.045158345 -0.201832 -0.09518249 -0.112405136 -0.3221797 0.06107503 -0.2787253 -0.027275028
-0.29348913 -0.26844844 -0.100104794 -0.21748622 -0.53393626 -0.22524719 -0.16282825 0.04160537
-0.3013198 0.061917808 -0.2514315 0.17268954 -0.21574 0.20969014 -0.7544317 -0.102991104
-0.12990774 0.033886146 0.08898183 0.13333663 -0.18136752 0.070353955 -0.48212168 0.3562213
-0.07002186 -0.20082039 0.020695517 0.023931686 -0.049363047 -0.09537605 -0.09328639 0.04972056
-0.28323114 0.31801403 0.030888556 -0.07246823 -0.06561687 0.011856045 -0.0880829 0.02712526
-0.014244123 -0.0282331 -0.21009746 0.2840339 -0.021123126 -0.07018672 -0.077423215 -0.012391833
-0.11205395 0.036584333 -0.21464974 0.054375395 -0.20798527 0.12369726 0.07961773 0.23062915
-0.21683921 -0.15536644 -0.28360716 -0.035863094 0.07202154 -0.1724888 -0.29748237 0.0912482
-0.093043625 0.123879015 0.08927901 -0.07865651 -0.11520285 -0.029022414 -0.006808141 0.21812898
-0.040957075 0.029175702 0.01797503 -0.024625164 -0.009803202 -0.0051143137 -0.11522073 -0.06426866
0.058485612 0.111360185 -0.02613429 -0.6251879 -0.041025985 -0.8545689 0.005042606 -0.04479028
0.5685836 -0.33702326 0.007636308 -0.20345302 -0.23343945 -0.6229047 -0.6143784 -0.33638114
-0.21131332 -0.008125539 -0.35461006 0.33861 0.21656252 -0.26058552 -0.3409283 -0.6573162
0.11474788 -0.14260852 -0.2564504 0.37761268 -0.037542243 -0.2620199 0.042898577 -0.16988806
-1.1552254 -0.34020704 -0.20800446 -0.34263256 0.032660384 -0.0636761 -0.15986942 -0.27573717
-0.12886892 -0.13572711 -0.7766015 -0.019707605 -0.21415384 -0.22724247 -0.0889184 -0.47389627
-0.51737577 0.33698288 0.23434871 0.32483104 -0.5300732 0.1472397 0.060905393 0.016351487
0.059190035 -0.4424481 -0.5099475 0.049934424 0.037358034 0.29802176 -0.1730621 -0.02617183
0.01306206 0.22843526 -0.062325127 0.1303311 -0.36063015 -0.2450754 0.049010977 -0.14192735
-0.18850768 0.06659687 0.0911214 0.07577979 -0.1264914 -0.07703554 -0.3949476 0.06556073
0.12344587 -0.26743078 0.18441316 -0.028173912 -0.06848197 0.00029487364 -0.2806375 0.0458124
-0.0934223 -0.19470313 -0.118346766 -0.15140569 -0.30089638 -0.24267927 0.12529948 0.14102687
-0.5640921 -0.08054784 -0.0023387056 -0.07515393 -0.20530207 0.044834554 -0.2101563 -0.10581929
00000000: ab66 a33e 1173 c7bd 83e7 e9be 9a7a 0e3e
00000010: 86e8 be3e 1cf2 3a3e 81b5 5cbc a9c9 d2be
00000020: 9cad 94be 3932 e93d a6d2 f43e 8f4a b9bd
00000030: f98f d4be 96f5 5d3e a982 243f 1176 15bd
00000040: 9763 aabd 3539 81be 32ce 3dbf 836b b83d
00000050: 765d 0c3f da0c aebd 353a b03d 67d4 093d
00000060: de5b 0a3f ec2e b83d fd42 9ebc 6585 85be
00000070: e247 bcbd 5847 eebd 9e93 873e 8114 c43d
00000080: 9eb0 a53d ac7b 353d c954 133f 10a5 65be
00000090: e25c a33d 3a19 fcbe 48b5 3cbe 6708 2bbe
000000a0: f843 12bd ade5 5ebb 65eb 113b 227e 113e
000000b0: 979b a63e adbe 20be ec44 c73d 3ad9 fbbd
000000c0: 28e7 633e 7bc2 95bd 8017 38bd c2b4 ed3d
000000d0: ceef e6bd 8e08 75bc 04d7 d33d e01e 4e3d
000000e0: aa75 863e ac0d 66be 1079 34be 5dd1 c73b
000000f0: 619b 17bc a729 b63d 8617 34be 979a 6bbe
00000100: f5f7 38bd 0cad 4ebe 0aef c2bd aa34 e6bd
00000110: bdf4 a4be d029 7a3d 15b5 8ebe e16f dfbc
00000120: 3544 96be 1372 89be be03 cdbd b5b4 5ebe
00000130: 0cb0 08bf 33a7 66be 73bc 26be 646a 2a3d
00000140: 9746 9abe 879d 7d3d a1bb 80be 87d5 303e
00000150: f2ea 5cbe 03b9 563e 7022 41bf 00ed d2bd
00000160: 8906 05be 33cc 0a3d 1b3c b63d 6689 083e
00000170: 68b8 39be bc15 903d a7d8 f6be a362 b63e
00000180: 9f67 8fbd dca3 4dbe a589 a93c 620c c43c
00000190: e830 4abd 8554 c3bd ef0c bfbd c9a7 4b3d
000001a0: ac03 91be bcd2 a23e ff09 fd3c 396a 94bd
000001b0: 2362 86bd db3f 423c cf64 b4bd cb35 de3c
000001c0: 2f60 69bc 1a49 e7bc ca23 57be e46c 913e
000001d0: 680a adbc 0ebe 8fbd 1090 9ebd 1d07 4bbc
000001e0: 8b7c e5bd 74d9 153d 24cd 5bbe bcb8 5e3d
000001f0: 17fa 54be fd54 fd3d 9f0e a33d 0c2a 6c3e
00000200: 190b 5ebe 6118 1fbe f534 91be 2ee5 12bd
00000210: 0780 933d e7a0 30be 9c4f 98be 56e0 ba3d
00000220: a88d bebd 48b4 fd3d ead7 b63d aa16 a1bd
00000230: 79ef ebbd 6ac0 edbc d316 dfbb 345d 5f3e
00000240: 9bc2 27bd e201 ef3c 5f40 933c b6ba c9bc
00000250: 9c9d 20bc f995 a7bb d9f8 ebbd 4a9f 83bd
00000260: 9c8e 6f3d cf10 e43d 9417 d6bc 500c 20bf
00000270: dd0a 28bd 07c5 5abf 723c a53b 0376 37bd
00000280: b28e 113f 508e acbe ff39 fa3b fd55 50be
00000290: c00a 6fbe af76 1fbf e747 1dbf 263a acbe
000002a0: 8562 58be fb20 05bc 738f b5be 4a5e ad3e
000002b0: 91c2 5d3e 776b 85be 278e aebe e045 28bf
000002c0: f000 eb3d f807 12be 784d 83be 7356 c13e
000002d0: e5c5 19bd 7927 86be 6bb6 2f3d 23f7 2dbe
000002e0: 6dde 93bf 9e2f aebe 1fff 54be 896d afbe
000002f0: e5c6 053d 9d68 82bd cfb4 23be 6c2d 8dbe
00000300: 37f6 03be 0cfc 0abe 5bcf 46bf d871 a1bc
00000310: 254b 5bbe 40b2 68be da1a b6bd 88a2 f2be
00000320: bd72 04bf 0589 ac3e 1cf9 6f3e 4150 a63e
00000330: e1b2 07bf 01c6 163e ef77 793d 8ef3 853c
00000340: 4071 723d 8f88 e2be eb8b 02bf 0a88 4c3d
00000350: bd04 193d 4f96 983e 3137 31be 4e66 d6bc
00000360: 4002 563c efea 693e a248 7fbd 8475 053e
00000370: 84a4 b8be 0cf5 7abe bcbf 483d 6755 11be
00000380: 2808 41be f163 883d db9d ba3d 6f32 9b3d
00000390: f686 01be cfc4 9dbd 9236 cabe b444 863d
000003a0: 30d1 fc3d b0ec 88be ced6 3c3e facc e6bc
000003b0: 4640 8cbd 4599 9a39 b8af 8fbe c8a5 3b3d
000003c0: 3154 bfbd 4260 47be ca5f f2bd 180a 1bbe
000003d0: 170f 9abe ea80 78be 824e 003e 5969 103e
000003e0: 5768 10bf 44f6 a4bd f844 19bb 4eea 99bd
000003f0: b53a 52be 70a4 373d 3733 57be c9b7 d8bd

network_body._body_endoder.seq_layers.0.bias f4 [128]
-0.106370024 -0.17438903 -0.16945295 -0.13262862 -0.07508589 -0.3380723 -0.11011943 -0.051065832
0.26769087 -0.11144808 0.17050435 0.18112513 0.04331925 -0.1201067 -0.21986173 -0.32785112
0.32410005 -0.15737733 -0.20701028 0.22065495 0.011783676 0.04320015 -0.17915992 -2.7983382e-05
0.072506644 -0.00517706 0.045737606 0.19291668 -0.17843391 0.10448036 -0.16820554 0.14887449
-0.6910421 -0.0022911713 -0.4764126 -0.0105490405 -0.255001 -0.06794352 -0.44860253 -0.12312904
0.2078502 0.12690501 0.23329055 -0.0603125 -0.13030207 -0.014945957 0.32416058 -0.35909346
0.22720192 0.009542712 0.19183773 -0.16661008 0.21234612 0.35996228 -0.06817258 -0.31222382
0.051572513 0.093529716 -0.15926504 0.2827307 -0.13214833 -0.26866972 -0.0024851812 0.13926396
0.011730261 -0.026169265 0.14538814 0.2750107 0.16302775 0.20683324 0.18422662 0.2643433
-0.23177858 0.033451516 -0.1055817 0.14395651 -0.077781335 0.12851176 -0.416425 0.29376093
-0.061398268 -0.11339853 -0.38175267 0.04531729 -0.1682848 -0.013002301 0.2639256 -0.17453499
-0.052099776 0.0691175 -0.21378998 -0.6330455 -0.09452665 0.22483437 0.15423408 -0.091087215
0.34899423 0.3242292 0.21078469 -0.3387584 0.110055625 0.085678816 0.04552677 0.16967845
0.1875573 -0.1353173 0.17073815 0.043927535 0.08428961 0.1712693 0.2531495 0.2959373
0.298637 0.25855726 0.062159035 -0.028648091 -0.21802123 0.021307489 0.17367068 -0.089302085
-0.41885358 0.023657419 0.24425396 0.17892471 0.14602816 0.4004106 -0.18845075 -0.21965349
00000000: 87d8 d9bd 0a93 32be 1385 2dbe cccf 07be
00000010: a2c6 99bd d017 adbe 4c86 e1bd 682a 51bd
00000020: c70e 893e e43e e4bd b198 2e3e de78 393e
00000030: 876f 313d 80fa f5bd 6f23 61be 1adc a7be
00000040: 71f0 a53e 8627 21be 81fa 53be 5ff3 613e
00000050: 5210 413c a4f2 303d b375 37be dbbd eab7
00000060: 5d7e 943d 54a4 a9bb 5b57 3b3d f38b 453e
00000070: 61b7 36be cdf9 d53d 133e 2cbe 8e72 183e
00000080: 23e8 30bf 7a27 16bb 5aec f3be e2d5 2cbc
00000090: 7e8f 82be f925 8bbd 3baf e5be 142b fcbd
000000a0: afd6 543e 63f3 013e b8e3 6e3e 3d0a 77bd
000000b0: e86d 05be e3df 74bc 60f8 a53e 19db b7be
000000c0: 9fa7 683e 0959 1c3c 1c71 443e d59b 2abe
000000d0: 4371 593e fa4c b83e 119e 8bbd cddb 9fbe
000000e0: b33d 533d 828c bf3d 6016 23be 14c2 903e
000000f0: e451 07be 148f 89be 6cde 22bb 369b 0e3e
00000100: 4830 403c ed60 d6bc a1e0 143e 34ce 8c3e
00000110: bff0 263e 18cc 533e e7a5 3c3e 0158 873e
00000120: 5d57 6dbe 7504 093d 383b d8bd 5669 133e
00000130: d24b 9fbd 9698 033e a835 d5be d567 963e
00000140: c07c 7bbd 7d3d e8bd 1675 c3be 9f9e 393d
00000150: da52 2cbe 9a07 55bc 4221 873e 4db9 32be
00000160: 9366 55bd 7a8d 8d3d c3eb 5abe 450f 22bf
00000170: 3097 c1bd fb3a 663e 8aef 1d3e ef8b babd
00000180: 5faf b23e 5f01 a63e f1d7 573e be71 adbe
00000190: d864 e13d 6078 af3d 477a 3a3d 30c0 2d3e
000001a0: 050f 403e 9e90 0abe fbd5 2e3e 5ced 333d
000001b0: 08a0 ac3d 3861 2f3e d09c 813e 1885 973e
000001c0: f3e6 983e 9e61 843e 799a 7e3d 67af eabc
000001d0: f540 5fbe 0b8d ae3c bad6 313e 03e4 b6bd
000001e0: fa73 d6be 34cd c13c b61d 7a3e 0a38 373e
000001f0: 6888 153e 9e02 cd3e 3cf9 40be d8ec 60be

network_body._body_endoder.seq_layers.2.weight f4 [128, 128]
0.44899818 -0.30388835 0.08936173 -0.6417083 0.459016 -0.2888414 -0.32061437 -0.06468803
-0.040876403 -0.056197204 0.46671724 0.3621148 0.08870708 0.0046900725 0.108362995 0.1440024
0.47610736 0.18627717 -0.23491113 0.29623127 -0.13071358 -0.4814215 -0.24492681 0.087583184
-0.30933228 -0.22566174 0.40392697 0.29914343 -0.43746504 -0.10820672 -0.059292246 -0.019318337
-0.41898137 -0.15404296 -0.16918567 0.13203399 0.14096293 -0.087690026 0.23564802 0.14040875
0.5762185 -0.02342093 -0.39826775 -0.0028555826 -0.62706214 0.05401897 -0.17224297 -0.22976893
-0.55293304 0.06527746 -0.36808953 -0.21031946 -0.070918985 -0.16186632 0.08259659 -0.40620217
-0.40566444 0.029964043 -0.3677615 -0.014085641 -0.24731615 0.116034456 0.250321 -0.106707856
0.27372685 0.0937887 -0.45913392 -0.027316673 -0.35838327 -0.62210363 -0.07774794 -0.5968614
-0.6568111 -0.046971437 -0.23888926 0.30371523 -0.113678634 -0.075649016 0.24563067 -0.30059585
-0.42301995 -0.29972282 -0.14246207 0.12436769 -0.30100024 -0.07172063 -0.10630683 0.10432994
0.03985523 0.073443234 -0.095015585 -0.1042788 -0.66286844 0.015852606 -0.08108806 -0.20311238
0.28845817 -0.2686985 -0.12397075 -0.3974362 -0.50038064 0.33664647 -0.6661714 0.016581336
0.36842203 0.19768141 -0.34075856 -0.22746937 -0.28069714 0.3844457 0.41909233 0.20944661
0.6459776 0.6293524 -0.452405 -0.41100344 -0.40906355 0.17074564 -0.21974733 -0.19251654
-0.42434806 -0.027473157 -0.07816396 -0.004752815 -0.19113609 -0.43671185 0.18534939 0.065598
-0.32497662 -0.00887054 0.26005366 -0.07883529 0.036441173 -0.013496601 0.0936954 0.24203527
0.014812895 -0.1749674 -0.36499962 -0.3333113 0.12090821 -0.14362483 0.24900438 -0.045174897
-0.45373535 0.2260224 0.245592 0.07832711 -0.015764736 0.20300886 0.22980806 0.32258165
0.2571039 0.06807633 0.18267372 -0.0131036695 -0.09195132 -0.01645452 0.046987984 0.029544367
0.039929584 0.116641894 0.41040188 0.076243244 0.1326854 0.16679083 0.17540933 -0.15420711
0.11953098 0.35672948 -0.23628075 -0.0057149394 -0.084666885 -0.13203855 -0.0467653 0.020917717
-0.59587103 0.14336635 -0.026838113 -0.3072554 -0.016817909 -0.08088125 -0.06533158 0.04541648
-0.24398677 0.25196216 -0.08184613 -0.35394236 -0.109663874 -0.07787761 -0.021234062 -0.26459765
0.09781065 0.008110167 -0.18754219 -0.036570527 0.24047944 -0.6436373 0.16355246 -0.47616017
-0.41595188 -0.24207124 0.3024727 -0.5277637 0.075623214 -0.17308961 0.31788376 -0.22545768
0.16839583 -0.3958929 0.19607802 -0.6870563 -0.15648349 0.23161192 0.07309071 0.12699395
-0.03129567 -0.13907908 0.43534905 0.32284486 -0.009644887 0.08974487 -0.10613294 0.15686883
0.27593908 -0.008584949 -0.2873792 -0.4469277 0.06865167 -0.19325447 -0.10572814 -0.052612644
0.8308641 0.112585254 0.11894444 0.14424275 -0.116402015 0.33488193 0.46419808 -0.22835886
1.2265078 -0.60348696 0.0674231 -0.15412788 -0.05110284 0.20324077 -0.47579142 0.054320373
-0.088350594 0.07175589 0.31564835 -0.2709362 0.039827924 -0.04126136 -0.07632142 0.48428342
00000000: 17e3 e53e 4197 9bbe 4803 b73d ff46 24bf
00000010: 2504 eb3e 05e3 93be 9127 a4be 287b 84bd
00000020: 046e 27bd 0a2f 66bd 90f5 ee3e 1c67 b93e
00000030: 0fac b53d 2eaf 993b 6bed dd3d 5d75 133e
00000040: 58c4 f33e 71bf 3e3e 8b8c 70be a0ab 973e
00000050: c8d9 05be e17c f6be 18ce 7abe d05e b33d
00000060: cd60 9ebe df13 67be 84cf ce3e 5429 993e
00000070: 6bfb dfbe 7c9b ddbd 6ddc 72bd 7d41 9ebc
00000080: ba84 d6be 70bd 1dbe 023f 2dbe eb33 073e
00000090: 9658 103e d496 b3bd b74d 713e 50c7 0f3e
000000a0: 0e83 133f 40dd bfbc c0e9 cbbe ba24 3bbb
000000b0: 2587 20bf ff42 5d3d 7660 30be 8c48 6bbe
000000c0: 058d 0dbf 30b0 853d 3b76 bcbe fc5d 57be
000000d0: f93d 91bd 49c0 25be 6728 a93d bbf9 cfbe
000000e0: 40b3 cfbe 2777 f53c 3c4b bcbe 76c7 66bc
000000f0: 7240 7dbe 79a3 ed3d 132a 803e a689 dabd
00000100: ed25 8c3e 4a14 c03d 9a13 ebbe 37c7 dfbc
00000110: 037e b7be 2f42 1fbf 503a 9fbd e9cb 18bf
00000120: c624 28bf 1f65 40bd 639f 74be 9080 9b3e
00000130: 58d0 e8bd dfed 9abd 9b86 7b3e b3e7 99be
00000140: 1296 d8be 4575 99be 94e1 11be 7db4 fe3d
00000150: b41c 9abe 44e2 92bd 65b7 d9bd f0aa d53d
00000160: 3d3f 233d 6869 963d 8897 c2bd 2090 d5bd
00000170: bfb1 29bf 53dd 813c 7f11 a6bd b1fc 4fbe
00000180: cab0 933e da92 89be 60e4 fdbd c27c cbbe
00000190: f218 00bf ed5c ac3e 358a 2abf 95d5 873c
000001a0: d0a1 bc3e ff6c 4a3e e877 aebe bbed 68be
000001b0: 89b7 8fbe 11d6 c43e 4593 d63e 2c79 563e
000001c0: ca5e 253f 3d1d 213f a1a1 e7be 0b6f d2be
000001d0: c770 d1be f2d7 2e3e 7205 61be 0e23 45be
000001e0: 2644 d9be 630f e1bc 6d14 a0bd 80bd 9bbb
000001f0: 2eb9 43be b298 dfbe 3bcc 3d3e 3f58 863d
00000200: 5663 a6be be55 11bc c125 853e 6674 a1bd
00000210: 5743 153d d920 5dbc 60e3 bf3d 18d8 773e
00000220: c9b1 723c a72a 33be 3be1 babe c7a7 aabe
00000230: b99e f73d 6312 13be 01fb 7e3e 5009 39bd
00000240: 0050 e8be 6b72 673e 787c 7b3e f769 a03d
00000250: 0c25 81bc 8ee1 4f3e ce52 6b3e 6c29 a53e
00000260: 1fa3 833e 9a6b 8b3d d20e 3b3e c6b0 56bc
00000270: f950 bcbd a1cb 86bc 7976 403d 0707 f23c
00000280: 348d 233d f2e1 ee3d 3220 d23e 6b25 9c3d
00000290: aede 073e 37cb 2a3e 819e 333e 78e8 1dbe
000002a0: a9cc f43d 3fa5 b63e 95f3 71be 6344 bbbb
000002b0: d565 adbd 1d35 07be f98c 3fbd a25b ab3c
000002c0: 018b 18bf a1ce 123e 9adb dbbc 9450 9dbe
000002d0: b6c5 89bc 12a5 a5bd 90cc 85bd a206 3a3d
000002e0: abd7 79be 2f01 813e f29e a7bd ef37 b5be
000002f0: 7497 e0bd 4c7e 9fbd 0ef3 adbc 5879 87be
00000300: f350 c83d 82e0 043c 0f0b 40be faca 15bd
00000310: 3e40 763e 6ac5 24bf 4c7a 273e 44cb f3be
00000320: a5f7 d4be 86e1 77be b4dd 9a3e 861b 07bf
00000330: 58e0 9a3d 673e 31be a9c1 a23e 61de 66be
00000340: f56f 2c3e 79b2 cabe adc8 483e ece2 2fbf
00000350: 353d 20be ad2b 6d3e 95b0 953d b40a 023e
00000360: e32f 00bd bf6a 0ebe 12e6 de3e ec4b a53e
00000370: 9705 1ebc 29cc b73d 3a5c d9bd 39a2 203e
00000380: e347 8d3e e3a7 0cbc 5e23 93be b5d3 e4be
00000390: 3f99 8c3d 80e4 45be ff87 d8bd 5b80 57bd
000003a0: 82b3 543f 1993 e63d 2499 f33d 5fb4 133e
000003b0: 2e64 eebd a575 ab3e 5fab ed3e e8d6 69be
000003c0: 35fe 9c3f 1f7e 1abf 1f15 8a3d b3d3 1dbe
000003d0: 3651 51bd 591e 503e ef9a f3be 0a7f 5e3d
000003e0: 28f1 b4bd c1f4 923d a99c a13e 26b8 8abe
000003f0: 9b22 233d ac01 29bd 684e 9cbd fff3 f73e

network_body._body_endoder.seq_layers.2.bias f4 [128]
0.06818943 -0.07846887 -0.1607574 -0.3900953 -0.120480224 0.002230633 -0.03334352 0.38638687
0.0055065653 -0.0032535777 0.22644493 0.14806813 0.09292021 -0.09167882 -0.06254486 -0.17785327
-0.08986266 0.12906279 0.11324895 0.17290334 0.3069099 -0.14097424 -0.11475052 0.1393867
0.0067395996 -0.12653331 0.1605421 0.034320522 0.22156309 0.40643772 -0.102955155 -0.07230013
0.039272226 0.39062533 0.1551678 0.191967 0.13915657 0.098211624 0.031373158 0.079315364
-0.09456144 0.22969556 -0.13524133 0.04370374 -0.17776664 0.44492877 0.12346845 -0.4378016
-0.037009884 -0.42667368 -0.007989155 0.18615243 0.07074902 0.70882195 0.0596521 -0.24225782
-0.117163256 0.07878078 0.106383175 0.0509472 -0.04473514 -0.16054364 0.34018278 0.1262748
-0.020580925 0.4128082 -0.3761927 -0.091811135 0.23106353 0.32798135 0.19323426 -0.29951125
0.020448318 0.121584184 -0.16667208 0.027433913 -0.017951958 0.2730251 0.04575903 -0.2700153
-0.11253319 0.04255397 0.22073054 -0.15117505 0.07657367 0.0697878 0.29885143 0.0027004983
0.060168695 0.21607262 0.10770557 0.07816361 -0.2654893 0.45250458 -0.022384487 0.17771596
0.0783441 0.10814783 0.050909504 0.12880668 0.04725111 0.32662413 0.21779011 0.16246672
0.54041934 0.32588392 -0.1919053 0.031225692 0.042967904 0.106705144 -0.06730756 0.14131531
0.26443747 0.1766089 0.30825526 -0.14486003 -0.11786855 -0.06416437 0.07982488 -0.5067408
0.1855235 0.041684926 -0.05674562 0.12585756 0.024835726 0.14876243 0.034214262 0.10230697
00000000: e6a6 8b3d 49b4 a0bd 969d 24be 92ba c7be
00000010: 56be f6bd d02f 123b 3793 08bd 80d4 c53e
00000020: 6b70 b43b fa39 55bb 2ee1 673e 2c9f 173e
00000030: f34c be3d 1bc2 bbbd 8517 80bd 2b1f 36be
00000040: ea09 b8bd 0929 043e 11ef e73d 930d 313e
00000050: 4b23 9d3e 8d5b 10be 5202 ebbd 63bb 0e3e
00000060: dcd7 dc3b f391 01be 2665 243e ad93 0c3d
00000070: 6fe1 623e 9b18 d03e 27da d2bd 1712 94bd
00000080: eadb 203d 0b00 c83e 4fe4 1e3e ff92 443e
00000090: 0f7f 0e3e 2d23 c93d 2481 003d 1870 a23d
000000a0: 6ea9 c1bd 5035 6b3e b47c 0abe b102 333d
000000b0: 7508 36be b4cd e33e 07dd fc3d 8827 e0be
000000c0: ad97 17bd f974 dabe f2e4 02bc be9e 3e3e
000000d0: dde4 903d 5b75 353f c355 743d 6f12 78be
000000e0: 4af3 efbd d157 a13d 6cdf d93d 03ae 503d
000000f0: 323c 37bd 8d65 24be 702c ae3e 2e4e 013e
00000100: 5499 a8bc 995b d33e 549c c0be 7a07 bcbd
00000110: eb9b 6c3e 2ced a73e 34df 453e 8a59 99be
00000120: 3b83 a73c 2101 f93d 16ac 2abe 16bd e03c
00000130: fc0f 93bc f2c9 8b3e d26d 3b3d 723f 8abe
00000140: cd77 e6bd 124d 2e3d 3007 623e a2cd 1abe
00000150: a8d2 9c3d e8ec 8e3d 0e03 993e d8fa 303b
00000160: 7373 763d 2442 5d3e bd94 dc3d 3e14 a03d
00000170: 37ee 87be aeae e73e ac5f b7bc 2cfb 353e
00000180: df72 a03d 9c7c dd3d 7c86 503d e6e5 033e
00000190: 618a 413d 473b a73e 5f04 5f3e ad5d 263e
000001a0: ec58 0a3f 42da a63e d382 44be 06cd ff3c
000001b0: 1dff 2f3d 3a88 da3d 8cd8 89bd f6b4 103e
000001c0: 5964 873e f7d8 343e a2d3 9d3e 3056 14be
000001d0: 1165 f1bd 9c68 83bd 3a7b a33d c4b9 01bf
000001e0: dff9 3d3e d0bd 2a3d 186e 68bd cee0 003e
000001f0: 4b74 cb3c 2e55 183e 4124 0c3d 5186 d13d

action_model._discrete_distribution.branches.0.weight f4 [7, 128]
0.19172929 0.0027070446 0.015276329 -0.2355652 -0.008833357 0.18644184 0.118925914 0.24157608
0.09355969 0.23508164 0.29200307 0.32234833 0.15083198 0.28274876 -0.2820216 0.22313693
-0.55788004 -0.0030910373 0.19560096 0.34485784 0.22468497 0.23963691 0.021190174 -0.25084227
0.15063423 0.029632576 0.21742971 0.2690535 0.3377676 0.13718665 0.12307165 -0.06723095
0.1797334 0.061626144 0.19859746 0.11050378 0.30821136 0.352911 -0.18805452 -0.05894592
-0.10373535 0.050970703 0.18497337 0.14671879 -0.05204956 0.3025101 0.38112321 0.1682204
0.18016098 0.051158067 0.21861373 0.34223986 0.12914139 0.13051738 0.29106086 0.29179868
0.217508 0.31157348 0.41795224 0.20598824 0.1371701 0.13138033 0.25508454 0.37232885
0.28969812 0.31699798 -0.053521 0.12849602 -0.071118556 0.1823621 0.11321038 0.14770669
0.19328173 0.18041453 0.21162608 -0.08508944 0.086187676 0.0889931 0.040809322 -0.17883834
0.27706945 0.035625275 -0.13013792 0.3939214 0.14582339 -0.10724199 0.3141992 0.28645757
0.03793196 0.21567738 0.21680388 -0.065346524 0.38163745 0.05847463 0.44625723 0.16619548
0.38782388 0.32349858 0.053939737 0.002078062 0.09642295 0.32517853 0.16941904 0.30681816
0.13807383 0.18492143 0.22123474 0.12775718 0.325662 0.2789705 0.19445512 0.052396342
0.12973961 0.043791737 0.28599554 -0.042066008 0.19430456 0.4086476 0.17676124 0.2909895
0.19578412 0.33156532 0.08808547 0.31731024 0.12684835 0.22716822 -0.24433082 0.058655556
-0.08682743 -0.12700365 -0.12959522 -0.37855515 0.12770514 -0.022573028 -0.13161854 0.08190986
0.35919932 0.7207863 0.6226268 -0.0060764966 0.3648236 0.24069846 -0.20829782 0.43666327
0.13190454 -0.34079757 -0.3417829 0.0009085888 -0.034308687 0.03128624 -0.5574919 -0.3497444
0.027986618 -0.20510413 0.34372756 0.29655427 0.09254405 0.2673376 -0.510811 -0.024681125
0.15896367 0.3640344 0.18948765 -0.40483046 0.29789603 -0.23192263 0.08663197 0.2595322
0.029690955 0.41560635 -0.023332693 -0.40264827 -0.21822636 0.18191788 0.35791343 0.35099208
0.13410404 0.2729756 0.538988 -0.3253796 0.26886562 0.11620918 0.034488764 0.32232305
0.14603686 -0.024131726 -0.010532775 0.08644374 0.09204463 -0.44638288 -0.36320773 0.023877768
-0.15248066 -0.59684396 -0.3045236 0.35928944 0.48586097 0.4276621 -0.41317016 0.17374271
-0.041145228 -0.036755674 0.46118292 0.20445955 0.35943058 0.12047014 -0.62115353 0.13526286
-0.1380197 0.06418692 0.33682835 0.14037111 0.5844972 -0.15123077 -0.23624848 0.08443825
0.45159355 0.047173437 -0.0034434772 -0.2837281 -0.13129601 0.26160535 0.0869051 0.4865706
-0.16260386 -0.4042728 0.0026445023 0.18705918 0.27062958 -0.44735777 0.5030417 -0.1907657
0.100676246 0.30507508 0.04767423 0.5179244 -0.0061031305 -0.56349736 0.33496752 -0.6695996
0.04764158 0.34132534 0.2301596 0.29430225 -0.011307248 -0.25833988 -0.4441103 -0.25208846
0.209968 -0.054029454 0.25227657 0.37118188 0.23499262 0.25716844 0.1594527 0.34981972
00000000: af54 443e ac68 313b 9149 7a3c 0138 71be
00000010: c9b9 10bc 9cea 3e3e 6e8f f33d b85f 773e
00000020: 399c bf3d 3eb9 703e 6d81 953e d70a a53e
00000030: b373 1a3e 72c4 903e 2365 90be 027e 643e
00000040: 3ad1 0ebf 0093 4abb 9e4b 483e 3591 b03e
00000050: d113 663e 6163 753e 0497 ad3c 666e 80be
00000060: dc3f 1a3e 04c0 f23c e5a5 5e3e 61c1 893e
00000070: e0ef ac3e a87a 0c3e fd0c fc3d 61b0 89bd
00000080: 080c 383e b26b 7c3d 225d 4b3e ce4f e23d
00000090: e1cd 9d3e c0b0 b43e 5d91 40be 4771 71bd
000000a0: 3373 d4bd a8c6 503d a969 3d3e 733d 163e
000000b0: eb31 55bd 9be2 9a3e 9522 c33e f841 2c3e
000000c0: 1f7c 383e 1f8b 513d 47dc 5f3e 103a af3e
000000d0: a43d 043e 59a6 053e ee05 953e a366 953e
000000e0: 6bba 5e3e 8f86 9f3e d6fd d53e 95ee 523e
000000f0: 5276 0c3e 9188 063e 719a 823e e3a1 be3e
00000100: 5053 943e 8f4d a23e d638 5bbd 7694 033e
00000110: 9ba6 91bd 21bd 3a3e d8da e73d 6c40 173e
00000120: a5eb 453e 96be 383e 82b4 583e 5f43 aebd
00000130: 2a83 b03d 0442 b63d ad27 273d 6621 37be
00000140: 0cdc 8d3e cfeb 113d e042 05be 11b0 c93e
00000150: ba52 153e b0a1 dbbd b8de a03e 91aa 923e
00000160: 8b5e 1b3d 88da 5c3e d601 5e3e 66d4 85bd
00000170: fc65 c33e 1883 6f3d d47b e43e 262f 2a3e
00000180: da90 c63e 9ba1 a53e eaef 5c3d 1830 083b
00000190: 6579 c53d cd7d a63e 2f7c 2d3e 4517 9d3e
000001a0: 3a63 0d3e 0b5c 3d3e 5c8b 623e c7d2 023e
000001b0: 2bbd a63e 39d5 8e3e 3e1f 473e 8c9d 563d
000001c0: 76da 043e f75e 333d 026e 923e 684d 2cbd
000001d0: c6f7 463e 423a d13e e600 353e 93fc 943e
000001e0: a27b 483e eec2 a93e 2866 b43d 7d76 a23e
000001f0: 89e4 013e c99e 683e dc31 7abe cf40 703d
00000200: 94d2 b1bd 3f0d 02be 9cb4 04be fbd1 c1be
00000210: 23c5 023e 12eb b8bc 03c7 06be 5bc0 a73d
00000220: f9e8 b73e 7385 383f 7864 1f3f 591d c7bb
00000230: 29ca ba3e a879 763e 064c 55be 5492 df3e
00000240: fc11 073e 057d aebe 2bfe aebe 5d2e 6e3a
00000250: 4487 0cbd 0026 003d cab7 0ebf b311 b3be
00000260: 3144 e53c d106 52be 0ffd af3e f6d5 973e
00000270: bc87 bd3d 79e0 883e 82c4 02bf 1230 cabc
00000280: 5fc7 223e b862 ba3e 0d09 423e f045 cfbe
00000290: d485 983e 207d 6dbe 1a6c b13d 68e1 843e
000002a0: 723a f33c 5bca d43e 3424 bfbc ea27 cebe
000002b0: bb76 5fbe ae48 3a3e 6e40 b73e 3cb5 b33e
000002c0: 9252 093e 75c3 8b3e 1efb 093f 2898 a6be
000002d0: c1a8 893e 14ff ed3d 1744 0d3d 8707 a53e
000002e0: b08a 153e e6af c5bc a991 2cbc 6a09 b13d
000002f0: e581 bc3d 4c8c e4be 5df6 b9be 4f9b c33c
00000300: e423 1cbe c4ca 18bf 84ea 9bbe c9f4 b73e
00000310: c5c2 f83e 87f6 da3e 0a8b d3be 9ce9 313e
00000320: e687 28bd 1e8d 16bd 2b20 ec3e d85d 513e
00000330: 4907 b83e 0cb9 f63d eb03 1fbf 5982 0a3e
00000340: 0955 0dbe 6f74 833d c474 ac3e 72bd 0f3e
00000350: 9ca1 153f 3ddc 1abe 1feb 71be f6ed ac3d
00000360: 4537 e73e ef38 413d f6ab 61bb cf44 91be
00000370: 7672 06be 23f1 853e 4dfb b13d c81f f93e
00000380: a081 26be d8fc cebe 634f 2d3b 718c 3f3e
00000390: f68f 8a3e 140c e5be 57c7 003f 1558 43be
000003a0: 592f ce3d cd32 9c3e 0e46 433d b296 043f
000003b0: c5fc c7bb 5d41 10bf dd80 ab3e e16a 2bbf
000003c0: d123 433d 32c2 ae3e f5ae 6b3e c9ae 963e
000003d0: 0942 39bc 2045 84be 6d62 e3be bd11 81be
000003e0: da01 573e fd4d 5dbd 652a 813e 8d0b be3e
000003f0: e8a1 703e 95ab 833e 9247 233e 921b b33e

action_model._discrete_distribution.branches.0.bias f4 [7]
-0.19163239 0.17940043 0.05842379 -0.88607466 -0.84939843 0.4125371 0.40539932
00000000: 483b 44be bfb4 373e c94d 6f3d cad5 62bf
00000010: 2d72 59bf 1038 d33e 8090 cf3e

exp_avg f4 [128, 163]
-1.1769432e-23 -0.00018397399 -8.436448e-05 -1.950255e-05 -0.00019026958 -1.1769432e-23 4.298793e-05 -4.7014364e-05
-5.5874993e-05 -0.00017510774 -1.1769432e-23 -6.666339e-06 -2.478122e-06 -0.00039965217 -0.00038295772 -1.1769432e-23
0.00010287152 3.8800048e-05 3.8945804e-05 -2.10617e-05 -2.4552069e-24 -0.00016237207 -0.00018067015 -0.00020730791
-0.00040254922 -1.1769432e-23 0.00029417517 6.070105e-05 -5.43742e-05 -6.521688e-05 -2.3620627e-24 -0.000104047875
-2.2079308e-05 -0.00023900173 -0.00018768007 1.1524342e-17 0.00020544314 4.139239e-05 -1.2208446e-05 -0.00011300645
-8.951897e-25 -0.0001557541 -4.63724e-06 0.00010393264 3.3444478e-05 1.13034545e-17 9.6434545e-05 8.564207e-05
9.468537e-05 1.2976336e-05 -4.8948416e-32 -0.00027041207 0.00014449807 9.2142735e-05 -6.407401e-05 1.1724355e-17
1.33668e-05 1.41743285e-05 -0.00016385083 -0.00021637078 -4.8948416e-32 -0.00034008294 0.00023613288 5.7715228e-05
-7.640962e-05 1.17243554e-17 0.00014918056 8.787963e-06 4.5093802e-05 -3.900638e-05 -3.876036e-24 -0.00020177865
0.00026905962 -0.00024784234 -0.00030823192 1.17243554e-17 0.000303696 1.0933318e-06 -0.00047637834 -0.00029618962
-3.876036e-24 6.563187e-05 9.892842e-06 -0.00030047682 -0.0003659942 1.11960145e-17 0.00029360072 -1.0421651e-05
-0.0003538455 -0.00025667797 -3.9039417e-24 2.803719e-05 -2.454922e-05 -0.00042423577 -0.00039341892 1.540883e-17
1.9347339e-05 -1.2435812e-06 -5.0018072e-05 -7.369318e-05 -4.107327e-24 0.00036515566 -0.00027618164 -0.00011380063
-0.0002608643 1.2125744e-17 3.7640355e-05 4.122599e-05 -0.00020714647 -3.5134915e-05 -4.1112784e-24 0.00044297194
-0.0001477794 -0.00039197807 -0.0002865835 1.2795564e-19 -0.00022701424 -2.846745e-05 -0.000100831116 -0.000111665766
-4.1112784e-24 0.0005092338 -0.00019113485 -0.0002769534 -0.0002871905 4.0138195e-19 -0.00017262837 0.00012476652
0.00022687954 -9.93243e-05 -4.1112784e-24 0.00035659428 -0.00019262574 0.00013673838 3.276579e-05 4.0138195e-19
6.5690074e-05 -4.053905e-05 -5.0124087e-05 -8.904861e-05 4.0138195e-19 2.4296734e-05 -0.00010229365 -0.00027970746
-0.00028974254 4.0138195e-19 0.00011073658 -9.422258e-05 -0.0002641477 -0.0002446124 4.0138195e-19 0.00011073658
-9.422258e-05 -0.0002641477 -0.0002446124 -0.00034662947 -0.00025177124 -8.802884e-05 -0.033507347 -0.00014983797
-2.6144335e-05 -5.859085e-05 -6.743365e-05 -1.5046035e-24 -2.8262217e-05 2.234325e-05 -8.50277e-06 -1.8583574e-05
-1.5046035e-24 -4.973575e-05 8.704261e-07 1.6257927e-05 -9.385613e-05 -1.5046035e-24 3.60169e-07 2.3558436e-05
1.027197e-05 1.7861654e-05 -1.5046035e-24 -0.00011465533 5.5642276e-06 -6.245781e-05 -0.00015467146 -8.1908863e-25
9.9017e-06 2.6684374e-05 0.00011809832 0.00012292307 -1.5046035e-24 -0.0001511871 2.0334805e-05 -5.551726e-05
-4.188636e-05 -8.342698e-25 3.4704673e-05 -1.1925283e-05 0.00016805 8.194279e-05 -6.2775204e-18 -4.628198e-05
1.4898731e-05 2.8853654e-05 -5.3267726e-05 -7.901498e-26 5.8729558e-05 8.8346234e-05 -0.00026614335 -0.00018756033
-6.409804e-18 -0.00021151121 -4.787088e-05 -0.00019751306 -0.00022274037 3.4262698e-32 3.4175973e-05 8.8038694e-05
-0.00023956291 -0.00033059166 -3.9477662e-18 -0.00014603477 0.00036060065 -0.00017224328 -8.167791e-05 3.4262698e-32
-7.117523e-05 9.84111e-05 -0.0002059949 -0.00022895049 -3.947772e-18 -0.00013711824 0.000113796064 -0.00022966118
-0.00020273184 -6.1231345e-27 -0.00028962555 1.19682045e-05 -0.00017830948 -0.0003187214 -3.947772e-18 -9.82129e-05
-2.0364281e-05 -0.00023807376 -0.00025554036 -6.1231345e-27 4.3881533e-05 7.178867e-05 -0.00019991107 -0.0002262287
-3.947772e-18 0.00010570287 0.00010618363 -0.00031190924 -0.00017002413 -6.852471e-27 -4.4189335e-05 -5.1687603e-05
00000000: 68a7 6399 24e9 40b9 d6ec b0b8 6899 a3b7
00000010: 1a83 47b9 68a7 6399 f04d 3438 4a31 45b8
00000020: 515b 6ab8 209d 37b9 68a7 6399 6aaf dfb6
00000030: d04d 26b6 6888 d1b9 b7c7 c8b9 68a7 6399
00000040: babc d738 3cbd 2238 bd59 2338 a8ad b0b7
00000050: 62f6 3d98 6c42 2ab9 4672 3db9 cb60 59b9
00000060: 3e0d d3b9 68a7 6399 863b 9a39 4299 7e38
00000070: da0f 64b8 0cc5 88b8 79c1 3698 4734 dab8
00000080: f436 b9b7 8a9c 7ab9 fccb 44b9 2b96 5423
00000090: 396c 5739 be9c 2d38 e0d2 4cb7 e0fd ecb8
000000a0: 1e86 8a97 ec51 23b9 9799 9bb6 69f6 d938
000000b0: bc46 0c38 0e83 5023 e73c ca38 bc9a b338
000000c0: d291 c638 f0b4 5937 9b27 7e8b 18c6 8db9
000000d0: 6884 1739 c13c c138 795f 86b8 b346 5823
000000e0: f841 6037 47ce 6d37 5fcf 2bb9 97e1 62b9
000000f0: 9b27 7e8b 294d b2b9 709a 7739 4113 7238
00000100: 1a3e a0b8 b446 5823 5a6d 1c39 0470 1337
00000110: 1a23 3d38 c89a 23b8 67f2 9598 8b94 53b9
00000120: 9210 8d39 d6f0 81b9 309a a1b9 b446 5823
00000130: 6339 9f39 98be 9235 6bc2 f9b9 e649 9bb9
00000140: 67f2 9598 d8a3 8938 6ff9 2537 5189 9db9
00000150: e9e2 bfb9 af87 4e23 6cee 9939 a6d8 2eb7
00000160: 5784 b9b9 bc92 86b9 c406 9798 6831 eb37
00000170: 0cef cdb7 f66b deb9 cb43 ceb9 121f 8e23
00000180: 184c a237 20e9 a6b5 7fca 51b8 ba8b 9ab8
00000190: ffe4 9e98 5d72 bf39 79cc 90b9 3fa8 eeb8
000001a0: 9dc4 88b9 35ae 5f23 06e0 1d38 12ea 2c38
000001b0: 7535 59b9 d45d 13b8 210c 9f98 b03e e839
000001c0: 3bf5 1ab9 6882 cdb9 9640 96b9 3810 1720
000001d0: ac0a 6eb9 62cd eeb7 4b75 d3b8 1a2e eab8
000001e0: 210c 9f98 1a7e 053a 5f6b 48b9 0e34 91b9
000001f0: 0e92 96b9 20ef ec20 9303 35b9 c2d3 0239
00000200: 83e6 6d39 544c d0b8 210c 9f98 46f5 ba39
00000210: 94fb 49b9 6e61 0f39 006e 0938 20ef ec20
00000220: 17c3 8938 7908 2ab8 543c 52b8 9cbf bab8
00000230: 20ef ec20 d7d0 cb37 7c86 d6b8 b3a5 92b9
00000240: 96e8 97b9 20ef ec20 403b e838 5d99 c5b8
00000250: 4e7d 8ab9 523f 80b9 20ef ec20 403b e838
00000260: 5d99 c5b8 4e7d 8ab9 523f 80b9 d2bb b5b9
00000270: 2a00 84b9 209c b8b8 003f 09bd d31d 1db9
00000280: 8850 dbb7 72bf 75b8 2a6b 8db8 7cd3 e897
00000290: a614 edb7 c46d bb37 1ea7 0eb7 ece3 9bb7
000002a0: 7cd3 e897 5b9b 50b8 3aa7 6935 a261 8837
000002b0: a0d4 c4b8 7cd3 e897 405d c134 5b9f c537
000002c0: c655 2c37 9cd5 9537 7cd3 e897 1d73 f0b8
000002d0: 5ab4 ba36 c8fb 82b8 4e2f 22b9 e37e 7d97
000002e0: 7a1f 2637 42d8 df37 8eab f738 e9e4 0039
000002f0: 7cd3 e897 fa87 1eb9 a994 aa37 34db 68b8
00000300: 23af 2fb8 d518 8197 dc8f 1138 b312 48b7
00000310: 9436 3039 b3d8 ab38 8199 e7a2 e61e 42b8
00000320: 90f5 7937 c00a f237 c96b 5fb8 b2a1 c395
00000330: 6254 7638 8646 b938 2889 8bb9 d8ab 44b9
00000340: e37a eca2 1cc9 5db9 f7c8 48b8 821b 4fb9
00000350: 6a8f 69b9 f0e6 310b 2c58 0f38 6aa1 b838
00000360: 2e33 7bb9 4353 adb9 99a5 91a2 e920 19b9
00000370: 000f bd39 349c 34b9 7e4a abb8 f0e6 310b
00000380: e943 95b8 0f62 ce38 5600 58b9 6e12 70b9
00000390: a7a5 91a2 66c7 0fb9 cca5 ee38 34d1 70b9
000003a0: 6a94 54b9 f68f f293 e2d8 97b9 0ccb 4837
000003b0: 96f8 3ab9 101a a7b9 a7a5 91a2 a6f7 cdb8
000003c0: f6d3 aab7 70a3 79b9 0cfa 85b9 f68f f293
000003d0: 700d 3838 408d 9638 389f 51b9 ce37 6db9
000003e0: a7a5 91a2 ccac dd38 e7ae de38 c087 a3b9
000003f0: 8148 32b9 28ba 0794 f057 39b8 24cb 58b8

exp_avg_sq f4 [128, 163]
2.7476972e-11 4.077286e-07 3.9328736e-08 1.2656411e-06 2.0618122e-06 2.8227504e-11 5.706852e-07 3.9619493e-08
6.7709203e-07 1.2916411e-06 2.4980466e-11 4.1702145e-07 5.639035e-08 2.34193e-06 2.951848e-06 4.940075e-11
9.185366e-07 3.619262e-08 3.7386687e-07 7.7962835e-07 1.5707123e-11 5.140745e-07 1.422517e-07 2.4818894e-06
3.1341795e-06 4.988991e-11 8.960636e-07 3.0514613e-08 2.6991435e-07 6.1862903e-07 2.1121114e-11 8.1348213e-07
2.232736e-07 2.3014356e-06 3.1004965e-06 6.41429e-11 1.0276566e-06 4.0545967e-08 3.6566504e-07 7.1055644e-07
1.9206735e-11 9.908821e-07 3.5124424e-07 1.6161655e-06 2.459282e-06 6.3924095e-11 8.909228e-07 6.4794804e-08
4.53737e-07 8.006487e-07 1.1156436e-11 1.536084e-06 3.3903052e-07 9.851449e-07 1.8936706e-06 5.860916e-11
4.9811763e-07 6.577963e-08 3.8985215e-07 8.6057725e-07 1.10636e-11 1.7806473e-06 2.3343806e-07 6.2270135e-07
1.4249563e-06 5.715198e-11 3.9266268e-07 1.2486643e-07 4.4360388e-07 1.0675654e-06 1.0859633e-11 1.8490231e-06
2.0839241e-07 5.510437e-07 1.302143e-06 5.734604e-11 2.1485265e-07 2.160786e-07 4.7453145e-07 1.4028988e-06
1.0818564e-11 1.6360456e-06 2.1678073e-07 6.570028e-07 1.2756126e-06 6.239144e-11 1.5649202e-07 2.5455458e-07
1.0522574e-06 1.6648492e-06 1.0585037e-11 1.5916958e-06 2.090113e-07 5.8837594e-07 1.2352132e-06 6.436768e-11
3.7246295e-07 2.837714e-07 9.931553e-07 1.6528764e-06 1.0379589e-11 1.3731777e-06 2.7310833e-07 5.277822e-07
1.2947447e-06 6.590869e-11 3.9611493e-07 2.7543658e-07 8.6655047e-07 1.5695981e-06 1.05603755e-11 1.1912052e-06
3.557198e-07 7.812218e-07 1.6460701e-06 2.9036877e-11 4.356906e-07 2.6231206e-07 8.868457e-07 1.5849054e-06
5.1919645e-12 1.0618018e-06 3.3646663e-07 9.1037367e-07 1.7493185e-06 2.7255469e-11 4.525633e-07 3.4341835e-07
8.4670984e-07 1.6867707e-06 1.3308024e-11 9.3532157e-07 2.885316e-07 9.97216e-07 1.8893654e-06 2.369743e-11
5.485613e-07 2.1169821e-07 1.3066306e-06 1.9848453e-06 2.6504346e-11 7.776892e-07 3.1147363e-07 1.4034838e-06
2.197028e-06 2.7057813e-11 6.374783e-07 2.7395555e-07 1.2611296e-06 2.0753823e-06 2.7057813e-11 6.374783e-07
2.7395555e-07 1.2611296e-06 2.0753823e-06 1.6613176e-06 3.994735e-06 3.9639048e-07 0.025705405 2.051462e-06
1.3275276e-06 1.2745215e-06 9.968782e-07 2.3895195e-11 2.9583525e-08 9.254629e-09 1.9541465e-08 1.3635123e-07
2.5714151e-11 5.3974567e-08 8.113724e-09 1.1020171e-07 2.147036e-07 2.3547485e-11 1.5828459e-08 1.034136e-08
2.963975e-08 1.3846177e-07 2.6761739e-11 7.233359e-08 1.5787263e-08 1.274323e-07 3.3367456e-07 1.7416779e-12
1.0950908e-08 2.362355e-08 6.063631e-08 1.6267475e-07 2.846986e-11 9.32691e-08 1.7839525e-08 1.0658386e-07
3.2401212e-07 1.7253695e-12 2.0628455e-08 5.715737e-08 1.6498919e-07 3.268228e-07 3.2835692e-11 1.5985236e-07
3.7810693e-08 2.701731e-07 5.4850506e-07 2.3462745e-13 7.0148126e-08 1.4091253e-07 8.0099767e-07 1.0638372e-06
9.569915e-12 1.841223e-07 6.1725444e-08 4.0036392e-07 8.4038436e-07 2.0805464e-13 1.6811714e-07 1.1883672e-07
7.6813166e-07 1.2334212e-06 9.019769e-12 3.243786e-07 1.4214437e-07 4.6478326e-07 1.0553197e-06 1.823694e-13
2.5813696e-07 1.9530532e-07 9.2832033e-07 1.3863736e-06 7.479304e-12 2.9989806e-07 1.3188766e-07 9.678099e-07
1.2804908e-06 1.831768e-13 5.2899435e-07 3.5153187e-07 6.281487e-07 1.121363e-06 6.3699384e-12 2.823992e-07
1.296234e-07 5.788814e-07 9.341339e-07 1.9182719e-13 5.42307e-07 3.3509954e-07 1.2053849e-06 1.7227866e-06
6.088348e-12 2.5243477e-07 1.213739e-07 6.611668e-07 1.0978217e-06 2.0676408e-13 9.736468e-07 3.1945234e-07
00000000: a4b0 f12d cbe5 da34 67ea 2833 19df a935
00000010: aa5d 0a36 b04a f82d 3031 1935 182a 2a33
00000020: 69c1 3535 735c ad35 02bb db2d fee2 df34
00000030: d831 7233 0d2a 1d36 5d18 4636 4d44 592e
00000040: 5b91 7635 3572 1b33 dfb7 c834 a747 5135
00000050: 4c29 8a2d eefe 0935 d9bd 1834 898e 2636
00000060: cb54 5236 0c6b 5b2e 0689 7035 2c0f 0333
00000070: bfe8 9034 dd0f 2635 85c8 b92d 115e 5a35
00000080: fbbc 6f34 5d72 1a36 2012 5036 3e0d 8d2e
00000090: 03ee 8935 c324 2e33 9f50 c434 11bd 3e35
000000a0: b9f1 a82d 73fe 8435 a492 bc34 06eb d835
000000b0: 250a 2536 1192 8c2e c027 6f35 5225 8b33
000000c0: 2399 f334 29ec 5635 1f44 442d 722b ce35
000000d0: 0004 b634 5239 8435 072a fe35 06e2 802e
000000e0: 62b6 0535 bc42 8d33 df4c d134 6b02 6735
000000f0: 06a2 422d 93fe ee35 f7a6 7a34 b627 2735
00000100: 2041 bf35 695b 7b2e 26cf d234 0613 0634
00000110: 7428 ee34 4549 8f35 700b 3f2d f32b f835
00000120: 78c2 5f34 6feb 1335 4bc5 ae35 e735 7c2e
00000130: 3fb2 6634 3c03 6834 1bc3 fe34 3c4b bc35
00000140: 7b52 3e2d 1996 db35 3cc4 6834 e35c 3035
00000150: b735 ab35 4233 892e 3308 2834 b7a9 8834
00000160: 4a3b 8d35 c873 df35 c536 3a2d 40a2 d535
00000170: 976c 6034 e3f0 1d35 9ac9 a535 c88b 8d2e
00000180: ebf6 c734 3f59 9834 8e4c 8535 67d8 dd35
00000190: 8399 362d 074e b835 b99f 9234 ebac 0d35
000001a0: 17c7 ad35 4bef 902e 9fa9 d434 b7df 9334
000001b0: e59c 6835 fbaa d235 b4c7 392d 80e1 9f35
000001c0: c2f9 be34 27b5 5135 8aee dc35 3c69 ff2d
000001d0: dce8 e934 e5d3 8c34 930f 6e35 efb8 d435
000001e0: 0fad b62c 3b83 8e35 9fa3 b434 6760 7435
000001f0: 20ca ea35 dcbd ef2d d4f7 f234 0f5f b834
00000200: 7549 6335 0065 e235 031e 6a2d cf12 7b35
00000210: 7be7 9a34 15d8 8535 1a96 fd35 de71 d02d
00000220: d840 1335 294f 6334 7c5f af35 6233 0536
00000230: 7b22 e92d 65c2 5035 9c38 a734 565f bc35
00000240: a770 1336 c700 ee2d 2d1f 2b35 2a14 9334
00000250: 1544 a935 cc46 0b36 c700 ee2d 2d1f 2b35
00000260: 2a14 9334 1544 a935 cc46 0b36 70fa de35
00000270: 830a 8636 7ecf d434 2494 d23c d9ab 0936
00000280: 802d b235 3a10 ab35 79cc 8535 322f d22d
00000290: dc1e fe32 4afe 1e32 23dc a732 f167 1234
000002a0: 1f2f e22d aad1 6733 8964 0b32 08a8 ec33
000002b0: 4789 6634 3920 cf2d 26f7 8732 c8a9 3132
000002c0: 809a fe32 15ac 1434 1466 eb2d d055 9b33
000002d0: 8f9c 8732 53d4 0834 e223 b334 8f1e f52b
000002e0: 9a22 3c32 bcec ca32 2a37 8233 b2ab 2e34
000002f0: 6d6c fa2d 3b4b c833 883d 9932 19e3 e433
00000300: e3f3 ad34 fdd2 f22b 7432 b132 317d 7533
00000310: e227 3134 2f76 af34 b469 102e e2a3 2b34
00000320: 4c65 2233 4f0c 9134 fb3c 1335 6115 842a
00000330: 57a4 9633 be4d 1734 2404 5735 2bc9 8e35
00000340: 115b 282d 27b3 4534 ec8d 8433 99f1 d634
00000350: c696 6135 ab3f 6a2a b083 3434 2d33 ff33
00000360: 9b31 4e35 088c a535 6ead 1e2d 4126 ae34
00000370: 59a0 1834 5387 f934 82a4 8d35 6754 4d2a
00000380: 1396 8a34 1eb5 5134 b031 7935 6f13 ba35
00000390: ca93 032d ad01 a134 019d 0d34 b2e5 8135
000003a0: 54dd ab35 1e3d 4e2a 3700 0e35 2cba bc34
000003b0: 0d9e 2835 bd81 9635 4e1f e02c a79c 9734
000003c0: 9c2e 0b34 6d64 1b35 31c1 7a35 6cfa 572a
000003d0: 0e93 1135 bbe7 b334 b6c8 a135 7f3a e735
000003e0: f736 d62c 5f86 8734 0153 0234 097b 3135
000003f0: de58 9335 b0cb 682a 40ae 8235 3281 ab34

exp_avg f4 [128]
-0.00029645162 -0.00020854574 -0.0010610952 -0.000900999 0.00022269035 3.3426393e-05 0.00022153181 0.00013315782
0.00060571317 1.2291999e-05 -0.00012843742 0.0005399074 0.0010093354 0.0007718148 -0.00044389174 0.0006498177
0.0013541972 0.0003277784 0.00015884169 2.3319648e-05 0.0010768166 0.00046243618 -0.00041534286 0.0004968117
0.0005792304 -0.0008599042 -0.00052914827 0.00035985795 -0.00019782707 0.0007678184 -0.00060884876 0.00081126526
-9.1935726e-05 7.738272e-05 -0.0010342835 -0.00068062753 9.074302e-05 0.0004732518 -0.00087572203 -0.00031986707
0.0008135181 0.00038903175 -0.0001971371 -0.0010317462 0.00010034203 -0.00019587172 -0.0066803987 -0.00042383617
7.769583e-05 0.00096367055 0.0010034369 5.2619725e-05 0.00022419746 -0.0024270723 0.0005513162 -0.00016848244
0.0011643308 0.0006997191 -4.7931477e-05 0.0001897664 -0.00013030582 -0.0016522459 0.0007076198 0.0017315944
0.0012413138 0.00057806715 -0.0003466907 0.0023590755 -0.0011691975 -0.0013499027 0.0025088312 -0.0019781985
-3.2376855e-05 0.0001972981 0.0002448413 0.0004962453 -0.0011842883 -0.00011906513 0.00030782167 0.0003407601
-0.00017682645 -0.0008786301 -0.0010277572 -0.0013350459 -0.0008973696 -0.0005267218 0.0007741566 -0.00026913668
0.00017386033 -0.00020854842 -0.0006548286 -0.0002923527 0.00015182732 -0.002442285 -0.0019333556 0.0006850635
7.660722e-05 0.0037588612 -0.00051496737 -8.019799e-05 -0.0001679654 9.874324e-05 0.00025390123 0.0001140259
0.0007677849 0.0002397772 -0.00066554715 -0.00023231769 -0.0018419069 0.0014897536 0.0016062667 0.0015699968
-0.00088672864 -0.00053236296 8.997807e-05 0.00059099466 -0.00041308766 0.0003459936 0.0016363112 0.00030972203
2.0737702e-05 -0.0004305447 0.0005367518 -3.1124975e-05 -0.00012654233 -0.0013539195 -0.0001861418 1.3448254e-05
00000000: 106d 9bb9 12ad 5ab9 7214 8bba 0531 6cba
00000010: fc81 6939 5133 0c38 fe4a 6839 48a0 0b39
00000020: b9c8 1e3a bc39 4e37 28ad 06b9 9388 0d3a
00000030: ad4b 843a 9d53 4a3a 24ba e8b9 8758 2a3a
00000040: 517f b13a acd9 ab39 be8e 2639 909e c337
00000050: f823 8d3a 2273 f239 60c2 d9b9 783c 023a
00000060: 7ed7 173a 326b 61ba 8ab6 0aba 51ab bc39
00000070: cd6f 4fb9 6c47 493a 269b 1fba 17ab 543a
00000080: 9ecd c0b8 8848 a238 cc90 87ba 246c 32ba
00000090: 4a4d be38 c81e f839 b690 65ba d5b3 a7b9
000000a0: 4742 553a f5f6 cb39 96b6 4eb9 a83b 87ba
000000b0: b86e d238 ea62 4db9 3fe7 dabb 5436 deb9
000000c0: a2f0 a238 d69e 7c3a c185 833a 00b4 5c38
000000d0: 8c16 6b39 840f 1fbb 3486 103a a9aa 30b9
000000e0: 759c 983a 5b6d 373a 080a 49b8 08fc 4639
000000f0: b4a2 08b9 2c90 d8ba 907f 393a abf6 e23a
00000100: 94b3 a23a 6e89 173a 0ac4 b5b9 b89a 1a3b
00000110: c23f 99ba 38ef b0ba 346b 243b aaa4 01bb
00000120: 62cc 07b8 cee1 4e39 0b5e 8039 7516 023a
00000130: 1f3a 9bba 9bb2 f9b8 2063 a139 0ca8 b239
00000140: 7d6a 39b9 de53 66ba cfb5 86ba b5fc aeba
00000150: 743d 6bba b413 0aba c5f0 4a3a ea1a 8db9
00000160: 474e 3639 caad 5ab9 cea8 2bba ea46 99b9
00000170: d633 1f39 be0e 20bb a668 fdba d595 333a
00000180: 30a8 a038 3a57 763b e0fe 06ba f82f a8b8
00000190: de1f 30b9 6014 cf38 0c1e 8539 3021 ef38
000001a0: 2c45 493a b46c 7b39 1d78 2eba 4e9a 73b9
000001b0: 246c f1ba d643 c33a 5e89 d23a 5ac8 cd3a
000001c0: 5a73 68ba 468e 0bba 9cb2 bc38 fbec 1a3a
000001d0: b093 d8b9 7a66 b539 7e79 d63a 3062 a239
000001e0: e0f5 ad37 bbba e1b9 ceb4 0c3a 308c 02b8
000001f0: 73b0 04b9 0076 b1ba 0f2f 43b9 d09f 6137

exp_avg_sq f4 [128]
4.752095e-06 3.067308e-06 4.574631e-05 4.5385343e-05 4.2312167e-06 5.644002e-07 3.7501861e-06 1.7648601e-06
1.0967773e-05 2.520525e-07 4.030569e-05 7.1486043e-06 2.237981e-05 1.2933912e-05 3.0199008e-05 1.1915128e-05
0.000111613714 5.4624297e-06 2.6301592e-05 1.091244e-05 2.9321887e-05 1.900239e-05 1.6274615e-05 5.3641925e-06
2.4310748e-05 1.1239045e-05 1.7941464e-05 1.0742257e-05 1.2474846e-05 6.2293902e-06 1.9680736e-05 1.240447e-05
3.2828812e-06 1.5259283e-07 1.9965762e-05 3.3882476e-05 1.97647e-07 2.8857168e-05 1.8423665e-05 1.5141167e-05
3.8578684e-05 8.293662e-06 3.4759555e-06 1.19895185e-05 3.7320506e-06 2.7114182e-05 0.0002221002 2.374913e-05
4.3620377e-05 1.3267872e-05 2.1723183e-05 2.6053465e-08 2.505663e-05 0.00016239897 2.4797348e-05 1.6516264e-05
3.8716258e-05 2.8360668e-05 2.2504594e-07 1.09815755e-05 8.754155e-06 1.893258e-05 1.3221398e-05 7.028066e-05
1.4174867e-05 9.072404e-06 2.8551882e-05 2.9946052e-05 4.2474556e-05 4.635723e-05 4.434761e-05 0.000111983325
2.9021783e-07 5.87817e-06 7.062499e-07 1.10458495e-05 1.698349e-05 3.7382833e-06 2.120596e-05 2.319585e-05
1.3658974e-06 2.1843007e-05 2.3801049e-05 1.9985764e-05 1.0883748e-05 1.0970056e-05 5.467901e-06 2.404714e-05
2.4410535e-06 1.6510296e-06 3.7396323e-05 1.0403305e-05 1.4320125e-06 7.79125e-05 7.147439e-05 2.710241e-06
4.3965967e-05 0.0001880034 2.7079204e-05 2.3103827e-05 6.248212e-06 2.3925146e-05 4.218329e-07 2.9231335e-06
7.734439e-05 4.9957944e-06 2.3190909e-05 2.0383563e-06 3.4783625e-05 3.801283e-05 6.3509346e-05 3.178197e-05
9.665222e-05 4.0084786e-05 3.5617246e-05 3.1885327e-06 1.0284268e-05 8.594144e-06 3.5456032e-05 4.283727e-07
1.3097522e-05 1.7372642e-05 3.0050678e-06 2.0486525e-05 1.0719521e-05 3.8563918e-05 3.6457907e-06 5.7302086e-06
00000000: 2f74 9f36 f3d7 4d36 badf 3f38 245c 3e38
00000010: e0f9 8d36 4981 1735 b5ab 7b36 22e0 ec35
00000020: 3a02 3837 d551 8734 e80d 2938 0bde ef36
00000030: 47bc bb37 bbfe 5837 e053 fd37 16e7 4737
00000040: 2812 ea38 ea49 b736 3da2 dc37 9314 3737
00000050: 46f8 f537 5267 9f37 7885 8837 10fe b336
00000060: efee cb37 558f 3c37 0081 9637 a439 3437
00000070: 0e4b 5137 0e06 d136 0f18 a537 cb1c 5037
00000080: 784f 5c36 66d8 2334 267c a737 081d 0e38
00000090: cb38 5434 4c12 f237 858c 9a37 d106 7e37
000000a0: 8ccf 2138 0225 0b37 7644 6936 9726 4937
000000b0: 2474 7a36 4373 e337 92e3 6839 de38 c737
000000c0: 06f5 3638 1499 5e37 2e3a b637 2dcc df32
000000d0: b430 d237 a449 2a39 e603 d037 688c 8a37
000000e0: 4463 2238 12e8 ed37 28a4 7134 823d 3837
000000f0: cfde 1237 68d1 9e37 79d1 5d37 a463 9338
00000100: 97d0 6d37 ae35 1837 b382 ef37 a834 fb37
00000110: b526 3238 b26f 4238 e201 3a38 97d8 ea38
00000120: 3ccf 9b34 193d c536 2095 3d35 9051 3937
00000130: c477 8e37 38df 7a36 74e3 b137 b594 c237
00000140: e153 b735 803b b737 5da8 c737 1aa7 a737
00000150: 5799 3637 080c 3837 e978 b736 d7b8 c937
00000160: fbd0 2336 f298 dd35 ffd9 1c38 db89 2e37
00000170: 9333 c035 f464 a338 85e4 9538 96e1 3536
00000180: 1968 3838 c722 4539 2628 e337 17cf c137
00000190: bba7 d136 dcb2 c837 4678 e234 0d2b 4436
000001a0: f433 a238 8ca1 a736 198a c237 b2ca 0836
000001b0: a2e4 1138 f76f 1f38 5230 8538 a14d 0538
000001c0: c4b1 ca38 b620 2838 ba63 1538 93fa 5536
000001d0: 988a 2c37 912f 1037 a0b6 1438 18fb e534
000001e0: 6ebd 5b37 77bb 9137 acaa 4936 7ada ab37
000001f0: fed7 3337 b1bf 2138 35aa 7436 1e46 c036
