Trained_Policies/WeightAgent_Training/WeightAgent_Training/WeightAgent_Training-367499979.onnx (onnx, 155824 bytes, 6 tensors)

network_body._body_endoder.seq_layers.0.weight f4 [128, 163]
000000 65 40 a4 3e 40 57 a6 bd e9 9c eb be 27 4e 18 3e
       0.3208038 -0.0812211 -0.4601815 0.14873563
000010 fe ec c0 3e 17 a1 3c 3e 0a bf b9 bb 02 a8 d3 be
       0.3768081 0.18420826 -0.0056685256 -0.41339117
000020 8e 24 91 be 8f 1e f0 3d ab ca f5 3e 0c 79 ab bd
       -0.28348202 0.117245786 0.48006186 -0.08372697
000030 09 2a d1 be 8f bd 5d 3e f6 74 24 3f 65 81 1c bd
       -0.40852383 0.21654342 0.6424097 -0.038209338
000040 91 38 a1 bd d5 81 80 be e3 b2 3b bf 3d ef c1 3d
       -0.07872117 -0.25099054 -0.73319834 0.09469459
000050 a2 a6 0d 3f 26 5b ac bd b7 d1 a1 3d bb 03 28 3d
       0.55332386 -0.08415823 0.07901328 0.041019183
000060 9c 85 0b 3f 60 73 aa 3d 80 27 89 bc 27 9b 86 be
       0.54500747 0.08322787 -0.016742468 -0.26290247
000070 1e 4a bd bd fc 56 f0 bd ab fe 89 3e 01 a8 ce 3d
       -0.09242652 -0.11735341 0.2695211 0.10090638
000080 5c 76 98 3d b3 a0 5c 3d 1c e3 14 3f ba 8b 6e be
       0.0744445 0.053864192 0.5815904 -0.23295489
000090 35 a0 9d 3d dd 80 ff be fb 44 32 be 92 9c 29 be
       0.07696573 -0.49903002 -0.17409126 -0.16563633
0000a0 3f f6 fe bc 87 f6 57 3b f4 1b 1e 3b 39 de 11 3e
       -0.031123279 0.0032953338 0.0024125548 0.14244927
0000b0 be 2c a7 3e bf fa 29 be ea df b7 3d 64 be 07 be
       0.32651323 -0.16599558 0.08978255 -0.13256222
0000c0 9a 05 69 3e fb 04 91 bd ac a3 20 bd f5 1a f4 3d
       0.22756043 -0.07081028 -0.03921859 0.11919204
0000d0 85 24 ef bd 94 a9 62 bc 10 2f d6 3d fb 3f 28 3d
       -0.116768874 -0.013834376 0.10458195 0.04107664
0000e0 18 ec 83 3e 6a 41 6a be 15 13 30 be a4 dd e0 3b
       0.25766063 -0.22876516 -0.17194779 0.006862359
0000f0 94 0e 51 bb 08 35 c3 3d 29 8e 35 be dc 06 69 be
       -0.0031899558 0.09531599 -0.17730011 -0.22756523
000100 55 b3 30 bd 3e 44 58 be 19 92 bc bd 57 f2 e0 bd
       -0.043139774 -0.21119782 -0.092075534 -0.10983723
000110 48 dd a6 be a0 a2 72 3d 20 6b 8b be 4f 7b c6 bc
       -0.325907 0.059237123 -0.27230167 -0.02422872
000120 88 3d 92 be cf 7a 87 be 6f d4 cb bd a4 00 68 be
       -0.2856257 -0.26460883 -0.09952628 -0.22656494
000130 cd b2 06 bf 69 54 62 be d9 e5 2a be b9 74 2a 3d
       -0.5261658 -0.22102512 -0.16689242 0.04161522
000140 d3 17 98 be 22 48 80 3d 27 c3 7c be 4a 75 2c 3e
       -0.29705676 0.06263758 -0.2468382 0.16841617
000150 d3 8f 5f be 4c bc 52 3e 95 7f 42 bf 29 e5 d4 bd
       -0.21832208 0.20579642 -0.75975925 -0.10395271
000160 0f 25 0d be 89 25 f7 3c a6 7c bf 3d 26 6b 0c 3e
       -0.13783668 0.030169265 0.09349947 0.13712749
000170 3a 7b 39 be aa 66 87 3d eb 1c f7 be b2 8a b4 3e
       -0.18113413 0.066113785 -0.4826425 0.35262066
000180 0e ba aa bd df 9b 46 be 5f 49 86 3c b9 ff bd 3c
       -0.08336268 -0.19395398 0.016392408 0.023193227
000190 ea d5 53 bd 5e 92 ba bd f1 a5 c7 bd 71 cd 54 3d
       -0.051717676 -0.091099486 -0.09748448 0.051953737
0001a0 96 84 8e be 11 26 a1 3e de dd c7 3c fc 6e a1 bd
       -0.2783553 0.31474355 0.024397787 -0.07882497
0001b0 22 8c 77 bd 36 98 7d 3c ec d2 b1 bd 36 d1 0c 3d
       -0.060436375 0.015478184 -0.08682808 0.034379207
0001c0 3b 37 a6 bc 81 7d c5 bc 48 8d 54 be b2 97 91 3e
       -0.020290008 -0.024107696 -0.2075702 0.28436047
0001d0 62 69 91 bc 58 e9 92 bd b3 b5 9a bd 4a 67 f9 bb
       -0.017750446 -0.07173413 -0.075541876 -0.00761119
0001e0 84 b1 e2 bd 88 18 29 3d 0e 93 62 be 37 e2 64 3d
       -0.11069015 0.04128316 -0.2212641 0.055879798
0001f0 73 c9 4f be 26 4b f7 3d 17 89 ae 3d 4f a9 63 3e
       -0.2029169 0.1207488 0.085222416 0.22232555
000200 0c cb 5c be cc 3f 1b be 65 88 90 be 27 b0 06 bd
       -0.21561831 -0.15161055 -0.2822906 -0.032882836
000210 4b fc 86 3d 8e 4a 2e be 88 94 97 be 18 b3 bd 3d
       0.0659109 -0.17020628 -0.29605508 0.09262675
000220 87 ee ae bd d7 75 f2 3d ef 5e b1 3d b6 21 9b bd
       -0.08541589 0.118388824 0.08660685 -0.07574789
000230 49 fd e7 bd c5 30 d0 bc 93 9a b7 bb a0 bb 5f 3e
       -0.11327607 -0.02541388 -0.0056031435 0.21848917
000240 95 ac 22 bd 11 cd fa 3c 53 63 c2 3c 5f c0 d4 bc
       -0.03971537 0.030615361 0.023729002 -0.025970636
000250 8a f9 3c bc 5a a5 91 bb 0e 06 e9 bd 22 ad 6f bd
       -0.011534104 -0.0044447603 -0.11378108 -0.05851472
000260 be 0b 6a 3d 51 85 e0 3d 6c 9b d0 bc da da 20 bf
       0.057140104 0.10962928 -0.025464736 -0.6283394
000270 ca cd 01 bd fb 82 5a bf 47 a7 1c ba 2a 21 22 bd
       -0.031690396 -0.8535611 -0.0005975854 -0.03958241
000280 07 ec 11 3f 12 48 ac be 8e 8f 06 3c 63 3c 4f be
       0.57000774 -0.33648735 0.008212937 -0.2023788
000290 27 5d 71 be 90 0b 1c bf 87 35 20 bf 5d ba ad be
       -0.23570691 -0.6095514 -0.62581676 -0.33931246
0002a0 cb 52 57 be b0 93 11 bc 53 f5 b5 be f4 cc a9 3e
       -0.21027677 -0.008885309 -0.3553873 0.3316418
0002b0 29 97 5b 3e 1a df 84 be d7 27 b1 be c3 3c 25 bf
       0.21444382 -0.25951463 -0.34600708 -0.6454584
0002c0 42 c9 ea 3d 5e 48 0f be 46 9d 81 be ad 4f bf 3e
       0.11464168 -0.1399245 -0.25315303 0.37365475
0002d0 dc fa 02 bd 92 b6 86 be 32 f2 37 3d dc 77 2a be
       -0.03197752 -0.26311165 0.04490871 -0.16647285
0002e0 b0 39 94 bf ea 52 aa be 79 e3 4f be fd 04 ac be
       -1.1580105 -0.33266383 -0.20301618 -0.33597556
0002f0 bb 37 13 3d 0b 21 81 bd 4c 76 1e be 70 05 8b be
       0.03594182 -0.063051306 -0.15474814 -0.27152586
000300 ea e4 fa bd ca 79 07 be 21 72 48 bf ca 58 4a bc
       -0.12250693 -0.13230053 -0.78299147 -0.0123502705
000310 d8 39 54 be ca 5f 64 be ba 8a af bd ba 47 ee be
       -0.2072519 -0.22302166 -0.08571382 -0.46539098
000320 c7 5f 03 bf 61 8b ac 3e 28 b1 75 3e 81 75 a9 3e
       -0.5131802 0.33700088 0.23993361 0.3309746
000330 55 1f 07 bf 6e fb 1b 3e 44 80 81 3d 8c 0d 95 3c
       -0.52782184 0.15232632 0.06323293 0.018194936
000340 88 75 79 3d 47 a4 dc be 1a 62 03 bf 98 98 4e 3d
       0.060903102 -0.43094084 -0.51321566 0.050438493
000350 1b 76 27 3d 7b 2c 9c 3e ac 57 2d be 62 bf a2 bc
       0.04088412 0.30502686 -0.16927975 -0.019866649
000360 55 23 83 3c 37 09 6d 3e 74 7b 78 bd 2b 7a 08 3e
       0.016008059 0.23148046 -0.06066461 0.13327853
000370 78 2f bb be 6c b6 7a be 50 97 54 3d ad 2d 13 be
       -0.36559653 -0.24483651 0.051902115 -0.14372893
000380 a3 1d 3a be e4 67 89 3d b5 7c b6 3d 8c 93 9f 3d
       -0.18175368 0.06709269 0.08910505 0.07791814
000390 40 44 02 be e8 ef 94 bd c2 29 cc be 8d 65 83 3d
       -0.12721348 -0.07272321 -0.3987561 0.06415854
0003a0 46 28 00 3e c1 fd 89 be 55 5a 44 3e 92 28 f4 bc
       0.12515363 -0.2695141 0.19175084 -0.029804502
0003b0 52 e9 8b bd 23 84 81 3b 86 ff 8f be 23 e0 5c 3d
       -0.06831612 0.0039525195 -0.28124636 0.05392469
0003c0 25 b5 c7 bd 95 d3 4c be bd 7a ef bd 6e 3d 1d be
       -0.097513475 -0.20002587 -0.11693332 -0.15355465
0003d0 82 47 97 be 92 c5 78 be 4d a7 00 3e f0 77 14 3e
       -0.29546744 -0.24294117 0.1256382 0.14498878
0003e0 43 9e 11 bf 3c 24 99 bd 41 02 03 3a 7c 70 97 bd
       -0.56882113 -0.07477614 0.0004997589 -0.073945016
0003f0 ff 73 50 be 5b c5 2e 3d 30 02 52 be 6c 7e de bd
       -0.20356749 0.04266868 -0.20508647 -0.10863957

network_body._body_endoder.seq_layers.0.bias f4 [128]
000000 25 76 d6 bd 56 52 30 be ce d7 2c be 06 d4 08 be
       -0.10471753 -0.17218909 -0.16879198 -0.1336213
000010 3a a4 8c bd 03 99 ad be 38 c6 e4 bd 9c e9 56 bd
       -0.06867261 -0.339058 -0.1117062 -0.05246888
000020 c0 90 8b 3e 79 46 ec bd 3c ff 2e 3e 18 e8 38 3e
       0.27258873 -0.11536879 0.17089552 0.18057287
000030 37 10 2d 3d 03 29 f6 bd ea 23 60 be fa 24 a5 be
       0.04225179 -0.12019541 -0.218887 -0.32254773
000040 44 b9 a5 3e de 07 20 be ef f9 53 be 3d 66 5e 3e
       0.3236791 -0.15628001 -0.20700811 0.21718688
000050 d7 19 50 3c ce 8e 2b 3d ac 3b 36 be f7 69 59 ba
       0.012701473 0.041884236 -0.177962 -0.0008293683
000060 d4 8b 90 3d 34 fd 40 39 c7 6a 47 3d e8 b0 3e 3e
       0.0705792 0.00018404872 0.048685815 0.18622172
000070 b1 38 37 be a6 35 e2 3d ce 24 2e be e9 d9 17 3e
       -0.1789272 0.11045389 -0.17006227 0.1482922
000080 06 d5 30 bf ab e4 b9 3b e5 fd f1 be 62 89 0c bc
       -0.6907505 0.0056730113 -0.4726402 -0.0085776765
000090 e3 87 83 be c7 66 86 bd ff 89 e5 be 39 c5 fb bd
       -0.2568961 -0.06562572 -0.44831845 -0.122934766
0000a0 59 ae 5a 3e 3a 78 07 3e c5 f5 6c 3e 90 36 86 bd
       0.21355571 0.13229457 0.23140629 -0.06553376
0000b0 ef 89 f9 bd a8 b2 33 bc ad 3e a4 3e b7 f5 b8 be
       -0.12184512 -0.010967888 0.32079068 -0.36124966
0000c0 0a 18 6a 3e 36 16 20 3c 29 dd 40 3e c9 13 2d be
       0.22860733 0.0097709205 0.18834366 -0.16902079
0000d0 96 29 59 3e 1c 8b b8 3e 16 d0 83 bd 97 e4 9e be
       0.2120727 0.36043632 -0.064361736 -0.31033775
0000e0 26 50 4b 3d bf d8 b7 3d fc a2 1a be fe 65 91 3e
       0.049636982 0.08976888 -0.15101236 0.28398126
0000f0 1b 65 09 be b0 07 8a be 5c 06 e8 39 7a d5 0f 3e
       -0.13417475 -0.2695899 0.00044255226 0.14046279
000100 4b dd 2d 3c 23 30 0b bd 8f 2b 15 3e 1c 91 8b 3e
       0.010611842 -0.033981454 0.14567398 0.27259147
000110 05 ab 24 3e 68 21 59 3e b4 86 39 3e a2 1f 88 3e
       0.16080864 0.2120415 0.18117791 0.26586634
000120 d9 5a 70 be 66 0c d1 3c 54 c5 d9 bd 72 ec 14 3e
       -0.23472156 0.025518607 -0.106333405 0.14543322
000130 aa bd a1 bd 26 c8 06 3e 4e 86 d6 be e9 2e 97 3e
       -0.07897504 0.13162288 -0.4189934 0.29527977
000140 d8 38 6b bd 58 b5 e0 bd 03 2c c3 be 6a 6d 2b 3d
       -0.057427257 -0.109720886 -0.38119516 0.041852392
000150 eb 16 2d be ad 67 06 bc 70 1f 85 3e bd 91 30 be
       -0.16903274 -0.008203429 0.26000547 -0.17243095
000160 08 eb 58 bd f0 e1 73 3d 8c fc 56 be 57 09 23 bf
       -0.05295852 0.059541643 -0.20994776 -0.63686126
000170 08 ce c8 bd c4 55 67 3e 7b b4 1d 3e 67 ec bb bd
       -0.09804922 0.2259131 0.15400879 -0.091759495
000180 d3 1c b2 3e a9 be a6 3e d9 15 59 3e 20 48 af be
       0.34787616 0.32567337 0.2119974 -0.34234715
000190 e5 8e e8 3d 6a df b4 3d 9f d4 2c 3d d6 9f 2c 3e
       0.1135538 0.08831675 0.04219496 0.16857848
0001a0 c0 97 40 3e c3 d4 0e be dd a1 2d 3e 30 9a 27 3d
       0.18807888 -0.1394835 0.16956277 0.04091853
0001b0 1c e2 aa 3d e5 36 2c 3e 18 7d 80 3e 6b 9b 97 3e
       0.08343908 0.16817816 0.2509544 0.29610762
0001c0 72 1d 9a 3e 39 0f 85 3e 72 7b 75 3d c5 c2 f1 bc
       0.3010059 0.25988176 0.05993218 -0.029511819
0001d0 c2 4f 5b be eb 6f e1 3c fc c6 2e 3e 23 f0 b7 bd
       -0.21417144 0.027519187 0.17068094 -0.08981349
0001e0 36 83 d5 be 6f 13 c6 3c ef 7d 77 3e a2 b6 37 3e
       -0.41701669 0.024179189 0.24169134 0.17940763
0001f0 8b 70 18 3e 8a 08 cd 3e fd e4 3b be c0 85 61 be
       0.14886682 0.40045577 -0.18349071 -0.22023678

network_body._body_endoder.seq_layers.2.weight f4 [128, 128]
000000 4f 31 e9 3e c5 e6 99 be da 06 b6 3d 4c 8a 25 bf
       0.45545432 -0.30058876 0.088880256 -0.6466415
000010 56 6c e5 3e 49 75 97 be e2 73 a3 be 1c 5c 83 bd
       0.44809216 -0.2958167 -0.3192435 -0.06414053
000020 44 be 23 bd 6f 93 60 bd 3d 1d ef 3e d5 3b b9 3e
       -0.039976373 -0.054828104 0.46701995 0.3617846
000030 de 90 be 3d b3 ff 08 3c 4e cb dc 3d e7 b1 19 3e
       0.09304975 0.008361745 0.10780965 0.1500927
000040 11 8d f0 3e 51 4c 37 3e d1 d0 73 be 88 f5 96 3e
       0.46982625 0.17900206 -0.23810126 0.294842
000050 1f a2 f8 bd f1 bb fd be 3f fd 75 be a3 e7 cf 3d
       -0.12140297 -0.4955745 -0.24022387 0.10151603
000060 f2 10 9d be 7f b8 6a be 44 cf ce 3e 8c 20 98 3e
       -0.3067699 -0.22921942 0.40392506 0.2971233
000070 0e a2 dd be 04 eb e4 bd 3c cc 6e bd 79 75 a0 bc
       -0.432877 -0.11177638 -0.05830024 -0.019587265
000080 22 22 db be 00 f4 1e be 66 f8 34 be 74 ac 09 3e
       -0.4279948 -0.15522766 -0.17672881 0.13444692
000090 3b db 0c 3e 74 b5 ab bd 5d 50 6e 3e 45 b2 0f 3e
       0.13755505 -0.08384219 0.23272844 0.14032848
0000a0 de a8 13 3f a2 5e be bc 0f 53 cb be 62 2b 36 bb
       0.57679546 -0.023238484 -0.39711806 -0.0027796854
0000b0 24 34 21 bf 39 c4 81 3d 46 fd 26 be 98 b2 60 be
       -0.62970185 0.063362546 -0.16307554 -0.21943128
0000c0 0b aa 0e bf 6a 74 6b 3d 7d ed bd be 9d a3 5c be
       -0.55728215 0.057484068 -0.37095252 -0.21546789
0000d0 5a 31 88 bd 08 00 29 be f7 4e b2 3d f9 9a cf be
       -0.06650038 -0.16503918 0.087064676 -0.40547922
0000e0 a5 ca d0 be f8 bc 0a 3d e5 9c be be 71 f1 a1 bc
       -0.40779606 0.03387162 -0.37229076 -0.019768449
0000f0 e5 dc 7d be 24 b0 e9 3d 7c f4 78 3e 8f 59 d3 bd
       -0.24791296 0.11410549 0.24312013 -0.10319816
000100 06 28 8b 3e 69 30 b7 3d 7f 41 ec be a6 68 eb bc
       0.27178973 0.089447804 -0.4614372 -0.028736424
000110 11 ff b7 be e0 c6 1e bf d9 3b a2 bd 74 60 18 bf
       -0.35936788 -0.6202221 -0.07921571 -0.59522176
000120 57 8b 29 bf 29 52 50 bd 68 7d 76 be 56 32 99 3e
       -0.6622824 -0.050859604 -0.24071276 0.29921216
000130 e4 7e d8 bd c7 0b 9a bd 85 a9 7b 3e 3a ba 99 be
       -0.105710775 -0.075217776 0.24576385 -0.30024892
000140 d9 a0 d8 be a8 c7 95 be d9 fd 0a be c2 d8 fe 3d
       -0.42310217 -0.29253888 -0.13573398 0.12443687
000150 3e bf 99 be 83 ed 8b bd 38 7b dd bd 2c 28 d7 3d
       -0.3002872 -0.06832411 -0.10814518 0.10505709
000160 00 71 49 3d 00 95 88 3d 6b 8a c3 bd 17 7a e3 bd
       0.04918003 0.066690445 -0.095478855 -0.11107271
000170 43 51 29 bf 12 76 02 3b 32 28 a5 bd e0 b3 50 be
       -0.6613962 0.0019906801 -0.08064307 -0.20381117
000180 5f 3d 93 3e 75 32 89 be 9c 52 00 be f0 3c cd be
       0.2875776 -0.26796308 -0.12531513 -0.40085554
000190 a9 6a fe be 44 49 ab 3e a3 bb 29 bf 26 e0 9f 3c
       -0.4969075 0.33454335 -0.66301936 0.019516062
0001a0 ee 52 bb 3e 2c 25 46 3e 5a 79 ad be 9d 53 67 be
       0.36586708 0.19350117 -0.33881646 -0.2259049
0001b0 82 95 91 be cd 93 c5 3e 77 95 d9 3e 43 36 56 3e
       -0.28434378 0.38589326 0.42496845 0.20919137
0001c0 69 da 26 3f 84 22 23 3f ef 65 e7 be f2 bc d1 be
       0.6517702 0.6372454 -0.45194957 -0.40964466
0001d0 db 6e d6 be ab 64 28 3e 15 b1 66 be a2 e1 49 be
       -0.4188145 0.16444652 -0.22528489 -0.19714978
0001e0 ba 5c d8 be ce e0 e8 bc e6 1d 95 bd f6 0c 18 bb
       -0.42258245 -0.028427508 -0.07281093 -0.0023201085
0001f0 0e 31 48 be bb 18 e1 be 27 cc 42 3e 9e 3e 80 3d
       -0.19549963 -0.4396418 0.1902319 0.06261943
000200 ec 53 a2 be 87 da 1d bb 56 4a 88 3e 1d 20 ab bd
       -0.31704652 -0.0024086551 0.26619214 -0.083557345
000210 df 29 e6 3c 38 9a 4b bb d9 8e c7 3d f2 b0 7d 3e
       0.028096138 -0.0031067263 0.09744043 0.2477453
000220 62 c2 0b 3c 7f f1 2d be bd 5a b8 be 79 a5 a6 be
       0.008530231 -0.16986655 -0.36006728 -0.3254812
000230 6a 21 f6 3d 99 0c 16 be dd af 82 3e 27 2f 4c bd
       0.12018092 -0.14653243 0.25524798 -0.049849655
000240 89 37 ea be eb 15 60 3e eb 83 7d 3e ac f8 a5 3d
       -0.45745495 0.21883361 0.24757354 0.08104071
000250 6e 85 72 bc a9 eb 4a 3e 35 03 6b 3e a3 3e a7 3e
       -0.01480232 0.1981646 0.22950442 0.32664976
000260 33 28 82 3e 5a f1 90 3d 6f 4a 3a 3e d8 f5 79 bc
       0.25421295 0.07077284 0.18192457 -0.015256368
000270 9d 03 c3 bd 91 c5 a9 bc 06 a6 48 3d c9 63 d1 3c
       -0.095221736 -0.02072409 0.048986457 0.025560277
000280 f1 f6 0b 3d b0 af f8 3d 91 d8 d2 3e 5b 38 9d 3d
       0.03417105 0.12142885 0.41180852 0.076767646
000290 df da 0d 3e b4 b8 2d 3e 50 55 34 3e 8d bd 17 be
       0.13853024 0.1696499 0.17610669 -0.14818402
0002a0 c2 1a eb 3d a6 31 b2 3e 7b ec 75 be 81 5b 28 3b
       0.11479713 0.34803504 -0.24015991 0.0025689306
0002b0 79 19 aa bd 62 99 06 be 98 44 3e bd e5 ee af 3c
       -0.0830564 -0.13144448 -0.046452135 0.021476218
0002c0 50 03 1a bf 2f 4f 12 3e 41 65 f5 bc e3 4a 9d be
       -0.60161304 0.14288019 -0.029955508 -0.30721197
0002d0 6f 30 82 bc 43 3c 95 bd 36 69 82 bd 55 fc 2f 3d
       -0.015892236 -0.07286885 -0.06367724 0.042965252
0002e0 69 fb 76 be 86 e1 80 3e 80 cb 9d bd 2f 5f b7 be
       -0.24119343 0.2517206 -0.0770483 -0.35814807
0002f0 69 da e1 bd 19 3e 99 bd e5 d2 cd bc 69 91 89 be
       -0.110279866 -0.07482547 -0.025124976 -0.26868752
000300 22 52 b8 3d c1 93 41 3c 37 a5 40 be 04 45 1c bd
       0.090000406 0.011815012 -0.18813024 -0.038151756
000310 be cd 71 3e 40 98 23 bf a9 41 24 3e ca ad f2 be
       0.2361364 -0.6390419 0.16040672 -0.47398216
000320 6c e9 d3 be 1a e3 75 be 90 1d 9b 3e a7 6f 06 bf
       -0.41389024 -0.24012414 0.30295992 -0.5251412
000330 b9 e5 9b 3d 5a 26 36 be fb ca a1 3e d1 75 6b be
       0.076121755 -0.17788067 0.31600174 -0.22994162
000340 c4 eb 30 3e 5d ff ca be 46 20 4c 3e 74 b4 2f bf
       0.17277437 -0.39647952 0.19934186 -0.68634725
000350 bc d0 21 be 92 ec 6a 3e 15 0a 8e 3d 1d 5b 05 3e
       -0.15802282 0.22941807 0.06935517 0.13023038
000360 88 85 06 bd 5e 3f 0b be c3 4d e1 3e dc 28 a3 3e
       -0.03284219 -0.13598391 0.4400464 0.3186711
000370 b6 e6 3b bc 0d 6c bd 3d 95 71 d3 bd 14 4a 26 3e
       -0.01146858 0.09249125 -0.103243984 0.16239196
000380 c1 d9 8e 3e 90 37 6a bc 37 23 96 be 25 9c e7 be
       0.27900508 -0.014295474 -0.29323742 -0.45236316
000390 1f 0e 70 3d 6a ca 45 be 77 88 d3 bd fe c4 33 bd
       0.058607217 -0.19315496 -0.10328763 -0.04388904
0003a0 fa 96 55 3f 23 7a e2 3d 43 51 eb 3d 51 28 11 3e
       0.83433497 0.11058452 0.11490109 0.14175536
0003b0 e2 d9 fa bd a2 17 ac 3e 80 8b eb 3e 71 6d 6c be
       -0.12248589 0.3361178 0.46004868 -0.23088624
0003c0 1a d7 9d 3f 12 23 1a bf ab e5 8d 3d 87 12 1c be
       1.2331269 -0.60209763 0.06928571 -0.15241443
0003d0 6d a6 74 bd cb 39 45 3e bb 45 f7 be ca c4 5e 3d
       -0.05972903 0.19260328 -0.48295388 0.05438689
0003e0 ff a0 aa bd 20 f7 91 3d 88 70 9b 3e 50 61 8b be
       -0.08331489 0.071272135 0.30359292 -0.2722268
0003f0 ed 4c 0e 3d c4 94 2c bd aa 66 a9 bd 33 bd f4 3e
       0.03474133 -0.04213406 -0.08271535 0.47800598

network_body._body_endoder.seq_layers.2.bias f4 [128]
000000 aa 39 8f 3d 63 20 9f bd 95 6b 1e be 40 e1 c9 be
       0.069934204 -0.07769849 -0.15470727 -0.39429665
000010 d6 84 f1 bd 9a 11 b6 3a 22 3a 05 bd 3b 48 c5 3e
       -0.117929146 0.0013890744 -0.032526143 0.3853167
000020 5f 50 1c 3b 46 2b c0 bb 32 92 65 3e 99 77 0c 3e
       0.0023851616 -0.0058645336 0.2241905 0.13717498
000030 27 ee b7 3d 38 e6 c6 bd 46 78 6d bd 51 f7 36 be
       0.08980971 -0.097118795 -0.05797603 -0.17867781
000040 2a 10 ab bd 3e c0 fc 3d 95 b1 e5 3d be d9 30 3e
       -0.083526924 0.12341355 0.11215512 0.17270562
000050 bd 40 9d 3e 23 6c 11 be d9 aa dd bd 22 63 0c 3e
       0.30713454 -0.14201407 -0.10823602 0.13709691
000060 72 77 c5 3b e3 e3 07 be 43 99 24 3e e2 ec 19 3d
       0.006026202 -0.13270526 0.1607409 0.037579425
000070 e6 fc 5f 3e 61 88 d1 3e 92 9a dc bd 1f dd 95 bd
       0.21873817 0.4092436 -0.107716694 -0.07317566
000080 bc 95 18 3d cb ea c7 3e 1b 06 1f 3e d3 9d 3e 3e
       0.037252173 0.3904632 0.15529673 0.18614893
000090 8b 15 15 3e 35 6a ca 3d 59 22 ef 3c 0f aa a0 3d
       0.14558999 0.09883539 0.029191183 0.07844936
0000a0 23 8d c5 bd 08 be 6d 3e cb e1 0e be 6e 81 37 3d
       -0.0964606 0.23217022 -0.1395332 0.04480117
0000b0 33 5f 3b be 4d 88 e1 3e 37 ed 02 3e c9 ac e1 be
       -0.18298034 0.44049302 0.12785803 -0.44077137
0000c0 a4 9f 13 bd 45 64 db be 64 48 13 bc 57 d4 41 3e
       -0.036040917 -0.42849937 -0.008989427 0.18928657
0000d0 ad 83 90 3d d3 04 36 3f 0c 77 74 3d 31 e6 7a be
       0.07056365 0.7110111 0.059683844 -0.24501874
0000e0 12 0d fc bd 0f e4 9f 3d fe db d4 3d f3 e3 6e 3d
       -0.123071805 0.078071706 0.10393523 0.058322858
0000f0 db 80 3e bd 36 e7 29 be 21 92 af 3e 23 fa ef 3d
       -0.046509605 -0.16592106 0.34291175 0.11717632
000100 d3 5c 9f bc fa 13 d2 3e 27 92 c0 be bb a0 b8 bd
       -0.019453442 0.41030866 -0.37611505 -0.09015032
000110 07 57 6d 3e 34 2f ab 3e 16 67 3e 3e 5e 40 9c be
       0.2317773 0.3343445 0.18594012 -0.30517858
000120 7f 6c 97 3c 57 a2 fc 3d c8 38 26 be 72 c3 c2 3c
       0.018484352 0.12335651 -0.16232598 0.023774836
000130 48 b7 83 bc 93 f7 8d 3e 3d 05 4e 3d d2 ea 89 be
       -0.016078606 0.27727947 0.050297964 -0.26936966
000140 3a f1 f0 bd ba 72 34 3d f1 d4 63 3e 7e d1 1f be
       -0.1176476 0.044054724 0.222492 -0.15607259
000150 e7 77 a1 3d 9c dc 89 3d 4b 6a 99 3e 3d 68 90 3b
       0.07884198 0.06731531 0.29963908 0.0044069574
000160 14 17 84 3d da d3 5f 3e d9 35 db 3d c2 2a 98 3d
       0.06449714 0.21858159 0.1070363 0.074300304
000170 2c 69 86 be 92 b6 e8 3e 6e 92 8a bc 42 75 38 3e
       -0.26252115 0.4545179 -0.016915526 0.1801348
000180 9d f9 9f 3d 09 4e d4 3d 6c 58 52 3d f3 5e 05 3e
       0.07811282 0.103664465 0.051353857 0.13024502
000190 69 f2 2d 3d 68 6c a8 3e 72 d8 59 3e 28 37 27 3e
       0.04246751 0.32895207 0.21273974 0.16329634
0001a0 a3 a0 0b 3f 79 a0 a5 3e e7 a0 46 be 35 f2 04 3d
       0.5454199 0.32348993 -0.19397317 0.03245755
0001b0 2d 42 29 3d fb 43 da 3d ec 96 9d bd e3 ae 0e 3e
       0.041322876 0.106574975 -0.07694802 0.13933901
0001c0 48 7f 86 3e c8 5c 34 3e fc 37 9e 3e 92 0c 14 be
       0.26268983 0.17613518 0.30902088 -0.1445792
0001d0 ea 40 ee bd 0e e5 7c bd 21 ed 90 3d 31 f3 01 bf
       -0.11633475 -0.06174188 0.07076479 -0.50761706
0001e0 27 d9 3d 3e ac 1a 24 3d 23 32 65 bd 29 fb 03 3e
       0.18539868 0.0400645 -0.055956017 0.12888779
0001f0 4e 36 e2 3c 4b fb 1a 3e 7e 4a 20 3d 24 1c d0 3d
       0.027613785 0.15134923 0.03913354 0.101616174

action_model._discrete_distribution.branches.0.weight f4 [7, 128]
000000 cf 74 42 3e f2 2c 54 3b 34 66 ed 3c 8c cc 6a be
       0.18989871 0.0032375422 0.028979398 -0.22929591
000010 62 f0 36 bb 9e 58 41 3e 01 08 e8 3d 75 5d 76 3e
       -0.0027914275 0.18881461 0.113296516 0.24059089
000020 d5 53 bf 3d 03 eb 6f 3e d9 28 96 3e b6 be a1 3e
       0.093421616 0.23429494 0.2932804 0.31590813
000030 03 43 1f 3e 68 23 8f 3e 56 f2 91 be ac 0e 68 3e
       0.15552907 0.279567 -0.285052 0.22661847
000040 75 37 0f bf 8c 52 05 3b 53 9c 4c 3e 81 30 b5 3e
       -0.55943996 0.0020343391 0.19981508 0.35388568
000050 55 24 6b 3e 64 56 75 3e 43 70 19 3d 9a 2e 7a be
       0.22963078 0.23958737 0.037460577 -0.2443184
000060 21 4b 19 3e 4d c4 c9 3c 08 9b 5f 3e 4b f2 86 3e
       0.14970066 0.024629736 0.21836483 0.2635673
000070 3d a5 ab 3e 4b 5b 0d 3e 8e c1 09 3e 09 3e 9d bd
       0.33524504 0.13804357 0.13452742 -0.07677848
000080 39 3d 34 3e b5 6f 51 3d 1f e3 4c 3e 97 18 df 3d
       0.1760148 0.051131923 0.20008515 0.10893362
000090 0e 4b 9d 3e e9 6b b5 3e ff 10 42 be 99 af 89 bd
       0.30721325 0.3543389 -0.18951796 -0.06722946
0000a0 28 a4 d4 bd d7 33 63 3d dd c2 3d 3e 1a 46 0c 3e
       -0.10382873 0.05546936 0.18531366 0.13698617
0000b0 39 9a 43 bd 79 ac 9b 3e af 9d bd 3e 66 7a 32 3e
       -0.0477545 0.30405024 0.37034366 0.17429504
0000c0 aa 15 3c 3e 5a 72 84 3d 06 82 64 3e 0d 18 af 3e
       0.18367639 0.06467123 0.22315225 0.34198037
0000d0 15 cb 02 3e d9 99 04 3e 10 c5 95 3e 86 c0 94 3e
       0.12772782 0.12949313 0.2925191 0.29053134
0000e0 38 e3 51 3e ee 8a 9e 3e 0a 11 d4 3e 84 eb 50 3e
       0.20496833 0.3096537 0.4141925 0.20402342
0000f0 51 9a 09 3e 53 59 04 3e f5 14 85 3e a7 31 c1 3e
       0.13437773 0.129247 0.2599255 0.37733194
000100 ac 00 96 3e d9 3c a2 3e 69 0f 40 bd 32 86 01 3e
       0.29297388 0.31687048 -0.046889696 0.12648848
000110 87 c2 8e bd 6e aa 3d 3e 67 af e0 3d 90 1d 20 3e
       -0.06970697 0.18522045 0.10970955 0.15636277
000120 8a 33 43 3e 24 ab 37 3e 8a c5 5a 3e ff ee a8 bd
       0.1906263 0.17936379 0.21364418 -0.0824871
000130 29 17 b1 3d 26 fa b4 3d d4 19 27 3d dd 01 39 be
       0.086469956 0.088367745 0.040796116 -0.18067117
000140 4b ec 8f 3e 4b 26 12 3d b8 d2 06 be 76 69 c7 3e
       0.28109965 0.03568105 -0.1316632 0.38947648
000150 fd 1c 15 3e 21 a5 e7 bd d2 01 a1 3e f3 2e 96 3e
       0.1456184 -0.11310793 0.314467 0.29332694
000160 29 b5 35 3d 6a f5 52 3e 1a 52 52 3e f6 9e 68 bd
       0.04436222 0.2060143 0.20539132 -0.056792222
000170 8f 4f c4 3e 06 31 6b 3d 11 b9 e8 3e 43 bb 29 3e
       0.38341948 0.0574198 0.45453694 0.16575341
000180 65 79 c8 3e 41 c9 a5 3e 98 87 66 3d 56 e6 83 39
       0.39155117 0.32380107 0.056281656 0.0002515788
000190 bf c8 b6 3d 45 fd a7 3e 53 87 31 3e ac 46 9f 3e
       0.08925008 0.32810417 0.17336778 0.31108606
0001a0 6d cf 08 3e 0b 6e 3c 3e 0d b4 64 3e 27 f7 0d 3e
       0.13360377 0.18401353 0.22334309 0.13863812
0001b0 cd 9d a4 3e ee 50 8f 3e 70 65 43 3e 58 32 7f 3d
       0.32151642 0.27991432 0.19081664 0.06230387
0001c0 7f 43 03 3e 55 f9 25 3d 21 8a 8b 3e af 4f 30 bd
       0.12818716 0.040520985 0.27253821 -0.043044742
0001d0 a2 c6 36 3e e2 71 d0 3e 64 fa 2f 3e da e8 97 3e
       0.1784921 0.40711886 0.1718536 0.2966984
0001e0 38 ac 46 3e fb cd a5 3e 83 2c a0 3d 30 12 a2 3e
       0.19401634 0.32383713 0.0782099 0.316545
0001f0 64 ba 06 3e 59 45 6d 3e fd 18 7f be e9 30 5f 3d
       0.1315704 0.23170985 -0.24911876 0.054490004
000200 68 af a7 bd 1c 68 02 be 8a c6 0b be f8 7f c2 be
       -0.08187753 -0.12735027 -0.13649955 -0.37988257
000210 7d 8d f8 3d f1 ac bf bc ed 5b 06 be ae 41 a4 3d
       0.12136362 -0.023397895 -0.13121004 0.0802034
000220 ca 0d b4 3e 37 52 37 3f 63 98 1e 3f 32 3a bc bb
       0.3516677 0.71609825 0.61951274 -0.005744242
000230 81 d0 b8 3e 69 67 7c 3e ab 8c 5a be f8 3e e1 3e
       0.36096576 0.24648823 -0.21342723 0.43993354
000240 c2 86 0a 3e 14 a1 b2 be a4 5e b1 be a1 c9 ba bb
       0.13527969 -0.34888518 -0.34642518 -0.0057003056
000250 5b 09 1e bd 17 30 e1 3c bb f3 10 bf 0a c0 af be
       -0.03858314 0.027488751 -0.56621903 -0.34326202
000260 10 ea e0 3c 8c f8 4f be 1e d5 b0 3e 3c 30 97 3e
       0.02745536 -0.20309657 0.34537596 0.29528987
000270 14 0a b0 3d a6 0b 88 3e f2 05 02 bf 8f 38 be bc
       0.08595672 0.26571387 -0.5079032 -0.023220329
000280 a8 b3 1d 3e aa 7a be 3e 7b d4 3e 3e 48 b3 cf be
       0.15400565 0.3720296 0.18635742 -0.40566468
000290 18 10 99 3e 6d 66 6d be c6 51 b3 3d 01 4f 85 3e
       0.2989509 -0.23183604 0.087558314 0.26036838
0002a0 ef cb e8 3c ce 68 d3 3e 4d 45 d6 bc 87 69 cb be
       0.028417556 0.41290897 -0.026156092 -0.39728948
0002b0 bf 4a 60 be c5 27 37 3e b7 63 bd 3e 79 33 b2 3e
       -0.21903513 0.17886265 0.3699014 0.34804896
0002c0 00 f8 0a 3e 99 e3 88 3e 22 b4 0a 3f 34 35 a9 be
       0.13571167 0.26736143 0.5418111 -0.33048403
0002d0 a6 82 8c 3e ab 2e f5 3d 8d e3 f2 3c c2 f8 a5 3e
       0.27443427 0.11971792 0.02964952 0.3241635
0002e0 12 56 17 3e 61 68 d8 bc 67 e6 23 bc 26 df b9 3d
       0.14778927 -0.02641696 -0.010003663 0.09075765
0002f0 8d b3 c6 3d 5e 82 e3 be e7 a2 bb be d7 9a 89 3c
       0.09702215 -0.444354 -0.36647722 0.016797466
000300 f4 e3 15 be aa 0b 17 bf c3 ac 9f be e2 bb b8 3e
       -0.14637738 -0.5900217 -0.31186494 0.36080843
000310 69 b0 f6 3e 7f 0b dc 3e e7 4a d0 be f2 a2 29 3e
       0.48181465 0.4297752 -0.40682146 0.16566065
000320 42 05 11 bd 9d a5 1c bd b5 09 eb 3e 12 65 50 3e
       -0.035405405 -0.03824388 0.45905843 0.20351055
000330 6f 35 b5 3e d2 be fd 3d ba 9e 1f bf 7f 10 0c 3e
       0.3539233 0.12389912 -0.6235157 0.13678168
000340 13 0e 0b be d1 5d 81 3d e9 31 b1 3e 2b 0e 0b 3e
       -0.13579588 0.06316722 0.3460839 0.13579623
000350 6e 70 16 3f 9e 7b 1a be 3d f3 74 be b7 36 af 3d
       0.58765304 -0.15086219 -0.23920913 0.08555358
000360 c5 16 e7 3e 6e 72 31 3d ca 03 b9 ba 9b 69 93 be
       0.4513456 0.04332202 -0.0014115509 -0.28791508
000370 c2 a1 0a be 7a cb 87 3e b9 b9 a8 3d 0b 2d fa 3e
       -0.13538268 0.26522428 0.08238549 0.4886249
000380 ce 50 21 be 0a d2 cf be 5d 24 4f b9 81 57 3e 3e
       -0.15753481 -0.40589935 -0.00019754605 0.18588068
000390 3d 52 8b 3e c8 12 e5 be 6e ca 00 3f ad e8 4a be
       0.2721118 -0.4474089 0.50308883 -0.19815321
0003a0 0f 41 d5 3d 3e 4e 9b 3e 16 a2 31 3d c6 2a 03 3f
       0.104127996 0.30333132 0.043367468 0.5123714
0003b0 88 ce 16 bc 57 c9 10 bf 4c 37 aa 3e 90 ac 2a bf
       -0.009204514 -0.5655722 0.33245313 -0.6666956
0003c0 17 39 47 3d 5b 6c ae 3e 00 a3 6b 3e 29 e6 95 3e
       0.04863843 0.34067044 0.23011398 0.2927716
0003d0 2d 6e 00 bc e9 3b 84 be f8 fb df be e6 68 83 be
       -0.007838768 -0.25826958 -0.43746924 -0.2566597
0003e0 3e 01 5c 3e 79 10 37 bd b4 6a 84 3e 7b 4b be 3e
       0.21484849 -0.044693444 0.25862658 0.37166962
0003f0 3c dc 6e 3e 5e b4 7d 3e 0a f2 1e 3e aa 5b b0 3e
       0.233262 0.24775836 0.15522018 0.34444934

action_model._discrete_distribution.branches.0.bias f4 [7]
000000 8d 04 46 be d5 35 36 3e 19 7b 6b 3d 53 ec 62 bf
       -0.19337673 0.17793973 0.057490442 -0.8864185
000010 d8 1e 59 bf 38 2a d3 3e 45 46 d1 3e
       -0.8481269 0.41243148 0.40873924
