Trained_Policies/WeightAgent_Training/WeightAgent_Training/WeightAgent_Training-153499991.onnx (onnx, 155824 bytes, 6 tensors)

network_body._body_endoder.seq_layers.0.weight f4 [128, 163]
000000 08 39 f5 3c 0a 7d af be 5d bf b0 bd 74 7f c6 3d
       0.029934421 -0.34275085 -0.0863025 0.096922785
000010 90 fa d3 3e f8 92 0d 3e 4c c5 b8 bd 0c ab 87 be
       0.41402102 0.13825595 -0.090220064 -0.26497686
000020 60 cd a2 3c f4 7c b7 3e 27 33 49 bd be d3 bb be
       0.019873321 0.3583752 -0.04912105 -0.36684984
000030 49 75 63 be bd dc c6 3e 30 96 25 3f da 6f 15 3e
       -0.2221271 0.38840285 0.6468229 0.14593449
000040 be 84 26 bd fd 07 32 be 37 f1 5a 3e 61 39 de 3e
       -0.040653937 -0.1738586 0.21381079 0.43403152
000050 ef 4f 34 3d c7 97 d0 3d ee 5c 2b be 51 b0 96 3e
       0.044021543 0.10185199 -0.16734669 0.29431394
000060 be 64 53 3f 73 ec 80 3c 71 27 5e bd 77 fd 5b 3d
       0.82575595 0.015737748 -0.054236833 0.05370852
000070 c3 df 9b 3d 49 97 9d 3e b3 38 cf bd 2c cf 61 bd
       0.076110385 0.30779484 -0.101182364 -0.055129215
000080 d3 a6 23 be 7b 40 ec 3d 1e d5 0b 3f b4 01 02 3e
       -0.15981607 0.11535736 0.54622066 0.12695962
000090 3f e9 bf 3d 0a a2 ec bc 09 1a fd bc 3a 1b 7f 3e
       0.0937066 -0.02888586 -0.030896204 0.2491273
0000a0 f6 55 e0 3d 43 22 26 be 0f d2 f3 bd b7 af ae bc
       0.10953896 -0.16224007 -0.119053 -0.021324022
0000b0 2b d3 d6 3e 2b c1 2a 3e f8 d3 90 3d 41 a2 0e 3e
       0.41957983 0.1667525 0.0707168 0.13929082
0000c0 92 f1 90 3d de 9d c4 3e 1c c5 19 be 36 b4 04 be
       0.07077326 0.38401693 -0.15016598 -0.1295937
0000d0 de ce af be 43 b4 41 3e f9 a4 e1 3e 0c 62 82 3d
       -0.34337515 0.1891642 0.44071177 0.06366357
0000e0 18 55 03 be 25 83 6e be 6d e2 3f 3e a8 f4 c1 3e
       -0.1282543 -0.23292215 0.18738718 0.3788197
0000f0 32 0e 01 be 1d ad eb bd fd 90 df be 87 cd 26 3e
       -0.12603071 -0.11507628 -0.43665305 0.1628934
000100 b4 fe a8 3e 34 b7 6b 3d 6c 7d 55 be 49 98 88 3d
       0.33006823 0.057547763 -0.20848626 0.06669671
000110 b4 97 40 3d c0 9c 9e 3e 74 08 ed bd 69 bc 03 3c
       0.047019675 0.30978966 -0.11573878 0.008040526
000120 9f ff 99 bd 96 fe 94 3d b5 26 62 3e bc d0 c5 3d
       -0.07519459 0.07275121 0.22085078 0.096589535
000130 78 0e 6d bd 24 16 96 3d 37 83 4c 3e 24 52 d7 3d
       -0.057875127 0.07328442 0.1997193 0.10513714
000140 0a ad b3 bc c1 e4 a0 3d 03 65 f6 bd b5 04 54 bd
       -0.021933097 0.07856131 -0.12030985 -0.0517623
000150 f3 e6 14 bd 25 5d 70 3e 2b 7e 51 3e 0e 1e 88 3a
       -0.036353063 0.23473032 0.20458286 0.0010384934
000160 01 1b 7b 3e 36 84 81 3e 9d ea 5f bd ca 99 33 3e
       0.2452202 0.2529618 -0.054667104 0.17539135
000170 3e 75 62 be e1 77 96 3e df 88 50 bd 80 4d 65 3e
       -0.22115037 0.29388335 -0.05091178 0.22392845
000180 fa 70 14 3e 75 77 90 3e 4a 66 db 3c b5 39 20 3d
       0.14496222 0.28216138 0.026782174 0.039117534
000190 b0 a6 62 be 8a d8 19 3d ab bd cf bd c5 ca 1f 3d
       -0.22133899 0.037560023 -0.10143598 0.039011735
0001a0 61 69 df 3c f3 a7 72 3d 63 13 80 3d 21 79 4b 3e
       0.027271928 0.0592422 0.06253698 0.19870426
0001b0 63 a7 99 3d a8 89 05 bd 36 10 65 be b1 62 80 3d
       0.075026296 -0.032601982 -0.22369465 0.06268824
0001c0 22 86 37 bd 61 e1 f6 bd ba 02 b1 3c cc 54 8a bd
       -0.044805653 -0.12054706 0.021607745 -0.06754455
0001d0 c5 2c ab 3d 29 f3 85 3e ac 9c 84 3d f6 c7 f4 3c
       0.083581485 0.2616208 0.06475195 0.029880505
0001e0 e2 37 72 be 04 31 3f 3c 6c 3e ba bd 1e e1 18 bd
       -0.2365413 0.011669401 -0.09093937 -0.037324063
0001f0 e7 08 7b be 44 cf c7 3d eb 24 11 3e 45 ae 4d 3e
       -0.24515115 0.0975633 0.1417424 0.2008601
000200 de e9 c4 bd fa 83 02 be 54 54 90 be b6 df 83 3e
       -0.09614919 -0.12745658 -0.28189337 0.25756615
000210 c4 94 ec 3c 8b 43 dd 3d 54 f7 7c 3c 72 c0 ed 3a
       0.02887953 0.108038984 0.015439827 0.0018139018
000220 80 ce bc 3d 79 13 44 bd 3f c0 84 3d 10 59 4b be
       0.09219074 -0.047870133 0.064819805 -0.19858193
000230 53 63 51 be c9 b9 ab 3c c3 44 38 3e 94 cd 90 3e
       -0.20448045 0.020962613 0.1799498 0.28281844
000240 e3 5e f6 bc 8e 8b 87 be 67 57 20 3d 21 d0 87 3e
       -0.030074542 -0.2647366 0.039145853 0.26525977
000250 84 c5 90 bd 85 6a f9 bd 4d 46 73 be 43 9d 33 3e
       -0.07068923 -0.1217852 -0.23757286 0.1754046
000260 f6 4b 22 3e 87 c1 d1 3c 78 d9 17 be 8a d5 86 bd
       0.1584929 0.025604976 -0.14829051 -0.06583698
000270 5a a6 ec be ce 2a 87 be 2a 89 a6 be 8d fd 1b bd
       -0.46220666 -0.26399845 -0.32526523 -0.0380836
000280 ce 15 e3 3d f9 d4 78 bc d4 de ab bd 1f bd 5a be
       0.11088143 -0.015187495 -0.083921105 -0.21361206
000290 ca ce 14 bf 15 f5 44 bd 66 40 30 3e 14 f1 be 3e
       -0.58128035 -0.04808529 0.17212066 0.37293303
0002a0 94 2a e9 bd 57 d8 8d be 32 8f 8e 3d d6 ba 22 bb
       -0.11385074 -0.27704117 0.06960906 -0.0024830601
0002b0 38 22 9c 3e 51 54 2f bd 17 9b 98 3d c9 95 e7 bd
       0.30494857 -0.04280502 0.07451456 -0.11307866
0002c0 90 53 93 bd 7b 37 e6 3e af b8 ea 3d f5 54 b0 3d
       -0.07193673 0.44964203 0.11461007 0.08609954
0002d0 60 c1 43 3e 62 f7 95 3e 4c 12 1a 3f 60 65 b0 bd
       0.19116735 0.292903 0.6018417 -0.08613086
0002e0 cc 57 d6 be 49 37 5b be 1a 86 88 be 6c dd 00 3f
       -0.4186386 -0.21407808 -0.2666481 0.5033786
0002f0 47 76 05 3e 50 b1 dc 3e 4c 91 65 3b 18 ed 29 3e
       0.130334 0.4310403 0.003502923 0.1659435
000300 a5 58 02 3f 0d 66 21 be be 58 e2 3d 02 b4 01 be
       0.5091651 -0.15761586 0.110520825 -0.12666324
000310 84 c8 1d bf c7 61 8f 3e ca 6d b6 3b 60 87 7e 3d
       -0.6163409 0.28004286 0.005567287 0.062140822
000320 75 ac bb bc e1 cc 59 3d 72 31 a5 3e 60 71 ab be
       -0.022909382 0.053173903 0.32264286 -0.33484936
000330 70 dd e8 3e 04 7a e6 be 3a 58 6e be bc 39 e0 3d
       0.45481443 -0.45014966 -0.23275843 0.10948512
000340 50 93 f0 3d ee d8 b5 bd 2c 4c 63 be 24 29 28 be
       0.11746848 -0.08879267 -0.22197026 -0.16421944
000350 17 51 9f 3e d3 04 9e be f3 26 a1 3e 81 27 ee be
       0.31116554 -0.30863056 0.31475028 -0.46514514
000360 f5 1e c4 be 92 41 39 3e 95 dd d4 3c 26 c1 d1 bd
       -0.38304868 0.1809142 0.025984565 -0.10241918
000370 74 9d 64 be 16 a7 f0 bd db db 8c 3e 63 96 82 be
       -0.22325689 -0.11750619 0.27511486 -0.2550536
000380 2b 8d a7 3d 00 86 d7 be 46 e4 09 3e cf a6 f8 3d
       0.081812225 -0.4209442 0.13465986 0.12141191
000390 96 09 86 b9 e3 af ed bd d3 af 16 be 50 f7 fe be
       -0.00025565614 -0.11605813 -0.14715509 -0.4979806
0003a0 59 8e 7f bd 44 e6 0f bf d2 b1 8c 3d 77 37 8a be
       -0.062391613 -0.5621073 0.06869854 -0.2699544
0003b0 d6 d2 2a 3c 96 b2 9c bc 11 0e 91 bc bb e4 86 3e
       0.010426244 -0.019128125 -0.017706903 0.26346382
0003c0 a9 0a e6 be f4 b1 33 bf 92 06 80 bd cc 54 04 be
       -0.44930008 -0.7019341 -0.06251253 -0.12922972
0003d0 93 ed 16 bd bf 14 dc 3d 7e ce 14 bd 09 fc c3 bd
       -0.036847662 0.107461445 -0.03632974 -0.09569556
0003e0 e1 50 56 3c 29 da f7 3d 71 3f f7 be 4f f5 8a be
       0.0130808065 0.121021576 -0.4829059 -0.2714028
0003f0 1a 7b 48 bd 0d b2 2b 3d 48 b4 57 be 2e 72 ae 3c
       -0.048945524 0.04191785 -0.21064866 0.02129468

network_body._body_endoder.seq_layers.0.bias f4 [128]
000000 12 18 e0 b9 9a 5a 8b 3d 5d 00 e3 3d 63 ad 59 be
       -0.00042742543 0.0680439 0.11084054 -0.21257548
000010 c0 6c a7 bd e8 be a8 3e 10 91 0f 3d dd 11 de 3c
       -0.08175039 0.3295815 0.03505045 0.027108127
000020 e9 72 7a be ff b0 94 3d 08 b3 3c ba 83 3c e3 bd
       -0.24457897 0.07260322 -0.00071983086 -0.11095526
000030 fc 45 2f bd 8e 36 3e 3e cd 8a fd 3c b9 2a e4 3d
       -0.04279135 0.18575498 0.030949974 0.11140961
000040 3a 34 c3 bd 1b 01 07 be ee c4 10 bd fd 0f 1f 3e
       -0.09531446 -0.13184015 -0.035344057 0.15533443
000050 63 1f 27 be 00 06 03 3e 74 7c 2d 3e 29 75 44 3e
       -0.16320567 0.12795258 0.16942006 0.19185318
000060 82 2c 91 3e 59 dd b4 3d 39 2c 88 3e c0 21 c7 bd
       0.2835427 0.08831281 0.2659624 -0.09723234
000070 cd bb 06 3e 46 68 c0 3d 94 48 1d 3e 8f 70 3d 3d
       0.13157578 0.093948886 0.15359718 0.046249922
000080 b4 54 5b be d6 64 d0 bc 98 a5 37 3e 4f 1a 86 3c
       -0.2141903 -0.025438707 0.17934263 0.016369967
000090 30 c5 00 3e 38 79 69 3d 8a 67 23 be 63 35 63 3d
       0.12575221 0.05700037 -0.15957466 0.055470835
0000a0 67 9f 09 be 0a 92 68 3d 3f 6c a3 bb fa a7 73 bd
       -0.13439713 0.0567799 -0.004987269 -0.059486367
0000b0 b2 6b 7b bd 68 3b fb 3d 4f 73 42 bd a0 05 b8 3c
       -0.061382003 0.1226719 -0.047473248 0.02246362
0000c0 5e 8b a5 3c f8 33 c0 3d e2 18 6f 3d fc 13 d9 bd
       0.020208057 0.09384912 0.05837334 -0.10599515
0000d0 9e 91 95 bd 5d 76 23 3e 04 0e d8 3d 15 23 b0 3d
       -0.07303165 0.15963121 0.10549548 0.08600441
0000e0 22 cd 58 3e 50 2d 4a 3a 47 c9 56 bc d5 d5 3c 3d
       0.21172002 0.00077124406 -0.013109512 0.046102364
0000f0 be 0b e3 bd ef 3d 6d bc 5f 9a 25 3d 94 f6 17 3e
       -0.11086224 -0.014480098 0.040430423 0.14840156
000100 8e 88 51 3e c6 87 e7 bc dd 83 2e be 9a 84 db 3d
       0.20462248 -0.028262984 -0.1704249 0.10718651
000110 e7 2b 89 bc 6d 6e 00 be 3e de 47 3d 39 0a 61 3d
       -0.016744567 -0.12542124 0.04879593 0.05494139
000120 87 db a5 3d 16 fe 05 3d 62 b8 a6 3d 91 75 6c bd
       0.08098512 0.03271302 0.08140637 -0.057729308
000130 62 6f 0d 3e 9a 49 40 3e 35 fb f4 bc 0e a6 5b 3e
       0.1381202 0.18778077 -0.029904941 0.21450064
000140 16 26 69 3d 76 75 94 3d f3 56 a7 3d a3 ec 6c be
       0.056921087 0.072489664 0.08170881 -0.23137145
000150 a5 34 20 be 14 7b 4b bd bb 2a aa bd 9d 5c 0e 3e
       -0.15645082 -0.049677923 -0.083089314 0.13902517
000160 36 86 1f 3e d2 cb 1f 3e db 25 fb bd 4d e9 10 be
       0.15578541 0.15605095 -0.1226308 -0.14151497
000170 85 d7 07 bd f8 67 62 bd 77 b5 83 3d 7f 62 87 3e
       -0.03316452 -0.055274934 0.06431096 0.26442334
000180 5e 3a 32 bb 07 07 60 bd e3 c0 35 3e 45 fe 7e 3e
       -0.0027195434 -0.0546942 0.17749362 0.24901684
000190 87 7b d3 3d 09 0d 48 3e 0a 3f cd bd e5 f3 a3 bd
       0.10326295 0.19536223 -0.10021789 -0.080055036
0001a0 63 64 ea 3d d8 60 95 3d 89 b8 28 bd f1 66 88 bc
       0.114449285 0.07293862 -0.04119161 -0.016650649
0001b0 bc 46 9d be db cf d2 3d 1e 87 41 bd f4 60 50 bc
       -0.3071803 0.102935515 -0.047248 -0.012718428
0001c0 a1 e7 24 bc d9 83 83 bd 8c 8f 17 3e f7 c3 3c be
       -0.01006499 -0.06421632 0.14800853 -0.1843413
0001d0 09 0b c1 bd 7f 23 c3 bd f5 93 8a bc 1e 60 34 be
       -0.09425933 -0.09528255 -0.016916255 -0.17614791
0001e0 bf 55 97 bd c6 c2 29 3e 88 a9 a5 bd 5d 5a b1 3c
       -0.07389402 0.16578206 -0.08088976 0.021649534
0001f0 77 80 2a be 31 ff 0e 3d 99 b1 0e be a4 a3 d1 bd
       -0.16650568 0.03491134 -0.13934936 -0.1023629

network_body._body_endoder.seq_layers.2.weight f4 [128, 128]
000000 bb 9d bb 3d 7a 19 07 3e 96 59 da be c9 f0 c6 bd
       0.09160944 0.13193312 -0.42646474 -0.09713895
000010 b8 2e f7 3d 46 60 d5 bc 48 bf b6 bd 85 b9 a2 be
       0.12069458 -0.026046883 -0.08923203 -0.31782165
000020 84 05 90 3a 1f ac 32 be ce fd e8 3d aa e8 11 be
       0.0010987972 -0.17448471 0.113765344 -0.1424891
000030 8d be 9f 3e 47 de bf be fa 67 ce 3d 9e 63 1a be
       0.31200066 -0.37474272 0.10078426 -0.15077063
000040 09 54 d3 3d 55 f7 c3 3c 79 f3 ef be 26 ee 97 bd
       0.10318763 0.023921648 -0.46865442 -0.0741847
000050 d6 fc 1b bf a9 ed 34 3e 68 eb 98 be dd 55 af be
       -0.6093267 0.17668785 -0.298671 -0.34245196
000060 3c f1 48 3e 31 9a e3 be 37 b9 15 3e e7 6f ac 3c
       0.19623274 -0.44453576 0.14621435 0.021049453
000070 ac 72 05 be a2 a1 f7 bb f2 04 18 be 9a cd fe bd
       -0.13032025 -0.00755711 -0.14845636 -0.12441559
000080 8a 66 a7 3d cb b2 89 bd 51 e8 1a bf 31 1b 86 bd
       0.08173855 -0.06723555 -0.60510737 -0.06548155
000090 c1 0a b2 be 20 31 10 3e d9 b2 32 bd 91 c1 90 39
       -0.3477383 0.1408124 -0.043627594 0.00027610039
0000a0 05 b6 13 3e ec 67 83 3d cb ef a4 bd d3 55 84 bd
       0.14424904 0.06416306 -0.080535494 -0.06461682
0000b0 7e d1 ae 3e bd a8 02 bf 29 84 5e be 49 7a 7d be
       0.34144205 -0.51038724 -0.21730103 -0.2475368
0000c0 88 7b 0a 3e ee 88 f2 3d 1a af 0b 3f c2 e8 29 bf
       0.13523686 0.118425235 0.5456406 -0.66370785
0000d0 dd 0b 46 be d8 d7 c2 be de 21 9f be f1 ae 51 bb
       -0.19340463 -0.380553 -0.31080526 -0.0031995142
0000e0 46 73 bf be 0c a8 20 3e bb b2 9b 3d 46 78 f0 be
       -0.37392634 0.15689105 0.076024495 -0.4696676
0000f0 6f ba 5e 3a 45 7f 17 3d 52 32 b1 bd 43 b6 2c 3e
       0.00084964087 0.036986608 -0.08652176 0.16866402
000100 7e 69 ef 3c 81 c2 90 bd af e0 8d 3c df 04 8f be
       0.029225107 -0.07068349 0.017319052 -0.27933404
000110 83 29 47 3e ed 8d 43 be 23 6c 1a 3f 1b ce 3c be
       0.19449429 -0.19097109 0.60321254 -0.18437998
000120 58 e4 e9 be 56 ec 40 3e 1f e8 c1 bd 24 ee 24 3e
       -0.45682025 0.18840155 -0.09468102 0.16106468
000130 69 61 d1 3e d9 01 83 3c 4f de d4 bc 60 ed 32 be
       0.4089463 0.015992092 -0.025984911 -0.17473364
000140 10 b0 b2 ba 9e 5d 45 3b 80 c0 a9 be 5d 7f f4 bd
       -0.0013632793 0.0030115615 -0.33154678 -0.11938355
000150 8d 5d c8 be 0b b8 1d be f4 a5 68 3e 89 53 a9 3e
       -0.39133874 -0.15402238 0.22719556 0.33071545
000160 16 4c ac be 3d 8a 6c 3c b5 5c 1e be 11 0b ed bd
       -0.336518 0.014437255 -0.15465052 -0.115743764
000170 f0 82 4f bd eb 7b a3 be 0d 10 3c be 7b 26 b5 bd
       -0.05066198 -0.3193048 -0.18365498 -0.0884523
000180 d2 06 00 be 44 2a 2c be 2b 07 70 bc a8 2e d0 bd
       -0.12502602 -0.16812998 -0.0146501465 -0.10165149
000190 1c 3b 50 3e 37 a8 b3 bc b6 08 f4 bd c8 86 61 3d
       0.20335048 -0.021930797 -0.11915724 0.055060178
0001a0 d7 9b 66 3e b6 30 e6 3e 86 58 82 be 28 61 6b 3e
       0.22520386 0.44959038 -0.25458163 0.22986281
0001b0 42 4e cd bc 59 9f d6 bc fc b4 b1 bd 5f 56 98 bc
       -0.02506173 -0.02619903 -0.08677098 -0.018595872
0001c0 88 43 3c bc 01 9e ea 3c d9 e6 6c bc cc 13 cf be
       -0.01149071 0.028639795 -0.014459335 -0.4044479
0001d0 57 ce ef be c0 c9 f0 3a 29 61 8b be ec 96 db be
       -0.46837112 0.0018370673 -0.27222565 -0.42888582
0001e0 e3 64 3f 3e a5 90 74 3e 35 5c 84 3d 67 fa 91 3e
       0.18690829 0.23883303 0.064628996 0.28511354
0001f0 3c ef 78 be 2e 22 83 bd 9f 11 ac 3e d6 f0 97 be
       -0.2431001 -0.06403004 0.33607194 -0.2967593
000200 84 9b e4 be e5 02 43 be 64 e2 03 bf d2 8a d9 3d
       -0.446499 -0.19044073 -0.5151732 0.10622181
000210 a6 b3 50 be 2e 8a 0f bf 5b e3 7f be c6 c8 c0 3e
       -0.2038103 -0.5607022 -0.24989073 0.37653178
000220 4b 30 45 bd c9 fb 2c 3e 90 e2 a4 bd b5 e1 ad 3c
       -0.04814176 0.16892923 -0.08051026 0.02122579
000230 ef 9f 5b 3e f2 bd a7 be ba 01 73 be 8f 71 91 3c
       0.21447729 -0.32762104 -0.23731127 0.017754344
000240 53 dc af bd 2b 97 1e be ff 30 a3 3e 0e 7b 2a bf
       -0.085869454 -0.15487354 0.3187332 -0.66594017
000250 13 7f 21 3e 27 e6 9e 3e 82 5c b8 be b5 1e d3 be
       0.15771131 0.31034967 -0.36008078 -0.41234365
000260 9d 8c ae be 68 57 c3 be 49 d0 b1 3e 77 b9 de 3d
       -0.34091654 -0.38152623 0.3472922 0.10875218
000270 8e 92 80 be 5d 53 f2 be c6 4c b6 bd d0 ac 2e 3d
       -0.25111812 -0.47329226 -0.08901362 0.042645276
000280 cd 6f 96 bc 0a c1 93 be 5c 7f 91 be 05 1e 92 3e
       -0.018363858 -0.28858215 -0.2841748 0.28538528
000290 34 01 5e bc 95 50 73 3c b4 8c 75 3e bb e1 51 3d
       -0.013550092 0.014850755 0.23979455 0.051240664
0002a0 98 c6 a5 be 92 94 b9 be aa d6 70 3e f2 8a 58 be
       -0.32378078 -0.36246163 0.23519388 -0.21146753
0002b0 35 92 6d 3e 12 ba 96 bd d0 04 30 be ec 66 d6 bd
       0.23200305 -0.07359709 -0.17189336 -0.104688495
0002c0 e6 18 bf be 4c 1e 62 be 07 9d aa be 05 9f c9 bc
       -0.37323684 -0.2208187 -0.33322927 -0.02461196
0002d0 b2 d9 cf bc 47 e2 84 be 27 e1 36 3e e6 f3 21 be
       -0.02537236 -0.25953886 0.17859326 -0.15815696
0002e0 18 76 6a be 24 3a b9 bd 0a 8f 93 be d6 1d d1 be
       -0.22896612 -0.090442926 -0.28820068 -0.40843076
0002f0 5f 87 8c be 5a c7 a2 3e 4f 36 cf bd 8e 07 2a be
       -0.2744703 0.31792718 -0.101177804 -0.16604444
000300 60 e6 70 3d a5 d6 1a 3e 52 69 0e 3e d9 52 1e 3e
       0.058813453 0.15120943 0.13907364 0.15461291
000310 ae 75 4e be c4 2a f5 be 5d 0b a0 be 85 d9 2a be
       -0.20162079 -0.4788419 -0.3125867 -0.1668454
000320 17 0e 2b bd ad 90 43 3d 24 e5 7e be 3e e6 26 3c
       -0.041761484 0.047745395 -0.24892098 0.01018673
000330 f9 0b 9b be 38 34 06 bd 83 30 2f 3e 43 74 7b be
       -0.30282572 -0.032764643 0.1710835 -0.24556069
000340 7f e6 d5 be 71 13 df 3d 5b 27 88 be 7a cb 0b be
       -0.41777417 0.1089238 -0.26592526 -0.13651839
000350 fa c5 a4 be 90 d9 8b bd e3 9e 30 3d 66 fa 2f be
       -0.32182294 -0.06828606 0.043120276 -0.17185363
000360 12 43 3e 3e 6b 34 6a be 0b 2f 52 3e 79 64 e5 3d
       0.18580273 -0.22871558 0.20525758 0.11200804
000370 11 6c 83 3d 37 1e 99 be 68 f8 ad bd 8a 72 78 be
       0.064170964 -0.29905865 -0.08494645 -0.24262443
000380 17 7d c2 3c fe 5f 02 bf 4d ad 14 bd 27 4f 57 3e
       0.023741288 -0.5092772 -0.036298085 0.21026288
000390 0b 3c 3e be 4a e2 a5 3a 1a 1b 3b 3e cf d7 f9 3d
       -0.18577592 0.001265594 0.18272057 0.12199365
0003a0 c5 1a 06 be 94 cc b5 be 3e df f8 bd 24 12 13 3e
       -0.1309615 -0.35507643 -0.12151955 0.14362389
0003b0 78 81 7b 3c 44 3e 83 bd 6a 6a f4 bc 59 37 4a 3d
       0.015350692 -0.064083606 -0.029835898 0.04936919
0003c0 7f 8b da 3d f1 74 ee be c1 7e ca be ab 18 5f be
       0.10671138 -0.46573594 -0.3954983 -0.21786754
0003d0 c3 c9 7f be 4f 63 1c be f1 8a a5 be 44 7f 11 be
       -0.2497931 -0.15272258 -0.32332566 -0.14208704
0003e0 5a df 1f bd d4 8b 93 be f7 f5 2c 3c 45 87 83 be
       -0.039031364 -0.28817618 0.010556689 -0.2568914
0003f0 ef cb e7 3d e9 b0 4f be 6a d5 74 3d e3 ce 5c be
       0.11318194 -0.2028233 0.05977384 -0.21563296

network_body._body_endoder.seq_layers.2.bias f4 [128]
000000 46 93 1b be 41 8a 6e 3d 7c e1 eb bd 37 7e ae bd
       -0.15192899 0.058237318 -0.11517617 -0.08520167
000010 3d 20 08 3d 5f 36 9e bd 24 9d f8 bd ca 99 74 bd
       0.03323387 -0.07725214 -0.12139347 -0.059716977
000020 25 08 74 3d 57 a5 6b 3e 72 47 72 3e db 5e 1a 3e
       0.05957808 0.23012291 0.23660067 0.15075247
000030 ff e8 08 3e c7 25 8e bd d6 a0 ae 3d 18 56 e3 3d
       0.13370131 -0.06940799 0.08526771 0.111004055
000040 88 44 93 3d f9 09 19 3e eb 69 21 bc df d7 df 3c
       0.07190806 0.1494521 -0.009851913 0.027324615
000050 dd 7e 67 3e 93 48 c0 3c 15 b0 f5 3d 2d ed 88 bd
       0.22606988 0.023472106 0.119964756 -0.06685863
000060 e3 f1 e6 3d dc 49 00 be ac ec c3 3c 8b c1 22 3c
       0.11276605 -0.12528175 0.023916565 0.00993384
000070 f5 af 85 bd e5 17 24 3d ae 95 ab 3e 06 1b 11 be
       -0.06527702 0.04006185 0.33512634 -0.14170465
000080 44 52 af bd 10 06 a0 3d 8c f1 e6 3d 2e 2c da bc
       -0.08560613 0.07813656 0.1127654 -0.026632395
000090 be 43 3c bd 45 1b a1 bd d9 90 64 bd 1c 66 f9 bd
       -0.04596304 -0.078665294 -0.0558022 -0.12177679
0000a0 d0 7a c5 bd d0 a3 a2 3c d9 94 53 3d 54 d0 05 3e
       -0.09642565 0.019853503 0.051655624 0.13067752
0000b0 4c 29 b4 3d f1 18 50 3e 82 1e 0a be 78 c2 c9 3d
       0.08796939 0.20322014 -0.134882 0.09851545
0000c0 6e bd fb 3c 33 bb 19 3e ce d3 ff 3d 57 70 de 3c
       0.030729976 0.15012817 0.124915704 0.027153177
0000d0 49 0d 69 3d 41 c9 63 3d 65 12 ad 3c 8d 9b 93 3d
       0.056897435 0.055611853 0.021126935 0.07207403
0000e0 e9 2c 76 3e eb a2 33 3d ff ef ff 3d 63 16 30 be
       0.2404057 0.043856543 0.124969475 -0.1719604
0000f0 72 83 0b bd 40 ae 5b 3e 47 92 41 be 42 92 d6 3d
       -0.034060903 0.2145319 -0.18903457 0.10477115
000100 fe a4 ca bc 04 04 06 bd 6a e3 e5 bc 37 c6 e9 bc
       -0.024736878 -0.032718673 -0.028062541 -0.028536899
000110 00 46 4c bd 85 3c cd 3d 44 01 9d bd e6 d4 c3 3e
       -0.049871445 0.10021309 -0.07666257 0.38248366
000120 0a e6 48 be a9 8f 14 3e b9 f6 04 be 7f 26 95 bd
       -0.19619003 0.14507927 -0.12984742 -0.07282733
000130 3f fc b5 bc 3f 69 52 3e 60 3b 8c bc af aa 1a 3e
       -0.022215007 0.2054796 -0.017118156 0.15104173
000140 13 52 84 3d fe 86 77 3e 2a 56 77 3e 51 50 44 bd
       0.06460967 0.24172589 0.24153963 -0.04792816
000150 56 84 85 bd c8 7e 64 be 53 be 41 bc ab 05 ed bd
       -0.06519382 -0.22313988 -0.011825162 -0.11573347
000160 24 da 5a 3d 20 14 8d 3e 6a 81 24 3e 7b a4 2e 3e
       0.05343069 0.27554417 0.16064993 0.17054932
000170 1d 1a 5f bd 3a f7 e0 3d 72 7f 90 bc 3b 23 92 bc
       -0.054468263 0.10984655 -0.017638896 -0.017839065
000180 dc 8b 8d 3c 59 de de 3d ec 5c 22 39 dd 1c df bd
       0.017278604 0.10882253 0.0001548414 -0.10894177
000190 e0 4e 39 3e 3f bd 1c 3e 6e d6 c8 3e 65 50 b6 3d
       0.18096495 0.15306567 0.39226097 0.08902053
0001a0 a6 bc 49 3e ea dc a9 3a 03 31 6a 3e 1d 03 22 3d
       0.1970087 0.0012959514 0.22870259 0.03955375
0001b0 63 ac f6 bd b6 99 98 3e e1 ee 10 bc 4c f0 4b bd
       -0.12044599 0.29804772 -0.008846016 -0.04978971
0001c0 bc 51 34 3e f4 a1 67 bd 9f e7 c6 3d cc 73 9f 3c
       0.17609304 -0.056550935 0.09712147 0.019464396
0001d0 39 a7 3e 3e 9e 42 05 3e cb 09 bb 3d 7a 07 4f 3c
       0.18618478 0.13013694 0.09132727 0.01263606
0001e0 68 ef 35 3d 77 7b 38 3c f9 9f 54 3e 52 d2 ab 3e
       0.04441777 0.011259905 0.2076415 0.335589
0001f0 49 14 04 be 97 83 1b 3d 05 fb ce 3c 8f 79 13 be
       -0.12898363 0.03796729 0.02526618 -0.1440184

action_model._discrete_distribution.branches.0.weight f4 [7, 128]
000000 ac c6 93 be dd 38 88 3e fb 6f 5d 3e 88 13 10 bf
       -0.28862512 0.26605883 0.21624748 -0.562798
000010 cb 4c 6a 3e b6 59 a9 bd fb 62 6e be e4 4a d4 3d
       0.22880857 -0.08269064 -0.23279946 0.10365847
000020 cd bd 2f 3d 11 ac 9e 3d e6 19 c3 3e ec 9f 58 3e
       0.042905618 0.07747663 0.38105696 0.21154755
000030 eb 48 16 bd 1a 63 8e 3e ac c4 01 3d ca 95 b6 bd
       -0.036690634 0.27809983 0.0316817 -0.08915289
000040 b9 d4 98 3c 51 73 33 3d 41 a1 02 3d 6d 62 0e bd
       0.018656122 0.043811146 0.031892065 -0.034761835
000050 64 40 d7 3d 10 b5 3a 3e 4f f1 16 be ef 9b ba bc
       0.105103284 0.18233132 -0.1474049 -0.022779433
000060 c5 fc 30 3d 3e 01 5e be 77 f3 57 3e 0d 9c 60 3d
       0.04320981 -0.21680161 0.21088968 0.05483632
000070 98 08 8e 3d ac 11 47 3d d0 f2 3d be 8c 83 16 3e
       0.06935233 0.048600838 -0.18549657 0.14698619
000080 24 f4 5e 3c 71 12 06 be d3 0b 97 be 21 2c ab bd
       0.013608012 -0.13092972 -0.2950121 -0.08358026
000090 38 8e 41 3e d4 4f 34 be 85 cc c0 be 18 5b 43 3d
       0.18901908 -0.17608577 -0.37656036 0.047694296
0000a0 e4 b2 f6 3d dd 9c 9b bd 53 d9 b2 bd 27 3b 07 be
       0.120458394 -0.07598279 -0.087328576 -0.13206159
0000b0 dd f8 10 3e 81 4b 0b 3e ce d1 6d 3d 1c 8e 04 3e
       0.14157434 0.13603021 0.058061413 0.12944835
0000c0 47 ab ca bd 52 97 3f 3e 33 4c 3c 3d 22 5d 6e be
       -0.0989595 0.18710068 0.045971107 -0.23277715
0000d0 4e e5 46 be 9a 25 32 be 8d cd 7e 3e 3e 7c f2 bc
       -0.1942341 -0.17397156 0.24883099 -0.029600259
0000e0 84 00 a3 3d a0 96 01 bc 20 6a 8e 3d 19 91 61 be
       0.07959083 -0.007909447 0.069538355 -0.22028007
0000f0 05 09 00 3e 53 ee 25 3e 08 77 8f bd bd bf 92 3e
       0.1250344 0.16204195 -0.07005125 0.2866191
000100 5f 65 56 bd d4 da d8 bd c6 13 97 be 51 a3 ea 3c
       -0.05234277 -0.10588613 -0.29507273 0.028642328
000110 50 48 c6 bd 9d 06 07 3e 5f 24 bb be 37 c8 be 3d
       -0.09681761 0.13186117 -0.36551186 0.09315532
000120 9c e0 84 3e 30 8e 91 3d 60 d6 19 3e fd d9 75 3e
       0.25952613 0.07107198 0.15023184 0.24008937
000130 d2 86 1d be 14 e4 98 be 48 a9 c5 39 d8 a7 52 3e
       -0.15383461 -0.2986151 0.00037700892 0.2057184
000140 34 d9 0b be 33 e3 80 3e 95 63 f8 3c 94 ae 51 3e
       -0.13657075 0.2517334 0.030320922 0.20476753
000150 79 66 7e be d5 88 ad bd 5a 46 8e bd 5e a6 b7 3c
       -0.24843778 -0.08473364 -0.06947012 0.022418197
000160 bd b5 2b 3b f4 d3 6b 3e c2 c6 0e 3e 56 53 c0 3c
       0.0026200854 0.23030072 0.13943008 0.023477238
000170 fc 8e c2 3d 40 39 92 3e 78 61 8c be 60 16 43 3d
       0.09499928 0.28559303 -0.27418113 0.04762876
000180 9f 15 39 3c bf 7d 73 3e ac 59 2f 3e ba ef b6 3d
       0.011296659 0.23778437 0.17124051 0.08932443
000190 21 55 4a bb 4e a0 ac 3c ba be 18 3d ea b5 e7 3d
       -0.0030873495 0.021072533 0.037291266 0.11313994
0001a0 4f b6 bc bd 61 43 d6 3d 88 26 8c be ae e9 a2 bd
       -0.0921446 0.1046207 -0.27373147 -0.07954727
0001b0 49 c7 54 be ab 9b 61 3e 28 7f 87 bd 90 7e 5f bd
       -0.20779146 0.22032039 -0.0661605 -0.05456406
0001c0 2c 86 d2 3d 83 6f f9 3c de 58 84 3d d3 f1 35 bc
       0.102794975 0.03044868 0.064622626 -0.011105019
0001d0 90 67 cf 3d 58 c6 e9 3d c9 33 da 3d 1d 5a 9d 3d
       0.10127175 0.11414784 0.106544085 0.07683203
0001e0 ae d9 b1 bd 73 a3 10 bd bc 52 5c 3d ec d7 a8 bd
       -0.08684097 -0.035312127 0.05378984 -0.08244309
0001f0 b5 3f 20 be 9e 4b 99 3e 75 6f 40 be df df 0a 3d
       -0.15649302 0.29940504 -0.18792517 0.033904906
000200 7f c0 c5 bd 76 5d 3f 3d 7c a3 55 bb db 1c 23 3d
       -0.09655856 0.04671999 -0.0032598665 0.03982244
000210 bd 69 86 bd 27 bf 5a 3e 14 54 9d 3e 8b 71 7d 3e
       -0.06563137 0.21361981 0.3072821 0.24750344
000220 03 f3 b4 3e 84 31 2c be 60 7c a4 bd fc 46 cf be
       0.35341653 -0.16815764 -0.08031535 -0.40483844
000230 49 9f 6b 3e dc 71 7b 3d 6b b5 df 3c 6b 6c c1 3e
       0.23009981 0.06138788 0.027308187 0.3777803
000240 4e de 8e be 75 16 0e 3e e3 cb 54 3e 3d 65 63 3d
       -0.2790398 0.13875754 0.20780902 0.05551647
000250 28 58 12 3d 65 21 ca be 57 8e 87 3d b9 d3 37 3e
       0.035728604 -0.39478603 0.06618946 0.1795186
000260 85 9f 1a 3e 7d 37 91 3e a8 63 46 3d e6 5b bb 3d
       0.15099914 0.28362647 0.048434883 0.091483876
000270 ed 9f 82 3e 1c 4e 7e 3e 03 7d e6 be 6f 6c de bb
       0.2551264 0.24834484 -0.4501725 -0.0067878286
000280 48 d0 96 3e 40 15 9c 3d c2 08 63 3d 42 3e a5 3e
       0.2945578 0.076212406 0.055428274 0.3227406
000290 24 f4 61 3e bd 59 b0 bd 34 76 2e bd 35 90 0a be
       0.22065789 -0.08610866 -0.042593196 -0.13531573
0002a0 54 a2 45 3d 20 ea 46 3e 56 4f a8 3e 37 f3 d1 3d
       0.04825051 0.19425249 0.3287303 0.10251468
0002b0 6d d8 42 3d 87 84 f9 bd 85 db 20 3e 6d bf 5a 3d
       0.04756968 -0.12183481 0.1570874 0.053405214
0002c0 eb dc 3b 3e b2 a6 9b 3b 6d 46 91 be bf 52 75 3e
       0.18345992 0.0047500962 -0.28374043 0.23957346
0002d0 f7 9f 3b 3e 07 5e 41 3e 5c d7 0c 3f 32 16 a8 bd
       0.1832274 0.18883525 0.5501611 -0.082073584
0002e0 a2 24 8b bd 05 84 27 3e 93 0d e6 bd b4 cd d8 bd
       -0.067940965 0.16358955 -0.11233058 -0.1058611
0002f0 75 c4 fe bd e5 8b 46 be c4 1d ce bd cc 31 a2 bd
       -0.12439815 -0.19389303 -0.10064271 -0.07919654
000300 fd c9 89 3e 2a 60 6c 3e 51 1d b7 bd fb 7d 59 be
       0.26911917 0.23083559 -0.089411385 -0.21239464
000310 f7 b6 91 3d 72 b4 03 3e 43 8e 94 be 77 e5 18 bf
       0.07114976 0.12861803 -0.29014787 -0.59725136
000320 73 ce 0a 3e 32 34 8d 3e 29 56 a3 bd 12 ea ee 3d
       0.13555317 0.27578884 -0.07975418 0.11665739
000330 f5 2f 8a 3e 09 79 32 bd 55 c8 53 bc cf 45 96 3d
       0.26989713 -0.04357246 -0.012926181 0.07337534
000340 1f bb 9a 3e cb bb 01 3d 37 61 8f be f2 36 2e 3e
       0.30220887 0.031673234 -0.28003857 0.17013147
000350 36 66 a2 3d 5a f0 5a bc d5 06 8e 3c 27 8b 8e bd
       0.079296514 -0.013362968 0.017337242 -0.06960135
000360 4d 93 a8 be 16 7a 33 be 88 cb ad be a6 e9 94 3d
       -0.32924882 -0.17527041 -0.33944345 0.072711274
000370 cf 9f 9e 3e a9 10 ce 3d 9b 31 9a 3d d2 c3 e3 3d
       0.309813 0.100617714 0.07528993 0.11121334
000380 fd 7c 4e bd b9 80 cc 3c be e9 72 be 62 e2 44 3e
       -0.050412167 0.024963723 -0.23721978 0.19226983
000390 a8 55 73 3d c5 41 63 3e 02 7f 23 bf f8 37 50 3e
       0.05940786 0.22193058 -0.63865674 0.2033385
0003a0 84 4a 70 be 0d 7f 3f 3e a1 ae 7a bd 5f 40 99 bd
       -0.23465925 0.1870081 -0.061201695 -0.07482981
0003b0 fe 39 cf 3e 35 ce ef 3e 74 ff 23 be 0d c4 45 3e
       0.40473932 0.4683701 -0.16015416 0.19313069
0003c0 19 6e f8 be 6d 7c 92 3e cd 50 bd bd fe 10 91 3e
       -0.48521498 0.28610554 -0.09243927 0.28333277
0003d0 4d 58 0b 3c a4 f2 0e be f3 b8 3e 3e 17 e3 cd 3d
       0.008504939 -0.13959748 0.1862524 0.100530796
0003e0 23 93 bf 3e 09 3f f0 bd 2e 04 e9 3e a7 65 d2 be
       0.37416944 -0.11730773 0.45511 -0.4109318
0003f0 ad 43 ac be be d0 97 be 28 12 83 3e 11 f1 86 3e
       -0.33645383 -0.29651445 0.2559979 0.26355794

action_model._discrete_distribution.branches.0.bias f4 [7]
000000 ea 0f ea 3d 50 62 20 bc af 33 14 3e 07 e8 00 bf
       0.114288166 -0.0097890645 0.1447284 -0.50354046
000010 13 06 af be c3 cc d4 3b 83 06 7c 3e
       -0.34184322 0.006494136 0.24611859
