Trained_Policies/WeightAgent_Training/WeightAgent_Training/WeightAgent_Training-367999984.onnx (onnx, 155824 bytes, 6 tensors)

network_body._body_endoder.seq_layers.0.weight f4 [128, 163]
0	0x3ea77dff	0.32713315
1	0xbda6e313	-0.0814878
2	0xbee838ea	-0.45355922
3	0x3e14b212	0.14521053
4	0x3ebfc310	0.37453508
5	0x3e457eaf	0.19286607
6	0x3a83cd23	0.0010055642
7	0xbed1e7a4	-0.4099704
8	0xbe922dc4	-0.2855054
9	0x3dec0b36	0.11525576
10	0x3ef90cb6	0.4864251
11	0xbd9e77e1	-0.07737709
12	0xbed5d61f	-0.41764924
13	0x3e5d53bb	0.21613972
14	0x3f245a13	0.6419994
15	0xbcf0b228	-0.029381827
16	0xbd993b02	-0.07481958
17	0xbe822f42	-0.2542668
18	0xbf3a9371	-0.7288123
19	0x3dc3fe7d	0.09570024
20	0x3f0ef0a2	0.55835927
21	0xbd9e9e25	-0.077450074
22	0x3d8e0b2d	0.06935725
23	0x3d3653d6	0.044513546
24	0x3f0c0358	0.546926
25	0x3dbf4872	0.0933999
26	0xbc2879d1	-0.01028295
27	0xbe883c6b	-0.26608595
28	0xbdb8b624	-0.090191156
29	0xbdea974b	-0.11454638
30	0x3e87a060	0.26489544
31	0x3dd3e7ee	0.103469715
32	0x3d7e2bfd	0.06205367
33	0x3d7a581f	0.061119195
34	0x3f15ef56	0.5856832
35	0xbe68f4f7	-0.22749697
36	0x3da50127	0.080568604
37	0xbf002703	-0.5005953
38	0xbe2e09a7	-0.1699587
39	0xbe241c66	-0.16026458
40	0xbd1697f1	-0.036765996
41	0x399c7d56	0.0002984802
42	0xbbdaeeeb	-0.0066813133
43	0x3e1bcb7a	0.15214339
44	0x3eaacacb	0.33357844
45	0xbe29dacc	-0.1658737
46	0x3dac4134	0.08410874
47	0xbe0569fc	-0.13028711
48	0x3e6a505b	0.22882216
49	0xbd84c2bf	-0.06482457
50	0xbd397053	-0.045273136
51	0x3df217d7	0.11820953
52	0xbe04b7ce	-0.12960741
53	0xbc21ad0c	-0.009867918
54	0x3de10330	0.10986936
55	0x3d3ebf74	0.046569303
56	0x3e81eb70	0.25374937
57	0xbe6e1c37	-0.2325295
58	0xbe362e28	-0.17791045
59	0x3c309e6a	0.010779956
60	0xbc0ad0c8	-0.008472629
61	0x3dc2e94d	0.09517155
62	0xbe4197ab	-0.18905513
63	0xbe6351df	-0.221992
64	0xbd14d700	-0.036337852
65	0xbe520615	-0.20510133
66	0xbdc018a7	-0.09379702
67	0xbde24027	-0.11047392
68	0xbea1808e	-0.31543392
69	0x3d8bc6ec	0.06825051
70	0xbe8e17ef	-0.27752635
71	0xbcb153f5	-0.02164648
72	0xbe997fac	-0.29980218
73	0xbe83665b	-0.2566403
74	0xbdc2a5b7	-0.09504264
75	0xbe62403f	-0.2209482
76	0xbf050c79	-0.51972157
77	0xbe5ad572	-0.21370485
78	0xbe270ecf	-0.16314243
79	0x3d4a1e02	0.049345024
80	0xbe95c1d1	-0.29249433
81	0x3d8dbcb3	0.06920757
82	0xbe876453	-0.2644373
83	0x3e30d7c8	0.17269814
84	0xbe5b3e89	-0.21410574
85	0x3e58bfae	0.2116687
86	0xbf4064ce	-0.75153816
87	0xbdca73b6	-0.09885351
88	0xbe0ce720	-0.13760042
89	0x3d0796d5	0.03310283
90	0x3dd67af5	0.10472671
91	0x3e12ebae	0.14347717
92	0xbe4680cc	-0.1938507
93	0x3d93f6f9	0.07224841
94	0xbef438f2	-0.47699696
95	0x3eb7fa44	0.35933125
96	0xbda41e63	-0.08013608
97	0xbe3e5d1f	-0.1859021
98	0x3c5d2d94	0.013499636
99	0x3cc46bf0	0.02397725
100	0xbd2be0a8	-0.041962296
101	0xbdb42b88	-0.087973654
102	0xbdcc8714	-0.099867016
103	0x3d75e81e	0.060035817
104	0xbe8bb143	-0.27283677
105	0x3ea44f62	0.32091814
106	0x3ce46986	0.027882349
107	0xbd8b7952	-0.068102494
108	0xbd7ff9e5	-0.062494177
109	0x3c8907e8	0.016727403
110	0xbd9b1111	-0.075716145
111	0x3d1ebf87	0.038756873
112	0xbca6e975	-0.020374993
113	0xbcb0d845	-0.0215875
114	0xbe5053da	-0.20344487
115	0x3e950055	0.29101816
116	0xbca17386	-0.019708406
117	0xbd759327	-0.05995479
118	0xbda832fb	-0.08212849
119	0xbbe06b56	-0.006848733
120	0xbdcd4fea	-0.10025008
121	0x3d4856d5	0.048910934
122	0xbe61da1f	-0.22055863
123	0x3d5118c8	0.051049024
124	0xbe51356f	-0.2043054
125	0x3e054d28	0.13017714
126	0x3da357cf	0.079757325
127	0x3e6c71e0	0.23090315
128	0xbe569224	-0.20954186
129	0xbe19aaf0	-0.15006614
130	0xbe8a5313	-0.27016506
131	0xbcc215e0	-0.023692071
132	0x3d8ccbcf	0.06874811
133	0xbe37c713	-0.17947035
134	0xbe97b45f	-0.296298
135	0x3dcfce99	0.10146827
136	0xbdaaf256	-0.08347003
137	0x3e0013ce	0.12507555
138	0x3db4dd36	0.08831255
139	0xbd97e04e	-0.074158296
140	0xbdd2821a	-0.10278721
141	0xbcb754ca	-0.022379298
142	0xbbd9f23c	-0.006651191
143	0x3e5ec9cf	0.21756671
144	0xbd2107a8	-0.039313942
145	0x3d20d858	0.03926882
146	0x3cd03943	0.02541793
147	0xbcdcba93	-0.026944434
148	0xbc56e381	-0.013115765
149	0xbbc8fc6c	-0.0061336067
150	0xbdd74d28	-0.10512763
151	0xbd68c22a	-0.056825794
152	0x3d660ea3	0.056166302
153	0x3ddd481a	0.10804768
154	0xbcde7139	-0.027153598
155	0xbf20d3d1	-0.62823206
156	0xbd077cca	-0.033077992
157	0xbf583f78	-0.84471846
158	0x3b8bb81d	0.0042638914
159	0xbd1a314d	-0.037644673
160	0x3f12b68b	0.5730979
161	0xbeaa343c	-0.33242977
162	0x3c58e957	0.013239226
163	0xbe4d2bc7	-0.20036231
164	0xbe71ac5b	-0.23600905
165	0xbf1bc162	-0.60841954
166	0xbf2005db	-0.62508935
167	0xbeae600e	-0.3405766
168	0xbe55ff15	-0.20898087
169	0xbc09dad2	-0.008413987
170	0xbeb4ac5e	-0.35287756
171	0x3ea9ecb8	0.33188415
172	0x3e5a3be3	0.21311907
173	0xbe83fb33	-0.25777587
174	0xbeac4b76	-0.33651322
175	0xbf24e8c4	-0.6441767
176	0x3dea2468	0.11432725
177	0xbe150e34	-0.145562
178	0xbe818d46	-0.25303096
179	0x3ec00057	0.3750026
180	0xbd0569ca	-0.03257159
181	0xbe85ee70	-0.26158476
182	0x3d32b267	0.04362717
183	0xbe2627ae	-0.16226074
184	0xbf93ed98	-1.1556883
185	0xbeab144e	-0.3341393
186	0xbe58d372	-0.2117441
187	0xbeb0039b	-0.3437775
188	0x3d107876	0.03527113
189	0xbd7775a2	-0.060414918
190	0xbe2309df	-0.15921734
191	0xbe8895a1	-0.26676658
192	0xbdf84174	-0.12121859
193	0xbe0071e4	-0.12543446
194	0xbf490af0	-0.78532314
195	0xbc7c9aa4	-0.015417729
196	0xbe56c6b6	-0.2097424
197	0xbe69013e	-0.2275438
198	0xbdb3837f	-0.08765315
199	0xbeeb0d3c	-0.45908535
200	0xbf027cc8	-0.5097165
201	0x3eadfd6d	0.3398241
202	0x3e754509	0.23952116
203	0x3eac5d9e	0.33665174
204	0xbf082ea9	-0.531962
205	0x3e1309a9	0.14359154
206	0x3d7f14ad	0.062275577
207	0x3c6e8dac	0.014560144
208	0x3d663dc5	0.05621125
209	0xbedc7d9c	-0.43064582
210	0xbf026c4b	-0.5094649
211	0x3d446b8d	0.04795413
212	0x3d1ddc64	0.03854026
213	0x3e9dd103	0.30823526
214	0xbe30f132	-0.17279509
215	0xbce9755e	-0.028498348
216	0x3c6c0059	0.01440438
217	0x3e6a5415	0.22883637
218	0xbd7ea189	-0.06216577
219	0x3e07b895	0.13254006
220	0xbeb8d42b	-0.3609937
221	0xbe7e54c4	-0.24837023
222	0x3d4f61d9	0.050630424
223	0xbe13bd75	-0.14427741
224	0xbe3cc14c	-0.18433112
225	0x3d6d89fd	0.057992924
226	0x3db73e0d	0.08947382
227	0x3d99eb91	0.07515634
228	0xbe033ba2	-0.12815717
229	0xbd9bd5c4	-0.07609132
230	0xbec6b5fa	-0.38810712
231	0x3d77a843	0.0604632
232	0x3dfb81f6	0.122806475
233	0xbe8a45a8	-0.27006269
234	0x3e429309	0.19001402
235	0xbd1e71c1	-0.038682703
236	0xbd8ecbd5	-0.069724716
237	0x3ad5d54c	0.0016314178
238	0xbe904b42	-0.28182417
239	0x3d5507df	0.05200946
240	0xbdbbe3e0	-0.09174323
241	0xbe4d5d57	-0.20055138
242	0xbdf4a3f0	-0.11945331
243	0xbe189225	-0.148995
244	0xbe992a6d	-0.2991518
245	0xbe839810	-0.25701952
246	0x3e054cd4	0.13017589
247	0x3e15737c	0.14594835
248	0xbf11e0bf	-0.5698356
249	0xbd8b4042	-0.067993656
250	0x3c03a17d	0.008034107
251	0xbd97c48f	-0.074105375
252	0xbe518a7c	-0.20462984
253	0x3d419320	0.04725945
254	0xbe524bd9	-0.20536746
255	0xbdfbd856	-0.12297122

network_body._body_endoder.seq_layers.0.bias f4 [128]
0	0xbdd0061d	-0.10157416
1	0xbe334308	-0.17506039
2	0xbe2da1ab	-0.16956203
3	0xbe0a0187	-0.13477145
4	0xbd8e6fae	-0.06954895
5	0xbeace1b0	-0.33765936
6	0xbdef34f7	-0.11680024
7	0xbd427a6e	-0.04748004
8	0x3e89837d	0.2685813
9	0xbdec990c	-0.11552629
10	0x3e30374b	0.17208593
11	0x3e359575	0.17732795
12	0x3d3230b7	0.04350349
13	0xbdf5c324	-0.12000111
14	0xbe5ff3e3	-0.21870379
15	0xbea5a6db	-0.32353863
16	0x3ea5fa39	0.32417467
17	0xbe1d6a2e	-0.15372536
18	0xbe540b44	-0.20707422
19	0x3e5c7249	0.21527971
20	0x3c30a951	0.010782556
21	0x3d3e0d77	0.04639956
22	0xbe37f39e	-0.17964026
23	0x3b4052c8	0.0029346216
24	0x3d93f6a2	0.07224776
25	0x3a7b27ce	0.00095808215
26	0x3d4d5533	0.05013008
27	0x3e39b473	0.18135242
28	0xbe353d7b	-0.17699234
29	0x3de66de7	0.11251431
30	0xbe2ff540	-0.17183399
31	0x3e1c5892	0.15268162
32	0xbf30ebd3	-0.6910984
33	0x3c040bc0	0.008059442
34	0xbef3ad9a	-0.47593385
35	0xbc26128e	-0.01013626
36	0xbe8523fb	-0.26004013
37	0xbd841115	-0.06448571
38	0xbee2c573	-0.44291267
39	0xbe02b524	-0.12764412
40	0x3e5d5b64	0.21616894
41	0x3e0d49fa	0.13797751
42	0x3e66535c	0.22492737
43	0xbd88ff34	-0.06689301
44	0xbdff7061	-0.124726065
45	0xbc2a7340	-0.010403454
46	0x3ea39faa	0.31957752
47	0xbeb937f2	-0.36175495
48	0x3e65931b	0.22419398
49	0x3c49e279	0.012322062
50	0x3e404265	0.18775328
51	0xbe24c012	-0.16088894
52	0x3e54bc1a	0.2077488
53	0x3eb6c66b	0.35698256
54	0xbd860235	-0.0654339
55	0xbe9faa4d	-0.31184617
56	0x3d465382	0.048419483
57	0x3db5f910	0.088853955
58	0xbe1de853	-0.15420656
59	0x3e924f83	0.28576288
60	0xbe0c3580	-0.13692284
61	0xbe8b6a96	-0.27229756
62	0x38a08b3a	7.6553275e-05
63	0x3e0c73e9	0.13716091
64	0x3c30f952	0.01080163
65	0xbd035991	-0.03206784
66	0x3e14cfd4	0.14532405
67	0x3e8bd005	0.27307144
68	0x3e24d307	0.16096126
69	0x3e511a80	0.20420265
70	0x3e38d45a	0.18049756
71	0x3e884d31	0.26621392
72	0xbe70e3c6	-0.23524389
73	0x3ce0fc6e	0.027464118
74	0xbde1bd4a	-0.11022432
75	0x3e176a25	0.14786585
76	0xbda0e10a	-0.07855423
77	0x3e099bc2	0.13438323
78	0xbed0ee57	-0.4080684
79	0x3e96b9e1	0.2943869
80	0xbd751f78	-0.059844464
81	0xbdd7b87d	-0.10533235
82	0xbec2ad76	-0.38022965
83	0x3d338c6e	0.043835096
84	0xbe2b3bb6	-0.16721997
85	0xbc439f11	-0.01193978
86	0x3e882120	0.26587772
87	0xbe321fcb	-0.1739494
88	0xbd6b76c5	-0.057486314
89	0x3d6f7d3e	0.05846905
90	0xbe569767	-0.20956193
91	0xbf2476cf	-0.6424379
92	0xbdcefcef	-0.10106837
93	0x3e692cd9	0.22771014
94	0x3e1e1163	0.1543632
95	0xbdbf32e3	-0.09335878
96	0x3eb0d68c	0.34538686
97	0x3ea5682e	0.32306045
98	0x3e597b51	0.21238448
99	0xbeae6efb	-0.34069046
100	0x3de829cf	0.11336099
101	0x3db3cd9f	0.087794535
102	0x3d38e2cc	0.045138165
103	0x3e2e0cc1	0.16997053
104	0x3e409478	0.18806636
105	0xbe0c14bf	-0.13679789
106	0x3e2ed67b	0.17074005
107	0x3d269895	0.040672857
108	0x3daa0204	0.08301166
109	0x3e2ea21a	0.17054024
110	0x3e81a210	0.25318956
111	0x3e973c07	0.29537985
112	0x3e9acc3f	0.30233952
113	0x3e861829	0.26190308
114	0x3d6e09db	0.058114868
115	0xbcfd9778	-0.030956015
116	0xbe593300	-0.21210861
117	0x3d0d3328	0.034472615
118	0x3e2c0116	0.16797289
119	0xbdb4535b	-0.08804961
120	0xbed66e81	-0.41881183
121	0x3ca518ed	0.020153487
122	0x3e72df7e	0.23718068
123	0x3e35de6f	0.17760633
124	0x3e12c017	0.14331089
125	0x3ecace88	0.39610696
126	0xbe3e192b	-0.18564288
127	0xbe6ae0da	-0.22937337

network_body._body_endoder.seq_layers.2.weight f4 [128, 128]
0	0x3ee949fc	0.45564258
1	0xbe9813a6	-0.2970249
2	0x3db2a271	0.087223895
3	0xbf252ac7	-0.645184
4	0x3ee0bd9d	0.43894663
5	0xbe930402	-0.28713995
6	0xbea2203d	-0.3166522
7	0xbd93aa7c	-0.07210252
8	0xbd321257	-0.04347452
9	0xbd76475a	-0.06012664
10	0x3ef19623	0.47184858
11	0x3eba4bb4	0.36385882
12	0x3dd17f30	0.10229337
13	0x3afab0f5	0.0019126224
14	0x3ddfa36e	0.109198436
15	0x3e126377	0.14295755
16	0x3ef57036	0.47937173
17	0x3e2faa72	0.17154863
18	0xbe775e8a	-0.24157158
19	0x3e93dcf6	0.28879517
20	0xbdf69876	-0.12040798
21	0xbeffba3e	-0.4994678
22	0xbe72bf00	-0.23705673
23	0x3dcc39af	0.0997194
24	0xbe9f9b60	-0.3117323
25	0xbe6e583a	-0.23275843
26	0x3eccb191	0.39979222
27	0x3e97b1b4	0.29627764
28	0xbee1445c	-0.43997467
29	0xbdcfebd4	-0.101524025
30	0xbd5e4645	-0.054266233
31	0xbcc1e6f9	-0.023669707
32	0xbedac48b	-0.42728075
33	0xbe213765	-0.15743788
34	0xbe374533	-0.17897491
35	0x3e08d023	0.13360648
36	0x3e0e51f5	0.13898452
37	0xbda28c4f	-0.07936918
38	0x3e69055a	0.22755948
39	0x3e111f23	0.14172034
40	0x3f12ffcd	0.5742157
41	0xbcc1dddd	-0.023665363
42	0xbecb0eda	-0.39659768
43	0xbbba3eaf	-0.005683742
44	0xbf2077fc	-0.6268308
45	0x3d947262	0.07248379
46	0xbe25bc3c	-0.16185087
47	0xbe6a6ecf	-0.22893833
48	0xbf0ee0a1	-0.55811507
49	0x3d663a52	0.056207962
50	0xbec04a8f	-0.37556884
51	0xbe58d593	-0.21175222
52	0xbd91927e	-0.07108019
53	0xbe2ccd2d	-0.16875143
54	0x3db5bc6b	0.088738285
55	0xbed4177c	-0.41424167
56	0xbece1c94	-0.40256178
57	0x3d0bc9ab	0.034127872
58	0xbebd1bfe	-0.3693542
59	0xbc520e16	-0.012820741
60	0xbe7cc03e	-0.2468271
61	0x3dede625	0.11616162
62	0x3e755d3a	0.23961344
63	0xbdd3591f	-0.10319733
64	0x3e8962c8	0.26833177
65	0x3db452aa	0.088048294
66	0xbeeb7882	-0.45990378
67	0xbccadec0	-0.024764419
68	0xbeba2f73	-0.36364326
69	0xbf1f1522	-0.6214162
70	0xbda624f2	-0.081125155
71	0xbf190cf3	-0.59785384
72	0xbf27ac0c	-0.654969
73	0xbd3402a9	-0.04394785
74	0xbe7538f0	-0.23947501
75	0x3e9ae627	0.30253717
76	0xbde43f1a	-0.11144848
77	0xbda13dc1	-0.07873107
78	0x3e72decd	0.23717804
79	0xbe9a460b	-0.30131564
80	0xbed665a2	-0.41874415
81	0xbe96822d	-0.2939619
82	0xbe0caeba	-0.13738528
83	0x3de79307	0.1130734
84	0xbe98aa3c	-0.2981738
85	0xbd85d059	-0.0653388
86	0xbde1caf5	-0.11025039
87	0x3dc721e7	0.09723263
88	0x3d3c26ac	0.045935318
89	0x3d8d143d	0.06888626
90	0xbdc4f7f4	-0.09617606
91	0xbde30249	-0.1108442
92	0xbf27e4b2	-0.65583336
93	0xbb74b23c	-0.0037337681
94	0xbdade3bd	-0.08490703
95	0xbe4c7d03	-0.19969563
96	0x3e9248ff	0.28571317
97	0xbe885938	-0.26630569
98	0xbe06b8c6	-0.13156423
99	0xbecfd3a7	-0.40591165
100	0xbf01b7c3	-0.50671023
101	0x3ead9026	0.3389904
102	0xbf2896d4	-0.65855145
103	0x3c817a35	0.015805343
104	0x3ebbd632	0.36686856
105	0x3e41bf38	0.189206
106	0xbeaba238	-0.335222
107	0xbe6a7750	-0.22897077
108	0xbe912b55	-0.28353372
109	0x3ec6577a	0.38738614
110	0x3edc16a6	0.4298603
111	0x3e57f82a	0.21090761
112	0x3f2750dc	0.65357757
113	0x3f24781d	0.6424578
114	0xbee63962	-0.44965655
115	0xbed68ad3	-0.4190279
116	0xbed623ea	-0.41824275
117	0x3e25c7ea	0.16189542
118	0xbe63d72e	-0.22250053
119	0xbe45df8d	-0.19323559
120	0xbedaf762	-0.42766863
121	0xbcef737c	-0.029229872
122	0xbd8f6cf9	-0.07003207
123	0xbc096b1f	-0.008387356
124	0xbe467207	-0.19379435
125	0xbede749f	-0.4344835
126	0x3e454311	0.19263865
127	0x3d921002	0.071319595
128	0xbea1ce2e	-0.31602615
129	0xbbee3fdf	-0.0072707976
130	0x3e86c2b8	0.26320434
131	0xbda9f1ad	-0.08298049
132	0x3cde27ab	0.027118525
133	0xbc19c16c	-0.009384494
134	0x3dccab06	0.09993558
135	0x3e802aa7	0.2503254
136	0x3c02f6db	0.007993425
137	0xbe2bc868	-0.16775668
138	0xbebe22c7	-0.37135908
139	0xbea5b29d	-0.32362834
140	0x3df41677	0.11918347
141	0xbe149ff2	-0.1451414
142	0x3e7e586c	0.24838418
143	0xbd376628	-0.04477516
144	0xbeed06e7	-0.4629433
145	0x3e60a078	0.21936214
146	0x3e7d0dde	0.24712321
147	0x3d9be663	0.07612302
148	0xbcb95ef0	-0.022628278
149	0x3e4d52f9	0.20051183
150	0x3e6ce5fe	0.2313461
151	0x3eaad1b1	0.33363107
152	0x3e80c81f	0.2515268
153	0x3d9117d4	0.07084623
154	0x3e3f4b3f	0.18681048
155	0xbcbe1020	-0.023201048
156	0xbdc71eae	-0.097226486
157	0xbc831c18	-0.016004607
158	0x3d361566	0.044454
159	0x3ccefd9c	0.025267415
160	0x3d0ccdd2	0.034375973
161	0x3df93e0f	0.1217004
162	0x3ed33044	0.4124776
163	0x3d9afafd	0.075674035
164	0x3e0cbfca	0.13745037
165	0x3e2b2155	0.16711934
166	0x3e2fd620	0.17171526
167	0xbe188922	-0.14896062
168	0x3dee1b93	0.11626353
169	0x3eb14b26	0.34627646
170	0xbe769f12	-0.24084118
171	0xbb842643	-0.0040328815
172	0xbda9760a	-0.08274467
173	0xbe0d6a08	-0.13809979
174	0xbd4c9ace	-0.04995232
175	0x3c96301f	0.018333493
176	0xbf1acb7d	-0.6046675
177	0x3e082151	0.13293959
178	0xbd00422b	-0.031313103
179	0xbe9d9099	-0.30774382
180	0xbbdc5ea8	-0.006725151
181	0xbd84d2b8	-0.06485504
182	0xbd8959b5	-0.067065634
183	0x3d34de2b	0.04415719
184	0xbe7cd0e6	-0.24689063
185	0x3e816ec0	0.25279808
186	0xbd9e3934	-0.077257544
187	0xbeb84e04	-0.3599702
188	0xbde3c77a	-0.111220315
189	0xbda10fdc	-0.07864353
190	0xbca150f5	-0.019691924
191	0xbe8cb58c	-0.2748226
192	0x3db82976	0.08992283
193	0x3c0be768	0.008539058
194	0xbe43079c	-0.19045871
195	0xbd47fd70	-0.04882568
196	0x3e74d835	0.23910601
197	0xbf22f6ba	-0.63657725
198	0x3e22504c	0.15850943
199	0xbef71525	-0.4825832
200	0xbed44c1e	-0.41464323
201	0xbe79354b	-0.24336736
202	0x3e9abafe	0.3022079
203	0xbf069d36	-0.52583635
204	0x3d97b705	0.07407955
205	0xbe3673aa	-0.1781756
206	0x3ea1dfd1	0.3161607
207	0xbe6bad17	-0.23015247
208	0x3e2cc7cb	0.1687309
209	0xbecc62f7	-0.39919254
210	0x3e4d0007	0.20019542
211	0xbf2f3839	-0.68445164
212	0xbe1b0ef0	-0.15142417
213	0x3e67e28f	0.22645019
214	0x3d961309	0.073278494
215	0x3e027b23	0.12742285
216	0xbcff747d	-0.031183476
217	0xbe08a2b9	-0.13343324
218	0x3ee1c9e8	0.44099355
219	0x3ea40123	0.32032117
220	0xbc2b8a69	-0.010470011
221	0x3dbeb02e	0.09310947
222	0xbdc74a73	-0.09730997
223	0x3e22aed6	0.15887007
224	0x3e8c4dbb	0.27403054
225	0xbc8f88cf	-0.01752129
226	0xbe923118	-0.2855308
227	0xbeeb57ff	-0.45965573
228	0x3d87609b	0.06610223
229	0xbe3ea089	-0.18615927
230	0xbdddd17b	-0.10830971
231	0xbd45f9ae	-0.048333816
232	0x3f551bbb	0.8324544
233	0x3dd8a814	0.10578933
234	0x3def49c1	0.11683989
235	0x3e0f0c62	0.13969567
236	0xbdfafc66	-0.122551724
237	0x3eaad0b8	0.33362365
238	0x3eedbc2f	0.46432635
239	0xbe6bfeba	-0.23046389
240	0x3f9e37a3	1.2360729
241	0xbf1ba60c	-0.6080024
242	0x3d8e399e	0.06944583
243	0xbe2487cf	-0.16067432
244	0xbd8302df	-0.06397032
245	0x3e477705	0.19478996
246	0xbefb31cb	-0.49061427
247	0x3d61bbf4	0.055110887
248	0xbdb03287	-0.08603387
249	0x3d8d004a	0.06884821
250	0x3e989ede	0.29808706
251	0xbe894c01	-0.268158
252	0x3d1e852d	0.038701225
253	0xbd28c79d	-0.04120599
254	0xbdaab103	-0.083345436
255	0x3ef63e27	0.48094293

network_body._body_endoder.seq_layers.2.bias f4 [128]
0	0x3d8e1883	0.06938269
1	0xbd9f0860	-0.07765269
2	0xbe1cd312	-0.15314892
3	0xbec3fbaf	-0.38277957
4	0xbdf4c465	-0.11951522
5	0x3ae2a108	0.0017290423
6	0xbd0e69a5	-0.03476872
7	0x3ec69fde	0.38793844
8	0xba9ef4f9	-0.0012127451
9	0xbc0a354b	-0.008435558
10	0x3e6581ee	0.22412845
11	0x3e0e2a07	0.1388322
12	0x3dbdae08	0.092617095
13	0xbddc0a92	-0.107442036
14	0xbd789182	-0.060685642
15	0xbe38245d	-0.17982621
16	0xbdb47768	-0.088118374
17	0x3df5c1cb	0.11999854
18	0x3de4c492	0.11170305
19	0x3e2bac59	0.16764964
20	0x3e9b6088	0.30347085
21	0xbe117ec0	-0.14208508
22	0xbdceaccc	-0.10091552
23	0x3e115dda	0.14195958
24	0x3bcbd18a	0.0062200474
25	0xbe07b88f	-0.13253997
26	0x3e1e0ee8	0.15435374
27	0x3d23645e	0.03989064
28	0x3e5fe6f5	0.21865447
29	0x3ecfe33b	0.4060305
30	0xbdd1341c	-0.10215017
31	0xbd8fcd33	-0.070215605
32	0x3d20b1af	0.039231952
33	0x3ec8feab	0.39256796
34	0x3e1c1ce9	0.15245403
35	0x3e42f592	0.1903899
36	0x3e10a4fb	0.14125435
37	0x3dbe4d96	0.09292142
38	0x3cd39470	0.025827616
39	0x3d987f3d	0.07446144
40	0xbdc795ea	-0.09745391
41	0x3e655aab	0.22397868
42	0xbe0eb1c7	-0.13935004
43	0x3d287565	0.04112758
44	0xbe3db529	-0.18526138
45	0x3ee0d1cd	0.43910065
46	0x3e092ed6	0.13396773
47	0xbee18053	-0.44043216
48	0xbcfa58ac	-0.03055986
49	0xbedb71f3	-0.42860374
50	0xbc8cc07f	-0.017181633
51	0x3e40746e	0.18794414
52	0x3da1aeff	0.07894706
53	0x3f368306	0.71293676
54	0x3d7c50a8	0.061600357
55	0xbe79e9d0	-0.24405599
56	0xbe007690	-0.12545228
57	0x3d8a4abf	0.06752538
58	0x3dd72df1	0.105068095
59	0x3d80712f	0.06271588
60	0xbd54e69f	-0.05197775
61	0xbe201544	-0.15633112
62	0x3eb1803e	0.34668154
63	0x3deefb13	0.11668982
64	0xbc617d0d	-0.013762725
65	0x3ed1b5eb	0.40959105
66	0xbec10992	-0.37702614
67	0xbda8890c	-0.082292646
68	0x3e6c0cc3	0.23051743
69	0x3eaa3c20	0.33248997
70	0x3e41b3d6	0.18916258
71	0xbe9e095f	-0.30866525
72	0x3ca415d8	0.020029947
73	0x3df771d2	0.120822564
74	0xbe203ef4	-0.15649015
75	0x3cab1278	0.02088283
76	0xbca1c589	-0.019747512
77	0x3e8cb182	0.27479178
78	0x3d41ee2c	0.04734628
79	0xbe88a487	-0.26688024
80	0xbdf00df9	-0.11721415
81	0x3d241534	0.040059283
82	0x3e63a91a	0.22232476
83	0xbe1fe051	-0.15612914
84	0x3d988aec	0.07448372
85	0x3d90ba27	0.07066756
86	0x3e966189	0.29371288
87	0x3c1d489a	0.009599829
88	0x3d7dc538	0.06195566
89	0x3e611fb2	0.21984747
90	0x3ddd7517	0.10813349
91	0x3d9e309f	0.077241175
92	0xbe8747b1	-0.26421884
93	0x3ee63abd	0.4496669
94	0xbc80d1cf	-0.015725045
95	0x3e3689fe	0.17826077
96	0x3da9cc35	0.082909025
97	0x3dd0bbe0	0.10192084
98	0x3d4817e4	0.04885091
99	0x3e03843c	0.12843412
100	0x3d2b82b0	0.04187268
101	0x3ea6cd1b	0.32578358
102	0x3e5eaec7	0.2174636
103	0x3e273677	0.1632937
104	0x3f0b1252	0.5432483
105	0x3ea5148b	0.32242236
106	0xbe457e95	-0.19286568
107	0x3d0c473e	0.03424763
108	0x3d1db6a5	0.03850426
109	0x3ddab7fe	0.10679625
110	0xbd9123bc	-0.07086894
111	0x3e10e96c	0.14151543
112	0x3e874024	0.26416123
113	0x3e33ff51	0.17577864
114	0x3ea2a03f	0.31762883
115	0xbe12e1f9	-0.14344014
116	0xbde94a63	-0.11391141
117	0xbd82288c	-0.0635539
118	0x3d8fdcb7	0.0702452
119	0xbf024b48	-0.5089612
120	0x3e4399ba	0.19101611
121	0x3d39f03e	0.04539513
122	0xbd5911cf	-0.0529955
123	0x3e03ed2b	0.12883441
124	0x3cd9bb48	0.02657856
125	0x3e12fc5f	0.14354084
126	0x3d2755d3	0.040853333
127	0x3ddd3296	0.10800664

action_model._discrete_distribution.branches.0.weight f4 [7, 128]
0	0x3e430361	0.19044258
1	0x3c014201	0.007889272
2	0x3ceabc19	0.028654145
3	0xbe6f0cc3	-0.23344712
4	0x3bb0af04	0.0053919572
5	0x3e41aefe	0.1891441
6	0x3df6f7d7	0.120589904
7	0x3e791e57	0.2432798
8	0x3dbb66ea	0.09150489
9	0x3e78281d	0.24234052
10	0x3e95ee7e	0.29283518
11	0x3e9d7683	0.3075448
12	0x3e2452f2	0.16047266
13	0x3e8d2728	0.27568936
14	0xbe94eece	-0.29088444
15	0x3e6f8a69	0.23392643
16	0xbf0f8fdc	-0.56078887
17	0x3c428cff	0.011874436
18	0x3e4732cf	0.19452976
19	0x3eb2bacd	0.34908143
20	0x3e6a768f	0.22896789
21	0x3e79d819	0.24398841
22	0x3d3635c0	0.044484854
23	0xbe7c7698	-0.24654615
24	0x3e1d8c11	0.15385462
25	0x3ce36f51	0.02776304
26	0x3e5f2371	0.21790864
27	0x3e89b434	0.26895297
28	0x3eb05432	0.34439236
29	0x3e0cafdd	0.13738962
30	0x3e04d266	0.12970886
31	0xbdb5cc56	-0.088768646
32	0x3e350100	0.17676163
33	0x3d3ec52a	0.04657475
34	0x3e4e3233	0.20136337
35	0x3dcfc260	0.10144496
36	0x3e9cbae7	0.30611345
37	0x3eb873d3	0.36025867
38	0xbe46d4c2	-0.19417098
39	0xbd96aefc	-0.07357594
40	0xbdc999c9	-0.09843785
41	0x3d5ff151	0.054673497
42	0x3e3b73b2	0.18305853
43	0x3e0e5ba1	0.13902141
44	0xbd4a5042	-0.049392946
45	0x3e9e1923	0.30878553
46	0x3ebb3083	0.3656045
47	0x3e37a9bd	0.17935844
48	0x3e434b30	0.1907165
49	0x3d8f534d	0.0699831
50	0x3e62517a	0.22101393
51	0x3eb023b4	0.3440224
52	0x3e0080c0	0.12549114
53	0x3e08729b	0.13324969
54	0x3e9625ff	0.29325864
55	0x3e988e1a	0.29795915
56	0x3e56e295	0.20984872
57	0x3e9c86dd	0.30571643
58	0x3ed51df1	0.41624406
59	0x3e53ac6f	0.20671247
60	0x3e0594c1	0.13045026
61	0x3e0d425f	0.1379485
62	0x3e85b9bf	0.26118276
63	0x3ec2e92b	0.38068518
64	0x3e96e7c3	0.29473695
65	0x3ea2bd5b	0.31785092
66	0xbd1dbcbd	-0.038510073
67	0x3e04a1b9	0.12952317
68	0xbd8a8eb8	-0.06765503
69	0x3e46a5fb	0.19399254
70	0x3de16256	0.11005084
71	0x3e2646c1	0.16237928
72	0x3e3f6049	0.18689074
73	0x3e318110	0.1733439
74	0x3e5ebb0f	0.21751045
75	0xbd9c6d4f	-0.076380365
76	0x3d9f4d5c	0.07778427
77	0x3db6a177	0.08917516
78	0x3d47d321	0.048785333
79	0xbe379f6e	-0.17931911
80	0x3e8b825d	0.27247897
81	0x3d12db1a	0.035853483
82	0xbdfa044d	-0.122078516
83	0x3ec96297	0.3933303
84	0x3e0319bd	0.12802787
85	0xbdeaea8c	-0.114705175
86	0x3ea2f17f	0.31824872
87	0x3e9979e7	0.29975817
88	0x3d480f42	0.048842676
89	0x3e503dd8	0.20336092
90	0x3e4b07a6	0.19827136
91	0xbd7b9d82	-0.061429508
92	0x3ec3c8a4	0.38239014
93	0x3d74e9ea	0.05979339
94	0x3ee57844	0.44818318
95	0x3e2a8d09	0.16655363
96	0x3ec78a20	0.3897257
97	0x3ea2c21c	0.3178872
98	0x3d8098ed	0.06279168
99	0xba8bfe46	-0.0010680638
100	0x3db76ec1	0.089566715
101	0x3ea653b9	0.3248575
102	0x3e348646	0.17629346
103	0x3e9e92df	0.3097143
104	0x3e0afde6	0.13573417
105	0x3e44574c	0.19173926
106	0x3e65895b	0.22415678
107	0x3e1611f6	0.14655289
108	0x3ea08b14	0.31356108
109	0x3e91e2e9	0.2849343
110	0x3e3dab15	0.18522294
111	0x3d7a2c36	0.06107732
112	0x3e08ccfc	0.13359445
113	0x3d30eba3	0.04319347
114	0x3e89f357	0.26943466
115	0xbd2e35e8	-0.042531878
116	0x3e31903b	0.17340176
117	0x3ed3c2c4	0.41359532
118	0x3e29eeab	0.16594951
119	0x3e9e7376	0.30947465
120	0x3e48f6b2	0.19625357
121	0x3ea5129d	0.32240763
122	0x3da0c008	0.07849127
123	0x3ea499ab	0.3214849
124	0x3e00777e	0.12545583
125	0x3e6d654f	0.23183177
126	0xbe813fbe	-0.25243944
127	0x3d45bef9	0.04827783
128	0xbda1b84a	-0.078964785
129	0xbe01a944	-0.12662226
130	0xbe12d213	-0.1433795
131	0xbec6db35	-0.38839117
132	0x3df9837e	0.12183283
133	0xbcd10983	-0.02551723
134	0xbe043322	-0.1291013
135	0x3da689e8	0.08131772
136	0x3eb6bb6e	0.35689873
137	0x3f36a9dd	0.7135294
138	0x3f1f084f	0.6212205
139	0x3b04e49d	0.0020277866
140	0x3ebaf204	0.36512768
141	0x3e71ca05	0.2361222
142	0xbe4c963b	-0.19979183
143	0x3edf9711	0.43669942
144	0x3e17ce80	0.14824867
145	0xbeb43e59	-0.35203817
146	0xbead7723	-0.33879957
147	0xbc07cfa4	-0.0082892515
148	0xbd25b727	-0.04045787
149	0x3d09d63f	0.033651587
150	0xbf106d48	-0.5641675
151	0xbeae4e9d	-0.34044352
152	0x3cde6bd0	0.027151018
153	0xbe507628	-0.20357573
154	0x3eaccde5	0.33750835
155	0x3e98a402	0.29812628
156	0x3da42bba	0.08016153
157	0x3e883157	0.26600143
158	0xbf037c45	-0.51361495
159	0xbc25a18c	-0.010109317
160	0x3e199c5c	0.15001053
161	0x3ebdf099	0.37097624
162	0x3e3e63d3	0.18592767
163	0xbece2ed1	-0.40270093
164	0x3e990df9	0.29893473
165	0xbe693ce4	-0.22777134
166	0x3db2263c	0.08698699
167	0x3e8683ef	0.26272532
168	0x3cc433aa	0.023950417
169	0x3ed1a1bf	0.40943715
170	0xbcae3842	-0.02126706
171	0xbecc0eeb	-0.39855132
172	0xbe5a3e11	-0.21312739
173	0x3e3c9993	0.18417959
174	0x3ebf41a5	0.3735477
175	0x3eb105b5	0.34574667
176	0x3e07ab29	0.13248886
177	0x3e865681	0.26237872
178	0x3f091f76	0.5356363
179	0xbea77c21	-0.3271189
180	0x3e8f7688	0.2802012
181	0x3df4912d	0.119417526
182	0x3d1061c4	0.035249487
183	0x3e9ff9ba	0.31245214
184	0x3e1a852e	0.15089867
185	0xbd01af88	-0.03166154
186	0xbbd9daf9	-0.006648418
187	0x3da0dc87	0.07854562
188	0x3dc4d657	0.096111946
189	0xbedf9315	-0.43666902
190	0xbebe669c	-0.3718766
191	0x3c495c40	0.0122900605
192	0xbe17c865	-0.14822538
193	0xbf16c34a	-0.5889174
194	0xbea29274	-0.3175236
195	0x3eb9e329	0.36306122
196	0x3ef651d2	0.481093
197	0x3ed92347	0.42409727
198	0xbed0db5d	-0.4079236
199	0x3e25f753	0.16207628
200	0xbd21765b	-0.039419513
201	0xbd151944	-0.03640105
202	0x3eeb66ac	0.4597677
203	0x3e4e2d0f	0.20134376
204	0x3eb9793a	0.362253
205	0x3dfcdedb	0.12347194
206	0xbf1f6d99	-0.6227661
207	0x3e0e9610	0.13924432
208	0xbe06556c	-0.13118523
209	0x3d88adbb	0.066737615
210	0x3eaf7284	0.34267056
211	0x3e09fbf0	0.13475013
212	0x3f17c165	0.5927947
213	0xbe1c3947	-0.15256225
214	0xbe730de5	-0.23735769
215	0x3da1b6c9	0.078961916
216	0x3ee56200	0.4480133
217	0x3d36a488	0.044590503
218	0xba8943dd	-0.0010472495
219	0xbe937657	-0.28801224
220	0xbe0676bf	-0.13131236
221	0x3e84b19e	0.2591676
222	0x3db4c066	0.088257596
223	0x3efaca8e	0.48982662
224	0xbe1c43d1	-0.15260245
225	0xbed002c4	-0.4062711
226	0x3adbf9f8	0.001678287
227	0x3e40bada	0.18821278
228	0x3e8be6d3	0.27324542
229	0xbee56816	-0.44805974
230	0x3f01afb0	0.506587
231	0xbe495c4d	-0.19664116
232	0x3dd2e15a	0.10296889
233	0x3e972529	0.29520538
234	0x3d2337cd	0.039848138
235	0x3f036f4e	0.5134171
236	0xbbaea33d	-0.005329518
237	0xbf113f63	-0.56737345
238	0x3eab53d9	0.33462408
239	0xbf2c0451	-0.67194086
240	0x3d4b686d	0.049660135
241	0x3eac9437	0.3370683
242	0x3e6fcaa3	0.23417144
243	0x3e971924	0.29511368
244	0xbbd3dfed	-0.006465903
245	0xbe845090	-0.25842714
246	0xbedfaa96	-0.43684834
247	0xbe85386d	-0.26019612
248	0x3e5f4327	0.2180296
249	0xbd2cb7a4	-0.04216732
250	0x3e8448b6	0.25836724
251	0x3ebdaa30	0.37043905
252	0x3e6bf49d	0.23042531
253	0x3e7bfbfa	0.2460784
254	0x3e21499c	0.15750736
255	0x3eb454b6	0.3522088

action_model._discrete_distribution.branches.0.bias f4 [7]
0	0xbe464dab	-0.19365565
1	0x3e353ee5	0.17699774
2	0x3d726e94	0.059187487
3	0xbf62aa6a	-0.8854128
4	0xbf5a5469	-0.8528505
5	0x3ed2f00a	0.4119876
6	0x3ed1be40	0.40965462
