Source/Assets/My Assets/Brains(Models)/WeightAgent_Training_onlyGoal.onnx (onnx, 153776 bytes, 6 tensors)

network_body._body_endoder.seq_layers.0.weight f4 [128, 159]
000000 d2 7a 53 3c c7 ba 67 3e 5e 0a ce bc f4 74 4a 3d
       0.012907701 0.22629844 -0.025151428 0.04942794
000010 e8 e2 55 3e 4a ac fa 3d 21 b3 17 3e 51 cf 96 3e
       0.20887339 0.12239893 0.14814426 0.29455045
000020 7d 43 d8 bd 2a 4d 73 3e 99 dd 78 3d 5a 7a 22 3e
       -0.10559747 0.23759905 0.060758207 0.15866986
000030 4d d8 6e be 18 fc 6f bd 70 ae 10 3e d8 b2 08 3e
       -0.233247 -0.058590025 0.14129043 0.13349473
000040 3d 42 f6 bd 33 e1 76 bc 89 83 48 be c7 78 23 3e
       -0.12024353 -0.01506834 -0.19581427 0.15964042
000050 8d 42 b5 3c 1e 9c f5 bc b2 b7 60 be 3e e3 9e 3e
       0.02212646 -0.029981669 -0.21945074 0.31032747
000060 be cd 22 3e f1 89 76 3e 8c 8c 2d be 4c 2b e2 bd
       0.15898797 0.24076058 -0.16948146 -0.110434145
000070 e7 c6 d1 3c 0b 96 96 3e 57 63 6b bd 39 a6 83 be
       0.02560754 0.2941135 -0.057467785 -0.25712755
000080 83 37 3a be 73 4b a3 3e 1b 1a 9c bc 30 70 89 3d
       -0.18185239 0.318935 -0.019055417 0.06710851
000090 a5 35 1b be d7 e4 1c 3e c6 53 b7 bd d7 41 88 3e
       -0.15157183 0.1532167 -0.089515254 0.26612732
0000a0 f8 39 71 3e f8 7a 0b bf 2b b5 56 3a 9c 15 35 3e
       0.2355727 -0.5448451 0.0008190448 0.17684025
0000b0 21 61 22 be 5a 03 af 3d 6d c6 ad be 4d bf bd bb
       -0.15857364 0.08545561 -0.3394045 -0.005790627
0000c0 87 b3 d4 bd 27 36 26 3e 7d 30 c7 3d 1e f3 3d be
       -0.103858046 0.16231595 0.09726045 -0.18549773
0000d0 8e 66 47 3e 5f 2e 30 bd 1e 37 3d bf 6a 38 85 3d
       0.19472715 -0.043012973 -0.7391223 0.06504901
0000e0 03 bb 29 be 98 63 e5 bd 45 fb b1 bd 70 03 4f 3e
       -0.16575246 -0.112006366 -0.08690504 0.20216155
0000f0 69 96 76 3e d3 05 a5 3c b5 f8 db bd 95 b0 00 bf
       0.24080814 0.020144379 -0.107407965 -0.5026944
000100 2e a9 5b bf 8e 77 fd 3d 52 51 f8 3d 4b 5a fa bd
       -0.8580502 0.12376319 0.121248856 -0.12224253
000110 7d 40 f1 3c a3 5c 0b 3e d5 65 56 3e c3 46 ac 3d
       0.029449696 0.13609557 0.20937283 0.08411934
000120 6e 8c cc 3d 74 81 ec be 55 9a 51 bf c2 3b 5c bd
       0.09987722 -0.46192515 -0.81876117 -0.053767927
000130 ef 23 1d 3d 88 a5 b1 bd 92 f8 7f bc fb a5 6b 3d
       0.038364347 -0.08674151 -0.015623229 0.05753134
000140 5f 50 38 3e c5 3c b4 3c 4e dc 1a 3d fe 91 a3 bd
       0.17999409 0.022001633 0.037807755 -0.0798683
000150 bb fd fd be 17 1c a1 bc 35 9c 33 be d3 54 6f be
       -0.49607643 -0.019666715 -0.17540057 -0.23372202
000160 68 21 ba 3d d0 ec 5d bd de 68 b1 3e f5 ab 4f 3e
       0.09088403 -0.05418092 0.3465032 0.2028044
000170 d8 05 33 bd d8 d6 7a be 3d 2d 04 bf 5d 12 e0 bd
       -0.043706745 -0.24496019 -0.5163153 -0.109410025
000180 c0 38 a9 3d 5f 02 94 bd 97 d0 f4 bd 53 98 f1 3d
       0.08262777 -0.07227015 -0.11953848 0.11796632
000190 b6 e5 fb 3d 3b 5f 91 bd 66 98 83 3d 83 d8 a0 3d
       0.12299673 -0.07098242 0.06425552 0.07853796
0001a0 74 3f 1e be 6a 6e 34 bc ba 4c e7 3d 71 4e 62 3d
       -0.15453893 -0.011012653 0.11293931 0.05525059
0001b0 8c 24 ad 3d 27 3f 06 be 2d 1d 16 3d af 6b e7 3c
       0.084542364 -0.13110028 0.036648918 0.02824959
0001c0 2c 0c c5 bc c5 2d 8a bc b8 f4 17 be 91 28 d8 bc
       -0.024053656 -0.016867528 -0.14839447 -0.026386531
0001d0 f1 44 e8 3d 27 93 53 3e 01 50 91 bd b5 2b a0 bd
       0.113412745 0.20661603 -0.07095338 -0.078208365
0001e0 25 34 d4 3d 02 53 e7 3d 3d d0 e1 3d 1d 03 b3 bc
       0.10361508 0.11295129 0.110260464 -0.02185207
0001f0 6a 67 ec bd 59 b4 c2 bd ed 06 ab 3d 5f 9d 40 3e
       -0.11543162 -0.09507055 0.0835093 0.18810032
000200 50 44 df bd e6 de ae bd 8c 82 20 be c8 d2 dc bc
       -0.109017015 -0.08538608 -0.156748 -0.026955977
000210 e9 35 26 3c cb 79 5b be 63 99 01 3d e4 39 09 be
       0.010144689 -0.21433179 0.03164042 -0.1340099
000220 7c 6e 8c 3d 4b f4 2e 3d 52 ae 83 bd 0e 52 82 3c
       0.06857011 0.042713445 -0.06429733 0.015908267
000230 26 a5 d4 3c 55 8c 6d bd b3 9c 54 3c de ae 68 bd
       0.025957655 -0.05799516 0.012976813 -0.05680739
000240 3f e3 37 be ec f6 14 bd 61 7c c3 3d 70 18 d2 bb
       -0.17957781 -0.036368296 0.09545208 -0.0064116046
000250 aa 1a 22 3e fd 52 13 bb 1f c0 b2 3d c0 4b 34 bd
       0.15830484 -0.0022479885 0.087280504 -0.044017553
000260 14 13 01 3e 89 97 e5 3c bf 30 47 3d 62 af 86 bf
       0.12604934 0.02802636 0.048630472 -1.0522273
000270 96 d3 6d bf af a4 62 3e b2 08 bb 3c 14 4b 1e be
       -0.9290098 0.22133134 0.022831295 -0.15458328
000280 8c d5 5f 3d c4 71 8a 3e 06 b9 13 be 8b a0 85 3e
       0.054647014 0.2703992 -0.1442605 0.26099047
000290 b0 b9 83 be c1 67 fa 3d 0e 2d 3d bc 41 24 62 bd
       -0.25727606 0.12226821 -0.011546386 -0.055210356
0002a0 6f 7d dc 3e 63 2a a2 3d 16 7a a6 3d 19 ca 7d 3d
       0.43064448 0.07918241 0.08128755 0.061960313
0002b0 bd 99 33 bd f2 2c 25 3e 2d 9e 1c be c7 a7 97 3b
       -0.043847788 0.16130427 -0.15294714 0.004628155
0002c0 6e c3 1f 3e c4 c9 8e be 4b 45 ca 3e e1 ec 41 3d
       0.15601894 -0.2788831 0.3950599 0.047345046
0002d0 3c 57 10 be cd 2d 23 bd 2c 2f f9 bd 3e aa be 3e
       -0.14095777 -0.0398386 -0.121672004 0.3723926
0002e0 55 af 97 3d e1 b9 b7 3d 15 4a 58 3e 98 6b 4a be
       0.07406489 0.089710005 0.2112201 -0.19767606
0002f0 86 f8 bf 3e 18 44 62 be 7e b1 5f 3e 9c 07 91 bd
       0.37494296 -0.22096288 0.21845052 -0.070815295
000300 d5 09 11 3c d2 c1 62 3e 85 17 cd 3d 85 36 0a be
       0.008852442 0.22144249 0.100142516 -0.1349736
000310 99 f5 54 3d c2 9e 53 be e1 da 9c 3e f6 1f 40 be
       0.051992033 -0.2066603 0.3063574 -0.18762192
000320 53 42 d2 3e d7 6f e1 3c 6a d3 03 be 77 0c 85 3e
       0.41066226 0.02751915 -0.12873617 0.25986072
000330 99 2f 22 3e 55 8e ff 3b 52 8f 7b bd 8e 35 16 be
       0.1583847 0.0077989497 -0.061415978 -0.14668867
000340 62 ed 76 3e d2 66 24 be c7 78 67 3e bf d3 8d 3e
       0.24113992 -0.16054848 0.22604667 0.27700612
000350 3c 16 84 be 1f bb 13 bd 93 58 0f 3e 26 73 7f b9
       -0.25798213 -0.036067124 0.13998632 -0.00024361591
000360 4c eb b8 bc 2b 8a 0f bc 76 71 fc 3d a2 1e 7f 3d
       -0.022573136 -0.008760969 0.123263285 0.062285073
000370 9b 9f 25 3e c7 a0 44 3e 17 ef ca be 5e bf 14 be
       0.16174166 0.19201957 -0.39635536 -0.14526126
000380 22 2e 00 3e 6f b8 c9 3d 7d 74 68 bc 13 3b 54 be
       0.12517598 0.09849631 -0.014187929 -0.2072566
000390 e3 41 25 3d 1a 39 ef 3c 93 96 9f 3c f8 2e 1a bd
       0.040346038 0.029202033 0.01948098 -0.03764245
0003a0 fa ef 14 be 56 b1 31 be ec db d2 bd 2f 66 fb 3c
       -0.14544669 -0.17352805 -0.10295853 0.030688373
0003b0 9f d3 17 be 36 a9 80 bb a4 6a b6 3d 1c 47 c3 3d
       -0.14826821 -0.0039264215 0.08907059 0.095350474
0003c0 a0 78 33 bd 31 82 52 be e8 6a 15 3d 13 03 01 be
       -0.04381621 -0.20557477 0.036478907 -0.12598829
0003d0 d8 b2 ab 3a d2 d5 cd bc e2 5e f6 bd 1e f0 b9 bc
       0.0013099564 -0.025126372 -0.12029816 -0.022697505
0003e0 e3 36 f2 3d 96 70 35 bd bf ab eb 3c c7 e8 a0 bc
       0.11826875 -0.044296823 0.028768418 -0.019642247
0003f0 08 62 0f bb 90 b1 49 bd 1a ff f2 bd 7d 7f 94 3d
       -0.00218785 -0.049241602 -0.11865063 0.07250879

network_body._body_endoder.seq_layers.0.bias f4 [128]
000000 7f aa e4 3b ca 27 06 bd 57 7e 38 3d ce 7e 97 3d
       0.0069783325 -0.03275279 0.045042362 0.07397233
000010 a7 70 10 3c 01 e0 ab 3d fd 46 14 3c d0 bb 04 bc
       0.008815921 0.08392335 0.009050128 -0.008101419
000020 84 21 8e 3d 29 0a 5f 3d cd 98 ed bd fc 07 77 bd
       0.06939986 0.05445305 -0.1160141 -0.06031035
000030 da d7 2a 3d 16 f2 77 3c 7d 01 53 3b 83 50 89 3d
       0.04170976 0.015133401 0.0032196932 0.067048095
000040 a0 9b 12 bd 61 6b a2 bd f8 07 97 bc 8f 93 ee bb
       -0.035792947 -0.07930637 -0.018436417 -0.007280774
000050 20 8a c2 bc f4 f8 37 3d 85 4b 20 be d9 f7 ae 3c
       -0.023747504 0.044915155 -0.15653808 0.021358417
000060 d6 da 3a bc 6d 65 24 bd 0f fc 0a 3d bc 0d 06 ba
       -0.011404714 -0.04013579 0.033931788 -0.0005113741
000070 1f e3 24 be db 0c 34 bc bf 34 04 3c 73 e6 6d bd
       -0.16102265 -0.010989393 0.008069216 -0.0580811
000080 29 b0 46 3c 61 50 a1 3d 5c 5c a4 3c 6c 2f 09 bb
       0.012126961 0.07876659 0.020063572 -0.0020932807
000090 d0 02 a0 3d 43 fa d7 bb 46 68 39 bd b2 7e 72 bb
       0.078130364 -0.006591113 -0.04526546 -0.0037001786
0000a0 48 90 3f 3c 67 92 61 3a f6 67 fc 3c ca 3c a6 bc
       0.011692114 0.00086048845 0.030811291 -0.020292658
0000b0 d0 be 13 3d ae 6a b7 3d 93 27 65 3c 4f 92 9b 3d
       0.036070645 0.089558944 0.013986486 0.075962655
0000c0 ae 9f b7 3d d4 13 d3 3c 6a 11 9e 3c b1 d0 87 3c
       0.08966003 0.02576629 0.019295413 0.016579004
0000d0 81 b9 64 bb 21 40 85 3d cf ca dd bc 84 81 83 bd
       -0.0034900608 0.06506372 -0.027074246 -0.064211875
0000e0 d6 4b b7 3c 7f d4 9c bd 13 de 49 3c 47 00 4a 3c
       0.022375029 -0.07657718 0.012321013 0.012329168
0000f0 f7 6d 7a bd 44 f1 0f 3d 14 b3 85 3d 45 ed 8e 3d
       -0.061140027 0.0351422 0.06528297 0.06978849
000100 c3 a7 e0 3c 8b 67 15 3d 1d 1e a1 3b 66 27 34 3d
       0.027423745 0.0364757 0.00491692 0.043982886
000110 80 66 52 3d e9 9d 0f bd 3d cd 75 bd c0 87 84 3d
       0.051367283 -0.035062704 -0.060010184 0.06471205
000120 15 b4 4d bd 67 71 86 3d f2 84 0f 3b 7a 57 19 3d
       -0.050220568 0.065645985 0.002189931 0.03743694
000130 8a 86 ab bd 50 3d f2 3c ad 74 75 bc 1f 51 ed 3c
       -0.08375271 0.029570252 -0.014981431 0.028969346
000140 76 dd 09 3d 09 87 0c 3d 2b b9 51 bd 61 b0 30 bd
       0.033658467 0.034308467 -0.05120198 -0.043136958
000150 12 73 31 bc d2 03 28 be c6 38 12 3c 7d b3 fa bb
       -0.010830658 -0.16407707 0.008924669 -0.007650791
000160 69 b4 7f bd d2 38 8f 3d f5 de 36 be c7 1c 86 3c
       -0.062427912 0.069932595 -0.17858489 0.016371144
000170 0c 4e 4b bc c0 fd 04 3d 11 f0 8d 3d e0 40 6b 3d
       -0.012408745 0.032468557 0.06930555 0.057434916
000180 96 0c 19 3d f5 20 04 bd 76 4d 2f bd 1c 41 04 3c
       0.03736552 -0.032257993 -0.042798482 0.008072164
000190 5b 61 21 3d 28 61 a6 bd 31 dd 30 bd d7 9f 23 3d
       0.039399486 -0.08124 -0.043179695 0.039947357
0001a0 1a a6 48 3d 1a 04 e9 bc 60 e1 6d bd 24 b3 53 3c
       0.04898653 -0.028444339 -0.058076262 0.012921128
0001b0 14 38 d5 3c 9d b9 b6 3c be a6 2a bc aa ef 49 3d
       0.026027717 0.022305304 -0.010415731 0.049300827
0001c0 24 85 6d 3d 92 f3 66 3d 59 e1 73 3c b7 30 5b 3d
       0.0579883 0.05638463 0.01488527 0.053513255
0001d0 33 00 2d 3c e0 ba af bd 25 07 ab 3b 44 0c f3 bc
       0.0105591295 -0.085805655 0.0052193576 -0.029668935
0001e0 3c bb 1d 3d 10 47 3b 3c 06 98 4e be 68 bb ec 3c
       0.03850864 0.011430517 -0.2017518 0.028897956
0001f0 a9 cb a7 3a cc 1f 16 bd 7d 56 be bb a8 22 86 3c
       0.0012801784 -0.036651418 -0.00580865 0.016373947

network_body._body_endoder.seq_layers.2.weight f4 [128, 128]
000000 7b be 70 3d a9 c0 f0 3d 5c 43 a0 be e9 4f cf bb
       0.058775406 0.11755497 -0.3130139 -0.0063266647
000010 86 07 86 bd c8 39 a8 bd b2 0e bb bc c1 90 a3 bd
       -0.06544404 -0.08214146 -0.022834156 -0.07986594
000020 bc b4 81 3e 80 46 0f be 78 e3 c4 be 6f 1d 4d be
       0.25333202 -0.13991737 -0.38454795 -0.2003076
000030 1b cf 56 3e 9a be 2b 3e b9 f8 07 bf b4 ed 9d 3d
       0.20977442 0.16771927 -0.53113896 0.07711354
000040 27 17 f8 3d f3 fe cc 3b ca df a0 3e d8 99 16 bd
       0.12113791 0.0062559783 0.31420738 -0.03676781
000050 60 0d f7 3d 5a 13 cc bd 8b a9 06 be c9 a5 9d be
       0.12063098 -0.099646285 -0.13150613 -0.30790547
000060 f2 b8 1b 3e d3 ec 98 be 76 8c 67 3c e5 28 2c 3e
       0.1520727 -0.29868183 0.01413261 0.16812475
000070 f5 25 a8 3c 30 47 66 3e 28 ba 8c 3d 33 19 ae 3d
       0.020525912 0.22488093 0.06871444 0.085009
000080 bd b3 4f be 67 17 29 bd 55 17 dd 3d 3a 1c ca 3b
       -0.20283408 -0.041282084 0.10795466 0.0061679156
000090 a1 52 49 be fc 1e 27 bd a6 89 fa bc 71 fe 29 bd
       -0.19660427 -0.040801033 -0.030583214 -0.04150242
0000a0 cc 6d 7e be e7 b0 34 3e a3 0e 16 3d f6 23 6f 3d
       -0.24846572 0.17645608 0.036635052 0.058383904
0000b0 2f 11 09 3d bc 8e 32 bc 64 5e 4a be bd 45 74 be
       0.033463653 -0.010898288 -0.1976257 -0.23854728
0000c0 7e 04 42 3e 7d 52 13 3e 54 f7 1c bd 56 1a 64 3d
       0.18947026 0.14386936 -0.038321808 0.05568918
0000d0 7f 0e 94 bd 8e 55 b9 bd fa db 2d be 46 b3 1b be
       -0.072293274 -0.090495214 -0.16978446 -0.15205106
0000e0 f7 2a e3 3e b4 05 0c bd fc 2c ed bd b9 70 68 bc
       0.44368717 -0.034185126 -0.11580846 -0.014187031
0000f0 f8 2e 08 3c a8 71 e8 3d 92 90 2d be 08 de ee 3c
       0.0083119795 0.11349803 -0.1694968 0.029158607
000100 31 05 7a be 20 a5 9a 3d 72 3d 5d 3e 67 03 80 bd
       -0.24416043 0.07551026 0.21605471 -0.06250649
000110 b5 15 ed bd d5 d6 ce bc 3b 09 4c be 53 a8 81 bd
       -0.11576406 -0.025248924 -0.19925396 -0.063309334
000120 82 c4 b1 bb 13 92 06 3e 8f f7 83 be d1 1b a4 bb
       -0.005425037 0.1314166 -0.2577481 -0.005008199
000130 a8 af 4a bd ee c0 13 be cf e9 9a 3c a2 0e 93 be
       -0.049483925 -0.14429066 0.018910317 -0.287221
000140 a1 20 e8 bd 03 56 11 be 67 3e 9d 3c 05 ad bc 3e
       -0.113343485 -0.14192967 0.019194795 0.36850753
000150 1c ad 66 3c 51 98 2b be 1b 7c 2b bf d6 e1 ba 3d
       0.014079358 -0.16757323 -0.66986245 0.09125106
000160 15 34 56 be c6 5d 28 3e 9f f9 45 3e 8d 76 5c 3e
       -0.20918305 0.16442022 0.19333504 0.21529599
000170 bf 75 55 bd 70 e5 9e be b8 e6 c6 3d a7 e6 34 be
       -0.052114245 -0.31034422 0.09711975 -0.17666112
000180 e9 09 11 ba 0d 6a 9d 3e d9 95 48 be 85 bd a0 bc
       -0.0005532788 0.30744973 -0.19588412 -0.01962162
000190 02 30 84 be 6c 23 ad bc 9a b3 0c 3e d7 6a 43 3c
       -0.25817877 -0.021135055 0.13740388 0.011927328
0001a0 b8 19 fa 3d 8a 21 cd be 78 ee 14 be 23 64 c4 be
       0.12211937 -0.4006465 -0.14544094 -0.38357648
0001b0 c7 7c 7c bd 4e 33 62 3e e9 b9 d5 bc 97 aa 18 3c
       -0.061642434 0.22089884 -0.026089625 0.009318016
0001c0 b7 af 47 bd 28 ff c3 be b9 57 29 bc 11 82 0c be
       -0.04875156 -0.38280606 -0.010335856 -0.13721491
0001d0 47 3f 8a bd 2d 57 98 be 65 1e 98 be 9b aa d5 3c
       -0.067503504 -0.2975401 -0.2971069 0.026082328
0001e0 d1 07 f4 3c 78 a6 a5 3d 47 08 90 bd f6 c7 9a 3d
       0.029788883 0.08088392 -0.07032829 0.07557671
0001f0 0f f2 6f be 1b 54 7c bc f8 60 37 3e 99 2c ab 3d
       -0.23432182 -0.015400912 0.17908084 0.08358116
000200 23 53 2f 3e 96 bc b5 bd 90 5f 10 bd 64 5b fe be
       0.17121558 -0.088738605 -0.035247386 -0.496791
000210 1f 63 40 bb b5 ff 7e be 54 f4 04 3d 50 1b 0f be
       -0.0029355956 -0.24902232 0.032459572 -0.13975263
000220 9d 6f 99 bd e1 ac 97 be 6d 92 19 be ad 06 40 3e
       -0.07491992 -0.29624084 -0.14997263 0.18752547
000230 d7 7e 27 be 26 ce aa be f5 9c 0a 3e 4e 06 e7 be
       -0.1635698 -0.33360404 0.13536437 -0.45121998
000240 4c 3f 95 bd 28 fc 27 3e 1b 37 3c 3e 05 66 1c 3c
       -0.072874635 0.16404784 0.18380396 0.009545808
000250 07 ec a3 3d f5 cd 32 be 09 c2 2c be 74 fa 6d 3d
       0.08004003 -0.17461379 -0.16870894 0.05810018
000260 cf a9 23 3e 7c 8b 77 3d f9 86 a4 be 4b 37 9d be
       0.15982746 0.060435757 -0.32134226 -0.30706248
000270 d4 cd 8c be a3 2c 2f 3e 88 eb 4b be ce 9c 82 3c
       -0.27500784 0.17106871 -0.19914067 0.01594391
000280 f9 a5 a5 bd bf b2 fc bd 7e 82 b3 be 8e 17 92 3c
       -0.080882974 -0.123387806 -0.35060495 0.017833497
000290 3d 7a 1a 3e 16 2d c4 3d ee a9 4b bd fa a1 58 3e
       0.15085693 0.09578912 -0.049722604 0.21155539
0002a0 33 de 75 be 98 e1 8c bd 55 e7 56 be 98 f0 36 3e
       -0.24010544 -0.06878966 -0.20986684 0.17865217
0002b0 f0 aa b4 3d d7 9a a2 be 15 40 bc 3c 1f 58 1d be
       0.08821666 -0.31758758 0.022979775 -0.15365647
0002c0 b9 3b f2 bd 64 cc e9 3d 7b 1a eb 3d ec d1 96 bd
       -0.118277974 0.114159375 0.1147966 -0.07364258
0002d0 f3 13 af bd b4 25 b5 be 79 c8 5b 3e 7c cd 7b 3e
       -0.08548727 -0.35380328 0.21463193 0.24590105
0002e0 08 ad 72 be a2 f6 78 be e2 27 1d be 73 d5 03 3c
       -0.23698819 -0.24312833 -0.15347245 0.008046496
0002f0 f2 d8 f1 bd a1 2b 79 be 43 20 f6 bd 0a a9 4b be
       -0.11808957 -0.2433305 -0.12017872 -0.19888702
000300 e4 cc 5d be cd fb f1 bc 72 09 cc bd 66 32 f5 be
       -0.21660191 -0.029539013 -0.09962739 -0.47890013
000310 fc 43 92 3d c1 41 1b 3d 53 41 76 bd 02 f0 f4 bd
       0.07141873 0.037904505 -0.06012089 -0.1195984
000320 16 d9 b1 3e f0 33 14 3e 0e 98 46 be 42 23 06 be
       0.34735936 0.14472938 -0.19393942 -0.13099387
000330 6b 31 98 3d db 6e 3b be 6a c9 e4 bd 1f 01 3e be
       0.07431301 -0.18304007 -0.11171229 -0.18555115
000340 04 83 7b be 2e 3c 4c 3e 09 c9 00 3e 8b 64 44 3d
       -0.24561697 0.19944832 0.12576689 0.047947448
000350 7e 93 ed 3b 8a f5 d3 3e 64 6e 9d be 52 b9 d3 3d
       0.0072502485 0.4139827 -0.30748284 0.103380814
000360 ae 21 ae 3e f8 9a 74 be 8c e5 08 bf 95 dc 38 be
       0.3401007 -0.23887241 -0.5347526 -0.18052895
000370 65 2b 97 3e 6d 44 1a be 8d e5 ad be bc 49 29 be
       0.29525295 -0.15065165 -0.33964196 -0.16532034
000380 b4 27 f7 bd 23 e0 a5 3e 50 07 a6 be 2a 1b 8b be
       -0.1206812 0.32397565 -0.32427454 -0.27169162
000390 62 e8 39 3c ef ee 61 3d 19 58 a8 3d dc 4e 6b bd
       0.011346908 0.055159505 0.08219928 -0.057448253
0003a0 32 d1 d7 be e3 5a 80 3d 8b 76 34 3d 75 02 c2 be
       -0.4215179 0.06267335 0.044058364 -0.378925
0003b0 de ec 22 be 97 ba c2 bd 19 5f 59 3d cd 8b 99 be
       -0.1591067 -0.095082454 0.053069208 -0.29989472
0003c0 fc b5 24 be ff 8e eb be 0c 52 3d bd d4 0c 1b be
       -0.16085047 -0.46007535 -0.046220824 -0.15141612
0003d0 3f 15 5b be 4f 27 8d bd 24 85 0e 3e 8e 9e 12 3d
       -0.21394823 -0.06892263 0.13917977 0.03579574
0003e0 a6 67 b4 be 8f fd b6 3b 4a 61 f7 3c a8 e1 b4 bd
       -0.35235327 0.0055844258 0.030197758 -0.08832103
0003f0 33 9b 83 3b 80 81 d9 3d 0d 24 42 be 64 39 8b be
       0.004016304 0.10620403 -0.18959065 -0.27192223

network_body._body_endoder.seq_layers.2.bias f4 [128]
000000 9b f4 9a 3c 9d 75 14 3c 56 b6 a6 bc 61 0d d4 bc
       0.018915465 0.009061244 -0.020350616 -0.025885286
000010 1e da f4 3d 91 c0 36 be f0 ae 0b be da 92 1d bc
       0.11955665 -0.17846896 -0.13640952 -0.009617532
000020 f5 bb d2 bd 75 f7 9e 3d 7c 6c e3 bd 87 eb 27 bd
       -0.10289756 0.077620424 -0.11104676 -0.0409961
000030 35 75 2e 3e 63 a3 ee 3c 9b cd 74 3c 82 e1 93 bd
       0.17036898 0.029130643 0.014941598 -0.072207466
000040 9f 76 90 bd dd 33 34 3d f4 06 6f bd de b2 86 3d
       -0.07053875 0.043994773 -0.05835624 0.06577085
000050 cc d4 ae bd fd 2f c1 3c 18 cb 86 3d 3d f9 d1 39
       -0.085366815 0.023582453 0.06581706 0.00040049283
000060 1a 14 b2 3d bc c3 17 3e 7b 3d 91 bc bc f4 19 bd
       0.0869524 0.1482076 -0.017729511 -0.037586913
000070 ba a5 d7 bd 78 a0 25 be c7 a0 8d 3d a7 ce 50 3b
       -0.10529657 -0.16174495 0.069154315 0.0031861456
000080 8e e6 d0 bd 0f b4 11 be 8e 1d 58 bd 83 90 cb bd
       -0.10200225 -0.14228843 -0.05276256 -0.09939673
000090 20 65 77 3b 06 4f 5b bc df cd 76 bc 9e 43 0d bd
       0.0037749484 -0.01338554 -0.015063732 -0.034488313
0000a0 d4 b6 7f 3d ea f7 a6 bc 90 67 ba 3d 45 38 57 bd
       0.062430218 -0.020381887 0.09101784 -0.052543897
0000b0 66 d0 a4 3d a8 5f 40 3c 92 39 55 3c 4c d7 54 bc
       0.08047561 0.011741556 0.013014214 -0.012990784
0000c0 8d 14 83 bd 1f c8 33 3d a3 94 1e bc 77 8e e9 3a
       -0.06400404 0.043892022 -0.009678992 0.0017818947
0000d0 0e 90 1a bd 18 bc 80 bb 09 f4 9f bd 2f ab e0 bc
       -0.037735038 -0.0039286725 -0.07810218 -0.027425377
0000e0 49 04 b6 bd 5a d3 18 3e eb ca 4d bd 59 d1 3e 3d
       -0.08887536 0.14924374 -0.050242346 0.04658637
0000f0 a0 90 53 bd dc 61 d8 3c eb 4d 28 3c 0a b3 9a 3d
       -0.051651597 0.02641385 0.010272483 0.0755368
000100 14 6d e8 3c 85 5c ed 3b f6 6f 37 3c 58 f0 33 bd
       0.028372325 0.007243695 0.011196127 -0.04393038
000110 8e 8e b5 bc cd 0a 9d 3d b3 17 92 3d c5 df 2c 3d
       -0.022162702 0.07668076 0.071334265 0.04220559
000120 79 34 d5 bb 44 24 f0 bc 72 7a 06 3d 79 c4 b3 bc
       -0.0065064994 -0.029314168 0.032831617 -0.021944271
000130 83 1b 79 3d 77 97 a9 bd 66 c9 e9 bc de 78 20 be
       0.060817253 -0.08280843 -0.028538417 -0.15671107
000140 40 c4 f9 bc d1 b3 dd 3d e6 2d 1b be 32 79 d0 3c
       -0.030489087 0.10825313 -0.15154228 0.025448415
000150 38 37 ad bc 38 56 85 3d c5 59 8b 3d 6e ad 81 bd
       -0.021144494 0.065105855 0.068042316 -0.06331907
000160 ba fd a8 3d 37 33 73 bd e0 93 e8 bb 52 2e 23 bc
       0.082515195 -0.059375014 -0.007097706 -0.009959774
000170 98 4f 73 3d 8d f9 3a bc e7 66 1f 3e 0b ca 27 bc
       0.05940208 -0.011412037 0.15566598 -0.010241042
000180 0e e9 d5 bd 6c 6d 5e bd 11 de d1 3b 12 ba a4 bd
       -0.10444842 -0.05430357 0.006404646 -0.080433026
000190 69 42 95 3d 10 bb 9d 3d f8 05 4d 3c d1 77 33 bc
       0.07288057 0.07701695 0.01251363 -0.010953859
0001a0 01 7e 79 bd b9 91 86 bc a5 6b 0f bd 4b 97 e0 bc
       -0.060911182 -0.016426908 -0.035014767 -0.027415892
0001b0 a6 6b 17 3c 7f 47 e7 bc 57 2f 73 3e af a8 7d bd
       0.009241974 -0.028232334 0.23748527 -0.061928447
0001c0 5c 9e a4 3d 9f da b9 3c 60 25 e5 3c 19 55 e0 3d
       0.08038017 0.022687254 0.027971923 0.10953731
0001d0 ca 86 94 3b bc 02 d3 3d a8 2d 79 bd e5 f8 bd 3c
       0.0045326697 0.10303256 -0.060834557 0.023189971
0001e0 23 62 9f 3d a2 71 53 bc 69 75 cf bd f5 7f bf 3c
       0.0778239 -0.01290551 -0.10129816 0.023376444
0001f0 37 15 62 3d 26 d0 98 bb e3 2c 21 3e 9c d4 0a bd
       0.055196013 -0.004663485 0.15739779 -0.033894166

action_model._discrete_distribution.branches.0.weight f4 [7, 128]
000000 6a cc 70 3e a9 62 5d bd 4d c8 12 3e 3c 13 e1 3d
       0.23515478 -0.054049168 0.14334221 0.10989997
000010 cc 7c 8d 3d 55 11 39 3e e9 ef 73 3e 16 08 c2 3d
       0.06908569 0.18073018 0.23821987 0.094741985
000020 3a 25 b5 3d a5 5f 56 be d1 55 0d bc 01 26 6f 3d
       0.08844991 -0.20934923 -0.008626417 0.058385853
000030 bc 5b 65 bd 19 a1 18 3d 08 07 bd 3c a5 9e a8 3d
       -0.055995688 0.03726301 0.023074642 0.08233384
000040 f2 6e a2 3c 46 18 c1 3d af f1 83 3e 7e 9d 32 bb
       0.019828293 0.09428458 0.25770327 -0.0027254517
000050 0d 95 3d 3d 38 8f 1e 3c 7c c9 51 3e 44 4e 08 3e
       0.046284724 0.009677701 0.20487016 0.13311106
000060 19 2c 3e bc bd 59 3e 3d ec fd a9 3d 2e 4e 11 3e
       -0.011607193 0.0464723 0.08300385 0.1418998
000070 68 a6 03 3d 76 0d 12 be d5 5d 7d 3e 42 f8 f2 3d
       0.03214112 -0.14262947 0.24742825 0.11863758
000080 b4 5c b8 bc 7a 6a 90 3e 88 5a 2d bd 46 0d a4 3c
       -0.022505142 0.28206235 -0.042322665 0.02002586
000090 f3 63 9e 3e c5 1b b9 3d fc 1f 0b bd 3c b2 0f be
       0.3093563 0.090385 -0.03396605 -0.14032835
0000a0 fc 70 90 bd 65 a8 8f 3e 95 f1 42 bd aa fa a6 3e
       -0.070528 0.28058162 -0.04759367 0.32613117
0000b0 33 fe a8 3d ea ed 8a 3e 33 fc 80 3b bf 5d 9b 3e
       0.0825161 0.2713464 0.0039363145 0.3034496
0000c0 a9 3d a8 3d 9f 6b b4 bd de 77 a9 3e bd ee 7f 3d
       0.08214886 -0.088095896 0.33099264 0.062483538
0000d0 d0 af 88 3e c7 e5 00 be 7e 19 bd bd 2f 3f 6b 3e
       0.26696634 -0.12587653 -0.09233378 0.22973321
0000e0 68 d7 c3 bb 34 8b b9 3d 67 de cc 3d d1 98 39 bd
       -0.005976606 0.09059754 0.100033574 -0.045311753
0000f0 f8 dd ef bd eb f7 ba 3d c1 a4 1f 3e d4 6b f8 3d
       -0.11712259 0.09129318 0.15590192 0.121299416
000100 bf 20 33 3d 38 bb 77 3d 3f 81 0f 3c c0 79 c7 bd
       0.0437324 0.06048128 0.008758842 -0.09740019
000110 b3 35 19 3e b9 6d 58 bd ce d8 55 bd 97 c6 ef 3d
       0.14961891 -0.052839015 -0.052208714 0.117078
000120 f6 42 94 3e bd 3c 1e 3e 89 9b 77 3d 1f 6a 2a 3e
       0.28957337 0.15452857 0.060451064 0.16642044
000130 bd 12 50 3e 42 95 cd 3d 1b 7d f2 3d 11 42 d3 3d
       0.20319648 0.10038234 0.11840268 0.103153355
000140 9e b0 6a be 1d 23 cd 3c 51 6c 7b 3e 3a 48 15 be
       -0.22918937 0.025041157 0.24553038 -0.14578333
000150 91 3a 8a bd 87 4e 67 3d 25 71 7a 3d 54 ff 88 3e
       -0.06749452 0.056471374 0.06114306 0.267573
000160 93 70 1c 3e 97 4f 02 3e 23 dc 36 be 95 b4 51 3e
       0.15277319 0.12725674 -0.17857413 0.20479043
000170 77 38 f7 3b 97 4d 85 3e 21 50 62 3d fa a2 03 be
       0.007544573 0.2603576 0.055252198 -0.1285514
000180 cd dd 5e 3e d0 a2 3b 3e 03 82 66 3e 23 b5 62 3e
       0.21764298 0.18323827 0.22510533 0.2213941
000190 37 a3 55 3d 2f d2 a1 3d f8 d9 c8 ba ec a9 89 3e
       0.052157607 0.079014175 -0.0015323749 0.26887453
0001a0 c7 50 87 3e 65 65 d1 3e 80 bd 01 bc de 92 b5 3d
       0.26428816 0.4089767 -0.0079187155 0.08865903
0001b0 18 77 9e 3e 0c aa 12 3e 47 b9 df bc db 67 88 3e
       0.30950236 0.1432268 -0.027310027 0.26641735
0001c0 79 04 e2 3d 55 a4 df 3c 05 71 12 bd 2e cc bf 3d
       0.11036009 0.02730004 -0.035752315 0.09365116
0001d0 10 80 1c 3d 5f 85 40 3d 1f 0f 95 3e 49 a3 42 3d
       0.038208067 0.047002193 0.291131 0.047519002
0001e0 dd 4c 6c 3d 9c 2d 85 3d bd 3a dd bd b9 3b 96 3d
       0.05769049 0.0650284 -0.10802219 0.0733561
0001f0 bc 5b 24 be e1 c3 10 be d0 33 04 3d 8e 97 9b 3e
       -0.16050619 -0.14137222 0.032275975 0.30389065
000200 fe 1c a1 3d d4 3d ce 3d 81 b8 96 be c5 1c 7b be
       0.07866858 0.100703865 -0.2943764 -0.24522693
000210 bc b0 b1 be ff 0c 1f bc 65 b1 9a bd a3 97 58 3c
       -0.3470515 -0.009707688 -0.075533666 0.013219747
000220 f2 f6 06 be 6b 03 e3 3d 59 64 55 be 2b 73 f8 3d
       -0.1318014 0.11084636 -0.20839061 0.121313415
000230 e7 57 4b 3e ab 73 93 be de 42 c7 3d 85 cd 0b 3e
       0.19857751 -0.28799185 0.09729551 0.13652618
000240 86 16 dd 3c 44 76 f4 be da 19 9a 3d 42 7c ab 3d
       0.02698828 -0.4774648 0.07524462 0.0837331
000250 50 9f 67 3d 05 0b 1f 3e 8d d8 da bd 72 ab 68 bd
       0.056548417 0.15531547 -0.10685835 -0.056804128
000260 12 81 a0 bd 2c 10 c4 3d 97 df 7b 3d c6 6d ec bd
       -0.07837118 0.09573397 0.06149253 -0.11544375
000270 b9 b7 d9 3d 61 eb 19 3e 80 b0 08 bf 7b 73 bc be
       0.106307454 0.15031196 -0.5339432 -0.36806855
000280 2c 62 c3 3d 2d 75 87 bd c4 be c0 bc 2a ce c8 bc
       0.09540209 -0.066141464 -0.023528464 -0.02451237
000290 4e 39 13 bc 2c 9d 8d bd 2c e1 5e be 52 82 24 be
       -0.0089858305 -0.06914744 -0.21765584 -0.16065338
0002a0 25 d3 df 3d d6 84 92 bd fb 9a 9e be 0e e3 57 be
       0.109289445 -0.07154243 -0.30977616 -0.21082708
0002b0 4f a4 de bd 37 e0 0d 3e 55 ea 3c 3e e8 9d 05 bc
       -0.10871183 0.13855062 0.18448766 -0.008155324
0002c0 83 97 ca be 00 13 c5 3c 18 b8 be 3d 4a 57 f2 3d
       -0.3956872 0.024056911 0.09312457 0.11833055
0002d0 18 19 b6 bd 0a 51 df 3d 28 e5 55 bd 93 5b 86 be
       -0.08891505 0.10904129 -0.052220494 -0.2624174
0002e0 72 e2 70 3c b7 ec d7 3d ef 6e f5 be 05 36 db 3c
       0.014702426 0.10543197 -0.47936198 0.026759157
0002f0 06 b1 39 be b3 4a 0b bd e8 9d 0a bb dc 13 39 3e
       -0.18133935 -0.034006786 -0.0021151248 0.18073982
000300 4d 19 dc be 11 a7 55 3d 2c 0f 1c bd 8e 01 91 bb
       -0.42988053 0.05216128 -0.038100407 -0.004425234
000310 62 a1 4a bd 9e 45 d9 3d 98 8e 28 be 3f ea ab 3d
       -0.049470313 0.106089815 -0.16460645 0.08394288
000320 12 54 22 bd f1 c0 72 be 42 ef b4 3e fa a8 b1 3d
       -0.039630957 -0.23706414 0.3533879 0.08674808
000330 b4 c0 0e bf 4a 5c 69 bd e5 ab 50 3d 27 27 49 3d
       -0.5576279 -0.05697278 0.05094518 0.049109604
000340 33 1b 6d bd 2d 7c 0b 3e 95 0f 5e be ee ac 60 3e
       -0.057887267 0.13621588 -0.21685632 0.21940967
000350 ff 8e d9 bd 17 d2 9a be 19 92 c8 be c7 f4 08 bd
       -0.106229775 -0.3023841 -0.39173964 -0.033436563
000360 28 ec 34 3d 7e 79 34 3b a9 33 d7 3b 78 ca 99 3c
       0.04417053 0.0027538235 0.0065674377 0.018773302
000370 86 9d bc 3d 43 cc 2d be 1f b9 0f 3e 6b fd 86 bd
       0.09209733 -0.16972451 0.14035462 -0.065913044
000380 a3 59 37 bd 2e 15 01 be 4b 78 b1 be 58 31 54 be
       -0.04476322 -0.12605736 -0.3466209 -0.20721948
000390 71 ec 50 3d 4b 5b 13 3e fc bc 81 be 1d 8d 20 3e
       0.051006738 0.14390294 -0.25339496 0.1567883
0003a0 10 5d 0a bd fe d2 cf 3b c1 f2 09 3e 06 24 db bd
       -0.033780158 0.006342291 0.1347151 -0.1070023
0003b0 47 08 79 be 07 55 e9 bd 07 9c f0 3d d9 1b 77 3d
       -0.24319564 -0.11393171 0.1174851 0.060329292
0003c0 d7 58 98 be 4e 9f ad 3d 07 ff 20 3d 70 42 be 3d
       -0.2975528 0.084776506 0.039305713 0.09290016
0003d0 0e 5b 4c 3c cd b3 26 3e d3 d9 b0 bd e6 8a ef be
       0.012472881 0.16279526 -0.08635297 -0.4678566
0003e0 40 00 94 3d 74 41 53 3d 8a 0b 85 3d b1 c4 2b 3a
       0.0722661 0.051576093 0.064963415 0.00065524416
0003f0 33 dc 10 3e d2 b3 c2 3d 2c fe e3 3d 78 e8 c5 bd
       0.141465 0.09506954 0.11132464 -0.096634805

action_model._discrete_distribution.branches.0.bias f4 [7]
000000 90 44 14 be 9c 03 17 3e d6 65 f4 bd a0 14 b6 bc
       -0.1447928 0.1474747 -0.11933486 -0.022226632
000010 ad 89 c6 3d 7b 6c 90 3d 39 4c da 3c
       0.09694228 0.07051941 0.026647674
