Source/Trained_Policies/WeightAgent_Training_onlyGoal/WeightAgent_Training_onlyGoal/WeightAgent_Training_onlyGoal-9885.onnx (onnx, 153776 bytes, 6 tensors)

network_body._body_endoder.seq_layers.0.weight f4 [128, 159]
-0.051457968 0.04099504 -0.011883225 -0.16644272 -0.09731655 -0.023925649 -0.13422434 -0.07430685
0.020180287 0.055289954 -0.027532114 0.052549023 -0.12098038 -0.03131878 0.033926386 -0.006963307
0.0977582 -0.117896 -0.005050417 0.039222997 -0.08766064 0.017963769 0.10029133 0.13508396
-0.09542971 -0.008895411 -0.124476016 0.13019243 0.13026372 -0.03234636 -0.07830626 0.00631604
-0.09694085 -0.04408617 0.030852295 -0.07623317 -0.02468738 -0.098728225 0.04898254 0.034938592
-0.025545709 0.041316945 0.047228824 0.00549964 -0.09816316 -0.0035396407 -0.14059207 -0.028577907
-0.07914696 0.052557725 -0.16129401 -0.17543824 -0.03012903 -0.013985346 -0.02726737 -0.09561384
-0.035980333 -0.016034784 0.062545285 0.06687578 -0.10431679 -0.20920691 -0.06358464 0.041687567
-0.019682275 0.07676651 0.26217028 -0.041670345 -0.00918994 -0.08566774 -0.05781014 -0.08542568
-0.062867396 0.055555176 0.14717293 -0.055037823 -0.018333599 0.05867157 -0.048057403 0.09985053
-0.117324695 -0.09447325 0.17865115 -0.014688098 -0.085522495 0.09551622 -0.0521181 0.09079704
-0.14802065 -0.047785617 -0.0101194605 0.09576819 -0.08337109 0.02734471 -0.045586072 -0.021282071
-0.014051683 0.07347812 0.10876855 -0.18165407 -0.050338063 -0.08820056 0.027474921 -0.034021717
-0.0015108493 0.018213846 0.085809715 0.017781774 0.006159379 -0.12475681 0.043682236 -0.0037933819
0.05934753 -0.073783785 0.048645478 -0.13233948 -0.104643546 -0.06054446 -0.08022118 0.029555168
0.10999133 0.057886027 0.09927758 -0.122887366 -0.0643226 0.06667089 -0.09526899 -0.050823033
0.08960626 0.015035511 -0.10626398 -0.030124296 0.057612434 0.025177438 0.06780123 -0.10280368
0.043967742 0.13627948 0.08366636 0.0516601 -0.19324414 -0.037023332 -0.1287264 0.09882963
-0.05747445 0.13652222 -0.021500941 0.16520269 0.12416085 -0.023076043 0.011221194 -0.057673786
-0.12081514 -0.08073058 0.11827522 0.14066291 0.059606273 0.022363693 -0.023769496 0.012408294
-0.022364456 0.034703504 -0.022004763 -0.048838515 0.0016637325 0.06599732 -0.02870996 -0.06022667
-0.0942096 -0.024283366 0.01975257 -0.20225991 0.0014973413 0.045624517 0.01718667 0.0028620886
0.04971925 0.031186113 0.042305205 0.075754605 0.045352876 0.07914581 0.08035065 0.07087453
0.0012344196 0.013064573 0.060083024 -0.10166092 0.009857632 -0.027938163 0.019095702 0.008691504
0.044426598 -0.0570331 0.018755976 0.015542008 0.066554494 -0.008595665 -0.11165609 -0.04686899
-0.12649563 0.10474342 -0.07313567 -0.14867578 0.16289374 0.038639113 -0.05672129 0.08269755
0.010362037 0.04098766 -0.07942966 0.21680556 -0.050657645 0.046699096 -0.17544846 0.10854643
0.012438055 -0.055563204 0.11383554 0.008033555 0.049609896 -0.033300374 0.14403409 -0.01622501
-0.068127275 0.007981145 0.013423437 -0.04791985 -0.0035900997 -0.06191936 -0.10243346 0.050905418
-0.008468431 -0.004846013 0.12156897 -0.025363658 0.06315334 -0.048131086 0.078131266 0.18097274
-0.07653911 0.00035043445 0.02945803 0.1254685 -0.06616706 0.045595903 0.07138434 0.017597077
-0.14397526 0.079521395 -0.03201042 0.086311795 0.039327867 0.028300095 0.033754956 0.0067969305
00000000: 97c5 52bd 6aea 273d dcb1 42bc f66f 2abe
00000010: e64d c7bd b9ff c3bc 1b72 09be 312e 98bd
00000020: 2151 a53c b877 623d 078b e1bc a53d 573d
00000030: 90c4 f7bd 1f48 00bd 65f6 0a3d 742c e4bb
00000040: 7335 c83d 7573 f1bd f87d a5bb 4ba8 203d
00000050: 6c87 b3bd c128 933c 8a65 cd3d 7353 0a3e
00000060: a770 c3bd 0fbe 11bc 48ed febd 2a51 053e
00000070: da63 053e 9e7d 04bd 085f a0bd c9f6 ce3b
00000080: ed88 c6bd b393 34bd f4bd fc3c 2320 9cbd
00000090: 303d cabc 0632 cabd eaa1 483d c51b 0f3d
000000a0: 3c45 d1bc f53b 293d 0373 413d 5336 b43b
000000b0: c409 c9bd 51f9 67bb 5ef7 0fbe 371c eabc
000000c0: cd17 a2bd c546 573d 422a 25be 15a6 33be
000000d0: 28d1 f6bc cb22 65bc d25f dfbc 30d1 c3bd
000000e0: 1d60 13bd 615b 83bc be17 803d 2bf6 883d
000000f0: 0ba4 d5bd 563a 56be aa38 82bd 95c0 2a3d
00000100: b93c a1bc c337 9d3d 2f3b 863e 86ae 2abd
00000110: 6791 16bc 9172 afbd 53ca 6cbd a9f3 aebd
00000120: 9fc0 80bd d38d 633d 80b4 163e 576f 61bd
00000130: 5830 96bc 9a51 703d d7d7 44bd 6f7e cc3d
00000140: ee47 f0bd 317b c1bd 54f0 363e 59a6 70bc
00000150: 6b26 afbd 029e c33d ca79 55bd ccf3 b93d
00000160: ba92 17be daba 43bd 18cc 25bc 1d22 c43d
00000170: 76be aabd 0302 e03c 76b8 3abd bd57 aebc
00000180: 0839 66bc b27b 963d 0cc2 de3d 8603 3abe
00000190: 492f 4ebd 7fa2 b4bd 1613 e13c 5b5a 0bbd
000001a0: b107 c6ba 3435 953c 01bd af3d 15ab 913c
000001b0: 9ed4 c93b 8080 ffbd 25ec 323d 639a 78bb
000001c0: 6516 733d f41b 97bd 7b40 473d 0084 07be
000001d0: 5b4f d6bd 78fd 77bd 014b a4bd ae1d f23c
000001e0: 2243 e13d e619 6d3d 0b52 cb3d 5fac fbbd
000001f0: 91bb 83bd bf8a 883d 631c c3bd d02b 50bd
00000200: 7d83 b73d 8157 763c eea0 d9bd 3ac7 f6bc
00000210: 04fb 6b3d ea40 ce3c 5fdb 8a3d bc8a d2bd
00000220: 8517 343d d98c 0b3e 4559 ab3d 8b99 533d
00000230: cbe1 45be c7a5 17bd dad0 03be 3067 ca3d
00000240: 546a 6bbd 7bcc 0b3e be22 b0bc e52a 293e
00000250: 0b48 fe3d f809 bdbc 19d9 373c 593b 6cbd
00000260: ee6d f7bd 1356 a5bd 473a f23d f009 103e
00000270: b525 743d 1034 b73c 3fb8 c2bc 284c 4b3c
00000280: aa35 b7bc 4325 0e3d 5543 b4bc e50a 48bd
00000290: 9911 da3a 9a29 873d 2631 ebbc 3eb0 76bd
000002a0: f6f0 c0bd e9ed c6bc 24d0 a13c 391d 4fbe
000002b0: 7042 c43a c6e0 3a3d 0fcb 8c3c e191 3b3b
000002c0: 6aa6 4b3d 057a ff3c 3948 2d3d 3b25 9b3d
000002d0: f0c3 393d 3317 a23d e28e a43d aa26 913d
000002e0: 40cc a13a ca0c 563c 9e19 763d 9a33 d0bd
000002f0: e881 213c 93de e4bc 976e 9c3c cf66 0e3c
00000300: aaf8 353d 8a9b 69bd 22a6 993c e8a3 7e3c
00000310: b94d 883d d5d4 0cbc f3ab e4bd b3f9 3fbd
00000320: 1288 01be b883 d63d 27c8 95bd 773e 18be
00000330: 9ecd 263e 0c44 1e3d 9554 68bd 555d a93d
00000340: 89c5 293c ade2 273d 05ac a2bd 4702 5e3e
00000350: 647e 4fbd 8d47 3f3d c3a8 33be 974d de3d
00000360: fcc8 4b3c 3e96 63bd 9c22 e93d 2c9f 033c
00000370: bf33 4b3d f965 08bd ac7d 133e 50ea 84bc
00000380: 5086 8bbd 59c3 023c faed 5b3c 9b47 44bd
00000390: e147 6bbb 289f 7dbd a2c8 d1bd 3382 503d
000003a0: 2dbf 0abc 4ecb 9ebb 27f9 f83d 72c7 cfbc
000003b0: 8a56 813d 1a25 45bd 4903 a03d eb50 393e
000003c0: 89c0 9cbd 84ba b739 f751 f13c d17a 003e
000003d0: 9882 87bd c5c2 3a3d f431 923d bf27 903c
000003e0: 406e 13be 1ddc a23d 5c1d 03bd 3dc4 b03d
000003f0: 4216 213d 9ad5 e73c a342 0a3d c9b8 de3b

network_body._body_endoder.seq_layers.0.bias f4 [128]
0.0 0.0 0.0 0.0 0.0 0.0 0.0 0.0
0.0 0.0 0.0 0.0 0.0 0.0 0.0 0.0
0.0 0.0 0.0 0.0 0.0 0.0 0.0 0.0
0.0 0.0 0.0 0.0 0.0 0.0 0.0 0.0
0.0 0.0 0.0 0.0 0.0 0.0 0.0 0.0
0.0 0.0 0.0 0.0 0.0 0.0 0.0 0.0
0.0 0.0 0.0 0.0 0.0 0.0 0.0 0.0
0.0 0.0 0.0 0.0 0.0 0.0 0.0 0.0
0.0 0.0 0.0 0.0 0.0 0.0 0.0 0.0
0.0 0.0 0.0 0.0 0.0 0.0 0.0 0.0
0.0 0.0 0.0 0.0 0.0 0.0 0.0 0.0
0.0 0.0 0.0 0.0 0.0 0.0 0.0 0.0
0.0 0.0 0.0 0.0 0.0 0.0 0.0 0.0
0.0 0.0 0.0 0.0 0.0 0.0 0.0 0.0
0.0 0.0 0.0 0.0 0.0 0.0 0.0 0.0
0.0 0.0 0.0 0.0 0.0 0.0 0.0 0.0
00000000: 0000 0000 0000 0000 0000 0000 0000 0000
00000010: 0000 0000 0000 0000 0000 0000 0000 0000
00000020: 0000 0000 0000 0000 0000 0000 0000 0000
00000030: 0000 0000 0000 0000 0000 0000 0000 0000
00000040: 0000 0000 0000 0000 0000 0000 0000 0000
00000050: 0000 0000 0000 0000 0000 0000 0000 0000
00000060: 0000 0000 0000 0000 0000 0000 0000 0000
00000070: 0000 0000 0000 0000 0000 0000 0000 0000
00000080: 0000 0000 0000 0000 0000 0000 0000 0000
00000090: 0000 0000 0000 0000 0000 0000 0000 0000
000000a0: 0000 0000 0000 0000 0000 0000 0000 0000
000000b0: 0000 0000 0000 0000 0000 0000 0000 0000
000000c0: 0000 0000 0000 0000 0000 0000 0000 0000
000000d0: 0000 0000 0000 0000 0000 0000 0000 0000
000000e0: 0000 0000 0000 0000 0000 0000 0000 0000
000000f0: 0000 0000 0000 0000 0000 0000 0000 0000
00000100: 0000 0000 0000 0000 0000 0000 0000 0000
00000110: 0000 0000 0000 0000 0000 0000 0000 0000
00000120: 0000 0000 0000 0000 0000 0000 0000 0000
00000130: 0000 0000 0000 0000 0000 0000 0000 0000
00000140: 0000 0000 0000 0000 0000 0000 0000 0000
00000150: 0000 0000 0000 0000 0000 0000 0000 0000
00000160: 0000 0000 0000 0000 0000 0000 0000 0000
00000170: 0000 0000 0000 0000 0000 0000 0000 0000
00000180: 0000 0000 0000 0000 0000 0000 0000 0000
00000190: 0000 0000 0000 0000 0000 0000 0000 0000
000001a0: 0000 0000 0000 0000 0000 0000 0000 0000
000001b0: 0000 0000 0000 0000 0000 0000 0000 0000
000001c0: 0000 0000 0000 0000 0000 0000 0000 0000
000001d0: 0000 0000 0000 0000 0000 0000 0000 0000
000001e0: 0000 0000 0000 0000 0000 0000 0000 0000
000001f0: 0000 0000 0000 0000 0000 0000 0000 0000

network_body._body_endoder.seq_layers.2.weight f4 [128, 128]
-0.11117892 0.03278168 -0.027911766 0.002464855 -0.0737603 0.0057007647 0.11140824 -0.11369015
0.135385 -0.0024536771 -0.21827863 -0.032909647 -0.013316082 -0.006862866 -0.1517962 -0.15054095
0.08420272 -0.06325455 0.00898818 -0.0150379045 -0.05628815 -0.08618357 0.05765031 -0.0324841
0.014103506 -0.025422871 0.07541081 -0.07310209 -0.07088669 0.062474266 -0.07554497 0.10396006
0.17650755 -0.052852947 0.06733288 -0.09421977 0.055433173 0.16860572 0.15665787 0.017974893
0.07121018 -0.13823768 0.06972861 -0.14306669 -0.05431077 0.030104393 0.015021522 -0.032630336
-0.011254895 -0.008420972 0.07183715 -0.06368639 0.024098435 -0.033533465 0.00041061168 -0.058464196
0.14289077 -0.0070206467 0.08631771 -0.24627393 -0.0670024 -0.16200198 0.0037483128 0.12491421
-0.16109654 0.0041591986 -0.002479461 0.025548356 -0.019894455 -0.068958305 -0.065398365 0.03586055
-0.24904825 0.07663884 -0.06153934 0.094820395 -0.08157639 0.06719666 -0.16297074 0.084728435
0.09075082 -0.066923864 0.13002475 -0.026041545 0.04220356 -0.04513031 -0.05385321 0.10026811
-0.019925611 0.03970645 0.17279682 -0.008386982 -0.06944288 -0.06644754 0.124370225 0.035629872
0.03940689 0.09573264 -0.2274464 -0.0089724995 0.020138541 -0.038944047 0.014904341 -0.08915611
-0.014735117 -0.060890194 0.021010319 0.054720238 -0.10816215 -0.05916389 -0.026007932 -0.058596488
-0.06867529 0.1627962 0.16320643 0.1008973 -0.07662101 -0.064460754 -0.01597635 -0.04034038
-0.14048007 0.06064145 -0.30295336 0.03775453 0.11793128 -0.023696914 0.06264637 0.063771665
0.006939482 -0.045471955 0.013700487 0.071511924 -0.0067420355 -0.05174088 -0.020031774 0.024103532
-0.0656448 -0.035852797 -0.111710735 0.014763286 0.020478448 -0.09056793 -0.113078296 0.024015756
-0.039687768 -0.1281575 -0.0114121195 -0.05836262 -0.028098019 -0.04589528 0.15137982 -0.046732593
-0.03680957 0.0029017245 -0.21720459 -0.05078293 -0.058780864 -0.14316592 -0.25864336 0.010993519
0.09061182 0.05677215 -0.15894318 0.0036968933 0.03526693 -0.07851946 0.06121601 0.12574664
0.13496529 -0.033465765 0.0012587329 0.008162198 -0.034717306 -0.16848016 0.08474564 -0.024990734
-0.009824582 -0.124777175 -0.0042415233 -0.03401031 0.14409074 0.107418805 0.060926646 -0.17381299
0.2676601 -0.06533722 -0.13392398 0.009456238 0.18941307 0.01756649 -0.0030490782 -0.12161334
0.06482977 0.0444526 -0.020028422 -0.0074643656 -0.018692348 0.09002369 -0.044773214 0.12840141
0.042016238 0.044364724 0.06774304 -0.089233465 -0.024538219 -0.05610387 -0.034306716 0.14867936
-0.044264227 0.07220705 -0.11609405 -0.0331777 0.11127292 -0.15829286 0.064589076 0.07882953
0.08808475 0.07675969 -0.04041996 -0.013519912 -0.08384409 -0.052096535 -0.0493791 0.14349851
-0.043047786 0.037226092 -0.035798337 -0.10015973 -0.14230393 0.016763609 -0.11733537 0.06717787
-0.04248436 -0.13893898 -0.08831077 -0.009961703 0.09920415 -0.019785704 -0.02904529 0.007917995
0.15733764 -0.05934063 -0.039250847 0.05946635 0.18975098 -0.0154823875 0.12624943 0.12660548
0.08686514 -0.037890825 0.12047838 -0.04568151 0.11610746 0.013020639 0.06482234 -0.18010677
00000000: c6b1 e3bd 1546 063d 37a7 e4bc 6889 213b
00000010: a40f 97bd 7bcd ba3b 012a e43d 62d6 e8bd
00000020: 5ea2 0a3e dfcd 20bb 6f84 5fbe 44cc 06bd
00000030: b22b 5abc e5e1 e0bb 7770 1bbe 6827 1abe
00000040: 7a72 ac3d 9a8b 81bd 2943 133c 8b61 76bc
00000050: 678e 66bd 0381 b0bd bb22 6c3d 0c0e 05bd
00000060: 6412 673c a043 d0bc fc70 9a3d 8cb6 95bd
00000070: 0a2d 91bd 04e5 7f3d 52b7 9abd 03e9 d43d
00000080: 65be 343e 557c 58bd d2e5 893d 4bf6 c0bd
00000090: e50d 633d faa6 2c3e ec6a 203e 1540 933c
000000a0: a5d6 913d 2e8e 0dbe e0cd 8e3d 1380 12be
000000b0: f874 5ebd 7d9d f63c d41c 763c 63a7 05bd
000000c0: 7366 38bc 1ef8 09bc 5b1f 933d 036e 82bd
000000d0: 156a c53c 635a 09bd 5e47 d739 2778 6fbd
000000e0: f551 123e 740d e6bb 57c7 b03d 3c2f 7cbe
000000f0: 8e38 89bd d9e3 25be 41a6 753b 05d3 ff3d
00000100: 7ef6 24be e349 883b 747e 22bb c94a d13c
00000110: b2f9 a2bc 033a 8dbd 94ef 85bd 83e2 123d
00000120: 8106 7fbe d3f4 9c3d ad10 7cbd 3231 c23d
00000130: 8611 a7bd 679e 893d cde1 26be 1a86 ad3d
00000140: 91db b93d 610f 89bd 3525 053e 1455 d5bc
00000150: a4dd 2c3d 8fda 38bd 2f95 5cbd 5e59 cd3d
00000160: 093b a3bc 3ba3 223d a6f1 303e 8d69 09bc
00000170: 1238 8ebd a615 88bd d1b5 fe3d a1f0 113d
00000180: 1e69 213d 790f c43d b6e7 68be 6401 13bc
00000190: 95f9 a43c cb83 1fbd 5631 743c 7b97 b6bd
000001a0: 8f6b 71bc ff67 79bd d51d ac3c 5422 603d
000001b0: 1e84 ddbd d655 72bd 960e d5bc df02 70bd
000001c0: a1a5 8cbd 0cb4 263e 961f 273e 3ea3 ce3d
000001d0: 7aeb 9cbd 0004 84bd d6e0 82bc f43b 25bd
000001e0: 02da 0fbe 2b63 783d b41c 9bbe 7ea4 1a3d
000001f0: f485 f13d 0820 c2bc bd4c 803d b89a 823d
00000200: 9864 e33b cd40 3abd 0278 603c d874 923d
00000210: 4bec dcbb 3fee 53bd ad19 a4bc c574 c53c
00000220: c870 86bd 62da 12bd 99c8 e4bd b6e1 713c
00000230: 6bc2 a73c ae7b b9bd 9895 e7bd b1bc c43c
00000240: a48f 22bd b83b 03be e6f9 3abc a50d 6fbd
00000250: d12d e6bc b0fc 3bbd 5003 1b3e ad6a 3fbd
00000260: a2c5 16bd dc2a 3e3b e16a 5ebe c301 50bd
00000270: 34c4 70bd 169a 12be e76c 84be 291e 343c
00000280: b192 b93d ea89 683d 00c2 22be 9447 723b
00000290: 0e74 103d d0ce a0bd a4bd 7a3d bac3 003e
000002a0: 5734 0a3e 6613 09bd 11fc a43a bdba 053c
000002b0: bc33 0ebd 1086 2cbe 1f8f ad3d 5eb9 ccbc
000002c0: 49f7 20bc 2d8b ffbd 7afc 8abb 654e 0bbd
000002d0: 868c 133e 64fe db3d 388e 793d 08fc 31be
000002e0: bf0a 893e 85cf 85bd 5e23 09be 56ee 1a3c
000002f0: 80f5 413e 9ae7 8f3c 0bd3 47bb 6a10 f9bd
00000300: 78c5 843d ee13 363d a512 a4bc a397 f4bb
00000310: b220 99bc 575e b83d 1e64 37bd a97b 033e
00000320: 3819 2c3d c9b7 353d ddbc 8a3d 09c0 b6bd
00000330: 6004 c9bc 2ccd 65bd 3385 0cbd 673f 183e
00000340: 684e 35bd 4ae1 933d b8c2 edbd 57e5 07bd
00000350: 0fe3 e33d 8617 22be 4747 843d 6071 a13d
00000360: c765 b43d 2f34 9d3d 668f 25bd 9f82 5dbc
00000370: 73b6 abbd 2d63 55bd bd41 4abd 46f1 123e
00000380: e052 30bd 637a 183d 47a1 12bd 8b20 cdbd
00000390: 1fb8 11be d653 893c 874d f0bd 8d94 893d
000003a0: 1504 2ebd 0546 0ebe 47dc b4bd 6936 23bc
000003b0: 8c2b cb3d a115 a2bc 63f0 edbc 7aba 013c
000003c0: 1e1d 213e 290f 73bd 7fc5 20bd fd92 733d
000003d0: 154e 423e d7a9 7dbc 8847 013e dea4 013e
000003e0: 5ae6 b13d 6933 1bbd 5ebd f63d 891c 3bbd
000003f0: bfc9 ed3d 8554 553c 93c1 843d e96d 38be

network_body._body_endoder.seq_layers.2.bias f4 [128]
0.0 0.0 0.0 0.0 0.0 0.0 0.0 0.0
0.0 0.0 0.0 0.0 0.0 0.0 0.0 0.0
0.0 0.0 0.0 0.0 0.0 0.0 0.0 0.0
0.0 0.0 0.0 0.0 0.0 0.0 0.0 0.0
0.0 0.0 0.0 0.0 0.0 0.0 0.0 0.0
0.0 0.0 0.0 0.0 0.0 0.0 0.0 0.0
0.0 0.0 0.0 0.0 0.0 0.0 0.0 0.0
0.0 0.0 0.0 0.0 0.0 0.0 0.0 0.0
0.0 0.0 0.0 0.0 0.0 0.0 0.0 0.0
0.0 0.0 0.0 0.0 0.0 0.0 0.0 0.0
0.0 0.0 0.0 0.0 0.0 0.0 0.0 0.0
0.0 0.0 0.0 0.0 0.0 0.0 0.0 0.0
0.0 0.0 0.0 0.0 0.0 0.0 0.0 0.0
0.0 0.0 0.0 0.0 0.0 0.0 0.0 0.0
0.0 0.0 0.0 0.0 0.0 0.0 0.0 0.0
0.0 0.0 0.0 0.0 0.0 0.0 0.0 0.0
00000000: 0000 0000 0000 0000 0000 0000 0000 0000
00000010: 0000 0000 0000 0000 0000 0000 0000 0000
00000020: 0000 0000 0000 0000 0000 0000 0000 0000
00000030: 0000 0000 0000 0000 0000 0000 0000 0000
00000040: 0000 0000 0000 0000 0000 0000 0000 0000
00000050: 0000 0000 0000 0000 0000 0000 0000 0000
00000060: 0000 0000 0000 0000 0000 0000 0000 0000
00000070: 0000 0000 0000 0000 0000 0000 0000 0000
00000080: 0000 0000 0000 0000 0000 0000 0000 0000
00000090: 0000 0000 0000 0000 0000 0000 0000 0000
000000a0: 0000 0000 0000 0000 0000 0000 0000 0000
000000b0: 0000 0000 0000 0000 0000 0000 0000 0000
000000c0: 0000 0000 0000 0000 0000 0000 0000 0000
000000d0: 0000 0000 0000 0000 0000 0000 0000 0000
000000e0: 0000 0000 0000 0000 0000 0000 0000 0000
000000f0: 0000 0000 0000 0000 0000 0000 0000 0000
00000100: 0000 0000 0000 0000 0000 0000 0000 0000
00000110: 0000 0000 0000 0000 0000 0000 0000 0000
00000120: 0000 0000 0000 0000 0000 0000 0000 0000
00000130: 0000 0000 0000 0000 0000 0000 0000 0000
00000140: 0000 0000 0000 0000 0000 0000 0000 0000
00000150: 0000 0000 0000 0000 0000 0000 0000 0000
00000160: 0000 0000 0000 0000 0000 0000 0000 0000
00000170: 0000 0000 0000 0000 0000 0000 0000 0000
00000180: 0000 0000 0000 0000 0000 0000 0000 0000
00000190: 0000 0000 0000 0000 0000 0000 0000 0000
000001a0: 0000 0000 0000 0000 0000 0000 0000 0000
000001b0: 0000 0000 0000 0000 0000 0000 0000 0000
000001c0: 0000 0000 0000 0000 0000 0000 0000 0000
000001d0: 0000 0000 0000 0000 0000 0000 0000 0000
000001e0: 0000 0000 0000 0000 0000 0000 0000 0000
000001f0: 0000 0000 0000 0000 0000 0000 0000 0000

action_model._discrete_distribution.branches.0.weight f4 [7, 128]
-0.010183714 0.00069215643 -0.0026084182 -0.0019287713 -0.0017514359 0.008437692 0.0054645697 -0.006069332
0.018115867 -0.002612778 -0.006594706 0.006426072 0.0046070595 -0.015411556 -0.0072503025 -0.004487564
-0.017204918 0.0089000445 -0.00228669 0.00075670285 -0.016494801 0.0006670872 0.012922685 -0.012911237
0.018089881 -0.0037594715 -0.005174042 0.008471565 -0.004892385 0.0033461943 -0.0037086837 0.00835974
0.009657723 0.0057866615 0.014064418 -0.006001949 -0.010626692 -0.0011915119 -0.0064332457 -0.00972845
0.00047401842 -0.0092959935 -0.00940324 0.009137527 0.005877742 0.0040660747 -0.00408306 0.0011847779
-0.00058805704 -0.0013096282 0.0034243453 0.00010091227 0.0075569935 -0.00017123877 -0.0006057628 0.00790096
0.0107666515 -0.0022488362 -0.007318654 0.0049534338 0.0037851182 -0.005889123 0.00039653486 -0.009696135
-0.00732132 -0.0005489425 0.00543115 0.002353038 -0.0070057805 0.013362077 -0.0025428503 0.0064544976
0.0059279436 -0.0039912025 -0.0009934022 -0.006409585 0.011987126 0.004271879 -0.0028227181 0.00294538
0.0071483254 -0.0014286658 0.012024066 0.01116534 -0.010273321 0.005272055 0.0007734364 -0.0008848544
-0.0036689353 0.0069163516 -0.0016930003 0.006503798 0.0072384994 -0.008539736 -0.0016428219 0.0036502734
-0.021848774 -0.009546415 0.0016268805 -0.012912661 -0.002080456 0.009051861 0.0018192142 -0.005368961
0.0024881498 0.0031008448 0.010179554 -0.008433057 0.0051667443 -0.0032306674 0.014601111 -0.0031214056
-0.013796429 0.00985255 -0.004040936 -0.017322967 -0.008573453 -0.015008156 0.005606202 -0.0015489022
0.004535194 -0.013967002 0.005201276 0.001714403 -0.0033266288 -0.021604123 -0.0030831639 -0.006067611
0.0017744843 0.004927018 -0.0042472454 0.014604047 -0.004252951 -0.0005400931 0.005374677 -0.003577938
-0.00042195778 -0.007832659 0.0037482206 0.005207077 -0.009936853 0.007347782 -0.0069649625 -0.008986618
0.0022588845 -0.00152341 0.0037254298 0.008568735 0.0068718134 0.0038754493 0.020291468 1.736725e-05
0.017835496 -0.008830716 0.009194828 -0.0103806015 -0.0034480647 0.001975137 0.016068896 -0.018102039
0.0104856 0.0013846003 -0.014984006 -0.0009553968 -0.0036620565 0.0063617877 -0.027441293 -0.0025060407
-0.0008890005 -0.013587042 -0.0009060587 0.0032931443 0.01571524 -0.007254362 0.0021542965 0.011916207
0.0027894978 -0.006768649 -0.008536973 0.0014737447 0.0070382343 -0.0068606497 -0.0024105057 -0.0011881872
-0.0020793364 -0.016855476 0.0009070009 0.005234578 -0.0027894995 0.003872851 0.0041394825 -0.0064935223
-0.009544649 -0.007790739 0.0030113999 0.0019545886 -0.0005811398 -0.0077095428 -0.009868144 -0.002550961
-0.0011194111 0.010030965 0.0077513456 -0.0071097924 0.0062361765 0.0022913897 0.0008646346 -0.005072684
-0.013352836 0.010745753 0.0005356934 0.0009837364 0.0030460514 0.018894551 -0.008758254 -0.007614719
-0.016823567 -0.012071032 0.007880328 -0.005998863 0.005155414 0.0114463465 -0.0030549106 0.008859697
0.002554043 0.00032294422 0.009926072 0.015492014 0.02720802 0.0009940177 0.0059331628 0.0018363374
-0.0063854405 -0.009591646 0.0066841007 0.0038094514 0.0039719264 0.014533386 0.01879278 0.004495875
-0.0054178573 -0.001574629 -0.0010701095 0.008597421 -0.01073055 -0.0036801428 0.011686107 0.0040046438
0.00789751 -0.0026364715 -0.0010341469 0.0055912747 0.006805669 0.0074045807 -0.009003337 -0.012993257
00000000: 98d9 26bc d571 353a fff1 2abb d3ce fcba
00000010: 7090 e5ba 3f3e 0a3c 2210 b33b 3fe1 c6bb
00000020: ba67 943c 243b 2bbb 6718 d8bb cd91 d23b
00000030: d1f6 963b c080 7cbc f293 edbb 6a0c 93bb
00000040: 54f1 8cbc 7ed1 113c 4bdc 15bb 785d 463a
00000050: 1b20 87bc 77df 2e3a abb9 533c a789 53bc
00000060: 3b31 943c 7761 76bb 038b a9bb 52cc 0a3c
00000070: 4d50 a0bb d34b 5b3b 630d 73bb 4af7 083c
00000080: 6d3b 1e3c 099e bd3b 726e 663c ffab c4bb
00000090: 941b 2ebc 812c 9cba facd d2bb 1464 1fbc
000000a0: ad85 f839 394e 18bc 0c10 1abc 91b5 153c
000000b0: 139a c03b b53c 853b 31cb 85bb 8d4a 9b3a
000000c0: d727 1aba d5a7 abba fb6a 603b dda0 d338
000000d0: a8a0 f73b 8f8e 33b9 0ecc 1eba 0773 013c
000000e0: 9c66 303c 3661 13bb 52d1 efbb 6a50 a23b
000000f0: bf0f 783b 8bf9 c0bb 02e6 cf39 8adc 1ebc
00000100: afe7 efbb e8e6 0fba caf7 b13b 6d35 1a3b
00000110: bf90 e5bb 9dec 5a3c f3a5 26bb 4080 d33b
00000120: 323f c23b a2c8 82bb 0c35 82ba 7f07 d2bb
00000130: a765 443c 1efb 8b3b 5afd 38bb 4707 413b
00000140: 803c ea3b 1242 bbba 9700 453c d5ee 363c
00000150: 6e51 28bc 34c1 ac3b 70c0 4a3a 93f5 67ba
00000160: 8572 70bb 90a2 e23b aae7 ddba d01d d53b
00000170: ef30 ed3b 40ea 0bbc f553 d7ba 6d39 6f3b
00000180: 33fc b2bc 9168 1cbc 0d3d d53a a08f 53bc
00000190: 4258 08bb 424e 143c b372 ee3a 1cee afbb
000001a0: 3a10 233b 8b37 4b3b 25c8 263c ce2a 0abc
000001b0: cb4d a93b 9bb9 53bb 8039 6f3c 7f90 4cbb
000001c0: 6b0a 62bc 976c 213c d469 84bb e5e8 8dbc
000001d0: ab77 0cbc c5e4 75bc 3bb4 b73b 8904 cbba
000001e0: f79b 943b dad5 64bc 776f aa3b d2b5 e03a
000001f0: 9203 5abb 21fb b0bc e80e 4abb cfd2 c6bb
00000200: d095 e83a d372 a13b 7a2c 8bbb d045 6f3c
00000210: 575c 8bbb 0995 0dba 0f1e b03b d77b 6abb
00000220: 373a ddb9 8e54 00bc b5a4 753b 21a0 aa3b
00000230: 2fce 22bc aac5 f03b 573a e4bb 9c3c 13bc
00000240: cb09 143b 28ad c7ba 5726 743b e163 0c3c
00000250: f32c e13b 40fb 7d3b 4b3a a63c e3af 9137
00000260: bf1b 923c b5ae 10bc e7a5 163c 6613 2abc
00000270: edf8 61bb 4d71 013b eba2 833c ba4a 94bc
00000280: cbcb 2b3c 7a7b b53a 7a7f 75bc 9873 7aba
00000290: 1dff 6fbb 8b76 d03b 90cc e0bc 633c 24bb
000002a0: d00b 69ba 2f9c 5ebc 9284 6dba cbd1 573b
000002b0: 3fbd 803c 00b6 edbb 192f 0d3b 323c 433c
000002c0: 02d0 363b 8bcb ddbb a9de 0bbc ab2a c13a
000002d0: fda0 e63b 4dcf e0bb 93f9 1dbb f2bc 9bba
000002e0: 7a45 08bb 7f14 8abc cdc3 6d3a d386 ab3b
000002f0: 09d0 36bb a8cf 7d3b 7fa4 873b 9dc7 d4bb
00000300: 2961 1cbc 7549 ffbb e85a 453b 8e18 003b
00000310: a257 18ba 55a0 fcbb ffad 21bc 062e 27bb
00000320: 34b9 92ba eb58 243c 00ff fd3b 43f9 e8bb
00000330: d758 cc3b 242b 163b a5a8 623a c238 a6bb
00000340: dac5 5abc f40e 303c c76d 0c3a b7f0 803a
00000350: 43a0 473b bfc8 9a3c c87e 0fbc e584 f9bb
00000360: 94d1 89bc 94c5 45bc 7e1c 013c 1c92 c4bb
00000370: bfee a83b 7589 3b3c e534 48bb 4328 113c
00000380: bb61 273b d750 a939 f7a0 223c 37d2 7d3c
00000390: 5be3 de3c b349 823a fa6a c23b 42b1 f03a
000003a0: f53c d1bb 4726 1dbc 4d06 db3b fda7 793b
000003b0: ef26 823b 701d 6e3c 51f3 993c 2252 933b
000003c0: 4888 b1bb c863 ceba eb42 8cba 33dc 0c3c
000003d0: 30cf 2fbc 8d2e 71bb 1677 3f3c 6339 833b
000003e0: 8f64 013c a7c8 2cbb 368c 87ba 0337 b73b
000003f0: 1702 df3b 20a2 f23b bb82 13bc abe1 54bc

action_model._discrete_distribution.branches.0.bias f4 [7]
0.0 0.0 0.0 0.0 0.0 0.0 0.0
00000000: 0000 0000 0000 0000 0000 0000 0000 0000
00000010: 0000 0000 0000 0000 0000 0000
