Source/Trained_Policies/WeightAgent_Training_onlyGoal/WeightAgent_Training_onlyGoal/WeightAgent_Training_onlyGoal-9885.pt (torch, 307884 bytes, 11 tensors)

network_body._body_endoder.seq_layers.0.weight f4 [128, 159]
000000 97 c5 52 bd 6a ea 27 3d dc b1 42 bc f6 6f 2a be
       -0.051457968 0.04099504 -0.011883225 -0.16644272
000010 e6 4d c7 bd b9 ff c3 bc 1b 72 09 be 31 2e 98 bd
       -0.09731655 -0.023925649 -0.13422434 -0.07430685
000020 21 51 a5 3c b8 77 62 3d 07 8b e1 bc a5 3d 57 3d
       0.020180287 0.055289954 -0.027532114 0.052549023
000030 90 c4 f7 bd 1f 48 00 bd 65 f6 0a 3d 74 2c e4 bb
       -0.12098038 -0.03131878 0.033926386 -0.006963307
000040 73 35 c8 3d 75 73 f1 bd f8 7d a5 bb 4b a8 20 3d
       0.0977582 -0.117896 -0.005050417 0.039222997
000050 6c 87 b3 bd c1 28 93 3c 8a 65 cd 3d 73 53 0a 3e
       -0.08766064 0.017963769 0.10029133 0.13508396
000060 a7 70 c3 bd 0f be 11 bc 48 ed fe bd 2a 51 05 3e
       -0.09542971 -0.008895411 -0.124476016 0.13019243
000070 da 63 05 3e 9e 7d 04 bd 08 5f a0 bd c9 f6 ce 3b
       0.13026372 -0.03234636 -0.07830626 0.00631604
000080 ed 88 c6 bd b3 93 34 bd f4 bd fc 3c 23 20 9c bd
       -0.09694085 -0.04408617 0.030852295 -0.07623317
000090 30 3d ca bc 06 32 ca bd ea a1 48 3d c5 1b 0f 3d
       -0.02468738 -0.098728225 0.04898254 0.034938592
0000a0 3c 45 d1 bc f5 3b 29 3d 03 73 41 3d 53 36 b4 3b
       -0.025545709 0.041316945 0.047228824 0.00549964
0000b0 c4 09 c9 bd 51 f9 67 bb 5e f7 0f be 37 1c ea bc
       -0.09816316 -0.0035396407 -0.14059207 -0.028577907
0000c0 cd 17 a2 bd c5 46 57 3d 42 2a 25 be 15 a6 33 be
       -0.07914696 0.052557725 -0.16129401 -0.17543824
0000d0 28 d1 f6 bc cb 22 65 bc d2 5f df bc 30 d1 c3 bd
       -0.03012903 -0.013985346 -0.02726737 -0.09561384
0000e0 1d 60 13 bd 61 5b 83 bc be 17 80 3d 2b f6 88 3d
       -0.035980333 -0.016034784 0.062545285 0.06687578
0000f0 0b a4 d5 bd 56 3a 56 be aa 38 82 bd 95 c0 2a 3d
       -0.10431679 -0.20920691 -0.06358464 0.041687567
000100 b9 3c a1 bc c3 37 9d 3d 2f 3b 86 3e 86 ae 2a bd
       -0.019682275 0.07676651 0.26217028 -0.041670345
000110 67 91 16 bc 91 72 af bd 53 ca 6c bd a9 f3 ae bd
       -0.00918994 -0.08566774 -0.05781014 -0.08542568
000120 9f c0 80 bd d3 8d 63 3d 80 b4 16 3e 57 6f 61 bd
       -0.062867396 0.055555176 0.14717293 -0.055037823
000130 58 30 96 bc 9a 51 70 3d d7 d7 44 bd 6f 7e cc 3d
       -0.018333599 0.05867157 -0.048057403 0.09985053
000140 ee 47 f0 bd 31 7b c1 bd 54 f0 36 3e 59 a6 70 bc
       -0.117324695 -0.09447325 0.17865115 -0.014688098
000150 6b 26 af bd 02 9e c3 3d ca 79 55 bd cc f3 b9 3d
       -0.085522495 0.09551622 -0.0521181 0.09079704
000160 ba 92 17 be da ba 43 bd 18 cc 25 bc 1d 22 c4 3d
       -0.14802065 -0.047785617 -0.0101194605 0.09576819
000170 76 be aa bd 03 02 e0 3c 76 b8 3a bd bd 57 ae bc
       -0.08337109 0.02734471 -0.045586072 -0.021282071
000180 08 39 66 bc b2 7b 96 3d 0c c2 de 3d 86 03 3a be
       -0.014051683 0.07347812 0.10876855 -0.18165407
000190 49 2f 4e bd 7f a2 b4 bd 16 13 e1 3c 5b 5a 0b bd
       -0.050338063 -0.08820056 0.027474921 -0.034021717
0001a0 b1 07 c6 ba 34 35 95 3c 01 bd af 3d 15 ab 91 3c
       -0.0015108493 0.018213846 0.085809715 0.017781774
0001b0 9e d4 c9 3b 80 80 ff bd 25 ec 32 3d 63 9a 78 bb
       0.006159379 -0.12475681 0.043682236 -0.0037933819
0001c0 65 16 73 3d f4 1b 97 bd 7b 40 47 3d 00 84 07 be
       0.05934753 -0.073783785 0.048645478 -0.13233948
0001d0 5b 4f d6 bd 78 fd 77 bd 01 4b a4 bd ae 1d f2 3c
       -0.104643546 -0.06054446 -0.08022118 0.029555168
0001e0 22 43 e1 3d e6 19 6d 3d 0b 52 cb 3d 5f ac fb bd
       0.10999133 0.057886027 0.09927758 -0.122887366
0001f0 91 bb 83 bd bf 8a 88 3d 63 1c c3 bd d0 2b 50 bd
       -0.0643226 0.06667089 -0.09526899 -0.050823033
000200 7d 83 b7 3d 81 57 76 3c ee a0 d9 bd 3a c7 f6 bc
       0.08960626 0.015035511 -0.10626398 -0.030124296
000210 04 fb 6b 3d ea 40 ce 3c 5f db 8a 3d bc 8a d2 bd
       0.057612434 0.025177438 0.06780123 -0.10280368
000220 85 17 34 3d d9 8c 0b 3e 45 59 ab 3d 8b 99 53 3d
       0.043967742 0.13627948 0.08366636 0.0516601
000230 cb e1 45 be c7 a5 17 bd da d0 03 be 30 67 ca 3d
       -0.19324414 -0.037023332 -0.1287264 0.09882963
000240 54 6a 6b bd 7b cc 0b 3e be 22 b0 bc e5 2a 29 3e
       -0.05747445 0.13652222 -0.021500941 0.16520269
000250 0b 48 fe 3d f8 09 bd bc 19 d9 37 3c 59 3b 6c bd
       0.12416085 -0.023076043 0.011221194 -0.057673786
000260 ee 6d f7 bd 13 56 a5 bd 47 3a f2 3d f0 09 10 3e
       -0.12081514 -0.08073058 0.11827522 0.14066291
000270 b5 25 74 3d 10 34 b7 3c 3f b8 c2 bc 28 4c 4b 3c
       0.059606273 0.022363693 -0.023769496 0.012408294
000280 aa 35 b7 bc 43 25 0e 3d 55 43 b4 bc e5 0a 48 bd
       -0.022364456 0.034703504 -0.022004763 -0.048838515
000290 99 11 da 3a 9a 29 87 3d 26 31 eb bc 3e b0 76 bd
       0.0016637325 0.06599732 -0.02870996 -0.06022667
0002a0 f6 f0 c0 bd e9 ed c6 bc 24 d0 a1 3c 39 1d 4f be
       -0.0942096 -0.024283366 0.01975257 -0.20225991
0002b0 70 42 c4 3a c6 e0 3a 3d 0f cb 8c 3c e1 91 3b 3b
       0.0014973413 0.045624517 0.01718667 0.0028620886
0002c0 6a a6 4b 3d 05 7a ff 3c 39 48 2d 3d 3b 25 9b 3d
       0.04971925 0.031186113 0.042305205 0.075754605
0002d0 f0 c3 39 3d 33 17 a2 3d e2 8e a4 3d aa 26 91 3d
       0.045352876 0.07914581 0.08035065 0.07087453
0002e0 40 cc a1 3a ca 0c 56 3c 9e 19 76 3d 9a 33 d0 bd
       0.0012344196 0.013064573 0.060083024 -0.10166092
0002f0 e8 81 21 3c 93 de e4 bc 97 6e 9c 3c cf 66 0e 3c
       0.009857632 -0.027938163 0.019095702 0.008691504
000300 aa f8 35 3d 8a 9b 69 bd 22 a6 99 3c e8 a3 7e 3c
       0.044426598 -0.0570331 0.018755976 0.015542008
000310 b9 4d 88 3d d5 d4 0c bc f3 ab e4 bd b3 f9 3f bd
       0.066554494 -0.008595665 -0.11165609 -0.04686899
000320 12 88 01 be b8 83 d6 3d 27 c8 95 bd 77 3e 18 be
       -0.12649563 0.10474342 -0.07313567 -0.14867578
000330 9e cd 26 3e 0c 44 1e 3d 95 54 68 bd 55 5d a9 3d
       0.16289374 0.038639113 -0.05672129 0.08269755
000340 89 c5 29 3c ad e2 27 3d 05 ac a2 bd 47 02 5e 3e
       0.010362037 0.04098766 -0.07942966 0.21680556
000350 64 7e 4f bd 8d 47 3f 3d c3 a8 33 be 97 4d de 3d
       -0.050657645 0.046699096 -0.17544846 0.10854643
000360 fc c8 4b 3c 3e 96 63 bd 9c 22 e9 3d 2c 9f 03 3c
       0.012438055 -0.055563204 0.11383554 0.008033555
000370 bf 33 4b 3d f9 65 08 bd ac 7d 13 3e 50 ea 84 bc
       0.049609896 -0.033300374 0.14403409 -0.01622501
000380 50 86 8b bd 59 c3 02 3c fa ed 5b 3c 9b 47 44 bd
       -0.068127275 0.007981145 0.013423437 -0.04791985
000390 e1 47 6b bb 28 9f 7d bd a2 c8 d1 bd 33 82 50 3d
       -0.0035900997 -0.06191936 -0.10243346 0.050905418
0003a0 2d bf 0a bc 4e cb 9e bb 27 f9 f8 3d 72 c7 cf bc
       -0.008468431 -0.004846013 0.12156897 -0.025363658
0003b0 8a 56 81 3d 1a 25 45 bd 49 03 a0 3d eb 50 39 3e
       0.06315334 -0.048131086 0.078131266 0.18097274
0003c0 89 c0 9c bd 84 ba b7 39 f7 51 f1 3c d1 7a 00 3e
       -0.07653911 0.00035043445 0.02945803 0.1254685
0003d0 98 82 87 bd c5 c2 3a 3d f4 31 92 3d bf 27 90 3c
       -0.06616706 0.045595903 0.07138434 0.017597077
0003e0 40 6e 13 be 1d dc a2 3d 5c 1d 03 bd 3d c4 b0 3d
       -0.14397526 0.079521395 -0.03201042 0.086311795
0003f0 42 16 21 3d 9a d5 e7 3c a3 42 0a 3d c9 b8 de 3b
       0.039327867 0.028300095 0.033754956 0.0067969305

network_body._body_endoder.seq_layers.0.bias f4 [128]
000000 00 00 00 00 00 00 00 00 00 00 00 00 00 00 00 00
       0.0 0.0 0.0 0.0
000010 00 00 00 00 00 00 00 00 00 00 00 00 00 00 00 00
       0.0 0.0 0.0 0.0
000020 00 00 00 00 00 00 00 00 00 00 00 00 00 00 00 00
       0.0 0.0 0.0 0.0
000030 00 00 00 00 00 00 00 00 00 00 00 00 00 00 00 00
       0.0 0.0 0.0 0.0
000040 00 00 00 00 00 00 00 00 00 00 00 00 00 00 00 00
       0.0 0.0 0.0 0.0
000050 00 00 00 00 00 00 00 00 00 00 00 00 00 00 00 00
       0.0 0.0 0.0 0.0
000060 00 00 00 00 00 00 00 00 00 00 00 00 00 00 00 00
       0.0 0.0 0.0 0.0
000070 00 00 00 00 00 00 00 00 00 00 00 00 00 00 00 00
       0.0 0.0 0.0 0.0
000080 00 00 00 00 00 00 00 00 00 00 00 00 00 00 00 00
       0.0 0.0 0.0 0.0
000090 00 00 00 00 00 00 00 00 00 00 00 00 00 00 00 00
       0.0 0.0 0.0 0.0
0000a0 00 00 00 00 00 00 00 00 00 00 00 00 00 00 00 00
       0.0 0.0 0.0 0.0
0000b0 00 00 00 00 00 00 00 00 00 00 00 00 00 00 00 00
       0.0 0.0 0.0 0.0
0000c0 00 00 00 00 00 00 00 00 00 00 00 00 00 00 00 00
       0.0 0.0 0.0 0.0
0000d0 00 00 00 00 00 00 00 00 00 00 00 00 00 00 00 00
       0.0 0.0 0.0 0.0
0000e0 00 00 00 00 00 00 00 00 00 00 00 00 00 00 00 00
       0.0 0.0 0.0 0.0
0000f0 00 00 00 00 00 00 00 00 00 00 00 00 00 00 00 00
       0.0 0.0 0.0 0.0
000100 00 00 00 00 00 00 00 00 00 00 00 00 00 00 00 00
       0.0 0.0 0.0 0.0
000110 00 00 00 00 00 00 00 00 00 00 00 00 00 00 00 00
       0.0 0.0 0.0 0.0
000120 00 00 00 00 00 00 00 00 00 00 00 00 00 00 00 00
       0.0 0.0 0.0 0.0
000130 00 00 00 00 00 00 00 00 00 00 00 00 00 00 00 00
       0.0 0.0 0.0 0.0
000140 00 00 00 00 00 00 00 00 00 00 00 00 00 00 00 00
       0.0 0.0 0.0 0.0
000150 00 00 00 00 00 00 00 00 00 00 00 00 00 00 00 00
       0.0 0.0 0.0 0.0
000160 00 00 00 00 00 00 00 00 00 00 00 00 00 00 00 00
       0.0 0.0 0.0 0.0
000170 00 00 00 00 00 00 00 00 00 00 00 00 00 00 00 00
       0.0 0.0 0.0 0.0
000180 00 00 00 00 00 00 00 00 00 00 00 00 00 00 00 00
       0.0 0.0 0.0 0.0
000190 00 00 00 00 00 00 00 00 00 00 00 00 00 00 00 00
       0.0 0.0 0.0 0.0
0001a0 00 00 00 00 00 00 00 00 00 00 00 00 00 00 00 00
       0.0 0.0 0.0 0.0
0001b0 00 00 00 00 00 00 00 00 00 00 00 00 00 00 00 00
       0.0 0.0 0.0 0.0
0001c0 00 00 00 00 00 00 00 00 00 00 00 00 00 00 00 00
       0.0 0.0 0.0 0.0
0001d0 00 00 00 00 00 00 00 00 00 00 00 00 00 00 00 00
       0.0 0.0 0.0 0.0
0001e0 00 00 00 00 00 00 00 00 00 00 00 00 00 00 00 00
       0.0 0.0 0.0 0.0
0001f0 00 00 00 00 00 00 00 00 00 00 00 00 00 00 00 00
       0.0 0.0 0.0 0.0

network_body._body_endoder.seq_layers.2.weight f4 [128, 128]
000000 c6 b1 e3 bd 15 46 06 3d 37 a7 e4 bc 68 89 21 3b
       -0.11117892 0.03278168 -0.027911766 0.002464855
000010 a4 0f 97 bd 7b cd ba 3b 01 2a e4 3d 62 d6 e8 bd
       -0.0737603 0.0057007647 0.11140824 -0.11369015
000020 5e a2 0a 3e df cd 20 bb 6f 84 5f be 44 cc 06 bd
       0.135385 -0.0024536771 -0.21827863 -0.032909647
000030 b2 2b 5a bc e5 e1 e0 bb 77 70 1b be 68 27 1a be
       -0.013316082 -0.006862866 -0.1517962 -0.15054095
000040 7a 72 ac 3d 9a 8b 81 bd 29 43 13 3c 8b 61 76 bc
       0.08420272 -0.06325455 0.00898818 -0.0150379045
000050 67 8e 66 bd 03 81 b0 bd bb 22 6c 3d 0c 0e 05 bd
       -0.05628815 -0.08618357 0.05765031 -0.0324841
000060 64 12 67 3c a0 43 d0 bc fc 70 9a 3d 8c b6 95 bd
       0.014103506 -0.025422871 0.07541081 -0.07310209
000070 0a 2d 91 bd 04 e5 7f 3d 52 b7 9a bd 03 e9 d4 3d
       -0.07088669 0.062474266 -0.07554497 0.10396006
000080 65 be 34 3e 55 7c 58 bd d2 e5 89 3d 4b f6 c0 bd
       0.17650755 -0.052852947 0.06733288 -0.09421977
000090 e5 0d 63 3d fa a6 2c 3e ec 6a 20 3e 15 40 93 3c
       0.055433173 0.16860572 0.15665787 0.017974893
0000a0 a5 d6 91 3d 2e 8e 0d be e0 cd 8e 3d 13 80 12 be
       0.07121018 -0.13823768 0.06972861 -0.14306669
0000b0 f8 74 5e bd 7d 9d f6 3c d4 1c 76 3c 63 a7 05 bd
       -0.05431077 0.030104393 0.015021522 -0.032630336
0000c0 73 66 38 bc 1e f8 09 bc 5b 1f 93 3d 03 6e 82 bd
       -0.011254895 -0.008420972 0.07183715 -0.06368639
0000d0 15 6a c5 3c 63 5a 09 bd 5e 47 d7 39 27 78 6f bd
       0.024098435 -0.033533465 0.00041061168 -0.058464196
0000e0 f5 51 12 3e 74 0d e6 bb 57 c7 b0 3d 3c 2f 7c be
       0.14289077 -0.0070206467 0.08631771 -0.24627393
0000f0 8e 38 89 bd d9 e3 25 be 41 a6 75 3b 05 d3 ff 3d
       -0.0670024 -0.16200198 0.0037483128 0.12491421
000100 7e f6 24 be e3 49 88 3b 74 7e 22 bb c9 4a d1 3c
       -0.16109654 0.0041591986 -0.002479461 0.025548356
000110 b2 f9 a2 bc 03 3a 8d bd 94 ef 85 bd 83 e2 12 3d
       -0.019894455 -0.068958305 -0.065398365 0.03586055
000120 81 06 7f be d3 f4 9c 3d ad 10 7c bd 32 31 c2 3d
       -0.24904825 0.07663884 -0.06153934 0.094820395
000130 86 11 a7 bd 67 9e 89 3d cd e1 26 be 1a 86 ad 3d
       -0.08157639 0.06719666 -0.16297074 0.084728435
000140 91 db b9 3d 61 0f 89 bd 35 25 05 3e 14 55 d5 bc
       0.09075082 -0.066923864 0.13002475 -0.026041545
000150 a4 dd 2c 3d 8f da 38 bd 2f 95 5c bd 5e 59 cd 3d
       0.04220356 -0.04513031 -0.05385321 0.10026811
000160 09 3b a3 bc 3b a3 22 3d a6 f1 30 3e 8d 69 09 bc
       -0.019925611 0.03970645 0.17279682 -0.008386982
000170 12 38 8e bd a6 15 88 bd d1 b5 fe 3d a1 f0 11 3d
       -0.06944288 -0.06644754 0.124370225 0.035629872
000180 1e 69 21 3d 79 0f c4 3d b6 e7 68 be 64 01 13 bc
       0.03940689 0.09573264 -0.2274464 -0.0089724995
000190 95 f9 a4 3c cb 83 1f bd 56 31 74 3c 7b 97 b6 bd
       0.020138541 -0.038944047 0.014904341 -0.08915611
0001a0 8f 6b 71 bc ff 67 79 bd d5 1d ac 3c 54 22 60 3d
       -0.014735117 -0.060890194 0.021010319 0.054720238
0001b0 1e 84 dd bd d6 55 72 bd 96 0e d5 bc df 02 70 bd
       -0.10816215 -0.05916389 -0.026007932 -0.058596488
0001c0 a1 a5 8c bd 0c b4 26 3e 96 1f 27 3e 3e a3 ce 3d
       -0.06867529 0.1627962 0.16320643 0.1008973
0001d0 7a eb 9c bd 00 04 84 bd d6 e0 82 bc f4 3b 25 bd
       -0.07662101 -0.064460754 -0.01597635 -0.04034038
0001e0 02 da 0f be 2b 63 78 3d b4 1c 9b be 7e a4 1a 3d
       -0.14048007 0.06064145 -0.30295336 0.03775453
0001f0 f4 85 f1 3d 08 20 c2 bc bd 4c 80 3d b8 9a 82 3d
       0.11793128 -0.023696914 0.06264637 0.063771665
000200 98 64 e3 3b cd 40 3a bd 02 78 60 3c d8 74 92 3d
       0.006939482 -0.045471955 0.013700487 0.071511924
000210 4b ec dc bb 3f ee 53 bd ad 19 a4 bc c5 74 c5 3c
       -0.0067420355 -0.05174088 -0.020031774 0.024103532
000220 c8 70 86 bd 62 da 12 bd 99 c8 e4 bd b6 e1 71 3c
       -0.0656448 -0.035852797 -0.111710735 0.014763286
000230 6b c2 a7 3c ae 7b b9 bd 98 95 e7 bd b1 bc c4 3c
       0.020478448 -0.09056793 -0.113078296 0.024015756
000240 a4 8f 22 bd b8 3b 03 be e6 f9 3a bc a5 0d 6f bd
       -0.039687768 -0.1281575 -0.0114121195 -0.05836262
000250 d1 2d e6 bc b0 fc 3b bd 50 03 1b 3e ad 6a 3f bd
       -0.028098019 -0.04589528 0.15137982 -0.046732593
000260 a2 c5 16 bd dc 2a 3e 3b e1 6a 5e be c3 01 50 bd
       -0.03680957 0.0029017245 -0.21720459 -0.05078293
000270 34 c4 70 bd 16 9a 12 be e7 6c 84 be 29 1e 34 3c
       -0.058780864 -0.14316592 -0.25864336 0.010993519
000280 b1 92 b9 3d ea 89 68 3d 00 c2 22 be 94 47 72 3b
       0.09061182 0.05677215 -0.15894318 0.0036968933
000290 0e 74 10 3d d0 ce a0 bd a4 bd 7a 3d ba c3 00 3e
       0.03526693 -0.07851946 0.06121601 0.12574664
0002a0 57 34 0a 3e 66 13 09 bd 11 fc a4 3a bd ba 05 3c
       0.13496529 -0.033465765 0.0012587329 0.008162198
0002b0 bc 33 0e bd 10 86 2c be 1f 8f ad 3d 5e b9 cc bc
       -0.034717306 -0.16848016 0.08474564 -0.024990734
0002c0 49 f7 20 bc 2d 8b ff bd 7a fc 8a bb 65 4e 0b bd
       -0.009824582 -0.124777175 -0.0042415233 -0.03401031
0002d0 86 8c 13 3e 64 fe db 3d 38 8e 79 3d 08 fc 31 be
       0.14409074 0.107418805 0.060926646 -0.17381299
0002e0 bf 0a 89 3e 85 cf 85 bd 5e 23 09 be 56 ee 1a 3c
       0.2676601 -0.06533722 -0.13392398 0.009456238
0002f0 80 f5 41 3e 9a e7 8f 3c 0b d3 47 bb 6a 10 f9 bd
       0.18941307 0.01756649 -0.0030490782 -0.12161334
000300 78 c5 84 3d ee 13 36 3d a5 12 a4 bc a3 97 f4 bb
       0.06482977 0.0444526 -0.020028422 -0.0074643656
000310 b2 20 99 bc 57 5e b8 3d 1e 64 37 bd a9 7b 03 3e
       -0.018692348 0.09002369 -0.044773214 0.12840141
000320 38 19 2c 3d c9 b7 35 3d dd bc 8a 3d 09 c0 b6 bd
       0.042016238 0.044364724 0.06774304 -0.089233465
000330 60 04 c9 bc 2c cd 65 bd 33 85 0c bd 67 3f 18 3e
       -0.024538219 -0.05610387 -0.034306716 0.14867936
000340 68 4e 35 bd 4a e1 93 3d b8 c2 ed bd 57 e5 07 bd
       -0.044264227 0.07220705 -0.11609405 -0.0331777
000350 0f e3 e3 3d 86 17 22 be 47 47 84 3d 60 71 a1 3d
       0.11127292 -0.15829286 0.064589076 0.07882953
000360 c7 65 b4 3d 2f 34 9d 3d 66 8f 25 bd 9f 82 5d bc
       0.08808475 0.07675969 -0.04041996 -0.013519912
000370 73 b6 ab bd 2d 63 55 bd bd 41 4a bd 46 f1 12 3e
       -0.08384409 -0.052096535 -0.0493791 0.14349851
000380 e0 52 30 bd 63 7a 18 3d 47 a1 12 bd 8b 20 cd bd
       -0.043047786 0.037226092 -0.035798337 -0.10015973
000390 1f b8 11 be d6 53 89 3c 87 4d f0 bd 8d 94 89 3d
       -0.14230393 0.016763609 -0.11733537 0.06717787
0003a0 15 04 2e bd 05 46 0e be 47 dc b4 bd 69 36 23 bc
       -0.04248436 -0.13893898 -0.08831077 -0.009961703
0003b0 8c 2b cb 3d a1 15 a2 bc 63 f0 ed bc 7a ba 01 3c
       0.09920415 -0.019785704 -0.02904529 0.007917995
0003c0 1e 1d 21 3e 29 0f 73 bd 7f c5 20 bd fd 92 73 3d
       0.15733764 -0.05934063 -0.039250847 0.05946635
0003d0 15 4e 42 3e d7 a9 7d bc 88 47 01 3e de a4 01 3e
       0.18975098 -0.0154823875 0.12624943 0.12660548
0003e0 5a e6 b1 3d 69 33 1b bd 5e bd f6 3d 89 1c 3b bd
       0.08686514 -0.037890825 0.12047838 -0.04568151
0003f0 bf c9 ed 3d 85 54 55 3c 93 c1 84 3d e9 6d 38 be
       0.11610746 0.013020639 0.06482234 -0.18010677

network_body._body_endoder.seq_layers.2.bias f4 [128]
000000 00 00 00 00 00 00 00 00 00 00 00 00 00 00 00 00
       0.0 0.0 0.0 0.0
000010 00 00 00 00 00 00 00 00 00 00 00 00 00 00 00 00
       0.0 0.0 0.0 0.0
000020 00 00 00 00 00 00 00 00 00 00 00 00 00 00 00 00
       0.0 0.0 0.0 0.0
000030 00 00 00 00 00 00 00 00 00 00 00 00 00 00 00 00
       0.0 0.0 0.0 0.0
000040 00 00 00 00 00 00 00 00 00 00 00 00 00 00 00 00
       0.0 0.0 0.0 0.0
000050 00 00 00 00 00 00 00 00 00 00 00 00 00 00 00 00
       0.0 0.0 0.0 0.0
000060 00 00 00 00 00 00 00 00 00 00 00 00 00 00 00 00
       0.0 0.0 0.0 0.0
000070 00 00 00 00 00 00 00 00 00 00 00 00 00 00 00 00
       0.0 0.0 0.0 0.0
000080 00 00 00 00 00 00 00 00 00 00 00 00 00 00 00 00
       0.0 0.0 0.0 0.0
000090 00 00 00 00 00 00 00 00 00 00 00 00 00 00 00 00
       0.0 0.0 0.0 0.0
0000a0 00 00 00 00 00 00 00 00 00 00 00 00 00 00 00 00
       0.0 0.0 0.0 0.0
0000b0 00 00 00 00 00 00 00 00 00 00 00 00 00 00 00 00
       0.0 0.0 0.0 0.0
0000c0 00 00 00 00 00 00 00 00 00 00 00 00 00 00 00 00
       0.0 0.0 0.0 0.0
0000d0 00 00 00 00 00 00 00 00 00 00 00 00 00 00 00 00
       0.0 0.0 0.0 0.0
0000e0 00 00 00 00 00 00 00 00 00 00 00 00 00 00 00 00
       0.0 0.0 0.0 0.0
0000f0 00 00 00 00 00 00 00 00 00 00 00 00 00 00 00 00
       0.0 0.0 0.0 0.0
000100 00 00 00 00 00 00 00 00 00 00 00 00 00 00 00 00
       0.0 0.0 0.0 0.0
000110 00 00 00 00 00 00 00 00 00 00 00 00 00 00 00 00
       0.0 0.0 0.0 0.0
000120 00 00 00 00 00 00 00 00 00 00 00 00 00 00 00 00
       0.0 0.0 0.0 0.0
000130 00 00 00 00 00 00 00 00 00 00 00 00 00 00 00 00
       0.0 0.0 0.0 0.0
000140 00 00 00 00 00 00 00 00 00 00 00 00 00 00 00 00
       0.0 0.0 0.0 0.0
000150 00 00 00 00 00 00 00 00 00 00 00 00 00 00 00 00
       0.0 0.0 0.0 0.0
000160 00 00 00 00 00 00 00 00 00 00 00 00 00 00 00 00
       0.0 0.0 0.0 0.0
000170 00 00 00 00 00 00 00 00 00 00 00 00 00 00 00 00
       0.0 0.0 0.0 0.0
000180 00 00 00 00 00 00 00 00 00 00 00 00 00 00 00 00
       0.0 0.0 0.0 0.0
000190 00 00 00 00 00 00 00 00 00 00 00 00 00 00 00 00
       0.0 0.0 0.0 0.0
0001a0 00 00 00 00 00 00 00 00 00 00 00 00 00 00 00 00
       0.0 0.0 0.0 0.0
0001b0 00 00 00 00 00 00 00 00 00 00 00 00 00 00 00 00
       0.0 0.0 0.0 0.0
0001c0 00 00 00 00 00 00 00 00 00 00 00 00 00 00 00 00
       0.0 0.0 0.0 0.0
0001d0 00 00 00 00 00 00 00 00 00 00 00 00 00 00 00 00
       0.0 0.0 0.0 0.0
0001e0 00 00 00 00 00 00 00 00 00 00 00 00 00 00 00 00
       0.0 0.0 0.0 0.0
0001f0 00 00 00 00 00 00 00 00 00 00 00 00 00 00 00 00
       0.0 0.0 0.0 0.0

action_model._discrete_distribution.branches.0.weight f4 [7, 128]
000000 98 d9 26 bc d5 71 35 3a ff f1 2a bb d3 ce fc ba
       -0.010183714 0.00069215643 -0.0026084182 -0.0019287713
000010 70 90 e5 ba 3f 3e 0a 3c 22 10 b3 3b 3f e1 c6 bb
       -0.0017514359 0.008437692 0.0054645697 -0.006069332
000020 ba 67 94 3c 24 3b 2b bb 67 18 d8 bb cd 91 d2 3b
       0.018115867 -0.002612778 -0.006594706 0.006426072
000030 d1 f6 96 3b c0 80 7c bc f2 93 ed bb 6a 0c 93 bb
       0.0046070595 -0.015411556 -0.0072503025 -0.004487564
000040 54 f1 8c bc 7e d1 11 3c 4b dc 15 bb 78 5d 46 3a
       -0.017204918 0.0089000445 -0.00228669 0.00075670285
000050 1b 20 87 bc 77 df 2e 3a ab b9 53 3c a7 89 53 bc
       -0.016494801 0.0006670872 0.012922685 -0.012911237
000060 3b 31 94 3c 77 61 76 bb 03 8b a9 bb 52 cc 0a 3c
       0.018089881 -0.0037594715 -0.005174042 0.008471565
000070 4d 50 a0 bb d3 4b 5b 3b 63 0d 73 bb 4a f7 08 3c
       -0.004892385 0.0033461943 -0.0037086837 0.00835974
000080 6d 3b 1e 3c 09 9e bd 3b 72 6e 66 3c ff ab c4 bb
       0.009657723 0.0057866615 0.014064418 -0.006001949
000090 94 1b 2e bc 81 2c 9c ba fa cd d2 bb 14 64 1f bc
       -0.010626692 -0.0011915119 -0.0064332457 -0.00972845
0000a0 ad 85 f8 39 39 4e 18 bc 0c 10 1a bc 91 b5 15 3c
       0.00047401842 -0.0092959935 -0.00940324 0.009137527
0000b0 13 9a c0 3b b5 3c 85 3b 31 cb 85 bb 8d 4a 9b 3a
       0.005877742 0.0040660747 -0.00408306 0.0011847779
0000c0 d7 27 1a ba d5 a7 ab ba fb 6a 60 3b dd a0 d3 38
       -0.00058805704 -0.0013096282 0.0034243453 0.00010091227
0000d0 a8 a0 f7 3b 8f 8e 33 b9 0e cc 1e ba 07 73 01 3c
       0.0075569935 -0.00017123877 -0.0006057628 0.00790096
0000e0 9c 66 30 3c 36 61 13 bb 52 d1 ef bb 6a 50 a2 3b
       0.0107666515 -0.0022488362 -0.007318654 0.0049534338
0000f0 bf 0f 78 3b 8b f9 c0 bb 02 e6 cf 39 8a dc 1e bc
       0.0037851182 -0.005889123 0.00039653486 -0.009696135
000100 af e7 ef bb e8 e6 0f ba ca f7 b1 3b 6d 35 1a 3b
       -0.00732132 -0.0005489425 0.00543115 0.002353038
000110 bf 90 e5 bb 9d ec 5a 3c f3 a5 26 bb 40 80 d3 3b
       -0.0070057805 0.013362077 -0.0025428503 0.0064544976
000120 32 3f c2 3b a2 c8 82 bb 0c 35 82 ba 7f 07 d2 bb
       0.0059279436 -0.0039912025 -0.0009934022 -0.006409585
000130 a7 65 44 3c 1e fb 8b 3b 5a fd 38 bb 47 07 41 3b
       0.011987126 0.004271879 -0.0028227181 0.00294538
000140 80 3c ea 3b 12 42 bb ba 97 00 45 3c d5 ee 36 3c
       0.0071483254 -0.0014286658 0.012024066 0.01116534
000150 6e 51 28 bc 34 c1 ac 3b 70 c0 4a 3a 93 f5 67 ba
       -0.010273321 0.005272055 0.0007734364 -0.0008848544
000160 85 72 70 bb 90 a2 e2 3b aa e7 dd ba d0 1d d5 3b
       -0.0036689353 0.0069163516 -0.0016930003 0.006503798
000170 ef 30 ed 3b 40 ea 0b bc f5 53 d7 ba 6d 39 6f 3b
       0.0072384994 -0.008539736 -0.0016428219 0.0036502734
000180 33 fc b2 bc 91 68 1c bc 0d 3d d5 3a a0 8f 53 bc
       -0.021848774 -0.009546415 0.0016268805 -0.012912661
000190 42 58 08 bb 42 4e 14 3c b3 72 ee 3a 1c ee af bb
       -0.002080456 0.009051861 0.0018192142 -0.005368961
0001a0 3a 10 23 3b 8b 37 4b 3b 25 c8 26 3c ce 2a 0a bc
       0.0024881498 0.0031008448 0.010179554 -0.008433057
0001b0 cb 4d a9 3b 9b b9 53 bb 80 39 6f 3c 7f 90 4c bb
       0.0051667443 -0.0032306674 0.014601111 -0.0031214056
0001c0 6b 0a 62 bc 97 6c 21 3c d4 69 84 bb e5 e8 8d bc
       -0.013796429 0.00985255 -0.004040936 -0.017322967
0001d0 ab 77 0c bc c5 e4 75 bc 3b b4 b7 3b 89 04 cb ba
       -0.008573453 -0.015008156 0.005606202 -0.0015489022
0001e0 f7 9b 94 3b da d5 64 bc 77 6f aa 3b d2 b5 e0 3a
       0.004535194 -0.013967002 0.005201276 0.001714403
0001f0 92 03 5a bb 21 fb b0 bc e8 0e 4a bb cf d2 c6 bb
       -0.0033266288 -0.021604123 -0.0030831639 -0.006067611
000200 d0 95 e8 3a d3 72 a1 3b 7a 2c 8b bb d0 45 6f 3c
       0.0017744843 0.004927018 -0.0042472454 0.014604047
000210 57 5c 8b bb 09 95 0d ba 0f 1e b0 3b d7 7b 6a bb
       -0.004252951 -0.0005400931 0.005374677 -0.003577938
000220 37 3a dd b9 8e 54 00 bc b5 a4 75 3b 21 a0 aa 3b
       -0.00042195778 -0.007832659 0.0037482206 0.005207077
000230 2f ce 22 bc aa c5 f0 3b 57 3a e4 bb 9c 3c 13 bc
       -0.009936853 0.007347782 -0.0069649625 -0.008986618
000240 cb 09 14 3b 28 ad c7 ba 57 26 74 3b e1 63 0c 3c
       0.0022588845 -0.00152341 0.0037254298 0.008568735
000250 f3 2c e1 3b 40 fb 7d 3b 4b 3a a6 3c e3 af 91 37
       0.0068718134 0.0038754493 0.020291468 1.736725e-05
000260 bf 1b 92 3c b5 ae 10 bc e7 a5 16 3c 66 13 2a bc
       0.017835496 -0.008830716 0.009194828 -0.0103806015
000270 ed f8 61 bb 4d 71 01 3b eb a2 83 3c ba 4a 94 bc
       -0.0034480647 0.001975137 0.016068896 -0.018102039
000280 cb cb 2b 3c 7a 7b b5 3a 7a 7f 75 bc 98 73 7a ba
       0.0104856 0.0013846003 -0.014984006 -0.0009553968
000290 1d ff 6f bb 8b 76 d0 3b 90 cc e0 bc 63 3c 24 bb
       -0.0036620565 0.0063617877 -0.027441293 -0.0025060407
0002a0 d0 0b 69 ba 2f 9c 5e bc 92 84 6d ba cb d1 57 3b
       -0.0008890005 -0.013587042 -0.0009060587 0.0032931443
0002b0 3f bd 80 3c 00 b6 ed bb 19 2f 0d 3b 32 3c 43 3c
       0.01571524 -0.007254362 0.0021542965 0.011916207
0002c0 02 d0 36 3b 8b cb dd bb a9 de 0b bc ab 2a c1 3a
       0.0027894978 -0.006768649 -0.008536973 0.0014737447
0002d0 fd a0 e6 3b 4d cf e0 bb 93 f9 1d bb f2 bc 9b ba
       0.0070382343 -0.0068606497 -0.0024105057 -0.0011881872
0002e0 7a 45 08 bb 7f 14 8a bc cd c3 6d 3a d3 86 ab 3b
       -0.0020793364 -0.016855476 0.0009070009 0.005234578
0002f0 09 d0 36 bb a8 cf 7d 3b 7f a4 87 3b 9d c7 d4 bb
       -0.0027894995 0.003872851 0.0041394825 -0.0064935223
000300 29 61 1c bc 75 49 ff bb e8 5a 45 3b 8e 18 00 3b
       -0.009544649 -0.007790739 0.0030113999 0.0019545886
000310 a2 57 18 ba 55 a0 fc bb ff ad 21 bc 06 2e 27 bb
       -0.0005811398 -0.0077095428 -0.009868144 -0.002550961
000320 34 b9 92 ba eb 58 24 3c 00 ff fd 3b 43 f9 e8 bb
       -0.0011194111 0.010030965 0.0077513456 -0.0071097924
000330 d7 58 cc 3b 24 2b 16 3b a5 a8 62 3a c2 38 a6 bb
       0.0062361765 0.0022913897 0.0008646346 -0.005072684
000340 da c5 5a bc f4 0e 30 3c c7 6d 0c 3a b7 f0 80 3a
       -0.013352836 0.010745753 0.0005356934 0.0009837364
000350 43 a0 47 3b bf c8 9a 3c c8 7e 0f bc e5 84 f9 bb
       0.0030460514 0.018894551 -0.008758254 -0.007614719
000360 94 d1 89 bc 94 c5 45 bc 7e 1c 01 3c 1c 92 c4 bb
       -0.016823567 -0.012071032 0.007880328 -0.005998863
000370 bf ee a8 3b 75 89 3b 3c e5 34 48 bb 43 28 11 3c
       0.005155414 0.0114463465 -0.0030549106 0.008859697
000380 bb 61 27 3b d7 50 a9 39 f7 a0 22 3c 37 d2 7d 3c
       0.002554043 0.00032294422 0.009926072 0.015492014
000390 5b e3 de 3c b3 49 82 3a fa 6a c2 3b 42 b1 f0 3a
       0.02720802 0.0009940177 0.0059331628 0.0018363374
0003a0 f5 3c d1 bb 47 26 1d bc 4d 06 db 3b fd a7 79 3b
       -0.0063854405 -0.009591646 0.0066841007 0.0038094514
0003b0 ef 26 82 3b 70 1d 6e 3c 51 f3 99 3c 22 52 93 3b
       0.0039719264 0.014533386 0.01879278 0.004495875
0003c0 48 88 b1 bb c8 63 ce ba eb 42 8c ba 33 dc 0c 3c
       -0.0054178573 -0.001574629 -0.0010701095 0.008597421
0003d0 30 cf 2f bc 8d 2e 71 bb 16 77 3f 3c 63 39 83 3b
       -0.01073055 -0.0036801428 0.011686107 0.0040046438
0003e0 8f 64 01 3c a7 c8 2c bb 36 8c 87 ba 03 37 b7 3b
       0.00789751 -0.0026364715 -0.0010341469 0.0055912747
0003f0 17 02 df 3b 20 a2 f2 3b bb 82 13 bc ab e1 54 bc
       0.006805669 0.0074045807 -0.009003337 -0.012993257

action_model._discrete_distribution.branches.0.bias f4 [7]
000000 00 00 00 00 00 00 00 00 00 00 00 00 00 00 00 00
       0.0 0.0 0.0 0.0
000010 00 00 00 00 00 00 00 00 00 00 00 00
       0.0 0.0 0.0

network_body._body_endoder.seq_layers.0.weight f4 [128, 159]
000000 12 65 cd 3d e1 b1 a2 bd 4e e9 8a bd b9 66 80 bd
       0.10029043 -0.07944084 -0.067827806 -0.06269593
000010 70 db 3c 3e 16 69 06 ba 61 2b 88 bd 85 71 ea 3c
       0.18443084 -0.00051273534 -0.06648899 0.028618583
000020 30 e6 8b 3d 04 c5 0d bd 28 8f 71 3d 4e a3 8d bc
       0.06831014 -0.034611717 0.058974415 -0.017289784
000030 1d b1 20 bd 15 88 be bd 0b 19 ae 3d 3a 83 e1 bc
       -0.03923141 -0.09303299 0.0850087 -0.027528394
000040 a0 ab 15 bd 13 fc 4f be 41 97 07 3d e3 4c ab bd
       -0.036540627 -0.20311002 0.03310323 -0.08364274
000050 ab 42 a0 3c 0f 61 08 bd 4b 15 17 be a0 9a bf bc
       0.01956304 -0.033295687 -0.14754216 -0.02338916
000060 06 5e 90 bd 43 e9 11 3d bc 6b 79 bd e9 11 e4 3c
       -0.070491835 0.035622846 -0.06089376 0.027840571
000070 4a b8 93 3c 8b 96 78 3d d4 57 a9 3d 36 3a 8b bd
       0.018032212 0.060690444 0.08268705 -0.06798212
000080 98 6c 57 3c 17 dc 9f bd 02 13 db 3d d5 27 06 3e
       0.013148449 -0.07805651 0.10696985 0.13101132
000090 33 9e c6 bc e3 6f 0c 3e f2 4f 4e bc e7 ce 14 3d
       -0.024245357 0.13714556 -0.012592303 0.03633013
0000a0 ce 26 84 3c d2 23 1c bc c9 9b 99 bd 97 04 ad b8
       0.016131785 -0.009530025 -0.07500417 -8.250138e-05
0000b0 d9 e0 4f bd 39 93 20 ba 20 92 53 3e cd 89 db 38
       -0.05075154 -0.00061254535 0.20661211 0.00010468401
0000c0 d9 33 5f 3d 16 c4 85 bd 0b 6c d5 bd 52 50 98 ba
       0.054492805 -0.06531541 -0.10420998 -0.0011620617
0000d0 2f 0e 6f bd 5e 78 bc 3d f9 91 c1 bc d8 6f b3 bd
       -0.058363136 0.09202646 -0.023629175 -0.08761567
0000e0 f6 3f 40 bc 39 10 e9 bd 0d 8b da 3d 35 82 23 be
       -0.0117339995 -0.11380047 0.10671053 -0.15967639
0000f0 d8 63 ea bd f1 fb d7 3b 7c d4 9d bd d2 32 2d be
       -0.11444825 0.006591313 -0.07706544 -0.16913918
000100 cb 35 45 bd d2 b3 03 bd c4 a2 82 bd b4 40 50 bd
       -0.048147004 -0.032153912 -0.06378701 -0.050842956
000110 56 b4 0d 3c 25 64 d5 3d b2 c8 5e be 0c f9 36 bd
       0.0086489525 0.10419492 -0.21756247 -0.044671103
000120 28 b6 4f bd 7f 18 c7 bc ae 87 6c 3d 76 0b e2 3c
       -0.050710827 -0.024303673 0.05774658 0.027593356
000130 8d b8 ba bc fb c2 ca 3d 48 90 1e 3e 41 d6 95 bd
       -0.022793079 0.09900471 0.15484726 -0.07316256
000140 f9 f7 b8 3d b9 a1 0f bc 54 67 d9 bb 1d dd cc 3d
       0.09031672 -0.008766585 -0.006634632 0.100031115
000150 02 c2 3f bd 3b bc 2b 3e 56 16 7d bc c5 3a 09 be
       -0.04681588 0.16771023 -0.01544722 -0.13401325
000160 ea f3 dd 3d bb 38 38 3d 89 36 09 3e a4 49 50 3c
       0.108375385 0.044975977 0.1339971 0.01271287
000170 92 a4 1b be bf 77 b3 bd 76 fe 98 bc 6d 16 08 bd
       -0.15199497 -0.08763074 -0.018676024 -0.033224512
000180 82 ea 1f bd b6 ec 01 bd b1 99 09 3d 65 f2 f2 3c
       -0.039042003 -0.031719886 0.033593837 0.029656598
000190 62 66 aa 3c fd fb cd 3c ed 3d a4 3d 25 65 d5 bd
       0.020800773 0.025144571 0.08019624 -0.104196824
0001a0 65 7d b3 bd 8d ff 96 3b 6e 45 3c 3e 03 4b 74 bd
       -0.087641515 0.0046081007 0.1838586 -0.05964185
0001b0 93 96 b8 bb f4 04 d4 bb bf 68 52 bc ce 7c 32 bd
       -0.005633184 -0.006470317 -0.012842356 -0.043576054
0001c0 eb 6c 9c bc d4 45 34 3e 5a bb bd 3d a4 31 2d be
       -0.019094905 0.17604762 0.0926425 -0.16913468
0001d0 cd 16 80 3c 39 d4 e9 3d 4f b2 a4 3d 1b d7 cf 3d
       0.015635872 0.114174314 0.08041822 0.1014845
0001e0 6e 09 f8 bb 5b 8b 9c 3c 0c 28 09 3e 57 41 06 3d
       -0.0075694835 0.019109419 0.13394183 0.032777157
0001f0 6f e3 04 bc a4 e8 31 3d f4 c6 27 bd 9f 8f dc 3a
       -0.008110865 0.043434754 -0.04096122 0.001682747
000200 fb 52 92 bd d4 52 90 bd 46 e5 cc bc 14 b0 8d bd
       -0.071447335 -0.07047048 -0.02501167 -0.0691835
000210 bf 3f 0d 3e 96 76 ae bd fb f2 cd bc c2 cd e2 bc
       0.13793848 -0.08518712 -0.025140276 -0.027686004
000220 01 8c fc bb d6 02 8e bc c6 48 00 3e ef 4e ce 3c
       -0.0077071195 -0.017335337 0.12527761 0.025184123
000230 c3 fb 52 bd 1e 92 11 3e 41 58 8d bc e6 a5 ec bc
       -0.05150963 0.14215896 -0.017253997 -0.0288877
000240 ac 5b 53 bd 61 47 ea bc 75 bf bb b9 28 2c b7 bc
       -0.051601097 -0.02859849 -0.00035810066 -0.022359923
000250 01 43 94 3d c0 64 fc bd e7 0f d9 3d 33 ef 1e 3e
       0.072393425 -0.12323904 0.10598736 0.15520935
000260 88 57 1e 3d a4 29 a9 3d 1b f8 c3 bc d7 78 07 3e
       0.038657695 0.082598954 -0.023922017 0.1322969
000270 5e 7a 28 3d 80 97 bb bd 67 8b 40 bd 53 a1 27 bc
       0.041132323 -0.09159756 -0.047007944 -0.010231334
000280 7e ed dd 3d 17 fa 93 bd 03 22 13 bd 6a a1 fd bb
       0.10836314 -0.07225435 -0.035921108 -0.0077401893
000290 fc 2b 90 bd 15 57 69 bc a7 f9 84 3c 44 1d 4f be
       -0.07039639 -0.014241953 0.016232325 -0.20226008
0002a0 76 fb 7e 3d b1 9f cd bd ff b1 64 3d 21 ff a7 bd
       0.06225153 -0.10040224 0.055833813 -0.08202959
0002b0 02 dc 8e 3d fa 8d d7 bc 44 34 e1 bc ee 4e 5c 3d
       0.06975557 -0.026312817 -0.027490743 0.05378621
0002c0 ce 86 d0 bd c9 58 0d bb 77 20 0b 3e 82 9e e1 3b
       -0.10181962 -0.0021567813 0.13586603 0.0068853507
0002d0 a6 d7 de 3d f4 e8 1c 3d fa fa 35 bc 1c 0d 99 3d
       0.108809754 0.0383081 -0.011107201 0.074732035
0002e0 52 1f 53 3d 1a 1b d9 3d 49 8b c2 bc 9c 47 10 3d
       0.05154354 0.10600872 -0.023748057 0.035224542
0002f0 d0 78 47 bd b3 bf 71 bd fb 76 85 bc 5f 0c cf bd
       -0.0486992 -0.05902071 -0.016292086 -0.101097815
000300 02 8c 90 3d a4 c3 92 3d 19 a8 f2 bd 5d f0 50 3d
       0.07057954 0.07166222 -0.11848468 0.05101048
000310 fa b8 b9 bd 28 7c 50 3c 6e 2a 8b bd 38 c4 9b bd
       -0.090684846 0.012724914 -0.06795202 -0.07605785
000320 b3 23 e7 bc f9 b5 1b 3d 9c 36 49 3d d1 e4 18 bd
       -0.028215265 0.03801534 0.049124345 -0.03732759
000330 08 f4 2f be de 1d a5 3b 1d 84 b7 3d 9e ed 7a bc
       -0.17182934 0.005038961 0.089607455 -0.015315441
000340 13 c0 5e 3d 08 c2 1d 3d 43 93 63 3d a9 83 9b 3a
       0.054382395 0.03851512 0.05556036 0.0011864799
000350 2c c8 5d 3c d0 7e e7 3b 45 a9 9b bc bf 17 c3 3c
       0.013536494 0.007064678 -0.019001612 0.023815034
000360 5c 8d dd 3c d7 ea 6e be e4 89 bd bd 07 7e 24 bd
       0.027044944 -0.23331772 -0.09254816 -0.04015925
000370 92 b7 75 3c f0 99 d8 bd a2 88 67 bd ff fb c3 bd
       0.01499738 -0.10576236 -0.056526788 -0.09569549
000380 68 3a 23 bd e6 16 08 bd 62 65 c6 3c 57 8b b8 bd
       -0.039850622 -0.033224963 0.024218265 -0.09010952
000390 dd a1 3c bb 3f 0b a0 3d f3 46 3e bd 24 f4 c8 bd
       -0.0028783001 0.07814645 -0.04645438 -0.09812191
0003a0 83 18 86 3d e9 07 81 bd f1 80 13 be 26 d7 d7 bc
       0.06547644 -0.06300337 -0.14404656 -0.026347708
0003b0 82 01 b1 3d 1c a2 e8 3d 04 d3 80 3c 27 f3 6e 3d
       0.08642866 0.11359045 0.01572562 0.058337357
0003c0 4d 23 68 bd 0d 3f c8 bd 34 8a 3b 3e f5 ea 96 3d
       -0.05667429 -0.09777651 0.18314439 0.07369033
0003d0 65 92 21 3e bb 7c 4f 3d 7c 18 06 3e 2e 82 6b 3d
       0.15778501 0.05065606 0.13095278 0.057497196
0003e0 a6 e2 6b 3d 60 0e 90 bd ec 63 7f bd 90 f6 7d bd
       0.057589196 -0.07033992 -0.062351152 -0.06200272
0003f0 92 24 d2 3c c5 91 27 bd a5 f2 ae 3d ca f2 28 3e
       0.025652204 -0.0409105 0.085423745 0.16498867

network_body._body_endoder.seq_layers.0.bias f4 [128]
000000 00 00 00 00 00 00 00 00 00 00 00 00 00 00 00 00
       0.0 0.0 0.0 0.0
000010 00 00 00 00 00 00 00 00 00 00 00 00 00 00 00 00
       0.0 0.0 0.0 0.0
000020 00 00 00 00 00 00 00 00 00 00 00 00 00 00 00 00
       0.0 0.0 0.0 0.0
000030 00 00 00 00 00 00 00 00 00 00 00 00 00 00 00 00
       0.0 0.0 0.0 0.0
000040 00 00 00 00 00 00 00 00 00 00 00 00 00 00 00 00
       0.0 0.0 0.0 0.0
000050 00 00 00 00 00 00 00 00 00 00 00 00 00 00 00 00
       0.0 0.0 0.0 0.0
000060 00 00 00 00 00 00 00 00 00 00 00 00 00 00 00 00
       0.0 0.0 0.0 0.0
000070 00 00 00 00 00 00 00 00 00 00 00 00 00 00 00 00
       0.0 0.0 0.0 0.0
000080 00 00 00 00 00 00 00 00 00 00 00 00 00 00 00 00
       0.0 0.0 0.0 0.0
000090 00 00 00 00 00 00 00 00 00 00 00 00 00 00 00 00
       0.0 0.0 0.0 0.0
0000a0 00 00 00 00 00 00 00 00 00 00 00 00 00 00 00 00
       0.0 0.0 0.0 0.0
0000b0 00 00 00 00 00 00 00 00 00 00 00 00 00 00 00 00
       0.0 0.0 0.0 0.0
0000c0 00 00 00 00 00 00 00 00 00 00 00 00 00 00 00 00
       0.0 0.0 0.0 0.0
0000d0 00 00 00 00 00 00 00 00 00 00 00 00 00 00 00 00
       0.0 0.0 0.0 0.0
0000e0 00 00 00 00 00 00 00 00 00 00 00 00 00 00 00 00
       0.0 0.0 0.0 0.0
0000f0 00 00 00 00 00 00 00 00 00 00 00 00 00 00 00 00
       0.0 0.0 0.0 0.0
000100 00 00 00 00 00 00 00 00 00 00 00 00 00 00 00 00
       0.0 0.0 0.0 0.0
000110 00 00 00 00 00 00 00 00 00 00 00 00 00 00 00 00
       0.0 0.0 0.0 0.0
000120 00 00 00 00 00 00 00 00 00 00 00 00 00 00 00 00
       0.0 0.0 0.0 0.0
000130 00 00 00 00 00 00 00 00 00 00 00 00 00 00 00 00
       0.0 0.0 0.0 0.0
000140 00 00 00 00 00 00 00 00 00 00 00 00 00 00 00 00
       0.0 0.0 0.0 0.0
000150 00 00 00 00 00 00 00 00 00 00 00 00 00 00 00 00
       0.0 0.0 0.0 0.0
000160 00 00 00 00 00 00 00 00 00 00 00 00 00 00 00 00
       0.0 0.0 0.0 0.0
000170 00 00 00 00 00 00 00 00 00 00 00 00 00 00 00 00
       0.0 0.0 0.0 0.0
000180 00 00 00 00 00 00 00 00 00 00 00 00 00 00 00 00
       0.0 0.0 0.0 0.0
000190 00 00 00 00 00 00 00 00 00 00 00 00 00 00 00 00
       0.0 0.0 0.0 0.0
0001a0 00 00 00 00 00 00 00 00 00 00 00 00 00 00 00 00
       0.0 0.0 0.0 0.0
0001b0 00 00 00 00 00 00 00 00 00 00 00 00 00 00 00 00
       0.0 0.0 0.0 0.0
0001c0 00 00 00 00 00 00 00 00 00 00 00 00 00 00 00 00
       0.0 0.0 0.0 0.0
0001d0 00 00 00 00 00 00 00 00 00 00 00 00 00 00 00 00
       0.0 0.0 0.0 0.0
0001e0 00 00 00 00 00 00 00 00 00 00 00 00 00 00 00 00
       0.0 0.0 0.0 0.0
0001f0 00 00 00 00 00 00 00 00 00 00 00 00 00 00 00 00
       0.0 0.0 0.0 0.0

network_body._body_endoder.seq_layers.2.weight f4 [128, 128]
000000 00 a7 3a 3d f1 12 6c 3c 2a e5 f0 bd 2b aa d5 bd
       0.04556942 0.014408813 -0.117624596 -0.104328476
000010 9e 28 a3 3d d8 ea ae bd 0e c0 b3 3d c4 79 e5 bd
       0.079667315 -0.08540887 0.08776866 -0.112048656
000020 da 5b 07 bd 75 04 dd bd 1c d1 2b bd cf 78 20 be
       -0.03304658 -0.10791866 -0.04194747 -0.15671085
000030 43 d8 3e 3d e8 44 05 b8 95 ec 71 3d 54 6d eb 3c
       0.046592962 -3.1773845e-05 0.059063513 0.028738655
000040 0b b0 84 3a 4d ce cf 3d f6 e7 c1 3c 4d d7 80 3d
       0.0010123266 0.101467706 0.023670178 0.06291065
000050 3b 7b ba 3d a1 f6 b4 3d d9 d2 47 3b 40 6d 60 3d
       0.091055356 0.08836103 0.0030490665 0.05479169
000060 ad 78 ed bc 8c 06 ce bd 80 48 16 be e1 c0 48 3c
       -0.028988207 -0.100598425 -0.14676094 0.012253017
000070 61 39 3f be 37 35 af bd db b3 18 3d 02 c3 c1 bc
       -0.18674232 -0.08555072 0.0372809 -0.023652557
000080 cc 21 11 be 56 a8 5e 3d 2b 6f 01 3d f3 44 22 be
       -0.14173049 0.054359756 0.03160016 -0.15846615
000090 2d 40 1e bd 79 ed 16 3e 2d 0c 04 bd 12 5a 8a 3d
       -0.03863542 0.14739026 -0.032238174 0.06755461
0000a0 c6 e5 63 bd be a0 8f 3d ff fa 76 bd 18 ef e6 3d
       -0.05563905 0.07013081 -0.060297962 0.11276072
0000b0 2b 30 26 bc 3d ca 83 bd cf ce 11 3e bb f3 82 bd
       -0.01014332 -0.06435058 0.14239047 -0.06394144
0000c0 5d 9f a9 bc 21 ae ac bd f8 47 ad bd 19 1a de 3c
       -0.020705873 -0.0843165 -0.084609926 0.027112054
0000d0 1c 58 12 3e a1 af 99 3d 78 d1 38 bd da 07 55 be
       0.14291424 0.07504202 -0.04512164 -0.20803776
0000e0 67 5a 69 bb 3f 94 90 3d 7b ab 18 bd 95 c3 64 3d
       -0.0035606863 0.07059526 -0.03727291 0.055850584
0000f0 b4 7d 41 3d c3 a4 8f 3b 93 da b2 bd 5c 00 2c be
       0.04723902 0.004383655 -0.08733096 -0.16797012
000100 a6 e0 ef bc 26 c1 29 3d fd b8 45 3e 4d 58 86 3b
       -0.029281925 0.041443966 0.19308849 0.0040998817
000110 29 b5 2d bd 34 96 a2 3d 19 e5 bd 3c 1a 3b d0 3c
       -0.042409096 0.07938805 0.023180531 0.025418807
000120 90 0a 64 bc ec f7 66 3d 8a e5 fa 3d 27 9e ec 3c
       -0.013918534 0.05638878 0.12250812 0.028884007
000130 5f e7 e8 3d 4c 4a 30 3e ea 33 d1 3d 1c 51 8a bc
       0.113722555 0.17215842 0.1021498 -0.01688438
000140 ce a7 c2 3d 09 9c d7 bc ce 27 09 be 45 d7 ae 3d
       0.095046625 -0.02631952 -0.1339409 0.08537153
000150 88 9d ba 3d 80 c7 bf 3c 2c 97 12 bd 70 04 ad 3d
       0.09112078 0.023410559 -0.0357887 0.08448112
000160 ce 61 c9 3b 6e 7b 18 be af 14 e7 3d 26 2e 19 be
       0.0061456924 -0.14890835 0.11283242 -0.1495901
000170 5c 5a 86 3d cf 03 1f 3c 85 a4 84 bd b5 26 97 3d
       0.065602034 0.009705498 -0.06476692 0.0738043
000180 c9 02 e7 3d ce 30 a1 bc 20 19 d3 3d 55 68 b6 bd
       0.11279828 -0.019676592 0.103075266 -0.089066185
000190 6c b9 83 3d 1b fd 7a bd 6e ff a1 3c d7 7b 53 3d
       0.06431851 -0.061276536 0.019775119 0.051631775
0001a0 a1 35 37 3c 83 d7 20 3d 7c 73 8b bc e3 43 9b bd
       0.01118222 0.039268028 -0.01702284 -0.07581308
0001b0 5d f7 85 3d 07 f1 fa 3d f8 2c a5 bc b4 81 a8 3d
       0.065413214 0.122530036 -0.020163044 0.08227864
0001c0 16 b2 de bd 28 7d 24 3d b3 76 87 bd 3d 69 11 bd
       -0.10873811 0.04015842 -0.06614437 -0.035500754
0001d0 59 38 70 be 69 9a bc bd e2 c6 dd 3d 78 64 73 3c
       -0.23458995 -0.09209139 0.108289495 0.014855497
0001e0 b7 be 13 3d e1 af c4 bd a4 54 f2 3c 4e 15 59 3e
       0.03607055 -0.09603859 0.029581375 0.21199533
0001f0 b4 b7 8f bc 5d 70 08 bd 80 fc fa 3b 89 85 26 bd
       -0.017543651 -0.033310283 0.007659495 -0.040654693
000200 99 3a 2e bd fb cb 46 bd 8e 1a ba bb ef e5 cf bd
       -0.04253635 -0.048534375 -0.005679435 -0.10151278
000210 18 fb b0 bd 79 2c e4 bd 83 70 06 be ca 81 41 3d
       -0.08641642 -0.11141295 -0.13128857 0.047242917
000220 d1 dd 0c bc e5 f3 67 3d 77 b1 e7 3d 60 01 8a bd
       -0.008597807 0.05662908 0.113131456 -0.067385435
000230 53 07 93 bc 3d d6 8b bd aa 49 5f bd ea fc c4 3b
       -0.017947828 -0.06827972 -0.05451361 0.006011595
000240 fb 00 92 3d 21 d1 ce 3d 78 ad 85 bc 45 32 db 3c
       0.07129093 0.10098482 -0.016318068 0.026757369
000250 1c f9 44 3e af b2 d3 3d f7 ac 0c be ad cb 7f 3c
       0.19235653 0.103368156 -0.13737856 0.015612525
000260 ca 65 60 3d 55 ef 3f be cf 8b b9 ba b9 20 ef bd
       0.054784574 -0.18743642 -0.0014156046 -0.11676163
000270 a4 a0 bf bc d5 f2 77 bd a4 a4 e0 3c 93 24 a8 bd
       -0.02339203 -0.060534317 0.027422257 -0.08210101
000280 03 76 ac 3d 52 77 50 3d 36 26 61 3c 2a d6 a2 bc
       0.084209464 0.050895043 0.01374202 -0.019877512
000290 e9 eb 0b 3d b6 a9 99 bd 55 7c a9 3d 2e 89 2e 3c
       0.03416053 -0.07503073 0.082756676 0.010652823
0002a0 2b 70 e5 bc 88 47 5d bd 1d 07 04 bd 3f 9a bd 3d
       -0.028007587 -0.054023296 -0.032233346 0.09257936
0002b0 1e 33 7b ba 33 ee 3e 3c 4e e2 9c 3d 62 2a 9b 3d
       -0.0009582507 0.011653471 0.07660352 0.07576443
0002c0 56 f4 03 3d 18 ff 93 3d 62 6a 1d be 36 fe ca bd
       0.03221544 0.0722639 -0.15372613 -0.09911768
0002d0 20 5c 88 bd e8 75 62 3d fd 9c 5c be 8f 59 4f 3c
       -0.066581964 0.055288225 -0.21544261 0.01265563
0002e0 ef e0 0e 3e c1 3f b5 3c b5 41 1a 3e 53 23 2b bd
       0.13952993 0.022125127 0.15064128 -0.041781735
0002f0 d0 59 46 bd e8 63 1a bd ad bb 07 3c 87 3b 28 3d
       -0.048425496 -0.037692934 0.0082844915 0.041072395
000300 42 1a d5 3c 4c fe eb bd 0e df 62 3d bf 2e bc bd
       0.026013497 -0.11523113 0.055388503 -0.091886036
000310 54 a1 e7 bd aa 04 82 bd ab 7b 04 3e 04 bf 8a 3d
       -0.11310068 -0.06348546 0.129378 0.067747146
000320 c0 49 5c 3e f8 b3 ad bd eb 5c 28 bd a8 7c 30 bd
       0.21512508 -0.08481592 -0.04110424 -0.04308763
000330 d7 eb 92 3c c1 68 93 b9 54 51 bc bd 1a bc 85 bd
       0.017934723 -0.00028116073 -0.091951996 -0.06530018
000340 b0 13 42 bd 28 2a 4d 3c 22 3e cb 3c 3b e1 0e 3e
       -0.047382057 0.012522258 0.0248099 0.13953106
000350 36 a2 e0 bc 92 aa 80 bd ac ce 8a 3d d8 25 9c 3d
       -0.027421098 -0.06282534 0.06777701 0.076244056
000360 1c 6e 8b bc f5 cd 63 bd f6 60 dd bd 49 97 68 bd
       -0.017020278 -0.055616338 -0.108095095 -0.0567849
000370 5b d9 9a bd 23 e3 29 3d 9a 3f 15 3d 94 17 95 bd
       -0.075609885 0.04147638 0.03643761 -0.07279888
000380 78 93 09 be 57 3e 48 bd fe e4 b6 3d fd 5c 8e bc
       -0.13435161 -0.048887577 0.089303955 -0.017378325
000390 bc 06 a0 3d b5 6b 9e 3d cb 94 a2 bd 21 44 0c bd
       0.078137845 0.07735387 -0.07938536 -0.03424466
0003a0 36 85 b7 bd dc 95 22 bb fc 65 9f 3d c2 e2 a0 bc
       -0.08960955 -0.0024808561 0.07783124 -0.019639377
0003b0 c2 a2 77 3d df 41 dc 3d e0 b1 48 3d e2 c5 5d 3d
       0.060457952 0.107547514 0.04899776 0.054143794
0003c0 d9 a4 02 be 11 32 15 be ce a2 1c 3e 9a 0e fb bd
       -0.12758197 -0.1456988 0.1529648 -0.122586444
0003d0 a1 a9 a1 bd a1 4f 61 bd 12 67 0e bc c8 9f 0b 3e
       -0.07893682 -0.05500758 -0.008691566 0.1363517
0003e0 a5 41 79 bd b1 7b a6 bb 6c c3 50 3e 17 a3 8e bd
       -0.06085362 -0.005080663 0.20387048 -0.06964701
0003f0 dc 2d e9 3d 11 29 9f bd 9e ec 73 3d c0 1f 0c be
       0.113857 -0.07771505 0.059551828 -0.13683987

network_body._body_endoder.seq_layers.2.bias f4 [128]
000000 00 00 00 00 00 00 00 00 00 00 00 00 00 00 00 00
       0.0 0.0 0.0 0.0
000010 00 00 00 00 00 00 00 00 00 00 00 00 00 00 00 00
       0.0 0.0 0.0 0.0
000020 00 00 00 00 00 00 00 00 00 00 00 00 00 00 00 00
       0.0 0.0 0.0 0.0
000030 00 00 00 00 00 00 00 00 00 00 00 00 00 00 00 00
       0.0 0.0 0.0 0.0
000040 00 00 00 00 00 00 00 00 00 00 00 00 00 00 00 00
       0.0 0.0 0.0 0.0
000050 00 00 00 00 00 00 00 00 00 00 00 00 00 00 00 00
       0.0 0.0 0.0 0.0
000060 00 00 00 00 00 00 00 00 00 00 00 00 00 00 00 00
       0.0 0.0 0.0 0.0
000070 00 00 00 00 00 00 00 00 00 00 00 00 00 00 00 00
       0.0 0.0 0.0 0.0
000080 00 00 00 00 00 00 00 00 00 00 00 00 00 00 00 00
       0.0 0.0 0.0 0.0
000090 00 00 00 00 00 00 00 00 00 00 00 00 00 00 00 00
       0.0 0.0 0.0 0.0
0000a0 00 00 00 00 00 00 00 00 00 00 00 00 00 00 00 00
       0.0 0.0 0.0 0.0
0000b0 00 00 00 00 00 00 00 00 00 00 00 00 00 00 00 00
       0.0 0.0 0.0 0.0
0000c0 00 00 00 00 00 00 00 00 00 00 00 00 00 00 00 00
       0.0 0.0 0.0 0.0
0000d0 00 00 00 00 00 00 00 00 00 00 00 00 00 00 00 00
       0.0 0.0 0.0 0.0
0000e0 00 00 00 00 00 00 00 00 00 00 00 00 00 00 00 00
       0.0 0.0 0.0 0.0
0000f0 00 00 00 00 00 00 00 00 00 00 00 00 00 00 00 00
       0.0 0.0 0.0 0.0
000100 00 00 00 00 00 00 00 00 00 00 00 00 00 00 00 00
       0.0 0.0 0.0 0.0
000110 00 00 00 00 00 00 00 00 00 00 00 00 00 00 00 00
       0.0 0.0 0.0 0.0
000120 00 00 00 00 00 00 00 00 00 00 00 00 00 00 00 00
       0.0 0.0 0.0 0.0
000130 00 00 00 00 00 00 00 00 00 00 00 00 00 00 00 00
       0.0 0.0 0.0 0.0
000140 00 00 00 00 00 00 00 00 00 00 00 00 00 00 00 00
       0.0 0.0 0.0 0.0
000150 00 00 00 00 00 00 00 00 00 00 00 00 00 00 00 00
       0.0 0.0 0.0 0.0
000160 00 00 00 00 00 00 00 00 00 00 00 00 00 00 00 00
       0.0 0.0 0.0 0.0
000170 00 00 00 00 00 00 00 00 00 00 00 00 00 00 00 00
       0.0 0.0 0.0 0.0
000180 00 00 00 00 00 00 00 00 00 00 00 00 00 00 00 00
       0.0 0.0 0.0 0.0
000190 00 00 00 00 00 00 00 00 00 00 00 00 00 00 00 00
       0.0 0.0 0.0 0.0
0001a0 00 00 00 00 00 00 00 00 00 00 00 00 00 00 00 00
       0.0 0.0 0.0 0.0
0001b0 00 00 00 00 00 00 00 00 00 00 00 00 00 00 00 00
       0.0 0.0 0.0 0.0
0001c0 00 00 00 00 00 00 00 00 00 00 00 00 00 00 00 00
       0.0 0.0 0.0 0.0
0001d0 00 00 00 00 00 00 00 00 00 00 00 00 00 00 00 00
       0.0 0.0 0.0 0.0
0001e0 00 00 00 00 00 00 00 00 00 00 00 00 00 00 00 00
       0.0 0.0 0.0 0.0
0001f0 00 00 00 00 00 00 00 00 00 00 00 00 00 00 00 00
       0.0 0.0 0.0 0.0

value_heads.value_heads.extrinsic.weight f4 [1, 128]
000000 d8 a8 3a 3e 5e ce 94 bd 28 42 a6 3d b8 de fe 3d
       0.18228471 -0.07265924 0.08118087 0.12444824
000010 0c 79 9a 3d c8 4f 4e 3e b8 57 ec 3d 88 ce 9d 3d
       0.07542619 0.20147622 0.115401685 0.07705408
000020 38 65 32 3e 0a 4a 2a 3e 14 ed ea 3d 28 de 3a 3d
       0.17421424 0.16629806 0.11471 0.04562202
000030 14 31 26 be 98 8d 05 3e ac 04 06 bd 6e e1 37 3e
       -0.1622966 0.13042295 -0.0327193 0.17957088
000040 f8 83 83 bd 00 05 f1 ba e4 41 7e bd e0 26 c8 3d
       -0.064216554 -0.0018388331 -0.062074557 0.0977304
000050 ad cb 31 be 78 2b 20 be 18 74 df 3d ec 2c 8a bd
       -0.17362852 -0.15641582 0.10910815 -0.067468494
000060 60 e4 49 be b0 00 06 be 72 a8 c3 bd 28 d9 cd 3d
       -0.19716024 -0.130862 -0.09553613 0.10051185
000070 30 df 3a be 7e dd 15 be 0e ba 53 3e 00 26 74 bb
       -0.18249202 -0.14635274 0.20676443 -0.0037254095
000080 88 aa 22 be 6c e1 b8 3d a8 5d cd bc 2a 29 51 3e
       -0.15885365 0.09027371 -0.025069073 0.20425859
000090 b0 6c 9b 3c 80 3c c6 bb 32 55 4c be 08 75 cf 3d
       0.018972725 -0.0060496926 -0.19954374 0.10129744
0000a0 ba f4 3f 3e ac 9a b3 3d 88 81 64 3d f7 8b bb bd
       0.187457 0.08769736 0.055787593 -0.091575556
0000b0 94 ac d3 3d de ff 4e 3e 04 49 ab 3d 28 01 2b 3d
       0.10335651 0.20214793 0.08363536 0.04174915
0000c0 8a ce 42 3e 48 2d 8e bc 54 ac a9 3d 7f 5b d8 bd
       0.19024101 -0.017355576 0.08284822 -0.105643265
0000d0 a8 32 9e bc 32 21 47 3e 58 41 94 3d 40 47 be 3b
       -0.019311264 0.19446257 0.07239026 0.0058068335
0000e0 2e f1 10 3e 09 d4 4d be ae f9 8b bd 8a 80 e8 bd
       0.14154503 -0.20100416 -0.06834732 -0.11352642
0000f0 b4 b8 54 be 00 71 86 bb ac b4 72 bd b8 90 af 3d
       -0.20773584 -0.004102826 -0.059254333 0.08572525
000100 52 ba 14 3e d8 36 18 3d a4 13 37 be e9 55 ff bd
       0.145242 0.037161678 -0.17878586 -0.12467558
000110 18 cd e4 bc 8c aa ef 3d e0 bc cf bd 54 ab ec bd
       -0.027929828 0.11702451 -0.10143447 -0.11556116
000120 28 fa 97 bd ae c6 51 3e 4c a0 26 bd 0c 32 90 bd
       -0.074207604 0.20485947 -0.040680215 -0.07040796
000130 50 b0 7d 3c 30 25 1a 3d 6c 3e 1d 3e 18 55 2f bd
       0.015483931 0.03763312 0.15355843 -0.04280576
000140 98 82 86 bd fe 9f ff bd 48 22 a6 3c 20 7d 9d bd
       -0.065678775 -0.12481688 0.020280018 -0.07689881
000150 d6 b2 5a be 78 f7 42 3e 3c 89 04 be fa b4 36 3e
       -0.21357283 0.19039714 -0.12942976 0.17842475
000160 90 ce 6e 3d c8 ed 82 3d 00 dd fc 3d 20 d0 4a 3e
       0.058302462 0.063930094 0.1234684 0.19805956
000170 c4 18 9a 3d 3a 6e d1 bd 5c 1d 46 be 54 1b be 3d
       0.07524255 -0.10226102 -0.19347137 0.09282556
000180 88 2d 15 3d 88 70 ae 3d e0 62 4d 3e 3a e7 29 3e
       0.036420375 0.085175574 0.20057249 0.16592112
000190 14 3a f5 3d 6a d1 0f 3e 44 c1 a0 3d ef cf 58 be
       0.11973968 0.14044729 0.078493625 -0.2117307
0001a0 16 ec 39 be c0 22 75 3b 2c 27 37 bd dc 5a 02 be
       -0.18156466 0.0037404746 -0.04471509 -0.12729973
0001b0 5e 1a 1f be d8 9b 46 3d 38 99 3e be 10 89 28 3e
       -0.15537402 0.048488468 -0.18613136 0.16458535
0001c0 16 5f 0e 3e 68 28 db 3d a8 b9 df 3c 60 6c bb bb
       0.1390346 0.10701066 0.027310207 -0.0057197064
0001d0 b0 00 da 3c d4 38 b3 3d e5 9f 39 be 10 ae 93 3d
       0.026611656 0.087510735 -0.18127401 0.07210934
0001e0 16 60 45 be 20 3c 1a 3d 00 8f ca bc dc 9a f6 bd
       -0.19274935 0.037654996 -0.02472639 -0.12041256
0001f0 8c 6e 29 3e bc c5 50 3e 62 9c 5b 3e b0 a5 37 bd
       0.16546077 0.2038793 0.21446374 -0.044835746
